tests/gat/encoder-checkpoint15.pt (torch, 20210 bytes, 36 tensors)

gat_layer_0.attention_0.W f4 [5, 10]
00000000: 99a1 e8be db49 4fbf ba24 ce3e fb4a aabe
00000010: e819 00be a045 9f3e 8ac5 4d3f 4696 f5bd
00000020: fece 003f 3638 efbe 544c 4cbe 392b 213e
00000030: 89ab 8c3e 334e 5dbf 698c 55be f9d3 c63d
00000040: 3c45 29bf 57c0 09be d5b1 ccbe 9a11 9a3d
00000050: 557e 123e ca53 db3e da4a bd3e 529b f23e
00000060: d315 a2bd 426a c0be db98 d03e a5b4 423f
00000070: 780a bd3c 969e dabd d8bb eebe f7ec de3e
00000080: d0e5 1c3d 555a 03bf 45fb 86be 67c3 c53e
00000090: a187 66bf 651d 9d3e b4b0 473f eab9 59bf
000000a0: 4739 2f3f 15d1 39bf 0f11 743e e9c1 9c3e
000000b0: c00f 1ebe 84a0 503f 0905 29bd a82a 403f
000000c0: ad71 e33e 51d8 bbbe
-0.4543579 -0.8097207 0.40262395 -0.3326033 -0.12509882 0.31107807 0.80379546 -0.11991553
0.50315845 -0.46722573 -0.19950992 0.15739144 0.2747462 -0.8644745 -0.20854343 0.09708399
-0.6612127 -0.13452278 -0.39979425 0.075228885 0.14306004 0.42837363 0.3697117 0.47384125
-0.07914319 -0.37581068 0.4074162 0.7605689 0.023076281 -0.10674779 -0.46627688 0.43540165
0.038305104 -0.5130971 -0.26363578 0.38625643 -0.90050703 0.3068649 0.78004 -0.8504931
0.68446773 -0.7258466 0.23834632 0.30616692 -0.15435696 0.8149493 -0.041264568 0.7506509
0.44422665 -0.36688474

gat_layer_0.attention_0.a f4 [20, 1]
00000000: fc4d f0bd dd56 6dbe 0091 413e 61ef 3e3f
00000010: 7e5d acbe e6e0 40bd 7cbb 203f 5bb4 f9be
00000020: de79 9bbd 2891 223f f33c 03bf cd5b 43bf
00000030: 45ac fc3e 9d75 09be 022a 17be 2b88 a7be
00000040: 3074 a53e 6c6b 2b3e 30fa a03d c720 d23c
-0.11733624 -0.23177667 0.1890297 0.74584013 -0.3366508 -0.04708948 0.6278608 -0.48770413
-0.07591604 0.6350274 -0.51264876 -0.7631195 0.4935018 -0.13423772 -0.14762118 -0.32721075
0.32315207 0.16740197 0.078602195 0.025650395

gat_layer_0.attention_1.W f4 [5, 10]
00000000: dc2d 50bf 02c7 91bc 8e5d 6dbd 353d 65bc
00000010: 977f babd e057 62be da5c 56bf 6613 3b3f
00000020: bf80 42bf 34ea 35bf ba36 be3e 67e9 56bf
00000030: 92df 33bf ee0b 373f 3969 5d3f 5f36 c8be
00000040: 9df1 3f3f db40 9ebe 7f63 83bd b91d 233e
00000050: dfb1 393d 09db 093f 8329 0dbf 6041 9abe
00000060: 825d 4abe 5cd9 ddbe 0954 453f f0dd c43d
00000070: cf70 38bf c71f e5be 4c99 063f b748 f43d
00000080: 761b b63e 659b bd3e 7bbf 5b3d 3b69 463f
00000090: df25 cabe 0174 5d3f 2019 c8be eb1c 4abd
000000a0: 3a8f 18bf ee93 a7be 69c1 513f 8ad9 2dbf
000000b0: 4b59 163f c40b 273f 05ce 09bf 7b00 06bf
000000c0: 71de 47bf 5553 24bf
-0.81319976 -0.01779509 -0.05795055 -0.013991644 -0.09106367 -0.22103834 -0.8373543 0.73076475
-0.759777 -0.7106049 0.37151128 -0.83949894 -0.70263016 0.7150258 0.8648868 -0.39103982
0.7497805 -0.30908856 -0.06415462 0.15929307 0.045335647 0.53849846 -0.55141467 -0.30128002
-0.19762233 -0.43329895 0.7708135 0.09612644 -0.7204713 -0.44750807 0.5257766 0.11927932
0.35567826 0.3703262 0.053649407 0.7750432 -0.39482018 0.8650513 -0.3908167 -0.049343985
-0.59593546 -0.3273005 0.81935745 -0.67910063 0.5873 0.6525233 -0.53829986 -0.52344483
-0.78073794 -0.64189655

gat_layer_0.attention_1.a f4 [20, 1]
00000000: 2a3f b7be ac64 b23d 4f93 8f3e 4dc2 6ebe
00000010: fd46 6c3e 1b76 c6be a4ea 07bf f55a ffbe
00000020: 5559 bbbd cc8e 83be d072 0c3f bd8d 383e
00000030: afd7 9abe 278e a5be b384 383e f176 043e
00000040: 16b3 cabe fed2 efbe 98f8 2e3f 182b cb3c
-0.35790378 0.08710608 0.28042075 -0.23316307 0.23073955 -0.38761982 -0.5309241 -0.49874082
-0.09147898 -0.25694883 0.5486269 0.18022819 -0.3024268 -0.32335016 0.1801937 0.12935998
-0.39589757 -0.46840662 0.68348074 0.024800822

gat_layer_0.attention_2.W f4 [5, 10]
00000000: ccbc 533f 1b51 eebe 094d 0cbe b1ee 483f
00000010: 61cb 2d3f 4634 a63d c4c1 18bf f46a 0abf
00000020: 1d20 1ebf 4f23 0cbf 6db2 873e 32f8 65bf
00000030: 3f24 57bf 99c5 403e e924 68be af4d babe
00000040: 37c8 5cbf 0607 963e 43f3 9fbd 1d8e cebe
00000050: 9615 09bf e5a3 2d3f 6b2a 383f 116b b4be
00000060: cc13 ec3e 459f 3d3e b17b 08bf 5ebf e9be
00000070: 86e6 5f3f 99ef 1f3f 69de 60bf dfde 8c3e
00000080: 4005 213f 5450 813e 148a 15bf 99e4 5dbe
00000090: 7112 32bf ebb2 a4be 6c08 01bf 18c8 0a3f
000000a0: 44c7 92bd ac88 3cbe 3599 2ebf dfeb 473e
000000b0: 04ec 173d b574 a1be 6420 59bf f51d 56bf
000000c0: 46e0 19be fad7 a13e
0.82709956 -0.46546254 -0.13701262 0.78489214 0.67888457 0.08115439 -0.5967066 -0.5406945
-0.6176775 -0.54741377 0.26503316 -0.8983184 -0.8403968 0.18825378 -0.2267033 -0.36387393
-0.86243004 0.29302233 -0.0781007 -0.403428 -0.5354856 0.6782821 0.71939725 -0.35237935
0.46108854 0.18517788 -0.5331374 -0.45653814 0.87461126 0.6247497 -0.8783937 0.27513787
0.62898636 0.25256598 -0.58413815 -0.21669234 -0.6955939 -0.32167754 -0.50403476 0.5421157
-0.07166913 -0.18411511 -0.68202525 0.19523571 0.037090316 -0.31534353 -0.8481505 -0.8363946
-0.1502696 0.3161009

gat_layer_0.attention_2.a f4 [20, 1]
00000000: 7d49 e8be 4672 94be 5977 babe 10e1 1fbf
00000010: 806a 39bf 88b8 073f 2d9a c83c 4a37 093f
00000020: 5395 ea3e 6ea2 0f3f bb03 3b3f 43b9 2fbf
00000030: c571 02bf 32d9 763e dde4 fc3e 71b1 813e
00000040: 9a48 283f 492f 91be a9e0 03bf f635 fbbe
-0.45368567 -0.28993434 -0.3641918 -0.62452793 -0.7242813 0.5301595 0.02448758 0.5359999
0.4581705 0.56107223 0.7305257 -0.6864206 -0.5095485 0.24106291 0.4939336 0.2533069
0.6573578 -0.28356388 -0.5151468 -0.49064606

gat_layer_0.attention_3.W f4 [5, 10]
00000000: fe6f b4be f82f dbbd 9218 ae3d bda7 c83e
00000010: 7b09 93be 0de8 4fbf f3c1 25bf b73a 5b3f
00000020: d2a1 9ebd 9790 05bf 3952 31bf 0efd 1f3e
00000030: bbdc fe3d 7f9e 113e 8566 d3be 6ee0 10bf
00000040: 6690 26bf 6bed 2d3e 9b32 0e3f 1e21 1f3e
00000050: 802c 143f db04 373f 9bd1 81be f09e e83d
00000060: 1175 b43e eaa3 29bf 9574 d63e 8805 1cbf
00000070: 11b8 03bf 449c b33e d305 f1bd cf89 60bc
00000080: 59a4 19bf ef2a f63e af23 233f 15c5 3cbf
00000090: faae f8be 7c8f 30bf 227b 1e3f 393a 3c3e
000000a0: e2de 2d3f 7f7d a63e fc3e 41bf b594 e63e
000000b0: 43fb 0c3e 102e b2be c4bc 22bf 6aa7 193e
000000c0: 3189 2e3f df35 28bf
-0.35241693 -0.10702509 0.0850078 0.39190474 -0.2871817 -0.81213456 -0.6474907 0.85636467
-0.077457085 -0.5217375 -0.69266087 0.15623876 0.12444445 0.14220618 -0.41289154 -0.5659245
-0.65064085 0.16985099 0.5554597 0.15539977 0.578804 0.71491784 -0.2535523 0.1135844
0.35245565 -0.6626574 0.4188582 -0.6094594 -0.5145274 0.3508016 -0.11768689 -0.013704731
-0.600164 0.4807963 0.63726324 -0.73738223 -0.48570997 -0.6896894 0.61906636 0.18381585
0.6791822 0.3251762 -0.7548673 0.4503533 0.13767724 -0.34800768 -0.63569283 0.1500527
0.6817809 -0.657072

gat_layer_0.attention_3.a f4 [20, 1]
00000000: 4c3c a7be c3ba 2e3d 17ff f93e 556b 3f3f
00000010: 6291 273f f78f 2a3f d474 1cbd 2bf0 3e3f
00000020: 738b a73d c385 05bf 31e5 83be 44c4 14bf
00000030: 9302 5fbd 1f9e 26bf 13f1 c0be f69c ab3d
00000040: 3f00 f13e 3b9b b23c 488e e43e ba87 f53d
-0.3266319 0.04265858 0.4882743 0.7477315 0.6545621 0.6662592 -0.038197353 0.7458522
0.08180895 -0.5215723 -0.25760797 -0.5811198 -0.054445814 -0.65085024 -0.37683925 0.08379547
0.470705 0.021802535 0.44639802 0.119887784

gat_layer_0.attention_4.W f4 [5, 10]
00000000: a49a 9fbe b2a1 3ebf cb5b 483f 9b66 af3e
00000010: 4916 553b 9826 a03e e626 f23e 1b0f 823e
00000020: 45e8 acbe 53b7 2abf 4826 03be a4b9 ebbe
00000030: 0611 5ebf 898d 15bf 5a2e cf3e 6366 023f
00000040: c9d1 25bf 6e56 89be 2417 ad3e af38 d73e
00000050: f3b7 2fbf 2411 033f 916c a2be d653 e9be
00000060: 6415 2cbf f914 7a3e fb1b cf3d 3a3b fb3e
00000070: 4bb2 1dbe b48e 243f 3b6a 4fbe 3fa7 82be
00000080: 65ef f0be 5b28 133f 20e4 62bf b604 503e
00000090: 4088 37bf 12b3 e7be cec1 4abf ece2 383f
000000a0: 31c1 1fbf 090a 3f3f 7678 123f 3a53 8abd
000000b0: 7539 85be 6fd3 4f3f 367b 503f 11fb 4d3f
000000c0: 8b92 52bf 7351 183e
-0.3117267 -0.7446548 0.78265065 0.3425797 0.0032514504 0.31279445 0.47295302 0.2540215
-0.33770958 -0.6668598 -0.12807572 -0.4604007 -0.86744726 -0.5841909 0.4046505 0.5093748
-0.6477323 -0.26823753 0.33806717 0.42035434 -0.6864006 0.5119803 -0.31723455 -0.45571774
-0.6722014 0.24422063 0.10112759 0.49068624 -0.15400045 0.6428025 -0.20255367 -0.25518224
-0.47057644 0.5748345 -0.8862934 0.20314297 -0.71692276 -0.45253807 -0.7920197 0.72221255
-0.6240416 0.7462469 0.5721506 -0.067541555 -0.260204 0.81182 0.81438005 0.8046122
-0.82254857 0.1487482

gat_layer_0.attention_4.a f4 [20, 1]
00000000: 6238 c23c 87fb e6be 54e6 efbe 3e19 dbbe
00000010: d0e1 8fbe b6f6 0b3f b910 da3e 0ae2 263e
00000020: a5d4 e5be 4ac8 c63e e833 273f 576b 243f
00000030: 60fb 6ebe a874 153f 1293 c43e c464 043f
00000040: b558 d43e b78b fa3e d2a5 0e3f b7cb 10bf
0.023708526 -0.45113775 -0.46855414 -0.42792696 -0.2810197 0.54673326 0.42590883 0.16297165
-0.44888797 0.38824683 0.6531358 0.6422629 -0.2333808 0.5838113 0.38393456 0.51716256
0.41473928 0.4893472 0.5572177 -0.56560844

gat_layer_0.out_att.W f4 [50, 5]
00000000: 3e7b d6be 4e97 8ebe 9373 b93c 4113 81be
00000010: f420 87be 8fd2 f4be 94cd 783d 16d5 92be
00000020: 9222 f43d feac 49be f0f8 943e cd21 b1be
00000030: 943a 483e ea9e 49bc d9c0 803e 99ea 2bbd
00000040: aab9 41be e373 c23d d757 ac3e ac6a bbbe
00000050: 62b1 ca3e 512d 40bd 793b 103e cff7 6e3e
00000060: 3748 e23e 76ad 97be b49f d73c 26e8 be3e
00000070: 59ea 913e 6ee1 43be 0759 cd3e 8c7e 703e
00000080: aaeb abbe 565f 97be d454 363e e8cc f8be
00000090: b4d3 2c3c 4237 803e d28b 98be 6b16 853c
000000a0: a86d 393e 2df6 83be 0d01 52bd 01b0 ca3d
000000b0: b175 a63c 0223 b6be c60d 6b3e 7a02 06be
000000c0: 3ffa 92be 3abf 863e c24b a0be b32b 753e
000000d0: 41ae 46be 58a4 8cbe 7293 bbbd b31f 47be
000000e0: b233 4f3e b500 90bc b632 673e 68a5 9fbe
000000f0: 9264 cebc 7a7c a43e 09b6 cabe 2187 c63e
00000100: 29f1 a43e 3292 e03d 5010 553e 0450 8bbe
00000110: 54ee 5b3e 61f3 e93e 0205 d13c 0d5b e8be
00000120: 16dd 8a3e c9c6 aebe 3683 db3e 5640 94bd
00000130: 01fd 8abd f9e3 43bd 25fb ae3e af90 dfbe
00000140: 112a 67be c73a 803e 3860 26be 52e3 e43e
00000150: 5a5b d43e 0e10 523d ee07 36be c63d 5e3e
00000160: 708e 01bd f31b 2d3e 33e8 debe 5c6c 2abd
00000170: 18b4 34bc a963 893d 575a c23e 7761 a03e
00000180: 6769 90be 24bc 71be 8923 c53e 39df 713e
00000190: 94cd 453e ad45 dabe 018f 90bd bdac 5bbd
000001a0: 1209 c03e 2671 973e 11ac a03e 32ec f4bc
000001b0: e1a0 4dbe 5e63 d2be e32d c53e a2f7 923e
000001c0: 1e95 83be 27d3 19be 102e 9e3e 7849 8c3c
000001d0: e0ab 15be e615 35be 9704 323e d083 53be
000001e0: 0f85 0f3e 21cf d3be 88f6 c73d 16d0 c43d
000001f0: 2e14 a5bd 6b6e 863d d31f 173e 6c71 92be
00000200: 470a 9c3e 7705 76be 617b 9ebe cb8b 83be
00000210: 694e a63e ae4c ebbe b1fb a5be c146 b73e
00000220: 59ef 11bd c750 cfbe 2d06 e73e e2ae abbe
00000230: 8679 72be 1595 b9bd 850c 883e 1779 d0be
00000240: 4594 9a3e d0cc ce3e 100d 2abe b436 5d3e
00000250: 0445 a5be 33e6 b3be 0360 3d3b 45d1 bb3e
00000260: bfb2 8fbd 5865 c6be e0dd d63d 8d5f 913e
00000270: b641 21be cdf4 e1be 1ac6 753e b068 343e
00000280: aa8c c2be b22c 503e e573 bcbe 6233 9b3e
00000290: 69dd d53e 72ec d3be 80c2 3b3e cc93 d63e
000002a0: fcd2 2b3e f80c e73e abd1 4cbe d19c 6ebe
000002b0: 20af e83e 67e8 b33e a1c6 b7be 8473 0dbe
000002c0: 141c cf3e ef33 323c bfa6 c73e 2f0c 123e
000002d0: 1d22 533e 1623 b53e 732e 923e 1b53 babe
000002e0: 2fe7 733d 8fa8 aebe 097c 523e daed 843e
000002f0: a49d f23d e671 80be 3078 a3be bafd 963e
00000300: f024 873d af1c 96be 946b c0be c9ba af3e
00000310: 9f6d 613e 88d9 a4be 8375 183e 9e4a 003d
00000320: 1e15 43be 5cac b03e 97e8 983e b5e1 c3bd
00000330: 6e7c 3cbe 9fab e53a f1fd a63e c3b6 a43d
00000340: 8a75 993e 3488 71be fd6a f23d 4502 813e
00000350: e109 2f3d 608e 8ebd b3b4 5d3e b08d 94bd
00000360: 4d76 c5be 6178 bd3e d5f4 15be ee0b 923e
00000370: 313c dd3e a0ba d33e 741d 1d3d 78ac c4be
00000380: 6906 be3d 4b82 55be 7a40 b0be 0ca9 483a
00000390: 1897 05be 605c 183e 047a c8bd 480e b2bd
000003a0: 66bf d9be a60f 843e 9619 efbe 09fe 28be
000003b0: 23fe ea3b c9c3 cabd c050 ba3e 276a 81be
000003c0: 96df 59be 153e e3be ffd3 c93e 4b4a 89be
000003d0: cef8 a73e f1be d63c 55b1 e1be 7d5f c03e
000003e0: a05e e6be c77b 36be
-0.418909 -0.2784981 0.022638118 -0.25210002 -0.2639233 -0.47816893 0.06074293 -0.28678197
0.11920656 -0.19694898 0.29096174 -0.345961 0.19553596 -0.0123059545 0.2514713 -0.041971777
-0.18918481 0.0949476 0.33660766 -0.36604822 0.39588457 -0.046918217 0.14085187 0.23336719
0.4419572 -0.29624528 0.02632127 0.3728649 0.28499106 -0.19128963 0.40106985 0.23485774
-0.33578235 -0.29564923 0.17805797 -0.4859383 0.010548521 0.25042158 -0.29794174 0.016246041
0.18108237 -0.25773755 -0.051270533 0.09896851 0.020319792 -0.35573584 0.22954473 -0.13086882
-0.28706548 0.2631777 -0.313078 0.23942451 -0.1940241 -0.27469134 -0.09158982 -0.19445686
0.20234564 -0.017578462 0.22577938 -0.31180882 -0.02519444 0.32126218 -0.39592007 0.3877497
0.3221524 0.109653845 0.20807004 -0.27209485 0.21477634 0.45693496 0.025515083 -0.45381966
0.271218 -0.34136036 0.42873544 -0.072388336 -0.06786538 -0.047824834 0.34175983 -0.43665072
-0.22574641 0.25044844 -0.16247642 0.44704682 0.41475946 0.051284842 -0.17776462 0.21703252
-0.03162998 0.16905193 -0.4353653 -0.041607246 -0.011029266 0.06708462 0.3795955 0.3132436
-0.28205416 -0.23606926 0.38503674 0.23620309 0.19316703 -0.42631283 -0.07058526 -0.053631533
0.3750692 0.29578513 0.31381276 -0.029897783 -0.20080902 -0.41091436 0.3851157 0.28704554
-0.25699705 -0.15021954 0.30894518 0.017124876 -0.14616346 -0.17684135 0.17384563 -0.20655751
0.14015602 -0.41368964 0.09763819 0.09610002 -0.080604896 0.06564029 0.14758234 -0.2860216
0.3047659 -0.24025522 -0.30953506 -0.2569259 0.32481697 -0.4595694 -0.32418588 0.35796168
-0.03562865 -0.40491316 0.451219 -0.33531862 -0.2367917 -0.09061638 0.26572052 -0.40717384
0.30191246 0.40390635 -0.16606545 0.21602899 -0.32279217 -0.35136566 0.0028896339 0.36683097
-0.07016515 -0.38749194 0.10491538 0.28393212 -0.15747723 -0.4413208 0.24001351 0.1761806
-0.37997943 0.2032955 -0.3680717 0.3031264 0.41770485 -0.4139133 0.18335915 0.41909635
0.16779703 0.45127082 -0.20001857 -0.23302008 0.4544611 0.35138246 -0.3589373 -0.13813597
0.4045111 0.01087664 0.38994405 0.1426246 0.20618482 0.3537833 0.28551063 -0.3639153
0.059546646 -0.34112975 0.20555128 0.25962716 0.11846474 -0.25086898 -0.31927633 0.29490453
0.06598842 -0.2931876 -0.37582076 0.34322193 0.22014473 -0.32197213 0.14888577 0.03132116
-0.19051024 0.345065 0.29864952 -0.095645346 -0.18406841 0.001752246 0.32615617 0.080426715
0.29972488 -0.23587114 0.11836813 0.25197044 0.04273403 -0.069607496 0.21650963 -0.07253587
-0.3856682 0.37005904 -0.14644177 0.28524727 0.43209985 0.4135332 0.038358167 -0.38412833
0.092785664 -0.20850484 -0.34424192 0.00076545845 -0.13045919 0.14878988 -0.09788898 -0.0869413
-0.42528838 0.2579319 -0.46699208 -0.16503157 0.0071714087 -0.09900624 0.36389732 -0.252763
-0.21276698 -0.44383302 0.39419553 -0.26814494 0.3280701 0.026214095 -0.44080606 0.37572852
-0.44994068 -0.17820655

gat_layer_0.out_att.a f4 [10, 1]
00000000: 0a5a 143e 3dbb 7c3f eb42 28bf b4f9 ddbe
00000010: 5e00 dcbe 132b 45bf 87e2 c93e 2bda e3bd
00000020: 020e 80bf 5975 33bf
0.14487472 0.987232 -0.6572711 -0.4335457 -0.4296903 -0.7701885 0.3943064 -0.111255966
-1.0004275 -0.70100933

gat_layer_1.attention_0.W f4 [5, 10]
00000000: 6138 ad3c 2b83 8dbe c739 0c3f 56db 5bbf
00000010: 6ede f23e 5ebc 3fbe 937c ab3e b7e0 0bbd
00000020: ec61 3ebf 5888 09bf d014 383f 3ca7 49bf
00000030: b772 dbbe dc74 d3bd b1c1 51bf b428 4e38
00000040: 9a92 34bf 6191 38bf 1e33 23bf 62dd 093f
00000050: f909 e73e bd17 2bbf 606e 3e3f 1c84 7ebe
00000060: eb22 2c3f d864 173d 33d4 f3be bcb2 613f
00000070: 1661 ff3d 85a9 483f 8fb2 f33d ed05 49bf
00000080: 1d87 c13e 1369 03be a340 653e 0654 5c3f
00000090: 50b7 04bf fd4c 2bbf 18a5 63be ff15 0cbd
000000a0: b546 60be af4a 413f 61e8 533f 516a 3d3f
000000b0: 8a5a 56bf 9be4 1cbf 5f4f 213f 474e acbe
000000c0: 7a4e 053f a688 e23e
0.021145048 -0.27639136 0.5477566 -0.85881555 0.47435325 -0.187242 0.3349348 -0.03414985
-0.74368167 -0.5372367 0.7190676 -0.78770804 -0.42860958 -0.103250235 -0.81936175 4.9152135e-05
-0.70536196 -0.7209683 -0.63749874 0.5385343 0.45124796 -0.66833097 0.7438717 -0.24855083
0.6724078 0.036961406 -0.47622833 0.8816335 0.124696895 0.78383666 0.11899292 -0.7852467
0.37798396 -0.12833051 0.22387938 0.8606571 -0.5184221 -0.6691435 -0.22230947 -0.034200665
-0.21901973 0.75504583 0.8277646 0.7399035 -0.837319 -0.61286324 0.63011736 -0.3365347
0.5207287 0.4424488

gat_layer_1.attention_0.a f4 [20, 1]
00000000: 1699 543e a115 09bf 0550 52be c2cd cebe
00000010: 7ee7 3a3f aec2 40bf 5aa3 a4be 560a 3cbf
00000020: 4ab0 323f 4d40 23bf 74b9 3c3f 0c64 22be
00000030: 0d99 53be ced2 0dbe 277f 2d3f c088 4f3e
00000040: 8379 e93e 3d65 62be ce5f 3abf 341d 3cbe
0.20761523 -0.5354863 -0.20538338 -0.40391356 0.7300948 -0.7529706 -0.32155877 -0.7345327
0.69800246 -0.6376999 0.7372048 -0.15858477 -0.20663853 -0.13849947 0.67772144 0.2026701
0.4560052 -0.22108932 -0.72802436 -0.18370515

gat_layer_1.attention_1.W f4 [5, 10]
00000000: 1ed2 083f 398b 2fbc 290f ff3e 9511 003f
00000010: b5d2 e0be c5f5 80be 2187 3a3d b918 bc3d
00000020: ca40 14bf 89d1 243e dda1 5fbf 2f2d cc3d
00000030: 5815 35bf cecf 593f d16a 6dbe a7b2 abbe
00000040: 998e 183e bcf4 48bf 2e72 e83e 41ce c43e
00000050: ae2f 053f 2cd0 23bf e02e 56bf 868a afbe
00000060: 2528 5bbe 48cd 3abe 3cef 183f 6d1f d9bd
00000070: f4d0 0cbf d8a5 b5be 7718 c13d ff2c 993e
00000080: ce5c 3abf e550 d53e 8a73 81be 9435 ac3e
00000090: c7a8 f6bd 7b9f 6fbe d919 5fbe b4f1 283e
000000a0: 7069 38bf d35c 073f 5749 f7be 930d b2be
000000b0: e0df 753e 4f3a de3d 00f2 223e fba7 5bbf
000000c0: 8041 d9be 35d8 a4bd
0.53445613 -0.010714346 0.49816254 0.5002683 -0.43910757 -0.25187507 0.045539025 0.09184403
-0.5791136 0.16095556 -0.8735636 0.099695556 -0.7073569 0.8508271 -0.23185278 -0.33534738
0.14898147 -0.78498435 0.45399612 0.3843861 0.5202588 -0.6398952 -0.83665276 -0.34285372
-0.21402033 -0.18242371 0.5974004 -0.10601697 -0.5500634 -0.3547809 0.094284944 0.29917142
-0.7279786 0.4166328 -0.25283462 0.33634627 -0.120439105 -0.2340068 -0.21787204 0.16498452
-0.72035885 0.52876014 -0.4829814 -0.3477598 0.24011183 0.10850965 0.15912628 -0.8580319
-0.42432785 -0.08049051

gat_layer_1.attention_1.a f4 [20, 1]
00000000: 6a5d 0ebf 3b33 113e 9244 1cbe 6568 c7be
00000010: d102 5c3e 8bd7 0abe 78ff 173c a691 3e3f
00000020: 863b d0be 4646 8cbe 18bf 183f c190 c43c
00000030: 3cbc e43e cbe9 28bf 3fd3 593c 2c48 c1be
00000040: f558 b1be 4826 363f 6db9 16bd 69eb 243f
-0.5561129 0.14179699 -0.15260532 -0.38946834 0.2148545 -0.13558786 0.009277217 0.7444099
-0.40670413 -0.27397364 0.59666586 0.023994805 0.4467486 -0.6598174 0.013294994 -0.37750375
-0.3463818 0.7115216 -0.03679793 0.6442171

gat_layer_1.attention_2.W f4 [5, 10]
00000000: 2dda bcbd dade 41bf 3801 a8be 9cf0 a5be
00000010: 1872 60bf a196 a1be 8201 403f 0800 3dbe
00000020: d2cc ac3e 7ba8 26bd d945 f93e 8b69 4dbf
00000030: f900 c43c 1d98 1b3f cf81 5e3f cf2e a6be
00000040: 1733 d4be fa20 37be ce92 07bf a126 84bc
00000050: e718 e83d 8d22 ea3e c5ca 33bf 450a 1c3f
00000060: 7a2c f73e 50f0 d63e a94e 4abf f791 6f3e
00000070: 8d14 603d 51f4 5d3e 1959 ff3d 1d55 7bbc
00000080: 69f5 3d3e 33cc 153e 5ce7 213f 16f9 5fbe
00000090: 75ea f2be 9381 48be b45e 823c 8edc ad3e
000000a0: b805 623e 7250 8ebe 2135 28bf fa6d 4c3f
000000b0: 2029 203f 329a 55be a80c bb3e 3ca7 16bb
000000c0: 6efe 123e f7b2 a83d
-0.09221301 -0.7573067 -0.3281343 -0.32410133 -0.87674093 -0.31560233 0.750023 -0.18457043
0.33750015 -0.04068802 0.48686102 -0.8023917 0.023926245 0.6077898 0.8691682 -0.32457587
-0.41445228 -0.17883673 -0.5295838 -0.016131701 0.11332875 0.45729485 -0.70231277 0.6095317
0.4827612 0.4198022 -0.79026276 0.23395525 0.0547071 0.2167523 0.12468166 -0.015340117
0.18550648 0.14628677 0.6324365 -0.21872362 -0.47444502 -0.19580679 0.015914299 0.33957332
0.22072494 -0.2779575 -0.6570607 0.7985531 0.6256275 -0.20859602 0.36533093 -0.0022987863
0.1435487 0.0823726

gat_layer_1.attention_2.a f4 [20, 1]
00000000: bb8d cb3e d73f 0e3f 949e 9dbe c761 183f
00000010: 37d2 1e3f ff5d 35bf 05be cfbe 476b 363c
00000020: d6e3 30bf dd58 8a3e d216 393f 9a62 a33c
00000030: e8fd a3bc 6e11 91be 9fdd 27bf 448f 00bf
00000040: 29b4 a43e bf61 81bd e5bc 21be 277a 29be
0.3975657 0.5556616 -0.30785048 0.59524196 0.6203951 -0.7084655 -0.4057466 0.011133975
-0.6909765 0.27020922 0.72300446 0.019944478 -0.020018533 -0.2833361 -0.6557254 -0.50218606
0.321687 -0.06317472 -0.15794714 -0.16550504

gat_layer_1.attention_3.W f4 [5, 10]
00000000: 5e2c 0f3f eed1 69bf 85b4 d93e 0a4c 5dbf
00000010: 3158 413f ea41 38be 4cbe 22bf 6ea5 48bf
00000020: 6c85 683f d8a0 a0bd 35e3 a53d 094d 01bf
00000030: fc83 ffbd 81ca 303f d156 123f 96a2 0b3f
00000040: b691 c4be a787 893e 5f8d 333f 951d 313f
00000050: b62f 2e3f 3166 dd3e 57f7 1abe b9f1 37bf
00000060: 07f4 25bf 707a 3f3f 441e 263f 5f65 a83d
00000070: 0987 2abf 1e23 9a3d 7d19 9cbe b700 5cbf
00000080: d15d bebe 15fc cdbe c88d 333f cc1e 8cbe
00000090: a0ef 633e beee 95be e59f ec3e 669b 23bf
000000a0: d8a0 18bf 9d7a 2f3f 5617 57bf 8275 f1be
000000b0: 46c7 253f 0f5f 563f ea62 7ebd f451 c8be
000000c0: baa4 f83e 7639 c13e
0.55927074 -0.9133595 0.42520538 -0.8644415 0.75525194 -0.17993894 -0.6357162 -0.78377426
0.90828586 -0.078431785 0.08099977 -0.5050817 -0.12476346 0.69058996 0.5716372 0.5454496
-0.3839242 0.26861307 0.7013759 0.69185764 0.6804155 0.43242028 -0.15133415 -0.71853215
-0.6482548 0.747962 0.6488993 0.0822246 -0.666123 0.07526229 -0.30488196 -0.8593859
-0.3718095 -0.40231386 0.70138216 -0.27367246 0.22259378 -0.29283708 0.4621574 -0.63908994
-0.5962043 0.6854647 -0.8401998 -0.47159964 0.6475719 0.837388 -0.06210605 -0.39125025
0.48563176 0.37739152

gat_layer_1.attention_3.a f4 [20, 1]
00000000: 726f 09bf 452b 40be d982 e9be 7318 66be
00000010: 1827 86be 85ba ff3e 7915 673c 5b2e d23e
00000020: 8418 073e 55f2 8fbe a3b3 083f 8552 42be
00000030: c614 cebe 7bac 353f bfb8 bbbe e566 63bd
00000040: e26d fb3e 764b 193f f595 b2be 2a6f e23e
-0.5368568 -0.18766506 -0.4560764 -0.22470264 -0.262017 0.4994699 0.014104241 0.4105099
0.13192946 -0.28114572 0.53399104 -0.18976791 -0.40250224 0.7096631 -0.36664388 -0.05551805
0.4910727 0.5988077 -0.34880033 0.44225436

gat_layer_1.attention_4.W f4 [5, 10]
00000000: a69d 5a3f aae8 dc3e e737 e93e 6aff ae3d
00000010: 128e 2f3e 2996 003e 637e 13bf fe06 2f3f
00000020: 07fc 18bf d021 dd3e ab5d bdbe 442f 51bf
00000030: f8bb f13e b44c 323f 4fbc 463f ca23 333f
00000040: a49c 25bf 2498 233f 8200 5cbf afab 0f3f
00000050: 58a9 eebd 74a6 583f 6472 55bf 96d4 21be
00000060: 1d0b 56bf 1926 19bf 614b 53bf 6d46 003e
00000070: 5937 ffbe e87d 28bf 431f 27bf ef8b 31bf
00000080: f1f6 123f a1a8 53be e14c 433f 507c 1c3f
00000090: 5425 473f 4e58 92be 62d2 a63d 26c0 82be
000000a0: 0390 e9be fcae e7be 2e3d 3a3f 87f4 413f
000000b0: 074f 1d3f 91c8 42bf e03d d0bd b1c2 fa3e
000000c0: bd5d 4e3f 0130 a23e
0.853968 0.4314626 0.45550463 0.0854481 0.1714404 0.12557282 -0.57614726 0.68370044
-0.59759563 0.4318986 -0.36985525 -0.81712747 0.4721372 0.6964829 0.77631086 0.69976485
-0.6469214 0.63904023 -0.85938275 0.56121343 -0.116533935 0.8462899 -0.8337767 -0.15803751
-0.8361071 -0.5982376 -0.82536894 0.12526865 -0.49846914 -0.6581712 -0.65282077 -0.69354147
0.5740805 -0.20669796 0.7628918 0.61127186 0.77791333 -0.28582996 0.08145596 -0.25537223
-0.45617685 -0.4525069 0.727496 0.75763744 0.6144871 -0.7608729 -0.10168052 0.48976663
0.80611783 0.3167725

gat_layer_1.attention_4.a f4 [20, 1]
00000000: 3a59 44bf a712 e3be 96fd c0be e21e 9c3d
00000010: a2e9 e23e d471 af3e 9080 b13e 14e7 113e
00000020: baa5 383f f9e2 ff3e 187f a83c bebf 183e
00000030: cecc 1bbf 9bb5 c03e 5aeb 2cbf e38c 123f
00000040: 2408 053f fe17 52be e613 a7be 7fe9 c63e
-0.7669865 -0.44350168 -0.3769347 0.07623078 0.44318873 0.3426653 0.34668398 0.14248306
0.7212788 0.49977854 0.020568416 0.14916894 -0.6085938 0.37638554 -0.6754662 0.57246226
0.51965547 -0.20516965 -0.3263237 0.38850018

gat_layer_1.out_att.W f4 [50, 5]
00000000: 27a9 0a3e 9f30 353d 870a 143d bd0d c73c
00000010: 8af3 e0bc 56e8 dd3e 7332 ca3e fd40 9fbd
00000020: ce4f b53e 4324 293e dc28 c23d b41a f73d
00000030: 03c4 c7be fa0a 473e 6ad4 653e e0a2 093e
00000040: c86c 8c3c 5357 c83d 0cdd 64be ce37 e8be
00000050: 871e 08be 0c39 0fbe 53b6 67be 8f93 e13e
00000060: d8f7 cb3e 57c2 a43e 287c c43d 9cc5 533e
00000070: ec1e 403e 6d15 86be 69d5 c2be 5de9 d6be
00000080: d0c1 863e a5ce d83d eae8 86be b77a bbbe
00000090: b762 96be cd26 07be 31ca 563d 394b 133c
000000a0: 97b0 e83e d1d1 153e 71d4 9abe 76a1 6e3e
000000b0: 0a56 5cbe 04d2 b83d e365 f23e d8a6 823e
000000c0: 40f5 583d 9784 dc3e 17f7 88be 20f0 80bc
000000d0: c7a9 7fbd 1cfa bfbe 66d0 31bd 5ffb bdbe
000000e0: 7b4c 8dbd 53ec a53c 5111 2a3e 6932 b8be
000000f0: 2d6e ac3e ee1a 50be f615 7bbe f0a2 9e3e
00000100: 4411 e1be 95e8 c93e 8ec7 c33e 842f 123e
00000110: 5376 0b3d a025 ca3e 4fe0 8c3a 5242 98bc
00000120: 3a64 a73c eb98 943e d2c7 923e f5ce e8be
00000130: 86cd 48be a3f6 39be 1683 b8be 14a7 d73e
00000140: 2f5f 1cbe 0b87 f53d c9bc b43d b9d1 82bc
00000150: 9a24 663e 56ff 30bd 0b9c a4be a8d2 8a3e
00000160: 00a2 bc3d 9f63 153e cffd 94bd 9260 133e
00000170: a053 c8bb 03ce 1a3e d18b ff3a 3344 e63e
00000180: ed83 d13e d99d 28be d8b0 87be 382e 103e
00000190: 271b 5e3e 8c00 113e b5a2 bcbe f6f1 553d
000001a0: 6770 c8be 962d e23c 6e4c 563d 190b 893e
000001b0: 808e 15bd 58bd acbe 19e8 cabe b130 a83e
000001c0: 26ac ba3e c1a1 d73e 0e35 67be 409c f2be
000001d0: c349 283e b136 1a3e aaf9 5d3e 1983 a6be
000001e0: 344c 84be 9723 823e 8d5b b43e 91a0 f23e
000001f0: 53e3 88be 7354 003e f7c5 1b3e fd23 00be
00000200: 5af3 bebe bf01 dfbe c0a4 c2be b1ad de3d
00000210: 14dc 793b 6c36 933e d0f9 433e 14a1 873e
00000220: af76 103e 2f41 73be a01e d83e 02ae ddbe
00000230: 0b93 093e b066 9dbd 0a5a 6d3e b839 cb3e
00000240: 74c8 04be d574 2dbe 831b 2dbe f4de dcbe
00000250: 184b b13d f9f4 893e a407 c9be 3af6 cbbd
00000260: 4dc8 2c3d 0caf b83c bdc1 ecbe be39 b73e
00000270: 86b6 693e 4f11 a8be 2ea9 a6be 0c04 7abd
00000280: 9e9b 59be 35d0 64be 0687 aa3e 82be d9be
00000290: 3717 473e eda7 cabe dbbc b7be 1c42 943e
000002a0: e7c5 d7bd 8e88 553c 00e5 cc3e ebe5 663e
000002b0: 160c ffbd 58a7 c43e 9c48 d4be 5b54 633e
000002c0: 93a2 b9bd a5cf 9bbe 02c9 433d 6a29 b33e
000002d0: f93d dcbd 082d b53c b016 f23d 9fea 96be
000002e0: 30fc cf3e e9af c2be 5673 a83e 197a 1d3e
000002f0: 5c1c 44bd e3cb 813e 20f5 74be 7888 67be
00000300: 9424 e5bd 6e34 8ebc 177c c33e 92df d33e
00000310: 42ff 11bf 72c3 a8bd 8221 cc3e 3c09 b3be
00000320: 03c1 31bd 708a 23bd 20a2 413e c258 f13d
00000330: cee9 d73e f7d8 eaba 561c 91be c1a5 823d
00000340: 46cb a8be f19f 7b3c 6b39 cfbe 058a afbe
00000350: aa60 c3be 4f7b fabc 592b 2f3e 1a10 cbbe
00000360: 3f95 963e d79f 04be ce4c 803e ebb6 cebd
00000370: 7ed5 1dbe e651 d5bd 662d ac3e 9351 a63e
00000380: b57c 803e 5122 88be fc0c abbe cddc 89bc
00000390: 6602 a3be d0bf bf3d 6524 cbbe 96ca bf3d
000003a0: def8 a8be ec43 a6be b753 95be 04c2 143e
000003b0: 8ccc bf3e 8e75 1c3e 6608 d1be fd8f 573e
000003c0: f8f6 1a3e 83fc e63d b1ff 8dbe 82f9 c03e
000003d0: 3b9e cf3e 1aac a9be a595 ccbd d2fa e2be
000003e0: 6fc9 5a3e a7a3 1abe
0.13541089 0.04423582 0.036142852 0.024298543 -0.027459878 0.4334132 0.39491615 -0.077760674
0.3541245 0.16517739 0.094804496 0.1206564 -0.39016733 0.19437781 0.22444311 0.13441038
0.017141715 0.09782281 -0.22349948 -0.45355076 -0.13292895 -0.13986605 -0.22628145 0.4405789
0.39837527 0.3217952 0.095939934 0.2068085 0.18761796 -0.26188222 -0.38053444 -0.41974917
0.26319742 0.10586289 -0.26349574 -0.36617061 -0.29372188 -0.13198395 0.05243892 0.008990102
0.45447227 0.1463082 -0.30240205 0.2330378 -0.21517196 0.09024432 0.47343358 0.25517917
0.052968264 0.43069908 -0.26751015 -0.0157395 -0.06241777 -0.37495506 -0.043411635 -0.37105843
-0.06899353 0.02025429 0.16608168 -0.3597596 0.33677807 -0.20322773 -0.24520096 0.30983686
-0.43958485 0.39435259 0.38238186 0.14275938 0.03404839 0.3948183 0.0010748002 -0.018586311
0.020433534 0.29022917 0.28668076 -0.45470396 -0.19609651 -0.1816049 -0.3603751 0.42119658
-0.15270685 0.11988648 0.088250704 -0.015969144 0.224749 -0.043212257 -0.321503 0.27113843
0.092105865 0.14588784 -0.07274973 0.14392307 -0.0061134845 0.1511765 0.0019496625 0.44973907
0.40920964 -0.16466464 -0.2650211 0.14080131 0.21690045 0.14160365 -0.36842886 0.052232705
-0.39148256 0.027609628 0.052318983 0.2676628 -0.03651285 -0.33738208 -0.396302 0.3284965
0.36459464 0.42115596 -0.22578833 -0.47384834 0.16434388 0.15059926 0.2167727 -0.32521895
-0.25839388 0.25417778 0.35226098 0.47388127 -0.26735935 0.12532215 0.15212236 -0.12513728
-0.37295038 -0.4355602 -0.3801632 0.10872973 0.0038125562 0.28752458 0.19138265 0.2649008
0.14107774 -0.23755334 0.42210865 -0.4329682 0.13434999 -0.07685602 0.23178878 0.39692473
-0.12967092 -0.16939099 -0.16905026 -0.4313885 0.08656901 0.26944712 -0.39263642 -0.09959073
0.04218321 0.022544406 -0.4624156 0.3578624 0.22823533 -0.32825705 -0.3255095 -0.061039016
-0.2125077 -0.2234505 0.3330614 -0.42528158 0.1944245 -0.39581242 -0.35886273 0.28956687
-0.10535794 0.013033045 0.40018463 0.22548644 -0.12453477 0.38408923 -0.41461647 0.22200148
-0.09064212 -0.30431858 0.047799118 0.34992534 -0.10754008 0.0221162 0.118207335 -0.29475877
0.4062209 -0.38024834 0.32900494 0.15378608 -0.047878608 0.25350866 -0.23921633 -0.22610652
-0.11188617 -0.017358985 0.3818061 0.41381508 -0.5703012 -0.08240403 0.39869314 -0.34967983
-0.04339696 -0.039926946 0.18909502 0.11784507 0.42170566 -0.0017917444 -0.2834193 0.06379271
-0.32967585 0.015357957 -0.40473494 -0.34284988 -0.38159686 -0.030576376 0.1710638 -0.39660722
0.2941074 -0.12951599 0.25058597 -0.100934826 -0.15413472 -0.104160115 0.33628386 0.3248411
0.25095144 -0.2658868 -0.33408344 -0.016828919 -0.31837767 0.09362757 -0.39676204 0.09364812
-0.3300237 -0.32473695 -0.29165432 0.14527136 0.37460744 0.15279219 -0.4082672 0.21051021
0.15133274 0.112786315 -0.2773414 0.3769036 0.40550408 -0.33139116 -0.0998948 -0.44331986
0.21365903 -0.15101491

gat_layer_1.out_att.a f4 [10, 1]
00000000: 17c1 153f 6e3d 33bf 4cca b9be 4b01 87bf
00000010: 2365 9dbe e6c2 d2be cf84 093e 738d 6a3f
00000020: 3d31 18bf 55a4 82be
0.58497757 -0.7001561 -0.36287153 -1.054727 -0.30741224 -0.4116432 0.13429569 0.91622084
-0.5945013 -0.25516

gat_layer_2.attention_0.W f4 [5, 10]
00000000: c8d1 36bc 6bc3 e9be 4296 fcbd 0323 e3bc
00000010: 8363 bab9 7e11 93be 18dc c3be 176b 72be
00000020: 8273 833e be39 17bf 09a2 3c3f 025c 2a3f
00000030: 12c5 003f f091 25bf c02f 16be 9f1b a43e
00000040: 8244 793d 08f7 8cbd 5719 3e3e 1981 09bf
00000050: f68d 3cbe ea27 1f3f 4f5d 6abf 25b3 0dbf
00000060: 41b3 763e fcff f93e 48d6 ee3e 5e8b 3bbf
00000070: 0fa6 f93d becd a3bd 23de 563e 89a2 003f
00000080: ec53 2b3f 9e0f 1d3f f4e3 f9be 7e2b 4abf
00000090: cdcb 91be e0aa 0f3f ec94 49bf 3c47 533e
000000a0: c4fa 62bf a868 7fbe 2080 73be f303 06bd
000000b0: c65d 423f 4ace fdbe c0a1 5fbd ddf2 4abf
000000c0: 51b7 57bf e759 383f
-0.011158414 -0.45656905 -0.12333347 -0.027726656 -0.00035550827 -0.28724283 -0.38253856 -0.23673664
0.25674063 -0.5907248 0.73684746 0.6654664 0.50300705 -0.6467581 -0.14666653 0.32052323
0.06085635 -0.06883055 0.18564354 -0.5371261 -0.18413529 0.6217028 -0.9154863 -0.5535148
0.24091817 0.48828113 0.4664786 -0.7325953 0.12189876 -0.079982266 0.20983176 0.5024801
0.6692493 0.61351955 -0.48806727 -0.78972614 -0.284758 0.5612011 -0.7874286 0.20632643
-0.8866389 -0.24942267 -0.23779345 -0.03271861 0.75924337 -0.4957145 -0.054597616 -0.7927683
-0.84264094 0.7201218

gat_layer_2.attention_0.a f4 [20, 1]
00000000: 3344 cfbe 8cd7 1f3f 5b7a 12be f2d1 3cbf
00000010: ea74 2ebe 92f9 2f3f 9c43 ac3e 441d bebd
00000020: c2fe 05bc b53a 35bf 90b7 fabd a083 83be
00000030: 42ce 0fbe eaef 0b3f 2f26 57bd 5518 383f
00000040: 0fd6 17bf 1b05 b5be 0fc5 e83e 2e32 e8be
-0.4048172 0.62438273 -0.14304487 -0.7375785 -0.17036787 0.6874019 0.33645332 -0.09282926
-0.008178415 -0.70792705 -0.12242043 -0.2568636 -0.14043525 0.54662955 -0.05252665 0.7191213
-0.59311 -0.35355458 0.45462844 -0.45350784

gat_layer_2.attention_1.W f4 [5, 10]
00000000: 3c0c c13e de61 d83d ce85 3f3f 4023 1f3f
00000010: bb60 943e cba8 493e ff57 c23e 8a02 3abf
00000020: 992a 013e b8e6 e33e 797d fabd 79c5 53bf
00000030: f47c 19bf 0b8c a4be d171 8abe e510 e93e
00000040: c862 543f c5a2 f13e 0e83 a3be 1cd6 8c3e
00000050: 5d87 073f 2dd7 d4be 31bb 3d3f aa86 5f3f
00000060: 382f d3bd 1d1a a2be a2da 4d3f 4073 2c3f
00000070: f148 aabe b54d 723f 8f8c a3be 7ea4 bfbe
00000080: c2e5 b3be f12e 3e3f b9d3 083f cde5 34bd
00000090: 4039 5fbf f039 64bb cb30 66bf 7cff 26bf
000000a0: 2298 b83e cfab 1e3f ddd0 293f 1f10 b4be
000000b0: 60af 0dbf c792 a5be 6296 033e 1fb7 6cbe
000000c0: f426 cbbc 579b 48bf
0.37704647 0.10565542 0.74813545 0.6216316 0.2898005 0.19693296 0.3795776 -0.72660124
0.12613906 0.44511962 -0.12230963 -0.82723194 -0.5995629 -0.32138094 -0.2703996 0.45520702
0.8296323 0.47194496 -0.31935924 0.27507102 0.5294092 -0.41570416 0.74113756 0.87314856
-0.10311741 -0.31660548 0.8041173 0.6736336 -0.33258775 0.9464982 -0.31943175 -0.37430185
-0.3513623 0.74290377 0.53448063 -0.044164468 -0.8719673 -0.0034824573 -0.899182 -0.6523359
0.36053568 0.6198091 0.66334325 -0.3516855 -0.55345726 -0.32338545 0.12850335 -0.2311673
-0.024798848 -0.7836203

gat_layer_2.attention_1.a f4 [20, 1]
00000000: ac3b 24bf 3a19 0a3f b87f 36be 909c 0d3e
00000010: 8b26 35bf 7699 0abf 91b3 1d3f 63d7 9a3e
00000020: 89e4 583e 1ee5 11be 467b 803d cd70 f6be
00000030: 09ee 4b3e e20d 373e 7110 df3e daf5 b9be
00000040: 13e2 d13d efbf 90be 0ba5 cfbe 23c9 3cbf
-0.6415355 0.5394474 -0.17822158 0.13829255 -0.70761937 -0.5414041 0.6160212 0.30242452
0.21180929 -0.14247558 0.062735125 -0.48132935 0.19915022 0.1787639 0.4356723 -0.36320382
0.10248198 -0.28271434 -0.40555605 -0.7374441

gat_layer_2.attention_2.W f4 [5, 10]
00000000: 7f11 743e aec2 3bbf 8b82 2fbe 018b 2d3f
00000010: c0fe bc3d 6eff 52bd 8acf a1bd a814 973d
00000020: a787 0f3d 3f1e 203f 0dda 9d3e a3f1 ffbe
00000030: 83b7 2f3f 7ed3 39bf 5cae 503e 4734 1b3e
00000040: b5cd 18bf 4c07 81be d55e b33c abb2 38bf
00000050: a476 b0be fd19 1e3f 8d0d 17bf 8045 883e
00000060: 081d 0bbf ee32 b43d ecd8 593e 8f39 563e
00000070: 485c 07be f839 463f fcef ca3e e1e4 073f
00000080: 132e 19be 79f4 8f3e 0ad7 03bf 3a8b 27be
00000090: d9bc 3dbf df92 1abf f9ff 833e f5f0 ccbe
000000a0: 259b 68be 9ae9 05bf 68fb e1be c3ba 073f
000000b0: ac09 573f 6860 c3be a7fc 93be fac7 143f
000000c0: d8dd 4a3e 8d69 633f
0.23834799 -0.7334393 -0.17139642 0.6779023 0.09228277 -0.051513128 -0.07900913 0.07376987
0.035041478 0.6254615 0.30830422 -0.49989042 0.6863939 -0.72588336 0.20379013 0.15156661
-0.59688884 -0.2520088 0.021895805 -0.72147626 -0.34465516 0.61758405 -0.5900505 0.26615524
-0.54341173 0.087987766 0.21274155 0.20920394 -0.13218796 0.77432203 0.3963622 0.53083616
-0.14958982 0.28116205 -0.515 -0.16361704 -0.74116284 -0.6038036 0.2578123 -0.40027586
-0.22715433 -0.5230957 -0.4413712 0.5301935 0.83999133 -0.3815949 -0.28903696 0.5811764
0.19811189 0.8883293

gat_layer_2.attention_2.a f4 [20, 1]
00000000: f761 94be 9a75 3abf aea1 6d3e 9647 243f
00000010: efda 1ebf 5cba 473f 821f 22bf cbcc 0dbf
00000020: 6df8 1bbe 07c4 88be 4321 1e3f 1d98 a13e
00000030: 4d2e 1d3f 3524 68be 5dee 053e a913 673e
00000040: 6414 06bd e753 ecbc 7ed0 c2be 12e7 f7be
-0.2898099 -0.72835696 0.23206207 0.6417173 -0.62052816 0.78018737 -0.6332933 -0.55390614
-0.15231486 -0.26712057 0.61769503 0.31561366 0.61398774 -0.22670062 0.1307921 0.22566094
-0.03273429 -0.028848602 -0.38049692 -0.4841848

gat_layer_2.attention_3.W f4 [5, 10]
00000000: 473a 54bf a49b 1c3f e3c3 abbe 2c2a 363f
00000010: 9d5f dabe fd3a 663f df1d 0f3d 3bbb 2f3f
00000020: a576 403e 9396 9c3e d0f0 603f 5af8 1c3f
00000030: ab0d 073e 7472 3c3f f486 0c3e f609 b6be
00000040: 7879 3cbf e4ee 423f 3a9e 03bf ccd5 fa3e
00000050: 8f2d 493f d139 8b3e 113c 83be 1280 0dbf
00000060: d2c3 333f 7bb9 073f ff13 be3d 4483 f8be
00000070: 33b4 3bbf 4413 c63e 802a aa3c 2e26 83bf
00000080: 2149 583f 9062 373e 1e46 dc3e acb5 3dbf
00000090: 5961 90bd ed15 8b3e b060 3b3e 9a11 47be
000000a0: 4c77 403f f2f1 82bf 99f7 8e3e 6b13 313f
000000b0: e68f 1a3e e8d3 12bf 8669 3bbf bbdf 0a3e
000000c0: 98a9 bd3e 841c f33e
-0.82901424 0.6117499 -0.33547887 0.711581 -0.42651072 0.8993376 0.034940597 0.68645066
0.1879526 0.3058363 0.8786745 0.61316454 0.13188808 0.7361214 0.13723356 -0.35554475
-0.73622847 0.7614577 -0.5141331 0.4899124 0.7858514 0.27192548 -0.25631765 -0.55273545
0.70220673 0.53017396 0.09281158 -0.48537648 -0.7332184 0.38686574 0.020772219 -1.0246027
0.84486586 0.17908692 0.43022245 -0.74105334 -0.070498176 0.27165166 0.18298602 -0.19440308
0.7518203 -1.0230086 0.27923277 0.69170254 0.15093955 -0.57354593 -0.7320789 0.13561909
0.37043452 0.47482693

gat_layer_2.attention_3.a f4 [20, 1]
00000000: ea13 1d3f 2f5e cbbe 1257 3dbf b911 123f
00000010: 1c5b 7cbe db8c 523d 7478 d63e 1c4d 19bf
00000020: ad33 29be f807 b13d 0cb1 a33e 69b8 1d3f
00000030: c343 0ebe 4431 a83e 28ff 34be 5967 54be
00000040: a918 c5be 0280 9b3e 13be fdbe facf 91be
0.6135851 -0.39720294 -0.73960984 0.5705829 -0.2464413 0.05140386 0.41888773 -0.59883285
-0.16523619 0.08644098 0.31971014 0.6160951 -0.13893037 0.32850087 -0.1767546 -0.20742549
-0.38495377 0.303711 -0.49559078 -0.28478986

gat_layer_2.attention_4.W f4 [5, 10]
00000000: f5c8 1dbe 498c 0c3f 7af2 2bbf 42c8 05be
00000010: 8e45 8bbe 55c2 b33e 6cd7 20bf 766d aabe
00000020: e4e2 9b3d d3aa 943e f513 063f 55fa 813e
00000030: d371 8a3e 4c4c 253f a743 513f e6d7 fb3e
00000040: 2dcb fcbd 9511 90be edb4 cabe 4ea8 3dbe
00000050: d9ae 1abf 585e 4ebf e8a1 35bf 0410 533f
00000060: 6152 46be 7c59 29bf a127 3bbf fbd0 1bbe
00000070: cce7 003e 58c3 24bf 3a35 893e f36d 383f
00000080: 8e12 843e 588e 0bbf 5be5 13bf 5357 babe
00000090: 29b4 3f3f c199 213e cde1 7f3e 23f2 41bf
000000a0: b825 c3bd 7706 e5be e96e af3e b9ac 273f
000000b0: 280b 0e3d 6290 23bf 1404 81bd 3651 6b3f
000000c0: aefb 58be 9a9e 4abf
-0.1540869 0.5490156 -0.67166865 -0.13064674 -0.27201504 0.351092 -0.6282871 -0.33286637
0.07611635 0.2903658 0.523742 0.253863 0.27039966 0.64569545 0.81743854 0.49188155
-0.1234344 -0.28138414 -0.3959116 -0.18521234 -0.60423046 -0.8061271 -0.70950174 0.8244631
-0.19367363 -0.6615217 -0.73107344 -0.15216438 0.12588423 -0.6436057 0.2679842 0.7204277
0.25795406 -0.54514074 -0.57771844 -0.36394748 0.7488428 0.15781309 0.2498848 -0.75760096
-0.09528679 -0.44731495 0.34264305 0.6549793 0.03467861 -0.63892186 -0.06299606 0.91920793
-0.21189758 -0.79148257

gat_layer_2.attention_4.a f4 [20, 1]
00000000: f280 40bd cb7b 633e 2fae 443f 7048 0bbf
00000010: 3437 2bbf d1b9 03bf 5482 1abf 1df3 bc3e
00000020: 8681 52be 46bc 80bd 2a38 9fbe 4cfd 133f
00000030: 4f5d d4be 23c6 32bf e83e 9b3e 3657 163f
00000040: 16fe 8fbe 8711 1dbf d474 1b3f 4ced 51bd
-0.04699797 0.22215192 0.76828283 -0.54407406 -0.6688111 -0.5145541 -0.60355115 0.3690423
-0.20557222 -0.0628591 -0.31097537 0.57808375 -0.4147744 -0.6983358 0.3032143 0.58726823
-0.2812354 -0.6135487 0.6072514 -0.051251695

gat_layer_2.out_att.W f4 [50, 5]
00000000: dc21 e53e d921 50be 317b 24be 75d6 19be
00000010: d51a b2be 6253 413e 763d 65bd 44a4 923e
00000020: 4df5 b23e 25b1 163e abcc e9bd adb4 9a3e
00000030: c82e 9abe a106 a9be 3af7 aebe a0b4 ab3b
00000040: cb60 5cbe 53f1 a0bd ebef 8dbe 7b10 a9be
00000050: ca7c 323e f443 afbd 943d e53d cc9d 93bd
00000060: 5cdb 9f3c e7c3 84be cdbe 4abe 8d21 9b3e
00000070: 00aa 95bc a848 1dbe 14f1 1abe aeb3 c33e
00000080: 468c a83e 629c 833e 6502 2f3e 08ae 2cbe
00000090: c68c 96be 6aca 75be 5355 a03d 3c30 7e3e
000000a0: 8cf4 f4bd 410e b4be fbf2 35bd 188b cfbe
000000b0: e80d 053d d9f7 1a3e a2b2 cb3e 9e1e e3bd
000000c0: 3ff3 d63e df30 c83e be12 063d ff9b 01be
000000d0: 8629 3cbe de4c afbe 68fa 8cbe 2590 48be
000000e0: 213c 123c c31b 40bd c15c 81be a5ad 953e
000000f0: f8a2 ee3d e784 5bbe 7cd3 debe 5c50 a83e
00000100: 8f1c 98be 0e9f c6be 1a9e cc3e 2b20 913e
00000110: d9ea 73bd 2456 353e 6709 91be 54a2 cb3e
00000120: 8c8e 7cbd bef9 56be 18d6 e3bd 0b62 e2be
00000130: 16a0 5c3c 4be5 293e 1e31 6bbe 60d0 27be
00000140: 1001 a0be 411d e33d 1700 a4bd 9cd7 7f3e
00000150: 01b9 4cbc 0d7b abbd 6de1 c8bd d2a8 e8be
00000160: e4c2 91bd c6bc 9fbe 7c15 99bd a547 a2be
00000170: 116c 32be 7cf8 79be 51a1 03bf 8f19 c13d
00000180: d878 413e 7e7f 553e bf86 2c3d 34b7 053e
00000190: 1d85 babe 898b a6be 3974 93bd 5c4a 07be
000001a0: 1826 82be d21f c1be e3a1 0dbe 7170 d9be
000001b0: 711c 4f3e c438 dcbe 80bc ebbe c824 48be
000001c0: 9fdb c8bd c544 933e f53b 953e a455 023e
000001d0: ad36 5b3e f9dc 543e c16b 3d3e 1f73 17be
000001e0: e7a9 cdbe 7801 9ebe d068 3e3e 05d1 993e
000001f0: 9995 5c3e 50a3 993c b6a8 9c3e fc1e b9be
00000200: 7ce9 923e 38ca cebe 57a6 25be f6c6 4d3e
00000210: 9e3b bf3e 0d9f b5be 00d4 95bb 449a 7ebe
00000220: e671 58be 880e 67be cda0 263c 75e6 8bbe
00000230: b76d aebd 351b 87be 9170 9c3c f4e0 bfbe
00000240: 6ce5 f4bb c4ec dcbe cd79 e13e 7316 1dbe
00000250: d6b3 8f3e 8e6d dfbe b9a0 a53e a22e f5be
00000260: e879 233e 3a4d 5339 7ca7 7c3e d3dd 47be
00000270: be9e 8bbe fd9a 21be 62b4 84bd a14c 20be
00000280: 5469 e63d 6282 6dbe 8a9b 94bc 1c51 1ebe
00000290: d41d 9c3e 7b27 49be fd29 bf3e 4e6a bd3e
000002a0: b6ae 863c 6c2f c03e db9e 663e 3c18 a2bd
000002b0: 0947 513e 9aea cf3e c425 b53e cdb5 023e
000002c0: 3bd3 7bbe 6570 2bbe 9643 aa3e e96b 07bc
000002d0: 7ce6 403e b225 30bd 872b 9fbe aade 93be
000002e0: 408f 023e 2769 99be b6c6 d23e cb71 e9be
000002f0: 000c ff3d 4cec 70be 53c2 bdbe 6f0a d5bc
00000300: 162c 17bc 3b85 c43e d6e1 b9bd 52be 033e
00000310: db5a 653e e69b bcbb 0d34 9c3c 7af2 0d3f
00000320: 05d7 e1be 508a 3a3e 42e7 a13e 3df7 b83c
00000330: e5ca 5c3e bc9f 343e 177f 163e e98b 67bd
00000340: da93 c5be cacd c03e 17f9 e5bd 2c6f 90be
00000350: c94b db3d 68bd 9c3e 9f8b 09be 1a7d 3d3e
00000360: 7d34 613e 88fe 8abe 8075 e03c 58c9 a73e
00000370: 964b cdbe b828 c73e 0452 9d3e 5ac7 e6be
00000380: 1db7 18be 05bd b63e 6d37 bd3e 3ea6 9bbe
00000390: 41ff 7c3e d4f0 cb3e 922d e0be 67e0 ebbb
000003a0: 8057 933d f9d8 b4be a844 083d d5d2 95be
000003b0: 7bdd 98be f449 ab3e b5fd 513e 083b 393d
000003c0: e1ac aabe 2e75 6bbb f8f7 be3e d772 eabd
000003d0: 26aa 01bf ed66 853d ce28 5dbe 693e 84be
000003e0: 8089 b8bc 6876 b7be
0.44752395 -0.20325412 -0.16062619 -0.15023215 -0.34786096 0.18879464 -0.055966817 0.2864095
0.34952775 0.14716013 -0.114159904 0.3021597 -0.30113816 -0.3301287 -0.34172994 0.005240038
-0.21521299 -0.07858529 -0.27722105 -0.33020386 0.17430416 -0.08557883 0.11193386 -0.07207832
0.019513778 -0.25930712 -0.19799347 0.30299035 -0.018269539 -0.15359747 -0.15131027 0.38223022
0.3291952 0.25705248 0.17090757 -0.16863263 -0.29404277 -0.24002996 0.07828774 0.24823087
-0.11960706 -0.35167125 -0.044421177 -0.40535808 0.032483965 0.15133609 0.39784724 -0.11089824
0.41982457 0.39099786 0.032732718 -0.12657164 -0.18375215 -0.34238333 -0.27534795 -0.19586237
0.008925469 -0.046901476 -0.25266078 0.29234043 0.116521776 -0.21437417 -0.43520725 0.3287381
-0.29709288 -0.38793224 0.39964372 0.28344855 -0.05955014 0.17708641 -0.28327486 0.39772284
-0.06165938 -0.20993707 -0.111248195 -0.44215426 0.013465902 0.16591375 -0.22967955 -0.16388083
-0.3125081 0.11089564 -0.0800783 0.24984592 -0.01249528 -0.083730794 -0.098086216 -0.454413
-0.071172506 -0.3119871 -0.07474801 -0.31695285 -0.17424037 -0.24411196 -0.51418024 0.09428703
0.18893754 0.20849416 0.04212069 0.13058168 -0.36429682 -0.32528332 -0.07199902 -0.1321196
-0.25419688 -0.3771959 -0.13831286 -0.42468598 0.20225693 -0.4301206 -0.46042252 -0.19545281
-0.098075144 0.28763404 0.29147306 0.12727982 0.21407576 0.2078742 0.18498136 -0.14790009
-0.40168688 -0.30860496 0.1859467 0.30042282 0.21541442 0.018754631 0.30597466 -0.36156452
0.2869376 -0.40388656 -0.16176735 0.20095429 0.37350172 -0.3547291 -0.0045723915 -0.24863535
-0.21137199 -0.22564137 0.010170174 -0.27324262 -0.0851702 -0.26387945 0.019096645 -0.37476313
-0.0074736383 -0.43149388 0.4403824 -0.15340595 0.2806689 -0.4363827 0.32349184 -0.4788714
0.15964472 0.00020151297 0.24673265 -0.19518213 -0.27269548 -0.1578178 -0.06479718 -0.15654232
0.112505585 -0.23194268 -0.018140573 -0.15460628 0.30491507 -0.19643967 0.37336722 0.36995167
0.01644073 0.3753618 0.22521536 -0.079147786 0.20437254 0.40608674 0.35380375 0.12764664
-0.24592297 -0.16742094 0.3325469 -0.008265474 0.18837923 -0.0430047 -0.31087896 -0.28880817
0.12749958 -0.29963037 0.4116723 -0.4559463 0.12453461 -0.2352764 -0.3706232 -0.026005952
-0.0092268195 0.38382897 -0.09076278 0.1286557 0.2239794 -0.005755889 0.019067788 0.55448115
-0.4410936 0.18216825 0.31621748 0.02257883 0.21561773 0.17639059 0.14696918 -0.056529913
-0.38589364 0.37657005 -0.11229151 -0.28209817 0.10707814 0.30613256 -0.13432167 0.18504754
0.21992679 -0.27147317 0.027399778 0.327708 -0.4009673 0.38898253 0.30726635 -0.45073968
-0.14913602 0.35691085 0.3695635 -0.3040027 0.24706747 0.39832175 -0.43784767 -0.0071983817
0.07194424 -0.35321787 0.0332686 -0.29262415 -0.29856476 0.3345486 0.20506938 0.045222312
-0.3333502 -0.0035927999 0.3729856 -0.11447685 -0.5065025 0.06513772 -0.21597597 -0.25828865
-0.022526503 -0.35832524

gat_layer_2.out_att.a f4 [10, 1]
00000000: 5474 d53d 6e94 5f3f bac6 f8bd 97b8 3e3f
00000010: bf81 e03e e92d ad3e ed97 803d d096 823f
00000020: 78a5 bcbe 564a 23bf
0.104225785 0.8733586 -0.12147279 0.7450041 0.43848988 0.3382409 0.062789775 1.0202274
-0.36844993 -0.637853
