tests/gat/encoder-checkpoint16.pt (torch, 20210 bytes, 36 tensors)

gat_layer_0.attention_0.W f4 [5, 10]
000000 e5 0c e4 be 75 27 4b bf 04 73 cb 3e 69 2f a1 be
       -0.44541088 -0.7935708 0.39736187 -0.31481484
000010 aa 63 06 be 42 2e 9f 3e 2c 3e 4c 3f 1f 84 dd bd
       -0.13123956 0.3108998 0.79782367 -0.10816216
000020 f9 6f 00 3f 4f d6 ea be 53 37 48 be a3 45 29 3e
       0.50170857 -0.4586663 -0.19552355 0.1653047
000030 b1 99 8b 3e b0 44 5a bf e6 e2 56 be e1 21 c7 3d
       0.27265695 -0.8526106 -0.20984992 0.09723259
000040 dd 2d 2a bf c6 ee 06 be a7 f2 cc be 4f 07 9d 3d
       -0.6647623 -0.13177022 -0.4002888 0.0766741
000050 a3 24 15 3e 25 a9 dd 3e 17 51 bc 3e a5 aa f7 3e
       0.14564757 0.4329311 0.36780617 0.4837238
000060 90 86 ab bd 21 42 c0 be a0 f5 ce 3e eb 7f 43 3f
       -0.08375275 -0.37550452 0.40421772 0.7636706
000070 03 e2 b6 3c de 07 d0 bd 70 04 ee be 02 a3 df 3e
       0.022324568 -0.101577505 -0.4648776 0.43679053
000080 ef 6c 19 3d 6a ee 01 bf 9b b2 89 be 10 c5 c5 3e
       0.037457403 -0.50754416 -0.26894078 0.3862691
000090 e5 3b 67 bf 1c e8 a1 3e c4 7c 47 3f 9c e6 58 bf
       -0.90325767 0.31622398 0.7792475 -0.8472688
0000a0 d5 2c 31 3f 90 5d 36 bf 9c e0 70 3e 10 c9 a3 3e
       0.69209033 -0.71236515 0.23523182 0.31989336
0000b0 74 53 1f be 77 ac 50 3f 63 a5 37 bd d4 e5 40 3f
       -0.15559179 0.8151316 -0.04483546 0.7535069
0000c0 69 08 e3 3e df e3 ba be
       0.44342354 -0.36501977

gat_layer_0.attention_0.a f4 [20, 1]
000000 1c c4 f1 bd 29 d0 6c be f5 35 41 3e 9e d6 3e 3f
       -0.11804983 -0.23126282 0.18868239 0.7454623
000010 2b 3f ac be 88 27 42 bd b7 bd 20 3f ad dd f9 be
       -0.33641943 -0.04740098 0.6278948 -0.48801938
000020 f5 e7 9b bd 31 9d 22 3f b9 77 03 bf c3 65 43 bf
       -0.07612602 0.63521105 -0.5135456 -0.7632715
000030 d0 95 fc 3e 59 ad 09 be 0d ed 16 be 0f 74 a7 be
       0.49333048 -0.13445033 -0.14738865 -0.32705733
000040 a9 5c a5 3e 9f 3a 2b 3e d6 cb a0 3d 61 25 d3 3c
       0.32297257 0.16721581 0.078513786 0.02577466

gat_layer_0.attention_1.W f4 [5, 10]
000000 c4 0c 4f bf 1b 60 88 bc 7a e0 80 bd 6a 7d b1 bc
       -0.80878854 -0.01664739 -0.062928155 -0.021666247
000010 02 ec bc bd a4 80 55 be 10 46 52 bf 36 be 39 3f
       -0.092247024 -0.20849854 -0.82138157 0.72555864
000020 c0 1d 42 bf c7 ba 36 bf 03 2e bf 3e 3e ac 56 bf
       -0.75826645 -0.7137875 0.37339792 -0.8385657
000030 62 d0 34 bf 3f 1d 34 3f d3 68 5d 3f 8b 50 c3 be
       -0.70630467 0.70357126 0.86488074 -0.38147387
000040 51 8b 43 3f 2b 3d a1 be d2 8e 6e bd f4 b9 22 3e
       0.76384455 -0.3149198 -0.058241673 0.15891248
000050 7a fb 3c 3d fd ee 09 3f 48 b2 0c bf 89 ab 99 be
       0.046138264 0.5388029 -0.54959536 -0.30013683
000060 5a cd 51 be db 55 de be df 13 49 3f 5b 1a c0 3d
       -0.20488492 -0.43424878 0.78545946 0.09380027
000070 26 df 38 bf 1a a1 e5 be b8 b7 06 3f b2 91 f5 3d
       -0.722155 -0.44849473 0.5262408 0.1199068
000080 3a 43 b6 3e ef 7a bd 3e 45 71 5a 3d 6d d1 46 3f
       0.35598165 0.37007853 0.05333068 0.7766331
000090 71 6c c5 be d8 c9 5d 3f 29 eb c9 be 1d d6 4a bd
       -0.38559297 0.86636114 -0.39437225 -0.0495206
0000a0 7f 30 18 bf 46 4b a7 be 77 e6 51 3f 2f c4 2d bf
       -0.59449 -0.32674617 0.81992286 -0.6787748
0000b0 df 29 16 3f a2 29 27 3f 0b 06 06 bf 5b 7d 06 bf
       0.5865764 0.652979 -0.5235297 -0.5253503
0000c0 b8 f8 47 bf a4 63 24 bf
       -0.7811389 -0.6421454

gat_layer_0.attention_1.a f4 [20, 1]
000000 9f 33 b7 be 76 cd b2 3d 41 75 8f 3e 2e b4 6e be
       -0.3578157 0.08730595 0.28019145 -0.2331092
000010 89 12 6c 3e b8 95 c6 be 7d dd 07 bf b3 47 ff be
       0.23053946 -0.387861 -0.5307234 -0.4985939
000020 33 4e bb bd ef 8a 83 be bc 01 0c 3f 5e bf 36 3e
       -0.09145775 -0.25691935 0.54690146 0.17846438
000030 6c 02 9a be 85 69 a4 be 2b ed 39 3e cc fb 05 3e
       -0.30079973 -0.32111755 0.18156879 0.13084334
000040 2f 96 cb be 31 75 f0 be 27 74 2f 3f 2e 25 db 3c
       -0.39763018 -0.4696441 0.6853661 0.026751127

gat_layer_0.attention_2.W f4 [5, 10]
000000 6d 54 54 3f 52 fe f6 be e3 0d 12 be 83 af 4a 3f
       0.82941324 -0.48240906 -0.1426311 0.7917406
000010 b4 c9 2d 3f f3 21 a9 3d dc b6 17 bf 2f 9e 0a bf
       0.678859 0.082584284 -0.59263396 -0.5414762
000020 73 47 1e bf 82 87 0e bf 4c 5a 8a 3e 44 2e 6a bf
       -0.6182777 -0.5567552 0.27022016 -0.91476846
000030 de 20 58 bf 62 30 50 3e a3 b8 66 be ce d6 b9 be
       -0.8442515 0.20330957 -0.22531371 -0.36296695
000040 66 27 56 bf 3b a3 8e 3e 59 e0 a1 bd 28 b5 d0 be
       -0.8365387 0.2785891 -0.07904119 -0.4076321
000050 9d 8f 0a bf c4 b2 2b 3f c8 9a 37 3f ef bf b5 be
       -0.54125386 0.6706965 0.7172055 -0.35497996
000060 3f 40 ec 3e cb ac 3d 3e c2 e5 09 bf a4 9d e6 be
       0.46142766 0.18522947 -0.5386621 -0.45042145
000070 07 f2 5f 3f 55 57 1f 3f 8e 8c 62 bf e3 89 8b 3e
       0.8747868 0.62242633 -0.8849572 0.27253637
000080 e6 67 20 3f 05 26 7a 3e fd c9 15 bf 19 08 5f be
       0.62658536 0.24428566 -0.58511335 -0.21780433
000090 23 ea 33 bf 52 0b a2 be 73 a2 00 bf 83 4a 0a 3f
       -0.7027914 -0.31649262 -0.5024788 0.54019946
0000a0 57 f9 89 bd 34 4c 4a be 5b 43 2f bf ed 33 52 3e
       -0.06737011 -0.19755632 -0.6846215 0.2052762
0000b0 12 ef 18 3d 3f 1d a1 be c3 73 53 bf 5e 6c 59 bf
       0.03733737 -0.31467625 -0.82598513 -0.8493098
0000c0 cd 3a 1a be 45 1a a0 3e
       -0.15061493 0.31270042

gat_layer_0.attention_2.a f4 [20, 1]
000000 ed 48 e8 be d3 72 94 be 18 78 ba be 24 e1 1f bf
       -0.45368138 -0.28993854 -0.3641975 -0.6245291
000010 1d 6b 39 bf 3a b8 07 3f 65 b0 c8 3c 0d 38 09 3f
       -0.72429067 0.5301548 0.024498174 0.5360115
000020 cd 94 ea 3e 04 a2 0f 3f e7 b0 3c 3f 0d 2d 31 bf
       0.4581665 0.5610659 0.7370743 -0.6920937
000030 65 6d 04 bf c6 e6 7e 3e 1b d9 fa 3e f1 bd 7a 3e
       -0.5172942 0.2489272 0.48993763 0.2448652
000040 72 d6 28 3f 7d 77 90 be dc 77 05 bf 53 b6 fd be
       0.6595222 -0.28216162 -0.52136016 -0.49553165

gat_layer_0.attention_3.W f4 [5, 10]
000000 2a c6 b5 be 84 f5 de bd 13 98 9f 3d 34 5e cb 3e
       -0.3550275 -0.10886672 0.07792678 0.3972031
000010 b2 0e 92 be f2 5c 50 bf cb 06 26 bf 0f 55 5b 3f
       -0.28526837 -0.81391823 -0.64854115 0.85676664
000020 c1 29 9e bd 15 b8 05 bf 02 bd 31 bf e7 29 1f 3e
       -0.07722808 -0.5223401 -0.6942903 0.15543328
000030 e7 f9 fa 3d 81 7c 15 3e 85 8d d2 be 66 23 12 bf
       0.12254696 0.14598276 -0.41123596 -0.57085264
000040 18 d5 26 bf 6f e0 2d 3e 69 81 0d 3f 9e 38 1e 3e
       -0.65168905 0.16980146 0.5527559 0.15451285
000050 d6 a4 13 3f c1 d9 36 3f 2b a8 80 be ef d7 ef 3d
       0.57673395 0.71426016 -0.25128302 0.11711108
000060 d1 15 b5 3e 70 a0 29 bf f3 1c d6 3e e4 0c 1c bf
       0.35368207 -0.66260433 0.41818962 -0.6095717
000070 e6 b2 03 bf 33 33 b3 3e ca f4 f5 bd 90 cb 7a bc
       -0.5144485 0.35 -0.120095804 -0.015307322
000080 09 3c 1a bf 96 31 f8 3e 19 7f 23 3f 7e 7c 3c bf
       -0.60247856 0.4847533 0.6386581 -0.7362746
000090 a1 44 f8 be 59 8e 30 bf 0c cd 1e 3f 6d d3 3a 3e
       -0.4848986 -0.68967205 0.62031627 0.18244715
0000a0 77 b1 2d 3f ab 0f a6 3e 5d f3 40 bf 7b 4e e8 3e
       0.67848915 0.3243383 -0.7537134 0.45372376
0000b0 f0 3f 0e 3e d1 93 b2 be 07 d0 22 bf 6a 4a 1a 3e
       0.13891578 -0.348784 -0.63598675 0.15067449
0000c0 6a 2f 2e 3f 21 5e 28 bf
       0.680411 -0.6576863

gat_layer_0.attention_3.a f4 [20, 1]
000000 2b 19 a7 be e7 ab 2f 3d a2 e2 f9 3e 56 75 3f 3f
       -0.3263639 0.04288855 0.4880572 0.74788415
000010 75 97 27 3f 85 88 2a 3f 49 10 1d bd ee f5 3e 3f
       0.6546548 0.6661456 -0.03834561 0.7459401
000020 75 02 a8 3d 30 90 05 bf a7 04 84 be 4e c6 14 bf
       0.08203594 -0.5217314 -0.257848 -0.5811509
000030 2f 1c 5d bd 46 ce 26 bf 9b cf c0 be 0e 7e ab 3d
       -0.053981956 -0.651585 -0.3765839 0.083736524
000040 88 33 f1 3e c0 bc af 3c 13 64 e4 3e 87 d4 f6 3d
       0.47109628 0.021452308 0.446076 0.12052255

gat_layer_0.attention_4.W f4 [5, 10]
000000 4c bb 99 be f9 11 3e bf 92 13 47 3f 1a 55 b2 3e
       -0.3002571 -0.74246174 0.77764237 0.34830552
000010 3d 74 10 3c 62 00 a1 3e b4 ef f5 3e 16 72 93 3e
       0.008816776 0.31445605 0.4803444 0.28797978
000020 d1 61 a5 be 3f f5 2d bf 14 3b fd bd 5f 44 eb be
       -0.3230119 -0.6795234 -0.12364784 -0.459506
000030 94 d9 5e bf 94 19 15 bf c8 56 d1 3e a8 03 03 3f
       -0.8705075 -0.58242154 0.4088652 0.51177454
000040 8a 0e 25 bf d8 a3 81 be 3b 48 af 3e 05 ba d2 3e
       -0.6447531 -0.25320315 0.34234795 0.41157547
000050 b1 91 2e bf 3b 1d 03 3f a5 e0 a3 be 3a e8 e6 be
       -0.6819106 0.5121648 -0.32007328 -0.4509905
000060 d0 54 2b bf 61 ea 7a 3e 41 85 d5 3d a8 1d 01 3f
       -0.6692629 0.24503471 0.10425807 0.50435877
000070 9e 49 17 be dd d0 22 3f 72 f8 53 be f5 cb 82 be
       -0.14774176 0.6359995 -0.20700243 -0.25546232
000080 f5 98 ee be 28 44 12 3f 31 c3 63 bf 3d 51 4d 3e
       -0.46601072 0.5713525 -0.88969713 0.20050521
000090 5a 15 37 bf d5 7c de be 5b ec 4b bf 15 c1 37 3f
       -0.71516955 -0.43454614 -0.79657525 0.71778995
0000a0 87 81 1f bf a7 24 3f 3f c4 78 12 3f f0 52 8a bd
       -0.6230702 0.746653 0.57215524 -0.067541
0000b0 c8 52 84 be 9a f7 4f 3f ae 1e 51 3f a5 de 50 3f
       -0.25844407 0.81237185 0.8168744 0.8158973
0000c0 0a 6c 52 bf 00 97 10 3e
       -0.82196105 0.14120102

gat_layer_0.attention_4.a f4 [20, 1]
000000 b3 2b c3 3c 28 0b e7 be 66 d6 ef be 88 0a db be
       0.023824548 -0.451257 -0.4684326 -0.42781472
000010 8e d2 8f be f0 ea 0b 3f 52 ff d9 3e 52 bf 26 3e
       -0.28090328 0.5465536 0.42577606 0.1628392
000020 85 c6 e5 be e6 b8 c6 3e cf ee 25 3f b2 b7 25 3f
       -0.4487802 0.3881294 0.6481752 0.6473342
000030 a1 46 71 be c6 1c 14 3f 7b 9e c2 3e e4 94 06 3f
       -0.23562099 0.57856405 0.38011536 0.5257094
000040 76 6b da 3e c0 f1 fd 3e 01 19 0e 3f e8 de 0f bf
       0.4266011 0.49598503 0.555069 -0.561995

gat_layer_0.out_att.W f4 [50, 5]
000000 7c a8 d8 be c4 6d 8e be 98 c1 c0 3c 01 71 6c be
       -0.42316043 -0.2781812 0.023529813 -0.23089983
000010 d0 2f 87 be f5 86 f6 be 34 a1 76 3d 44 89 92 be
       -0.26403666 -0.4814984 0.06021233 -0.2862035
000020 2f 29 12 3e 71 08 4c be 42 89 93 3e 1a 24 b1 be
       0.14273523 -0.19925095 0.28815657 -0.34597856
000030 74 87 48 3e 3c 73 28 3c 7e 17 80 3e e8 ea 37 bd
       0.19582921 0.01028138 0.25017923 -0.04490176
000040 be 67 42 be 93 79 c2 3d 61 9a b8 3e 46 32 bb be
       -0.18984887 0.09495845 0.36055282 -0.36561793
000050 9a 34 cd 3e d8 f4 3f bd aa 0c 0f 3e 14 39 55 3e
       0.40079194 -0.04686436 0.13969675 0.20822555
000060 4b fe e2 3e 09 c1 90 be 3a ec f1 3c 8b fc bd 3e
       0.44334635 -0.28272274 0.029531587 0.37106737
000070 99 ea 81 3e c1 29 41 be ff f0 cb 3e 35 14 70 3e
       0.25374296 -0.18863584 0.39832303 0.23445208
000080 b6 b0 ab be 96 48 88 be 2a 89 34 3e 68 cd fb be
       -0.33533257 -0.2661788 0.17630449 -0.4918015
000090 2e 90 1b 3c 84 c9 80 3e a5 ad 88 be b3 dd 6b 3c
       0.009494824 0.25153744 -0.2669498 0.014396119
0000a0 d7 7a 36 3e 81 fd 83 be 62 1d 50 bd 0e aa 03 3e
       0.17820297 -0.25779346 -0.05080927 0.1285784
0000b0 e4 74 9b 3c c8 ce b3 be 1b 33 6b 3e 4e 50 06 be
       0.018976636 -0.351187 0.22968714 -0.13116571
0000c0 5b 11 9e be 08 37 87 3e ef 62 a2 be fd 84 73 3e
       -0.30872616 0.26409173 -0.31716105 0.237812
0000d0 f8 57 47 be 8b 26 82 be 11 a8 bb bd 2a 45 47 be
       -0.19467151 -0.2542003 -0.091629155 -0.19459978
0000e0 52 73 4e 3e 73 23 91 bc 2c 36 73 3e 10 cc 9f be
       0.20161179 -0.017717099 0.23751134 -0.31210375
0000f0 a8 3f 7d bc 0d 9f a5 3e b1 18 cc be 7c 87 bd 3e
       -0.015457071 0.3234791 -0.39862588 0.3701743
000100 cd 3c a5 3e 26 78 e9 3d 90 d1 55 3e ef 77 8b be
       0.3227295 0.113998696 0.20880723 -0.2723994
000110 6a 1e 49 3e 49 37 ea 3e 08 0f f6 3c 79 f3 e7 be
       0.19640508 0.45745304 0.030036464 -0.45302942
000120 bd b5 8a 3e 0b a5 b9 be 19 bc db 3e 9a d3 8a bd
       0.2709178 -0.3625873 0.42916945 -0.06778641
000130 fc df 88 bd 20 13 45 bd 77 7b a2 3e fa 47 df be
       -0.06683347 -0.048113942 0.3173482 -0.436096
000140 5a c5 6b be 2c a3 7e 3e 67 29 27 be bf 67 f1 3e
       -0.23024502 0.24866933 -0.16324387 0.47149464
000150 1d 34 d4 3e a8 0d 3f 3d 3f b9 36 be 56 4a 5e 3e
       0.4144601 0.046643883 -0.17844103 0.21708044
000160 81 37 25 bb a3 03 2d 3e 27 84 dc be 93 b0 28 bd
       -0.0025210085 0.16895919 -0.43069574 -0.04118402
000170 09 ff 38 bc a4 2f 58 3d 1e 96 c2 3e 0e 9c a2 3e
       -0.011291274 0.05277981 0.38005155 0.31759685
000180 a4 11 90 be 17 31 72 be dc f7 bc 3e f3 a0 72 3e
       -0.2813846 -0.23651539 0.36907852 0.2369421
000190 a8 29 4a 3e 27 01 da be 3d be 90 bd cf 89 97 bd
       0.19742453 -0.42579004 -0.07067535 -0.07399332
0001a0 b9 6e c0 3e 54 22 96 3e 9d 7c a0 3e ed 37 f1 bc
       0.37584475 0.29323065 0.31345072 -0.029445613
0001b0 6e 11 41 be 7f 16 d3 be a1 53 c4 3e 9c 92 92 3e
       -0.18854305 -0.412281 0.38345054 0.2862748
0001c0 21 52 83 be 3d 0b 10 be a2 f1 9d 3e c8 9e b2 3c
       -0.25648597 -0.14066787 0.30848414 0.021804228
0001d0 1b e0 14 be ce 6e 35 be 2e 85 1a 3e 50 a3 52 be
       -0.14538614 -0.1771805 0.15089867 -0.20570111
0001e0 7a bb 0d 3e 4d 36 d4 be 0c f2 c8 3d 10 3f d7 3d
       0.13841048 -0.41447678 0.09811792 0.10510075
0001f0 7e f2 a4 bd 3e 33 83 3d a1 3a 16 3e 1f 42 92 be
       -0.08054064 0.06406258 0.14670803 -0.2856607
000200 c0 ec 9e 3e 02 14 76 be 98 04 9c be 7c 2f 83 be
       0.3104 -0.2403107 -0.30472255 -0.25622165
000210 10 2c a6 3e 9b 48 f4 be a7 8f a5 be f4 bb ba 3e
       0.32455492 -0.47711644 -0.3233616 0.36471522
000220 97 30 0e bd 4e 87 d0 be 64 1e dd 3e 43 4a ab be
       -0.034714308 -0.4072823 0.4318725 -0.33455095
000230 09 ba 72 be 34 48 ba bd 6d 4f 88 3e 11 44 cf be
       -0.2370378 -0.09095803 0.26623097 -0.40481618
000240 a3 6a 9a 3e d6 0f ce 3e 73 ee 2a be 8e b4 5d 3e
       0.30159482 0.40246457 -0.16692524 0.21650907
000250 f1 0b a1 be 7b 3d b4 be a6 28 2d 3b 64 65 bb 3e
       -0.31454423 -0.35203156 0.0026421933 0.36600792
000260 f5 6d 8e bd 46 92 c4 be 6b 08 d6 3d d4 d1 8f 3e
       -0.069545664 -0.38392848 0.10450824 0.28089774
000270 03 bb 21 be e5 c1 e1 be ba cf 82 3e 74 26 34 3e
       -0.15793996 -0.44093242 0.25549108 0.17592794
000280 76 00 c0 be d4 d8 50 3e 3b b4 bc be 2a d8 92 3e
       -0.37500352 0.20395213 -0.36856255 0.28680545
000290 aa 46 d6 3e 24 de d6 be d8 58 3b 3e 36 f0 d6 3e
       0.41850787 -0.41966355 0.1829561 0.4198014
0002a0 bb cb 39 3e 9c c8 e6 3e ee 01 4d be f2 7a 6f be
       0.18144123 0.45074928 -0.20020267 -0.23386744
0002b0 85 f4 e8 3e dc e2 b5 3e 89 13 b8 be 9f a3 08 be
       0.45499054 0.35524642 -0.35952404 -0.13343666
0002c0 f6 4e cf 3e 5c 4e 2e 3c c7 71 bc 3e 33 b9 12 3e
       0.4048993 0.0106387995 0.36805555 0.1432846
0002d0 b1 e0 52 3e c6 b6 b4 3e 66 8a 92 3e 14 33 b9 be
       0.20593525 0.35295695 0.28621215 -0.36171782
0002e0 57 92 72 3d b8 57 ac be 16 06 53 3e 1b da 84 3e
       0.05922159 -0.33660674 0.2060779 0.2594765
0002f0 86 7a bd 3d 91 1f 80 be c1 ff 9e be da 66 98 3e
       0.09251885 -0.25024083 -0.310545 0.2976597
000300 59 7a 85 3d 1c 89 a2 be 59 1a c0 be 84 90 af 3e
       0.065174766 -0.3174523 -0.37520102 0.34289944
000310 a7 d2 60 3e ab 77 a4 be 1b 0d 1a 3e 0b 34 00 3d
       0.21955357 -0.3212255 0.15044062 0.031299632
000320 28 0e 3e be 48 d8 b0 3e 1e bd 98 3e cc 40 e6 bd
       -0.18560088 0.3454001 0.29831785 -0.11242828
000330 11 b9 3b be 33 3a c8 3a 55 ab a6 3e d9 95 a4 3d
       -0.18332316 0.0015276134 0.3255259 0.08036394
000340 87 fa 9b 3e 40 c1 71 be 5c 72 fc 3d 3d 68 81 3e
       0.30464575 -0.23608875 0.123265 0.2527484
000350 f4 58 2e 3d 69 d4 ba bd f4 ac 5d 3e 1e c2 89 bd
       0.0425653 -0.09122545 0.21648008 -0.06726478
000360 f1 f4 c4 be 0a 6e bd 3e 15 f8 25 be 84 3c 92 3e
       -0.38468125 0.36998016 -0.16207917 0.28561795
000370 2b 5b dd 3e 77 1a d4 3e 99 e1 1b 3d bf 09 c7 be
       0.43233618 0.4142644 0.038056944 -0.38874623
000380 59 a9 bf 3d 44 0d 56 be 20 55 b0 be 7e e6 2d 3b
       0.093584724 -0.20903498 -0.34439945 0.002653509
000390 57 8a 03 be 05 14 18 3e e5 9b d1 bd 5c 0c b3 bd
       -0.12845741 0.14851387 -0.10234813 -0.08742592
0003a0 97 c1 d9 be 22 b6 89 3e ce 2e ef be 07 10 2c be
       -0.4253051 0.2689677 -0.46715397 -0.16802989
0003b0 67 42 dd 3b 87 07 cb bd 50 94 c1 3e 23 74 81 be
       0.0067523005 -0.09913545 0.37808466 -0.25283918
0003c0 07 9b 55 be ed e9 e2 be 45 a5 c9 3e 3a 67 92 be
       -0.2085992 -0.44319096 0.39383903 -0.2859438
0003d0 43 2d a8 3e 9f 54 bf 3c e4 a9 e1 be fa 52 c0 3e
       0.32847032 0.02335578 -0.4407493 0.37563306
0003e0 f0 3e e0 be 40 91 36 be
       -0.43798018 -0.17828846

gat_layer_0.out_att.a f4 [10, 1]
000000 ff 6d 12 3e b7 f7 7d 3f ed 85 28 bf 50 23 dc be
       0.14299773 0.9920611 -0.65829355 -0.4299569
000010 54 fc db be b7 64 45 bf 0b e4 c8 3e 94 d0 e2 bd
       -0.4296595 -0.77106804 0.39236483 -0.11074939
000020 62 06 80 bf 63 4a 33 bf
       -1.0001948 -0.7003538

gat_layer_1.attention_0.W f4 [5, 10]
000000 25 74 e2 3c dc 48 8b be ac ec 0a 3f 1d 21 5f bf
       0.027643273 -0.27204025 0.5426738 -0.871599
000010 dd 4f f5 3e cd 98 3e be f8 e9 a6 3e a8 c5 ef bc
       0.47912493 -0.18612976 0.3260038 -0.029269055
000020 c2 5c 3d bf da e0 09 bf 7d c8 38 3f cb 6e 49 bf
       -0.7396966 -0.5385872 0.7218092 -0.7868468
000030 31 71 dc be 19 59 e6 bd c0 6f 51 bf 4e 84 28 3c
       -0.43055108 -0.11247463 -0.8181114 0.01028545
000040 fd 9a 34 bf a4 28 38 bf 77 b6 22 bf cd 6e 09 3f
       -0.70548993 -0.7193701 -0.6355967 0.53684694
000050 c8 17 e8 3e bd c7 2a bf 98 f6 3d 3f 25 ea 86 be
       0.45330644 -0.66711026 0.742044 -0.26350513
000060 0f 42 2c 3f 2e 31 22 3d e5 80 f4 be 25 35 62 3f
       0.672883 0.039597683 -0.4775459 0.8836234
000070 49 92 01 3e 4a 25 48 3f b5 a9 ee 3d 73 bf 48 bf
       0.1265346 0.781819 0.11653463 -0.7841713
000080 b3 b8 c2 3e 1a 5b 0d be ca f6 65 3e 32 7f 5d 3f
       0.3803154 -0.13804284 0.22457424 0.8652221
000090 63 07 05 bf 68 f5 2a bf 07 09 62 be 93 3d 0c bd
       -0.51964396 -0.6678071 -0.22073756 -0.03423841
0000a0 2b 58 5b be a2 96 41 3f 49 c5 52 3f c7 6d 39 3f
       -0.21420352 0.7562047 0.82332283 0.7243313
0000b0 03 34 56 bf 50 3f 1c bf 46 26 21 3f 2e 5a ab be
       -0.83673114 -0.6103411 0.62949026 -0.3346724
0000c0 41 cc 05 3f 97 e5 e1 3e
       0.5226479 0.44120476

gat_layer_1.attention_0.a f4 [20, 1]
000000 b3 3b 56 3e 0b 6c 09 bf dd 90 51 be 7a 56 cf be
       0.20921211 -0.53680485 -0.20465417 -0.40495664
000010 af 29 3b 3f 72 5f 40 bf 68 ee a4 be 64 09 3c bf
       0.7311048 -0.7514564 -0.3221314 -0.7345183
000020 58 8d 32 3f ca 93 22 bf be 32 3d 3f e0 57 22 be
       0.69746923 -0.6350676 0.7390555 -0.15853834
000030 5e 68 50 be 47 ac 11 be 65 52 2d 3f 34 a2 45 3e
       -0.20352313 -0.14225875 0.6770385 0.19300157
000040 8a 7c ea 3e 87 20 61 be 74 20 3b bf 02 0f 3a be
       0.4579814 -0.21985064 -0.73096395 -0.18169788

gat_layer_1.attention_1.W f4 [5, 10]
000000 fb 44 08 3f b8 99 c2 bb 9f a1 00 3f 9a f7 ff 3e
       0.53230256 -0.005938735 0.50246614 0.49993593
000010 bf 27 de be 3d b3 80 be c2 fe 37 3d 37 d6 b2 3d
       -0.433897 -0.25136748 0.04492069 0.087322645
000020 c1 ed 12 bf 3c 82 1d 3e 9d fe 5f bf d6 49 d2 3d
       -0.57394034 0.15381712 -0.87497884 0.10267989
000030 94 88 34 bf 76 ae 59 3f 66 80 6c be b4 f7 b0 be
       -0.705209 0.8503183 -0.23095855 -0.34563982
000040 e9 91 17 3e 45 f4 48 bf 44 cf e8 3e ca 5a bd 3e
       0.14801754 -0.78497726 0.4547063 0.3698333
000050 4f ef 04 3f 3f 2a 23 bf 3e ac 55 bf 6a ab af be
       0.51927656 -0.6373634 -0.83465946 -0.34310466
000060 a7 15 5a be b7 fa 42 be c0 cf 18 3f 41 df d9 bd
       -0.21297322 -0.19040953 0.59692 -0.106382854
000070 2d 98 0c bf 20 4a b9 be 6e 81 bf 3d 64 d7 99 3e
       -0.549197 -0.36189365 0.09350859 0.30047143
000080 52 f4 39 bf 00 5d d5 3e f7 fa 80 be d2 31 aa 3e
       -0.7263843 0.41672516 -0.2519147 0.33241135
000090 bd a1 f7 bd 01 db 6f be 29 3d 5e be 0b 71 21 3e
       -0.12091396 -0.23423387 -0.21703018 0.15765779
0000a0 09 b7 38 bf 02 fa 07 3f 45 0c f6 be 3b 41 b2 be
       -0.7215429 0.53115857 -0.48056236 -0.34815392
0000b0 af 11 77 3e 33 6d cc 3d b2 1d 22 3e d9 c1 5b bf
       0.2412784 0.099817656 0.1583164 -0.85842663
0000c0 4a ba d8 be 13 e6 b7 bd
       -0.42329627 -0.0897943

gat_layer_1.attention_1.a f4 [20, 1]
000000 09 5d 0e bf 22 36 11 3e 51 44 1c be 3e 65 c7 be
       -0.5561071 0.14180806 -0.15260436 -0.3894443
000010 87 02 5c 3e 95 d3 0a be fb e5 17 3c c0 91 3e 3f
       0.21485339 -0.13557275 0.00927114 0.74441147
000020 77 3b d0 be 86 43 8c be b4 c3 18 3f cc 93 c3 3c
       -0.40670368 -0.27395266 0.5967362 0.023874186
000030 03 99 e4 3e 37 ef 28 bf f5 24 5a 3c c3 13 c1 be
       0.4464799 -0.6599001 0.013314475 -0.3771039
000040 78 56 b1 be 7b 3c 36 3f c1 8f 16 bd 1a e4 24 3f
       -0.34636283 0.71186036 -0.03675819 0.64410555

gat_layer_1.attention_2.W f4 [5, 10]
000000 31 36 ef bd b1 c1 43 bf ee 24 a8 be ea 61 98 be
       -0.11680258 -0.76467425 -0.32840675 -0.29762203
000010 1b 48 59 bf 5c 8c 9f be 2a 95 3f 3f dd be 37 be
       -0.8487565 -0.31161773 0.7483698 -0.17943902
000020 b6 95 af 3e 29 f4 19 bc 22 de ea 3e 92 e8 4d bf
       0.34293908 -0.009396591 0.458726 -0.80433
000030 d5 19 d9 3c ad 17 23 3f 23 68 66 3f 2a 32 a6 be
       0.026501575 0.63708 0.9000265 -0.32460147
000040 1e d7 d3 be 17 57 36 be 5c 2d 07 bf cf a1 5e 3c
       -0.4137506 -0.1780666 -0.5280359 0.013588383
000050 61 bc af 3d d8 a2 e8 3e 62 70 33 bf 50 d9 23 3f
       0.08580852 0.4543674 -0.7009336 0.6400347
000060 66 10 04 3f ba c2 d6 3e 80 15 4a bf 23 64 70 3e
       0.5158752 0.4194544 -0.78939056 0.23475699
000070 7d c2 63 3d 61 3e 83 3e ea 8b 12 3e 50 c0 8c bc
       0.0556054 0.2563353 0.14311185 -0.017181545
000080 69 f8 3e 3e c2 4b 05 3e cf 36 1c 3f 82 13 61 be
       0.18649448 0.1301718 0.6102113 -0.21980098
000090 41 5c f2 be 5a d9 47 be 19 d9 86 3c f2 8c a5 3e
       -0.4733601 -0.19516507 0.016460942 0.32334095
0000a0 e2 da 45 3e 43 6b 8f be 14 c5 27 bf aa 70 53 3f
       0.19321778 -0.28011522 -0.6553509 0.82593787
0000b0 b2 0f 27 3f 30 e4 55 be 62 77 bb 3e f3 9c bf ba
       0.65258324 -0.20887828 0.3661452 -0.0014618918
0000c0 d6 22 14 3e 60 93 e8 3d
       0.14466414 0.113562346

gat_layer_1.attention_2.a f4 [20, 1]
000000 42 0e ce 3e b5 66 0d 3f 6a af 9f be 8a 68 19 3f
       0.40245253 0.55234843 -0.31188518 0.5992514
000010 91 49 1f 3f 17 bb 35 bf 22 c8 cf be 6b f1 2d 3c
       0.6222163 -0.709886 -0.40582377 0.010616641
000020 01 e6 30 bf 08 b6 8a 3e 3c 97 31 3f 61 8f 43 3d
       -0.6910096 0.27092004 0.6937139 0.04774416
000030 a0 18 1b 3c ca 48 a0 be f2 5a 2e bf 27 ca f5 be
       0.00946632 -0.31305534 -0.6810752 -0.48005792
000040 53 70 98 3e 67 cf 5f bd 11 1b 33 be 12 90 36 be
       0.29773197 -0.054641154 -0.17490794 -0.17828396

gat_layer_1.attention_3.W f4 [5, 10]
000000 6d 0e 0f 3f b6 fc 69 bf c0 ed d6 3e f0 7f 5e bf
       0.55881387 -0.9140123 0.41978264 -0.8691397
000010 cb 79 41 3f 48 8a 35 be d2 5c 23 bf 3a 1e 49 bf
       0.75576466 -0.17728531 -0.6381351 -0.7856175
000020 11 85 68 3f cf c3 9c bd 83 b7 a5 3d 02 f2 01 bf
       0.90828043 -0.07654535 0.08091643 -0.507599
000030 0e 95 00 be ff a1 30 3f a9 6c 12 3f 0c b1 0b 3f
       -0.1255686 0.68997186 0.5719705 0.5456703
000040 67 77 c5 be cf 10 89 3e a4 8e 33 3f 2b 66 31 3f
       -0.3856766 0.26770636 0.7013953 0.6929652
000050 5a 22 2e 3f 61 f1 db 3e 61 d8 1b be 7a 12 38 bf
       0.68021166 0.42957595 -0.15219261 -0.71903193
000060 d0 a8 25 bf a6 57 40 3f 1a ee 25 3f 83 e8 a6 3d
       -0.6471071 0.7513374 0.6481644 0.08149817
000070 ed 80 2a bf 82 79 9f 3d 2f c2 9b be 76 93 5c bf
       -0.66602975 0.07786848 -0.30421588 -0.8616251
000080 4f bf be be 65 0b ce be dc a7 32 3f cf d3 8b be
       -0.37255332 -0.40243068 0.69787383 -0.27310035
000090 ad 2d 64 3e 08 06 96 be 67 c0 eb 3e b2 09 23 bf
       0.22283049 -0.29301476 0.4604523 -0.6368667
0000a0 fb bd 18 bf c7 b1 2e 3f 18 52 57 bf 50 d3 f1 be
       -0.5966489 0.68240017 -0.8410964 -0.4723153
0000b0 8d b3 27 3f e1 4f 57 3f a9 88 83 bd 57 35 c9 be
       0.6550835 0.8410626 -0.0642255 -0.39298508
0000c0 a5 99 fb 3e 27 4d c2 3e
       0.4914066 0.37949488

gat_layer_1.attention_3.a f4 [20, 1]
000000 b2 6e 09 bf 41 38 40 be d1 90 e9 be c4 42 66 be
       -0.5368453 -0.18771459 -0.456183 -0.22486407
000010 63 15 86 be 03 de ff 3e 75 7b 62 3c c6 18 d2 3e
       -0.26188192 0.4997407 0.01382338 0.41034526
000020 52 41 07 3e 32 dc 8f be 5a 4e 09 3f 1e 1d 48 be
       0.13208511 -0.28097683 0.5363518 -0.19542357
000030 67 a4 cc be 2f d4 35 3f d3 86 bb be af 02 76 bd
       -0.3996918 0.7102689 -0.366263 -0.060061153
000040 4e 8b fc 3e b5 fe 1a 3f a4 c1 b2 be d2 9f de 3e
       0.4932503 0.605449 -0.3491336 0.43481308

gat_layer_1.attention_4.W f4 [5, 10]
000000 21 83 5a 3f bf 58 da 3e 73 86 f3 3e 64 b0 ab 3d
       0.85356337 0.42645833 0.47563514 0.08383253
000010 f1 ac 40 3e 8d 69 ea 3d 75 ad 14 bf c8 27 33 3f
       0.18815972 0.114459135 -0.58077174 0.69982576
000020 8d 51 17 bf 03 5d de 3e 25 02 bd be 47 90 51 bf
       -0.5910881 0.43430337 -0.369157 -0.81860775
000030 4e 4d f2 3e 78 27 32 3f 55 2f 49 3f 45 a3 32 3f
       0.47324604 0.69591475 0.7858785 0.6978038
000040 10 4f 28 bf 0b 54 22 3f 59 b2 5b bf fc c3 0f 3f
       -0.6574564 0.6340949 -0.8581901 0.56158423
000050 3e 73 ec bd bc 53 58 3f 4a 68 55 bf c6 bb 21 be
       -0.11545418 0.8450277 -0.8336226 -0.15794286
000060 7d fd 55 bf 47 a6 19 bf a6 09 54 bf bf 67 00 3e
       -0.8358992 -0.60019344 -0.8282722 0.12539576
000070 e7 bf fe be fd 55 28 bf 21 fe 26 bf 3f d5 31 bf
       -0.49755785 -0.6575621 -0.6523152 -0.6946601
000080 ed 8e 12 3f 4b 58 51 be da 7f 41 3f 4d 14 1c 3f
       0.5724934 -0.20443837 0.7558571 0.60968477
000090 29 fa 45 3f 15 63 94 be 8e 32 a8 3d 15 6f 82 be
       0.7733484 -0.28981844 0.082127675 -0.25475374
0000a0 e5 3c e9 be 2d 74 e8 be ca c9 3a 3f 26 2c 42 3f
       -0.4555427 -0.45401135 0.72964156 0.75848615
0000b0 6f 7c 1d 3f e2 66 43 bf a4 0b e3 bd e7 10 fa 3e
       0.61517996 -0.7632886 -0.11086205 0.4884102
0000c0 c7 a0 4e 3f 6f 82 a2 3e
       0.80714077 0.31740138

gat_layer_1.attention_4.a f4 [20, 1]
000000 45 52 44 bf 6f 10 e3 be dd 1d c1 be 79 76 9b 3d
       -0.76688033 -0.44348475 -0.37718096 0.07590956
000010 f9 ce e2 3e ca 95 af 3e 99 b7 b1 3e 3c 9b 11 3e
       0.44298533 0.34293967 0.34710386 0.14219373
000020 41 a5 38 3f df d6 ff 3e 7f 36 7c 3c 04 1f 18 3e
       0.7212716 0.4996862 0.015393852 0.14855582
000030 7e c8 1b bf 61 47 c0 3e 58 d7 2c bf 8e a1 12 3f
       -0.608528 0.37554458 -0.6751609 0.5727776
000040 2e 40 05 3f 6c 6e 55 be 16 9f a6 be 6d b0 c6 3e
       0.52051055 -0.20842904 -0.32543248 0.38806477

gat_layer_1.out_att.W f4 [50, 5]
000000 76 61 09 3e b5 50 3f 3d b0 e4 05 3d 3d 1f f2 3c
       0.13416085 0.046707828 0.032688797 0.029555911
000010 b6 d1 df bc 2f 40 de 3e 67 02 ca 3e 63 a9 9b bd
       -0.027321678 0.43408343 0.39454958 -0.07600667
000020 4b cf b4 3e 54 f7 28 3e 5e a9 b6 3d 93 a1 f8 3d
       0.35314402 0.16500598 0.08919023 0.12140193
000030 2f 07 c9 be 46 17 4a 3e ea 47 67 3e 2e fd 0e 3e
       -0.39263293 0.1973544 0.22586027 0.13963768
000040 a3 8f 3e 3c db 47 dc 3d 80 2a 68 be fd 8c e8 be
       0.011630925 0.10755893 -0.22672462 -0.45420066
000050 cb b7 08 be 44 55 0f be 22 05 67 be 76 0f e1 3e
       -0.13351361 -0.1399737 -0.22560552 0.43957108
000060 0d 23 cc 3e 6d ba a4 3e 89 e5 c3 3d fb d1 53 3e
       0.39870492 0.32173482 0.09565265 0.2068557
000070 23 71 3f 3e b8 16 86 be 5f 61 c2 be 69 70 d7 be
       0.18695502 -0.26189208 -0.37964913 -0.4207795
000080 20 6f 87 3e 5f 1f d6 3d c3 da 86 be 1d 79 bb be
       0.2645197 0.10455202 -0.26338777 -0.3661584
000090 da 83 96 be 17 05 06 be d0 1c 50 3d 35 e9 15 3c
       -0.2939747 -0.13087879 0.050808728 0.009149839
0000a0 99 ce e9 3e 42 a7 14 3e 3d cc 98 be 23 c2 6a 3e
       0.45665434 0.14516929 -0.2984332 0.2292562
0000b0 8d ed 5b be c8 55 b4 3d 4a 7e f1 3e 6c 6e 81 3e
       -0.21477337 0.08805424 0.47166663 0.25279558
0000c0 00 d5 6a 3d fb 93 dc 3e d7 0f 89 be d8 e5 7d bc
       0.05733204 0.4308165 -0.26769897 -0.015496694
0000d0 46 36 7e bd 85 b1 c0 be 9b 89 32 bd bc 34 bd be
       -0.062063478 -0.37635437 -0.043588262 -0.36954296
0000e0 79 ff 8f bd b3 c0 8c 3c 04 9f 2d 3e 5c 2e b8 be
       -0.070311494 0.01718173 0.16955191 -0.3597287
0000f0 57 10 ad 3e d6 b0 4f be 99 ec 78 be 45 69 9d 3e
       0.3380153 -0.20282301 -0.24309005 0.30744377
000100 f0 26 e1 be 4c e4 c8 3e 3b 14 c4 3e d5 2e 12 3e
       -0.4397502 0.39236677 0.38296685 0.14275678
000110 93 9a 11 3d e1 c9 c9 3e b0 a4 9b 3b ee ab a1 bc
       0.035547804 0.39411834 0.004749857 -0.019735303
000120 6a 8e b0 3c 62 fb 93 3e bc af 92 3e 84 82 e8 be
       0.021552283 0.28902727 0.286497 -0.45412076
000130 f3 ec 47 be c0 42 35 be c6 32 bb be ec ae d7 3e
       -0.19523983 -0.17701244 -0.36562175 0.42125642
000140 6f 4a 1d be c9 7e f6 3d d6 2d ae 3d 7e 85 33 bc
       -0.15360425 0.12035901 0.08504836 -0.01095712
000150 bc 30 66 3e c1 be 2b bd b3 ae a4 be c8 26 8b 3e
       0.22479528 -0.041929964 -0.32164535 0.27178025
000160 71 03 ba 3d eb cb 15 3e 9c dc 8a bd bf f8 12 3e
       0.09082688 0.1462857 -0.06780359 0.14352702
000170 e6 83 a5 bb 78 8e 19 3e d3 20 c4 3a 95 90 e5 3e
       -0.005051124 0.14995754 0.0014963396 0.4483687
000180 f4 b7 d1 3e 0d aa 24 be 05 14 89 be 95 47 0f 3e
       0.40960658 -0.16080494 -0.26773086 0.1399215
000190 76 27 5c 3e 8c b4 11 3e 93 3f be be e8 06 6a 3d
       0.21499428 0.1422903 -0.37157878 0.057135493
0001a0 ad df c7 be ae 72 e9 3c 70 70 56 3d 7a 48 8a 3e
       -0.3903784 0.028497066 0.052353323 0.2700842
0001b0 49 26 21 bd 59 f5 ac be a0 86 ca be 63 45 a8 3e
       -0.039343152 -0.33780935 -0.39555836 0.32865438
0001c0 cc 2a bb 3e c9 03 d7 3e 8e a2 67 be 5c 9f f3 be
       0.3655609 0.41995075 -0.22620603 -0.4758252
0001d0 7c cd 29 3e ee fe 16 3e 5c 41 63 3e 05 5c a6 be
       0.16582292 0.14745685 0.22192901 -0.3249208
0001e0 39 c0 86 be af f7 81 3e 6e 5a b3 3e ac d3 f4 3e
       -0.2631853 0.2538428 0.3502993 0.47817743
0001f0 98 87 88 be 6d 14 00 3e cb dc 1b 3e 29 7c fe bd
       -0.2666595 0.12507792 0.15220945 -0.124260254
000200 9b 97 bf be 82 45 df be 0b 95 c1 be a3 d2 de 3d
       -0.37420353 -0.43607718 -0.37809023 0.108800195
000210 0b e0 87 3b d3 c1 92 3e 6c f5 43 3e 36 03 88 3e
       0.004146581 0.286635 0.1913659 0.2656495
000220 1a 87 10 3e c1 9e 72 be f8 a5 d7 3e f7 d2 dd be
       0.14114037 -0.23693372 0.42118812 -0.43325016
000230 cb 44 0a 3e a1 4d 9d bd f0 07 6d 3e 71 e2 ca 3e
       0.13502805 -0.07680822 0.23147559 0.39625886
000240 e4 41 04 be ac 96 2e be bc 6c 2c be 26 d4 df be
       -0.1291576 -0.17049664 -0.16838354 -0.43716544
000250 d7 83 bc 3d 91 5b 8a 3e cb 87 c8 be 44 a0 cb bd
       0.09204834 0.27022985 -0.39166102 -0.099426776
000260 a0 3f 2b 3d 6f f0 b4 3c 7f 9c ec be 07 b9 b8 3e
       0.041808724 0.022087304 -0.46213147 0.36078665
000270 f4 3d 66 3e db 77 a6 be 16 73 a8 be 63 33 79 bd
       0.2248457 -0.32513317 -0.32900304 -0.06084002
000280 c1 fd 57 be 3a ae 64 be 97 c1 aa 3e 42 30 da be
       -0.21092893 -0.22332087 0.33350822 -0.42614943
000290 d2 10 47 3e c6 ae c8 be 01 fb b8 be 5a 96 94 3e
       0.1944001 -0.39195842 -0.36129 0.2902096
0002a0 22 fb d8 bd 82 6f 54 3c 45 b7 ca 3e 47 12 67 3e
       -0.10594775 0.012966039 0.3959295 0.22565566
0002b0 f3 1a 03 be b2 e2 c7 3e d8 3a d4 be c7 02 63 3e
       -0.12803249 0.39040142 -0.41451144 0.22169028
0002c0 82 7a b9 bd 84 0a 9d be 37 2a 50 3d 12 14 b3 3e
       -0.0905657 -0.30672085 0.05082151 0.3497625
0002d0 ee cc de bd b7 93 a8 3c 32 07 f8 3d 92 cb 97 be
       -0.10878931 0.020578248 0.121107474 -0.296475
0002e0 d3 df d0 3e 07 36 c1 be 24 08 a8 3e 25 88 1f 3e
       0.40795764 -0.37736532 0.3281871 0.15579279
0002f0 c6 94 4b bd 3b 8c 81 3e f7 09 78 be b5 8e 66 be
       -0.04970243 0.253023 -0.24222551 -0.22515376
000300 37 98 e9 bd c0 c3 5b bc 7a 36 c3 3e 43 63 d5 3e
       -0.11405986 -0.01341337 0.381275 0.41677293
000310 dc b0 12 bf 2e 18 a6 bd 5c c4 cb 3e 06 c1 b2 be
       -0.57301116 -0.08110081 0.39798248 -0.3491289
000320 f3 3d 2f bd fa b7 20 bd e9 dd 41 3e 4c bd ef 3d
       -0.04278369 -0.039237954 0.18932308 0.117060274
000330 e0 db d7 3e c8 56 22 bb 1f b9 91 be 3e 49 83 3d
       0.4215994 -0.0024770964 -0.2846155 0.06410454
000340 87 7b a9 be de f9 7d 3c 61 53 d0 be e1 99 af be
       -0.33102056 0.0155014675 -0.40688613 -0.34297088
000350 9a 02 c5 be b6 5f cd bc 00 09 2f 3e 23 60 ca be
       -0.38478547 -0.025070053 0.17093277 -0.39526471
000360 5b 0c 96 3e bc 35 08 be 34 dd 83 3e 5b d1 ce bd
       0.293063 -0.13301748 0.25754702 -0.10098525
000370 61 02 21 be 66 63 d4 bd cc 70 a9 3e 51 32 a9 3e
       -0.15723564 -0.10370521 0.3309387 0.330462
000380 c1 64 80 3e 9d 3c 88 be 7a 17 a9 be 89 14 68 bc
       0.2507687 -0.26608744 -0.33025724 -0.014165052
000390 8c 2f a5 be 91 12 be 3d 2f 67 c8 be 6d ab c1 3d
       -0.32262838 0.09280885 -0.39141223 0.09456525
0003a0 92 f6 a7 be ac 87 aa be 15 51 95 be e4 a9 12 3e
       -0.32805306 -0.33306634 -0.29163423 0.1432262
0003b0 47 09 c0 3e 98 67 19 3e a0 68 ce be db 4b 57 3e
       0.37507078 0.14980924 -0.40314198 0.2102503
0003c0 8b 04 1e 3e 89 4b e5 3d eb 44 8d be 86 c3 bf 3e
       0.1543142 0.11196048 -0.27591643 0.3745386
0003d0 2d b7 cf 3e 36 89 a9 be 21 0b cb bd 44 c6 e2 be
       0.4056944 -0.33112496 -0.09914232 -0.4429189
0003e0 37 55 5a 3e 76 f5 1a be
       0.2132157 -0.15132698

gat_layer_1.out_att.a f4 [10, 1]
000000 5d af 15 3f a7 41 33 bf 63 c6 b9 be a0 ec 86 bf
       0.5847071 -0.7002205 -0.3628417 -1.0540962
000010 af 22 9e be c6 e3 d1 be 69 bd 09 3e a9 b3 6a 3f
       -0.30885836 -0.4099409 0.1345116 0.9168039
000020 9d 2a 18 bf e2 f0 82 be
       -0.5944002 -0.25574404

gat_layer_2.attention_0.W f4 [5, 10]
000000 eb 15 25 bc 8d 16 ea be 02 28 00 be bc b2 e2 bc
       -0.010076026 -0.4572033 -0.12515262 -0.027673118
000010 bb 0a 1c 3a 6d 4c 93 be 33 9b c4 be 49 c3 70 be
       0.00059525267 -0.28769246 -0.38399658 -0.23511995
000020 8f f2 82 3e 7a 24 17 bf 6c 72 3d 3f 1a 4a 2a 3f
       0.25575683 -0.59040034 0.7400272 0.6651932
000030 72 5b 00 3f 5e 6e 25 bf be 91 15 be 27 88 a3 3e
       0.50139534 -0.6462153 -0.14606377 0.31939813
000040 58 58 6a 3d 16 79 89 bd 46 11 3e 3e f9 8b 09 bf
       0.057213157 -0.067125484 0.18561277 -0.53729206
000050 e3 45 3c be 0b 2c 1f 3f 04 bf 6a bf 34 8c 0d bf
       -0.18386035 0.6217658 -0.91697717 -0.5529206
000060 81 7c 77 3e 0e f4 f9 3e a7 27 ee 3e 8c 7b 3b bf
       0.24168588 0.4881901 0.46514627 -0.7323539
000070 e3 fd f7 3d 35 eb a4 bd 5f 62 58 3e 23 81 00 3f
       0.12108972 -0.08052675 0.21131276 0.50197047
000080 ff ce 2a 3f fa 62 1d 3f d0 02 f7 be 2d d8 49 bf
       0.667221 0.6147915 -0.48244333 -0.78845483
000090 0d c3 91 be c1 df 0f 3f 72 6c 49 bf 6d b3 51 3e
       -0.28469124 0.56200796 -0.786811 0.20478602
0000a0 00 cd 62 bf 56 73 80 be c2 25 73 be 65 04 05 bd
       -0.88594055 -0.25087994 -0.23744872 -0.032474894
0000b0 8f 9b 42 3f dd 64 fe be 3e f6 63 bd a1 d4 4a bf
       0.76018614 -0.49686328 -0.055654757 -0.79230696
0000c0 27 71 58 bf db 88 38 3f
       -0.84547657 0.72083825

gat_layer_2.attention_0.a f4 [20, 1]
000000 71 50 cf be 66 dc 1f 3f 02 6e 12 be 05 f6 3c bf
       -0.4049106 0.62445676 -0.14299777 -0.73812896
000010 b2 15 2e be 80 e8 2f 3f 89 2f ac 3e 7a ea be bd
       -0.17000464 0.6871414 0.33630016 -0.093220666
000020 19 3b 0c bc 42 41 35 bf 63 09 fb bd 2a 98 83 be
       -0.008559012 -0.708027 -0.1225765 -0.2570203
000030 18 d3 0f be 09 fb 0b 3f 00 4e 56 bd 04 0d 38 3f
       -0.1404537 0.54679924 -0.05232048 0.7189486
000040 59 da 17 bf e0 07 b5 be 72 9b e8 3e 64 1f e8 be
       -0.5931755 -0.3535757 0.45431095 -0.4533645

gat_layer_2.attention_1.W f4 [5, 10]
000000 27 0b c1 3e 8d 23 d8 3d d7 7e 3f 3f 60 35 1f 3f
       0.3770382 0.10553656 0.7480292 0.6219082
000010 99 4c 94 3e 02 9c 49 3e 3a 5a c2 3e 25 fe 39 bf
       0.2896469 0.19688419 0.37959462 -0.7265342
000020 f6 81 00 3e 36 ea e3 3e f2 bb fa bd 15 c3 53 bf
       0.12549576 0.44514626 -0.12242879 -0.82719547
000030 97 b6 19 bf 7b 79 a3 be 28 25 8a be 86 15 e9 3e
       -0.60044235 -0.3192862 -0.26981473 0.45524234
000040 3b 63 54 3f 06 ae f1 3e 2b b8 a3 be f2 04 8d 3e
       0.82963914 0.47203082 -0.31976447 0.27542835
000050 72 62 07 3f e1 e7 d4 be ac b6 3d 3f c7 62 5f 3f
       0.5288459 -0.4158316 0.7410686 0.872601
000060 64 46 d7 bd 54 d4 a1 be 4e c1 4d 3f 1b 76 2d 3f
       -0.10511473 -0.31607306 0.80373085 0.6775834
000070 73 b9 aa be 5c 35 72 3f c3 98 a3 be 65 b7 bf be
       -0.33344612 0.9461267 -0.31952485 -0.37444606
000080 44 0b b4 be 75 31 3e 3f 87 d0 08 3f a3 e0 34 bd
       -0.35164845 0.74294215 0.5344319 -0.044159543
000090 a3 47 5f bf 99 81 62 bb d0 2e 66 bf 2b fd 26 bf
       -0.87218684 -0.003456211 -0.8991518 -0.65230054
0000a0 ec 9c b8 3e 2a a1 1e 3f 3b af 29 3f 26 a0 b2 be
       0.36057222 0.61964667 0.66283005 -0.3488781
0000b0 c2 6a 0d bf 9f 82 a5 be 98 83 03 3e 7c c4 6c be
       -0.55241024 -0.32326218 0.12843168 -0.23121828
0000c0 b2 9a cb bc 00 85 48 bf
       -0.024854038 -0.7832794

gat_layer_2.attention_1.a f4 [20, 1]
000000 ee 87 24 bf 73 dd 08 3f 31 15 39 be 88 c5 06 3e
       -0.6426991 0.53462905 -0.1807449 0.1316129
000010 25 74 35 bf e2 47 0a bf 0e fa 1d 3f 5c 8a 9d 3e
       -0.7088035 -0.54015934 0.6170968 0.30769622
000020 5c 5f 5b 3e 88 88 0a be bf 7b 80 3d 48 71 f6 be
       0.21423095 -0.13528645 0.06273603 -0.48133302
000030 37 ee 4b 3e 88 15 37 3e 54 13 df 3e 7b f4 b9 be
       0.1991509 0.17879307 0.43569434 -0.36319336
000040 4a eb d1 3d 35 c0 90 be 3f a5 cf be 98 c2 3c bf
       0.10249956 -0.28271642 -0.4055576 -0.73734426

gat_layer_2.attention_2.W f4 [5, 10]
000000 1b 2a 71 3e 95 8d 3b bf 15 d8 2b be 8a e2 2c 3f
       0.23551218 -0.7326291 -0.16781648 0.6753317
000010 da 43 bd 3d a3 51 53 bd 43 c0 a3 bd b5 13 99 3d
       0.09241457 -0.051591527 -0.079956554 0.07474462
000020 ab cb 09 3d 51 b7 1f 3f 38 bb 9d 3e ae b7 ff be
       0.0336415 0.62389094 0.308069 -0.49944824
000030 6c df 2f 3f 7c be 37 bf 37 ab 50 3e b7 e1 1c 3e
       0.6870029 -0.7177503 0.20377813 0.15320478
000040 2d 30 18 bf c4 db 80 be 91 4c ae 3c af f0 38 bf
       -0.5944851 -0.25167668 0.021276744 -0.72242254
000050 c2 2a b1 be 90 55 1e 3f 29 19 16 bf a8 2c 85 3e
       -0.34602934 0.6184931 -0.5863214 0.26010633
000060 eb 43 0b bf f3 3d b4 3d 12 b3 58 3e 35 84 57 3e
       -0.5440051 0.088008784 0.2116206 0.21046527
000070 7d 81 0a be 0e c2 41 3f 37 e9 d1 3e 2b 3b 08 3f
       -0.13525958 0.7568673 0.4099824 0.53215283
000080 d0 df 16 be da 13 8f 3e 0b d3 03 bf 3d 76 27 be
       -0.14733815 0.27944833 -0.514939 -0.16353698
000090 b7 b0 3d bf df a3 1a bf 56 8f 7c 3e 74 c6 cd be
       -0.7409777 -0.604063 0.24664053 -0.4019047
0000a0 f3 70 6a be 0a c8 05 bf d0 3f e1 be 71 31 0a 3f
       -0.22894649 -0.5225836 -0.43993998 0.5398169
0000b0 80 09 57 3f 9a 8e c3 be bd 96 90 be 20 85 14 3f
       0.8399887 -0.38194734 -0.28240004 0.5801563
0000c0 c4 c1 4a 3e ed 70 63 3f
       0.19800478 0.88844186

gat_layer_2.attention_2.a f4 [20, 1]
000000 3f 5b 94 be 68 84 3a bf 74 ad 6d 3e 8c 46 24 3f
       -0.28975865 -0.72858286 0.23210698 0.64170146
000010 40 b9 1e bf 3f ad 47 3f a4 3d 22 bf 21 c4 0d bf
       -0.6200142 0.7799873 -0.63375306 -0.55377394
000020 16 b8 1b be af bb 88 be e7 cd 1e 3f 45 8f a1 3e
       -0.15206942 -0.2670569 0.6203293 0.31554618
000030 5b 13 1d 3f 79 3c 67 be 12 84 05 3e 2a 27 67 3e
       0.6135766 -0.22581662 0.13038662 0.22573534
000040 3c ff 08 bd 29 c6 f1 bc 1c 8d c2 be 4a 3a f7 be
       -0.033446535 -0.029513435 -0.37998283 -0.4828666

gat_layer_2.attention_3.W f4 [5, 10]
000000 9b 00 54 bf 7d 3e 1b 3f b8 c9 ab be 5f 30 36 3f
       -0.82813424 0.60642225 -0.33552337 0.7116756
000010 00 15 da be d6 1b 66 3f 6c 8c 0a 3d f3 bb 2f 3f
       -0.42594147 0.89886224 0.033825323 0.6864616
000020 ee 98 42 3e cf 92 9c 3e e5 f4 60 3f 52 4d 19 3f
       0.1900365 0.30580756 0.8787368 0.59883606
000030 01 08 07 3e 39 60 3c 3f c1 e1 0c 3e 5f 6f b9 be
       0.13186647 0.73584324 0.13757993 -0.36217782
000040 16 b1 3c bf 02 1d 43 3f c9 6e 03 bf 60 d9 fb 3e
       -0.7370771 0.7621614 -0.5134092 0.4918928
000050 c1 2c 49 3f 2d 9c 8a 3e b9 51 83 be 10 9e 0d bf
       0.78583914 0.27072278 -0.25648287 -0.5531931
000060 39 c1 33 3f 8e d2 07 3f 99 a8 bd 3d 60 80 f8 be
       0.7021671 0.53055656 0.09260673 -0.48535442
000070 61 d1 3a bf 51 ed c5 3e 3e 11 bb 3c ae b1 83 bf
       -0.72975737 0.3865762 0.02283537 -1.0288599
000080 26 44 58 3f aa e2 37 3e d4 3b dd 3e f9 c9 3d bf
       0.84478986 0.17957559 0.43209708 -0.7413631
000090 63 eb 93 bd ee bd 8a 3e 1a 9e 3c 3e 05 a8 47 be
       -0.07222631 0.2709803 0.18419686 -0.19497688
0000a0 5b 7a 40 3f 2a 78 84 bf d6 e3 8e 3e 6c 16 31 3f
       0.751867 -1.0349171 0.279082 0.6917484
0000b0 69 77 1a 3e fd 80 15 bf 27 84 3b bf 8f e6 0a 3e
       0.15084614 -0.58399945 -0.73248523 0.13564514
0000c0 83 27 be 3e c5 2a f3 3e
       0.3713952 0.47493568

gat_layer_2.attention_3.a f4 [20, 1]
000000 5b 28 1d 3f 3f 8d cb be b6 1c 3d bf 16 27 12 3f
       0.613897 -0.397562 -0.73871934 0.5709089
000010 7b d3 7b be 3c 49 51 3d ff 49 d6 3e f7 3a 19 bf
       -0.24592392 0.051095232 0.4185333 -0.598556
000020 dd d7 28 be be bc b1 3d 3a a7 a3 3e 18 b5 1d 3f
       -0.16488595 0.08678578 0.3196352 0.6160445
000030 42 4c 0e be c2 27 a8 3e 35 ff 34 be 05 5e 54 be
       -0.13896278 0.32842833 -0.17675479 -0.2073899
000040 58 0a c5 be 21 73 9b 3e 66 b9 fd be d8 db 91 be
       -0.38484454 0.30361274 -0.4955551 -0.2848804

gat_layer_2.attention_4.W f4 [5, 10]
000000 92 f7 1c be 88 9d 0c 3f ae c3 2b bf 17 9a 05 be
       -0.15328816 0.54927874 -0.6709546 -0.13047062
000010 a8 2d 8b be 6f 59 b4 3e 7a e3 20 bf 10 17 aa be
       -0.2718327 0.35224482 -0.628471 -0.3322072
000020 6d f8 96 3d df 86 94 3e 55 15 06 3f 6e ae 82 3e
       0.07371602 0.29009148 0.523763 0.25523704
000030 ed d1 8a 3e 9a 5b 25 3f da 45 51 3f 96 81 fb 3e
       0.27113286 0.645929 0.8174721 0.49122304
000040 dd bf fd bd ee ec 8f be 30 03 cb be 53 cf 3d be
       -0.12390111 -0.2811045 -0.3965087 -0.18536119
000050 5d 7d 1a bf 80 4a 4e bf 15 13 35 bf e0 0a 52 3f
       -0.6034754 -0.8058243 -0.7073224 0.82047844
000060 a1 9a 46 be d3 1d 29 bf d0 2d 3b bf 0e 0d 1b be
       -0.19394924 -0.66061133 -0.7311678 -0.15141699
000070 43 46 fb 3d c0 bd 24 bf 38 9a 89 3e c5 31 38 3f
       0.12269261 -0.64352036 0.26875472 0.7195094
000080 ef f8 83 3e a6 93 0b bf 8a ee 13 bf 57 d6 ba be
       0.2577586 -0.5452217 -0.57785857 -0.36491653
000090 9c a3 3f 3f 55 66 20 3e ae 64 7f 3e bb 01 42 bf
       0.74859023 0.15664037 0.2494075 -0.7578389
0000a0 9c 89 c0 bd 81 27 e4 be c6 9f af 3e fe 36 28 3f
       -0.09401247 -0.4456139 0.34301585 0.6570891
0000b0 09 3a 0f 3d 6c 80 23 bf 5c 75 83 bd 72 bd 6b 3f
       0.034967456 -0.6386783 -0.06418869 0.92085946
0000c0 17 42 5c be 02 11 4b bf
       -0.21509586 -0.79322827

gat_layer_2.attention_4.a f4 [20, 1]
000000 7a 12 40 bd fd 0b 62 3e 1c d1 44 3f 72 43 0b bf
       -0.04689262 0.22074886 0.76881576 -0.5439979
000010 c5 2a 2a bf 89 6a 01 bf 7b 83 1a bf de 84 ba 3e
       -0.6647151 -0.50553185 -0.60356873 0.36429495
000020 c1 3f 53 be 02 9e 7a bd 76 69 9f be b2 d5 13 3f
       -0.20629789 -0.061185844 -0.31135148 0.5774795
000030 b6 94 d4 be ec df 32 bf 7f 27 9b 3e d4 50 16 3f
       -0.41519707 -0.6987293 0.3030357 0.58717084
000040 6d e1 8f be f3 33 1d bf e7 92 1b 3f 46 7d 4e bd
       -0.28101674 -0.61407393 0.6077103 -0.05041244

gat_layer_2.out_att.W f4 [50, 5]
000000 12 28 e5 3e 85 4c 5b be 85 27 24 be 3b f1 19 be
       0.44757134 -0.21415909 -0.160307 -0.15033428
000010 d5 f8 b1 be f5 bc 41 3e b1 e0 80 bd 74 13 92 3e
       -0.34760156 0.18919738 -0.062928565 0.28530467
000020 fa 24 b3 3e 61 af 16 3e bb 2b e7 bd 26 fc 99 3e
       0.34989148 0.14715339 -0.11287638 0.30075186
000030 cd 6a 99 be aa 31 ab be a4 f4 ae be 3b 7a a1 3b
       -0.29964295 -0.33436328 -0.3417102 0.004927901
000040 c6 d8 5a be b9 76 9c bd 27 57 8e be a3 d8 a8 be
       -0.21371755 -0.07639832 -0.27800867 -0.3297778
000050 66 65 32 3e 86 24 ae bd 64 ea e1 3d a6 95 90 bd
       0.17421493 -0.0850306 0.110310346 -0.07059793
000060 e5 a9 a0 3c 89 1b 85 be d9 3c 4a be 23 d5 9a 3e
       0.019612262 -0.2599757 -0.19749774 0.30240735
000070 b1 aa 90 bc 1e 5e 1d be 5d 1a 1b be 6a d2 c3 3e
       -0.017659517 -0.15367934 -0.15146776 0.3824647
000080 d2 93 a8 3e e2 b7 83 3e c7 f5 2e 3e 38 03 2d be
       0.32925278 0.2572623 0.17085944 -0.16895759
000090 cc 68 96 be 98 f6 70 be 18 3a 9d 3d d2 56 7e 3e
       -0.2937683 -0.23531568 0.07677096 0.24837807
0000a0 7f ae f5 bd 38 a2 b7 be d5 03 34 bd 6b 9a cf be
       -0.11996173 -0.3586595 -0.043948967 -0.405475
0000b0 3f 63 05 3d 6b e9 1a 3e 37 4a cc 3e d6 cc e3 bd
       0.03256535 0.15128104 0.3990037 -0.11123054
0000c0 5e d5 d6 3e 3d 39 c8 3e 53 74 57 3d 91 71 e4 bd
       0.4195966 0.3910617 0.05260117 -0.111544736
0000d0 90 f7 32 be 3b b0 b0 be 5b 27 8e be b7 68 49 be
       -0.1747725 -0.34509453 -0.277644 -0.19668852
0000e0 b9 bd 03 3c 80 66 42 bd 7f c6 81 be 66 31 95 3e
       0.008040839 -0.047461033 -0.25346753 0.2913925
0000f0 6a 66 ef 3d f6 bb 5a be b0 fa de be c9 33 a8 3e
       0.11689456 -0.21360764 -0.43550634 0.3285201
000100 92 0b 98 be 2b fe cf be ec f6 be 3e 16 f9 90 3e
       -0.29696327 -0.40623602 0.3729776 0.28315037
000110 c1 16 74 bd d5 7a 32 3e 1b 67 94 be e2 e1 c5 3e
       -0.059592012 0.17429669 -0.28984913 0.38648897
000120 4d 0a 81 bd 80 04 57 be ad c6 e3 bd 71 31 e1 be
       -0.06300793 -0.2099781 -0.11121879 -0.43983033
000130 e2 dc 9d 3c 0e 3a 36 3e 64 2a 6c be 0b fc 24 be
       0.019270364 0.17795584 -0.23063046 -0.16111772
000140 23 6a 9d be 55 78 13 3e 6f a5 a8 bd ce 84 80 3e
       -0.30745038 0.14401372 -0.08234679 0.25101322
000150 36 c4 3c bc 25 04 b0 bd fe b7 c8 bd cc 11 ea be
       -0.01152139 -0.085945405 -0.09800719 -0.45716703
000160 36 f8 96 bd ab 66 9f be b7 a7 99 bd c1 c0 a1 be
       -0.07371561 -0.31133017 -0.07502692 -0.31592372
000170 e5 15 31 be 11 97 7b be 0d c9 03 bf 3c 43 b8 3d
       -0.17293508 -0.24569346 -0.51478654 0.08997199
000180 74 e9 33 3e 0f 93 54 3e 93 d5 30 3d 6b a2 05 3e
       0.17569524 0.20759223 0.04317243 0.13050239
000190 9b 27 af be 3d 8b a2 be f3 f2 74 bd 5e e4 0a be
       -0.34209904 -0.31746855 -0.059802007 -0.13563678
0001a0 ec 63 87 be 87 28 c1 be 6c e8 0c be 02 2f d9 be
       -0.26443422 -0.37726232 -0.13760537 -0.42418677
0001b0 49 f8 4d 3e d0 33 dc be 00 f1 e9 be 70 57 45 be
       0.20114245 -0.4300828 -0.4569168 -0.19271636
0001c0 11 7e c4 bd e1 e7 91 3e f4 dc 93 3e c1 d2 d7 3d
       -0.09594358 0.28497222 0.2887951 0.10538245
0001d0 26 3e 58 3e 86 50 4d 3e 0b fe 3e 3e 5e 2e 14 be
       0.21117458 0.20050249 0.18651597 -0.14470813
0001e0 23 2a c9 be cc 4b 9c be 17 10 40 3e ba db 9a 3e
       -0.3928996 -0.30526578 0.18756138 0.30245763
0001f0 0b 79 5c 3e 57 71 5e 3b 82 07 99 3e 55 a8 bf be
       0.21530549 0.0033942068 0.2988854 -0.37433115
000200 e0 07 93 3e 1a e1 ce be 25 32 30 be 48 2d 4a 3e
       0.28716946 -0.40406114 -0.17206629 0.19743836
000210 e4 4c bd 3e be 5d b5 be 25 34 6d bb ee a6 7b be
       0.36972725 -0.35423082 -0.003619441 -0.24575397
000220 b9 54 56 be f5 5a 66 be 7d 56 33 3c 3b 41 8c be
       -0.20930757 -0.22495635 0.010945913 -0.27393517
000230 8a 94 61 bd d7 02 7e be f4 64 1d 3d da 4d c1 be
       -0.0550733 -0.24805771 0.038426355 -0.3775471
000240 80 82 3a bc ef 5d d7 be 3f e5 e1 3e 68 1e 1c be
       -0.011383653 -0.42063853 0.44120213 -0.15245974
000250 4e 89 8f 3e b2 bc df be 98 14 a6 3e 9e 48 f2 be
       0.28034443 -0.4369865 0.32437587 -0.47321028
000260 55 b9 16 3e b0 df 13 39 46 f5 7c 3e 0c 99 49 be
       0.14719136 0.00014102343 0.2470294 -0.19687289
000270 1d d0 92 be be 42 23 be a1 00 84 bd 82 f1 20 be
       -0.28674403 -0.15943429 -0.064454325 -0.15717128
000280 fc f7 e2 3d 25 44 6d be 8e cb a2 bc 9b 60 1d be
       0.110824555 -0.23170526 -0.019872453 -0.15368883
000290 2b 7c 9c 3e 2c b4 2d be 36 8a c8 3e 87 84 c5 3e
       0.30563483 -0.16963261 0.39167947 0.38577673
0002a0 5b cd 5a 3c bd 5a be 3e bd 95 67 3e e2 23 9c bd
       0.013354625 0.37178603 0.22615714 -0.076240316
0002b0 36 dd 50 3e 73 f1 cf 3e 6b 45 b5 3e a5 82 ed 3d
       0.20396885 0.406139 0.35404524 0.11597184
0002c0 4f 18 86 be 12 2f 39 be 0e 01 ae 3e 0a 22 37 bb
       -0.2619042 -0.18084362 0.3398518 -0.0027943873
0002d0 bd 79 3d 3e 6e a0 48 bd ac 5f 9f be 24 ea 94 be
       0.1850347 -0.048981123 -0.3112768 -0.29084885
0002e0 2a 1e 02 3e e6 fd 98 be 4a d7 d9 3e 9e 8d e9 be
       0.12706819 -0.2988121 0.42547065 -0.45615858
0002f0 af 3b 00 3e 32 7c 70 be 6a 72 be be a7 1e e5 bc
       0.12522767 -0.23484877 -0.37196666 -0.027968718
000300 66 1a 09 bc 0e 02 c4 3e 10 96 b9 bd d9 24 10 3e
       -0.00836811 0.38282818 -0.09061825 0.14076556
000310 5f 1a 77 3e 81 69 80 bc 92 11 b1 3c 02 30 0e 3f
       0.24131154 -0.015675308 0.021614823 0.55542004
000320 a7 c6 e1 be 2e e7 3d 3e bd c9 a1 3e 42 44 8e 3c
       -0.44096872 0.1854522 0.31599227 0.017366532
000330 1f ed 5b 3e 7c 57 34 3e 4c 98 0f 3e 4e 99 67 bd
       0.21477173 0.17611498 0.1402294 -0.056542687
000340 8b a7 c5 be 26 7c c0 3e 50 04 eb bd ce ff 8f be
       -0.38604388 0.37594718 -0.11475432 -0.2812485
000350 47 fe db 3d 3d 59 9a 3e 86 63 0a be 98 4e 35 3e
       0.10741859 0.30146208 -0.13514528 0.17705762
000360 51 eb 5e 3e 8d d1 92 be 29 03 03 3d 98 96 ab 3e
       0.21769454 -0.286755 0.031985436 0.3351333
000370 c8 13 cd be 02 1b ca 3e 91 b3 9c 3e bb 34 e6 be
       -0.40054154 0.3947373 0.30605748 -0.44962105
000380 c0 8c 18 be 50 1c b6 3e 46 e0 bb 3e 35 2f 9c be
       -0.14897442 0.35568476 0.36694545 -0.30504766
000390 f1 e2 7c 3e cd b4 cb 3e 40 66 e0 be fd c7 10 bc
       0.24695946 0.39786378 -0.4382801 -0.008836743
0003a0 97 82 95 3d 70 dd b4 be 71 55 08 3d 6d 77 95 be
       0.07300299 -0.35325193 0.03328461 -0.29192677
0003b0 08 40 98 be 74 c6 ab 3e 35 5a 51 3e 9c 43 39 3d
       -0.29736352 0.33549845 0.20444568 0.045230493
0003c0 df 24 ab be 7f 2a 69 bb ab 6b bf 3e c0 c1 ea bd
       -0.33426568 -0.0035578308 0.37386832 -0.11462736
0003d0 ac 9a 01 bf db 0a 8e 3d 6c 4d 5e be dd 18 82 be
       -0.50626636 0.06935664 -0.21709222 -0.25409594
0003e0 20 7a d0 bc 05 6d b8 be
       -0.025448859 -0.36020675

gat_layer_2.out_att.a f4 [10, 1]
000000 41 34 d5 3d e6 71 5f 3f 84 e5 f8 bd 33 b7 3e 3f
       0.10410357 0.8728317 -0.12153152 0.7449829
000010 eb 73 e0 3e e6 d2 ac 3e 11 df 74 3d 36 4d 82 3f
       0.43838438 0.33754653 0.059783045 1.0179813
000020 03 47 bd be 9d a9 24 bf
       -0.3696824 -0.6432131
