tests/gat/encoder-checkpoint8.pt (torch, 20170 bytes, 36 tensors)

gat_layer_0.attention_0.W f4 [5, 10]
00000000: e08a eabe 0c18 50bf c8e4 cf3e 5ab7 a6be
00000010: d11c eabd 01f4 a43e 961c 4e3f 9bff 01be
00000020: 364f 013f c11a f2be d469 58be 506c 183e
00000030: 8af7 8e3e d3af 5abf 378d 52be 9f9a ca3d
00000040: b1a9 28bf 981d 0bbe d20e ccbe 392a 993d
00000050: 53f1 093e cb43 d83e 1bc7 be3e 3feb f23e
00000060: 492d 93bd 4981 bfbe e490 d13e 71ed 423f
00000070: 3a2f c03c 12af e2bd 5c54 efbe 4dc5 de3e
00000080: 0dcf 1f3d bf1e 04bf 994e 80be d201 c83e
00000090: 4f85 66bf 47de a13e 979b 473f dbba 59bf
000000a0: db6f 293f 9059 3fbf 441b 7a3e 5665 993e
000000b0: 0ed1 1cbe d10f 503f fb4c 1ebd 827c 403f
000000c0: 7300 e43e 38df bbbe
-0.45809078 -0.8128669 0.40604234 -0.3256176 -0.114312775 0.3221741 0.8051237 -0.12695162
0.5051149 -0.47286037 -0.2113412 0.14885068 0.27923232 -0.85424536 -0.20561682 0.09892773
-0.6588393 -0.13585508 -0.39855057 0.074787565 0.13470964 0.42239222 0.3726128 0.47445104
-0.07186372 -0.37403324 0.40930855 0.76143557 0.02346002 -0.11068548 -0.4674405 0.43509904
0.03901582 -0.51609415 -0.25059965 0.3906389 -0.9004716 0.31614897 0.77971786 -0.85050744
0.661863 -0.74746037 0.24424464 0.29960126 -0.15314123 0.81274134 -0.038647633 0.75189984
0.44531593 -0.3669374

gat_layer_0.attention_0.a f4 [20, 1]
00000000: cbaf efbd f445 6dbe 0825 413e d42a 3f3f
00000010: 3c10 acbe 1aa8 42bd ebe4 203f c1e9 f9be
00000020: 85ae 9cbd 42b9 223f 6e34 03bf 72e0 43bf
00000030: eeb3 fb3e 3d6a 0bbe 683f 14be 6b8e a6be
00000040: 2183 a43e da7a 293e 8d4f 9b3d 9033 e33c
-0.11703452 -0.23171216 0.18861783 0.74674726 -0.33606136 -0.047523595 0.628493 -0.48811153
-0.076504745 0.6356393 -0.51251876 -0.7651435 0.49160713 -0.13614745 -0.14477313 -0.3253053
0.32131293 0.1655077 0.075835325 0.027734548

gat_layer_0.attention_1.W f4 [5, 10]
00000000: 7371 52bf fcd9 9fbc 0200 57bd 2f22 3ebc
00000010: 301f b2bd 092d 66be 7f9c 55bf cd30 3c3f
00000020: 8170 42bf b378 35bf 7c4b ba3e ad71 57bf
00000030: bfaa 31bf 4c9b 373f 39ed 5d3f e8be cabe
00000040: 5481 413f 9bc3 98be e3e9 82bd 7718 233e
00000050: cbcc 263d f0d4 093f 3b9a 0dbf 9ad0 9abe
00000060: 33cc 43be c572 ddbe 161b 473f 65e7 d13d
00000070: 0a07 38bf 0ca2 e5be d56d 053f f2a8 f33d
00000080: 35cf b83e 8ee2 be3e 7908 5d3d 6ac7 453f
00000090: 3948 c7be 0ecb 603f 0443 c8be cbf4 4dbd
000000a0: cab9 19bf 7afe a7be f93e 533f 084e 2dbf
000000b0: eea7 163f 0695 263f bafb 08bf 0033 05bf
000000c0: 76e4 47bf e955 24bf
-0.8220436 -0.019513123 -0.05249024 -0.01160483 -0.08697355 -0.22478117 -0.8344192 0.73511964
-0.7595292 -0.708873 0.36385715 -0.8415783 -0.6940116 0.7172134 0.866901 -0.39598775
0.75587964 -0.29836735 -0.063922666 0.15927301 0.04072265 0.5384054 -0.5531346 -0.30237275
-0.19120865 -0.43251625 0.77775705 0.10249213 -0.7188574 -0.44850194 0.52120715 0.11897458
0.36095586 0.37282223 0.05396316 0.77257407 -0.3892229 0.87809837 -0.3911363 -0.05028228
-0.60049117 -0.32811338 0.82517964 -0.6769719 0.5884999 0.6507114 -0.53509104 -0.52030945
-0.7808298 -0.6419359

gat_layer_0.attention_1.a f4 [20, 1]
00000000: 8270 b7be 0893 b33d aff2 8e3e 08e8 6dbe
00000010: 20eb 6a3e 0840 c7be c8e8 07bf a610 febe
00000020: 03d3 babd 4580 83be baa0 0c3f cd3e 3a3e
00000030: 68ae 9bbe e8a7 a6be 032c 373e 75d5 023e
00000040: cbdb c9be df3f efbe 0685 2e3f e5c0 bb3c
-0.35828024 0.08768278 0.27919528 -0.23233044 0.22941256 -0.3891604 -0.5308957 -0.49622077
-0.091222785 -0.256838 0.5493275 0.18188019 -0.304065 -0.32549977 0.17887883 0.1277674
-0.394255 -0.46728417 0.6817173 0.022919128

gat_layer_0.attention_2.W f4 [5, 10]
00000000: dd72 543f 09b5 edbe 609e 0abe bc59 483f
00000010: c380 2e3f 842e a23d aadc 18bf b87e 0abf
00000020: 082a 1ebf 92d4 0abf 723a 873e 3125 64bf
00000030: c3e3 56bf 3b6b 323e 96f0 65be 7587 b9be
00000040: 16cd 5abf d211 8d3e 7ed8 a3bd fe4e ccbe
00000050: b703 09bf 8dd1 313f 196e 383f fc73 b5be
00000060: 3515 ec3e 9587 3d3e ec64 08bf 02ee e9be
00000070: 9eb2 5f3f 6820 213f 4156 61bf 0d66 903e
00000080: 9d82 213f 9cf8 763e 55b3 15bf 7adf 66be
00000090: ccc1 31bf ccea a7be 823d 00bf 61ee 0b3f
000000a0: 5d90 94bd 0f42 2dbe 9240 2ebf 6385 3c3e
000000b0: 4275 1a3d 2beb a1be c578 58bf 884c 58bf
000000c0: cb6d 1abe 5e97 a33e
0.8298777 -0.4642718 -0.13536978 0.78261924 0.68165225 0.079190284 -0.59711707 -0.5409961
-0.61782885 -0.54230607 0.26411778 -0.8911925 -0.83941287 0.17423718 -0.22455058 -0.36236158
-0.85469186 0.27552658 -0.08000277 -0.39904016 -0.53521293 0.69460374 0.72042996 -0.35440052
0.4610993 0.18508752 -0.53278995 -0.45689398 0.87381923 0.62940073 -0.8802224 0.2820286
0.63089925 0.24118274 -0.58476764 -0.22546187 -0.69436336 -0.32796323 -0.50093853 0.5466061
-0.072540976 -0.1691973 -0.68067276 0.18410258 0.037709482 -0.3162473 -0.8455928 -0.8449178
-0.15080945 0.31951421

gat_layer_0.attention_2.a f4 [20, 1]
00000000: 6ebe e9be fe6a 94be 5792 babe d239 1fbf
00000010: d7fc 39bf da54 063f 5b34 a83c 8c57 083f
00000020: 1cc6 e93e 4722 103f 23f9 3a3f 23ad 2fbf
00000030: 1767 02bf 7e95 763e 6d10 fd3e b3d0 813e
00000040: a538 283f 2053 91be d0cd 03bf d11a fbbe
-0.456531 -0.2898788 -0.36439773 -0.621976 -0.7265143 0.52473223 0.020532778 0.53258586
0.45658958 0.56302303 0.730364 -0.6862356 -0.5093855 0.24080464 0.49426594 0.25354537
0.6571143 -0.28383732 -0.5148592 -0.49043897

gat_layer_0.attention_3.W f4 [5, 10]
00000000: e9f6 b2be 08fa d8bd 3ba7 ac3d 039e c83e
00000010: f706 95be 282c 4cbf 0d4a 24bf 18c4 5c3f
00000020: e545 7fbd 04d2 04bf 6700 31bf 9222 213e
00000030: 1301 003e 1f88 123e a27d d4be 0702 12bf
00000040: 9c37 26bf fe4c 363e 9cb6 103f 96ff 213e
00000050: b902 153f ec24 373f 017d 82be e8db ec3d
00000060: 0a5f b33e 6c41 29bf d7f6 d83e 18f4 1bbf
00000070: 4b34 03bf f034 b53e 6127 ebbd 360d 73bc
00000080: e46f 19bf ae2a f83e 71b1 223f 16ab 3abf
00000090: db11 f5be 90aa 2ebf 9991 203f 3a73 3d3e
000000a0: dbac 2e3f 57a7 a63e 3e26 41bf 65bd e73e
000000b0: eae4 0b3e ed8a b4be e2e9 21bf 1d2e 233e
000000c0: 5bc1 2f3f 76cb 27bf
-0.34954002 -0.10594565 0.08430334 0.39183053 -0.29106876 -0.7975488 -0.6417549 0.86236715
-0.062322516 -0.5188296 -0.6914124 0.15735844 0.1250041 0.14309739 -0.415021 -0.57034343
-0.64928603 0.17802808 0.5652864 0.15820155 0.5820728 0.71540713 -0.25485995 0.11565381
0.35033447 -0.6611545 0.42375824 -0.6091933 -0.5125167 0.3539195 -0.1148212 -0.014834693
-0.59936357 0.48470062 0.63552004 -0.72917306 -0.47865185 -0.6822901 0.62722164 0.18500987
0.68232507 0.32549545 -0.7544898 0.45261684 0.13661543 -0.35262242 -0.632475 0.1593556
0.6865441 -0.6554483

gat_layer_0.attention_3.a f4 [20, 1]
00000000: 7888 a8be 2ef3 253d 78f5 fa3e e61f 3f3f
00000010: 9c2e 273f f9c1 2a3f 3c02 18bd 3cd2 3e3f
00000020: 9394 a33d 2637 05bf c558 83be 5560 14bf
00000030: ec2b 66bd afa5 25bf 37b0 bfbe 9dbb a63d
00000040: 7fb0 f13e 261d a13c 69b7 e33e 70e7 f93d
-0.32916617 0.040515117 0.49015403 0.7465805 0.65305495 0.6670223 -0.037111506 0.7453954
0.07987323 -0.52037275 -0.25653663 -0.5795949 -0.05619423 -0.6470594 -0.3743913 0.08141253
0.47204968 0.01966722 0.44475868 0.12202346

gat_layer_0.attention_4.W f4 [5, 10]
00000000: ea0f 9fbe 20f2 3ebf ca85 493f bc02 af3e
00000010: 7a0a d53b 85e0 9c3e 3386 ee3e 2199 813e
00000020: 4ad6 aebe d513 29bf 8976 febd 6e6b ebbe
00000030: f437 5dbf 184a 15bf 94a4 cf3e 9480 003f
00000040: b5af 26bf 6984 8abe 8e47 ae3e 9f99 da3e
00000050: b8c4 2fbf 6eda 033f bcc8 a1be ce58 e9be
00000060: 0c06 2cbf 0c7f 6f3e 3a8b c23d fd78 f93e
00000070: b6b1 1abe 917b 253f e150 4bbe 5e6d 81be
00000080: 6236 eebe aa1c 133f 2b0b 63bf 7f5a 533e
00000090: 7ee0 39bf 8568 ecbe 836b 4abf 22c4 393f
000000a0: e897 1ebf 7086 3f3f 4d98 133f c1e4 8abd
000000b0: 8a2d 82be 09f1 4d3f f658 4f3f 745d 4d3f
000000c0: 3673 52bf 044b 1d3e
-0.3106683 -0.74588203 0.7871977 0.34181774 0.006501493 0.30640045 0.4658676 0.2531214
-0.34147865 -0.66045886 -0.124249525 -0.459804 -0.864135 -0.58316183 0.4055525 0.50196195
-0.6511186 -0.27054146 0.34038967 0.4269533 -0.68659544 0.5150517 -0.3159846 -0.45575565
-0.67196727 0.23388308 0.094992116 0.4872512 -0.15106854 0.6464167 -0.19855072 -0.25278753
-0.46525866 0.5746561 -0.88688916 0.2063999 -0.7260817 -0.46173492 -0.790703 0.725649
-0.6195054 0.7481451 0.5765427 -0.067819126 -0.2542537 0.80445915 0.8099512 0.80220723
-0.8220705 0.15360647

gat_layer_0.attention_4.a f4 [20, 1]
00000000: 1904 c73c 3849 e7be 4385 efbe edc5 dabe
00000010: b593 8fbe edc8 0b3f 05d8 d93e 183e 263e
00000020: 27a9 e5be 2976 c63e 8249 273f cd50 243f
00000030: a716 6fbe 1783 153f 15b3 c43e 9721 043f
00000040: d7af d33e 924b fa3e fadb 0e3f add9 10bf
0.024293946 -0.4517305 -0.46781358 -0.4272913 -0.2804238 0.54603463 0.42547622 0.16234624
-0.44855615 0.38762024 0.6534654 0.6418579 -0.23348485 0.5840315 0.3841788 0.51613754
0.41345093 0.4888578 0.5580441 -0.56582147

gat_layer_0.out_att.W f4 [50, 5]
00000000: 2b6d d3be 5b35 8cbe 283d bb3c a312 71be
00000010: 770f 85be 6206 f4be e212 883d fe78 8fbe
00000020: f949 033e 89c9 44be dcab 963e 68a5 afbe
00000030: 6503 4c3e a1eb b4bb 0025 833e e416 21bd
00000040: 3419 3ebe f66d d03d b48e af3e 1ff9 b9be
00000050: f079 c83e af53 45bd 9a41 0e3e f775 6e3e
00000060: 6682 e03e bad8 99be c6ae a73c e6a0 ba3e
00000070: bacc 8f3e e5f5 4ebe 2efd ce3e fd76 743e
00000080: 756b aabe 6937 9abe f06f 373e 10e6 f6be
00000090: 8c40 b23c 2f92 873e 69e1 8fbe 5499 943c
000000a0: ed04 3c3e e08e 83be a174 4abd 7fcd dd3d
000000b0: ba17 c53c 64cc b7be deac 693e b89a 07be
000000c0: 0c72 93be 208f 843e 9cb2 9dbe 9098 773e
000000d0: 2b20 42be 55ae 87be 31fe babd 4b4d 43be
000000e0: aa46 523e 4c87 73bc 2204 753e bf1c 9fbe
000000f0: 06db 00bd d7e7 a33e 7701 c9be 4c47 c43e
00000100: ac35 a33e 11f3 dc3d c187 533e f947 8cbe
00000110: 3272 593e 9fdd e83e 6438 bf3c 5021 e9be
00000120: d0ad 893e d05c afbe 23db da3e 6a88 9abd
00000130: 6dd7 8dbd dcef 48bd 21dc b13e 57f1 dfbe
00000140: 3eae 63be d027 833e af0d 23be 401c ec3e
00000150: 7f8f d43e a097 663d e029 32be bec7 613e
00000160: 2ac5 26bc 9b14 303e d140 e0be d45d 32bd
00000170: 21ef 5bbc eaf5 863d 2c27 c23e 2201 9f3e
00000180: ca5a 90be 3250 73be 6dcc c23e 21ce 6f3e
00000190: 9dca 423e 61ef d9be 40ee 90bd de40 71bd
000001a0: 7e52 bd3e a46c 993e 3af1 a23e f45a e0bc
000001b0: c49e 4abe 8084 d2be 6709 c63e 61d8 933e
000001c0: 8efc 81be 27da 11be ab12 a03e 8ac7 5e3c
000001d0: ec55 15be 2d4a 37be 81c7 2e3e f1fc 5bbe
000001e0: 86e9 113e fbf1 d2be 6ee7 cc3d d27b ce3d
000001f0: 80a7 9fbd 15e4 8c3d 6740 183e cad5 91be
00000200: 30a9 9d3e 651f 74be 931e 9fbe bd3b 84be
00000210: f624 a53e 4ede ebbe 6a21 a7be 8236 b53e
00000220: 7660 10bd 7bd5 d3be 3ec7 e43e f49f aebe
00000230: 2470 70be 6443 b6bd 4875 883e ceaa d0be
00000240: abf8 9a3e 932e d03e 5a2a 29be 9e3e 5f3e
00000250: 7ed3 a3be 1c41 b3be d874 943b cc3a bd3e
00000260: 69e1 8fbd 1798 c4be 8db8 d73d 4874 923e
00000270: b5fa 1ebe a4d4 e1be c847 783e 3180 363e
00000280: ebd5 c3be efa0 4f3e 6592 bcbe e298 9a3e
00000290: f00c d43e b01a d3be aee6 3f3e ddc7 d73e
000002a0: 8c21 2c3e ca62 e93e f9d4 4abe e366 6cbe
000002b0: dd0f e83e c151 b53e 1f23 b8be e291 10be
000002c0: 141d cf3e 54ff 243c ef54 c83e 5961 0f3e
000002d0: 771f 553e 6358 b63e f9ee 923e 16ed b8be
000002e0: 18fc 7d3d b72b b0be 1ecf 513e 2385 843e
000002f0: 7c4f ec3d ca18 83be fca6 a6be a62e 963e
00000300: a973 883d f169 98be 2cdb c2be e0f6 b03e
00000310: 8b06 633e 666b a5be 1687 1b3e cee5 063d
00000320: 3441 46be a99f b03e d715 993e 7d36 c7bd
00000330: 73c3 44be dd04 443b 9058 a83e 1611 ae3d
00000340: 82c4 9b3e 594f 6dbe f691 ea3d 2eea 803e
00000350: a715 2b3d 392a 88bd 1e9a 5c3e 68a2 99bd
00000360: c1eb c5be 3048 bc3e dc2d 17be 94d0 8e3e
00000370: 14a7 db3e dfef d33e 4957 163d 0a88 c6be
00000380: 64c9 aa3d 557c 52be acb6 adbe fd4a 7a3c
00000390: 1a61 02be 8f3e 1e3e 3995 c3bd a0a8 adbd
000003a0: 02bf d8be 967d 843e 03b1 ebbe 5786 26be
000003b0: e938 183c d37b c6bd 8dff bb3e ae3a 82be
000003c0: 5032 5cbe fb70 e3be 1d4e c83e 33ba 88be
000003d0: 5176 a53e 1d9c e73c 005e e0be e84d c23e
000003e0: 94de e5be 7571 37be
-0.41294226 -0.27384457 0.02285631 -0.23542266 -0.2598836 -0.4766112 0.066442266 -0.28021997
0.12821187 -0.19217505 0.29427993 -0.34305882 0.1992317 -0.005521253 0.25614166 -0.03932847
-0.18564302 0.101772234 0.3428856 -0.36322877 0.3915553 -0.04817551 0.13892213 0.23287188
0.43849486 -0.30048162 0.02046908 0.3645088 0.2808588 -0.20210989 0.40427536 0.23873515
-0.33285108 -0.301204 0.17913795 -0.482224 0.021759294 0.26478717 -0.28101662 0.018139519
0.18361254 -0.25694942 -0.049427632 0.10830211 0.024059165 -0.35898125 0.2281985 -0.13242614
-0.28797948 0.25890446 -0.3080033 0.24179292 -0.18957584 -0.26500192 -0.091305144 -0.19072454
0.20534769 -0.0148638 0.23927358 -0.3107662 -0.031458877 0.32012817 -0.3925893 0.38335645
0.31876886 0.10788549 0.20657255 -0.2739866 0.21234968 0.45481583 0.023342319 -0.45533228
0.2689042 -0.34250498 0.42745313 -0.0754555 -0.06925855 -0.049056873 0.34738258 -0.43738815
-0.22234437 0.25616312 -0.15923189 0.46115303 0.4151573 0.056296945 -0.17398787 0.22048852
-0.0101788435 0.1719536 -0.4379945 -0.043546513 -0.013423712 0.06589873 0.3792051 0.31055552
-0.28194267 -0.23761061 0.3804659 0.23418476 0.19022603 -0.42565444 -0.070766926 -0.058899753
0.36977 0.299657 0.31824666 -0.02738712 -0.19787127 -0.41116714 0.38679048 0.28876022
-0.25387996 -0.14243375 0.31264243 0.0135973785 -0.14583558 -0.1789939 0.17068292 -0.21483208
0.14249238 -0.4120024 0.10005079 0.100822106 -0.0779562 0.06879441 0.14868318 -0.2848342
0.30793142 -0.23840101 -0.31078014 -0.25826827 0.3225476 -0.46068043 -0.3264268 0.3539315
-0.035248242 -0.4137381 0.4468326 -0.3410641 -0.23480278 -0.088995725 0.26651978 -0.40755314
0.30267844 0.40660533 -0.16520062 0.2180123 -0.31997293 -0.35010612 0.0045305304 0.3695892
-0.070254155 -0.38397285 0.10533247 0.2860434 -0.15525325 -0.44107544 0.24246132 0.17822339
-0.38249144 0.20276235 -0.3683044 0.30194765 0.4141612 -0.41231298 0.18740341 0.4214467
0.16809672 0.45583183 -0.19807805 -0.23086123 0.45324603 0.35413936 -0.35964295 -0.1411815
0.40451872 0.010070641 0.391273 0.14001979 0.20812784 0.3561431 0.28697947 -0.36118382
0.062007993 -0.34408352 0.20489165 0.25882825 0.11538598 -0.2560485 -0.32549274 0.29332465
0.066626854 -0.29768327 -0.3805784 0.3456335 0.22170465 -0.323085 0.1518825 0.032934003
-0.1936081 0.3449681 0.29899475 -0.0972719 -0.19215183 0.0029910125 0.32880068 0.08499353
0.3042336 -0.231748 0.11453621 0.25178665 0.041768696 -0.06648678 0.21543166 -0.0750168
-0.38656428 0.36773825 -0.14763588 0.27893507 0.42900908 0.41393945 0.036704335 -0.38775665
0.083391935 -0.20555241 -0.3392843 0.015276668 -0.12732354 0.15453552 -0.09549946 -0.08479428
-0.42333227 0.25877064 -0.46033487 -0.16262184 0.009290912 -0.09691586 0.36718407 -0.25435394
-0.21503568 -0.44422135 0.39122096 -0.2670456 0.3231683 0.028272683 -0.43821716 0.37950063
-0.44896376 -0.17914374

gat_layer_0.out_att.a f4 [10, 1]
00000000: 4080 143e 3d3d 7d3f 3445 28bf 1507 debe
00000010: d37f dbbe 3f02 44bf b651 c73e 709c e1bd
00000020: e369 80bf ba14 34bf
0.14502048 0.9892157 -0.65730596 -0.43364778 -0.4287096 -0.7656593 0.38929528 -0.11016166
-1.0032314 -0.70344126

gat_layer_1.attention_0.W f4 [5, 10]
00000000: a641 6c3c 3c81 88be 7ff1 0d3f de7b 5bbf
00000010: 7253 fa3e 8732 3bbe b692 a13e 4778 61bc
00000020: 91cb 39bf ed12 0cbf 0649 363f 47b8 49bf
00000030: 7b4e dcbe 1dfc c4bd 6018 52bf 9351 f9bb
00000040: 5875 35bf 01f1 37bf 95da 22bf 1639 093f
00000050: 1612 e83e 4030 2bbf 7a83 3d3f 743e 77be
00000060: 325c 2c3f 1c1a 163d 84c5 f4be 85fe 623f
00000070: ccc2 003e 7b50 483f 54b2 ee3d 6e2e 49bf
00000080: 0052 c23e 7da6 f3bd 594b 653e 32d9 583f
00000090: 7143 05bf 0975 2abf 2141 64be 094b 2ebd
000000a0: 1af0 66be 27e3 413f 137a 553f 292c 3c3f
000000b0: 0e38 56bf 7fa1 1dbf 97b7 1e3f 954f a8be
000000c0: 7c7c 063f 5361 df3e
0.014419949 -0.26661098 0.5544662 -0.8573588 0.4889179 -0.18280993 0.31557244 -0.0137615865
-0.7257624 -0.5471638 0.71205175 -0.7879681 -0.43028626 -0.09618399 -0.82068443 -0.0076086014
-0.7088218 -0.7185212 -0.6361478 0.5360273 0.45326298 -0.668705 0.7402874 -0.24144918
0.6732818 0.036645994 -0.47806942 0.88669616 0.12574309 0.78247803 0.11655107 -0.7858647
0.37953186 -0.118969895 0.22392024 0.84706414 -0.5205603 -0.6658483 -0.2229047 -0.042552028
-0.22552529 0.7573723 0.83389395 0.73504883 -0.8367928 -0.6157455 0.61998886 -0.32873216
0.525337 0.4362894

gat_layer_1.attention_0.a f4 [20, 1]
00000000: b9cf 3e3e 084f 05bf 2a88 59be 2d89 c9be
00000010: b10d 403f bd29 3dbf bb2c a4be a7a5 38bf
00000020: 7ed2 383f 38bd 26bf df8a 3c3f 9aef 22be
00000030: 1eda 52be b35e 0fbe c8b9 2e3f 8120 543e
00000040: 7a04 e93e 1ede 5ebe 61aa 38bf 90d0 3bbe
0.18633927 -0.5207372 -0.21243349 -0.3936247 0.7502089 -0.7389181 -0.32065377 -0.72127765
0.72196186 -0.65132475 0.736494 -0.15911713 -0.20591018 -0.14000969 0.6825223 0.20715524
0.45511228 -0.21764418 -0.7213498 -0.18341279

gat_layer_1.attention_1.W f4 [5, 10]
00000000: 60b6 063f 8ee8 6fbc 7010 053f 7fa3 fb3e
00000010: 1ca0 debe 09a9 87be 65f6 083d d878 6d3d
00000020: 2059 11bf 7d85 253e bdb0 5fbf e47b c73d
00000030: 0e51 34bf 39ea 583f 0fbf 6dbe d242 adbe
00000040: 3110 1e3e f0db 4abf d285 e83e 73a1 c53e
00000050: 06f6 043f 5b89 24bf 377e 55bf ba2f b3be
00000060: 20f6 5abe 3339 42be f058 163f adf7 e1bd
00000070: 7ab9 0cbf 8ad1 b8be e202 c13d cccd 973e
00000080: 4608 3abf 64fa cd3e e9c4 81be fe65 ab3e
00000090: 2b00 febd 1e8b 74be 2341 5fbe 0533 283e
000000a0: 64bb 38bf f00f 073f 9468 f4be d6fe b5be
000000b0: e7eb 753e 5e88 c73d a068 1f3e 882f 5fbf
000000c0: b8b1 d8be 174d a3bd
0.5262203 -0.014642848 0.51978207 0.49148175 -0.4348153 -0.2649615 0.033438105 0.057976574
-0.5677662 0.16164203 -0.87379056 0.09740427 -0.7043618 0.84732395 -0.23217414 -0.33840042
0.15435864 -0.7924185 0.45414597 0.38599738 0.519379 -0.6427209 -0.83395714 -0.3499735
-0.21382952 -0.18967132 0.5872946 -0.110335685 -0.54970515 -0.36097366 0.09424378 0.29649198
-0.72668874 0.40230095 -0.25345543 0.3347625 -0.12402376 -0.23881194 -0.21802191 0.16425712
-0.72160935 0.52758694 -0.47736037 -0.35545987 0.24015771 0.09742807 0.15567255 -0.871819
-0.4232309 -0.07973688

gat_layer_1.attention_1.a f4 [20, 1]
00000000: 396a 0ebf c641 113e 4630 1bbe a7a4 c4be
00000010: 372b 5d3e 8e58 0bbe ff9f fb3b 35d1 3e3f
00000020: 6770 cfbe 3224 89be 50e0 1c3f 8e10 963c
00000030: e1a0 df3e aced 25bf a683 59bb ae9f c5be
00000040: 1e8c adbe b365 343f 4c75 54bd e5e1 253f
-0.5563083 0.14185247 -0.15155134 -0.3840687 0.21598516 -0.13608 0.007678985 0.74537975
-0.40515444 -0.26785427 0.61279774 0.01831844 0.43677428 -0.64815784 -0.003319004 -0.38598388
-0.33895963 0.7046768 -0.051869676 0.6479781

gat_layer_1.attention_2.W f4 [5, 10]
00000000: b891 c3bd 0400 4bbf f138 afbe 82ed a4be
00000010: b7c5 5fbf 9404 a2be e477 423f ac33 38be
00000020: 2c5c ab3e 3477 d9bc 05c8 f83e cb7c 4fbf
00000030: 8cbb 9e3c 4d26 1c3f 6775 5e3f 4774 a5be
00000040: e85e d4be befe 37be a90d 08bf 6382 2abc
00000050: e203 d53d 1106 e63e e873 34bf aafd 1d3f
00000060: 2cf5 fc3e d85a d73e 455a 4abf 811b 6e3e
00000070: 798e 5c3d 2b13 663e 5ab5 fb3d 6fed c8bc
00000080: 715f 3a3e 4b4f 163e b3ab 223f cb44 5ebe
00000090: 711b f3be cde6 48be af50 6f3c 2d9b af3e
000000a0: 916c 653e ae5e 94be 10a2 29bf 25e4 4b3f
000000b0: 1b38 1f3f f0ad 53be 872e bb3e b259 1bbb
000000c0: 9376 113e bcda b03d
-0.09549278 -0.792969 -0.3422313 -0.32212454 -0.87411064 -0.31644118 0.7596419 -0.17988461
0.3346876 -0.026546098 0.48590103 -0.81049794 0.019376539 0.6099594 0.8689789 -0.32315275
-0.41478658 -0.1796827 -0.53145844 -0.010407063 0.10401131 0.44926503 -0.7048936 0.61715186
0.494058 0.42061496 -0.7904399 0.2325268 0.05384681 0.2246825 0.122904494 -0.02452728
0.1820047 0.14678685 0.6354324 -0.2170593 -0.47481874 -0.19619294 0.014606639 0.34298077
0.22404696 -0.28978485 -0.6626291 0.79644996 0.62194985 -0.2067182 0.36558935 -0.0023704586
0.14205389 0.0863547

gat_layer_1.attention_2.a f4 [20, 1]
00000000: 5f03 ca3e a8c7 0e3f fb40 9cbe baca 173f
00000010: 6e37 1e3f f4ab 34bf 9289 cebe 7042 6e3c
00000020: e5ff 31bf d531 883e 9dfe 383f 6c1a b53c
00000030: 9fa6 8bbc 3252 91be 1f24 27bf 357a 00bf
00000040: b42c a63e 9130 7bbd 838a 25be bf26 30be
0.39455697 0.557734 -0.30518326 0.5929371 0.6180333 -0.7057488 -0.40339333 0.014542207
-0.6953109 0.2660052 0.7226351 0.022107325 -0.017047225 -0.28383023 -0.6528949 -0.50186473
0.3245598 -0.061325613 -0.1616612 -0.1720228

gat_layer_1.attention_3.W f4 [5, 10]
00000000: 531a 103f 9f1b 64bf e06f d63e b065 63bf
00000010: 4957 423f 34f1 38be 2bf6 25bf a47c 4dbf
00000020: 6005 693f e365 93bd 8c5c ad3d 65d1 ffbe
00000030: 9437 00be ae3f 303f 2bf8 123f 3fa3 0b3f
00000040: 43f1 c7be 36ec 853e ea2a 343f ce71 313f
00000050: 5e36 2e3f 5de1 d83e 90ff 19be ec20 38bf
00000060: d34f 25bf aa30 3f3f 320e 253f 8318 9d3d
00000070: 7a54 2abf c603 ab3d aa17 9abe 97a5 5bbf
00000080: b17b bebe 45cf cebe baaf 323f fe0d 8cbe
00000090: 8f80 5d3e 6b64 9abe a714 ec3e d162 21bf
000000a0: 5f71 17bf 5701 323f b071 57bf b55f f3be
000000b0: 1290 263f a741 573f 3482 92bd d592 cdbe
000000c0: 6f18 fa3e bc9f c43e
0.5629017 -0.89104646 0.4188223 -0.8882704 0.75914437 -0.18060762 -0.6482875 -0.8026831
0.91023827 -0.07197168 0.084649175 -0.49964443 -0.12521201 0.6884717 0.57409924 0.5454597
-0.39051256 0.26156777 0.7037798 0.6931428 0.6805171 0.4235944 -0.15038896 -0.71925235
-0.6457493 0.7468363 0.64474785 0.07670691 -0.6653515 0.08350329 -0.3009618 -0.85799545
-0.37203744 -0.4039251 0.6979939 -0.27354425 0.21631072 -0.30154738 0.46109506 -0.63041407
-0.59157366 0.69533294 -0.8415785 -0.47533956 0.65063584 0.8408455 -0.071537405 -0.40151086
0.48846766 0.38403118

gat_layer_1.attention_3.a f4 [20, 1]
00000000: 969f 09bf 1456 41be 8cde e9be 189a 66be
00000010: dea2 85be ca11 003f 5a95 4b3c e4cb d13e
00000020: bd3b 083e fec2 8fbe f58d 083f 9a87 43be
00000030: 01fd ccbe 3fa0 353f c4f8 bcbe d92f 73bd
00000040: 672a fc3e 3725 193f 8a0a b5be c292 df3e
-0.53759134 -0.18880492 -0.45677602 -0.2251972 -0.2610082 0.50027144 0.012425745 0.4097587
0.13304038 -0.28078455 0.5334161 -0.19094697 -0.40036777 0.7094764 -0.36908543 -0.059371803
0.492511 0.5982241 -0.35359603 0.43666655

gat_layer_1.attention_4.W f4 [5, 10]
00000000: c677 553f 30dd d93e fa11 ea3e 0d63 b03d
00000010: f859 193e 9164 ef3d 3079 0dbf 2107 2f3f
00000020: 57aa 1bbf a3c9 dc3e 824a c1be 274b 51bf
00000030: 0cb5 f33e c461 2e3f 7ad8 4b3f f3cb 323f
00000040: 6d04 20bf ce47 2d3f e83a 5cbf fca4 0f3f
00000050: 7572 00be 20f6 573f 4a62 4fbf 0850 59be
00000060: 0677 4abf 8ebc 1dbf 9276 5abf 842c 223e
00000070: cfb5 febe 7d9e 29bf 26fe 28bf dda5 31bf
00000080: 2809 113f 3820 6bbe 5689 4b3f 45b4 1c3f
00000090: da62 4a3f 925f 90be a45b a33d 4ad3 82be
000000a0: b515 eebe c984 e8be 677a 3a3f f4d8 413f
000000b0: 1e21 163f b13b 43bf 3ec6 89bd 0e9d f93e
000000c0: e207 4e3f 2264 a23e
0.83385885 0.42551565 0.4571684 0.086126424 0.14975727 0.116891034 -0.5526304 0.6837025
-0.6080679 0.43122587 -0.37752157 -0.817553 0.47599065 0.6811793 0.7962719 0.6984245
-0.62506753 0.6768769 -0.86027384 0.5611112 -0.12543662 0.8435993 -0.8100935 -0.21221936
-0.79087865 -0.61615837 -0.85337174 0.15837294 -0.49748084 -0.6625746 -0.660128 -0.6939371
0.56654596 -0.22961509 0.79506433 0.6121257 0.79057086 -0.28197914 0.079764634 -0.25551826
-0.46500936 -0.45413807 0.7284302 0.7572167 0.5864428 -0.76262957 -0.06727265 0.48752636
0.8048078 0.3171702

gat_layer_1.attention_4.a f4 [20, 1]
00000000: 8e05 43bf 8272 debe 9d61 c4be 3fba 8f3d
00000010: 13fa de3e 2bbb ae3e eaa5 b23e 1082 0d3e
00000020: f12d 393f a708 fe3e e348 873d dfb9 023e
00000030: 4fef 14bf 8cde cd3e f647 27bf 4f43 173f
00000040: 552d 0d3f 9466 75be 3616 92be 3190 d63e
-0.7618035 -0.43446738 -0.38355723 0.070179455 0.43550166 0.34127173 0.34892207 0.13819146
0.72335726 0.49615976 0.06605699 0.12766217 -0.58177656 0.40208852 -0.6534418 0.5908708
0.55147296 -0.23964912 -0.2853257 0.41906884

gat_layer_1.out_att.W f4 [50, 5]
00000000: 3787 0f3e 3ffb 2c3d 480c f93c 8b5f c63c
00000010: a575 06bd c0fe d83e 385c d33e ac1e 9fbd
00000020: 6fa8 b53e 0a00 2a3e d6b7 d33d 8c9f dd3d
00000030: 0f62 cbbe df10 483e 0d4f 5c3e 5012 e13d
00000040: e4cc 213d d442 a53d 7e81 5ebe 6227 e1be
00000050: bb55 08be 12f3 02be 13c7 66be f7a2 e23e
00000060: 8f8b cd3e b4af a43e 8e98 cd3d 3f35 543e
00000070: 255a 403e 39c5 84be 7135 c7be 2852 cebe
00000080: bdea 843e 34fe db3d 3527 87be 7297 bdbe
00000090: 7393 96be af7d 00be b7b1 603d 58fc 203c
000000a0: 2099 e43e 3350 173e 4417 9abe 12e6 713e
000000b0: 6600 55be e51b a53d b189 ea3e 371a 813e
000000c0: 57d6 5b3d d4d8 d83e 7cb0 83be 3616 73bc
000000d0: 68d3 70bd 8e5f c0be aef2 1fbd 1bbc c7be
000000e0: 896d 31bd b625 b03b 500f 293e 3612 bdbe
000000f0: 8052 b43e 3e77 45be cdbe 73be 8b5c 9e3e
00000100: c367 e0be 3d1f c83e 4d13 c13e d605 0e3e
00000110: 1057 0f3d 4400 c73e e7b7 453c aa72 6fbc
00000120: 1fa0 bb3c 153a 943e de7f 943e 63b4 f0be
00000130: 64a1 44be 862c 24be f2c1 bdbe 92d5 dd3e
00000140: 636a 12be 92ed e23d 8037 a93d eabf 7abc
00000150: e168 5a3e be14 a6bc 97dc a2be 3bb9 8c3e
00000160: c892 bb3d 6931 1b3e fd53 89bd eead 163e
00000170: 9870 03ba d370 193e 2817 7b3b 5309 d93e
00000180: 72e0 d63e 5521 20be 89ed 8cbe b929 173e
00000190: d27e 603e 5620 0a3e 0966 c0be 0160 5b3d
000001a0: b035 ccbe 65dc 943c b60d 5d3d 8c7d 943e
000001b0: 13dd 20bd 863f abbe 8fe5 c6be 0b77 ab3e
000001c0: 4a13 bc3e df95 d73e 7790 66be fbbf f3be
000001d0: b744 1d3e 9b99 163e e6e2 5f3e 96db acbe
000001e0: d91d 8ebe 3f1d 7d3e ef20 b23e ef6d f23e
000001f0: a5f0 8cbe e3aa 023e b410 1c3e f5f8 ebbd
00000200: c474 bfbe 3feb dbbe d7f0 bfbe 378b 053e
00000210: 5425 1f3b c188 933e 4a3a 413e 4fb3 8b3e
00000220: e272 103e 475b 6fbe 2b68 d83e abe3 dbbe
00000230: 8f71 0e3e a570 9ebd 41d4 6b3e 6905 cc3e
00000240: 0f1b 07be 6823 35be 4ddb 31be 9a31 e2be
00000250: f6bb b23d 63bc 863e ae1d c3be 11b5 ccbd
00000260: 16ca 2f3d 5c80 bd3c 0cf6 e8be 9972 b23e
00000270: 9c8b 713e 1fff a5be b22d a6be 222c 36bd
00000280: ea0e 59be 3b18 60be b058 ab3e 9c7f d9be
00000290: b349 4a3e 7073 cfbe 8fe7 afbe d7c1 963e
000002a0: 76b4 dabd 4e56 8e3c e598 cd3e 68da 613e
000002b0: c41e 08be 224b c53e a112 d8be 8d02 5a3e
000002c0: 8a59 d1bd fa9c 9ebe 3c76 4a3d 4f16 ae3e
000002d0: 7e8c f0bd 601d b93c 6a38 083e 32b9 98be
000002e0: d43b d63e d0a7 c9be cf62 a93e 6c19 2d3e
000002f0: 1aa5 4ebd 4542 863e aedc 7bbe fa95 6abe
00000300: 3ae0 ecbd 132f acbc 86a6 be3e 558c cc3e
00000310: e026 0bbf 96c9 cebd 1695 cd3e aecc b0be
00000320: d9a2 3dbd 9b9e 20bd ccd6 433e 7e9d f13d
00000330: 3fab d83e 683d eabb 21bb 8fbe f89e 893d
00000340: f6c0 a8be 80fd 993c f872 cebe f628 a5be
00000350: a820 ccbe 64f1 e9bc 6487 2a3e c100 cabe
00000360: c1d4 a43e 74d0 2abe fc4c 823e 67b8 d4bd
00000370: 553a 1fbe 285c d7bd 1170 a73e fbb5 a63e
00000380: 4db6 7f3e 4452 89be b40c aabe 23fb 89bb
00000390: 9bd7 a4be c836 d63d 7fab d3be a357 ce3d
000003a0: f4ae a2be 5f72 a8be abb2 94be 92fc 1b3e
000003b0: f89b cc3e ccdd 0f3e 127b d0be e8d8 4b3e
000003c0: 4432 033e 9311 063e af4b 8fbe 7ac0 c13e
000003d0: adeb d23e fbc0 a9be 7693 c6bd 1a61 e3be
000003e0: 671c 5c3e f172 1cbe
0.14016424 0.042231794 0.030401364 0.02421548 -0.03282704 0.4238186 0.41281295 -0.07769522
0.35480067 0.16601577 0.10337798 0.10821447 -0.3972325 0.19537686 0.2151453 0.10989821
0.03950204 0.08069387 -0.21729085 -0.4397536 -0.13313954 -0.12788036 -0.22536878 0.44264957
0.40145537 0.321653 0.10038863 0.20723437 0.18784387 -0.2593172 -0.3890796 -0.40297055
0.2596034 0.10741845 -0.263971 -0.37029606 -0.2940937 -0.12547944 0.054856982 0.009825788
0.44648075 0.14776687 -0.30095875 0.23622921 -0.20800933 0.08061961 0.45808175 0.25215313
0.053671207 0.42352927 -0.25720584 -0.0148368385 -0.058795363 -0.37572902 -0.039049797 -0.390107
-0.04331735 0.0053755892 0.16509748 -0.36927956 0.35219193 -0.19283769 -0.23803253 0.3092998
-0.43829164 0.39086333 0.37710038 0.13869414 0.03499514 0.3886739 0.0120677715 -0.01461474
0.0229035 0.28950563 0.29003805 -0.47012624 -0.1920219 -0.1603261 -0.3706203 0.43327004
-0.14298396 0.11080469 0.08262539 -0.015304545 0.2132907 -0.020273563 -0.31808922 0.2748507
0.09158856 0.15155567 -0.067054726 0.14714786 -0.0005014031 0.14984445 0.0038313363 0.42389926
0.41968113 -0.15637715 -0.27524975 0.1476201 0.21923378 0.13488898 -0.37577847 0.053558353
-0.3988471 0.018171499 0.053968154 0.29002035 -0.039273333 -0.33446902 -0.38847014 0.3348926
0.36733466 0.4210653 -0.22516046 -0.47607407 0.15358244 0.14707033 0.21863899 -0.3376128
-0.27757147 0.24718188 0.3479075 0.47349498 -0.27527347 0.127605 0.15240747 -0.11522094
-0.37393773 -0.42952916 -0.37488434 0.13041387 0.0024283724 0.28815272 0.18869892 0.2728524
0.14106324 -0.23374663 0.42266974 -0.42947134 0.13910507 -0.07736329 0.23030187 0.39847878
-0.13193916 -0.17689288 -0.17368813 -0.44178468 0.08727257 0.26315603 -0.3810858 -0.09995473
0.042917334 0.023132496 -0.4550022 0.34853056 0.23588413 -0.32421204 -0.32456738 -0.044475682
-0.21197096 -0.21884243 0.334661 -0.4248017 0.19754677 -0.4051776 -0.34356353 0.29444763
-0.106789514 0.017375138 0.40155712 0.22055972 -0.13292986 0.38533884 -0.42201713 0.21290036
-0.10222156 -0.3097914 0.049429163 0.34001395 -0.11745547 0.022597015 0.1330277 -0.29828793
0.4184252 -0.39385843 0.33083197 0.16904229 -0.050450422 0.26222435 -0.24595901 -0.22908774
-0.11566205 -0.02101854 0.37236422 0.39950815 -0.54356194 -0.10097043 0.40152806 -0.34531158
-0.04629788 -0.039213758 0.19124907 0.117976174 0.4231815 -0.0071484335 -0.28072456 0.06719774
-0.32959718 0.018797636 -0.4032209 -0.32257813 -0.39868665 -0.028557487 0.1665321 -0.394537
0.32193568 -0.16681081 0.2544936 -0.103867345 -0.15549596 -0.10515624 0.32702687 0.32560715
0.24971886 -0.26820576 -0.33212817 -0.004210846 -0.32195744 0.104596674 -0.4134178 0.10075309
-0.31774104 -0.32899758 -0.29042563 0.15233067 0.39962745 0.14049453 -0.40718895 0.19906962
0.12812144 0.13092642 -0.2798743 0.3784216 0.4119543 -0.33155045 -0.09696095 -0.4441002
0.2149521 -0.15278222

gat_layer_1.out_att.a f4 [10, 1]
00000000: 5f55 153f dc39 33bf 9c1e b9be d301 88bf
00000010: 8513 9bbe 71c1 d7be 442d 0c3e 1ca8 673f
00000020: c229 1abf f03d 80be
0.5833339 -0.7001016 -0.36156166 -1.0625557 -0.3028833 -0.42139772 0.13689142 0.9049089
-0.6021997 -0.25047255

gat_layer_2.attention_0.W f4 [5, 10]
00000000: 3a1e 603a 58cd eabe 3ee4 d4bd 3fab a43b
00000010: 83b4 81ba 46c4 90be f248 c6be 9944 7bbe
00000020: eb2e 823e b9e7 1fbf 7329 443f 90ed 293f
00000030: b78c 073f c083 1ebf 9661 17be 2e70 a73e
00000040: 890a 553d cd39 9ebd 7324 3d3e da05 13bf
00000050: 3a02 31be 6264 1e3f d8b3 63bf b20a 08bf
00000060: 8dfd 763e d2f3 fc3e 85fb ed3e fc8a 3ebf
00000070: 1f05 023e 3cd4 d3bd 4744 683e 6201 013f
00000080: 8019 2d3f a3f3 253f 4bb6 ffbe 9303 49bf
00000090: 18bf 97be 8b3e 103f 25d0 4bbf 3924 323e
000000a0: 795a 60bf 3c6a 81be d509 5ebe 63d1 41bc
000000b0: 8287 3f3f 378c ffbe 92cd 8fbd e0fe 4bbf
000000c0: 5286 54bf 55a3 343f
0.0008549426 -0.4585979 -0.10395096 0.005025297 -0.0009895716 -0.28274745 -0.38727528 -0.24537887
0.2542642 -0.62462956 0.76625746 0.66378117 0.5294909 -0.61919785 -0.1478332 0.32702774
0.052012 -0.077258684 0.18470936 -0.57430804 -0.17286006 0.6187192 -0.88946295 -0.5314132
0.2412016 0.4940477 0.46480957 -0.74430823 0.12697266 -0.10343215 0.22682296 0.50392735
0.67617035 0.64824885 -0.49943766 -0.7852108 -0.2963798 0.56345433 -0.7961448 0.1739663
-0.8763805 -0.25276363 -0.21683438 -0.011829707 0.74816144 -0.49911663 -0.07021631 -0.79685783
-0.83017457 0.70561725

gat_layer_2.attention_0.a f4 [20, 1]
00000000: 640c d0be ca08 203f 5c74 14be 7043 3dbf
00000010: 33b1 2cbe 9efe 2f3f b5a3 ac3e dad7 c1bd
00000020: 114b 1abc aa17 35bf 0eb2 fbbd 0c5c 83be
00000030: a3d1 10be 7fcb 0b3f 0395 50bd 136c 383f
00000040: 767e 17bf 1686 b5be 710d e93e bbdb e7be
-0.40634453 0.6251341 -0.14497513 -0.73931026 -0.16864471 0.6874789 0.3371865 -0.094649985
-0.009417311 -0.70739233 -0.122898206 -0.25656164 -0.1414247 0.54607385 -0.05092336 0.7203991
-0.5917734 -0.35453862 0.45518067 -0.4528483

gat_layer_2.attention_1.W f4 [5, 10]
00000000: 606d c23e cdaf d33d 736e 3f3f f844 1f3f
00000010: 3a74 953e 9ccd 483e 7dc3 c23e 3748 39bf
00000020: cc8b 093e 6c12 e33e 3f02 eabd e356 55bf
00000030: 3f39 1abf 04f6 a6be 6cae 89be 6923 e93e
00000040: 7647 543f 7443 f33e c1b3 9fbe ecda 8b3e
00000050: 89a2 083f e61f dbbe 6a19 3e3f 9be9 5e3f
00000060: 239a c5bd 9f59 90be b639 4c3f ed15 2c3f
00000070: 20d4 9bbe 75fd 6e3f 61c0 9dbe 5f00 c0be
00000080: 89af b5be 0635 3e3f f454 093f 6af8 34bd
00000090: fb58 5fbf 4f34 7c3b 4333 65bf 277f 27bf
000000a0: c728 b93e 406c 1e3f 5e9c 293f 6d8e b6be
000000b0: d44f 0dbf 33d5 a4be 626a 033e 508c 66be
000000c0: f5aa 81bc 5933 49bf
0.37974072 0.10336266 0.7477791 0.6221461 0.29190236 0.19609684 0.3803977 -0.72375816
0.13432235 0.44349992 -0.1142621 -0.83335704 -0.602436 -0.3260957 -0.26890886 0.45534828
0.8292154 0.475124 -0.3119183 0.27315462 0.5337301 -0.42797774 0.7425753 0.87075204
-0.0964854 -0.28193375 0.7977556 0.67220956 -0.30435276 0.93355495 -0.30810836 -0.37500283
-0.35485485 0.7429966 0.53645253 -0.04418222 -0.8724515 0.0038483327 -0.89531344 -0.65428394
0.36163923 0.61883926 0.6625422 -0.35655537 -0.55199933 -0.32193908 0.1283355 -0.22514462
-0.015828589 -0.78593975

gat_layer_2.attention_1.a f4 [20, 1]
00000000: e634 24bf 526e 093f e1bd 37be 7297 fd3d
00000010: 3278 35bf 16ca 08bf 7092 1e3f 7b1c 9a3e
00000020: 39c4 643e d9b6 09be 1d26 813d 0a63 f6be
00000030: d841 4c3e 8238 393e fdb5 df3e c4c5 b9be
00000040: 269c d33d af02 91be 2091 cfbe ebdc 3bbf
-0.64143217 0.5368396 -0.17943527 0.123824015 -0.7088653 -0.5343336 0.61942196 0.30099854
0.22340478 -0.13448657 0.06306098 -0.48122436 0.19946992 0.18087962 0.43693534 -0.36283696
0.10332517 -0.2832236 -0.4054041 -0.7338397

gat_layer_2.attention_2.W f4 [5, 10]
00000000: 00f4 893e c014 3bbf a850 43be 5108 2e3f
00000010: a37d 4a3d b5f3 1abd 3e35 99bd 35ff 973d
00000020: 8993 303d 0ec6 1e3f 29ac 9f3e 9946 ffbe
00000030: eea0 2c3f 56d1 39bf 6bff 303e 3252 2c3e
00000040: 87ca 17bf ae8b 81be b39f cc3c 6002 3abf
00000050: 26f8 9abe 9262 203f 593e 20bf 9114 8b3e
00000060: fb98 11bf e2df f23d 5bd6 593e 99fd 563e
00000070: f91e edbd 3a21 483f 9079 cd3e 55c3 063f
00000080: a820 1ebe 7e27 8e3e f6e1 0dbf 6f8a 0dbe
00000090: 4a35 3abf 60a6 19bf 793c 803e aa26 d2be
000000a0: d702 63be b08e 05bf 9a1c e7be 74be 073f
000000b0: 85f8 553f 9698 bdbe ad29 9abe a075 1b3f
000000c0: 49a8 4a3e ffae 633f
0.2694397 -0.73078537 -0.19073737 0.6798144 0.049436223 -0.037830073 -0.07480858 0.07421724
0.04310945 0.6202096 0.31186035 -0.4985855 0.6743306 -0.72585046 0.17284934 0.1682823
-0.5929341 -0.2530188 0.024978494 -0.72659874 -0.30267447 0.62650406 -0.62595135 0.27164128
-0.56874055 0.118591085 0.21273176 0.20995177 -0.11578173 0.781757 0.40131807 0.52641803
-0.15442145 0.27764505 -0.55422914 -0.1382234 -0.7273756 -0.60019493 0.25046137 -0.41045123
-0.22169052 -0.5217085 -0.4513901 0.53024983 0.83582336 -0.37030476 -0.3010992 0.60726357
0.19790758 0.889389

gat_layer_2.attention_2.a f4 [20, 1]
00000000: 1210 8ebe cb08 3dbf 8907 6d3e 5374 253f
00000010: 18c4 1abf 575d 443f f001 28bf 677d 0dbf
00000020: f28c 0abe ac12 87be f990 1e3f 307f a13e
00000030: af16 1d3f 70ec 66be 1a1a 063e 7e9f 653e
00000040: 44bd 07bd 8b31 eebc 2e58 c2be 49e5 f7be
-0.27746636 -0.7384154 0.23147406 0.6463062 -0.60455465 0.76704925 -0.65627956 -0.55269474
-0.13530329 -0.26381433 0.6193996 0.3154235 0.6136274 -0.22551131 0.13095894 0.22424123
-0.033139482 -0.029076358 -0.379579 -0.48417118

gat_layer_2.attention_3.W f4 [5, 10]
00000000: 915c 56bf 58bd 1e3f 656d b0be 0728 323f
00000010: c8e7 dbbe e5ed 623f d0e7 9a3c a740 2c3f
00000020: ec38 493e 6036 a63e d495 5e3f 797a 283f
00000030: 77b4 fa3d 635f 3c3f 6f02 073e 1a7c babe
00000040: f250 41bf c195 423f baa4 02bf af11 f93e
00000050: 1273 493f e2ee 933e 3599 8bbe 2d19 0ebf
00000060: 35ae 333f 364d 073f 5f83 af3d 5059 f5be
00000070: a89b 38bf c149 c43e 1780 293c f263 7cbf
00000080: f32d 583f 4a8b 343e 1045 da3e 1d69 43bf
00000090: a25d c6bd 3e99 873e f25e 4a3e 8e9f 4fbe
000000a0: a7e9 403f 085c 7bbf e3ae 8a3e a08e 303f
000000b0: 258e 193e 75f5 11bf 9a68 3cbf a2a8 103e
000000c0: a27f c23e 8574 f23e
-0.83734995 0.62007666 -0.3445846 0.69592327 -0.42950273 0.8864425 0.018909365 0.6728615
0.1965062 0.3246336 0.8694737 0.6581188 0.12241452 0.7358305 0.13184522 -0.36422807
-0.7551414 0.76009756 -0.510326 0.48646304 0.7869121 0.2889319 -0.27265325 -0.55507165
0.70187694 0.5285219 0.08569979 -0.47919703 -0.7211251 0.3833752 0.01034548 -0.98590004
0.8444511 0.1763126 0.42630816 -0.76332265 -0.09685828 0.26484102 0.19762781 -0.20275709
0.75356525 -0.98187304 0.27086553 0.6896763 0.1499563 -0.5701516 -0.7359711 0.14126828
0.37988 0.47354522

gat_layer_2.attention_3.a f4 [20, 1]
00000000: 8ed9 1d3f 9e43 cabe fa12 3dbf 30cc 113f
00000010: 80fd 78be 7fc6 483d bbbb d63e 4063 19bf
00000020: 2f4a 31be 1d94 ae3d 365a ad3e bb50 1b3f
00000030: e3d5 03be 9dcc a23e bc14 25be df45 67be
00000040: 9c9c c4be 4213 943e a6ab 00bf 4159 96be
0.6166009 -0.39504713 -0.7385708 0.5695219 -0.24315453 0.049017426 0.41940102 -0.5991707
-0.17313455 0.08524344 0.33857888 0.6067006 -0.1287456 0.31796733 -0.16121191 -0.22585247
-0.38400733 0.28920943 -0.50261915 -0.2936497

gat_layer_2.attention_4.W f4 [5, 10]
00000000: 17b9 23be d43a 0a3f f818 2bbf 2ddd 0cbe
00000010: 811e 85be 195a b13e 7ab1 1fbf b70d b1be
00000020: 7308 ef3d 7ee4 993e 73ff 023f b6f7 703e
00000030: a27e 8c3e feb6 273f 20ac 553f 6154 f83e
00000040: 3ae0 f4bd 7e25 95be fc56 bbbe c34c 30be
00000050: 3a36 1fbf bb58 53bf c7f5 30bf 4434 523f
00000060: a267 41be d8fe 2bbf 4690 3bbf 6515 2ebe
00000070: eeec 2b3e 6b20 20bf f0eb 8f3e 7570 343f
00000080: 0252 8e3e 1597 09bf 4821 10bf 3440 c0be
00000090: 2cb3 443f 7812 143e da44 923e cba2 3abf
000000a0: 81fb d2bd 9f9b eabe c467 b13e 09e9 233f
000000b0: dcce 1c3d ba28 25bf 8ba3 6fbd 08ab 693f
000000c0: 5dae 4abe b25f 44bf
-0.15988575 0.53996015 -0.66834974 -0.13756247 -0.25999835 0.34639052 -0.6238018 -0.34580776
0.116715334 0.30057138 0.51171035 0.23531994 0.27440363 0.655136 0.83465767 0.48501876
-0.1195683 -0.29130167 -0.365898 -0.17216782 -0.6219212 -0.82557267 -0.69125026 0.82111
-0.18887189 -0.67185736 -0.7326702 -0.17000349 0.167896 -0.62549466 0.28109694 0.70484096
0.27796942 -0.5374616 -0.56300783 -0.37548983 0.76835895 0.1446017 0.28568155 -0.7290465
-0.10301877 -0.45821854 0.3464948 0.6402746 0.038283214 -0.6451527 -0.058505576 0.912766
-0.19793077 -0.7670852

gat_layer_2.attention_4.a f4 [20, 1]
00000000: 6d59 85bd 14f3 573e 2177 3d3f 7180 0cbf
00000010: 5660 2dbf c61e 00bf 1e84 1dbf cbb3 b73e
00000020: 65db 46be ffa5 48bd 22ad a5be 04c8 0f3f
00000030: 5d86 dbbe 348f 33bf 7f24 993e 1854 153f
00000040: e026 94be 36cc 1bbf 566a 1c3f cbc9 12bd
-0.06511197 0.2108882 0.740099 -0.54883486 -0.6772512 -0.50046957 -0.6152972 0.3587936
-0.1941963 -0.04898643 -0.32358652 0.56164575 -0.4287595 -0.70140386 0.29910657 0.5833144
-0.2893591 -0.60858476 0.61099756 -0.035836976

gat_layer_2.out_att.W f4 [50, 5]
00000000: f5ea e43e d857 51be ea34 24be b38e 1bbe
00000010: 6237 b0be 13b1 413e 67ef 7fbd daa6 933e
00000020: dfd2 b03e 8b15 113e fd87 f2bd 5b2b 9f3e
00000030: e09d 99be b12f a7be dd8b a6be aba2 e03b
00000040: f17f 5fbe 2696 9ebd 2fe8 89be 7793 9ebe
00000050: fdd4 343e e756 c4bd 0594 b73d 5d3c 9bbd
00000060: 1a97 673d 7ff8 83be 2638 40be 9997 a13e
00000070: 9c30 743c 32b8 14be 5878 1abe 66f8 b93e
00000080: b354 ac3e c0fd 833e ff1f 3e3e c365 2ebe
00000090: 49a7 96be 1654 68be b3d7 ad3d 5d8c 833e
000000a0: e000 edbd 2aa5 babe ce71 1ebd 0d8f c6be
000000b0: 327f 573d 5385 1b3e 8985 c23e f738 e8bd
000000c0: 5485 d83e 28fe cf3e 720d bfba cc42 0dbe
000000d0: 8743 4dbe 876a acbe 6ccf 84be e8b1 47be
000000e0: 8b8e 803b bbf8 3abd af2b 7ebe 15f3 9c3e
000000f0: 2c83 e73d bd32 5abe d8ef dfbe 39b2 ac3e
00000100: 0f99 98be c484 c6be 7e95 d23e 3a54 a03e
00000110: 8fb4 a9bd dbaa 263e 55d2 8ebe c985 ce3e
00000120: 33f6 18bd b9ab 4fbe b902 cfbd e4b1 d2be
00000130: 1659 1e3d 5f5b 293e c64c 79be 499b 03be
00000140: 474f a5be d107 dd3d 07f8 9dbd b67e 793e
00000150: 3114 90bc 263e 9fbd 9e43 c3bd 1cfa d6be
00000160: 25a0 81bd b262 9dbe d9e0 89bd 225e a1be
00000170: 8d89 12be 451f 69be 99f6 ffbe ba0b 063e
00000180: 9bc1 513e 7e59 783e 9017 983d 184b 183e
00000190: c4f1 c4be e22f abbe b2ba 5abd 30b0 11be
000001a0: 098b 75be 52a7 c1be 820b 10be fb1a dabe
000001b0: 6a8c 573e 988e d8be 387b ebbe 7746 49be
000001c0: ad02 b2bd a391 933e 1364 9e3e 29ae 023e
000001d0: 42f4 593e 51a4 553e 59d7 3e3e 937d 1abe
000001e0: 0148 d1be 4f04 adbe fece 1c3e 82e9 943e
000001f0: b28f 823e 69d4 363c 5d9e 9e3e 3f3c bbbe
00000200: 572d 9b3e c716 c2be 2d8e 28be 37a5 483e
00000210: a979 b93e c8ab b5be cd1e cf3c 54ec 80be
00000220: 1596 4bbe afe7 81be f5c9 be3c 4a0d 82be
00000230: 2c59 a7bd 095f 82be 515f a23c 7c09 c1be
00000240: ee98 f0bc ea64 dfbe e516 e63e 6ae7 43be
00000250: e982 913e 4071 ddbe b278 a43e e639 f4be
00000260: 1e4f 313e b212 7dbb b4b3 803e 70d2 39be
00000270: 6262 6abe 5561 1abe f60a 63bd 0182 10be
00000280: 9d8d e13d 8a9e 6abe 07d9 cfbc 379c 1bbe
00000290: b317 a73e 9973 5dbe 63c5 c73e e00e c83e
000002a0: a31b 503c bf7c b13e 642c 623e 64d4 a1bd
000002b0: cd3b 503e 0eaa cf3e 5636 b43e 9859 0e3e
000002c0: 270e 80be ba54 1ebe 4650 b03e c0a9 873c
000002d0: 86d3 513e 24f4 49bd 179b a9be 0a7e 93be
000002e0: 826a 123e d2b7 96be 871a d63e 8c58 eabe
000002f0: 78c0 f83d c956 65be db86 bebe a8c2 08bd
00000300: f2df 94bc c7c8 c73e ad11 88bd 9ab2 e33d
00000310: 4d93 743e 3b20 5abc 8904 963c e362 063f
00000320: d1ce e1be f9ba 403e db4b a23e 60a2 c33c
00000330: 759f 633e 3b89 3e3e f4cf 293e 3777 5abd
00000340: e711 c6be e724 c73e a5a1 e5bd d915 93be
00000350: 8e94 c03d ffea a23e 706f f9bd b943 333e
00000360: 4968 653e 2963 80be 36ab 733c 4b0e a73e
00000370: e506 cabe 71ba ce3e 1853 a13e 4fb1 e7be
00000380: b582 15be 3aeb bb3e 8f94 c73e 1fa8 9abe
00000390: 3bb9 7e3e 7fc2 d03e 318a dfbe ef42 2ebb
000003a0: 5f9f 8f3d f8a4 b3be eec2 2c3d 2d3d 98be
000003b0: 6a9f a3be 184d 9d3e 1133 593e 605d cf3d
000003c0: bffb 9fbe 51eb fc3a fc7a c83e b372 ccbd
000003d0: 5046 f8be da98 a83d 8ff2 5ebe 553b 81be
000003e0: f0be 05bc 1af0 acbe
0.44710508 -0.20443666 -0.1603581 -0.15191154 -0.34417254 0.18915205 -0.06248417 0.28838235
0.34535882 0.14168374 -0.11842344 0.31087765 -0.30003262 -0.32653573 -0.32528582 0.006855329
-0.2182615 -0.07743482 -0.26934955 -0.30971882 0.17659374 -0.09586888 0.08963779 -0.07579873
0.056540586 -0.25775525 -0.18771419 0.31560972 0.0149041675 -0.1452339 -0.1508497 0.36322325
0.3365837 0.25779533 0.18566893 -0.17031007 -0.29424503 -0.22688326 0.08488407 0.25693026
-0.115724325 -0.36454135 -0.03868275 -0.38781014 0.052611537 0.15187578 0.37992504 -0.1133899
0.4228922 0.40623593 -0.001457615 -0.13795012 -0.20045291 -0.33675024 -0.259395 -0.1950146
0.0039232424 -0.045647364 -0.24821351 0.30654207 0.11304316 -0.21308418 -0.43737674 0.33729723
-0.29804274 -0.38773167 0.41129678 0.3131426 -0.08286392 0.16276114 -0.27894846 0.40336445
-0.03734417 -0.2028035 -0.10107941 -0.41151345 0.038659178 0.16538762 -0.24345693 -0.12852205
-0.32287046 0.107925065 -0.07713323 0.24364743 -0.017587753 -0.07775526 -0.09534381 -0.41987693
-0.06329373 -0.3073936 -0.067323394 -0.3151713 -0.14310284 -0.22765835 -0.49992827 0.13090411
0.20484011 0.24252889 0.07426369 0.14872396 -0.38465703 -0.3343497 -0.053400703 -0.14227366
-0.23978819 -0.37822968 -0.1406689 -0.4259871 0.21049657 -0.4229629 -0.45992446 -0.19655786
-0.086919166 0.2882205 0.30935726 0.1276175 0.21284583 0.20863463 0.18636836 -0.15086965
-0.40875247 -0.3379235 0.15313336 0.29084402 0.25500256 0.011159041 0.30980197 -0.36569402
0.3030803 -0.37908003 -0.16460486 0.19594274 0.36225632 -0.3548262 0.025283242 -0.25180304
-0.1988147 -0.25372073 0.02328966 -0.25400764 -0.08171305 -0.2546313 0.019820841 -0.37702549
-0.029369798 -0.4363168 0.44939342 -0.19131246 0.2842019 -0.43250465 0.32123333 -0.47700423
0.17315337 -0.003861588 0.25137103 -0.18146682 -0.22889093 -0.15076192 -0.055430375 -0.14112093
0.11013339 -0.2291204 -0.025372041 -0.1519631 0.3263527 -0.21626128 0.39017782 0.3907385
0.012701902 0.34665486 0.22087246 -0.079018384 0.20335312 0.4055943 0.35197705 0.13901365
-0.25010797 -0.15462008 0.34436244 0.016560435 0.20490846 -0.049305096 -0.33126137 -0.28807098
0.14298442 -0.2943712 0.41817114 -0.4577068 0.121460855 -0.22396387 -0.37212262 -0.033388764
-0.018173192 0.39020368 -0.066439964 0.1111805 0.23884316 -0.013313348 0.01831271 0.5249464
-0.441031 0.18821324 0.31698498 0.023881137 0.22228797 0.18607037 0.16583234 -0.05333635
-0.38685533 0.38895342 -0.11212472 -0.28727606 0.094033346 0.31819913 -0.12179458 0.17506303
0.22403063 -0.25075653 0.014872363 0.32628092 -0.39458385 0.40376619 0.31508708 -0.45252463
-0.14600642 0.367029 0.3898053 -0.3020639 0.24875347 0.4077339 -0.4366012 -0.0026590188
0.070128195 -0.350868 0.042178087 -0.29734173 -0.3195756 0.3072288 0.21210887 0.10125232
-0.31246755 0.0019296204 0.3915633 -0.09982815 -0.48491144 0.08232279 -0.21772216 -0.2524058
-0.008163199 -0.33776933

gat_layer_2.out_att.a f4 [10, 1]
00000000: d62a d43d ae7d 5f3f 6a9c fabd d4e7 3e3f
00000010: ff06 e03e 578a ad3e 638e 823d 91ca 823f
00000020: 722a bcbe c914 22bf
0.10359733 0.87301147 -0.12236865 0.7457249 0.43755338 0.33894607 0.06374814 1.0218068
-0.36751133 -0.63312966
