tests/gat/encoder-checkpoint12.pt (torch, 20210 bytes, 36 tensors)

gat_layer_0.attention_0.W f4 [5, 10]
-0.45740014 -0.8121279 0.4056193 -0.32292673 -0.1207886 0.3128953 0.8044771 -0.123217955
0.50483155 -0.47052467 -0.20611401 0.15259635 0.2778074 -0.8548178 -0.2067879 0.09733331
-0.6593727 -0.1335203 -0.39897794 0.07402792 0.13916735 0.42558834 0.37171426 0.47818652
-0.07541406 -0.3763871 0.40857986 0.76165634 0.023493128 -0.10914383 -0.46754602 0.43461326
0.039070435 -0.5128741 -0.26121384 0.38592312 -0.89971334 0.31128398 0.78047675 -0.85069424
0.674046 -0.73204297 0.24161234 0.31365272 -0.15307331 0.81509835 -0.040312536 0.7506668
0.44539258 -0.36776382
00000000: 5a30 eabe 9de7 4fbf 55ad cf3e a756 a5be
00000010: 0360 f7bd d033 a03e 36f2 4d3f b259 fcbd
00000020: a43c 013f 9ce8 f0be 8d0f 53be 3842 1c3e
00000030: c63c 8e3e 57d5 5abf 35c0 53be b056 c73d
00000040: a6cc 28bf 8cb9 08be d646 ccbe f39b 973d
00000050: e381 0e3e b7e6 d93e 5551 be3e ddd4 f43e
00000060: b072 9abd cfb5 c0be 6131 d13e e9fb 423f
00000070: a974 c03c cd86 dfbd 3162 efbe a185 de3e
00000080: 5208 203d b84b 03bf d2bd 85be b797 c53e
00000090: 9d53 66bf 9d60 9f3e 53cd 473f 19c7 59bf
000000a0: 478e 2c3f 2b67 3bbf 3a69 773e 1797 a03e
000000b0: 40bf 1cbe 49aa 503f c21e 25bd b32b 403f
000000c0: 7f0a e43e 8a4b bcbe

gat_layer_0.attention_0.a f4 [20, 1]
-0.11769359 -0.23173253 0.18920112 0.7452524 -0.33693352 -0.046924185 0.6275539 -0.4875643
-0.07564478 0.63473964 -0.51002383 -0.76255995 0.49408916 -0.1335153 -0.14850394 -0.3277469
0.32373598 0.16804452 0.07906987 0.025176628
00000000: 5609 f1bd 4b4b 6dbe f0bd 413e dcc8 3e3f
00000010: 8d82 acbe 9333 40bd 5fa7 203f 07a2 f9be
00000020: a7eb 9abd 4c7e 223f ec90 02bf 2137 43bf
00000030: 41f9 fc3e 3cb8 08be 6b11 18be 71ce a7be
00000040: b9c0 a53e dd13 2c3e 62ef a13d 373f ce3c

gat_layer_0.attention_1.W f4 [5, 10]
-0.818679 -0.01914124 -0.057560313 -0.011976696 -0.08976362 -0.22028212 -0.83514273 0.7334782
-0.7597547 -0.70967233 0.3666073 -0.8406905 -0.6991218 0.72036314 0.86430603 -0.39123765
0.752036 -0.3001853 -0.06414705 0.15922819 0.042672902 0.5377871 -0.55146366 -0.30086073
-0.19030437 -0.4334949 0.77178735 0.09774906 -0.7201257 -0.4464806 0.52407265 0.118653744
0.35915306 0.37660578 0.0529452 0.7748018 -0.39669445 0.8682505 -0.3917854 -0.049258333
-0.59894854 -0.3284201 0.8208759 -0.67771035 0.586693 0.6543869 -0.54024804 -0.52207416
-0.7803934 -0.64210534
00000000: f294 51bf 17ce 9cbc 5dc4 6bbd e739 44bc
00000010: fdd5 b7bd a391 61be eacb 55bf 3ac5 3b3f
00000020: 497f 42bf 16ad 35bf f4b3 bb3e 7e37 57bf
00000030: a5f9 32bf b869 383f 2943 5d3f 4d50 c8be
00000040: 6e85 403f e3b1 99be 875f 83bd b70c 233e
00000050: c8c9 2e3d 6aac 093f b92c 0dbf 6b0a 9abe
00000060: 26df 42be 0bf3 ddbe db93 453f a930 c83d
00000070: 285a 38bf 1b99 e4be a029 063f bc00 f33d
00000080: e9e2 b73e 79d2 c03e 11dd 583d 6959 463f
00000090: 891b cbbe aa45 5e3f 1998 c8be 1bc3 49bd
000000a0: b154 19bf ae26 a8be ec24 523f 6d7e 2dbf
000000b0: 8331 163f e685 273f b24d 0abf a7a6 05bf
000000c0: ddc7 47bf 0461 24bf

gat_layer_0.attention_1.a f4 [20, 1]
-0.3594405 0.086250834 0.28128266 -0.23442765 0.23193888 -0.38713986 -0.5314229 -0.50141716
-0.09205592 -0.25775266 0.5484348 0.18055809 -0.30275238 -0.3239031 0.17996916 0.12901801
-0.39555755 -0.46838772 0.683093 0.024371492
00000000: 9608 b8be 47a4 b03d 4804 903e cd0d 70be
00000010: 6381 6d3e 3237 c6be 550b 08bf e05c 00bf
00000020: d087 bcbd 28f8 83be 3966 0c3f 38e4 383e
00000030: 5c02 9bbe a1d6 a5be d649 383e 4c1d 043e
00000040: 8586 cabe 84d0 efbe 2fdf 2e3f b9a6 c73c

gat_layer_0.attention_2.W f4 [5, 10]
0.82615244 -0.4657173 -0.13766387 0.78391784 0.6826631 0.08032368 -0.596591 -0.5410918
-0.61798537 -0.54408437 0.26475492 -0.89670485 -0.8412683 0.18666211 -0.22485481 -0.36353162
-0.86201906 0.29257277 -0.079150386 -0.40068874 -0.5355707 0.6837944 0.718829 -0.3543385
0.46216977 0.18497832 -0.5330631 -0.45642924 0.874252 0.6281677 -0.8782355 0.27755523
0.6295628 0.25306404 -0.58307827 -0.2189724 -0.69604963 -0.3213884 -0.50262004 0.5449577
-0.07202102 -0.1796693 -0.68215597 0.1944769 0.038420245 -0.31595358 -0.849208 -0.836536
-0.15048243 0.31870782
00000000: ba7e 533f 7f72 eebe c2f7 0cbe d7ae 483f
00000010: 02c3 2e3f be80 a43d 30ba 18bf fe84 0abf
00000020: 4a34 1ebf 1d49 0bbf f58d 873e 738e 65bf
00000030: 5c5d 57bf 5a24 3f3e 5740 66be d120 babe
00000040: 48ad 5cbf 19cc 953e 9919 a2bd 1327 cdbe
00000050: 291b 09bf 260d 2f3f 2d05 383f db6b b5be
00000060: 84a1 ec3e f56a 3d3e d376 08bf 18b1 e9be
00000070: fbce 5f3f 99cf 203f 0bd4 60bf b81b 8e3e
00000080: 072b 213f 9c91 813e 9e44 15bf 4d3a 60be
00000090: 4f30 32bf 058d a4be b5ab 00bf 5982 0b3f
000000a0: c27f 93bd 3bfb 37be c6a1 2ebf f424 473e
000000b0: 8c5e 1d3d abc4 a1be b265 59bf 3927 56bf
000000c0: 1118 1abe ac2d a33e

gat_layer_0.attention_2.a f4 [20, 1]
-0.45654333 -0.2898549 -0.3643335 -0.6220098 -0.72649866 0.52483016 0.020570979 0.53263366
0.45661393 0.5630181 0.73049814 -0.6864303 -0.5095459 0.2411252 0.49387202 0.2532456
0.65733725 -0.28356755 -0.51519305 -0.4906411
00000000: 0cc0 e9be dd67 94be ec89 babe 093c 1fbf
00000010: d1fb 39bf 455b 063f 7884 a83c ae5a 083f
00000020: 4dc9 e93e f421 103f ed01 3b3f e5b9 2fbf
00000030: 9a71 02bf 86e9 763e cbdc fc3e 68a9 813e
00000040: 4147 283f c42f 91be b1e3 03bf 4f35 fbbe

gat_layer_0.attention_3.W f4 [5, 10]
-0.35136944 -0.106246784 0.08587031 0.39252758 -0.28732657 -0.8099225 -0.646769 0.8649196
-0.07356931 -0.5205566 -0.6923355 0.15674175 0.12564716 0.1429684 -0.41426003 -0.56342685
-0.64973974 0.17025901 0.555564 0.1574679 0.57964545 0.71478647 -0.25359482 0.11478724
0.35120362 -0.66252244 0.4204845 -0.6086452 -0.5144517 0.35303703 -0.11615873 -0.014538789
-0.59859276 0.48276463 0.6364233 -0.7366506 -0.4832816 -0.68948424 0.61910075 0.1848486
0.67971843 0.32517585 -0.75376016 0.45147362 0.13701105 -0.3469296 -0.63436997 0.15476024
0.6834965 -0.65566564
00000000: b2e6 b3be ea97 d9bd c6dc af3d 60f9 c83e
00000010: 781c 93be 1557 4fbf a792 25bf 5f6b 5d3f
00000020: 82ab 96bd 3343 05bf e63c 31bf e980 203e
00000030: a6a9 003e 4f66 123e e419 d4be be3c 10bf
00000040: 5855 26bf 6158 2e3e 7139 0e3f 443f 213e
00000050: a563 143f 3ffc 363f 2ed7 81be 9315 eb3d
00000060: f6d0 b33e 129b 29bf bf49 d73e 2cd0 1bbf
00000070: 1bb3 03bf 45c1 b43e a1e4 edbd 1a34 6ebc
00000080: 603d 19bf ed2c f73e a3ec 223f 2295 3cbf
00000090: b070 f7be 0a82 30bf 637d 1e3f f448 3d3e
000000a0: 0702 2e3f 737d a63e 6df6 40bf 8d27 e73e
000000b0: a04c 0c3e c2a0 b1be 1266 22bf 7879 1e3e
000000c0: a0f9 2e3f b4d9 27bf

gat_layer_0.attention_3.a f4 [20, 1]
-0.3268124 0.042488024 0.48843688 0.7475975 0.6545543 0.666378 -0.038063914 0.74575263
0.08164029 -0.52143425 -0.25755203 -0.5810493 -0.054563466 -0.6506021 -0.37671936 0.083678916
0.4707417 0.021706691 0.44634447 0.11996579
00000000: f453 a7be ec07 2e3d 6614 fa3e 8d62 3f3f
00000010: df90 273f c097 2a3f e8e8 1bbd a5e9 3e3f
00000020: 0633 a73d b77c 05bf dcdd 83be a6bf 14bf
00000030: f17d 5fbd dc8d 26bf 5ce1 c0be da5f ab3d
00000040: 0e05 f13e 3bd2 b13c 4387 e43e a0b0 f53d

gat_layer_0.attention_4.W f4 [5, 10]
-0.30786446 -0.743976 0.7842202 0.3399122 0.006634456 0.30864328 0.47095567 0.26065034
-0.3441011 -0.65935117 -0.12753844 -0.4590118 -0.8656761 -0.5850486 0.40645304 0.5043152
-0.65011984 -0.26897925 0.337124 0.4277024 -0.68632466 0.5137224 -0.3168263 -0.45581087
-0.6719741 0.23952661 0.097672 0.48964843 -0.15199366 0.6500937 -0.20228948 -0.2541875
-0.46860805 0.57303864 -0.8853481 0.20177236 -0.7200907 -0.45563987 -0.79222345 0.72479844
-0.62072057 0.74758136 0.57311845 -0.06982083 -0.25255057 0.8077677 0.8127545 0.8046294
-0.82362974 0.15608507
00000000: 69a0 9dbe 3675 3ebf a8c2 483f f908 ae3e
00000010: da65 d93b 7e06 9e3e 1a21 f13e f673 853e
00000020: 052e b0be 3dcb 28bf 7099 02be 9803 ebbe
00000030: f39c 5dbf bfc5 15bf 9d1a d03e cd1a 013f
00000040: 416e 26bf a6b7 89be 849b ac3e cffb da3e
00000050: f9b2 2fbf 5083 033f 0f37 a2be 0b60 e9be
00000060: 7f06 2cbf 7746 753e 4208 c83d 33b3 fa3e
00000070: 3aa4 1bbe 8a6c 263f f924 4fbe dd24 82be
00000080: 65ed efbe a9b2 123f 2ca6 62bf 6a9d 4e3e
00000090: dd57 38bf a149 e9be 28cf 4abf 648c 393f
000000a0: 8be7 1ebf 7e61 3f3f e4b7 123f 39fe 8ebd
000000b0: 4f4e 81be ddc9 4e3f ae10 503f 31fc 4d3f
000000c0: 66d9 52bf c4d4 1f3e

gat_layer_0.attention_4.a f4 [20, 1]
0.023890885 -0.4513238 -0.46832123 -0.4277226 -0.28083527 0.5465189 0.4257703 0.162775
-0.44880077 0.38804963 0.6530264 0.64232093 -0.23351038 0.5838742 0.38374394 0.51757455
0.41443244 0.48936698 0.5565509 -0.56543493
00000000: d1b6 c33c ea13 e7be cdc7 efbe 75fe dabe
00000010: a4c9 8fbe aae8 0b3f 91fe d93e 7dae 263e
00000020: 37c9 e5be 71ae c63e bd2c 273f 256f 243f
00000030: 581d 6fbe c878 153f 167a c43e c47f 043f
00000040: 7d30 d43e 4f8e fa3e 1f7a 0e3f 58c0 10bf

gat_layer_0.out_att.W f4 [50, 5]
-0.4154539 -0.2765623 0.021310324 -0.24432074 -0.26598233 -0.47828615 0.06421104 -0.2820661
0.12624168 -0.20037265 0.29312617 -0.34494257 0.19743788 -0.006605221 0.25217453 -0.04101476
-0.18755251 0.09975242 0.34116545 -0.36792803 0.39324299 -0.04693724 0.1396272 0.22698233
0.4404571 -0.29802176 0.023456456 0.36752936 0.27905974 -0.19658644 0.4031544 0.23653597
-0.33470362 -0.2918784 0.17628464 -0.4840826 0.016445111 0.25895166 -0.28961492 0.014933683
0.1825994 -0.25789827 -0.05027301 0.10741441 0.022074932 -0.35797027 0.22913654 -0.13190192
-0.29104373 0.26230788 -0.31024435 0.24235624 -0.1902509 -0.26850748 -0.0929436 -0.1923485
0.20306906 -0.015497835 0.23198745 -0.31062308 -0.030283839 0.32297596 -0.39224565 0.38383994
0.3204359 0.10891417 0.20694499 -0.27397457 0.21337217 0.45673013 0.02427315 -0.45417905
0.2692053 -0.34392443 0.4288322 -0.07444272 -0.068680614 -0.04883891 0.3420141 -0.43683985
-0.2239092 0.253498 -0.16109684 0.45481095 0.41334566 0.053319015 -0.17543787 0.2194376
-0.01937014 0.16317517 -0.43716592 -0.042147063 -0.012501567 0.06461299 0.380504 0.3113075
-0.28176594 -0.23754802 0.38280535 0.2359393 0.1911558 -0.4254569 -0.07095736 -0.0580187
0.37453565 0.29854766 0.31436852 -0.027835019 -0.19457816 -0.41097572 0.3861301 0.2869042
-0.25414103 -0.14421268 0.31014198 0.015407272 -0.14577489 -0.17868423 0.17060122 -0.20907687
0.14191525 -0.41353747 0.09958752 0.09994288 -0.07992182 0.067591086 0.14733838 -0.28506756
0.3070702 -0.24031648 -0.30988806 -0.25706118 0.32278207 -0.46207738 -0.3244636 0.3551882
-0.034040578 -0.41233802 0.4467786 -0.33708504 -0.2352812 -0.09089714 0.26665926 -0.40510494
0.30280071 0.40564942 -0.16576281 0.21799543 -0.31939602 -0.35041118 0.0038794386 0.3676714
-0.07030814 -0.3871531 0.10313076 0.28510913 -0.15624979 -0.44047394 0.24226473 0.175562
-0.3814753 0.20289847 -0.3684789 0.30150393 0.4192693 -0.41318762 0.18573909 0.42076445
0.16885981 0.45235974 -0.19865924 -0.23168595 0.45341256 0.35382363 -0.36039466 -0.1399588
0.40437484 0.010069844 0.388431 0.14406525 0.20719646 0.35415754 0.2865993 -0.36012155
0.060236327 -0.34275758 0.20531835 0.25890842 0.1151916 -0.25119555 -0.32267058 0.29497412
0.066476315 -0.29470628 -0.3756174 0.34487757 0.22127223 -0.32293195 0.15124004 0.030571792
-0.19276229 0.34587464 0.29948542 -0.09779356 -0.1857662 0.0017325329 0.32734776 0.08410095
0.3009319 -0.23462957 0.115983345 0.25266495 0.042188257 -0.07137458 0.21734121 -0.07322063
-0.38618422 0.36796153 -0.14813568 0.28405157 0.43051443 0.41405374 0.03716925 -0.38561106
0.091157936 -0.2068202 -0.3425423 0.011543466 -0.13064198 0.14945258 -0.09579556 -0.08630577
-0.42358708 0.2600767 -0.46467113 -0.1637685 0.0075616823 -0.09807106 0.36549816 -0.2547152
-0.21413945 -0.4435053 0.3917408 -0.27018696 0.32843453 0.027297875 -0.44088015 0.37837842
-0.44888064 -0.17961496
00000000: 60b6 d4be 9399 8dbe fd92 ae3c 372f 7abe
00000010: d62e 88be ece1 f4be 1481 833d f86a 90be
00000020: 8045 013e 7d2e 4dbe a214 963e 509c b0be
00000030: 282d 4a3e 9c70 d8bb 051d 813e 18ff 27bd
00000040: c40d 40be ff4a cc3d 3dad ae3e 1061 bcbe
00000050: 2557 c93e 4341 40bd 6ffa 0e3e 0e6e 683e
00000060: 9883 e13e 4f96 98be c127 c03c cf2c bc3e
00000070: ebe0 8e3e f54d 49be 416a ce3e 7c36 723e
00000080: 465e abbe 1671 95be f683 343e add9 f7be
00000090: e6b7 863c 5095 843e 6848 94be 68ac 743c
000000a0: 56fb 3a3e 3e0b 84be 12eb 4dbd 16fc db3d
000000b0: 7dd6 b43c e147 b7be c5a2 6a3e 4c11 07be
000000c0: af03 95be 384d 863e 59d8 9ebe 3c2c 783e
000000d0: 22d1 42be d079 89be 3759 bebd 01f7 44be
000000e0: 56f1 4f3e a2ea 7dbc 1e8e 6d3e fd09 9fbe
000000f0: d015 f8bc 1b5d a53e 6cd4 c8be ab86 c43e
00000100: 2d10 a43e 640e df3d 63e9 533e 6546 8cbe
00000110: 3c7e 5a3e 88d8 e93e 7cd8 c63c 288a e8be
00000120: 47d5 893e dd16 b0be e58f db3e 6d75 98bd
00000130: 6ca8 8cbd 4f0b 48bd 791c af3e 79a9 dfbe
00000140: 7448 65be 7dca 813e 92f6 24be fbdc e83e
00000150: 0ba2 d33e 0a65 5a3d fca5 33be 40b4 603e
00000160: 21ae 9ebc 6417 273e 36d4 dfbe 66a2 2cbd
00000170: 5fd3 4cbc d153 843d 6cd1 c23e b263 9f3e
00000180: a043 90be ca3f 73be 10ff c33e 129a 713e
00000190: 59be 433e 7dd5 d9be 1852 91bd 04a5 6dbd
000001a0: 23c3 bf3e 3ddb 983e e9f4 a03e 4406 e4bc
000001b0: 7f3f 47be 696b d2be d8b2 c53e 1be5 923e
000001c0: c61e 82be 7dac 13be eeca 9e3e c86e 7c3c
000001d0: 0346 15be 00f9 36be 16b2 2e3e 3f18 56be
000001e0: 3b52 113e 2fbb d3be 8bf4 cb3d daae cc3d
000001f0: 0dae a3bd 326d 8a3d dfdf 163e 60f4 91be
00000200: 4e38 9d3e 8615 76be a6a9 9ebe 869d 83be
00000210: b143 a53e 6895 ecbe 1820 a6be 3adb b53e
00000220: 226e 0bbd f81d d3be 2ac0 e43e 6996 acbe
00000230: 8eed 70be 4828 babd 9087 883e ea69 cfbe
00000240: b208 9b3e 48b1 cf3e babd 29be 323a 5f3e
00000250: e087 a3be 1869 b3be 2e3e 7e3b 6d3f bc3e
00000260: b7fd 8fbd ee38 c6be 3836 d33d d3f9 913e
00000270: f2ff 1fbe cd85 e1be 3f14 783e 86c6 333e
00000280: bb50 c3be 9ec4 4f3e 44a9 bcbe b95e 9a3e
00000290: 77aa d63e 548d d3be 6332 3e3e 706e d73e
000002a0: 96e9 2c3e b29b e73e 546d 4bbe 153f 6dbe
000002b0: b125 e83e 5f28 b53e a685 b8be 5c51 0fbe
000002c0: 380a cf3e fdfb 243c 6ee0 c63e d785 133e
000002d0: 4f2b 543e 2354 b53e 25bd 923e da61 b8be
000002e0: 5eba 763d ec7d afbe f93e 523e a58f 843e
000002f0: 93e9 eb3d b49c 80be 1435 a5be d906 973e
00000300: bc24 883d bee3 96be ed50 c0be cb93 b03e
00000310: 3095 623e 5657 a5be abde 1a3e b271 fa3c
00000320: 7a63 45be 7b16 b13e 2756 993e fd47 c8bd
00000330: 7f39 3ebe 2816 e33a 209a a73e 1e3d ac3d
00000340: bf13 9a3e bc42 70be ad88 ed3d 4d5d 813e
00000350: 98cd 2c3d d62c 92bd b28e 5e3e b3f4 95bd
00000360: f0b9 c5be 7465 bc3e e1b0 17be 356f 913e
00000370: 636c dc3e dafe d33e c93e 183d d06e c5be
00000380: 03b1 ba3d adc8 53be b461 afbe ce20 3d3c
00000390: 03c7 05be 190a 193e 7630 c4bd 14c1 b0bd
000003a0: 68e0 d8be c628 853e 60e9 edbe eeb2 27be
000003b0: fdc7 f73b 7bd9 c8bd 9322 bb3e 086a 82be
000003c0: 5f47 5bbe 2013 e3be 4092 c83e f255 8abe
000003d0: 9228 a83e cb9f df3c 0bbb e1be d1ba c13e
000003e0: afd3 e5be fcec 37be

gat_layer_0.out_att.a f4 [10, 1]
0.14498807 0.9880073 -0.6570225 -0.43384984 -0.42940882 -0.77248377 0.3904965 -0.11076928
-0.99858695 -0.7039119
00000000: c177 143e 0cee 7c3f a032 28bf 9121 debe
00000010: 79db dbbe 7fc1 45bf 28ef c73e 01db e2bd
00000020: 65a3 7fbf 9233 34bf

gat_layer_1.attention_0.W f4 [5, 10]
0.018938538 -0.27364385 0.55252177 -0.8578861 0.473804 -0.17881604 0.3313908 -0.0334127
-0.7384734 -0.53770053 0.7154484 -0.7886768 -0.4245386 -0.09851195 -0.82164603 -0.010414016
-0.70606595 -0.72238815 -0.6394931 0.54033834 0.45342526 -0.6680048 0.741881 -0.24715258
0.6723626 0.03736355 -0.47874838 0.8823877 0.12479507 0.7825519 0.11601451 -0.78502357
0.3802297 -0.123469144 0.22273293 0.8446247 -0.5214539 -0.66947377 -0.2234196 -0.036223948
-0.22348295 0.755306 0.8317476 0.73690253 -0.8379594 -0.61556053 0.6269073 -0.33500856
0.5196236 0.44344848
00000000: fe24 9b3c 0c1b 8cbe 1172 0d3f 6c9e 5bbf
00000010: 7096 f23e 8d1b 37be 0eac a93e c1db 08bd
00000020: 980c 3dbf bea6 09bf a027 373f b9e6 49bf
00000030: 205d d9be a2c0 c9bd 6557 52bf 8d9f 2abc
00000040: bdc0 34bf 6eee 38bf d2b5 23bf 9d53 0a3f
00000050: 5b27 e83e 5d02 2bbf eaeb 3d3f 9115 7dbe
00000060: f51f 2c3f 860a 193d 821e f5be 29e4 613f
00000070: 8f94 ff3d 5255 483f 0499 ed3d 4ef7 48bf
00000080: 78ad c23e 64dd fcbd 1a14 643e 5339 583f
00000090: 017e 05bf a262 2bbf 1cc8 64be 905f 14bd
000000a0: b7d8 64be bc5b 413f 69ed 543f a5a5 3c3f
000000b0: 8284 56bf 6095 1dbf ff7c 203f 3e86 abbe
000000c0: 0d06 053f ae0b e33e

gat_layer_1.attention_0.a f4 [20, 1]
0.18704973 -0.52109396 -0.21238446 -0.39359507 0.75028825 -0.7374851 -0.32119784 -0.72126085
0.7220008 -0.65039647 0.73811054 -0.15984929 -0.20478934 -0.14169903 0.6810745 0.20399883
0.45504853 -0.21849804 -0.7255381 -0.18241997
00000000: f789 3f3e 6a66 05bf 507b 59be 4b85 c9be
00000010: e412 403f d3cb 3cbf 0b74 a4be 8da4 38bf
00000020: 0bd5 383f 6280 26bf d0f4 3c3f 88af 23be
00000030: 4cb4 51be 8d19 11be e65a 2e3f 12e5 503e
00000040: 1ffc e83e f3bd 5fbe ddbc 39bf 4dcc 3abe

gat_layer_1.attention_1.W f4 [5, 10]
0.5341012 -0.0118557215 0.50435764 0.50005674 -0.4420076 -0.26317868 0.043725893 0.08615323
-0.5769704 0.15346488 -0.87348634 0.09754182 -0.706592 0.84884626 -0.23224878 -0.33661577
0.14864007 -0.7869416 0.45380646 0.3946109 0.5201586 -0.6405119 -0.8359201 -0.34217528
-0.2143419 -0.1857685 0.5982728 -0.107796505 -0.5500934 -0.3563831 0.094389014 0.2979984
-0.7275025 0.41738716 -0.2529237 0.3358319 -0.11798501 -0.23612122 -0.21778964 0.16800281
-0.7204015 0.5287024 -0.4813974 -0.34739032 0.2397679 0.10439519 0.15742403 -0.862025
-0.4242719 -0.07763787
00000000: dbba 083f 803e 42bc 951d 013f b803 003f
00000010: d24e e2be 5bbf 86be ec19 333d 1b71 b03d
00000020: 55b4 13bf e625 1d3e cd9c 5fbf 01c4 c73d
00000030: 37e3 34bf fd4d 593f a0d2 6dbe e758 acbe
00000040: 1a35 183e 0175 49bf 5259 e83e 710a ca3e
00000050: 1d29 053f 96f8 23bf dcfe 55bf 9931 afbe
00000060: 717c 5bbe 193a 3ebe 6828 193f 6ac4 dcbd
00000070: ecd2 0cbf d877 b6be 074f c13d 3f93 983e
00000080: 9b3d 3abf c5b3 d53e 377f 81be 29f2 ab3e
00000090: 20a2 f1bd c3c9 71be 3f04 5fbe ee08 2c3e
000000a0: 3c6c 38bf 0a59 073f b879 f6be 25dd b1be
000000b0: b785 753e 25cd d53d c433 213e acad 5cbf
000000c0: 2b3a d9be 9b00 9fbd

gat_layer_1.attention_1.a f4 [20, 1]
-0.55644417 0.14211707 -0.15169437 -0.38456017 0.21589147 -0.13584773 0.007819766 0.74523276
-0.40533015 -0.26833612 0.59534556 0.023436392 0.4476461 -0.65860474 0.013367017 -0.38135043
-0.34674323 0.71140796 -0.03494289 0.6456017
00000000: 2073 0ebf 2387 113e c555 1bbe 12e5 c4be
00000010: a712 5d3e ab1b 0bbe 7a1e 003c 93c7 3e3f
00000020: 6f87 cfbe 5a63 89be 9168 183f adfd bf3c
00000030: df31 e53e 529a 28bf 5501 5b3c 5d40 c3be
00000040: 5488 b1be d51e 363f 4720 0fbd 2746 253f

gat_layer_1.attention_2.W f4 [5, 10]
-0.09125964 -0.7630378 -0.33177945 -0.3257725 -0.87880677 -0.31364807 0.7502083 -0.18204537
0.33739692 -0.03132037 0.49234152 -0.803833 0.021286821 0.60363424 0.8643102 -0.32356182
-0.41504264 -0.18001848 -0.5307819 -0.017726548 0.11197988 0.45759267 -0.70375043 0.6086858
0.4841224 0.42063317 -0.7906396 0.23290445 0.053897187 0.216545 0.12515 -0.018065363
0.18334995 0.14579935 0.63250047 -0.2177982 -0.47475934 -0.19642513 0.015061511 0.34021515
0.22074984 -0.28168443 -0.6602868 0.7994777 0.6250956 -0.20736706 0.36505312 -0.0029625038
0.14260575 0.08531925
00000000: 56e6 babd 7256 43bf ffde a9be a7cb a6be
00000010: 7bf9 60bf 7b96 a0be a70d 403f 1a6a 3abe
00000020: 4abf ac3e ca49 00bd 3014 fc3e 00c8 4dbf
00000030: b361 ae3c c687 1a3f 6f43 5d3f e5a9 a5be
00000040: 7880 d4be c456 38be 53e1 07bf 4437 91bc
00000050: b555 e53d 9649 ea3e fd28 34bf d5d2 1b3f
00000060: e4de f73e 3b5d d73e 5b67 4abf 817e 6e3e
00000070: 4cc3 5c3d f9bd 5d3e 5227 003e d0fd 93bc
00000080: 17c0 3b3e 6d4c 153e 8deb 213f 7e06 5fbe
00000090: a813 f3be ab23 49be 8ec4 763c ae30 ae3e
000000a0: 3f0c 623e f138 90be 8e08 29bf 92aa 4c3f
000000b0: 4406 203f 0858 54be 3ee8 ba3e 9126 42bb
000000c0: 3e07 123e dcbb ae3d

gat_layer_1.attention_2.a f4 [20, 1]
0.3973201 0.5569261 -0.30507562 0.5944504 0.62070906 -0.7076532 -0.40562966 0.0122044105
-0.6951537 0.2683926 0.726046 0.018802349 -0.019172318 -0.28286096 -0.6531063 -0.5030917
0.31997147 -0.064329505 -0.16130935 -0.16594937
00000000: 8a6d cb3e b592 0e3f df32 9cbe e72d 183f
00000010: cae6 1e3f c328 35bf b1ae cfbe 02f5 473c
00000020: 98f5 31bf c16a 893e 27de 393f 6207 9a3c
00000030: 440f 9dbc 27d3 90be f931 27bf 9eca 00bf
00000040: 4dd3 a33e 30bf 83bd 472e 25be a2ee 29be

gat_layer_1.attention_3.W f4 [5, 10]
0.56258905 -0.9046825 0.42261785 -0.8716533 0.75554836 -0.17698523 -0.64364135 -0.7898264
0.9088936 -0.07446237 0.08236287 -0.5032496 -0.124968596 0.68986255 0.57506573 0.5490586
-0.38906866 0.26610306 0.7043694 0.692059 0.6798032 0.43759924 -0.15135711 -0.71919817
-0.64770263 0.74806607 0.6450827 0.08135265 -0.66620684 0.07626705 -0.30355924 -0.8550678
-0.37246287 -0.40359044 0.7001783 -0.27101904 0.21799459 -0.29548663 0.46084672 -0.63758916
-0.5950438 0.6884123 -0.8410769 -0.47340772 0.6515363 0.8411824 -0.06835916 -0.39466074
0.4891022 0.37813812
00000000: d605 103f 4699 67bf 5e61 d83e ac24 5fbf
00000010: 9e6b 413f 9e3b 35be aec5 24bf 1032 4abf
00000020: 40ad 683f ba7f 98bd ddad a83d f7d4 00bf
00000030: 89ef ffbd d59a 303f 8237 133f 1b8f 0c3f
00000040: 0234 c7be a93e 883e 8e51 343f c72a 313f
00000050: 9507 2e3f 020d e03e 5cfd 1abe 5f1d 38bf
00000060: d7cf 25bf 4281 3f3f 2424 253f 389c a63d
00000070: 888c 2abf e631 9c3d 1e6c 9bbe b9e5 5abf
00000080: 74b3 bebe 68a3 cebe e33e 333f 02c3 8abe
00000090: f939 5f3e 064a 97be 1af4 eb3e 0b39 23bf
000000a0: ca54 18bf ca3b 303f d150 57bf 7f62 f2be
000000b0: 15cb 263f bb57 573f e3ff 8bbd f910 cabe
000000c0: 9b6b fa3e 529b c13e

gat_layer_1.attention_3.a f4 [20, 1]
-0.5375312 -0.1889143 -0.45698494 -0.22544405 -0.26069528 0.5009834 0.011586051 0.40944713
0.13342358 -0.28007823 0.5338273 -0.19138171 -0.39955693 0.7094752 -0.37008986 -0.060384408
0.4929917 0.59982485 -0.355257 0.4352271
00000000: a59b 09bf c072 41be eef9 e9be ceda 66be
00000010: da79 85be 7340 003f 6cd3 3d3c 0ea3 d13e
00000020: 31a0 083e 6a66 8fbe e8a8 083f 91f9 43be
00000030: ba92 ccbe 2ba0 353f 6b7c bdbe a455 77bd
00000040: 6869 fc3e 1f8e 193f 3fe4 b5be 16d6 de3e

gat_layer_1.attention_4.W f4 [5, 10]
0.8484242 0.43244392 0.45465454 0.084826574 0.15902443 0.12644242 -0.5697839 0.6830972
-0.6057788 0.43069533 -0.37161276 -0.8167864 0.47524193 0.6879423 0.788456 0.699808
-0.6396818 0.6621391 -0.85984075 0.5610394 -0.12152491 0.84448373 -0.8045617 -0.18862821
-0.81232333 -0.61611027 -0.8524342 0.15813722 -0.49657297 -0.6623716 -0.6546844 -0.69336146
0.57406664 -0.20855756 0.7672864 0.61151487 0.78622067 -0.28110513 0.08082541 -0.2551267
-0.45830673 -0.45259234 0.7236703 0.76191735 0.5963245 -0.7605751 -0.08679062 0.4852991
0.80530745 0.3171738
00000000: 5432 593f 4a69 dd3e 7bc8 e83e 8eb9 ad3d
00000010: 4dd7 223e 1f7a 013e 5cdd 11bf 75df 2e3f
00000020: 5214 1bbf 1984 dc3e 0744 bebe ea18 51bf
00000030: e952 f33e fd1c 303f 41d8 493f 9e26 333f
00000040: 30c2 23bf f381 293f 861e 5cbf 47a0 0f3f
00000050: 0de2 f8bd 1630 583f c1f7 4dbf c127 41be
00000060: 6cf4 4fbf 67b9 1dbf 2139 5abf b9ee 213e
00000070: d03e febe 2f91 29bf 6699 27bf 2380 31bf
00000080: 08f6 123f 1d90 55be e26c 443f 3d8c 1c3f
00000090: c245 493f 03ed 8fbe cb87 a53d f89f 82be
000000a0: 2ea7 eabe 2fba e7be 7542 393f 040d 433f
000000b0: b9a8 183f 0db5 42bf 48bf b1bd 2079 f83e
000000c0: a128 4e3f 9b64 a23e

gat_layer_1.attention_4.a f4 [20, 1]
-0.7671464 -0.4433414 -0.37697017 0.07604691 0.44312227 0.34243542 0.34695658 0.14236313
0.7216765 0.4993045 0.05943163 0.12969406 -0.586978 0.40351215 -0.65665853 0.58839387
0.5452812 -0.23614292 -0.29102698 0.41475582
00000000: b563 44bf a5fd e2be 3c02 c1be 7bbe 9b3d
00000010: ece0 e23e b253 af3e 4ba4 b13e a4c7 113e
00000020: cbbf 383f d7a4 ff3e 956e 733d 85ce 043e
00000030: 3144 16bf 2599 ce3e c61a 28bf fba0 163f
00000040: 8c97 0b3f 73cf 71be 7d01 95be e05a d43e

gat_layer_1.out_att.W f4 [50, 5]
0.14216891 0.044831745 0.034262713 0.022696102 -0.030249719 0.41825593 0.39507914 -0.077291116
0.35477448 0.16512468 0.102406554 0.12454401 -0.39273128 0.19374771 0.22055739 0.10648996
0.014473221 0.09992639 -0.2236479 -0.44049245 -0.12885007 -0.13904983 -0.2286025 0.44342726
0.3976349 0.32128966 0.09505356 0.20694834 0.18768808 -0.25944012 -0.3928553 -0.41934592
0.26163027 0.10712101 -0.26389256 -0.37593082 -0.29428655 -0.13061474 0.05624342 0.007795094
0.43610597 0.14291309 -0.3043912 0.23605652 -0.2105889 0.075383134 0.47007233 0.25404826
0.05192736 0.42925924 -0.25342506 -0.015716417 -0.061458007 -0.3751072 -0.041869584 -0.3771238
-0.06679143 0.013280533 0.1656301 -0.36144772 0.34166935 -0.2054844 -0.2427849 0.30987063
-0.43885478 0.39272773 0.3814409 0.14373761 0.033401933 0.39011163 0.0048706653 -0.019437648
0.020841505 0.2901879 0.28883046 -0.47225192 -0.19464959 -0.18466978 -0.3608788 0.43552396
-0.1421017 0.11844712 0.08572601 -0.01618559 0.22203244 -0.037604254 -0.32174045 0.2719358
0.092341654 0.14878431 -0.0697589 0.14189911 -0.0045179855 0.15108868 0.0020026919 0.44025356
0.40942326 -0.16690327 -0.26799604 0.14809918 0.21787174 0.14643632 -0.37099862 0.05160734
-0.3918863 0.026687756 0.051503625 0.27272686 -0.03515907 -0.339227 -0.3964732 0.32740173
0.3648548 0.42186362 -0.22615658 -0.4708918 0.16723311 0.14965501 0.21729444 -0.3242896
-0.25517535 0.25500956 0.3505406 0.47310093 -0.27020705 0.12498513 0.15095764 -0.122363076
-0.3720414 -0.4357266 -0.3811808 0.1089938 0.0032438715 0.28811958 0.18494327 0.27088627
0.13990764 -0.23631765 0.42257434 -0.4329148 0.13816279 -0.07642405 0.23048629 0.398075
-0.13093863 -0.16980053 -0.1624364 -0.43600222 0.08588005 0.26857373 -0.37850565 -0.10001032
0.041697297 0.022407696 -0.4608331 0.3417596 0.22482607 -0.32744178 -0.32556438 -0.049388345
-0.21758759 -0.22397539 0.3342926 -0.42527243 0.19526553 -0.40788284 -0.36209086 0.29153755
-0.10572816 0.015272578 0.40992588 0.22909728 -0.12964301 0.38434342 -0.41721007 0.20758452
-0.089387536 -0.30642697 0.048031922 0.34766197 -0.12631267 0.020184688 0.119228214 -0.2965724
0.41755924 -0.397626 0.32669935 0.15887998 -0.048483238 0.2564585 -0.23372348 -0.22684033
-0.11586269 -0.018022757 0.37799323 0.40380216 -0.57041705 -0.081588745 0.3995219 -0.3489557
-0.04739845 -0.03906879 0.18979439 0.11824105 0.42139205 -0.0089948485 -0.2826651 0.06502802
-0.329304 0.015695812 -0.39504892 -0.34305072 -0.38179868 -0.031101152 0.16961 -0.39082506
0.2939494 -0.13462183 0.25053367 -0.102065384 -0.14884396 -0.1042943 0.3313627 0.3238298
0.25241062 -0.26612082 -0.33623925 -0.013186538 -0.3178018 0.09980505 -0.40786147 0.09614346
-0.328838 -0.3227826 -0.29180947 0.17098145 0.3732131 0.1497924 -0.40819588 0.204215
0.12953885 0.113966584 -0.27836767 0.3777708 0.41157654 -0.33062333 -0.10001239 -0.4427482
0.21383888 -0.15267915
00000000: ba94 113e 7ea1 373d 0f57 0c3d 2ded b93c
00000010: 42ce f7bc a425 d63e d047 ca3e ce4a 9ebd
00000020: 00a5 b53e 7216 293e 87ba d13d ee10 ff3d
00000030: 1314 c9be cd65 463e ccd9 613e 6817 da3d
00000040: 1721 6d3c 35a6 cc3d f503 65be 3a88 e1be
00000050: 46f1 03be 1463 0ebe c616 6abe e608 e33e
00000060: cd96 cb3e 1480 a43e 71ab c23d 44ea 533e
00000070: 4e31 403e 56d5 84be 5424 c9be 82b4 d6be
00000080: 67f4 853e 4362 db3d ed1c 87be 017a c0be
00000090: baac 96be dfbf 05be 805f 663d fd6d ff3b
000000a0: 4849 df3e cf57 123e 2ad9 9bbe cdb8 713e
000000b0: 9ea4 57be 7962 9a3d 52ad f03e 9d12 823e
000000c0: c9b1 543d dec7 db3e eec0 81be b7bf 80bc
000000d0: 64bb 7bbd 0d0e c0be 717f 2bbd 5f16 c1be
000000e0: f2c9 88bd 9896 593c f09a 293e ad0f b9be
000000f0: 49ef ae3e 816a 52be 9b9c 78be 5da7 9e3e
00000100: 93b1 e0be 9c13 c93e 394c c33e f42f 133e
00000110: 77d0 083d b6bc c73e 1a9a 9f3b b43b 9fbc
00000120: cebb aa3c 8293 943e 96e1 933e 01cb f1be
00000130: 3952 47be 131a 3dbe 1bc5 b8be fffc de3e
00000140: 1c83 11be 6794 f23d 1e91 af3d a497 84bc
00000150: 795c 633e eb06 1abd 2abb a4be 2b3b 8b3e
00000160: 9f1d bd3d ea5a 183e c1dd 8ebd 004e 113e
00000170: 9c0b 94bb feb6 1a3e 983f 033b ea68 e13e
00000180: ed9f d13e b1e8 2abe c736 89be 50a7 173e
00000190: c519 5f3e 67f3 153e 88f3 bdbe 3862 533d
000001a0: 52a5 c8be 48a0 da3c 77f5 523d dba2 8b3e
000001b0: f502 10bd 29af adbe 89fe cabe 33a1 a73e
000001c0: 40ce ba3e 82fe d73e 9795 67be bb18 f1be
000001d0: 283f 2b3e 2a3f 193e 6f82 5e3e 4909 a6be
000001e0: 58a6 82be 9d90 823e 0f7a b33e 493a f23e
000001f0: 9458 8abe 34f8 ff3d a494 1a3e 7e99 fabd
00000200: 367c bebe 8f17 dfbe 212a c3be 2438 df3d
00000210: 2297 543b 6984 933e c561 3d3e 9bb1 8a3e
00000220: f343 0f3e 41fd 71be aa5b d83e 02a7 ddbe
00000230: 8c7a 0d3e 3684 9cbd 9904 6c3e 7dd0 cb3e
00000240: c714 06be 31e0 2dbe ba55 26be af3b dfbe
00000250: e1e1 af3d 7f82 893e 7ecb c1be 36d2 ccbd
00000260: c9ca 2a3d 5890 b73c 51f2 ebbe 1dfb ae3e
00000270: ce38 663e 73a6 a7be 60b0 a6be 6f4b 4abd
00000280: 48cf 5ebe ce59 65be 6628 ab3e 4fbd d9be
00000290: b0f3 473e 05d6 d0be f963 b9be 6944 953e
000002a0: 0188 d8bd d639 7a3c cee1 d13e 7a98 6a3e
000002b0: 23c1 04be a9c8 c43e 8f9c d5be 0991 543e
000002c0: d010 b7bd ffe3 9cbe 1fbd 443d c000 b23e
000002d0: 1c58 01be 5c5a a53c ec2d f43d 56d8 97be
000002e0: 53ca d53e a395 cbbe 2345 a73e 6fb1 223e
000002f0: 5c96 46bd 874e 833e 3555 6fbe d548 68be
00000300: 6b49 edbd 76a4 93bc 5488 c13e 28bf ce3e
00000310: da06 12bf 0018 a7bd 228e cc3e 52aa b2be
00000320: e124 42bd 9806 20bd 7659 423e 5d28 f23d
00000330: b3c0 d73e 215f 13bc 7bb9 90be 692d 853d
00000340: 899a a8be 8194 803c da43 cabe 58a4 afbe
00000350: 1e7b c3be d8c7 febc 3eae 2d3e 391a c8be
00000360: 8980 963e 4eda 09be f345 803e a807 d1bd
00000370: 8d6a 18be 4098 d5bd 5fa8 a93e 05cd a53e
00000380: f73b 813e fd40 88be 8d27 acbe 590c 58bc
00000390: ebb6 a2be 9766 cc3d 38d3 d0be dde6 c43d
000003a0: 745d a8be c343 a5be 0d68 95be c315 2f3e
000003b0: ca15 bf3e 2e63 193e 0dff d0be bd1d 513e
000003c0: d5a5 043e 5067 e93d 3586 8ebe 2d6b c13e
000003d0: 29ba d23e 7647 a9be 4cd3 ccbd e4af e2be
000003e0: 94f8 5a3e ec57 1cbe

gat_layer_1.out_att.a f4 [10, 1]
0.58472776 -0.70097846 -0.3616941 -1.0547249 -0.30797896 -0.41105175 0.13270485 0.913845
-0.5956043 -0.25712344
00000000: b8b0 153f 5373 33bf f82f b9be 3a01 87bf
00000010: 6baf 9dbe 6075 d2be c8e3 073e bff1 693f
00000020: 8679 18bf afa5 83be

gat_layer_2.attention_0.W f4 [5, 10]
-0.007860926 -0.4556583 -0.12042018 -0.019407393 -0.0025800362 -0.29808724 -0.38751456 -0.23509419
0.2634831 -0.5940214 0.746865 0.6661484 0.5072279 -0.6389914 -0.14900824 0.31048897
0.051610287 -0.068273135 0.1910085 -0.53962374 -0.18192087 0.6197774 -0.9127353 -0.5468706
0.2406485 0.4897501 0.46541584 -0.73531395 0.1270348 -0.08306726 0.21864235 0.50428396
0.6745449 0.6281739 -0.50045097 -0.8029039 -0.29816744 0.56569445 -0.781346 0.2045177
-0.88380253 -0.25015423 -0.23572522 -0.023556149 0.7502114 -0.50217557 -0.06543533 -0.7924954
-0.8303796 0.7172094
00000000: 1dcb 00bc 0b4c e9be db9e f6bd 41fc 9ebc
00000010: d315 29bb e49e 98be 4f68 c6be 88bc 70be
00000020: 42e7 863e c911 18bf 8b32 3f3f b488 2a3f
00000030: b0d9 013f f194 23bf 9e95 18be 69f8 9e3e
00000040: 4f65 533d c9d2 8bbd bb97 433e c824 0abf
00000050: 7749 3abe bba9 1e3f 05a9 69bf b6ff 0bbf
00000060: 8f6c 763e 86c0 fa3e fc4a ee3e 893d 3cbf
00000070: 6915 023e 2b1f aabd c8e3 5f3e c118 013f
00000080: f9ae 2c3f 01d0 203f 8e1d 00bf 1c8b 4dbf
00000090: 67a9 98be 5ad1 103f 4b06 48bf 176d 513e
000000a0: e240 62bf 3714 80be f461 71be d3f8 c0bc
000000b0: db0d 403f 948e 00bf f502 86bd fbe0 4abf
000000c0: c293 54bf 099b 373f

gat_layer_2.attention_0.a f4 [20, 1]
-0.40438583 0.6247021 -0.14281057 -0.7375212 -0.17086111 0.68742377 0.3364589 -0.092580885
-0.008122283 -0.70809186 -0.123545684 -0.25716725 -0.14198089 0.5468386 -0.050506987 0.7203895
-0.59148926 -0.3541667 0.4549228 -0.452184
00000000: a90b cfbe 7aec 1f3f ef3c 12be 30ce 3cbf
00000010: 37f6 2ebe 01fb 2f3f 5744 ac3e 0c9b bdbd
00000020: 5313 05bc 8245 35bf 8505 fdbd 6dab 83be
00000030: 7063 11be 9dfd 0b3f 6ae0 4ebd 726b 383f
00000040: d76b 17bf 5655 b5be a4eb e83e a984 e7be

gat_layer_2.attention_1.W f4 [5, 10]
0.3764131 0.10565346 0.74768174 0.6217554 0.29004398 0.19688086 0.37959653 -0.7239762
0.12758102 0.444453 -0.12291413 -0.8275763 -0.6012424 -0.3210438 -0.2698413 0.4552478
0.8293529 0.47430685 -0.31793866 0.27431196 0.5348877 -0.41598895 0.7429104 0.87286276
-0.10055247 -0.28507164 0.800806 0.66884375 -0.32687426 0.9332798 -0.3204344 -0.37409687
-0.3525121 0.74291766 0.53551745 -0.044106774 -0.87258244 0.0030214626 -0.8970304 -0.6537173
0.36080527 0.6196774 0.6631601 -0.35131025 -0.5527256 -0.32198945 0.12839656 -0.22623393
-0.021806126 -0.784916
00000000: 38b9 c03e d760 d83d 1268 3f3f 5d2b 1f3f
00000010: a580 943e 239b 493e 7a5a c23e 8156 39bf
00000020: 99a4 023e 588f e33e 67ba fbbd 0adc 53bf
00000030: 06eb 19bf da5f a4be a428 8abe 3d16 e93e
00000040: 7950 543f 59d8 f23e dbc8 a2be 9e72 8c3e
00000050: 66ee 083f 81fc d4be 602f 3e3f ef73 5f3f
00000060: 74ee cdbd e9f4 91be 9f01 4d3f 5839 2b3f
00000070: 105c a7be 6deb 6e3f fa0f a4be a089 bfbe
00000080: 777c b4be da2f 3e3f ac17 093f 4ea9 34bd
00000090: 9061 5fbf bb03 463b c9a3 65bf 045a 27bf
000000a0: 78bb b83e 2ea3 1e3f dcc4 293f f0de b3be
000000b0: 6d7f 0dbf cddb a4be 637a 033e dea9 67be
000000c0: c3a2 b2bc 41f0 48bf

gat_layer_2.attention_1.a f4 [20, 1]
-0.6415166 0.5294061 -0.18030387 0.13236283 -0.7073016 -0.53179467 0.6207048 0.30347893
0.21978351 -0.12330744 0.06275726 -0.4813038 0.1991666 0.17853872 0.43544763 -0.36319593
0.102583654 -0.28274325 -0.4055451 -0.7381865
00000000: 6f3a 24bf 2887 073f 94a1 38be 1f8a 073e
00000010: b811 35bf b223 08bf 83e6 1e3f 9761 9b3e
00000020: ee0e 613e 9c88 fcbd e186 803d 746d f6be
00000030: 54f2 4b3e dbd2 363e fef2 de3e d1f4 b9be
00000040: 6117 d23d b9c3 90be 9ba3 cfbe caf9 3cbf

gat_layer_2.attention_2.W f4 [5, 10]
0.24808496 -0.73380524 -0.17416188 0.67902106 0.09011535 -0.051536992 -0.08367303 0.08819336
0.03857149 0.6324067 0.3097112 -0.50041866 0.68395424 -0.7249039 0.20205468 0.15256822
-0.60026455 -0.24419615 0.02356215 -0.7174925 -0.32731223 0.61791676 -0.59927493 0.27310824
-0.54605263 0.099947974 0.21364652 0.21012905 -0.12205597 0.78187126 0.40331122 0.5302078
-0.15291223 0.28020737 -0.5175209 -0.16123298 -0.7554222 -0.58470416 0.2504833 -0.39462158
-0.22464937 -0.5233622 -0.44508082 0.5307157 0.83732796 -0.3777911 -0.3005326 0.61050665
0.19807264 0.88867587
00000000: fc09 7e3e a9da 3bbf 7e57 32be 53d4 2d3f
00000010: 668e b83d 7418 53bd c45c abbd b89e b43d
00000020: 24fd 1d3d 68e5 213f 7792 9e3e 701b 00bf
00000030: a017 2f3f 4d93 39bf 6ce7 4e3e d83a 1c3e
00000040: f0aa 19bf 8e0e 7abe 6905 c13c 97ad 37bf
00000050: 7895 a7be cb2f 1e3f 156a 19bf d8d4 8b3e
00000060: 1bca 0bbf 86b1 cc3d 27c6 5a3e 122c 573e
00000070: 7bf8 f9bd b728 483f cf7e ce3e b3bb 073f
00000080: 0695 1cbe 5777 8f3e 407c 04bf 421a 25be
00000090: 5963 41bf 2caf 15bf 593f 803e d70b cabe
000000a0: 7c0a 66be 11fb 05bf a2e1 e3be fcdc 073f
000000b0: 205b 563f d66d c1be 69df 99be 2a4a 1c3f
000000c0: 8ed3 4a3e 4380 633f

gat_layer_2.attention_2.a f4 [20, 1]
-0.27720368 -0.7380635 0.23128961 0.6463597 -0.60544884 0.76711094 -0.6567745 -0.55301315
-0.13505876 -0.26386032 0.6194359 0.3154425 0.61355835 -0.2253807 0.13085335 0.22454427
-0.033032216 -0.029115355 -0.37976134 -0.48369133
00000000: a4ed 8dbe bbf1 3cbf 2fd7 6c3e d477 253f
00000010: b2fe 1abf 6261 443f 6022 28bf 4592 0dbf
00000020: d84c 0abe b318 87be 5a93 1e3f ae81 a13e
00000030: 2912 1d3f 33ca 66be 6cfe 053e efee 653e
00000040: ca4c 07bd 5383 eebc 1470 c2be 64a6 f7be

gat_layer_2.attention_3.W f4 [5, 10]
-0.82826084 0.6181036 -0.3366687 0.70899266 -0.42799997 0.91210085 0.03204978 0.68594
0.1871681 0.307296 0.87892103 0.61575764 0.1307468 0.7370634 0.13507737 -0.35390544
-0.73842496 0.760472 -0.5163709 0.48703662 0.7859728 0.28715312 -0.25755948 -0.55307037
0.7020431 0.52941394 0.08977825 -0.47923213 -0.73459005 0.3852188 0.026399678 -1.0088825
0.8446289 0.17677073 0.42917055 -0.73437613 -0.07038803 0.2720227 0.17947935 -0.19822235
0.755874 -1.0028539 0.27840978 0.6913526 0.15048295 -0.5684203 -0.73417276 0.14132957
0.37259164 0.47172627
00000000: e708 54bf 0a3c 1e3f d75f acbe 8b80 353f
00000010: d022 dbbe 717f 693f a146 033d c499 2f3f
00000020: ffa8 3f3e e755 9d3e f800 613f 4ba2 1d3f
00000030: 7de2 053e 30b0 3c3f b951 0a3e 1833 b5be
00000040: 6b09 3dbf 4bae 423f e230 04bf dd5c f93e
00000050: 8335 493f bc05 933e d6de 83be 0596 0dbf
00000060: 19b9 333f ac87 073f a9dd b73d ea5d f5be
00000070: 180e 3cbf 663b c53e 2344 d83c 1023 81bf
00000080: 9939 583f 6303 353e 3ebc db3e 1300 3cbf
00000090: 9927 90bd 8f46 8b3e 6fc9 373e cdfa 4abe
000000a0: f580 413f 845d 80bf ba8b 8e3e 7cfc 303f
000000b0: 3418 1a3e fe83 11bf bff2 3bbf b3b8 103e
000000c0: 55c4 be3e 1b86 f13e

gat_layer_2.attention_3.a f4 [20, 1]
0.6161648 -0.3950506 -0.7386884 0.5693489 -0.24334121 0.049054943 0.41965187 -0.599301
-0.17301999 0.08496793 0.32286176 0.6153444 -0.1392772 0.32733035 -0.17473802 -0.20885481
-0.38537645 0.30167934 -0.49672216 -0.28461477
00000000: fabc 1d3f 1244 cabe af1a 3dbf d9c0 113f
00000010: 702e 79be d6ed 483d 9cdc d63e ca6b 19bf
00000020: 272c 31be ab03 ae3d 234e a53e 3687 1d3f
00000030: af9e 0ebe d897 a73e 86ee 32be 09de 55be
00000040: 1050 c5be b775 9a3e 5e52 febe 07b9 91be

gat_layer_2.attention_4.W f4 [5, 10]
-0.15538609 0.5484182 -0.67142063 -0.14155085 -0.27562904 0.34943485 -0.62509066 -0.32893872
0.08047133 0.2896446 0.5207286 0.25043634 0.26974207 0.6458426 0.81478477 0.48830658
-0.120590776 -0.2783034 -0.39025408 -0.18574212 -0.6112753 -0.8151187 -0.70156956 0.8214089
-0.18960059 -0.66828394 -0.7316053 -0.1538099 0.14387582 -0.63673586 0.26451916 0.72051716
0.2566749 -0.5537295 -0.5814154 -0.36872104 0.76088256 0.1578314 0.25211564 -0.7557684
-0.10019183 -0.45574847 0.3467753 0.6417091 0.037630767 -0.6451693 -0.056210738 0.9189219
-0.19416843 -0.7810487
00000000: 881d 1fbe 2365 0c3f 39e2 2bbf b5f2 10be
00000010: 401f 8dbe 20e9 b23e f105 20bf a86a a8be
00000020: 27ce a43d 4c4c 943e 784e 053f 3139 803e
00000030: a21b 8a3e f155 253f bc95 503f 5203 fa3e
00000040: 4cf8 f6bd c97d 8ebe 62cf c7be 2f33 3ebe
00000050: 8a7c 1cbf 9eab 50bf 109a 33bf db47 523f
00000060: a826 42be a814 2bbf 7c4a 3bbf 5880 1dbe
00000070: 2f54 133e 1f01 23bf 0e6f 873e d073 383f
00000080: e46a 833e 37c1 0dbf a4d7 14bf 01c9 bcbe
00000090: 33c9 423f 8e9e 213e 4d15 813e 0a7a 41bf
000000a0: 6031 cdbd dd57 e9be 888c b13e 0c47 243f
000000b0: b822 1a3d d129 25bf 3b3d 66bd 773e 6b3f
000000c0: 17d4 46be cff2 47bf

gat_layer_2.attention_4.a f4 [20, 1]
-0.06507811 0.2107081 0.7413567 -0.5478595 -0.6768624 -0.50621307 -0.6158562 0.36150602
-0.1952577 -0.050092492 -0.30997714 0.5807797 -0.41355413 -0.69914 0.3026095 0.5866252
-0.27901545 -0.6136753 0.6079835 -0.054220524
00000000: ac47 85bd ddc3 573e 8dc9 3d3f 8540 0cbf
00000010: db46 2dbf 2e97 01bf c0a8 1dbf 5117 b93e
00000020: a2f1 47be c92d 4dbd 53b5 9ebe faad 143f
00000030: 5ebd d3be d7fa 32bf a2ef 9a3e 122d 163f
00000040: 1ddb 8ebe d319 1dbf cfa4 1b3f 5716 5ebd

gat_layer_2.out_att.W f4 [50, 5]
0.44768918 -0.20559 -0.16065711 -0.15085681 -0.34719127 0.18813653 -0.0642098 0.28409004
0.34704924 0.14810841 -0.11463924 0.3099683 -0.3023923 -0.32615042 -0.34052196 0.005871441
-0.21905272 -0.076541424 -0.2733932 -0.32612985 0.17442265 -0.092479154 0.11443048 -0.07298563
0.020104423 -0.25899595 -0.20537843 0.32899293 -0.00028444553 -0.14817397 -0.15219884 0.37706795
0.34412625 0.25765803 0.17276782 -0.16845864 -0.29495186 -0.2276056 0.082838506 0.25006947
-0.119396396 -0.3587976 -0.0288287 -0.38555574 0.037537634 0.15117317 0.39261267 -0.10867168
0.4215651 0.3919967 0.00986318 -0.13624755 -0.19551745 -0.34715125 -0.279925 -0.19875932
0.0034219942 -0.043300528 -0.25029084 0.2939135 0.11447164 -0.21532623 -0.4357845 0.33562893
-0.29802573 -0.3917148 0.39757642 0.2832262 -0.06303947 0.16940217 -0.28369612 0.39851877
-0.06258153 -0.20856972 -0.10478648 -0.4086893 0.03713384 0.16883668 -0.23443669 -0.12397057
-0.32008177 0.109245025 -0.08308513 0.24807353 -0.008841 -0.08661315 -0.096806556 -0.42711648
-0.07164332 -0.30804726 -0.07701374 -0.31910312 -0.15349911 -0.238368 -0.51073885 0.11443202
0.20375696 0.22625798 0.056726646 0.13997431 -0.36621788 -0.33466086 -0.086096615 -0.13793084
-0.232389 -0.37786233 -0.14057992 -0.42466927 0.20716439 -0.4282052 -0.45971996 -0.19558986
-0.091917984 0.28903797 0.29775426 0.12748484 0.21321678 0.20639579 0.18430433 -0.14899583
-0.40309247 -0.3090305 0.18246245 0.29865795 0.2161422 0.01614426 0.3131288 -0.35248187
0.2988909 -0.39296272 -0.16325323 0.20015083 0.38761774 -0.35480943 -0.0013135959 -0.25109375
-0.21763845 -0.22098254 0.009238932 -0.26275298 -0.08425477 -0.2701121 -0.0027793453 -0.37353036
-0.015459989 -0.43483648 0.4378872 -0.15363754 0.2799839 -0.4359897 0.3209331 -0.47941956
0.16107106 -0.0020421322 0.25445634 -0.18177225 -0.2326391 -0.15769017 -0.054927167 -0.14479098
0.11192322 -0.23247804 -0.024511375 -0.15533999 0.30613682 -0.20819005 0.37445116 0.37055275
0.012974607 0.3670292 0.2236995 -0.080905266 0.20341618 0.4056781 0.3547943 0.1333594
-0.2422001 -0.14780223 0.3439274 -0.0045339544 0.19651231 -0.043062612 -0.31642976 -0.28700572
0.13008402 -0.2934987 0.41942975 -0.45676094 0.12286585 -0.2218277 -0.37048498 -0.031362906
-0.01960738 0.38748905 -0.089282714 0.11649669 0.22626108 -0.017437989 0.017568326 0.5469376
-0.44094905 0.18293327 0.31665406 0.025323557 0.21944292 0.18625148 0.15937527 -0.056315046
-0.38644966 0.38687488 -0.11156969 -0.28164205 0.099057 0.3118677 -0.1317501 0.17792653
0.22104554 -0.2703121 0.022469023 0.3292572 -0.39586312 0.40041918 0.3081714 -0.4517214
-0.14600357 0.3676488 0.3847953 -0.30375823 0.24745807 0.40624118 -0.4372804 -0.004516383
0.06837604 -0.35235226 0.03580169 -0.2956772 -0.2979098 0.32454208 0.20806228 0.04685946
-0.3212079 -0.0010981917 0.37012067 -0.10764025 -0.49502817 0.077176936 -0.2094358 -0.25874573
-0.009501319 -0.35142535
00000000: 8437 e53e 2f86 52be 4c83 24be 357a 1abe
00000010: 0ec3 b1be dda6 403e 6d80 83bd 4074 913e
00000020: 70b0 b13e bba9 173e fac7 eabd 2ab4 9e3e
00000030: 2ad3 9abe 30fd a6be e558 aebe 3865 c03b
00000040: 5b4f 60be c0c1 9cbd 32fa 8bbe 7efa a6be
00000050: da9b 323e b665 bdbd 875a ea3d 7d79 95bd
00000060: 08b2 a43c 1e9b 84be b94e 52be c371 a83e
00000070: a221 95b9 ebba 17be 03da 1bbe 0d0f c13e
00000080: 5131 b03e c1eb 833e 0cea 303e 6c80 2cbe
00000090: ee03 97be 7111 69be 3ca7 a93d 1b09 803e
000000a0: 1986 f4bd 52b4 b7be 2a2a ecbc 9067 c5be
000000b0: 10c1 193d 24cd 1a3e 8704 c93e 428f debd
000000c0: 61d7 d73e cbb3 c83e 2d99 213c 7a84 0bbe
000000d0: ba35 48be cfbd b1be 5452 8fbe 9087 4bbe
000000e0: 8943 603b e55b 31bd 1f26 80be d57b 963e
000000f0: 1b70 ea3d 7b7e 5cbe 251f dfbe 8ed7 ab3e
00000100: d496 98be d88e c8be 238f cb3e 0603 913e
00000110: d61a 81bd c377 2d3e 9e40 91be a70a cc3e
00000120: bf2a 80bd 4d93 55be 4b9a d6bd b93f d1be
00000130: a719 183d 86e3 2c3e 2c10 70be 48e4 fdbd
00000140: c2e1 a3be dbbb df3d 8928 aabd fd06 7e3e
00000150: d7d9 10bc 3c62 b1bd 8442 c6bd 03af dabe
00000160: bcb9 92bd 5fb8 9dbe 61b9 9dbd 7c61 a3be
00000170: df2e 1dbe be16 74be c8bf 02bf 565b ea3d
00000180: aaa5 503e 2cb0 673e 335a 683d 6d55 0f3e
00000190: e980 bbbe ab58 abbe 6c53 b0bd be3d 0dbe
000001a0: 62f7 6dbe 2c77 c1be 2ff4 0fbe 406e d9be
000001b0: e722 543e b63d dbbe 6a60 ebbe b548 48be
000001c0: 7f3f bcbd c9fc 933e 3f73 983e 638b 023e
000001d0: 8055 5a3e 6b59 533e 46ba 3c3e 5d92 18be
000001e0: 2362 cebe 3f39 9ebe 70d7 3a3e b2e9 983e
000001f0: 6254 5d3e f840 843c 6b52 a03e 8178 b4be
00000200: 3a08 993e 6932 c9be db2b 27be 57f4 4c3e
00000210: d575 c63e 95a9 b5be f72c acba 5c8f 80be
00000220: 9ddc 5ebe 3f49 62be e45e 173c 8f87 86be
00000230: c48d acbd 224c 8abe ad25 36bb 5f3f bfbe
00000240: e54b 7dbc e3a2 debe c032 e03e 2953 1dbe
00000250: 0d5a 8f3e 0b3a dfbe 5851 a43e 7b76 f5be
00000260: d0ef 243e 4bd5 05bb 1a48 823e 8122 3abe
00000270: f238 6ebe 8879 21be 4ffb 60bd 1644 14be
00000280: 0038 e53d b90e 6ebe 14cc c8bc 7211 1fbe
00000290: f7bd 9c3e c62f 55be 10b8 bf3e 17b9 bd3e
000002a0: 7293 543c 40eb bb3e 7b11 653e a9b1 a5bd
000002b0: 554c 503e 0ab5 cf3e 99a7 b53e 5e8f 083e
000002c0: 4e03 78be 7859 17be 4117 b03e 9191 94bb
000002d0: 863a 493e 6c62 30bd 1503 a2be 6af2 92be
000002e0: bf34 053e 7645 96be 7fbf d63e 92dc e9be
000002f0: 17a1 fb3d cd26 63be 35b0 bdbe 6476 00bd
00000300: a89f a0bc f764 c63e dbd9 b6bd d195 ee3d
00000310: fcb0 673e 1dda 8ebc 73eb 8f3c 1a04 0c3f
00000320: 13c4 e1be dc52 3b3e 7b20 a23e 5973 cf3c
00000330: a5b5 603e b5b8 3e3e 4533 233e 9baa 66bd
00000340: bbdc c5be 7714 c63e a67e e4bd 6333 90be
00000350: 65de ca3d 20ad 9f3e 80e9 06be 5f32 363e
00000360: c359 623e 5966 8abe f510 b83c 6694 a83e
00000370: 92ae cabe be03 cd3e a4c8 9d3e 0748 e7be
00000380: f681 15be 773c bc3e e403 c53e 3386 9bbe
00000390: a665 7d3e d8fe cf3e 37e3 dfbe 2bfe 93bb
000003a0: bd08 8c3d 8467 b4be cba4 123d 0163 97be
000003b0: a287 98be 612a a63e 470e 553e b5ef 3f3d
000003c0: 5d75 a4be 33f1 8fba 7580 bd3e 7e72 dcbd
000003d0: 5574 fdbe f10e 9e3d 5776 56be 527a 84be
000003e0: 6cab 1bbc 06ee b3be

gat_layer_2.out_att.a f4 [10, 1]
0.1033235 0.8731205 -0.12248528 0.7452145 0.4379478 0.3386503 0.06290732 1.020711
-0.368133 -0.6360659
00000000: 459b d33d d384 5f3f 90d9 fabd 61c6 3e3f
00000010: b23a e03e 9263 ad3e 8ed5 803d a8a6 823f
00000020: ee7b bcbe 37d5 22bf
