tests/gat/encoder-checkpoint10.pt (torch, 20210 bytes, 36 tensors)

gat_layer_0.attention_0.W f4 [5, 10]
0	0xbee7f2d1	-0.45302442
1	0xbf4db735	-0.80357677
2	0x3ecdeb38	0.4021852
3	0xbea5b02c	-0.3236097
4	0xbded03ec	-0.11573014
5	0x3ea6c1d4	0.32569754
6	0x3f4dd36c	0.8040073
7	0xbe00d7fc	-0.12582392
8	0x3f0117bd	0.50426847
9	0xbef254ac	-0.47330225
10	0xbe57e80d	-0.21084614
11	0x3e18e8b0	0.14932513
12	0x3e8ed6f0	0.2789836
13	0xbf5ae6d8	-0.8550849
14	0xbe537fec	-0.20654267
15	0x3dc78fe3	0.09744241
16	0xbf28c092	-0.6591884
17	0xbe0a4767	-0.135038
18	0xbecc252f	-0.3987212
19	0x3d97b9a8	0.07408458
20	0x3e0b937f	0.13630484
21	0x3ed90f5a	0.42394525
22	0x3ebe349e	0.3714952
23	0x3ef38d48	0.47568727
24	0xbd9725e8	-0.07380277
25	0xbebfc58a	-0.37455398
26	0x3ed1554a	0.40885383
27	0x3f4329eb	0.76235837
28	0x3cbec513	0.023287332
29	0xbde1536f	-0.11002242
30	0xbeeedf82	-0.46654898
31	0x3edf24d2	0.4358278
32	0x3d1a116f	0.037614282
33	0xbf032211	-0.51223856
34	0xbe809302	-0.25112158
35	0x3ec78efc	0.38976276
36	0xbf669b3e	-0.9008063
37	0x3ea0d4d0	0.31412363
38	0x3f479028	0.7795434
39	0xbf5a5e11	-0.85299784
40	0x3f29fd91	0.66402537
41	0xbf3e23a4	-0.74273133
42	0x3e784bcf	0.24247669
43	0x3e9b9aec	0.30391634
44	0xbe1d8a9f	-0.15384911
45	0x3f501127	0.8127617
46	0xbd1ff45e	-0.039051406
47	0x3f4079f9	0.75186116
48	0x3ee3f358	0.44521594
49	0xbebbeae2	-0.3670264

gat_layer_0.attention_0.a f4 [20, 1]
0	0xbdf1f562	-0.11814381
1	0xbe6cd1bd	-0.23126884
2	0x3e4145d9	0.18874301
3	0x3f3ec7ed	0.7452381
4	0xbeac4f71	-0.3365436
5	0xbd41d107	-0.047318485
6	0x3f20b4de	0.6277598
7	0xbef9d60a	-0.4879611
8	0xbd9bad71	-0.07601441
9	0x3f2295c5	0.6350978
10	0xbf0273b0	-0.50957775
11	0xbf43bdea	-0.7646166
12	0x3efbfca9	0.49216202
13	0xbe0ab045	-0.13543804
14	0xbe1502ff	-0.14551924
15	0xbea6d07a	-0.3258093
16	0x3ea4cb1e	0.32186216
17	0x3e2a1d95	0.16612847
18	0x3d9bd8ce	0.076097116
19	0x3cdfdf60	0.027328193

gat_layer_0.attention_1.W f4 [5, 10]
0	0xbf5223cc	-0.8208587
1	0xbc9ff7f1	-0.019527407
2	0xbd5b41d7	-0.053529587
3	0xbc4e7ffe	-0.012603758
4	0xbdb104ef	-0.08643519
5	0xbe6536a5	-0.22384126
6	0xbf559679	-0.8343273
7	0x3f3c06ec	0.7344806
8	0xbf424cc6	-0.75898397
9	0xbf35908c	-0.70923686
10	0x3eba85d6	0.36430234
11	0xbf577515	-0.8416303
12	0xbf31a0ec	-0.6938617
13	0x3f384f67	0.7199616
14	0x3f5db485	0.86603576
15	0xbeca0d8a	-0.39463454
16	0x3f412344	0.75444436
17	0xbe9a3678	-0.3011968
18	0xbd83a13c	-0.064272374
19	0x3e2332cf	0.1593735
20	0x3d28f6aa	0.041250862
21	0x3f09b1f2	0.5378715
22	0xbf0d9085	-0.55298644
23	0xbe9ab561	-0.30216506
24	0xbe4493cb	-0.19197004
25	0xbedd8ea5	-0.43272892
26	0x3f45db20	0.77287483
27	0x3dc99ba1	0.09844137
28	0xbf3817cf	-0.7191133
29	0xbee5e09d	-0.4489793
30	0x3f05c94b	0.52260274
31	0x3df312df	0.11868834
32	0x3eb87f71	0.3603473
33	0x3ec026ba	0.37529546
34	0x3d5ae01c	0.053436384
35	0x3f4612b1	0.7737227
36	0xbecad591	-0.39616063
37	0x3f5f0b27	0.8712639
38	0xbec7c47f	-0.39017102
39	0xbd4c00d9	-0.049805496
40	0xbf19a583	-0.60018176
41	0xbea834b5	-0.32852712
42	0x3f531de9	0.82467514
43	0xbf2d71d6	-0.67751825
44	0x3f16a2ec	0.5884235
45	0x3f26ab1d	0.6510485
46	0xbf099466	-0.53742063
47	0xbf05febd	-0.52341825
48	0xbf47d1da	-0.78054583
49	0xbf24583a	-0.64197123

gat_layer_0.attention_1.a f4 [20, 1]
0	0xbeb6c943	-0.35700426
1	0x3db528fd	0.088457085
2	0x3e8e55c4	0.2779981
3	0xbe6cc2d9	-0.23121203
4	0x3e698b5c	0.22807068
5	0xbec7d002	-0.39025885
6	0xbf07b150	-0.5300493
7	0xbefd47ef	-0.49468943
8	0xbdb91c5d	-0.09038613
9	0xbe8303e1	-0.25588897
10	0x3f0c98c8	0.54920626
11	0x3e39fab1	0.18162037
12	0xbe9b8aad	-0.3037924
13	0xbea6792e	-0.32514328
14	0x3e3763de	0.1790919
15	0x3e031d4a	0.12804142
16	0xbeca00aa	-0.39453632
17	0xbeef479b	-0.46734318
18	0x3f2e95f4	0.6819756
19	0x3cbe08d9	0.023197578

gat_layer_0.attention_2.W f4 [5, 10]
0	0x3f542bab	0.8287913
1	0xbeecd598	-0.4625671
2	0xbe0c1a11	-0.13681819
3	0x3f486dfb	0.78292817
4	0x3f2e6eed	0.6813801
5	0x3da45bc7	0.08025318
6	0xbf18d614	-0.5970166
7	0xbf0a7604	-0.5408633
8	0xbf1e1ea0	-0.6176548
9	0xbf0af7bb	-0.54284257
10	0x3e87223f	0.26393315
11	0xbf63fc24	-0.8905661
12	0xbf57318a	-0.84059966
13	0x3e35fcb1	0.17772175
14	0xbe661fda	-0.22473088
15	0xbeb96ce2	-0.36215883
16	0xbf5b5623	-0.8567831
17	0x3e91344e	0.28360218
18	0xbda2cf56	-0.079497024
19	0xbecc77ab	-0.3993505
20	0xbf091093	-0.53540915
21	0x3f30fecb	0.69138783
22	0x3f383615	0.7195752
23	0xbeb571fe	-0.35438532
24	0x3eec009f	0.46094224
25	0x3e3e5e2b	0.1859061
26	0xbf086f4c	-0.53294826
27	0xbee9cc66	-0.45663756
28	0x3f5fc4a7	0.8740944
29	0x3f20eedb	0.62864465
30	0xbf60f904	-0.8787997
31	0x3e904fd0	0.28185892
32	0x3f21423d	0.62991697
33	0x3e7dbb41	0.24778463
34	0xbf15d3af	-0.5852613
35	0xbe61bdc4	-0.22045046
36	0xbf3200a7	-0.69532245
37	0xbea57c35	-0.32321325
38	0xbf0056c3	-0.5013239
39	0x3f0bdfc5	0.5463832
40	0xbd950259	-0.072758384
41	0xbe2effb9	-0.17089738
42	0xbf2e78c0	-0.68153
43	0x3e3e3542	0.18575004
44	0x3d196bae	0.037456207
45	0xbea17318	-0.31533122
46	0xbf5828f2	-0.8443748
47	0xbf58337a	-0.84453547
48	0xbe1a1c1d	-0.15049787
49	0x3ea362dc	0.3191136

gat_layer_0.attention_2.a f4 [20, 1]
0	0xbee98050	-0.45605707
1	0xbe949eaa	-0.290273
2	0xbebac7ab	-0.3648046
3	0xbf1f1ba7	-0.6215157
4	0xbf3a1bba	-0.7269856
5	0x3f063d08	0.52436876
6	0x3cac5f8a	0.02104165
7	0x3f087a2e	0.5331143
8	0x3ee986f1	0.45610765
9	0x3f100384	0.56255364
10	0x3f3afa58	0.73038244
11	0xbf2fb2e9	-0.6863237
12	0xbf02698f	-0.5094232
13	0x3e76c7f8	0.2409972
14	0x3efced4c	0.49399793
15	0x3e81ba84	0.25337613
16	0x3f284016	0.6572279
17	0xbe913dbb	-0.2836741
18	0xbf03db07	-0.51506084
19	0xbefb26d7	-0.4905307

gat_layer_0.attention_3.W f4 [5, 10]
0	0xbeb3099e	-0.34968275
1	0xbddafca7	-0.10692721
2	0x3daec4bb	0.08533617
3	0x3ec8835d	0.39162722
4	0xbe94269f	-0.28935716
5	0xbf4c3f81	-0.797844
6	0xbf247b2c	-0.64250445
7	0x3f5cff26	0.86326826
8	0xbd7ad6cf	-0.061240014
9	0xbf04e426	-0.51910627
10	0xbf311bde	-0.69183147
11	0x3e209509	0.15681852
12	0x3dfd5e1f	0.12371468
13	0x3e127e82	0.14306071
14	0xbed41e47	-0.4142935
15	0xbf132732	-0.5748168
16	0xbf266302	-0.64994824
17	0x3e353b39	0.17698373
18	0x3f108f8b	0.5646903
19	0x3e21c3c7	0.1579734
20	0x3f14e275	0.58158046
21	0x3f370076	0.7148508
22	0xbe82bc54	-0.25534308
23	0x3deba55a	0.11506148
24	0x3eb39e8e	0.35081905
25	0xbf28f60c	-0.6600044
26	0x3ed88dc9	0.42295673
27	0xbf1b9939	-0.60780674
28	0xbf02e066	-0.51123655
29	0x3eb5251c	0.35379875
30	0xbde9f567	-0.1142376
31	0xbc7e5152	-0.015522318
32	0xbf19d6f7	-0.60093635
33	0x3ef70db7	0.4825265
34	0x3f22b702	0.635605
35	0xbf3b8b03	-0.7325899
36	0xbef4f516	-0.47843236
37	0xbf2f9852	-0.685918
38	0x3f2042b0	0.6260176
39	0x3e3e10f7	0.18561159
40	0x3f2e8e9e	0.68186367
41	0x3ea67c4f	0.32516715
42	0xbf412f19	-0.7546249
43	0x3ee77900	0.45209503
44	0x3e0c5e3f	0.13707827
45	0xbeb52c89	-0.3538554
46	0xbf2208da	-0.63294756
47	0x3e23a976	0.15982613
48	0x3f2fec2f	0.6871976
49	0xbf27c340	-0.655323

gat_layer_0.attention_3.a f4 [20, 1]
0	0xbea87772	-0.3290363
1	0x3d2673f9	0.040637944
2	0x3efae5e3	0.49003515
3	0x3f3f26e8	0.7466874
4	0x3f272d3c	0.653034
5	0x3f2abb8f	0.6669244
6	0xbd186eec	-0.03721516
7	0x3f3ed82f	0.7454862
8	0x3da3d4ba	0.07999559
9	0xbf053e62	-0.52048314
10	0xbe82c568	-0.25541234
11	0xbf14160f	-0.5784616
12	0xbd6aea6c	-0.05735247
13	0xbf254870	-0.64563656
14	0xbebf0f5a	-0.373164
15	0x3da45618	0.080242336
16	0x3ef23cc1	0.47311977
17	0x3c975efd	0.018477911
18	0x3ee32507	0.44364187
19	0x3dfc0f86	0.12307648

gat_layer_0.attention_4.W f4 [5, 10]
0	0xbe9eec0e	-0.3103947
1	0xbf3e4c5b	-0.7433526
2	0x3f493d36	0.78609025
3	0x3eaf126c	0.34193742
4	0x3bbbd9f3	0.0057327687
5	0x3e9ba62f	0.30400226
6	0x3ef02a0a	0.46907073
7	0x3e838306	0.256859
8	0xbeaec4c6	-0.341345
9	0xbf299921	-0.6624928
10	0xbe00f44d	-0.12593193
11	0xbeeb3bed	-0.45944157
12	0xbf5d6534	-0.8648255
13	0xbf1573e8	-0.58379984
14	0x3ecf4cec	0.40488374
15	0x3f006278	0.5015025
16	0xbf267a5d	-0.6503046
17	0xbe89e20a	-0.26930267
18	0x3eada098	0.33911586
19	0x3eda4a56	0.4263484
20	0xbf2fd2bf	-0.6868095
21	0x3f03e096	0.51514566
22	0xbea20360	-0.316432
23	0xbee9879f	-0.45611283
24	0xbf2c1b32	-0.67228997
25	0x3e6cf5ce	0.23140642
26	0x3dc65155	0.096834816
27	0x3efa022a	0.48829776
28	0xbe1bfdc8	-0.15233529
29	0x3f2596e0	0.6468334
30	0xbe4e7979	-0.20163526
31	0xbe8126e9	-0.25225
32	0xbeef3dd3	-0.46726856
33	0x3f12fe60	0.57419395
34	0xbf62c541	-0.88582236
35	0x3e49619b	0.1966614
36	0xbf38d078	-0.721931
37	0xbeebd192	-0.46058327
38	0xbf4a9a96	-0.7914213
39	0x3f398757	0.7247214
40	0xbf1e820e	-0.619172
41	0x3f3f9c10	0.7484751
42	0x3f132147	0.5747265
43	0xbd8a693a	-0.067583516
44	0xbe831140	-0.25599098
45	0x3f4d144b	0.8010909
46	0x3f4fda34	0.81192327
47	0x3f4db111	0.80348307
48	0xbf525a58	-0.82169104
49	0x3e1bfea5	0.15233858

gat_layer_0.attention_4.a f4 [20, 1]
0	0x3cc49586	0.02399708
1	0xbee7218f	-0.4514279
2	0xbeefadc4	-0.4681226
3	0xbedaecc2	-0.42758757
4	0xbe8fba65	-0.28071895
5	0x3f0be491	0.5464564
6	0x3eda01be	0.42579454
7	0x3e2693b0	0.16267276
8	0xbee5ca98	-0.4488113
9	0x3ec69db4	0.38792193
10	0x3f274b81	0.65349585
11	0x3f244d7a	0.6418072
12	0xbe6ea0f4	-0.23303586
13	0x3f15984d	0.5843552
14	0x3ec4b6b8	0.38420653
15	0x3f045290	0.5168848
16	0x3ed3f433	0.41397247
17	0x3efa48a1	0.48883536
18	0x3f0e8d2d	0.5568417
19	0xbf10e038	-0.5659213

gat_layer_0.out_att.W f4 [50, 5]
0	0xbed3d1d2	-0.41371018
1	0xbe8c6594	-0.27421248
2	0x3cb6c107	0.02230884
3	0xbe730dbb	-0.23735707
4	0xbe8725a7	-0.26395914
5	0xbef4426f	-0.47706935
6	0x3d885ea1	0.06658674
7	0xbe8fcf6f	-0.28087947
8	0x3dfe886e	0.12428366
9	0xbe4c1fda	-0.19934025
10	0x3e966c4e	0.29379505
11	0xbeaf9274	-0.34291422
12	0x3e4b8690	0.1987555
13	0xbc014f6a	-0.007892469
14	0x3e8140f5	0.2524487
15	0xbd238034	-0.039917186
16	0xbe3e18bd	-0.18564124
17	0x3dcf0b01	0.10109521
18	0x3ead92a9	0.33900955
19	0xbebc4334	-0.36770022
20	0x3ec8aefd	0.39196005
21	0xbd435848	-0.047691613
22	0x3e0e8c75	0.13920768
23	0x3e6a85ef	0.22902654
24	0x3ee159ba	0.44013768
25	0xbe992f7b	-0.29919037
26	0x3cae6a50	0.021290928
27	0x3ebb4556	0.36576337
28	0x3e8fd36d	0.28090993
29	0xbe49c672	-0.19704607
30	0x3ece9042	0.40344435
31	0x3e7454ec	0.2386052
32	0xbeaab273	-0.3333927
33	0xbe9c059e	-0.30473036
34	0x3e332a55	0.17496617
35	0xbef78586	-0.48344058
36	0x3cac0ad3	0.021001255
37	0x3e86e25b	0.2634457
38	0xbe938874	-0.28815043
39	0x3c7db597	0.015485189
40	0x3e3b4a11	0.18289973
41	0xbe83ae41	-0.25718883
42	0xbd4c8aa8	-0.04993692
43	0x3dd44a31	0.103657134
44	0x3cb757ad	0.022380674
45	0xbeb76525	-0.35819355
46	0x3e6969c8	0.22794259
47	0xbe077293	-0.132273
48	0xbe92780e	-0.2860722
49	0x3e86b0d5	0.26306787
50	0xbe9dc9d4	-0.30818045
51	0x3e778e26	0.24175319
52	0xbe42b027	-0.1901251
53	0xbe894fea	-0.26818782
54	0xbdbf291e	-0.09334014
55	0xbe43e366	-0.19129714
56	0x3e511d48	0.20421326
57	0xbc748df7	-0.014926425
58	0x3e6f1ba1	0.23350383
59	0xbe9f02a7	-0.3105671
60	0xbcf740fb	-0.030182352
61	0x3ea3d868	0.32001042
62	0xbec87b40	-0.39156532
63	0x3ec51118	0.38489604
64	0x3ea492c2	0.32143217
65	0x3dddf927	0.10838538
66	0x3e539f1e	0.20666167
67	0xbe8c2fbc	-0.27380168
68	0x3e5b746c	0.2143113
69	0x3ee9d520	0.45670414
70	0x3cc40810	0.023929626
71	0xbee910bf	-0.4552059
72	0x3e89b724	0.26897538
73	0xbeaee1ce	-0.3415665
74	0x3edbfc77	0.42966053
75	0xbd9a32eb	-0.07529243
76	0xbd8d8196	-0.06909482
77	0xbd48a67a	-0.04898689
78	0x3eb09a26	0.34492606
79	0xbedf3f0b	-0.43602785
80	0xbe645cbb	-0.22300999
81	0x3e82c343	0.25539598
82	0xbe239501	-0.15974809
83	0x3ee9a591	0.4563413
84	0x3ed3a616	0.4133765
85	0x3d61b82a	0.055107273
86	0xbe325ad3	-0.17417459
87	0x3e618139	0.22021951
88	0xbc99b8c6	-0.018764865
89	0x3e283346	0.1642581
90	0xbedffd73	-0.43748054
91	0xbd31a139	-0.043366645
92	0xbc582580	-0.013192534
93	0x3d880179	0.06640906
94	0x3ec2ef5e	0.38073248
95	0x3e9f4bc6	0.31112498
96	0xbe90698d	-0.2820553
97	0xbe73181a	-0.23739663
98	0x3ec3a062	0.382083
99	0x3e71ca40	0.23612309
100	0x3e43b1ec	0.1911084
101	0xbeda2afe	-0.42610925
102	0xbd9107aa	-0.0708154
103	0xbd70f7b5	-0.05882998
104	0x3ebfa468	0.3743012
105	0x3e98f825	0.2987682
106	0x3ea29faa	0.3176244
107	0xbcdfd275	-0.027322033
108	0xbe4a051c	-0.19728512
109	0xbed2a02b	-0.41137823
110	0x3ec5d4d9	0.38638952
111	0x3e93cf08	0.2886889
112	0xbe81dfbe	-0.25366014
113	0xbe113783	-0.14181332
114	0x3e9ef19d	0.3104371
115	0x3c6dc270	0.01451169
116	0xbe15d962	-0.14633706
117	0xbe37583d	-0.17904754
118	0x3e2e643c	0.17030424
119	0xbe56d93f	-0.2098131
120	0x3e11a7ce	0.14224169
121	0xbed2d964	-0.4118148
122	0x3dccc6c3	0.09998848
123	0x3dcf9cd3	0.10137334
124	0xbda31db5	-0.079646505
125	0x3d8c0fe7	0.06838971
126	0x3e183e2c	0.14867467
127	0xbe91d753	-0.28484592
128	0x3e9dd4b5	0.30826345
129	0xbe75f51d	-0.24019285
130	0xbe9ed99d	-0.310254
131	0xbe843418	-0.25820994
132	0x3ea51520	0.3224268
133	0xbeec132c	-0.46108377
134	0xbea64ae9	-0.32479027
135	0x3eb5c45b	0.3550137
136	0xbd12eaf4	-0.0358686
137	0xbed3a9ac	-0.41340387
138	0x3ee4a783	0.4465905
139	0xbeac9904	-0.33710492
140	0xbe70b4a9	-0.23506416
141	0xbdb79418	-0.089637935
142	0x3e8873a1	0.26650718
143	0xbed05255	-0.40687814
144	0x3e9b2579	0.30302027
145	0x3ed00071	0.40625337
146	0xbe29993f	-0.16562365
147	0x3e5f47de	0.21804759
148	0xbea2adbc	-0.31773174
149	0xbeb2fcc3	-0.34958467
150	0x3b86510b	0.0040990165
151	0x3ebd1d24	0.36936295
152	0xbd8f7f15	-0.07006661
153	0xbec56074	-0.3855015
154	0x3dd389d8	0.10329026
155	0x3e922895	0.28546587
156	0xbe1efdcd	-0.15526505
157	0xbee1b9e3	-0.44087133
158	0x3e759f92	0.23986652
159	0x3e33eed4	0.17571574
160	0xbec36da7	-0.38169596
161	0x3e4f3749	0.20235933
162	0xbebca0f2	-0.36841542
163	0x3e9b21c4	0.302992
164	0x3ed6a7b5	0.41924825
165	0xbed39d3d	-0.413309
166	0x3e3fd92a	0.18735185
167	0x3ed79242	0.42103773
168	0x3e2af3b0	0.16694522
169	0x3ee7733a	0.45205098
170	0xbe4b2650	-0.19838834
171	0xbe6ce276	-0.23133263
172	0x3ee81959	0.4533184
173	0x3eb502c7	0.3535368
174	0xbeb881e2	-0.36036593
175	0xbe0fca90	-0.14042115
176	0x3ecedfc1	0.40405086
177	0x3c25a2ab	0.010109584
178	0x3ec844d7	0.3911502
179	0x3e139400	0.14411926
180	0x3e549dc6	0.20763311
181	0x3eb63a9d	0.35591593
182	0x3e92e8b1	0.28693154
183	0xbeb8872d	-0.3604063
184	0x3d777590	0.06041485
185	0xbeafc407	-0.34329244
186	0x3e51502e	0.20440742
187	0x3e849526	0.2589504
188	0x3def89d5	0.11696211
189	0xbe808c4a	-0.25107032
190	0xbea5ac9a	-0.32358247
191	0x3e957164	0.29188073
192	0x3d88096e	0.066424236
193	0xbe97da13	-0.29658565
194	0xbec07e70	-0.37596464
195	0x3eb0c4d2	0.34525162
196	0x3e634c43	0.2219706
197	0xbea58a13	-0.32331905
198	0x3e1abccd	0.15111084
199	0x3cfc6f89	0.030814903
200	0xbe45a427	-0.193009
201	0x3eb056de	0.34441274
202	0x3e991a87	0.2990305
203	0xbdc6f32b	-0.09714349
204	0xbe3e6e2f	-0.18596719
205	0x3b1014ba	0.002198501
206	0x3ea85a81	0.3288155
207	0x3dadf564	0.0849407
208	0x3e9a8639	0.3018053
209	0xbe6fe4d9	-0.23427142
210	0x3dec5083	0.11538794
211	0x3e80c57a	0.25150663
212	0x3d2b1e3e	0.041776888
213	0xbd8c37eb	-0.06846603
214	0x3e5ed884	0.21762282
215	0xbd977200	-0.07394791
216	0xbec64fa5	-0.3873264
217	0x3ebc2938	0.36750197
218	0xbe1675c1	-0.14693357
219	0x3e9166fa	0.28398877
220	0x3edc29b6	0.43000573
221	0x3ed3890b	0.41315493
222	0x3d170eab	0.036879223
223	0xbec540e5	-0.38526073
224	0x3db9c86d	0.09071431
225	0xbe53acc2	-0.2067137
226	0xbead00e4	-0.33789742
227	0x3c6e8df7	0.014560214
228	0xbe0500c6	-0.12988576
229	0x3e19135e	0.14948794
230	0xbdc48fed	-0.09597764
231	0xbdad01ab	-0.08447584
232	0xbed8c97a	-0.42341214
233	0x3e846173	0.25855598
234	0xbeeddd14	-0.46457732
235	0xbe27276b	-0.1632363
236	0x3c141cd7	0.009040079
237	0xbdc700f5	-0.097169794
238	0x3ebb64f3	0.36600456
239	0xbe828396	-0.25491017
240	0xbe5bd57f	-0.21468161
241	0xbee3a006	-0.44458026
242	0x3ec852f4	0.39125788
243	0xbe892550	-0.2678628
244	0x3ea7cca2	0.3277331
245	0x3ce0feef	0.027465312
246	0xbee06c1b	-0.43832478
247	0x3ec23803	0.3793336
248	0xbee663aa	-0.44997913
249	0xbe38066e	-0.17971203

gat_layer_0.out_att.a f4 [10, 1]
0	0x3e148f1a	0.14507714
1	0x3f7d0a6b	0.9884402
2	0xbf283892	-0.6571132
3	0xbede1674	-0.43376505
4	0xbedbb6ee	-0.42913002
5	0xbf45795d	-0.7713831
6	0x3ec91bcf	0.3927903
7	0xbde58fa7	-0.1120904
8	0xbf7fb364	-0.99883103
9	0xbf33cbbc	-0.7023275

gat_layer_1.attention_0.W f4 [5, 10]
0	0x3c904c44	0.017614491
1	0xbe889e88	-0.2668345
2	0x3f0d6b85	0.55242187
3	0xbf5b0c4f	-0.85565656
4	0x3ef96c4e	0.48715442
5	0xbe3aef87	-0.18255435
6	0x3ea43d12	0.32077843
7	0xbc950f3d	-0.018195743
8	0xbf3a73cb	-0.72832936
9	0xbf0c154a	-0.54719985
10	0x3f3673d1	0.7127047
11	0xbf4997cd	-0.78747255
12	0xbed91178	-0.4239614
13	0xbdc7fa80	-0.09764576
14	0xbf51fc2a	-0.82025397
15	0xbbc62c80	-0.0060477853
16	0xbf359c5d	-0.70941716
17	0xbf37ee0b	-0.718476
18	0xbf22c691	-0.6358424
19	0x3f095704	0.536484
20	0x3ee81116	0.45325536
21	0xbf2a8ea7	-0.6662392
22	0x3f3e083a	0.742313
23	0xbe7b5774	-0.2454508
24	0x3f2c63a4	0.6733954
25	0x3d173159	0.036912296
26	0xbef7b0d6	-0.48377103
27	0x3f62dc98	0.8861785
28	0x3e031ce6	0.12803993
29	0x3f485336	0.7825197
30	0x3deb89f1	0.115009196
31	0xbf48af66	-0.78392637
32	0x3ec2ad29	0.38022736
33	0xbdfa23fd	-0.122138955
34	0x3e656d3f	0.22404955
35	0x3f5916fa	0.84800684
36	0xbf065344	-0.52470803
37	0xbf2aa5df	-0.6665935
38	0xbe6229fe	-0.22086331
39	0xbd2caad6	-0.04215511
40	0xbe65b5d5	-0.22432645
41	0x3f41f337	0.7576174
42	0x3f552ebe	0.8327445
43	0x3f3cdac7	0.7377133
44	0xbf5634fc	-0.836746
45	0xbf1d8558	-0.6153159
46	0x3f1f1a17	0.62149185
47	0xbea8dafc	-0.32979572
48	0x3f06710a	0.52516234
49	0x3edf9830	0.43670797

gat_layer_1.attention_0.a f4 [20, 1]
0	0x3e3f9b46	0.18711576
1	0xbf056997	-0.5211424
2	0xbe596da5	-0.21233232
3	0xbec98b60	-0.39364147
4	0x3f40037e	0.7500533
5	0xbf3ce181	-0.7378159
6	0xbea466cb	-0.32109675
7	0xbf38ac44	-0.72137856
8	0x3f38c4c3	0.72175235
9	0xbf26813c	-0.65040946
10	0x3f3c8274	0.73636556
11	0xbe224f69	-0.15850605
12	0xbe524119	-0.20532645
13	0xbe116457	-0.14198433
14	0x3f2e9d90	0.6820917
15	0x3e4fe291	0.20301272
16	0x3ee9c612	0.45658928
17	0xbe5ec303	-0.21754079
18	0xbf393a87	-0.7235493
19	0xbe3c19f8	-0.18369281

gat_layer_1.attention_1.W f4 [5, 10]
0	0x3f06e2d7	0.5268988
1	0xbc7f83ae	-0.01559536
2	0x3f04572b	0.5169551
3	0x3efbf384	0.49209225
4	0xbedef486	-0.43545932
5	0xbe87c697	-0.265187
6	0x3d13d8b5	0.03609534
7	0x3d885848	0.06657463
8	0xbf11981f	-0.56872743
9	0x3e1b0cf5	0.15141661
10	0xbf5fbba0	-0.8739567
11	0x3dc6f5b3	0.09714832
12	0xbf344bee	-0.7042836
13	0x3f5907ce	0.84777534
14	0xbe6d95f5	-0.23201735
15	0xbeae4fff	-0.34045407
16	0x3e1dc7f7	0.15408312
17	0xbf4ab56a	-0.79183066
18	0x3ee89c07	0.4543154
19	0x3ec5ca8e	0.386311
20	0x3f04e44b	0.5191085
21	0xbf245da6	-0.64205396
22	0xbf555e1d	-0.8334673
23	0xbeb07ccf	-0.3447022
24	0xbe5aabcf	-0.21354602
25	0xbe437d31	-0.19090725
26	0x3f18a9bd	0.59634
27	0xbde5d4fe	-0.11222266
28	0xbf0c93f5	-0.54913265
29	0xbeb78241	-0.35841563
30	0x3dc0c59a	0.094126895
31	0x3e985b37	0.2975709
32	0xbf39ef46	-0.7263073
33	0x3ed0b4a2	0.40762812
34	0xbe819d4e	-0.25315326
35	0x3eaa7383	0.33291253
36	0xbdfce6cc	-0.123487085
37	0xbe751afb	-0.23936073
38	0xbe5ea8fe	-0.21744153
39	0x3e2ad472	0.16682604
40	0xbf38c081	-0.7216874
41	0x3f06f7ee	0.5272206
42	0xbef48972	-0.47761112
43	0xbeb50239	-0.35353258
44	0x3e7618af	0.24032854
45	0x3dc33204	0.09531024
46	0x3e20c7fd	0.1570129
47	0xbf5eb1b8	-0.8698993
48	0xbed896b7	-0.42302486
49	0xbdadf20d	-0.08493433

gat_layer_1.attention_1.a f4 [20, 1]
0	0xbf0e7437	-0.5564608
1	0x3e118b8e	0.14213392
2	0xbe1b568c	-0.15169734
3	0xbec4ead7	-0.3846042
4	0x3e5d1486	0.2158986
5	0xbe0b19e6	-0.13584098
6	0x3c002a5b	0.007822598
7	0x3f3ec747	0.74522823
8	0xbecf87c7	-0.40533277
9	0xbe8965bb	-0.26835427
10	0x3f1b4090	0.6064539
11	0x3cdfad23	0.027304238
12	0x3ee2e1c6	0.44312876
13	0xbf257811	-0.6463633
14	0x3a6c9183	0.00090243685
15	0xbec014fc	-0.3751601
16	0xbeb26459	-0.34842184
17	0x3f35934c	0.7092788
18	0xbd3a0696	-0.045416437
19	0x3f2758c1	0.653698

gat_layer_1.attention_2.W f4 [5, 10]
0	0xbdbcd199	-0.09219665
1	0xbf494883	-0.7862627
2	0xbeadfd3d	-0.33982268
3	0xbea66443	-0.3249837
4	0xbf60c653	-0.8780262
5	0xbea2ba54	-0.31782782
6	0x3f42a9bf	0.7604026
7	0xbe3a7f1d	-0.18212552
8	0x3eab4752	0.3345285
9	0xbd0253a3	-0.031818043
10	0x3ef9d0fc	0.48792255
11	0xbf4f25ae	-0.8091687
12	0x3ca275bf	0.019831536
13	0x3f1bc57b	0.60848206
14	0x3f5dee47	0.8669171
15	0xbea58d68	-0.32334447
16	0xbed448f0	-0.41461897
17	0xbe37fcda	-0.17967549
18	0xbf0800c8	-0.5312619
19	0xbc4badaf	-0.012431546
20	0x3de5846d	0.11206899
21	0x3ee6a25b	0.45045742
22	0xbf344a46	-0.7042583
23	0x3f1be3c0	0.60894394
24	0x3ef804bb	0.4844111
25	0x3ed72783	0.42022333
26	0xbf4a2d48	-0.78975344
27	0x3e6e5f52	0.2327855
28	0x3d5c9486	0.05385258
29	0x3e5f1d31	0.2178848
30	0x3dfdedde	0.12398885
31	0xbcb8aa45	-0.022542128
32	0x3e3b038f	0.18263076
33	0x3e15f42a	0.14643922
34	0x3f223d05	0.6337436
35	0xbe5ea979	-0.21744336
36	0xbef2c4d6	-0.474158
37	0xbe48ec38	-0.1962136
38	0x3c71e1eb	0.014763336
39	0x3eaf4079	0.34228876
40	0x3e60a33c	0.21937269
41	0xbe9329de	-0.2874288
42	0xbf29563c	-0.6614721
43	0x3f4cfabd	0.80070096
44	0x3f204c4e	0.6261643
45	0xbe54014c	-0.2070362
46	0x3ebb47af	0.36578128
47	0xbb2c97b5	-0.0026335542
48	0x3e11b1cc	0.1422798
49	0x3db460a1	0.08807493

gat_layer_1.attention_2.a f4 [20, 1]
0	0x3eca90ca	0.3956359
1	0x3f0e97db	0.55700463
2	0xbe9c6a6e	-0.3054995
3	0x3f17f63e	0.5936011
4	0x3f1e5dad	0.6186169
5	0xbf34d68a	-0.7063986
6	0xbece8fe4	-0.40344155
7	0x3c65ec01	0.0140333185
8	0xbf320e48	-0.6955304
9	0x3e88530e	0.26625866
10	0x3f38bd89	0.7216421
11	0x3caf7774	0.021419264
12	0xbc94dd88	-0.01817204
13	0xbe922cc8	-0.2854979
14	0xbf2860bc	-0.65772605
15	0xbf001a5e	-0.50040233
16	0x3ea3fe29	0.32029846
17	0xbd7ca47e	-0.06168031
18	0xbe244b40	-0.1604433
19	0xbe2c9fa3	-0.16857772

gat_layer_1.attention_3.W f4 [5, 10]
0	0x3f10b03d	0.5651892
1	0xbf65614e	-0.896016
2	0x3ed78c8c	0.42099416
3	0xbf6287c0	-0.8848839
4	0x3f41869b	0.75596017
5	0xbe37ae9a	-0.17937699
6	0xbf25577e	-0.6458663
7	0xbf4cde44	-0.8002665
8	0x3f68dd44	0.90962625
9	0xbd96a1e4	-0.07355097
10	0x3dada15f	0.08478045
11	0xbefffd4e	-0.49997944
12	0xbe0055f0	-0.12532783
13	0x3f303ddd	0.68844396
14	0x3f12fed2	0.57420075
15	0x3f0bd21b	0.5461747
16	0xbec7e66a	-0.3904298
17	0x3e85eaae	0.2615561
18	0x3f342417	0.7036757
19	0x3f3173a2	0.69317067
20	0x3f2e7592	0.6814815
21	0x3edfd093	0.43713817
22	0xbe1aef94	-0.15130454
23	0xbf387768	-0.720572
24	0xbf25c7bc	-0.64757895
25	0x3f3f8af9	0.7482143
26	0x3f25125b	0.64481133
27	0x3d9f6402	0.07782747
28	0xbf2a7b30	-0.6659422
29	0x3d9efd65	0.07763175
30	0xbe99a101	-0.3000565
31	0xbf5a4b56	-0.85271204
32	0xbebed272	-0.37269932
33	0xbecf630f	-0.40505263
34	0x3f332f81	0.6999436
35	0xbe8bc155	-0.27295938
36	0x3e5e7dab	0.21727626
37	0xbe99b086	-0.3001749
38	0x3eebee00	0.46080017
39	0xbf2273a8	-0.6345773
40	0xbf174453	-0.5908863
41	0x3f310631	0.6915007
42	0xbf57685a	-0.841436
43	0xbef338b8	-0.4750421
44	0x3f26946a	0.6507021
45	0x3f573e8a	0.840798
46	0xbd8f9b17	-0.07012003
47	0xbecd45fb	-0.40092453
48	0x3efa048e	0.488316
49	0x3ec3ea0d	0.38264504

gat_layer_1.attention_3.a f4 [20, 1]
0	0xbf09a3f9	-0.5376583
1	0xbe412a0b	-0.18863694
2	0xbee9c7f4	-0.45660365
3	0xbe6674d1	-0.225055
4	0xbe85b88c	-0.2611736
5	0x3efff1e3	0.49989232
6	0x3c4e7de1	0.012603254
7	0x3ed1dd8c	0.4098934
8	0x3e080c0e	0.13285848
9	0xbe8fdb27	-0.28096887
10	0x3f083d02	0.5321809
11	0xbe43dcfb	-0.19127266
12	0xbecd3782	-0.40081412
13	0x3f35eae8	0.71061563
14	0xbebc9835	-0.36834875
15	0xbd74702d	-0.05967729
16	0x3efc3bec	0.49264467
17	0x3f19f649	0.60141426
18	0xbeb4adce	-0.35288852
19	0x3edf5802	0.43621832

gat_layer_1.attention_4.W f4 [5, 10]
0	0x3f56729f	0.8376865
1	0x3eda4e3e	0.4263782
2	0x3eecdfe5	0.46264568
3	0x3dadaab7	0.08479827
4	0x3e1be786	0.15225038
5	0x3df1e13e	0.1181054
6	0xbf0f9441	-0.5608559
7	0x3f2ee3c5	0.683163
8	0xbf1b7afb	-0.6073453
9	0x3edc5d1e	0.43039793
10	0xbec0edc5	-0.37681404
11	0xbf515489	-0.81769615
12	0x3ef3894e	0.47565693
13	0x3f2fdda1	0.68697554
14	0x3f4a3846	0.78992116
15	0x3f32c350	0.69829273
16	0xbf20e7f4	-0.6285393
17	0x3f29c1de	0.6631144
18	0xbf5c3074	-0.86011434
19	0x3f0fab6b	0.5612094
20	0xbdff39e7	-0.12462216
21	0x3f57e57f	0.8433456
22	0xbf4d6a68	-0.8024049
23	0xbe420c3d	-0.18949981
24	0xbf502624	-0.813082
25	0xbf1e2ea9	-0.6178995
26	0xbf58bb6e	-0.84660995
27	0x3e247e29	0.16063751
28	0xbefe4ff3	-0.4967037
29	0xbf298fbf	-0.66234964
30	0xbf28a6e0	-0.6587963
31	0xbf31aaea	-0.6940142
32	0x3f12f8cb	0.5741088
33	0xbe55be70	-0.20873427
34	0x3f447a13	0.7674877
35	0x3f1c3e7b	0.6103284
36	0x3f4add07	0.7924351
37	0xbe8faed9	-0.28063086
38	0x3da528ce	0.080644235
39	0xbe82b384	-0.25527585
40	0xbeed701c	-0.46374595
41	0xbee882eb	-0.45412382
42	0x3f3b66be	0.7320365
43	0x3f4303de	0.76177776
44	0x3f15e46e	0.5855168
45	0xbf434a19	-0.7628494
46	0xbd99db87	-0.07512575
47	0x3ef87de5	0.4853355
48	0x3f4e146d	0.8049992
49	0x3ea25f89	0.31713513

gat_layer_1.attention_4.a f4 [20, 1]
0	0xbf4320a7	-0.762217
1	0xbedc4fe4	-0.43029702
2	0xbec5cb7b	-0.38631806
3	0x3d8c5d50	0.068537354
4	0x3edd5cfd	0.43235007
5	0x3ead14dd	0.3380498
6	0x3eb24e6f	0.34825465
7	0x3e0c4170	0.13696837
8	0x3f39c385	0.72563964
9	0x3efbbc13	0.49166927
10	0x3d7a872f	0.061164077
11	0x3dff6cb4	0.12471905
12	0xbf14e3cc	-0.5816009
13	0x3ecf336f	0.40468928
14	0xbf26cbf9	-0.6515499
15	0x3f17f3e3	0.59356517
16	0x3f0d18a7	0.5511574
17	0xbe752845	-0.23941143
18	0xbe92e7c0	-0.28692436
19	0x3ed698ff	0.41913602

gat_layer_1.out_att.W f4 [50, 5]
0	0x3e121982	0.14267543
1	0x3d37e885	0.044899482
2	0x3cf0b454	0.029382862
3	0x3cd491e9	0.025948482
4	0xbd068f48	-0.032851487
5	0x3ed78f8e	0.4210171
6	0x3eca32b8	0.3949182
7	0xbd9788b8	-0.07399124
8	0x3eb53d20	0.35398197
9	0x3e2a543f	0.166337
10	0x3ddaacd8	0.106774986
11	0x3dfa4435	0.12220041
12	0xbecb91af	-0.39759585
13	0x3e482b2c	0.19547719
14	0x3e5cfade	0.21580073
15	0x3de76851	0.11299194
16	0x3c562940	0.013071358
17	0x3dc608a6	0.09669618
18	0xbe5f54bb	-0.21809666
19	0xbee2d045	-0.44299522
20	0xbe096d56	-0.13420615
21	0xbe0152e1	-0.12629272
22	0xbe66ea72	-0.22550371
23	0x3ee27a4a	0.44233924
24	0x3ecd792c	0.4013151
25	0x3ea4b7b3	0.321714
26	0x3dd19031	0.102325805
27	0x3e540b5e	0.20707461
28	0x3e4072a4	0.18793732
29	0xbe84bad8	-0.259238
30	0xbec74ee4	-0.38927376
31	0xbed6b397	-0.4193389
32	0x3e86df5e	0.2634229
33	0x3ddabe46	0.10680823
34	0xbe871653	-0.2638422
35	0xbebda90b	-0.37043032
36	0xbe967469	-0.2938569
37	0xbe01c059	-0.12671031
38	0x3d6064e6	0.054783724
39	0x3c22f80f	0.009946837
40	0x3ee44d6a	0.44590312
41	0x3e13e053	0.14441042
42	0xbe996019	-0.2995613
43	0x3e7196b1	0.2359264
44	0xbe5599f9	-0.20859517
45	0x3da85d4f	0.08220922
46	0x3eeffdc2	0.4687329
47	0x3e80bc9c	0.25143898
48	0x3d5bf7b9	0.053703044
49	0x3ed994ab	0.42496237
50	0xbe80d4aa	-0.2516225
51	0xbc772a40	-0.015085757
52	0xbd7309f1	-0.059335653
53	0xbec06753	-0.3757883
54	0xbd200020	-0.03906262
55	0xbec1be5f	-0.37840554
56	0xbd8a9e30	-0.06768453
57	0x3c7b87ee	0.015352232
58	0x3e29b399	0.16572417
59	0xbebc21ee	-0.36744636
60	0x3eb4b6e0	0.35295773
61	0xbe54046d	-0.20704813
62	0xbe72548c	-0.23665065
63	0x3e9e16cd	0.3087677
64	0xbee084e3	-0.43851385
65	0x3ec71a55	0.38887277
66	0x3ec2bba4	0.38033783
67	0x3e0ecfe9	0.13946499
68	0x3d1230bd	0.03569101
69	0x3ec679a7	0.38764688
70	0x3c32425e	0.010880081
71	0xbc9f2c37	-0.019430263
72	0x3cbc971f	0.023021279
73	0x3e940ff0	0.2891841
74	0x3e94b168	0.290416
75	0xbef0c7f3	-0.4702755
76	0xbe449454	-0.19197208
77	0xbe26ac60	-0.16276693
78	0xbebd3d3b	-0.36960778
79	0x3eddc9b1	0.4331794
80	0xbe105fad	-0.14098997
81	0x3df320c9	0.11871488
82	0x3da8349d	0.0821316
83	0xbc732aa3	-0.014841708
84	0x3e5ab576	0.21358284
85	0xbc92eadf	-0.01793426
86	0xbea524fc	-0.3225478
87	0x3e8c7f52	0.27440888
88	0x3dbb6434	0.091499716
89	0x3e1b6be5	0.15177877
90	0xbd8d012c	-0.06884989
91	0x3e114b8f	0.1418898
92	0xba39be28	-0.00070855254
93	0x3e19202c	0.14953679
94	0x3b87295c	0.0041248035
95	0x3edc87f1	0.43072465
96	0x3ed09538	0.40738845
97	0xbe18e133	-0.14929657
98	0xbe8da1cb	-0.276625
99	0x3e17a2aa	0.14808145
100	0x3e618943	0.22025017
101	0x3e12a4cb	0.14320676
102	0xbec011ba	-0.37513524
103	0x3d5b7e7f	0.053587433
104	0xbecbbdcf	-0.3979325
105	0x3cae7f6f	0.021301
106	0x3d5c3418	0.053760618
107	0x3e926853	0.28595218
108	0xbd1eb7d3	-0.038749527
109	0xbeab64ae	-0.3347525
110	0xbec6f1f7	-0.3885648
111	0x3ea7b92e	0.32758468
112	0x3ebc02a4	0.36720765
113	0x3ed786a0	0.42094898
114	0xbe66c37c	-0.22535509
115	0xbef34979	-0.47516993
116	0x3e29b017	0.16571079
117	0x3e15bbef	0.14622472
118	0x3e603e9b	0.21898882
119	0xbeac19d0	-0.33613443
120	0xbe8d8695	-0.2764174
121	0x3e84455e	0.25834173
122	0x3eb1b27f	0.34706494
123	0x3ef2b333	0.47402343
124	0xbe8c7210	-0.27430773
125	0x3e056765	0.13027723
126	0x3e1c5ac8	0.15269005
127	0xbdf06168	-0.11737329
128	0xbebf4c1c	-0.37362754
129	0xbedc2fcd	-0.4300522
130	0xbebffbf4	-0.37496912
131	0x3dddfd89	0.108393736
132	0x3b84c5d7	0.0040519047
133	0x3e935c02	0.28781134
134	0x3e404d2c	0.18779439
135	0x3e8da1d8	0.2766254
136	0x3e10aa4f	0.14127468
137	0xbe70c9a2	-0.23514417
138	0x3ed8895e	0.42292303
139	0xbedbd226	-0.42933768
140	0x3e0e3084	0.13885695
141	0xbd9c9b0b	-0.076467596
142	0x3e6bd7d4	0.2303155
143	0x3ecbf9c2	0.39838988
144	0xbe0723be	-0.13197228
145	0xbe344a35	-0.17606433
146	0xbe250408	-0.16114819
147	0xbee29f1f	-0.44262025
148	0x3db3c1a9	0.08777172
149	0x3e870475	0.26370588
150	0xbec1d453	-0.37857303
151	0xbdcc86c9	-0.09986646
152	0x3d2d1a35	0.04226132
153	0x3cbc72bd	0.02300393
154	0xbee90901	-0.45514682
155	0x3eb1db48	0.3473761
156	0x3e67b653	0.22628145
157	0xbea56870	-0.32306242
158	0xbea61a5e	-0.32441992
159	0xbd3d02b7	-0.046145167
160	0xbe5e3b74	-0.21702367
161	0xbe650241	-0.22364141
162	0x3eab5acd	0.33467713
163	0xbed9a1cf	-0.42506263
164	0x3e4a4827	0.19754086
165	0xbecf530f	-0.40493056
166	0xbeb925dd	-0.361617
167	0x3e96be9e	0.29442304
168	0xbddb01a2	-0.10693671
169	0x3c8d3c63	0.017240709
170	0x3ed2ca56	0.41169995
171	0x3e69f362	0.2284675
172	0xbe0bca01	-0.13651277
173	0x3ec661cb	0.38746485
174	0xbed77d0b	-0.42087588
175	0x3e5ab202	0.21356967
176	0xbdbcdda6	-0.092219636
177	0xbe9f240b	-0.31082186
178	0x3d4bbd63	0.04974116
179	0x3eaeb2a3	0.34120664
180	0xbdeb9830	-0.11503637
181	0x3cbfe9ff	0.023427008
182	0x3e05b892	0.13058689
183	0xbe977db2	-0.29588085
184	0x3ed57780	0.41692734
185	0xbeca1914	-0.39472258
186	0x3ea830fe	0.32849878
187	0x3e2a9929	0.16659988
188	0xbd4f9c40	-0.05068612
189	0x3e86d632	0.26335293
190	0xbe75cf9f	-0.24004982
191	0xbe69e98a	-0.22842994
192	0xbdeed995	-0.11662594
193	0xbc9d977d	-0.019237274
194	0x3ebf05ed	0.3730921
195	0x3ecd04a0	0.4004259
196	0xbf11d877	-0.56970924
197	0xbda83e91	-0.082150586
198	0x3ecd254e	0.40067524
199	0xbeb1acd2	-0.34702164
200	0xbd3ea7d3	-0.04654677
201	0xbd2042c8	-0.039126188
202	0x3e4380e6	0.1909214
203	0x3df11901	0.11772347
204	0x3ed8ac2d	0.4231886
205	0xbb874e61	-0.0041292165
206	0xbe8fd568	-0.28092504
207	0x3d87ce7c	0.06631181
208	0xbea8ca05	-0.3296663
209	0x3c9a3435	0.018823722
210	0xbecd4c1e	-0.40097135
211	0xbeafce94	-0.34337294
212	0xbec58b43	-0.3858281
213	0xbcf3f8de	-0.029781755
214	0x3e2add1d	0.1668591
215	0xbec85ef2	-0.39134938
216	0x3e963c66	0.29342955
217	0xbe0f5495	-0.13997109
218	0x3e81158e	0.25211757
219	0xbdd43be6	-0.10362987
220	0xbe1f054d	-0.15529366
221	0xbdd6d91d	-0.1049063
222	0x3ea76593	0.32694682
223	0x3ea73332	0.32656246
224	0x3e7fedab	0.24993007
225	0xbe886314	-0.2663809
226	0xbeabb0b5	-0.33533254
227	0xbbb9e16a	-0.0056726234
228	0xbea4d12e	-0.3219084
229	0x3dd58276	0.10425274
230	0xbeccaf63	-0.3997756
231	0x3dc1267b	0.09431168
232	0xbea31d43	-0.31858262
233	0xbea877cc	-0.32903898
234	0xbe944990	-0.28962374
235	0x3e1d19c4	0.1534186
236	0x3ebed891	0.37274602
237	0x3e157d38	0.14598548
238	0xbed09341	-0.40737346
239	0x3e4c6860	0.19961691
240	0x3e03f844	0.12887675
241	0x3dea58f2	0.11442746
242	0xbe8e6568	-0.27811742
243	0x3ec19a5d	0.37813082
244	0x3ed29ebe	0.41136736
245	0xbea8be6c	-0.3295778
246	0xbdcedeb6	-0.101010725
247	0xbee2ddf8	-0.44309974
248	0x3e5b8465	0.21437223
249	0xbe1c4b16	-0.15263018

gat_layer_1.out_att.a f4 [10, 1]
0	0x3f15cc9a	0.5851532
1	0xbf338f05	-0.70140105
2	0xbeb9a2d6	-0.36257046
3	0xbf87a9e6	-1.0598724
4	0xbe9b5816	-0.30340642
5	0xbed2152b	-0.41031775
6	0x3e0ce7ae	0.13760254
7	0x3f68641d	0.9077776
8	0xbf1a723c	-0.6033056
9	0xbe7e9bee	-0.2486417

gat_layer_2.attention_0.W f4 [5, 10]
0	0xbc032579	-0.00800454
1	0xbee96ee2	-0.4559241
2	0xbdf5f71f	-0.12010025
3	0xbc534a4a	-0.01289613
4	0xba26a9a8	-0.0006357678
5	0xbe921f38	-0.28539443
6	0xbec534b4	-0.38516772
7	0xbe7182b9	-0.23585023
8	0x3e82e0df	0.25562188
9	0xbf1c0100	-0.60939026
10	0x3f3f0de1	0.7463055
11	0x3f2a27bc	0.6646688
12	0x3f01bde5	0.5068038
13	0xbf225299	-0.63407284
14	0xbe164dcb	-0.14678113
15	0x3ea5a2b7	0.32350704
16	0x3d648428	0.055790097
17	0xbd8b0bde	-0.06789373
18	0x3e3e3509	0.18574919
19	0xbf0e61fd	-0.5561827
20	0xbe3a63a1	-0.18202068
21	0x3f1e9f60	0.61961937
22	0xbf69b282	-0.91288006
23	0xbf0bf303	-0.5466768
24	0x3e76f487	0.24116717
25	0x3efadfaf	0.48998782
26	0x3eee3c06	0.4653017
27	0xbf3c34d6	-0.7351812
28	0x3e0302c7	0.12794028
29	0xbdaabdb0	-0.08336961
30	0x3e6198ee	0.22030994
31	0x3f017e7a	0.5058361
32	0x3f2caf02	0.6745454
33	0x3f220dbb	0.633022
34	0xbefbd636	-0.49186867
35	0xbf49334b	-0.7859389
36	0xbe95082d	-0.291078
37	0x3f10b1a0	0.56521034
38	0xbf4b290a	-0.79359496
39	0x3e3c4404	0.18385321
40	0xbf624f73	-0.8840248
41	0xbe7f2ede	-0.24920222
42	0xbe712e5c	-0.23552841
43	0xbcb1b007	-0.021690382
44	0x3f3fee1a	0.7497269
45	0xbf0071eb	-0.50173825
46	0xbd8784ca	-0.066171244
47	0xbf4ae515	-0.792558
48	0xbf548847	-0.8302044
49	0x3f372a15	0.7154859

gat_layer_2.attention_0.a f4 [20, 1]
0	0xbed0166b	-0.40642104
1	0x3f2018a8	0.6253762
2	0xbe14296d	-0.14468928
3	0xbf3da06f	-0.7407293
4	0xbe2bd29e	-0.16779563
5	0x3f2fd233	0.68680114
6	0x3eac66d5	0.33672205
7	0xbdc3dd04	-0.0956364
8	0xbc299e3b	-0.0103526665
9	0xbf3531a8	-0.70778894
10	0xbdfbe653	-0.1229979
11	0xbe8351ec	-0.2564844
12	0xbe10f9c0	-0.14157772
13	0x3f0bb79f	0.5457706
14	0xbd4e03c0	-0.050296545
15	0x3f386923	0.72035426
16	0xbf177fa1	-0.5917912
17	0xbeb5f0cc	-0.35535276
18	0x3ee8f4fe	0.45499414
19	0xbee7e6cd	-0.45293275

gat_layer_2.attention_1.W f4 [5, 10]
0	0x3ec1f53e	0.37882417
1	0x3dd82a9d	0.10555003
2	0x3f3f6de9	0.74777085
3	0x3f1f491c	0.6222093
4	0x3e9529ec	0.29133546
5	0x3e48ceae	0.19610092
6	0x3ec2cc57	0.38046524
7	0xbf397c1a	-0.7245499
8	0x3e02d89c	0.12777942
9	0x3ee31386	0.44350833
10	0xbdf7a52e	-0.120920524
11	0xbf538dcd	-0.82638246
12	0xbf19f237	-0.60135216
13	0xbea6e873	-0.3259922
14	0xbe8a0f81	-0.26964954
15	0x3ee91c64	0.45529473
16	0x3f5449fd	0.829254
17	0x3ef2df77	0.47436115
18	0xbea1fd51	-0.31638578
19	0x3e8bf861	0.27337936
20	0x3f08744e	0.53302467
21	0xbed47a5d	-0.41499606
22	0x3f3e16c0	0.74253464
23	0x3f5eeb04	0.87077355
24	0xbdcd1e72	-0.100155726
25	0xbe90c0f5	-0.28272215
26	0x3f4bf7d8	0.79675055
27	0x3f2b0d2b	0.6681697
28	0xbea758dc	-0.32684982
29	0x3f6f3c8e	0.93451774
30	0xbea27927	-0.31733057
31	0xbebf6284	-0.3737985
32	0xbeb51b5f	-0.35372445
33	0x3f3e305a	0.7429253
34	0x3f0919dd	0.5355509
35	0xbd34bcef	-0.044125494
36	0xbf5f5314	-0.8723614
37	0x3b5e42ed	0.0033914403
38	0xbf656a6c	-0.8961551
39	0xbf2763d6	-0.6538671
40	0x3eb8b820	0.36077976
41	0x3f1ebce0	0.6200695
42	0x3f29c596	0.6631712
43	0xbeb67eaf	-0.35643527
44	0xbf0d68cb	-0.55238026
45	0xbea4d6b2	-0.3219505
46	0x3e0388f8	0.12845218
47	0xbe676d7a	-0.22600356
48	0xbca491e0	-0.02008909
49	0xbf492fa9	-0.7858835

gat_layer_2.attention_1.a f4 [20, 1]
0	0xbf2459e6	-0.64199674
1	0x3f084409	0.53228813
2	0xbe38ee7f	-0.18059729
3	0x3e017e74	0.12645894
4	0xbf354c13	-0.70819205
5	0xbf085da0	-0.5326786
6	0x3f1eae71	0.61984926
7	0x3e9ae8b8	0.30255675
8	0x3e6171f6	0.22016129
9	0xbe06dd1d	-0.13170286
10	0x3d812d2d	0.06307445
11	0xbef66324	-0.48122513
12	0x3e4c439c	0.19947666
13	0x3e39281c	0.18081707
14	0x3edfa882	0.4368325
15	0xbeb9c34f	-0.3628182
16	0x3dd3d957	0.10344189
17	0xbe910356	-0.28322858
18	0xbecf91b6	-0.40540856
19	0xbf3be3be	-0.7339438

gat_layer_2.attention_2.W f4 [5, 10]
0	0x3e7d4815	0.24734528
1	0xbf3c26be	-0.73496616
2	0xbe326996	-0.1742309
3	0x3f2e5193	0.6809322
4	0x3d81d6fc	0.06339833
5	0xbd40ec3e	-0.047100298
6	0xbd99afd6	-0.07504241
7	0x3d953c8a	0.072869375
8	0x3d29acc3	0.041424524
9	0x3f1b69a8	0.60708094
10	0x3e9e8f98	0.30968928
11	0xbf006004	-0.5014651
12	0x3f2f103a	0.68384135
13	0xbf39820b	-0.72464055
14	0x3e39dc6a	0.18150488
15	0x3e21c0e0	0.15796232
16	0xbf17f210	-0.59353733
17	0xbe81c4da	-0.25345498
18	0x3cc7b16a	0.02437659
19	0xbf3b0068	-0.73047495
20	0xbea7d218	-0.32777476
21	0x3f1e0a47	0.6173443
22	0xbf199229	-0.5998865
23	0x3e8c8756	0.27447003
24	0xbf0be5c2	-0.5464746
25	0x3dccf81b	0.1000826
26	0x3e5b14df	0.2139468
27	0x3e544852	0.20730713
28	0xbdf3e640	-0.11909151
29	0x3f483491	0.7820521
30	0x3ecf38f9	0.40473154
31	0x3f074039	0.5283237
32	0xbe1cdc8a	-0.15318504
33	0x3e8f6fc0	0.28014946
34	0xbf0c6a97	-0.54850143
35	0xbe1816ce	-0.1485245
36	0xbf3ad10b	-0.72975224
37	0xbf19a7de	-0.6002177
38	0x3e800e95	0.25011125
39	0xbeda2e18	-0.42613292
40	0xbe65e35e	-0.22450015
41	0xbf05ee6a	-0.52316916
42	0xbee3e4cd	-0.445105
43	0x3f07d2d2	0.5305606
44	0x3f563532	0.8367492
45	0xbec1734d	-0.3778328
46	0xbe99ae6d	-0.3001589
47	0x3f1c3d95	0.61031467
48	0x3e4aa2e3	0.19788699
49	0x3f6375ab	0.8885142

gat_layer_2.attention_2.a f4 [20, 1]
0	0xbe8daca0	-0.27670765
1	0xbf3d15e0	-0.73861504
2	0x3e6d0476	0.23146233
3	0x3f257af5	0.6464074
4	0xbf1ac777	-0.6046061
5	0x3f444edb	0.76682824
6	0xbf2855cb	-0.6575591
7	0xbf0d8a8e	-0.5528954
8	0xbe09d53b	-0.13460247
9	0xbe8710fd	-0.2638015
10	0x3f1e981b	0.61950845
11	0x3ea17844	0.31537068
12	0x3f1d1696	0.6136259
13	0xbe66db88	-0.22544682
14	0x3e062297	0.13099132
15	0x3e658b73	0.22416477
16	0xbd07e808	-0.033180267
17	0xbcee08a6	-0.029056858
18	0xbec25091	-0.37952092
19	0xbef7c349	-0.48391178

gat_layer_2.attention_3.W f4 [5, 10]
0	0xbf56137a	-0.8362347
1	0x3f1d345d	0.61408025
2	0xbeac024a	-0.33595496
3	0x3f320f6b	0.69554776
4	0xbedb6677	-0.42851612
5	0x3f62db18	0.8861556
6	0x3cbe3130	0.023216814
7	0x3f2c2128	0.6723809
8	0x3e440896	0.191439
9	0x3ea68e7d	0.32530585
10	0x3f5e8ef8	0.86936903
11	0x3f23b34a	0.6394545
12	0x3e06eb79	0.13175763
13	0x3f3ca6e1	0.73692137
14	0x3e088e02	0.13335422
15	0xbeb9bd73	-0.3627735
16	0xbf400446	-0.7500652
17	0x3f42a5b4	0.7603409
18	0xbf038aca	-0.5138365
19	0x3ef8cf53	0.48595676
20	0x3f494076	0.78613985
21	0x3e93343c	0.2875079
22	0xbe838509	-0.25687435
23	0xbf0dac72	-0.55341256
24	0x3f33b9e7	0.7020554
25	0x3f0750a2	0.5285741
26	0x3db7a1a9	0.08966381
27	0xbef560e0	-0.47925472
28	0xbf3d7fc5	-0.74023086
29	0x3ec5435a	0.38527948
30	0x3c44f0dc	0.012020316
31	0xbf80b65f	-1.0055655
32	0x3f5832e3	0.84452647
33	0x3e34f839	0.17672814
34	0x3edabe56	0.4272334
35	0xbf433760	-0.7625637
36	0xbdbad2f6	-0.09122269
37	0x3e8aaf44	0.27086842
38	0x3e471bc1	0.19444181
39	0xbe4fe611	-0.20302607
40	0x3f413242	0.7546731
41	0xbf7c3c07	-0.98529094
42	0x3e8e641d	0.27810755
43	0x3f30f097	0.6911711
44	0x3e1a54a7	0.15071355
45	0xbf11ba4a	-0.5692488
46	0xbf3bf0f2	-0.7341453
47	0x3e10cba9	0.1414019
48	0x3ebf4ceb	0.3736337
49	0x3ef1a31a	0.4719475

gat_layer_2.attention_3.a f4 [20, 1]
0	0x3f1dda79	0.6166149
1	0xbeca20bb	-0.39478096
2	0xbf3d29c7	-0.7389187
3	0x3f11c8bb	0.56946915
4	0xbe790e37	-0.24321829
5	0x3d49c765	0.049262423
6	0x3ed6c375	0.41945997
7	0xbf196489	-0.5991903
8	0xbe31ca73	-0.17362384
9	0x3dae907e	0.085236534
10	0x3eadc3c3	0.33938417
11	0x3f1aad8d	0.6042107
12	0xbe0107bf	-0.12600611
13	0x3ea34f91	0.31896642
14	0xbe25b0ba	-0.16180697
15	0xbe6b289b	-0.22964709
16	0xbec57432	-0.38565212
17	0x3e9468b3	0.2898613
18	0xbf004046	-0.50098073
19	0xbe9649ff	-0.2935333

gat_layer_2.attention_4.W f4 [5, 10]
0	0xbe1ead99	-0.1549591
1	0x3f0c655e	0.54842174
2	0xbf2bf958	-0.67177343
3	0xbe0bb6a1	-0.13643886
4	0xbe849358	-0.25893664
5	0x3eb3053d	0.34964934
6	0xbf1fb984	-0.6239245
7	0xbead7ee7	-0.3388588
8	0x3dcc9366	0.099890515
9	0x3e9695aa	0.2941106
10	0x3f055748	0.52086306
11	0x3e80b526	0.25138205
12	0x3e89dae6	0.2692482
13	0x3f256714	0.6461041
14	0x3f565cc2	0.8373529
15	0x3efd7bef	0.49508616
16	0xbdf6faf4	-0.12059584
17	0xbe92f810	-0.28704882
18	0xbec24987	-0.37946722
19	0xbe361c21	-0.17784168
20	0xbf1c7574	-0.6111672
21	0xbf50b9b9	-0.8153339
22	0xbf346ea3	-0.7048132
23	0x3f53127f	0.824501
24	0xbe41ced2	-0.18926552
25	0xbf2b135b	-0.6682641
26	0xbf3b1737	-0.730823
27	0xbe1e336c	-0.15449303
28	0x3e129dc9	0.14318003
29	0xbf232f15	-0.63743716
30	0x3e8a814e	0.27051777
31	0x3f3821f3	0.719268
32	0x3e8a0100	0.26953888
33	0xbf0c8953	-0.5489704
34	0xbf0f1ca6	-0.5590309
35	0xbebc5ae7	-0.36788103
36	0x3f434b19	0.76286465
37	0x3e147be2	0.14500383
38	0x3e8fc2df	0.28078362
39	0xbf3bbad8	-0.73331976
40	0xbdcbe17a	-0.099551156
41	0xbee92d1a	-0.45542222
42	0x3eb0bcf5	0.34519163
43	0x3f24feb7	0.64451164
44	0x3d1d5fad	0.03842132
45	0xbf248e5b	-0.6427972
46	0xbd76e0de	-0.060273044
47	0x3f6a6217	0.91555923
48	0xbe534a3c	-0.20633787
49	0xbf45c917	-0.77259964

gat_layer_2.attention_4.a f4 [20, 1]
0	0xbd86c5da	-0.06580706
1	0x3e579e42	0.21056464
2	0x3f3cec15	0.7379773
3	0xbf0c5f99	-0.5483337
4	0xbf2d73a9	-0.6775461
5	0xbf00e76b	-0.50353116
6	0xbf1dc742	-0.6163217
7	0x3eb836ac	0.3597921
8	0xbe470c9f	-0.19438408
9	0xbd4a0269	-0.049318705
10	0xbe9ea771	-0.30987123
11	0x3f1492ab	0.580363
12	0xbed39ee3	-0.41332158
13	0xbf32f2e7	-0.6990189
14	0x3e9b1b1f	0.3029413
15	0x3f164e0b	0.58712834
16	0xbe8ef899	-0.2792404
17	0xbf1d2bc9	-0.61394936
18	0x3f1b8d2c	0.60762286
19	0xbd59d203	-0.0531788

gat_layer_2.out_att.W f4 [50, 5]
0	0x3ee54dd1	0.44785932
1	0xbe52856f	-0.20558713
2	0xbe24730b	-0.1605951
3	0xbe1af2ef	-0.15131734
4	0xbeb1f54e	-0.34757465
5	0x3e40e985	0.1883908
6	0xbd7f899b	-0.06238709
7	0x3e92e304	0.28688824
8	0x3eb176ae	0.34660858
9	0x3e12105a	0.1426405
10	0xbde99246	-0.114048526
11	0x3e9dfdab	0.30857596
12	0xbe9951ba	-0.29945165
13	0xbea74e66	-0.32677
14	0xbeae5723	-0.34050855
15	0x3bc0af50	0.005880274
16	0xbe5f0913	-0.21780805
17	0xbd9f43bd	-0.07776592
18	0xbe8a613b	-0.27027306
19	0xbea6db80	-0.3258934
20	0x3e33df37	0.17565618
21	0xbdc53ae6	-0.096303746
22	0x3db04ebf	0.086087696
23	0xbd9bb016	-0.07601945
24	0x3d3f5104	0.046708122
25	0xbe83ef99	-0.25768736
26	0xbe40b386	-0.18818483
27	0x3e9eff82	0.31054312
28	0x3c19137f	0.009343027
29	0xbe18fa49	-0.14939226
30	0xbe1b117d	-0.1514339
31	0x3eba9a5c	0.36445892
32	0x3eab1192	0.33411843
33	0x3e83a428	0.2571118
34	0x3e3c64fb	0.18397896
35	0xbe2cfaf9	-0.16892613
36	0xbe967ae3	-0.2939063
37	0xbe69692a	-0.22794023
38	0x3dabd24b	0.083897196
39	0x3e7fa417	0.24964939
40	0xbdf29926	-0.11845617
41	0xbeba016d	-0.36329213
42	0xbd2369ec	-0.039895937
43	0xbec6bb7f	-0.38814923
44	0x3d41d469	0.04732171
45	0x3e1ad49d	0.15120168
46	0x3ec311d7	0.38099548
47	0xbde7c086	-0.11316018
48	0x3ed861b4	0.42262042
49	0x3ecd06ee	0.4004435
50	0x3bde7b21	0.0067895805
51	0xbe0ab72b	-0.13546436
52	0xbe4fbf6d	-0.20287867
53	0xbeb2d2a7	-0.3492634
54	0xbe8f53e4	-0.2799369
55	0xbe4b260f	-0.19838737
56	0x3bc8d146	0.006128463
57	0xbd329573	-0.043599557
58	0xbe7efd35	-0.24901278
59	0x3e964b40	0.29354286
60	0x3de9c189	0.11413867
61	0xbe598ff2	-0.21246317
62	0xbedfbe07	-0.43699667
63	0x3ea98e96	0.33116597
64	0xbe98a351	-0.298121
65	0xbec784df	-0.3896856
66	0x3ed19888	0.40936685
67	0x3ea04e98	0.31309962
68	0xbda93c11	-0.0826341
69	0x3e2b7b3c	0.16746229
70	0xbe90955e	-0.28238958
71	0x3ecd336a	0.40078288
72	0xbd171243	-0.03688265
73	0xbe51dd6d	-0.20494623
74	0xbdd6ac41	-0.104820736
75	0xbed0b651	-0.40764096
76	0x3d102291	0.035189215
77	0x3e233ae3	0.15940432
78	0xbe7697ef	-0.24081396
79	0xbdfbe6e5	-0.12299899
80	0xbea33435	-0.31875768
81	0x3ddc2cb0	0.10750711
82	0xbd9f34f3	-0.07773771
83	0x3e79e398	0.24403226
84	0xbc129564	-0.00894675
85	0xbdb2c8b6	-0.08729689
86	0xbdc6ae07	-0.09701162
87	0xbed7ccc4	-0.4214841
88	0xbd8381b1	-0.06421221
89	0xbe9de6fa	-0.30840284
90	0xbda04538	-0.078257024
91	0xbea205f5	-0.3164517
92	0xbe1367e8	-0.14395106
93	0xbe6dd725	-0.23226602
94	0xbf02bc2f	-0.51068395
95	0x3de9874c	0.11402759
96	0x3e5423d5	0.20716794
97	0x3e77a686	0.24184617
98	0x3d612beb	0.054973524
99	0x3e0f6ee7	0.1400715
100	0xbebbe4be	-0.36697954
101	0xbeaaee0d	-0.33384743
102	0xbd71e85e	-0.059059493
103	0xbe0e686a	-0.13907018
104	0xbe76b680	-0.24093056
105	0xbec152f4	-0.377586
106	0xbe0f8e67	-0.14019166
107	0xbed94d1a	-0.42441636
108	0x3e55e0a8	0.20886481
109	0xbedbd158	-0.42933154
110	0xbeeb7793	-0.45989665
111	0xbe494b41	-0.19657613
112	0xbdb97492	-0.09055437
113	0x3e93836a	0.28811198
114	0x3e98aacd	0.2981781
115	0x3e01207a	0.12610045
116	0x3e59c46f	0.2126634
117	0x3e5556bb	0.20833866
118	0x3e3cfc25	0.1845556
119	0xbe185512	-0.14876202
120	0xbecdf329	-0.4022458
121	0xbeab17af	-0.33416507
122	0x3e214b7d	0.15751453
123	0x3e955b74	0.29171336
124	0x3e767be8	0.24070704
125	0x3c827717	0.015925927
126	0x3e9fc9fd	0.31208792
127	0xbeb98b79	-0.36239222
128	0x3e98b15d	0.29822817
129	0xbec771f1	-0.38954118
130	0xbe278e74	-0.16362935
131	0x3e4b0afb	0.19828407
132	0x3eb9ef05	0.3631517
133	0xbeb63212	-0.35585076
134	0x3c72af16	0.014812252
135	0xbe81048e	-0.25198787
136	0xbe4631b2	-0.19354895
137	0xbe80349b	-0.25040135
138	0x3ca6726f	0.020318238
139	0xbe8854d5	-0.26627222
140	0xbdae8ae0	-0.08522582
141	0xbe8289f2	-0.2549587
142	0x3c99cfc8	0.018775836
143	0xbebf5214	-0.37367308
144	0xbcff78cd	-0.031185532
145	0xbee05882	-0.43817526
146	0x3ee67c04	0.4501649
147	0xbe3fb262	-0.18720391
148	0x3e8fb42d	0.2806715
149	0xbedf6874	-0.4363438
150	0x3ea42266	0.32057494
151	0xbef3d030	-0.47619772
152	0x3e2eb4ee	0.17061207
153	0xbaf5d362	-0.0018755014
154	0x3e80fa9c	0.251912
155	0xbe3a19c7	-0.18173896
156	0xbe6bb4c7	-0.2301818
157	0xbe1a48c7	-0.15066825
158	0xbd62b508	-0.055348426
159	0xbe139658	-0.1441282
160	0x3de27ec5	0.110593356
161	0xbe6c2d75	-0.23064215
162	0xbcd0fd23	-0.02551133
163	0xbe1b7952	-0.15182999
164	0x3e9b5649	0.30339268
165	0xbe54051e	-0.20705077
166	0x3ec89d43	0.3918248
167	0x3ec82148	0.39087892
168	0x3c492b7b	0.012278433
169	0x3eb52ab0	0.3538413
170	0x3e62ab59	0.22135676
171	0xbda1d5a6	-0.07902078
172	0x3e502599	0.20326842
173	0x3ecfabef	0.40560862
174	0x3eb4b01a	0.35290605
175	0x3e084988	0.133093
176	0xbe8047e9	-0.25054863
177	0xbe1f3527	-0.1554762
178	0x3eaed4de	0.3414678
179	0x3be4d058	0.0069828443
180	0x3e48af7d	0.19598193
181	0xbd4f3747	-0.050589826
182	0xbea9e6ff	-0.3318405
183	0xbe93c08c	-0.2885784
184	0x3e0bc611	0.13649775
185	0xbe9626ce	-0.2932648
186	0x3ed6e9e5	0.41975322
187	0xbeea58bf	-0.45770833
188	0x3df8fa16	0.12157075
189	0xbe62fcfb	-0.22166817
190	0xbebe9133	-0.37220153
191	0xbd12b154	-0.035813645
192	0xbc9bb572	-0.019007418
193	0x3ec7b586	0.3900568
194	0xbdb1f582	-0.08689405
195	0x3df75735	0.1207718
196	0x3e7742c1	0.24146558
197	0xbc850a0a	-0.016240139
198	0x3c95f8cb	0.01830711
199	0x3f08a491	0.5337611
200	0xbee1ad85	-0.44077697
201	0x3e3db674	0.18526632
202	0x3ea24154	0.31690466
203	0x3cc56b17	0.024098916
204	0x3e6057ea	0.21908537
205	0x3e3ec128	0.18628371
206	0x3e267ca8	0.1625849
207	0xbd5b7aa9	-0.053583775
208	0xbec5fe29	-0.3867047
209	0x3ec6006e	0.38672203
210	0xbde4faa8	-0.111806214
211	0xbe934467	-0.28763124
212	0x3dbed742	0.09318401
213	0x3ea2ccfb	0.31797013
214	0xbe0595ce	-0.13045427
215	0x3e36c6bc	0.17849249
216	0x3e61ef78	0.22064006
217	0xbe8140eb	-0.2524484
218	0x3ca71a94	0.020398416
219	0x3ea8b31c	0.3294915
220	0xbeca5d72	-0.39524418
221	0x3eccff6d	0.40038624
222	0x3e9fb83c	0.31195247
223	0xbee68e83	-0.45030603
224	0xbe15cabd	-0.1462812
225	0x3ebc4aa3	0.36775693
226	0x3ec55910	0.38544512
227	0xbe9abc66	-0.30221862
228	0x3e7c3fdc	0.24633735
229	0x3ed00b72	0.40633732
230	0xbee0093b	-0.43757042
231	0xbb9d6b89	-0.004804079
232	0x3d8faa49	0.07014901
233	0xbeb3d9c9	-0.35127094
234	0x3d118820	0.03553021
235	0xbe97ff95	-0.2968718
236	0xbea2960c	-0.31755102
237	0x3e9ce020	0.30639744
238	0x3e57ea35	0.21085437
239	0x3d90d62e	0.070721015
240	0xbea40c02	-0.3204041
241	0x3a80f3de	0.0009838303
242	0x3ec8640e	0.39138836
243	0xbdd013d8	-0.10160035
244	0xbefe4552	-0.49662262
245	0x3d9e4e3f	0.07729768
246	0xbe613c01	-0.21995546
247	0xbe81c3df	-0.2534475
248	0xbc061b47	-0.008185214
249	0xbeafec78	-0.343601

gat_layer_2.out_att.a f4 [10, 1]
0	0x3dd44511	0.10364736
1	0x3f5f7bc3	0.8729822
2	0xbdfb0ecf	-0.12258684
3	0x3f3eebaf	0.74578375
4	0x3edfda05	0.43721023
5	0x3ead6727	0.33867761
6	0x3d8213b9	0.06351418
7	0x3f82b7ea	1.0212376
8	0xbebc4792	-0.36773354
9	0xbf2282d7	-0.63480896
