tests/gat/encoder-checkpoint14.pt (torch, 20210 bytes, 36 tensors)

gat_layer_0.attention_0.W f4 [5, 10]
-0.45410603 -0.8084756 0.402614 -0.3310179 -0.124656714 0.31183365 0.8033214 -0.119431086
0.50305134 -0.46800667 -0.1986216 0.15977834 0.27431118 -0.86206657 -0.20827028 0.09779969
-0.6620317 -0.13403697 -0.40013528 0.07476732 0.1425586 0.42809293 0.37000233 0.47468063
-0.07913533 -0.37616858 0.40728742 0.7603023 0.022960067 -0.10694146 -0.46653566 0.435123
0.038644075 -0.5134659 -0.26476723 0.38594562 -0.9004004 0.30773166 0.7799276 -0.85035115
0.68318784 -0.726612 0.23872809 0.30728257 -0.15433772 0.81494904 -0.04139731 0.75047225
0.44418585 -0.36705938
00000000: 9680 e8be 42f8 4ebf 6c23 ce3e 2e7b a9be
00000010: 054c ffbd a9a8 9f3e 79a6 4d3f 4998 f4bd
00000020: f9c7 003f 929e efbe 7663 4bbe ef9c 233e
00000030: 8472 8c3e 65b0 5cbf ce44 55be 344b c83d
00000040: e97a 29bf fd40 09be 88de ccbe 9c1f 993d
00000050: e2fa 113e ff2e db3e f270 bd3e 5709 f33e
00000060: b411 a2bd 2b99 c0be fa87 d03e 2ca3 423f
00000070: c016 bc3c 2004 dbbd c3dd eebe 71c8 de3e
00000080: 4049 1e3d 8072 03bf 928f 87be aa9a c53e
00000090: a480 66bf 018f 9d3e 56a9 473f 9db0 59bf
000000a0: 66e5 2e3f 3e03 3abf 2375 743e 2454 9d3e
000000b0: b50a 1ebe 80a0 503f 3a90 29bd f31e 403f
000000c0: 546c e33e 35ef bbbe

gat_layer_0.attention_0.a f4 [20, 1]
-0.11749924 -0.2318011 0.18898936 0.7458885 -0.3364914 -0.04722558 0.62813556 -0.48786703
-0.07605708 0.63517237 -0.51083666 -0.7627885 0.49388796 -0.13378729 -0.14829174 -0.32750434
0.32350275 0.16782795 0.07929077 0.025240202
00000000: 71a3 f0bd 445d 6dbe 6d86 413e 8cf2 3e3f
00000010: 9a48 acbe 9c6f 41bd 7ecd 203f b5c9 f9be
00000020: d0c3 9bbd a89a 223f 31c6 02bf 1b46 43bf
00000030: e2de fc3e 89ff 08be cad9 17be a6ae a7be
00000040: 27a2 a53e 17db 2b3e 3363 a23d 8ac4 ce3c

gat_layer_0.attention_1.W f4 [5, 10]
-0.81312317 -0.017183352 -0.058592796 -0.0145304715 -0.09039165 -0.2202395 -0.8349995 0.7306807
-0.7596423 -0.709843 0.37180483 -0.83862925 -0.70314234 0.71456885 0.8649712 -0.390349
0.7556671 -0.31085622 -0.06408801 0.15944725 0.045144133 0.5389054 -0.5513138 -0.301236
-0.19717436 -0.43344587 0.77579415 0.09466829 -0.7205976 -0.44756055 0.52537197 0.11927657
0.3558013 0.37064895 0.053587813 0.7746555 -0.39415416 0.86606 -0.3913747 -0.049284387
-0.59611005 -0.32695305 0.8192548 -0.6791005 0.5872632 0.6528051 -0.5348741 -0.52391267
-0.7809243 -0.64178634
00000000: d728 50bf 1ac4 8cbc 00ff 6fbd 3711 6ebc
00000010: 421f b9bd 7786 61be 87c2 55bf e40d 3b3f
00000020: eb77 42bf 45b8 35bf 345d be3e 68b0 56bf
00000030: 2301 34bf fced 363f c16e 5d3f d3db c7be
00000040: 6673 413f 8c28 9fbe 9340 83bd 2446 233e
00000050: 0ee9 383d b4f5 093f e722 0dbf 9b3b 9abe
00000060: 13e8 49be 9eec ddbe 729a 463f 73e1 c13d
00000070: 1679 38bf a826 e5be c77e 063f 4647 f43d
00000080: 972b b63e b3c5 bd3e e57e 5b3d d34f 463f
00000090: 93ce c9be 1cb6 5d3f 4462 c8be 6dde 49bd
000000a0: ab9a 18bf 6466 a7be afba 513f 88d9 2dbf
000000b0: e256 163f 3c1e 273f 82ed 08bf 241f 06bf
000000c0: a8ea 47bf 1c4c 24bf

gat_layer_0.attention_1.a f4 [20, 1]
-0.3580794 0.087143995 0.2800272 -0.23316991 0.23044889 -0.38826767 -0.53060794 -0.49941358
-0.09119671 -0.25676537 0.54852355 0.18010439 -0.3023298 -0.3231664 0.18026137 0.12943636
-0.39601314 -0.4685053 0.6836377 0.024964001
00000000: 2f56 b7be 8d78 b23d ba5f 8f3e 18c4 6ebe
00000010: cbfa 6b3e 05cb c6be ecd5 07bf 23b3 ffbe
00000020: 57c5 babd c076 83be 0a6c 0c3f 496d 383e
00000030: f9ca 9abe 1176 a5be 7096 383e f78a 043e
00000040: 3cc2 cabe eddf efbe e102 2f3f 4e81 cc3c

gat_layer_0.attention_2.W f4 [5, 10]
0.8269911 -0.46661386 -0.13741736 0.7851624 0.6790692 0.08079384 -0.5967091 -0.5404106
-0.61746025 -0.5476981 0.26508057 -0.90051574 -0.8407833 0.18868831 -0.22680326 -0.36386818
-0.8613342 0.2929076 -0.077966146 -0.40443674 -0.53544074 0.6776461 0.7194402 -0.3523654
0.46104428 0.1853771 -0.5330697 -0.45661968 0.8747679 0.62432456 -0.8783829 0.27438533
0.6290706 0.25195274 -0.5843393 -0.21694152 -0.69552606 -0.32168776 -0.5038567 0.54170066
-0.07166904 -0.18463005 -0.68203557 0.19545877 0.037088204 -0.31531593 -0.8480113 -0.83620834
-0.15016593 0.31589738
00000000: b0b5 533f 03e8 eebe 23b7 0cbe 6700 493f
00000010: 7bd7 2d3f 3e77 a53d edc1 18bf 5958 0abf
00000020: e011 1ebf f135 0cbf a4b8 873e 3388 66bf
00000030: 933d 57bf 8237 413e 1d3f 68be ee4c babe
00000040: 6680 5cbf fcf7 953e b7ac 9fbd 5512 cfbe
00000050: a512 09bf 377a 2d3f 3c2d 383f 3d69 b4be
00000060: ff0d ec3e 7fd3 3d3e 4177 08bf 0eca e9be
00000070: caf0 5f3f bcd3 1f3f b4dd 60bf 3c7c 8c3e
00000080: c50a 213f f3ff 803e 4397 15bf eb25 5ebe
00000090: ff0d 32bf 42b4 a4be c1fc 00bf e5ac 0a3f
000000a0: 38c7 92bd a90f 3dbe e299 2ebf 5826 483e
000000b0: cde9 173d 1771 a1be 4517 59bf c011 56bf
000000c0: 19c5 19be 4dbd a13e

gat_layer_0.attention_2.a f4 [20, 1]
-0.4565464 -0.28979063 -0.36424467 -0.6221504 -0.7263673 0.5250552 0.020605637 0.5326565
0.45673203 0.5630363 0.7304704 -0.6863787 -0.50950813 0.24100198 0.49398172 0.25334093
0.6573051 -0.28361917 -0.51508945 -0.49059227
00000000: 73c0 e9be 705f 94be 477e babe 4045 1fbf
00000010: 35f3 39bf 056a 063f 27cd a83c 2d5c 083f
00000020: c8d8 e93e 2623 103f 1c00 3b3f 84b6 2fbf
00000030: 206f 02bf 39c9 763e 2ceb fc3e e7b5 813e
00000040: 2645 283f 8836 91be e7dc 03bf e92e fbbe

gat_layer_0.attention_3.W f4 [5, 10]
-0.35249177 -0.10736476 0.08432846 0.3921479 -0.28671047 -0.8123636 -0.64749056 0.8575306
-0.07734623 -0.52203035 -0.69229996 0.15595211 0.12382313 0.14246467 -0.41260886 -0.5658876
-0.65091175 0.17038259 0.5556158 0.15535302 0.57913357 0.7146936 -0.25368366 0.113926545
0.35270217 -0.6626231 0.4185682 -0.6093835 -0.514475 0.35075888 -0.117597595 -0.013876005
-0.600106 0.48111936 0.63733494 -0.73710275 -0.48574844 -0.6893502 0.61918676 0.18382667
0.6793107 0.32503024 -0.75513923 0.4505757 0.13786514 -0.3474722 -0.6358395 0.15042512
0.6818336 -0.65711087
00000000: cd79 b4be 0ee2 dbbd 66b4 ac3d 9cc7 c83e
00000010: b7cb 92be 10f7 4fbf f1c1 25bf 2087 5b3f
00000020: b367 9ebd c8a3 05bf 923a 31bf e9b1 1f3e
00000030: fb96 fd3d 42e2 113e 7841 d3be 02de 10bf
00000040: 27a2 26bf c678 2e3e d63c 0e3f dd14 1f3e
00000050: 1942 143f 29f6 363f d3e2 81be 5252 e93d
00000060: 6195 b43e aba1 29bf 924e d63e 8f00 1cbf
00000070: a2b4 03bf ab96 b33e 02d7 f0bd 2f58 63bc
00000080: 8ca0 19bf 4755 f63e 6228 233f c4b2 3cbf
00000090: 05b4 f8be 4179 30bf 0683 1e3f 0f3d 3c3e
000000a0: 4ee7 2d3f 5d6a a63e ce50 41bf dcb1 e63e
000000b0: 852c 0d3e e0e7 b1be 61c6 22bf 0b09 1a3e
000000c0: a68c 2e3f 6b38 28bf

gat_layer_0.attention_3.a f4 [20, 1]
-0.32677904 0.042517155 0.4884127 0.7476116 0.65457284 0.6663687 -0.038078178 0.7457575
0.08166605 -0.521449 -0.25756603 -0.58107495 -0.05448942 -0.650792 -0.37678787 0.083745696
0.47074822 0.02175207 0.4463513 0.119934686
00000000: 954f a7be 7826 2e3d 3b11 fa3e 7963 3f3f
00000010: 1692 273f 2497 2a3f ddf7 1bbd f7e9 3e3f
00000020: 8840 a73d af7d 05bf b2df 83be 54c1 14bf
00000030: 4c30 5fbd 4e9a 26bf 57ea c0be dd82 ab3d
00000040: e905 f13e 6631 b23c 2888 e43e 51a0 f53d

gat_layer_0.attention_4.W f4 [5, 10]
-0.3106977 -0.74384815 0.78238755 0.3434157 0.0036971432 0.31187153 0.4723998 0.25462756
-0.33658493 -0.66558695 -0.12791824 -0.4600417 -0.8676595 -0.58418506 0.4046559 0.50716877
-0.6478734 -0.26786256 0.3381568 0.42133704 -0.6863351 0.51233155 -0.31737947 -0.4558442
-0.6722172 0.24178706 0.10110583 0.4912919 -0.15398203 0.6434417 -0.20229155 -0.25517032
-0.47093728 0.575069 -0.8862369 0.2036539 -0.71704525 -0.45247146 -0.7918839 0.72289926
-0.62408864 0.7464982 0.57193595 -0.06742835 -0.26082823 0.8101223 0.8142807 0.8050313
-0.8224993 0.14942466
00000000: c513 9fbe d56c 3ebf 8d4a 483f 2fd4 af3e
00000010: c54b 723b a0ad 9f3e 63de f13e 8b5e 823e
00000020: dc54 acbe e863 2abf 00fd 02be 968a ebbe
00000030: ef1e 5ebf 278d 15bf 0f2f cf3e d0d5 013f
00000040: 08db 25bf 4825 89be e322 ad3e 7db9 d73e
00000050: a8b3 2fbf 2928 033f 907f a2be 6964 e9be
00000060: 6d16 2cbf 0797 773e 9310 cf3d 9d8a fb3e
00000070: 77ad 1dbe 98b8 243f 8425 4fbe afa5 82be
00000080: b11e f1be b937 133f 6ce0 62bf a68a 503e
00000090: 4790 37bf 57aa e7be e7b8 4abf ed0f 393f
000000a0: 46c4 1fbf 821a 3f3f 656a 123f e017 8abd
000000b0: 478b 85be 2d64 4f3f b374 503f 8816 4e3f
000000c0: 508f 52bf c702 193e

gat_layer_0.attention_4.a f4 [20, 1]
0.023465214 -0.45088747 -0.46880454 -0.42816216 -0.28126335 0.547111 0.42618155 0.16324054
-0.4491275 0.3884951 0.65312177 0.6421793 -0.2333643 0.58387196 0.38389945 0.5172315
0.414613 0.48931634 0.5570615 -0.5656137
00000000: 1f3a c03c b9da e6be 2607 f0be 1238 dbbe
00000010: c001 90be 770f 0c3f 7834 da3e 8728 273e
00000020: 0af4 e5be d4e8 c63e fd32 273f dd65 243f
00000030: 0df7 6ebe a278 153f 788e c43e 4969 043f
00000040: 2848 d43e ac87 fa3e 959b 0e3f 0fcc 10bf

gat_layer_0.out_att.W f4 [50, 5]
-0.4189484 -0.2780128 0.022628922 -0.24654771 -0.26373556 -0.4780085 0.061121974 -0.28663954
0.12526184 -0.19629069 0.2910749 -0.34592038 0.19578448 -0.007430024 0.25192633 -0.041930582
-0.18899864 0.09520032 0.34065318 -0.36574677 0.39586994 -0.046971794 0.14056078 0.23012981
0.44170296 -0.2965112 0.025993142 0.3720391 0.28129676 -0.19200923 0.4010555 0.23513055
-0.33556938 -0.2907905 0.1781097 -0.48570517 0.010921221 0.25105315 -0.2917845 0.016315237
0.18104309 -0.25752664 -0.051062863 0.102410346 0.020359783 -0.35572195 0.2294631 -0.13109675
-0.28903705 0.2631073 -0.3128673 0.24003007 -0.19412991 -0.26906902 -0.09124926 -0.19438095
0.20293292 -0.01763231 0.230037 -0.3118723 -0.02548044 0.3206715 -0.39659992 0.3859193
0.3220817 0.109505266 0.20786726 -0.2722521 0.2147481 0.45714328 0.025750263 -0.45407018
0.27106592 -0.34385377 0.42867613 -0.07253208 -0.068006754 -0.047843646 0.3419694 -0.4365522
-0.22671863 0.2514584 -0.16280442 0.45135054 0.41476113 0.05065237 -0.1772576 0.21710531
-0.023679534 0.16985121 -0.43541566 -0.041845232 -0.011163035 0.06599205 0.3797018 0.31294242
-0.28218156 -0.23620373 0.38431895 0.23609547 0.19309059 -0.42637408 -0.07082012 -0.055642083
0.37498814 0.29583552 0.31398442 -0.029765826 -0.19687022 -0.41022655 0.3852165 0.28717232
-0.25689155 -0.146654 0.30925277 0.017067943 -0.14622413 -0.17705187 0.17264326 -0.20653382
0.14019887 -0.4135407 0.09771866 0.09817552 -0.080534086 0.06569661 0.14777502 -0.28589
0.30588484 -0.24017896 -0.30956432 -0.25694987 0.32454747 -0.46071213 -0.324111 0.35781682
-0.03564965 -0.40583724 0.44913718 -0.33540988 -0.23682693 -0.09058078 0.26590872 -0.40715557
0.30197376 0.403955 -0.16592754 0.21616705 -0.31968784 -0.3509086 0.0027002925 0.36717135
-0.07012363 -0.38679275 0.104925096 0.2834359 -0.15725207 -0.44112512 0.2421994 0.17614551
-0.37963995 0.20304237 -0.36825353 0.301626 0.4174858 -0.41408098 0.18375377 0.41923574
0.16881779 0.4515448 -0.20061174 -0.23247091 0.45450285 0.35394883 -0.3588723 -0.13794023
0.40431106 0.010757266 0.38755235 0.14256343 0.20573464 0.3542381 0.28556255 -0.360228
0.05975596 -0.34083992 0.20527455 0.25962543 0.115505174 -0.2509684 -0.31871408 0.29420793
0.06559633 -0.29492107 -0.37570566 0.3427558 0.22061457 -0.32192197 0.15133053 0.031543408
-0.19065309 0.3448108 0.29865685 -0.095651574 -0.18408372 0.0020088977 0.32652828 0.08041662
0.29958665 -0.2363034 0.118319385 0.25168464 0.042734794 -0.06942624 0.21681125 -0.07270382
-0.38565552 0.36996272 -0.14644961 0.28540605 0.43221155 0.41333938 0.038187005 -0.38398334
0.09284023 -0.20805086 -0.34329948 0.00068677455 -0.13110584 0.14845967 -0.098062746 -0.08645335
-0.4252071 0.25840998 -0.46703574 -0.1652565 0.0075858342 -0.0989131 0.3639075 -0.2531199
-0.21285376 -0.44404247 0.39418882 -0.26834777 0.32832116 0.026548488 -0.44072127 0.37587562
-0.45052898 -0.17850114
00000000: 6880 d6be b257 8ebe 4a60 b93c 0177 7cbe
00000010: 5908 87be 88bd f4be 095b 7a3d 6bc2 92be
00000020: a444 003e 6d00 49be c507 953e 7a1c b1be
00000030: ba7b 483e 8f77 f3bb 7dfc 803e 67bf 2bbd
00000040: dc88 41be 63f8 c23d 186a ae3e 2943 bbbe
00000050: 77af ca3e 7f65 40bd 2aef 0f3e 26a7 6b3e
00000060: e426 e23e 51d0 97be 92ef d43c e97b be3e
00000070: 2106 903e 119e 44be 2657 cd3e 10c6 703e
00000080: c0cf abbe 7ee2 94be 6462 363e 59ae f8be
00000090: ecee 323c 0a8a 803e c764 95be 88a7 853c
000000a0: 5c63 393e 88da 83be 4b27 51bd 84bc d13d
000000b0: 8fc9 a63c 3021 b6be 60f8 6a3e 3a3e 06be
000000c0: aafc 93be 00b6 863e 2530 a0be 71ca 753e
000000d0: fec9 46be 6ac3 89be e4e0 babd cd0b 47be
000000e0: a6cd 4f3e a271 90bc d28e 6b3e baad 9fbe
000000f0: 5bbc d0bc 0e2f a43e 250f cbbe 3797 c53e
00000100: e5e7 a43e 4c44 e03d 28db 543e a164 8bbe
00000110: ede6 5b3e af0e ea3e 37f2 d23c e37b e8be
00000120: 27c9 8a3e 9a0d b0be 707b db3e b38b 94bd
00000130: 2047 8bbd b3f7 43bd 9d16 af3e c583 dfbe
00000140: ee28 68be 28bf 803e 34b6 26be 6b17 e73e
00000150: 925b d43e dc78 4f3d 0483 35be db50 5e3e
00000160: 95fb c1bc 7aed 2d3e cdee debe e865 2bbd
00000170: 2ae5 36bc d726 873d 4668 c23e fd39 a03e
00000180: 1a7a 90be 64df 71be 74c5 c43e 03c3 713e
00000190: 8ab9 453e b44d dabe 240a 91bd f4e8 63bd
000001a0: 72fe bf3e c177 973e 91c2 a03e 76d7 f3bc
000001b0: 5998 49be 3709 d2be 193b c53e 4008 933e
000001c0: 4a87 83be 772c 16be 6156 9e3e 12d2 8b3c
000001d0: c7bb 15be 164d 35be 65c9 303e 9a7d 53be
000001e0: 4b90 0f3e 9bbb d3be b920 c83d 3f10 c93d
000001f0: 0eef a4bd f28b 863d 5652 173e 2d60 92be
00000200: f09c 9c3e 79f1 75be 377f 9ebe ef8e 83be
00000210: 162b a63e 76e2 ebbe e1f1 a5be c433 b73e
00000220: 5e05 12bd e6c9 cfbe 4ff5 e53e d8ba abbe
00000230: c282 72be 6a82 b9bd 3025 883e b276 d0be
00000240: 4e9c 9a3e 31d3 ce3e e9e8 29be e55a 5d3e
00000250: 20ae a3be 4baa b3be 64f7 303b e2fd bb3e
00000260: fa9c 8fbd b309 c6be f8e2 d63d 831e 913e
00000270: b006 21be 27db e1be 1f03 783e 7d5f 343e
00000280: 2b60 c2be 57ea 4f3e ba8b bcbe b96e 9a3e
00000290: b3c0 d53e 6c02 d4be f329 3c3e 11a6 d63e
000002a0: 92de 2c3e e130 e73e 2a6d 4dbe db0c 6ebe
000002b0: 99b4 e83e c838 b53e 1cbe b7be 3440 0dbe
000002c0: dc01 cf3e 3e3f 303c 436d c63e 26fc 113e
000002d0: 1aac 523e b25e b53e 4135 923e ce6f b8be
000002e0: aac2 743d 9282 aebe 7e33 523e a0ed 843e
000002f0: fa8d ec3d ee7e 80be 7e2e a3be 6ca2 963e
00000300: 5e57 863d e5ff 96be 7e5c c0be b07d af3e
00000310: c9e8 613e f5d2 a4be 64f6 1a3e a933 013d
00000320: 903a 43be 0b8b b03e 8de9 983e f9e4 c3bd
00000330: 7180 3cbe b6a7 033b b72e a73e 78b1 a43d
00000340: 6c63 993e 85f9 71be 6f51 f23d cfdc 803e
00000350: ae0a 2f3d 582f 8ebd c503 5e3e bee5 94bd
00000360: a474 c5be c16b bd3e e3f6 15be be20 923e
00000370: d54a dd3e 38a1 d33e fa69 1c3d 7799 c4be
00000380: 0523 be3d 490b 55be f3c4 afbe a908 343a
00000390: 9c40 06be d005 183e 1fd5 c8bd 740e b1bd
000003a0: bfb4 d9be 504e 843e 4f1f efbe 0039 29be
000003b0: 9792 f83b f492 cabd 1552 ba3e ee98 81be
000003c0: 56f6 59be 8959 e3be 1ed3 c93e e164 89be
000003d0: b619 a83e 377c d93c 38a6 e1be c572 c03e
000003e0: bcab e6be 01c9 36be

gat_layer_0.out_att.a f4 [10, 1]
0.14472811 0.9876802 -0.65691936 -0.43384036 -0.4295313 -0.77180314 0.39127445 -0.110562064
-0.9997251 -0.7016522
00000000: 9b33 143e 9cd8 7c3f de2b 28bf 5320 debe
00000010: 87eb dbbe e494 45bf 2055 c83e 5d6e e2bd
00000020: fced 7fbf 7b9f 33bf

gat_layer_1.attention_0.W f4 [5, 10]
0.019545898 -0.2761425 0.5482724 -0.8604032 0.4731925 -0.18847741 0.3354288 -0.03373265
-0.74370104 -0.5381913 0.7180748 -0.7872721 -0.42824236 -0.10343259 -0.81966275 -0.0038776
-0.70567846 -0.72069585 -0.63714623 0.53836286 0.45097947 -0.6678229 0.74412 -0.24957508
0.6723509 0.03602529 -0.47660413 0.8815588 0.12471181 0.78401095 0.11898793 -0.7848681
0.3774007 -0.1293849 0.22370254 0.8560584 -0.51844877 -0.6689457 -0.2223277 -0.03472411
-0.22008176 0.7556051 0.82823616 0.7384735 -0.83748585 -0.61417294 0.6297759 -0.33643806
0.5208586 0.44175866
00000000: b81e a03c 8d62 8dbe 945b 0c3f 6243 5cbf
00000010: 4a46 f23e 3900 41be 53bd ab3e 3f2b 0abd
00000020: 3163 3ebf e8c6 09bf c0d3 373f aa8a 49bf
00000030: 9542 dbbe 77d4 d3bd 6bd5 51bf 551f 7ebb
00000040: 58a7 34bf 867f 38bf 041c 23bf 26d2 093f
00000050: c8e6 e63e 71f6 2abf a67e 3e3f 9c90 7fbe
00000060: 301f 2c3f 418f 133d 7505 f4be d6ad 613f
00000070: e868 ff3d f1b4 483f f2af f33d 1eed 48bf
00000080: aa3a c13e 7a7d 04be 4712 653e a526 5b3f
00000090: 0fb9 04bf 0740 2bbf dfa9 63be de3a 0ebd
000000a0: 1d5d 61be 566f 413f 4907 543f 990c 3d3f
000000b0: 7965 56bf 703a 1dbf fe38 213f 9c41 acbe
000000c0: fd56 053f 312e e23e

gat_layer_1.attention_0.a f4 [20, 1]
0.2077195 -0.5354554 -0.20538907 -0.40380186 0.729893 -0.75367886 -0.32156196 -0.7345501
0.6980206 -0.63745594 0.73662245 -0.15847613 -0.20671226 -0.13796592 0.67800075 0.20418528
0.45605883 -0.22132035 -0.72724485 -0.184113
00000000: 6cb4 543e 9b13 09bf 8351 52be 1ebf cebe
00000010: 45da 3a3f 19f1 40bf c5a3 a4be 7a0b 3cbf
00000020: 7ab1 323f 5030 23bf 4a93 3c3f 9147 22be
00000030: 61ac 53be f046 0dbe 7591 2d3f f215 513e
00000040: 8b80 e93e cda1 62be b82c 3abf 1e88 3cbe

gat_layer_1.attention_1.W f4 [5, 10]
0.53402 -0.009463392 0.49827257 0.50044185 -0.43945125 -0.2520107 0.044863418 0.091501236
-0.5790145 0.16031246 -0.8737742 0.09989311 -0.70717484 0.84979975 -0.23194465 -0.33343336
0.14728922 -0.7855378 0.45395657 0.39028722 0.5200669 -0.63922405 -0.8365803 -0.34332198
-0.21406251 -0.18079963 0.59725726 -0.106060505 -0.550069 -0.3542015 0.094078876 0.29955226
-0.72785807 0.41593158 -0.25287724 0.3376884 -0.12116259 -0.23423855 -0.2178637 0.16612886
-0.720663 0.52889216 -0.4829648 -0.34808493 0.23995572 0.11150766 0.15868196 -0.858324
-0.42441642 -0.07755218
00000000: 89b5 083f 580c 1bbc 951d ff3e f51c 003f
00000010: c1ff e0be 8c07 81be b4c2 373d 0065 bb3d
00000020: 4b3a 14bf f328 243e aaaf 5fbf c294 cc3d
00000030: 6909 35bf 7a8c 593f e682 6dbe c7b7 aabe
00000040: fcd2 163e 0119 49bf ff6c e83e bad3 c73e
00000050: 1b23 053f 30a4 23bf 202a 56bf e6c7 afbe
00000060: 3433 5bbe 8a23 39be dae5 183f 4036 d9bd
00000070: 52d1 0cbf e659 b5be 6dac c03d ea5e 993e
00000080: e854 3abf fcf4 d43e 2079 81be 7ee5 ac3e
00000090: 1824 f8bd 3bdc 6fbe a917 5fbe af1d 2a3e
000000a0: 5f7d 38bf 7a65 073f 2a47 f7be 3038 b2be
000000b0: f4b6 753e 215e e43d 867d 223e 1fbb 5bbf
000000c0: 1c4d d9be add3 9ebd

gat_layer_1.attention_1.a f4 [20, 1]
-0.5560679 0.14168985 -0.15249741 -0.3891004 0.21493495 -0.13575478 0.009161592 0.74450517
-0.40658018 -0.27354363 0.59667766 0.023956621 0.44668624 -0.6598115 0.013305594 -0.37733868
-0.34643316 0.7118254 -0.03672473 0.6442211
00000000: 775a 0ebf 2517 113e 4828 1cbe 2b38 c7be
00000010: e817 5c3e 4d03 0bbe 811a 163c e497 3e3f
00000020: 472b d0be e90d 8cbe debf 183f ad40 c43c
00000030: 0fb4 e43e 68e9 28bf b5ff 593c 8932 c1be
00000040: b05f b1be 303a 363f ac6c 16bd adeb 243f

gat_layer_1.attention_2.W f4 [5, 10]
-0.09243264 -0.7575091 -0.32866773 -0.32428992 -0.8765191 -0.31469527 0.75035435 -0.18532525
0.3373937 -0.03833828 0.48757002 -0.80276644 0.023521414 0.60725456 0.8688931 -0.32435742
-0.414331 -0.17899649 -0.52959096 -0.0154889645 0.11185988 0.45769575 -0.70268756 0.6105432
0.48406652 0.42019412 -0.7901341 0.23361215 0.05464653 0.21843646 0.124977626 -0.015311387
0.18524294 0.14594261 0.63232696 -0.21844532 -0.4743182 -0.19601445 0.01589111 0.34200522
0.2198619 -0.27776647 -0.6577063 0.79945374 0.6265633 -0.20813699 0.36548373 -0.0027628634
0.14348508 0.08125746
00000000: 534d bdbd 1eec 41bf 2347 a8be 5409 a6be
00000010: 8e63 60bf bd1f a1be 3917 403f e7c5 3dbe
00000020: debe ac3e 9a08 1dbd c7a2 f93e 1a82 4dbf
00000030: fbaf c03c 0975 1b3f c76f 5e3f 2d12 a6be
00000040: 3123 d4be db4a 37be 4693 07bf 6dc5 7dbc
00000050: cb16 e53d 1957 ea3e 55e3 33bf 8f4c 1c3f
00000060: 91d7 f73e af23 d73e 3a46 4abf 0638 6f3e
00000070: 0ad5 5f3d cfad 5f3e 45f4 ff3d 9ddc 7abc
00000080: 53b0 3d3e fb71 153e 2ee0 213f 21b0 5fbe
00000090: d6d9 f2be 03b8 48be 132e 823c 4f1b af3e
000000a0: 7a23 613e 6837 8ebe 715f 28bf 00a9 4c3f
000000b0: 7466 203f dd21 55be af20 bb3e 2811 35bb
000000c0: c1ed 123e 506a a63d

gat_layer_1.attention_2.a f4 [20, 1]
0.39681852 0.5558497 -0.30784208 0.594813 0.6198563 -0.7082667 -0.40531978 0.011337536
-0.6904719 0.27002048 0.7225698 0.020092785 -0.018902106 -0.28440034 -0.6562052 -0.5022311
0.321324 -0.06351824 -0.1590715 -0.16620949
00000000: cc2b cb3e 2a4c 0e3f 7a9d 9dbe aa45 183f
00000010: e7ae 1e3f f750 35bf 1386 cfbe 13c1 393c
00000020: c4c2 30bf 2040 8a3e 56fa 383f a099 a43c
00000030: 97d8 9abc ec9c 91be 10fd 27bf 3892 00bf
00000040: 9484 a43e da15 82bd a4e3 22be d232 2abe

gat_layer_1.attention_3.W f4 [5, 10]
0.56083167 -0.9111824 0.42631206 -0.8667078 0.7552057 -0.1794458 -0.63738143 -0.7845363
0.9082259 -0.076462954 0.08152644 -0.5051125 -0.1248486 0.6904375 0.57161546 0.5453126
-0.385285 0.26852533 0.7014069 0.6918498 0.6805289 0.43570295 -0.15107523 -0.71873766
-0.6482891 0.74792004 0.64739823 0.0819492 -0.6661764 0.07672692 -0.3045651 -0.85881513
-0.37185833 -0.40249193 0.70141524 -0.27266017 0.22093761 -0.29329556 0.46215272 -0.63848
-0.595746 0.68650675 -0.8401439 -0.47175592 0.64766514 0.8378398 -0.06427872 -0.39169115
0.48560148 0.37802812
00000000: aa92 0f3f 4043 69bf 9345 da3e 90e0 5dbf
00000010: 2955 413f a4c0 37be 6e2b 23bf 5fd7 48bf
00000020: 7e81 683f 9c98 9cbd 56f7 a63d 0e4f 01bf
00000030: 9fb0 ffbd 83c0 303f 6455 123f 9b99 0b3f
00000040: 1344 c5be 277c 893e 678f 333f 121d 313f
00000050: 2437 2e3f 7514 df3e 77b3 1abe 31ff 37bf
00000060: 46f6 25bf b077 3f3f e4bb 253f fbd4 a73d
00000070: 898a 2abf 0123 9d3d f5ef 9bbe 4fdb 5bbf
00000080: 3764 bebe 6c13 cebe f38f 333f 1d9a 8bbe
00000090: 783d 623e d62a 96be 489f ec3e 6d73 23bf
000000a0: cf82 18bf e8be 2f3f ac13 57bf fe89 f1be
000000b0: 62cd 253f ab7c 563f 90a4 83bd be8b c8be
000000c0: c2a0 f83e e78c c13e

gat_layer_1.attention_3.a f4 [20, 1]
-0.53690445 -0.18805738 -0.45611477 -0.22473472 -0.26171452 0.4996447 0.013221681 0.4103208
0.1323062 -0.28072652 0.53410554 -0.18970618 -0.40256062 0.7093766 -0.36667675 -0.055406645
0.491149 0.5980538 -0.34886613 0.4422996
00000000: 9272 09bf 1d92 40be e087 e9be dc20 66be
00000010: 72ff 85be 6ed1 ff3e c09f 583c 9115 d23e
00000020: 477b 073e 63bb 8fbe 24bb 083f 5642 42be
00000030: 6d1c cebe b499 353f 0ebd bbbe 14f2 62bd
00000040: e277 fb3e 0e1a 193f 959e b2be 1875 e23e

gat_layer_1.attention_4.W f4 [5, 10]
0.8530433 0.43305007 0.4549773 0.08613988 0.17125821 0.12912591 -0.5736923 0.6830342
-0.60012996 0.43077278 -0.37036133 -0.8172363 0.47214398 0.6965807 0.77595764 0.69987684
-0.6451153 0.6388024 -0.859522 0.56119895 -0.116969414 0.8464815 -0.83378017 -0.15806365
-0.8360866 -0.5978484 -0.8244895 0.12527563 -0.49893942 -0.6581838 -0.65319693 -0.69359654
0.5741292 -0.2062911 0.76321274 0.61149603 0.77976555 -0.28572157 0.08115167 -0.2552894
-0.45667428 -0.45252642 0.72733593 0.7577661 0.6155142 -0.76064336 -0.09909327 0.48962453
0.8056946 0.31682077
00000000: 0c61 5a3f bdb8 dd3e c9f2 e83e 1b6a b03d
00000010: 505e 2f3e 9539 043e 80dd 12bf 54db 2e3f
00000020: 1ea2 19bf 408e dc3e 00a0 bdbe 6636 51bf
00000030: dbbc f13e 1d53 323f 29a5 463f 212b 333f
00000040: 4726 25bf 8e88 233f a209 5cbf bcaa 0f3f
00000050: a98d efbd 03b3 583f 9e72 55bf 70db 21be
00000060: c509 56bf 980c 19bf be11 53bf 4148 003e
00000070: fd74 ffbe bc7e 28bf ea37 27bf 8b8f 31bf
00000080: 22fa 123f f93d 53be e961 433f 018b 1c3f
00000090: b79e 473f 194a 92be d932 a63d 4bb5 82be
000000a0: 36d1 e9be 8bb1 e7be b032 3a3f f6fc 413f
000000b0: 5792 1d3f 86b9 42bf 6af1 cabd 11b0 fa3e
000000c0: 0042 4e3f 5536 a23e

gat_layer_1.attention_4.a f4 [20, 1]
-0.7667284 -0.44342256 -0.37677458 0.0759779 0.44329074 0.34290355 0.3470323 0.14244536
0.72121775 0.49984804 0.020714967 0.14918502 -0.60859525 0.37641287 -0.67547405 0.57245326
0.5196342 -0.20508471 -0.32634282 0.38851437
00000000: 5048 44bf 4808 e3be 99e8 c0be 4d9a 9b3d
00000010: 01f7 e23e 0e91 af3e 38ae b13e 32dd 113e
00000020: baa1 383f 15ec ff3e 6fb2 a93c f5c3 183e
00000030: e6cc 1bbf 30b9 c03e deeb 2cbf 4c8c 123f
00000040: bf06 053f ba01 52be 6816 a7be 5beb c63e

gat_layer_1.out_att.W f4 [50, 5]
0.13705513 0.044630438 0.03598404 0.023811258 -0.027568659 0.4348297 0.39524683 -0.07708053
0.35374355 0.16519125 0.09613675 0.12089847 -0.39013833 0.19399023 0.2244861 0.1365771
0.016710766 0.09896193 -0.22494741 -0.4531254 -0.13190857 -0.13916703 -0.22639766 0.4410109
0.39856264 0.3216394 0.096060514 0.20673464 0.18777783 -0.2620041 -0.3808505 -0.4197291
0.26333386 0.10590943 -0.26337045 -0.36530137 -0.2937636 -0.13144444 0.052300934 0.009259212
0.45567587 0.1457383 -0.3016659 0.23263085 -0.21433844 0.090561524 0.47263005 0.25532004
0.052722953 0.43061024 -0.2679125 -0.015605033 -0.062000114 -0.37529144 -0.04327507 -0.3711774
-0.06890618 0.01929186 0.16490774 -0.35972744 0.3377994 -0.20298177 -0.24475051 0.3098271
-0.439563 0.39435557 0.38191134 0.14252022 0.03355042 0.3934993 0.0038412684 -0.01845802
0.020585163 0.29019874 0.28691405 -0.45353377 -0.19570346 -0.18091622 -0.36104387 0.421341
-0.15257554 0.11902076 0.08834261 -0.016198436 0.22424687 -0.040299606 -0.32104328 0.27121216
0.09222482 0.14616421 -0.06997457 0.14411965 -0.0060229083 0.1512067 0.0020437988 0.44840255
0.4091438 -0.16332206 -0.26765764 0.13980024 0.21503472 0.14198934 -0.3684557 0.051948164
-0.39173427 0.02953521 0.05250532 0.26826525 -0.036380623 -0.33737457 -0.39495656 0.32877257
0.36457694 0.42138082 -0.22575831 -0.47492796 0.16386335 0.1500785 0.21732616 -0.32595542
-0.25793096 0.25450426 0.35224178 0.4736662 -0.26774082 0.12780054 0.1520787 -0.12497668
-0.3727635 -0.43525136 -0.38055387 0.10879635 0.0038877972 0.2874112 0.19156174 0.2681106
0.14097662 -0.23739599 0.42214832 -0.43281266 0.13636853 -0.076935895 0.23186155 0.39680994
-0.12950726 -0.17006138 -0.16810353 -0.4313322 0.08617977 0.26922363 -0.3889273 -0.09961964
0.042348452 0.0220501 -0.46214378 0.35874933 0.22789116 -0.32667607 -0.32746682 -0.06018514
-0.20935544 -0.22338328 0.3330962 -0.42523575 0.19460255 -0.39512512 -0.35867894 0.28994152
-0.10570174 0.013152961 0.39971888 0.22606443 -0.12507609 0.38397905 -0.41515794 0.22213241
-0.091915786 -0.303938 0.0473083 0.34890577 -0.099868216 0.022335581 0.118533194 -0.29592365
0.40749288 -0.3798794 0.3291992 0.1543575 -0.048344262 0.25408772 -0.2400029 -0.22659968
-0.11218834 -0.017531553 0.38172182 0.41389713 -0.5701134 -0.080855384 0.3976152 -0.34982267
-0.043773394 -0.039610196 0.1892298 0.11787619 0.42176226 -0.00078271545 -0.28319106 0.064258866
-0.330065 0.015583554 -0.4045878 -0.3431188 -0.38159513 -0.030894201 0.17076461 -0.39677668
0.29413924 -0.1293886 0.25008404 -0.10092356 -0.15436605 -0.10442294 0.33630434 0.3243813
0.25067478 -0.2658134 -0.33468822 -0.01636378 -0.3175818 0.093661234 -0.3994295 0.094448365
-0.33016095 -0.32274672 -0.29154474 0.1465088 0.37378946 0.15262388 -0.408484 0.20964882
0.15121263 0.11312837 -0.27749404 0.37727788 0.40560815 -0.33163375 -0.09984357 -0.44307512
0.21375848 -0.15106107
00000000: 2e58 0c3e 68ce 363d 0064 133d d40f c33c
00000010: abd7 e1bc 00a2 de3e cb5d ca3e 66dc 9dbd
00000020: e01d b53e e527 293e 58e3 c43d 9e99 f73d
00000030: 36c0 c7be 60a5 463e afdf 653e deda 0b3e
00000040: 04e5 883c 8dac ca3d 9d58 66be 0d00 e8be
00000050: 0a13 07be cd81 0ebe cad4 67be 2ecc e13e
00000060: 6710 cc3e ebad a43e 60bb c43d 3fb2 533e
00000070: d548 403e 6725 86be d6fe c2be bce6 d6be
00000080: b2d3 863e 0be7 d83d 7ed8 86be c808 bbbe
00000090: 2f68 96be 5f99 06be 8139 563d f3b3 173c
000000a0: 594e e93e 6c3c 153e f473 9abe c836 6e3e
000000b0: 897b 5bbe 5278 b93d 91fc f13e 4fb9 823e
000000c0: 06f4 573d f278 dc3e d42b 89be 41ac 7fbc
000000d0: d5f3 7dbd 3326 c0be 3341 31bd f70a bebe
000000e0: af1e 8dbd f609 9e3c 93dd 283e 322e b8be
000000f0: 0bf4 ac3e 74da 4fbe e19f 7abe a8a1 9e3e
00000100: 670e e1be f9e8 c93e e289 c33e d2f0 113e
00000110: 2a6c 093d be78 c93e cabd 7b3b 4635 97bc
00000120: 37a2 a83c ee94 943e 66e6 923e 9435 e8be
00000130: 7d66 48be 1a42 39be beda b8be 02ba d73e
00000140: c33c 1cbe 28c1 f33d f8ec b43d 95b2 84bc
00000150: f9a0 653e 3311 25bd c95f a4be 52dc 8a3e
00000160: 5ee0 bc3d 12ac 153e d44e 8fbd 1a94 133e
00000170: d15b c5bb eed5 1a3e 41f1 053b 0595 e53e
00000180: 4c7b d13e e63d 27be 6c0a 89be cb27 0f3e
00000190: 1032 5c3e a765 113e 3aa6 bcbe 99c7 543d
000001a0: 6591 c8be d3f3 f13c d20f 573d 105a 893e
000001b0: d903 15bd 5cbc acbe bf37 cabe e154 a83e
000001c0: d4a9 ba3e 3abf d73e 302d 67be c229 f3be
000001d0: cbcb 273e 2eae 193e c08a 5e3e a1e3 a6be
000001e0: 870f 84be 624e 823e 0959 b43e 6084 f23e
000001f0: 5315 89be 25de 023e 85ba 1b3e c6f3 ffbd
00000200: dcda bebe 44d9 debe f5d7 c2be 9fd0 de3d
00000210: 6aca 7e3b 9027 933e c328 443e cb45 893e
00000220: 2d5c 103e ef17 73be d323 d83e 9f99 ddbe
00000230: 31a4 0b3e 9190 9dbd 1d6d 6d3e ac2a cb3e
00000240: 8d9d 04be 9224 2ebe 5523 2cbe 93d7 dcbe
00000250: 057f b03d aed7 893e 7b21 c7be 6205 ccbd
00000260: 9275 2d3d 69a2 b43c 1c9e ecbe fead b73e
00000270: 4d5c 693e 1642 a7be bba9 a7be b284 76bd
00000280: 4661 56be 96be 64be 968b aa3e 80b8 d9be
00000290: e445 473e d74d cabe c4a4 b7be 3773 943e
000002a0: 277a d8bd 847f 573c f4a7 cc3e 6f7d 673e
000002b0: f213 00be e798 c43e 958f d4be ae76 633e
000002c0: 583e bcbd c39d 9bbe 59c6 413d c7a3 b23e
000002d0: b587 ccbd 1cf9 b63c 88c1 f23d 4e83 97be
000002e0: e8a2 d03e 8d7f c2be cc8c a83e e40f 1e3e
000002f0: a204 46bd c917 823e 52c3 75be bf09 68be
00000300: 00c3 e5bd 559e 8fbc 0b71 c33e 53ea d33e
00000310: f4f2 11bf 8297 a5bd 3894 cb3e f51b b3be
00000320: bb4b 33bd 4d3e 22bd 75c5 413e 1269 f13d
00000330: 39f1 d73e 252f 4dba 6bfe 90be 279a 833d
00000340: 48fe a8be 2a52 7f3c 2226 cfbe 44ad afbe
00000350: 7060 c3be d615 fdbc ebdc 2e3e 5026 cbbe
00000360: 6b99 963e 727e 04be 040b 803e 03b1 cebd
00000370: 2212 1ebe b2db d5bd 1530 ac3e 4e15 a63e
00000380: 7258 803e b218 88be 415c abbe 550d 86bc
00000390: 159a a2be 76d1 bf3d 0682 ccbe 256e c13d
000003a0: db0a a9be 0f3f a5be 5a45 95be 6706 163e
000003b0: 5561 bf3e 6f49 1c3e d124 d1be 2eae 563e
000003c0: 7cd7 1a3e d9af e73d b313 8ebe 912a c13e
000003d0: dfab cf3e e6cb a9be c97a ccbd beda e2be
000003e0: 81e3 5a3e c1af 1abe

gat_layer_1.out_att.a f4 [10, 1]
0.5858874 -0.6992799 -0.36338243 -1.0545282 -0.3068566 -0.41256052 0.13255072 0.91516083
-0.59495836 -0.2558519
00000000: b7fc 153f 0204 33bf 430d babe c8fa 86bf
00000010: 4f1c 9dbe 223b d3be 60bb 073e fb47 6a3f
00000020: 314f 18bf 05ff 82be

gat_layer_2.attention_0.W f4 [5, 10]
-0.010850463 -0.45571882 -0.12284607 -0.027262814 -0.00024252836 -0.28741518 -0.38246483 -0.23697814
0.25695384 -0.5916631 0.7370827 0.6657226 0.50363314 -0.64625883 -0.14665426 0.3204911
0.060513005 -0.068953946 0.1860031 -0.5382017 -0.1841151 0.62201667 -0.9151557 -0.5535845
0.24079207 0.48819146 0.466503 -0.7326342 0.121562414 -0.080048084 0.20860907 0.5031419
0.6709458 0.61375177 -0.48710647 -0.7891485 -0.2840118 0.5594222 -0.7871229 0.20555334
-0.8868569 -0.24941964 -0.23724693 -0.0323996 0.7604845 -0.49515602 -0.054380175 -0.79318076
-0.8431041 0.71961653
00000000: 24c6 31bc fa53 e9be b896 fbbd 4456 dfbc
00000010: 364f 7eb9 1528 93be 6ed2 c3be 66aa 72be
00000020: 748f 833e 3c77 17bf 74b1 3c3f cc6c 2a3f
00000030: 1aee 003f 3871 25bf 892c 16be 6917 a43e
00000040: 7cdc 773d ba37 8dbd 9977 3e3e 96c7 09bf
00000050: ab88 3cbe 7c3c 1f3f a547 6abf b7b7 0dbf
00000060: 3292 763e 3bf4 f93e 7bd9 ee3e ea8d 3bbf
00000070: b7f5 f83d 40f0 a3bd 9e9d 553e e8cd 003f
00000080: 1bc3 2b3f d61e 1d3f 0566 f9be a305 4abf
00000090: ff69 91be 4b36 0f3f e380 49bf 937c 523e
000000a0: 0e09 63bf dd67 7fbe dcf0 72be 71b5 04bd
000000b0: 1daf 423f 1785 fdbe bfbd 5ebd e50d 4bbf
000000c0: acd5 57bf ca38 383f

gat_layer_2.attention_0.a f4 [20, 1]
-0.40491265 0.62429816 -0.14316286 -0.73735493 -0.17039193 0.6874873 0.33652496 -0.092747085
-0.008079489 -0.7078277 -0.12263974 -0.25706342 -0.14064471 0.5468748 -0.052282788 0.7195681
-0.5926397 -0.35306624 0.45486438 -0.45302904
00000000: b650 cfbe 01d2 1f3f 4999 12be 4bc3 3cbf
00000010: 397b 2ebe 2bff 2f3f 004d ac3e 2ff2 bdbd
00000020: d55f 04bc 3234 35bf 8b2a fbbd d19d 83be
00000030: 2b05 10be fdff 0b3f 7a26 56bd 9d35 383f
00000040: 3cb7 17bf 19c5 b4be fce3 e83e 6cf3 e7be

gat_layer_2.attention_1.W f4 [5, 10]
0.37616295 0.10550147 0.7481476 0.62177885 0.28978395 0.19693613 0.37957492 -0.72794175
0.12593523 0.44514683 -0.12334065 -0.8277414 -0.59961843 -0.32110375 -0.27035117 0.45521858
0.8296617 0.47047135 -0.31949484 0.2751275 0.5309839 -0.4160689 0.74114114 0.8733355
-0.101502046 -0.29702014 0.80353314 0.66747624 -0.3326976 0.9314152 -0.3208477 -0.37427428
-0.35122538 0.7429007 0.5344972 -0.044134896 -0.8720531 -0.0036252812 -0.89926726 -0.6523321
0.36062825 0.6197632 0.66334784 -0.35134083 -0.55325 -0.3221291 0.12845644 -0.23114723
-0.02470952 -0.7839558
00000000: 6e98 c03e 2811 d83d 9a86 3f3f e62c 1f3f
00000010: 905e 943e a0a9 493e a557 c23e 645a 3abf
00000020: 2af5 003e 49ea e33e 069a fcbd dce6 53bf
00000030: 9880 19bf b667 a4be 786b 8abe 6912 e93e
00000040: b664 543f 9fe1 f03e d494 a3be 83dd 8c3e
00000050: 90ee 073f fc06 d5be 6dbb 3d3f ea92 5f3f
00000060: 4ee0 cfbd 0613 98be 59b4 4d3f b9df 2a3f
00000070: 5757 aabe 3a71 6e3f 2646 a4be e1a0 bfbe
00000080: d0d3 b3be be2e 3e3f cfd4 083f cbc6 34bd
00000090: df3e 5fbf 2096 6dbb 6136 66bf 3dff 26bf
000000a0: 44a4 b83e cda8 1e3f 2ad1 293f f2e2 b3be
000000b0: cba1 0dbf 1bee a4be 168a 033e dcb1 6cbe
000000c0: 9f6b cabc 54b1 48bf

gat_layer_2.attention_1.a f4 [20, 1]
-0.6409395 0.52871317 -0.17965627 0.13529848 -0.7073901 -0.5315375 0.6211659 0.30312586
0.21832122 -0.1228112 0.06273447 -0.48132342 0.19915047 0.17872795 0.43565625 -0.36321202
0.10246234 -0.28271538 -0.4055483 -0.73752284
00000000: 9c14 24bf bf59 073f d0f7 37be af8b 0a3e
00000010: 8517 35bf d712 08bf ba04 1f3f 5033 9b3e
00000020: 998f 5f3e 7084 fbbd ee7a 803d 0670 f6be
00000030: 1aee 4b3e 7604 373e 560e df3e edf6 b9be
00000040: c6d7 d13d 12c0 90be 07a4 cfbe 4cce 3cbf

gat_layer_2.attention_2.W f4 [5, 10]
0.2381693 -0.73324513 -0.17232214 0.67886543 0.09230725 -0.05134417 -0.07924553 0.073985316
0.034943238 0.6260707 0.30827907 -0.49974 0.6858898 -0.7255225 0.20376037 0.15204692
-0.59715176 -0.25173593 0.021824697 -0.7211332 -0.34460333 0.6177603 -0.59096146 0.2657998
-0.5439276 0.08865088 0.21297324 0.20947294 -0.13247861 0.7758207 0.39841118 0.53098106
-0.1506316 0.28115943 -0.5146206 -0.16292843 -0.7418737 -0.60414135 0.255689 -0.39971703
-0.22710122 -0.5233658 -0.4419483 0.5305028 0.8393045 -0.38116565 -0.28843993 0.580176
0.19798793 0.8881863
00000000: a7e2 733e f4b5 3bbf 3775 30be 20ca 2d3f
00000010: 950b bd3d 444e 52bd 7b4b a2bd 9d85 973d
00000020: a420 0f3d 2b46 203f c1d6 9d3e ecdd ffbe
00000030: 7996 2f3f d8bb 39bf 8fa6 503e 30b2 1b3e
00000040: f0de 18bf 88e3 80be b5c9 b23c 2f9c 38bf
00000050: d96f b0be 8a25 1e3f 4049 17bf e916 883e
00000060: d73e 0bbf 988e b53d a815 5a3e 1380 563e
00000070: 79a8 07be 2f9c 463f 8dfc cb3e 60ee 073f
00000080: 2c3f 1abe 21f4 8f3e 2dbe 03bf b6d6 26be
00000090: 6feb 3dbf 02a9 1abf abe9 823e b6a7 ccbe
000000a0: 398d 68be 4dfb 05bf 0c47 e2be 08cf 073f
000000b0: a9dc 563f 2528 c3be 66ae 93be 6a86 143f
000000c0: 59bd 4a3e 2d60 633f

gat_layer_2.attention_2.a f4 [20, 1]
-0.27857944 -0.73800886 0.23100378 0.6463679 -0.6050354 0.7672942 -0.65540606 -0.5523407
-0.13588521 -0.26350558 0.6178849 0.31558877 0.61380726 -0.22646914 0.13084461 0.2252935
-0.032849655 -0.028854605 -0.38026866 -0.4838043
00000000: f7a1 8ebe 26ee 3cbf 418c 6c3e 5e78 253f
00000010: 9ae3 1abf 656d 443f b1c8 27bf 3366 0dbf
00000020: 7e25 0bbe 34ea 86be b42d 1e3f da94 a13e
00000030: 7922 1d3f 87e7 67be 21fc 053e 57b3 663e
00000040: 5c8d 06bd 7e60 ecbc 93b2 c2be 32b5 f7be

gat_layer_2.attention_3.W f4 [5, 10]
-0.82891965 0.6110358 -0.3359971 0.7103854 -0.42662406 0.90081996 0.03271833 0.686512
0.18860236 0.30650926 0.8789483 0.6121107 0.13118447 0.7370075 0.13690446 -0.3551324
-0.73878956 0.760436 -0.51378447 0.48702016 0.78666663 0.28207377 -0.25677195 -0.5522347
0.702154 0.5299656 0.09118105 -0.48389876 -0.7303412 0.3856438 0.021012831 -1.0261663
0.84484863 0.1776913 0.43040258 -0.7397735 -0.07121236 0.27112707 0.18484125 -0.1936913
0.7517173 -1.011388 0.2789888 0.6897434 0.15091096 -0.5737897 -0.73349285 0.13783012
0.37370396 0.476102
00000000: 1434 54bf d86c 1c3f d007 acbe d1db 353f
00000010: 786e dabe 239c 663f a803 063d 40bf 2f3f
00000020: fa20 413e c8ee 9c3e c102 613f 49b3 1c3f
00000030: 3955 063e 86ac 3c3f af30 0c3e ead3 b5be
00000040: 5021 3dbf efab 423f 6187 03bf b55a f93e
00000050: fc62 493f f96b 903e 9d77 83be 415f 0dbf
00000060: 5dc0 333f d3ab 073f 21bd ba3d 94c1 f7be
00000070: a4f7 3abf 1b73 c53e 1a23 ac3c 6b59 83bf
00000080: 0048 583f b5f4 353e ba5d dc3e cc61 3dbf
00000090: c9d7 91bd 2bd1 8a3e 0647 3d3e 0357 46be
000000a0: 8c70 403f 2975 81bf 9fd7 8e3e 0693 303f
000000b0: 6788 1a3e e2e3 12bf 30c6 3bbf 5723 0d3e
000000c0: 2056 bf3e a4c3 f33e

gat_layer_2.attention_3.a f4 [20, 1]
0.61567706 -0.39460808 -0.7400176 0.56922066 -0.24369055 0.050349995 0.41990516 -0.599432
-0.1733967 0.08505385 0.3200297 0.6179254 -0.14087047 0.32717487 -0.17603703 -0.20615825
-0.3836077 0.3024812 -0.49722785 -0.28542292
00000000: 039d 1d3f 120a cabe cb71 3dbf 72b8 113f
00000010: 048a 79be cc3b 4e3d cffd d63e 6074 19bf
00000020: e88e 31be b730 ae3d efda a33e 5c30 1e3f
00000030: 5940 10be 7783 a73e 0d43 34be 261b 53be
00000040: 3a68 c4be d1de 9a3e a694 febe f422 92be

gat_layer_2.attention_4.W f4 [5, 10]
-0.15420248 0.5489643 -0.67022425 -0.13026036 -0.27411893 0.3509345 -0.6279343 -0.3267034
0.0792151 0.2891754 0.52347445 0.25405508 0.2720179 0.6455063 0.8149101 0.49182415
-0.123145476 -0.2757422 -0.392878 -0.18636344 -0.604472 -0.8079697 -0.7088671 0.82453334
-0.19218242 -0.6633786 -0.7308935 -0.148933 0.13145661 -0.6428395 0.2674337 0.7211513
0.25929117 -0.54522747 -0.57999134 -0.3643417 0.74759173 0.16007747 0.25015807 -0.7575822
-0.095257126 -0.45016548 0.34278575 0.65476465 0.037140112 -0.64137495 -0.062455665 0.919316
-0.20443161 -0.789066
00000000: 41e7 1dbe ed88 0c3f d193 2bbf f962 05be
00000010: 5159 8cbe b0ad b33e 4dc0 20bf ab45 a7be
00000020: 873b a23d cc0e 943e 6c02 063f 8213 823e
00000030: ee45 8b3e e73f 253f f39d 503f 60d0 fb3e
00000040: b233 fcbd 152e 8dbe 4e27 c9be 0fd6 3ebe
00000050: adbe 1abf 1ad7 4ebf 5078 35bf 9e14 533f
00000060: 78cb 44be 2ed3 29bf d61b 3bbf e481 18be
00000070: 909c 063e 2191 24bf 12ed 883e 5f9d 383f
00000080: d0c1 843e 0794 0bbf 507a 14bf ff8a babe
00000090: 2c62 3f3f 59eb 233e b814 803e e8f0 41bf
000000a0: 2b16 c3bd 177c e6be 9d81 af3e a89e 273f
000000b0: 3b20 183d 2631 24bf 83d1 7fbd 4b58 6b3f
000000c0: 8556 51be 3b00 4abf

gat_layer_2.attention_4.a f4 [20, 1]
-0.047122974 0.22200201 0.7682667 -0.54411 -0.6688156 -0.51471865 -0.60353357 0.3690112
-0.20547375 -0.06276265 -0.3106741 0.5785084 -0.41446277 -0.69825023 0.3033185 0.58739513
-0.2811015 -0.6136259 0.6071043 -0.051603474
00000000: 0504 41bd 7f54 633e 20ad 443f cb4a 0bbf
00000010: 8037 2bbf 9ac4 03bf 2d81 1abf 09ef bc3e
00000020: b667 52be b489 80bd ad10 9fbe 2019 143f
00000030: 7734 d4be 87c0 32bf 904c 9b3e 875f 163f
00000040: 89ec 8fbe 9616 1dbf 306b 1b3f 2a5e 53bd

gat_layer_2.out_att.W f4 [50, 5]
0.44764638 -0.20590405 -0.16107066 -0.15036657 -0.34782863 0.18836412 -0.0563051 0.286527
0.34905088 0.14665459 -0.114559144 0.30192283 -0.30085796 -0.33057028 -0.34167963 0.0057110284
-0.21481471 -0.07795396 -0.27687284 -0.33007377 0.17430165 -0.08275666 0.11207636 -0.07353816
0.019537397 -0.25978208 -0.19742993 0.30121064 -0.016430419 -0.15329194 -0.15155557 0.38260418
0.32856402 0.25715533 0.17107776 -0.16926694 -0.2935903 -0.24049361 0.07845879 0.24834886
-0.11939337 -0.3544254 -0.045508884 -0.40444773 0.03273545 0.15133516 0.3984175 -0.11089292
0.41994783 0.3911933 0.023163846 -0.12879817 -0.18381417 -0.3453994 -0.27683038 -0.19773732
0.0075559015 -0.055511486 -0.25226757 0.29285786 0.116489336 -0.2147141 -0.43465105 0.3278665
-0.29742172 -0.39238018 0.3970362 0.28407073 -0.060397577 0.17409028 -0.28383243 0.3959418
-0.062485073 -0.2094054 -0.110812776 -0.411081 0.037643276 0.17711353 -0.23128875 -0.14759073
-0.31754902 0.10848783 -0.07333355 0.24932514 -0.014463459 -0.08618737 -0.098124586 -0.4575369
-0.07136133 -0.311471 -0.076177165 -0.31586424 -0.17661002 -0.24501787 -0.51398855 0.11285323
0.1942036 0.20870434 0.04286298 0.1354869 -0.36330605 -0.32789606 -0.07235567 -0.13406315
-0.25429028 -0.37698114 -0.13781624 -0.42444164 0.20231383 -0.4300501 -0.46104768 -0.19742286
-0.09926568 0.28784052 0.29178393 0.12748784 0.21393402 0.20796746 0.18470997 -0.14792128
-0.4011963 -0.3074198 0.1855544 0.2994508 0.21552387 0.016502686 0.3045372 -0.36284754
0.28726733 -0.40345135 -0.16227391 0.2012551 0.37323487 -0.35533544 -0.0042887754 -0.24854405
-0.21106964 -0.22565997 0.0067771277 -0.27287948 -0.08500735 -0.2631477 0.02010333 -0.37631446
-0.0087066265 -0.4293396 0.44056898 -0.1531658 0.27937686 -0.43672246 0.321425 -0.4793781
0.16264087 7.850034e-05 0.2456277 -0.18132544 -0.25516126 -0.15786642 -0.06422121 -0.1519734
0.11205906 -0.23272435 -0.023488011 -0.15479429 0.30523434 -0.20614211 0.37154952 0.3858034
0.013961251 0.37295654 0.22328435 -0.07803046 0.204526 0.40618652 0.35357994 0.13440077
-0.24389867 -0.16690758 0.33229017 -0.006882063 0.19691966 -0.04146388 -0.31698653 -0.28926355
0.12817256 -0.2932574 0.42540953 -0.45590794 0.12380834 -0.23375511 -0.3704494 -0.027686069
-0.01876494 0.38363904 -0.0904824 0.11725465 0.22134759 -0.0048462125 0.017957177 0.5531278
-0.44101837 0.18211417 0.31667823 0.022456171 0.21565431 0.1861762 0.15846351 -0.05633555
-0.3860534 0.37817606 -0.111373454 -0.28172165 0.09855904 0.30581978 -0.13415496 0.17818795
0.21858454 -0.26419848 0.025524024 0.32534736 -0.39677474 0.38948536 0.30855125 -0.45126152
-0.14882882 0.36723247 0.3796472 -0.30384818 0.24744324 0.3996812 -0.43742016 -0.006121759
0.06766275 -0.35314068 0.033488322 -0.29375386 -0.29674748 0.3248691 0.2046178 0.046122707
-0.32153946 -0.0013732817 0.3685809 -0.11407384 -0.5033719 0.077154584 -0.21118604 -0.2589426
-0.022702182 -0.3568639
00000000: e831 e53e 83d8 52be b5ef 24be b2f9 19be
00000010: 9816 b2be 86e2 403e 2da0 66bd abb3 923e
00000020: ccb6 b23e 9f2c 163e fc9d eabd a195 9a3e
00000030: 0e0a 9abe 8240 a9be a2f0 aebe 9423 bb3b
00000040: 63f8 5bbe 53a6 9fbd 47c2 8dbe 6eff a8be
00000050: 227c 323e 537c a9bd 4a88 e53d 2d9b 96bd
00000060: e40c a03c 2802 85be 122b 4abe 4838 9a3e
00000070: 1699 86bc 90f8 1cbe 6231 1bbe b2e4 c33e
00000080: 8b39 a83e dda9 833e 022f 2f3e 5054 2dbe
00000090: 7851 96be f543 76be 01af a03d 2a4f 7e3e
000000a0: 8384 f4bd 3f77 b5be 8667 3abd c613 cfbe
000000b0: 9b15 063d 9bf7 1a3e 61fd cb3e d41b e3bd
000000c0: 6703 d73e 7d4a c83e 1bc2 bd3c abe3 03be
000000d0: c839 3cbe 31d8 b0be b6bc 8dbe a77b 4abe
000000e0: 7f97 f73b 0360 63bd 3729 81be 77f1 953e
000000f0: f691 ee3d 03de 5bbe 958a debe 1ede a73e
00000100: a947 98be 0ee6 c8be 5448 cb3e b871 913e
00000110: 7363 77bd b944 323e 7c52 91be e2b8 ca3e
00000120: 59f0 7fbd 5f6e 56be cff1 e2bd 3579 d2be
00000130: d62f 1a3d 405d 353e f5d6 6cbe 0622 17be
00000140: c995 a2be de2e de3d e62f 96bd 174f 7f3e
00000150: 25f8 6cbc 0183 b0bd 8bf5 c8bd 4742 eabe
00000160: e425 92bd 2079 9fbe c602 9cbd f5b8 a1be
00000170: 42d9 34be f7e5 7abe c194 03bf 981f e73d
00000180: 4fdd 463e 97b6 553e 1891 2f3d 14bd 0a3e
00000190: 4003 babe fee1 a7be 362f 94bd da47 09be
000001a0: 5632 82be ac03 c1be b31f 0dbe 6a50 d9be
000001b0: 5b2b 4f3e 872f dcbe 710e ecbe 3829 4abe
000001c0: ce4b cbbd d55f 933e b464 953e 2c8c 023e
000001d0: 8511 5b3e 6cf5 543e 9c24 3d3e ad78 17be
000001e0: 9a69 cdbe 2166 9dbe f901 3e3e 9e51 993e
000001f0: 4ab2 5c3e a430 873c 4dec 9b3e 27c7 b9be
00000200: b414 933e 2d91 cebe 222b 26be d115 4e3e
00000210: a418 bf3e 87ee b5be db88 8cbb 5582 7ebe
00000220: a422 58be 6813 67be ab12 de3b dcb6 8bbe
00000230: 5518 aebd 4cbb 86be bdaf a43c 4aac c0be
00000240: 3da6 0ebc 66d2 dbbe 4292 e13e 7fd7 1cbe
00000250: 7c0a 8f3e 169a dfbe d191 a43e 0c71 f5be
00000260: 548b 263e 8da0 a438 d485 7b3e 60ad 39be
00000270: 7fa4 82be bca7 21be 6986 83bd ea9e 1bbe
00000280: 387f e53d 4b4f 6ebe ee69 c0bc 6582 1ebe
00000290: ad47 9c3e eb16 53be bd3b be3e 0688 c53e
000002a0: bbbd 643c 29f4 be3e a7a4 643e 6fce 9fbd
000002b0: 446f 513e aef7 cf3e 6e08 b53e 5ba0 093e
000002c0: 93c0 79be d2e9 2abe f021 aa3e ee82 e1bb
000002d0: 4fa5 493e 08d6 29bd 0f4c a2be 5a1a 94be
000002e0: ab3f 033e d525 96be 47cf d93e c46c e9be
000002f0: 3a8f fd3d 805d 6fbe 8bab bdbe e5cd e2bc
00000300: eeb8 99bc 566c c43e d64e b9bd 3523 f03d
00000310: f1a8 623e facc 9ebb ee1a 933c c999 0d3f
00000320: 29cd e1be 237c 3a3e a623 a23e 01f6 b73c
00000330: 7cd4 5c3e f9a4 3e3e 4244 223e 1bc0 66bd
00000340: cba8 c5be 4ba0 c13e c417 e4bd d23d 90be
00000350: 52d9 c93d 6994 9c3e eb5f 09be e776 363e
00000360: a0d4 5f3e 0645 87be c217 d13c ee93 a63e
00000370: 0f26 cbbe a06a c73e 6efa 9d3e c00b e7be
00000380: 9566 18be e505 bc3e 1e61 c23e fd91 9bbe
00000390: c361 7d3e 04a3 cc3e 89f5 dfbe 0999 c8bb
000003a0: c592 8a3d dbce b4be 0d2b 093d e866 96be
000003b0: 49ef 97be 3e55 a63e 5487 513e 2aeb 3c3d
000003c0: d2a0 a4be b0ff b3ba a3b6 bc3e 8c9f e9bd
000003d0: fbdc 00bf 3903 9e3d 2741 58be 2094 84be
000003e0: edf9 b9bc ddb6 b6be

gat_layer_2.out_att.a f4 [10, 1]
0.103328004 0.87393194 -0.12207749 0.74507886 0.43794334 0.33813933 0.06264163 1.0202502
-0.36838657 -0.6383695
00000000: a29d d33d 01ba 5f3f c303 fabd 7dbd 3e3f
00000010: 1c3a e03e 9920 ad3e 414a 803d 8f97 823f
00000020: 2a9d bcbe 2f6c 23bf
