tests/gat/encoder-checkpoint17.pt (torch, 20210 bytes, 36 tensors)

gat_layer_0.attention_0.W f4 [5, 10]
-0.44613847 -0.79678464 0.39871114 -0.3159196 -0.13307936 0.3074606 0.7984186 -0.10636114
0.5018704 -0.4581459 -0.195074 0.16570267 0.27193946 -0.85313743 -0.2098686 0.09747044
-0.6642165 -0.13167486 -0.40038115 0.07647735 0.1457394 0.43303397 0.3672383 0.48277006
-0.08388909 -0.37548867 0.4045987 0.76391864 0.022096604 -0.101391025 -0.4652286 0.43651998
0.037148394 -0.5082226 -0.2709796 0.3855506 -0.9027197 0.3175353 0.7789215 -0.8466541
0.69422054 -0.7096812 0.23419397 0.3200041 -0.15536778 0.8159353 -0.04478604 0.7535096
0.44330114 -0.36516035
00000000: 436c e4be 14fa 4bbf de23 cc3e 37c0 a1be
00000010: f545 08be 7a6b 9d3e 2965 4c3f dfd3 d9bd
00000020: 947a 003f 1992 eabe 7bc1 47be f6ad 293e
00000030: a63b 8b3e 3767 5abf cbe7 56be 959e c73d
00000040: 180a 2abf c6d5 06be c2fe ccbe 28a0 9c3d
00000050: b63c 153e a1b6 dd3e a906 bc3e a32d f73e
00000060: 0bce abbd 0d40 c0be 9027 cf3e 2c90 433f
00000070: f003 b53c 19a6 cfbd 7132 eebe 8c7f df3e
00000080: ea28 183d e01a 02bf d7bd 8abe e366 c53e
00000090: a318 67bf fd93 a23e 6667 473f 53be 58bf
000000a0: 70b8 313f abad 35bf 8bd0 6f3e 94d7 a33e
000000b0: bb18 1fbe 23e1 503f 9171 37bd 01e6 403f
000000c0: 5ef8 e23e 4cf6 babe

gat_layer_0.attention_0.a f4 [20, 1]
-0.11805518 -0.23132408 0.18865035 0.74561137 -0.33628687 -0.04749005 0.62811226 -0.48812342
-0.07623777 0.6353303 -0.51622754 -0.7631702 0.49331492 -0.13457893 -0.14742349 -0.3271476
0.32294244 0.16715378 0.07871723 0.025666982
00000000: eac6 f1bd 38e0 6cbe 8f2d 413e 63e0 3e3f
00000010: cb2d acbe ed84 42bd f7cb 203f 50eb f9be
00000020: 8c22 9cbd 02a5 223f 7d27 04bf 1f5f 43bf
00000030: c693 fc3e 0fcf 09be 2ff6 16be e47f a7be
00000040: b658 a53e 5c2a 2b3e 8036 a13d 9043 d23c

gat_layer_0.attention_1.W f4 [5, 10]
-0.80854994 -0.016752778 -0.062055696 -0.021484109 -0.09303922 -0.20743799 -0.8222383 0.72465825
-0.7578361 -0.712572 0.37437224 -0.8383553 -0.7068627 0.7018459 0.8646222 -0.3794376
0.76273364 -0.31876308 -0.057908818 0.15914796 0.04692042 0.53897095 -0.5491248 -0.29983988
-0.20504668 -0.43452612 0.7840495 0.09106704 -0.72243035 -0.44839352 0.52769786 0.120377
0.3562765 0.3701196 0.053224433 0.77724546 -0.38769576 0.8632187 -0.3939652 -0.049538482
-0.59411645 -0.32672748 0.8218457 -0.67730856 0.58675826 0.6535345 -0.5239364 -0.527193
-0.7807021 -0.6406158
00000000: 21fd 4ebf 1f3d 89bc 1d2e 7ebd 71ff afbc
00000010: 598b bebd a06a 54be 367e 52bf 3483 393f
00000020: 8c01 42bf 1e6b 36bf b8ad bf3e 749e 56bf
00000030: f4f4 34bf 2cac 333f e157 5d3f a545 c2be
00000040: 8342 433f ea34 a3be cc31 6dbd aff7 223e
00000050: a02f 403d 00fa 093f 7193 0cbf 9d84 99be
00000060: c2f7 51be 357a debe 78b7 483f 5b81 ba3d
00000070: 32f1 38bf d693 e5be 3517 073f 3788 f63d
00000080: e069 b63e 5180 bd3e dd01 5a3d 8ff9 463f
00000090: 0f80 c6be e7fb 5c3f cfb5 c9be dde8 4abd
000000a0: 0418 18bf d348 a7be 7b64 523f 1864 2dbf
000000b0: ca35 163f 094e 273f b220 06bf 1ff6 06bf
000000c0: 18dc 47bf 66ff 23bf

gat_layer_0.attention_1.a f4 [20, 1]
-0.35759282 0.08648051 0.28057903 -0.23251668 0.23067153 -0.38750646 -0.53135896 -0.49869692
-0.0907004 -0.2562134 0.5465416 0.1781712 -0.30049297 -0.32080522 0.1818592 0.13114515
-0.3979396 -0.46982282 0.685629 0.02702079
00000000: 6816 b7be b21c b13d 0ea8 8f3e da18 6ebe
00000010: 2835 6c3e 3f67 c6be 2407 08bf 3455 ffbe
00000020: 22c1 b9bd 672e 83be 26ea 0b3f 8372 363e
00000030: 37da 99be 9540 a4be 4c39 3a3e ea4a 063e
00000040: bdbe cbbe 9e8c f0be 6285 2f3f b45a dd3c

gat_layer_0.attention_2.W f4 [5, 10]
0.82928693 -0.48192263 -0.14284539 0.79197353 0.67885476 0.082342505 -0.5928726 -0.54108346
-0.61837864 -0.55632746 0.26957747 -0.911743 -0.8442234 0.20224835 -0.22571811 -0.36294943
-0.837227 0.27913556 -0.079000436 -0.40719143 -0.54067564 0.67318887 0.7172214 -0.35447443
0.46092 0.1851656 -0.53800327 -0.4517951 0.8748003 0.6226119 -0.8846642 0.27578434
0.62666386 0.24588306 -0.5868377 -0.21749568 -0.7020908 -0.31677404 -0.5023216 0.5401852
-0.06649303 -0.19571127 -0.684687 0.20454092 0.037137754 -0.31469724 -0.82836026 -0.8487925
-0.15065622 0.3126937
00000000: 264c 543f 90be f6be 1046 12be c7be 4a3f
00000010: 6dc9 2d3f 30a3 a83d 80c6 17bf 7284 0abf
00000020: 104e 1ebf 7a6b 0ebf 0f06 8a3e fd67 69bf
00000030: 061f 58bf 311a 4f3e a622 67be 82d4 b9be
00000040: 8254 56bf dbea 8e3e fbca a1bd 657b d0be
00000050: b869 0abf 1b56 2c3f d29b 373f ac7d b5be
00000060: b5fd eb3e 0d9c 3d3e 95ba 09bf b051 e7be
00000070: eaf2 5f3f 7e63 1f3f 5a79 62bf 9b33 8d3e
00000080: 0b6d 203f c5c8 7b3e ff3a 16bf 30b7 5ebe
00000090: 39bc 33bf 3530 a2be 2698 00bf 9449 0a3f
000000a0: 7f2d 88bd 8968 48be a647 2fbf 2d73 513e
000000b0: c21d 183d ff1f a1be 6b0f 54bf 774a 59bf
000000c0: a045 1abe 6319 a03e

gat_layer_0.attention_2.a f4 [20, 1]
-0.45368257 -0.28993738 -0.36420316 -0.62452966 -0.72428083 0.53014743 0.024484152 0.5359962
0.45817128 0.5610712 0.73637366 -0.69156146 -0.5167241 0.24824859 0.49045616 0.24532555
0.65890735 -0.28277764 -0.5207239 -0.49489152
00000000: 1549 e8be ac72 94be d678 babe 2de1 1fbf
00000010: 786a 39bf beb7 073f fd92 c83c 0c37 093f
00000020: 6d95 ea3e 5da2 0f3f fc82 3c3f 2c0a 31bf
00000030: 0848 04bf e134 7e3e 121d fb3e 9f36 7b3e
00000040: 27ae 283f 3bc8 90be 294e 05bf 6c62 fdbe

gat_layer_0.attention_3.W f4 [5, 10]
-0.35532007 -0.109091975 0.077438556 0.39723253 -0.28456584 -0.814204 -0.64865565 0.8564788
-0.077480845 -0.52276903 -0.6932902 0.1552737 0.122801915 0.1457436 -0.41144958 -0.5717369
-0.6513676 0.16887474 0.55264 0.15464397 0.57779825 0.7140481 -0.25236452 0.11697588
0.353548 -0.6626387 0.41881213 -0.60728914 -0.51431125 0.35004643 -0.117378056 -0.015834097
-0.6023929 0.48466066 0.6383252 -0.7364068 -0.48354563 -0.689753 0.62038934 0.18242863
0.67916125 0.3242634 -0.7523381 0.45374686 0.13893716 -0.3463634 -0.63580835 0.15071766
0.6786619 -0.6576975
00000000: 83ec b5be 9d6b dfbd 1b98 9e3d 1062 cb3e
00000010: 9db2 91be ac6f 50bf 4c0e 26bf 3242 5b3f
00000020: 47ae 9ebd 31d4 05bf 777b 31bf 1200 1f3e
00000030: 927f fb3d cf3d 153e 85a9 d2be 595d 12bf
00000040: 07c0 26bf 80ed 2c3e d179 0d3f fd5a 1e3e
00000050: 96ea 133f dbcb 363f ec35 81be 0d91 ef3d
00000060: 3e04 b53e b1a2 29bf 8b6e d63e 4d77 1bbf
00000070: e7a9 03bf 4939 b33e e863 f0bd 82b6 81bc
00000080: 6c36 1abf 7125 f83e 4869 233f 2885 3cbf
00000090: 4b93 f7be a793 30bf d6d1 1e3f 92ce 3a3e
000000a0: 83dd 2d3f da05 a63e 3b99 40bf 8251 e83e
000000b0: 8b45 0e3e 8b56 b1be 56c4 22bf bb55 1a3e
000000c0: c9bc 2d3f dd5e 28bf

gat_layer_0.attention_3.a f4 [20, 1]
-0.32637554 0.042879358 0.4880692 0.7478731 0.65465677 0.6661543 -0.038334876 0.74593216
0.082022086 -0.52172035 -0.25781113 -0.58110976 -0.054008007 -0.65157753 -0.37653735 0.0837014
0.47114864 0.021401016 0.44602805 0.12057516
00000000: b21a a7be 44a2 2f3d 35e4 f93e 9d74 3f3f
00000010: 9697 273f 1789 2a3f 0805 1dbd 69f5 3e3f
00000020: 32fb a73d 778f 05bf d2ff 83be 9cc3 14bf
00000030: 8037 5dbd c9cd 26bf 81c9 c0be a46b ab3d
00000040: 653a f13e 2f51 af3c ca5d e43e 1cf0 f63d

gat_layer_0.attention_4.W f4 [5, 10]
-0.3000478 -0.7430904 0.7776803 0.34789425 0.0089145815 0.31582767 0.4804306 0.28696406
-0.32371697 -0.67870486 -0.12323626 -0.4594958 -0.8706657 -0.58289707 0.40923142 0.5118846
-0.64468354 -0.2543996 0.34244058 0.4119942 -0.6818168 0.51222056 -0.32005408 -0.45094368
-0.66920066 0.24454594 0.10421067 0.503315 -0.1478004 0.6362734 -0.20670727 -0.25506538
-0.46600214 0.5713996 -0.8896083 0.1991149 -0.7150028 -0.43553388 -0.79646814 0.71795
-0.6233098 0.7466254 0.57237965 -0.06760293 -0.26050994 0.81277925 0.8167353 0.81527877
-0.8218574 0.1414455
00000000: de9f 99be 2c3b 3ebf 0e16 473f 321f b23e
00000010: 770e 123c 2ab4 a13e 00fb f53e f4ec 923e
00000020: 3bbe a5be 9abf 2dbf 4b63 fcbd 0943 ebbe
00000030: f3e3 5ebf be38 15bf c886 d13e df0a 033f
00000040: fb09 25bf aa40 82be 5f54 af3e e7f0 d23e
00000050: 8c8b 2ebf e320 033f 21de a3be 17e2 e6be
00000060: bc50 2bbf 406a 7a3e 676c d53d 40d9 003f
00000070: fd58 17be d0e2 223f 12ab 53be ee97 82be
00000080: d597 eebe 3f47 123f 5fbd 63bf c7e4 4b3e
00000090: 6c0a 37bf 4cfe debe 56e5 4bbf 92cb 373f
000000a0: 3b91 1fbf d822 3f3f 7987 123f 6873 8abd
000000b0: 8f61 85be 4d12 503f 9115 513f 1cb6 503f
000000c0: 3f65 52bf 17d7 103e

gat_layer_0.attention_4.a f4 [20, 1]
0.023797901 -0.45122772 -0.46845165 -0.42784294 -0.28092635 0.5465991 0.42582986 0.16287346
-0.44880205 0.38815314 0.6480995 0.6473923 -0.23568042 0.5785078 0.3800391 0.52584225
0.4266657 0.49606472 0.5549771 -0.5619272
00000000: d1f3 c23c 5207 e7be e5d8 efbe 3b0e dbbe
00000010: 94d5 8fbe ebed 0b3f 5f06 da3e 4dc8 263e
00000020: 62c9 e5be 02bc c63e d9e9 253f 80bb 253f
00000030: 3556 71be 1619 143f 7c94 c23e 999d 063f
00000040: ed73 da3e 32fc fd3e fb12 0e3f 76da 0fbf

gat_layer_0.out_att.W f4 [50, 5]
-0.42305118 -0.27805752 0.023442961 -0.23515192 -0.26436388 -0.48139137 0.06063664 -0.28651652
0.14030664 -0.19949411 0.288049 -0.3455698 0.19567204 0.0042412104 0.24901529 -0.04481857
-0.18994108 0.09485841 0.35676807 -0.36614406 0.4008542 -0.047142234 0.13992997 0.20981428
0.443453 -0.28267834 0.02925187 0.37172323 0.25580752 -0.18803743 0.39853445 0.23474011
-0.33549806 -0.269072 0.17585939 -0.49192867 0.010181641 0.2511116 -0.27160907 0.013726942
0.17822692 -0.25747526 -0.050920404 0.1251635 0.018271757 -0.3512722 0.22962475 -0.13108529
-0.3074877 0.26417598 -0.31754503 0.2387961 -0.19489007 -0.2609911 -0.0925288 -0.19482586
0.2019822 -0.017878013 0.23266898 -0.31259376 -0.015487929 0.3226773 -0.39749727 0.3724573
0.32328227 0.11392952 0.20893866 -0.2722486 0.1970687 0.45725232 0.030095479 -0.45318604
0.2710924 -0.3597753 0.42945287 -0.06787718 -0.06684627 -0.047955196 0.32007116 -0.4359087
-0.23042856 0.24934395 -0.16360545 0.46644917 0.41406518 0.04663159 -0.17779604 0.21689494
-0.008570323 0.16726974 -0.4306971 -0.041132197 -0.0112371445 0.053813446 0.38012123 0.31756854
-0.28149238 -0.23633687 0.3704882 0.23701245 0.1974778 -0.42594954 -0.070617065 -0.07190111
0.37635309 0.2930681 0.31396338 -0.029532202 -0.19324867 -0.4142141 0.3835059 0.28615713
-0.25649 -0.14255969 0.30836543 0.02195226 -0.14538981 -0.17706296 0.15320484 -0.20516056
0.13837148 -0.41399693 0.09801683 0.10161762 -0.08132539 0.064124756 0.14666359 -0.2857723
0.3093554 -0.24045976 -0.30461413 -0.25657463 0.3245957 -0.47576496 -0.32291874 0.36479193
-0.034819428 -0.4071554 0.4335881 -0.33437416 -0.23707546 -0.090562165 0.2660755 -0.4071122
0.30097032 0.40233198 -0.16654216 0.21641964 -0.3176079 -0.3529513 0.0025174543 0.36639154
-0.0696001 -0.38721362 0.10402157 0.28078794 -0.15755568 -0.44103247 0.25196764 0.17528614
-0.37492985 0.20381033 -0.36855066 0.28818485 0.41880605 -0.4197665 0.18360765 0.4197525
0.17890957 0.4500591 -0.20033799 -0.23350358 0.4550496 0.35204425 -0.3600905 -0.13350068
0.4049934 0.010632465 0.3692503 0.1433405 0.2058552 0.35326862 0.28624195 -0.3647928
0.05871352 -0.33668333 0.20617083 0.25936723 0.09427287 -0.25013646 -0.31024593 0.2973616
0.06515588 -0.3139664 -0.3745509 0.34304795 0.2194744 -0.32127073 0.1495432 0.031178933
-0.18556453 0.34529793 0.29837164 -0.11105293 -0.18315448 0.0013923016 0.32591507 0.08027288
0.3018451 -0.23686957 0.1233826 0.2524912 0.042698987 -0.08777574 0.21714538 -0.06710959
-0.384856 0.37011793 -0.16024947 0.2858937 0.43244898 0.41401297 0.038221758 -0.3864248
0.09389633 -0.20936151 -0.34355563 0.0022268803 -0.13301961 0.14764959 -0.10257488 -0.08702467
-0.42535996 0.266991 -0.46776634 -0.1681087 0.007031627 -0.09902203 0.37538874 -0.25358716
-0.20864436 -0.44308192 0.39399132 -0.2855488 0.3283306 0.023344692 -0.4408503 0.37552887
-0.4386406 -0.17822973
00000000: 2a9a d8be 8e5d 8ebe 740b c03c aacb 70be
00000010: b45a 87be ee78 f6be 205e 783d 4bb2 92be
00000020: 8bac 0f3e 2f48 4cbe 297b 933e 86ee b0be
00000030: 405e 483e daf9 8a3b ddfd 7e3e ad93 37bd
00000040: ea7f 42be 2045 c23d 4eaa b63e 3c77 bbbe
00000050: c33c cd3e 3718 41bd cd49 0f3e 8ed9 563e
00000060: 460c e33e 37bb 90be 9ea1 ef3c 8252 be3e
00000070: 34f9 823e e28c 40be b50c cc3e b65f 703e
00000080: 67c6 abbe cec3 89be 7c14 343e 13de fbbe
00000090: e6d0 263c b391 803e 5810 8bbe f8e6 603c
000000a0: 1e81 363e ccd3 83be ea91 50bd dc2a 003e
000000b0: a7ae 953c f3d9 b3be c022 6b3e 393b 06be
000000c0: 076f 9dbe 1342 873e 4395 a2be f786 743e
000000d0: 4391 47be a0a0 85be bd7f bdbd 6e80 47be
000000e0: 6cd4 4e3e e974 92bc c740 6e3e 4a0c a0be
000000f0: 15c1 7dbc f635 a53e c384 cbbe b9b2 be3e
00000100: 4185 a53e e153 e93d 04f4 553e 2b64 8bbe
00000110: 61cc 493e fa1c ea3e cb8a f63c 0008 e8be
00000120: a0cc 8a3e 7834 b8be 3fe1 db3e 3103 8bbd
00000130: b2e6 88bd ab6c 44bd 5ee0 a33e 6d2f dfbe
00000140: 77f5 6bbe 0554 7f3e 3088 27be 6dd2 ee3e
00000150: 5a00 d43e c400 3f3d 2a10 36be b519 5e3e
00000160: 8a6a 0cbc c248 2b3e 5584 dcbe 3c7a 28bd
00000170: 001c 38bc 7d6b 5c3d 409f c23e 5898 a23e
00000180: c51f 90be 4b02 72be a1b0 bd3e 64b3 723e
00000190: 9f37 4a3e 0f16 dabe ae9f 90bd e440 93bd
000001a0: 5ab1 c03e 060d 963e cfbf a03e 84ed f1bc
000001b0: fbe2 45be df13 d4be e35a c43e 3083 923e
000001c0: a852 83be 2bfb 11be 13e2 9d3e 3ad5 b33c
000001d0: 11e1 14be fe4f 35be bbe1 1c3e 9c15 52be
000001e0: 41b1 0d3e 68f7 d3be 0cbd c83d e61c d03d
000001f0: ed8d a6bd d753 833d fb2e 163e bf50 92be
00000200: d563 9e3e 153b 76be 62f6 9bbe c05d 83be
00000210: 6831 a63e 7797 f3be 9b55 a5be 02c6 ba3e
00000220: d19e 0ebd ac76 d0be 42ff dd3e 1733 abbe
00000230: e9c3 72be a878 b9bd 0c3b 883e 0371 d0be
00000240: c818 9a3e 75fe cd3e 078a 2abe 1c9d 5d3e
00000250: 819d a2be 08b6 b4be e0fb 243b ac97 bb3e
00000260: 7f8a 8ebd dd40 c6be 4309 d53d 70c3 8f3e
00000270: 4756 21be 02cf e1be e701 813e 367e 333e
00000280: cef6 bfbe a8b3 503e acb2 bcbe f78c 933e
00000290: bf6d d63e a2eb d6be a503 3c3e cde9 d63e
000002a0: 1234 373e 256e e63e 6725 4dbe 901b 6fbe
000002b0: 43fc e83e 253f b43e c85d b8be 67b4 08be
000002c0: 4c5b cf3e ca33 2e3c 600e bd3e dac7 123e
000002d0: b5cb 523e a0df b43e 4e8e 923e 1fc6 babe
000002e0: 977d 703d c261 acbe 721e 533e c8cb 843e
000002f0: 2212 c13d e311 80be 8ed8 9ebe c83f 983e
00000300: 7270 853d 34c0 a0be 23c5 bfbe fba3 af3e
00000310: e6bd 603e 997d a4be da21 193e f66a ff3c
00000320: a104 3ebe e4ca b03e 2bc4 983e b86f e3bd
00000330: d98c 3bbe e47d b63a 57de a63e 1c66 a43d
00000340: 718b 9a3e f08d 72be 04b0 fc3d 8746 813e
00000350: 22e5 2e3d c4c3 b3bd 5c5b 5e3e c170 89bd
00000360: d80b c5be 1980 bd3e 7018 24be a960 923e
00000370: f469 dd3e 82f9 d33e 6b8e 1c3d 79d9 c5be
00000380: b84c c03d dd62 56be 86e6 afbe daf0 113b
00000390: 4b36 08be 7431 173e c712 d2bd fd39 b2bd
000003a0: c8c8 d9be 0bb3 883e 127f efbe b024 2cbe
000003b0: 9069 e63b 10cc cabd f432 c03e 2dd6 81be
000003c0: dea6 55be a2db e2be 3bb9 c93e 7433 92be
000003d0: f31a a83e 5e3d bf3c 21b7 e1be 5245 c03e
000003e0: 8095 e0be db81 36be

gat_layer_0.out_att.a f4 [10, 1]
0.14250648 0.99056345 -0.65660346 -0.4316863 -0.4302345 -0.7703101 0.39473057 -0.1087603
-1.000184 -0.70248044
00000000: 38ed 113e 9195 7d3f 2a17 28bf fd05 ddbe
00000010: b247 dcbe 0b33 45bf 201a ca3e b8bd debd
00000020: 0806 80bf c2d5 33bf

gat_layer_1.attention_0.W f4 [5, 10]
0.030747587 -0.27157107 0.54030734 -0.8646221 0.47750428 -0.18478835 0.32728145 -0.03248177
-0.74059826 -0.53813237 0.7215594 -0.7868369 -0.42904344 -0.10814558 -0.8183479 0.01359235
-0.7048563 -0.71905935 -0.6352932 0.53642714 0.4545328 -0.66711044 0.74103624 -0.25925133
0.67279863 0.03980921 -0.4774181 0.88302547 0.12644084 0.7814096 0.117596455 -0.784242
0.3804966 -0.13080324 0.22421406 0.8661186 -0.5192482 -0.66840595 -0.22099875 -0.03372439
-0.21160677 0.75624585 0.8214521 0.73320675 -0.83692795 -0.6095046 0.6299639 -0.335031
0.52249247 0.44116917
00000000: 5de2 fb3c 5d0b 8bbe 9551 0a3f e057 5dbf
00000010: 717b f43e 2839 3dbe 6f91 a73e 9b0b 05bd
00000020: d997 3dbf 0bc3 09bf 1eb8 383f 256e 49bf
00000030: 95ab dbbe 6e7b ddbd 3f7f 51bf 73b2 5e3c
00000040: 7671 34bf 4614 38bf 93a2 22bf 4a53 093f
00000050: 86b8 e83e c0c7 2abf 8db4 3d3f 97bc 84be
00000060: 883c 2c3f fb0e 233d 2570 f4be f50d 623f
00000070: b579 013e 760a 483f 69d6 f03d 15c4 48bf
00000080: 73d0 c23e 49f1 05be 5f98 653e f3b9 5d3f
00000090: 73ed 04bf a71c 2bbf 7f4d 62be 9622 0abd
000000a0: 72af 58be 5499 413f af4a 523f 70b3 3b3f
000000b0: e940 56bf 7e08 1cbf 5045 213f 2f89 abbe
000000c0: 11c2 053f ede0 e13e

gat_layer_1.attention_0.a f4 [20, 1]
0.20923845 -0.5370848 -0.2043567 -0.4051714 0.73119426 -0.75019675 -0.32189712 -0.7347326
0.6972662 -0.6348577 0.7397386 -0.15921474 -0.20154902 -0.14472565 0.6780134 0.19195068
0.45823547 -0.21929221 -0.731652 -0.18089895
00000000: 9b42 563e 647e 09bf e242 51be a072 cfbe
00000010: 8c2f 3b3f e50c 40bf b3cf a4be 7017 3cbf
00000020: 0a80 323f 0986 22bf 825f 3d3f 3009 23be
00000030: de62 4ebe f632 14be 4992 2d3f b88e 443e
00000040: d79d ea3e 238e 60be 8c4d 3bbf 933d 39be

gat_layer_1.attention_1.W f4 [5, 10]
0.53361356 -0.007979443 0.5023149 0.5021526 -0.4363007 -0.2517926 0.04758637 0.08298674
-0.5735031 0.15454249 -0.8748163 0.10305249 -0.7048563 0.85090125 -0.2311108 -0.34764028
0.14864096 -0.785879 0.45472687 0.37019703 0.5194295 -0.63763523 -0.83475107 -0.34156525
-0.2130922 -0.19038582 0.594439 -0.106629364 -0.5492055 -0.36008748 0.09383827 0.3001508
-0.7265626 0.41843218 -0.25224605 0.33237082 -0.12030773 -0.23498093 -0.21704946 0.15890911
-0.72123843 0.5309591 -0.48053423 -0.34626186 0.24096712 0.09784066 0.15821229 -0.859291
-0.42329392 -0.08830544
00000000: e69a 083f 36bc 02bc b697 003f 138d 003f
00000010: ce62 dfbe f6ea 80be ede9 423d f4f4 a93d
00000020: 19d1 12bf 6340 1e3e f6f3 5fbf 2f0d d33d
00000030: 7671 34bf aad4 593f 4fa8 6cbe e8fd b1be
00000040: 5635 183e 5e2f 49bf f6d1 e83e 778a bd3e
00000050: 55f9 043f 103c 23bf 3fb2 55bf a4e1 aebe
00000060: d734 5abe 80f4 42be 282d 183f 7f60 dabd
00000070: bb98 0cbf 635d b8be 472e c03d 5ead 993e
00000080: 0200 3abf be3c d63e 6526 81be 822c aa3e
00000090: e663 f6bd d79e 70be 3742 5ebe 12b9 223e
000000a0: 15a3 38bf f0ec 073f 9508 f6be 3c49 b1be
000000b0: 16c0 763e af60 c83d 6702 223e 7ffa 5bbf
000000c0: fbb9 d8be 7cd9 b4bd

gat_layer_1.attention_1.a f4 [20, 1]
-0.55606204 0.141739 -0.15255694 -0.38918722 0.21490681 -0.13553888 0.00918016 0.7444781
-0.40660685 -0.273657 0.5965832 0.020571519 0.4440068 -0.66380113 0.015444732 -0.37509435
-0.34457636 0.716864 -0.03549614 0.64028853
00000000: 155a 0ebf 0724 113e e337 1cbe 8c43 c7be
00000010: 8810 5c3e b4ca 0abe 6268 163c 1e96 3e3f
00000020: c62e d0be c51c 8cbe adb9 183f 9a85 a83c
00000030: dc54 e33e dfee 29bf e70b 7d3c 5e0c c0be
00000040: 506c b0be 6684 373f 6764 11bd f3e9 233f

gat_layer_1.attention_2.W f4 [5, 10]
-0.11708525 -0.7629303 -0.32886687 -0.29667947 -0.848322 -0.30845606 0.74633116 -0.17965548
0.3432017 -0.009026485 0.4588687 -0.80519205 0.026539285 0.637213 0.900051 -0.324221
-0.41381136 -0.17789824 -0.5281871 0.015015248 0.085719675 0.45486555 -0.7009986 0.640584
0.5161322 0.4197813 -0.7895667 0.2347227 0.05559521 0.25682747 0.14221205 -0.016512273
0.18632665 0.13190031 0.6118533 -0.21933503 -0.4736446 -0.19522358 0.016470928 0.32500112
0.19360341 -0.27984256 -0.6554638 0.8256517 0.6522256 -0.20831254 0.36595193 -0.0014749005
0.14458795 0.11326701
00000000: 64ca efbd 664f 43bf 3d61 a8be 5fe6 97be
00000010: a12b 59bf f4ed 9dbe 8f0f 3f3f 9bf7 37be
00000020: 22b8 af3e d2e3 13bc d7f0 ea3e 1121 4ebf
00000030: ea68 d93c 6420 233f be69 663f 4b00 a6be
00000040: 15df d3be f52a 36be 4537 07bf 8402 763c
00000050: cc8d af3d 23e4 e83e a574 33bf 50fd 233f
00000060: 3d21 043f 93ed d63e 0b21 4abf 265b 703e
00000070: ceb7 633d e47e 833e 09a0 113e bf44 87bc
00000080: 6acc 3e3e e010 073e 6ba2 1c3f 5d99 60be
00000090: 8c81 f2be b1e8 47be 0aee 863c 8c66 a63e
000000a0: f93f 463e 8647 8fbe 7acc 27bf e95d 533f
000000b0: 42f8 263f e24f 55be 0d5e bb3e 7351 c1ba
000000c0: dd0e 143e 89f8 e73d

gat_layer_1.attention_2.a f4 [20, 1]
0.40202487 0.5522319 -0.3111796 0.5984033 0.62164587 -0.7098649 -0.40583256 0.010428732
-0.6915031 0.27061656 0.6936359 0.047910307 0.009483821 -0.31298777 -0.68115604 -0.47971144
0.29837233 -0.053687084 -0.17550729 -0.18018863
00000000: 34d6 cd3e 125f 0d3f ef52 9fbe f530 193f
00000010: 2f24 1f3f b5b9 35bf 49c9 cfbe 46dd 2a3c
00000020: 5906 31bf 418e 8a3e 1f92 313f 993d 443d
00000030: 0762 1b3c ef3f a0be 3e60 2ebf bd9c f5be
00000040: 42c4 983e fde6 5bbd 2fb8 33be 5e83 38be

gat_layer_1.attention_3.W f4 [5, 10]
0.5637569 -0.9108213 0.4187335 -0.86904657 0.75619256 -0.17687604 -0.6404735 -0.7872662
0.90880835 -0.07706341 0.08223032 -0.5073049 -0.12571831 0.6899884 0.5720965 0.5459322
-0.38598377 0.2671719 0.7013886 0.6913958 0.6807697 0.43090925 -0.15218192 -0.7189783
-0.6471835 0.7512329 0.64697456 0.081441745 -0.66595024 0.076991044 -0.3030872 -0.8606033
-0.37260845 -0.40223068 0.69762146 -0.2733801 0.22275561 -0.29323393 0.4604147 -0.63806003
-0.5951679 0.6832975 -0.8412423 -0.47216338 0.6543451 0.8408666 -0.06522991 -0.393384
0.4910197 0.37808365
00000000: 5f52 103f 962b 69bf 3d64 d63e d679 5ebf
00000010: d695 413f fe1e 35be 12f6 23bf 478a 49bf
00000020: aaa7 683f 6cd3 9dbd 5f68 a83d bcde 01bf
00000030: 4dbc 00be 14a3 303f eb74 123f 36c2 0b3f
00000040: aa9f c5be c1ca 883e 348e 333f 51ff 303f
00000050: ec46 2e3f 23a0 dc3e 94d5 1bbe f60e 38bf
00000060: d1ad 25bf cd50 403f 20a0 253f eeca a63d
00000070: b77b 2abf 7bad 9d3d 3f2e 9bbe 7f50 5cbf
00000080: 89c6 bebe 2ef1 cdbe 5297 323f 7af8 8bbe
00000090: 0c1a 643e c222 96be 7abb eb3e e757 23bf
000000a0: ec5c 18bf 96ec 2e3f a85b 57bf 66bf f1be
000000b0: 2983 273f 0943 573f 4297 85bd a169 c9be
000000c0: ef66 fb3e 2e94 c13e

gat_layer_1.attention_3.a f4 [20, 1]
-0.53692126 -0.18781497 -0.45611152 -0.22479181 -0.26182494 0.49961165 0.013491533 0.41033244
0.13216802 -0.28087023 0.5353356 -0.1949468 -0.40040174 0.7105539 -0.36603692 -0.059725765
0.4934799 0.6065831 -0.3491531 0.43510708
00000000: ac73 09bf 9152 40be 7387 e9be d32f 66be
00000010: eb0d 86be 19cd ff3e 970b 5d3c 1817 d23e
00000020: 0e57 073e 39ce 8fbe c10b 093f 22a0 47be
00000030: 7501 cdbe dce6 353f 3169 bbbe 01a3 74bd
00000040: 66a9 fc3e 0849 1b3f 32c4 b2be 5bc6 de3e

gat_layer_1.attention_4.W f4 [5, 10]
0.84868485 0.4267429 0.4762641 0.08210467 0.18796103 0.11509305 -0.57564783 0.69803625
-0.59250605 0.43341365 -0.37070292 -0.8185518 0.47326788 0.6966359 0.78484285 0.6978683
-0.65477544 0.6337638 -0.858278 0.56160104 -0.11594101 0.84516937 -0.8336206 -0.15804555
-0.8360268 -0.59998024 -0.8276138 0.12530226 -0.49761918 -0.6576486 -0.65339273 -0.6943884
0.57250166 -0.20490126 0.75417924 0.61020446 0.7771081 -0.29079834 0.08196512 -0.25484294
-0.45663235 -0.45373794 0.72975147 0.7588622 0.6144489 -0.7628923 -0.10667434 0.48826024
0.80700845 0.31729507
00000000: 6943 593f 0c7e da3e e3d8 f33e 7e26 a83d
00000010: db78 403e e8b5 eb3d a85d 13bf 81b2 323f
00000020: 7aae 17bf 65e8 dd3e c6cc bdbe 9c8c 51bf
00000030: 2b50 f23e bb56 323f 76eb 483f 7fa7 323f
00000040: 5d9f 27bf 583e 223f 1bb8 5bbf 16c5 0f3f
00000050: 7b72 edbd 055d 583f 2968 55bf b1d6 21be
00000060: da05 56bf 4e98 19bf 7fde 53bf 3c4f 003e
00000070: f1c7 febe a95b 28bf bf44 27bf 70c3 31bf
00000080: 788f 123f a3d1 51be e411 413f 5c36 1c3f
00000090: 8ef0 463f 85e3 94be 54dd a73d c67a 82be
000000a0: b7cb e9be 5750 e8be fed0 3a3f cb44 423f
000000b0: 864c 1d3f e94c 43bf 1478 dabd 3ffd f93e
000000c0: 1b98 4e3f 8074 a23e

gat_layer_1.attention_4.a f4 [20, 1]
-0.7675156 -0.4419232 -0.3800412 0.075807594 0.44024396 0.3407827 0.34652293 0.14090514
0.72354203 0.4979862 0.015341158 0.14854202 -0.60853016 0.37559003 -0.6751591 0.5727732
0.5205154 -0.20845369 -0.3254102 0.38807535
00000000: e77b 44bf c243 e2be c394 c2be 0341 9b3d
00000010: a867 e13e 127b ae3e 746b b13e 7049 103e
00000020: 0d3a 393f 0cf8 fe3e 7b59 7b3c 661b 183e
00000030: a2c8 1bbf 564d c03e 3ad7 2cbf 44a1 123f
00000040: 7f40 053f e274 55be 2a9c a6be d0b1 c63e

gat_layer_1.out_att.W f4 [50, 5]
0.13321772 0.049923595 0.032490104 0.028768895 -0.028213376 0.43509856 0.3932966 -0.07577819
0.35320118 0.16585472 0.08830268 0.12410073 -0.39263785 0.19720586 0.22378854 0.13504055
0.009403706 0.10824511 -0.22654952 -0.4479825 -0.13380694 -0.14117946 -0.22554399 0.43955085
0.40003 0.32133546 0.093644366 0.20689905 0.1868444 -0.26125634 -0.37876856 -0.42111605
0.26451975 0.10471525 -0.26275095 -0.36638257 -0.29429945 -0.13041084 0.05140347 0.010699798
0.4557493 0.14395437 -0.29868776 0.23029083 -0.21179028 0.085277304 0.47243762 0.2532661
0.05688117 0.42796868 -0.2683085 -0.015526071 -0.06176365 -0.37620956 -0.042959645 -0.3721857
-0.06960507 0.017177947 0.16938114 -0.3608139 0.33720782 -0.205368 -0.24311721 0.30775347
-0.43914714 0.39275852 0.38222113 0.14171697 0.035794582 0.39148474 0.0058321706 -0.020779574
0.021572255 0.28925577 0.2870674 -0.45880425 -0.19778624 -0.17574966 -0.3663895 0.4233879
-0.1520731 0.122962706 0.08474551 -0.010888189 0.22194552 -0.042892676 -0.3239193 0.27189708
0.09080979 0.14781529 -0.070881866 0.14260213 -0.004871393 0.14997931 0.002335029 0.44606933
0.4092227 -0.1617414 -0.26698983 0.137566 0.21540008 0.14455679 -0.37136722 0.056829758
-0.39204794 0.02623849 0.051879466 0.2714363 -0.03901921 -0.33645907 -0.39618587 0.3269599
0.36555398 0.42008683 -0.22553939 -0.47495335 0.16842955 0.14700274 0.22212754 -0.3281539
-0.26209036 0.2557056 0.35015324 0.47805992 -0.26921967 0.12379397 0.15181755 -0.124005295
-0.37382844 -0.43402785 -0.37916943 0.1083452 0.004164616 0.2866895 0.19353515 0.26435584
0.14088725 -0.2368376 0.42145607 -0.43226677 0.13484553 -0.07660681 0.23208681 0.3961204
-0.12875766 -0.1697121 -0.16521035 -0.43725988 0.09151604 0.26916745 -0.39223495 -0.09931646
0.041146655 0.022685966 -0.46117863 0.36115825 0.22503547 -0.32328504 -0.32976505 -0.056678854
-0.21138893 -0.22364585 0.33360443 -0.42607614 0.19514363 -0.39043266 -0.36187807 0.2900844
-0.10565517 0.014135716 0.39423507 0.22700845 -0.12840761 0.39056367 -0.41543776 0.2220513
-0.08944862 -0.30710644 0.050779354 0.34701884 -0.1095273 0.021095572 0.119770706 -0.29531625
0.4135377 -0.3774973 0.3273949 0.15592507 -0.048967045 0.25710455 -0.24357712 -0.22398934
-0.11357262 -0.014274519 0.37980488 0.41758445 -0.5728694 -0.08088426 0.39869705 -0.3479136
-0.04250399 -0.04039197 0.1892397 0.11727426 0.42203912 -0.0023637188 -0.28523928 0.064098604
-0.3306768 0.016332833 -0.40825963 -0.34269348 -0.3845171 -0.025803072 0.17039199 -0.39759186
0.2934731 -0.1329752 0.25703433 -0.10140504 -0.15974288 -0.10318601 0.33163923 0.32990703
0.25014138 -0.26665398 -0.33230478 -0.014386205 -0.32212162 0.09344481 -0.39491263 0.08871077
-0.32749626 -0.3332699 -0.28927967 0.14241359 0.3763957 0.14948153 -0.40295362 0.2090323
0.15173571 0.110947296 -0.27572295 0.37452954 0.40718436 -0.3310593 -0.09996904 -0.44301242
0.21332574 -0.15130551
00000000: 3a6a 083e af7c 4c3d 5814 053d bfac eb3c
00000010: bd1f e7bc 3dc5 de3e 2c5e c93e 9831 9bbd
00000020: c9d6 b43e d2d5 293e 09d8 b43d 8628 fe3d
00000030: d407 c9be 55f0 493e d328 653e 1248 0a3e
00000040: 0012 1a3c 9daf dd3d 99fc 67be f65d e5be
00000050: b004 09be 5991 10be 01f5 66be cf0c e13e
00000060: bbd0 cc3e 1586 a43e 9ec8 bf3d 58dd 533e
00000070: 2354 3f3e 64c3 85be f4ed c1be 869c d7be
00000080: 226f 873e f374 d63d 4b87 86be 7f96 bbbe
00000090: 6bae 96be 6b8a 05be 728c 523d 354e 2f3c
000000a0: f957 e93e c668 133e 9aed 98be 5cd1 6b3e
000000b0: 8ddf 58be dea5 ae3d 58e3 f13e 18ac 813e
000000c0: 3bfc 683d b61e db3e bb5f 89be 1061 7ebc
000000d0: e2fb 7cbd 8a9e c0be 74f6 2fbd 208f bebe
000000e0: 1a8d 8ebd c4b8 8c3c 4072 2d3e 99bc b8be
000000f0: 81a6 ac3e fd4b 52be b8f3 78be dd91 9d3e
00000100: e5d7 e0be a517 c93e 7db2 c33e 411e 113e
00000110: 579d 123d b070 c83e cb1b bf3b ed39 aabc
00000120: 4cb8 b03c 5519 943e 80fa 923e 64e8 eabe
00000130: 7a88 4abe b8f7 33be 6897 bbbe 4dc6 d83e
00000140: 0db9 1bbe dfd3 fb3d 0e8f ad3d 6064 32bc
00000150: b045 633e 3bb0 2fbd c0d8 a5be 1836 8b3e
00000160: 7cfa b93d e45c 173e 832a 91bd 4b06 123e
00000170: 35a0 9fbb 2d94 193e 4907 193b 3363 e43e
00000180: a385 d13e 8a9f 25be e4b2 88be 1ade 0c3e
00000190: d791 5c3e b206 143e d823 bebe 52c6 683d
000001a0: 82ba c8be 1af2 d63c 907f 543d b3f9 8a3e
000001b0: 9bd2 1fbd 5d44 acbe e0d8 cabe 4a67 a73e
000001c0: e429 bb3e 9f15 d73e ccf3 66be 162d f3be
000001d0: cc78 2c3e e387 163e 6775 633e ca03 a8be
000001e0: b530 86be d8eb 823e 4947 b33e 45c4 f43e
000001f0: 29d7 89be b187 fd3d 0f76 1b3e 7df6 fdbd
00000200: 7166 bfbe e638 debe 7f22 c2be 17e4 dd3d
00000210: 5577 883b f7c8 923e 142e 463e a659 873e
00000220: bf44 103e 8e85 72be 17c9 d73e 1252 ddbe
00000230: f214 0a3e 08e4 9cbd 2aa8 6d3e 4bd0 ca3e
00000240: 0cd9 03be 02c9 2dbe e72c 29be 87e0 dfbe
00000250: c36c bb3d 51d0 893e 05d3 c8be 6e66 cbbd
00000260: 6589 283d ebd7 b93c 9b1f ecbe bce9 b83e
00000270: b36f 663e 9e85 a5be f7d6 a8be 1628 68bd
00000280: 5776 58be 6b03 65be 33ce aa3e a726 dabe
00000290: bbd3 473e cae6 c7be 1548 b9be f185 943e
000002a0: bd61 d8bd 7d99 673c 2ed9 c93e e774 683e
000002b0: 497d 03be f6f7 c73e 42b4 d4be 6a61 633e
000002c0: d730 b7bd 0e3d 9dbe 03fe 4f3d 74ac b13e
000002d0: d94f e0bd 9fd0 ac3c 584a f53d b133 97be
000002e0: 37bb d33e 5347 c1be 4ea0 a73e d2aa 1f3e
000002f0: ab91 48bd 35a3 833e 486c 79be 765d 65be
00000300: c398 e8bd acdf 69bc c975 c23e a1cd d53e
00000310: 92a7 12bf a6a6 a5bd 0522 cc3e bb21 b2be
00000320: aa18 2ebd 0d72 25bd 0dc8 413e 7d2d f03d
00000330: 8315 d83e 9fe8 1abb e20a 92be 2146 833d
00000340: 784e a9be 6fcc 853c 6807 d1be 8575 afbe
00000350: 6ddf c4be f760 d3bc 3d7b 2e3e 2991 cbbe
00000360: 1b42 963e a72a 08be 019a 833e 72ad cfbd
00000370: a393 23be 3053 d3bd 9ecc a93e 93e9 a83e
00000380: 8812 803e df86 88be da23 aabe 1eb4 6bbc
00000390: 20ed a4be fe5f bf3d fd31 cabe fead b53d
000003a0: 97ad a7be 5aa2 aabe 771c 94be ded4 113e
000003b0: f0b6 c03e b011 193e f04f cebe 900c 563e
000003c0: 9b60 1b3e 5638 e33d 8f2b 8dbe 56c2 bf3e
000003d0: 787a d03e 9b80 a9be 91bc ccbd 86d2 e2be
000003e0: 1072 5a3e d5ef 1abe

gat_layer_1.out_att.a f4 [10, 1]
0.5853267 -0.7002873 -0.3631341 -1.0537001 -0.3082858 -0.41019192 0.1350789 0.91666764
-0.5941782 -0.25530556
00000000: f8d7 153f 0746 33bf b6ec b9be a5df 86bf
00000010: a3d7 9dbe ad04 d2be 2052 0a3e bbaa 6a3f
00000020: 101c 18bf 69b7 82be

gat_layer_2.attention_0.W f4 [5, 10]
-0.011967365 -0.45750186 -0.124901555 -0.028260695 0.0008163421 -0.28532887 -0.38218287 -0.23653434
0.2553476 -0.5905451 0.73968655 0.66479343 0.5011517 -0.6472022 -0.14588849 0.31954396
0.05857544 -0.067057714 0.18515028 -0.5375122 -0.18360324 0.6217885 -0.91716367 -0.5530161
0.24174099 0.48824546 0.465288 -0.73236156 0.12075995 -0.08054393 0.19895184 0.5050588
0.6673167 0.6128686 -0.481493 -0.7871617 -0.28162095 0.5647574 -0.78709525 0.20482422
-0.88788134 -0.25048915 -0.23731354 -0.033380236 0.7621873 -0.49519283 -0.053149085 -0.79191506
-0.84658533 0.72065246
00000000: c412 44bc af3d eabe 63cc ffbd f982 e7bc
00000010: caff 553a a016 92be 79ad c3be 0f36 72be
00000020: ecbc 823e f72d 17bf 195c 3d3f e72f 2a3f
00000030: 7a4b 003f 0baf 25bf cb63 15be 449b a33e
00000040: cdec 6f3d 8e55 89bd 0998 3d3e 669a 09bf
00000050: 7d02 3cbe 882d 1f3f 3dcb 6abf 7792 0dbf
00000060: f38a 773e 4ffb f93e 3b3a ee3e 0c7c 3bbf
00000070: fe50 f73d 37f4 a4bd 08ba 4b3e 894b 013f
00000080: 44d5 2a3f f5e4 1c3f 4086 f6be 6e83 49bf
00000090: 9f30 90be f193 103f 137f 49bf 71bd 513e
000000a0: 314c 63bf 1d40 80be 5202 73be b7b9 08bd
000000b0: b51e 433f ea89 fdbe dbb2 59bd f2ba 4abf
000000c0: d1b9 58bf ae7c 383f

gat_layer_2.attention_0.a f4 [20, 1]
-0.4050216 0.62404436 -0.14318919 -0.7375544 -0.17016171 0.68729824 0.3362965 -0.092964545
-0.00801713 -0.7080127 -0.122537315 -0.25698352 -0.14044335 0.5467578 -0.05236051 0.71902925
-0.5931269 -0.35353234 0.4544107 -0.45337427
00000000: fe5e cfbe 5fc1 1f3f 30a0 12be 5dd0 3cbf
00000010: df3e 2ebe c7f2 2f3f 0e2f ac3e 3264 bebd
00000020: 485a 03bc 5240 35bf d8f4 fabd 5893 83be
00000030: 62d0 0fbe 52f8 0b3f f977 56bd 4d12 383f
00000040: 2ad7 17bf 3102 b5be 85a8 e83e ac20 e8be

gat_layer_2.attention_1.W f4 [5, 10]
0.3769601 0.10544932 0.7479984 0.6219169 0.28998 0.19688104 0.37976342 -0.72733533
0.12500101 0.44518027 -0.123641595 -0.827104 -0.60031414 -0.3192475 -0.26962426 0.45526198
0.8296734 0.47155023 -0.32003024 0.27546534 0.5274693 -0.4158417 0.7408995 0.872462
-0.105623625 -0.3161356 0.80282646 0.67768687 -0.33346763 0.94649947 -0.3210871 -0.37444606
-0.3515032 0.7429604 0.5345702 -0.04394145 -0.8719574 -0.0043406053 -0.8995847 -0.65213037
0.3597286 0.61949384 0.66304165 -0.34879074 -0.5520734 -0.32316983 0.12856671 -0.2318231
-0.024953607 -0.78323334
00000000: ea00 c13e d0f5 d73d d37c 3f3f f235 1f3f
00000010: 4278 943e 2f9b 493e 5a70 c23e a632 3abf
00000020: 4400 003e abee e33e ce37 fdbd 16bd 53bf
00000030: 30ae 19bf 6974 a3be 310c 8abe 1918 e93e
00000040: 7a65 543f 086f f13e 01db a3be cb09 8d3e
00000050: 3a08 073f 34e9 d4be 97ab 3d3f ab59 5f3f
00000060: 3351 d8bd 86dc a1be 0986 4d3f e37c 2d3f
00000070: 45bc aabe ca4d 723f 8765 a4be 65b7 bfbe
00000080: 3af8 b3be a732 3e3f 98d9 083f f3fb 33bd
00000090: 9a38 5fbf a33b 8ebb 2f4b 66bf 04f2 26bf
000000a0: 592e b83e 2697 1e3f 19bd 293f b394 b2be
000000b0: af54 0dbf 8476 a5be fea6 033e 0963 6dbe
000000c0: 826b ccbc fb81 48bf

gat_layer_2.attention_1.a f4 [20, 1]
-0.64271265 0.53527683 -0.18065526 0.13175777 -0.70862406 -0.54061407 0.6168977 0.30773398
0.21491922 -0.13498034 0.0627723 -0.4813154 0.19918412 0.17891403 0.4357361 -0.36317384
0.10261076 -0.28276044 -0.4055293 -0.7370061
00000000: d188 24bf e707 093f b1fd 38be 82eb 063e
00000010: 6368 35bf af65 0abf 02ed 1d3f 4f8f 9d3e
00000020: c913 5c3e 4938 0abe c38e 803d f96e f6be
00000030: ecf6 4b3e 3d35 373e cd18 df3e ecf1 b9be
00000040: 9725 d23d fac5 90be 89a1 cfbe 6fac 3cbf

gat_layer_2.attention_2.W f4 [5, 10]
0.23302199 -0.7333608 -0.16727173 0.6691525 0.09243696 -0.05001546 -0.07911773 0.070139386
0.033716056 0.62404317 0.30770606 -0.5001327 0.68737626 -0.71789217 0.20374872 0.15503836
-0.59376854 -0.25450063 0.021474302 -0.7222839 -0.34663853 0.6184259 -0.58618575 0.26052272
-0.5435017 0.08808593 0.21176398 0.21014671 -0.13618186 0.757309 0.40531123 0.5300827
-0.14641184 0.28488794 -0.5150148 -0.16139174 -0.7415381 -0.6040399 0.25124103 -0.40132073
-0.22909069 -0.52317303 -0.4394987 0.54075485 0.83974856 -0.37998268 -0.28323168 0.58073914
0.19817549 0.8887403
00000000: 519d 6e3e 89bd 3bbf 4849 2bbe 944d 2b3f
00000010: 974f bd3d 03dd 4cbd 7a08 a2bd 3da5 8f3d
00000020: d919 0a3d 4bc1 1f3f a68b 9d3e b208 00bf
00000030: e4f7 2f3f c8c7 37bf 81a3 503e 60c2 1e3e
00000040: 3701 18bf e84d 82be e0ea af3c 99e7 38bf
00000050: 9b7a b1be 2951 1e3f 4510 16bf 3c63 853e
00000060: ed22 0bbf 6566 b43d a8d8 583e b330 573e
00000070: 4273 0bbe 01df 413f f484 cf3e 80b3 073f
00000080: fcec 15be d5dc 913e 03d8 03bf e043 25be
00000090: 71d5 3dbf 5ca2 1abf aaa2 803e e979 cdbe
000000a0: c096 6abe abee 05bf f905 e1be e96e 0a3f
000000b0: c3f9 563f 178d c2be be03 91be 52ab 143f
000000c0: 84ee 4a3e 7c84 633f

gat_layer_2.attention_2.a f4 [20, 1]
-0.28855965 -0.7286866 0.23222491 0.6417702 -0.6202202 0.7796064 -0.63538486 -0.55433005
-0.15108623 -0.26724213 0.61854446 0.31587127 0.61330545 -0.22620292 0.13026088 0.22629005
-0.03293135 -0.0292818 -0.38059005 -0.48272923
00000000: 17be 93be 348b 3abf 5ecc 6d3e 0d4b 243f
00000010: c0c6 1ebf 4994 473f 95a8 22bf 93e8 0dbf
00000020: 59b6 1abe f6d3 88be ee58 1e3f e1b9 a13e
00000030: 9601 1d3f bda1 67be 1c63 053e 94b8 673e
00000040: 06e3 06bd 63e0 efbc b3dc c2be 4928 f7be

gat_layer_2.attention_3.W f4 [5, 10]
-0.8288075 0.60708874 -0.33543563 0.7109373 -0.42637345 0.8991843 0.033454686 0.68532115
0.18844566 0.30689052 0.8778363 0.5964286 0.13200192 0.736491 0.13703653 -0.36123604
-0.73673093 0.7628709 -0.5140183 0.48972255 0.7858794 0.27038795 -0.256431 -0.5537826
0.70227873 0.53054965 0.09260226 -0.48516622 -0.7302673 0.386467 0.023131292 -1.0317224
0.84480244 0.1798407 0.43209478 -0.7402216 -0.07253188 0.27137265 0.18552563 -0.19506752
0.7520472 -1.0345507 0.2790559 0.69302726 0.15050572 -0.58429193 -0.73320925 0.13574632
0.3724234 0.47352937
00000000: ba2c 54bf 2b6a 1b3f 38be abbe fdff 353f
00000010: 9f4d dabe f130 663f c807 093d 3571 2f3f
00000020: e6f7 403e c120 9d3e e1b9 603f 8baf 183f
00000030: 832b 073e ad8a 3c3f 4e53 0c3e eef3 b8be
00000040: 669a 3cbf 824b 433f b496 03bf eabc fa3e
00000050: 642f 493f 4a70 8a3e ed4a 83be b2c4 0dbf
00000060: 8ac8 333f 1ad2 073f 41a6 bd3d b567 f8be
00000070: ccf2 3abf 01df c53e d67d bd3c 7b0f 84bf
00000080: f944 583f 2928 383e 873b dd3e 2a7f 3dbf
00000090: 988b 94bd 5bf1 8a3e 6efa 3d3e c8bf 47be
000000a0: 2a86 403f 286c 84bf 6ae0 8e3e 3c6a 313f
000000b0: 2c1e 1a3e 2894 15bf 9ab3 3bbf 1501 0b3e
000000c0: 48ae be3e 7172 f23e

gat_layer_2.attention_3.a f4 [20, 1]
0.61373407 -0.39799553 -0.7374641 0.5715379 -0.24662937 0.050350025 0.41792282 -0.5980212
-0.16337818 0.0871769 0.32199252 0.6140468 -0.13727985 0.32854733 -0.17552124 -0.20981267
-0.38628292 0.3031098 -0.4953605 -0.28432786
00000000: ad1d 1d3f 12c6 cbbe 72ca 3cbf 4f50 123f
00000010: 698c 7cbe d43b 4e3d fbf9 d53e eb17 19bf
00000020: 9c4c 27be cd89 b23d 34dc a43e 2c32 1d3f
00000030: 1793 0cbe 5b37 a83e d7bb 33be 22d9 56be
00000040: e0c6 c5be 3531 9b3e e49f fdbe 6c93 91be

gat_layer_2.attention_4.W f4 [5, 10]
-0.15327094 0.54913795 -0.67083126 -0.13382962 -0.27216104 0.35246825 -0.6290132 -0.33150765
0.073770136 0.29057866 0.52396923 0.25505656 0.27139902 0.6461449 0.8152295 0.49325582
-0.124545485 -0.27970067 -0.3972783 -0.1845882 -0.60331416 -0.80593956 -0.7068127 0.8300208
-0.19410215 -0.6605136 -0.7312262 -0.15038456 0.122097135 -0.6436784 0.27083012 0.71890354
0.25817263 -0.5486782 -0.5780164 -0.36202437 0.7465013 0.15783626 0.24796449 -0.75803715
-0.093966804 -0.4456931 0.3431976 0.6499293 0.034987282 -0.6381817 -0.065346524 0.9213959
-0.21682478 -0.79244065
00000000: 0ff3 1cbe 4e94 0c3f 99bb 2bbf a20a 09be
00000010: b158 8bbe b876 b43e 0207 21bf 5fbb a9be
00000020: cc14 973d bac6 943e d922 063f c696 823e
00000030: d0f4 8a3e c169 253f e1b2 503f 078c fc3e
00000040: b411 ffbd ed34 8fbe 1068 cbbe b004 3dbe
00000050: cc72 1abf 0e52 4ebf adf1 34bf 3e7c 543f
00000060: b7c2 46be 6b17 29bf a431 3bbf 69fe 19be
00000070: 100e fa3d 1cc8 24bf 3faa 8a3e 100a 383f
00000080: 342f 843e 2d76 0cbf e2f8 13bf 425b b9be
00000090: b61a 3f3f d49f 213e 67ea 7d3e b90e 42bf
000000a0: ab71 c0bd e331 e4be 99b7 af3e c461 263f
000000b0: d34e 0f3d e05f 23bf 66d4 85bd 9ae0 6b3f
000000c0: 5107 5ebe 64dd 4abf

gat_layer_2.attention_4.a f4 [20, 1]
-0.04699012 0.22059943 0.7687994 -0.54393053 -0.66460574 -0.5058349 -0.60364085 0.36435872
-0.20634298 -0.061166015 -0.3115707 0.57680756 -0.41394398 -0.6998798 0.30272824 0.58700716
-0.2795293 -0.6134229 0.6082915 -0.048630968
00000000: b678 40bd d1e4 613e 0ad0 443f 083f 0bbf
00000010: 9a23 2abf 657e 01bf 3588 1abf 3a8d ba3e
00000020: 934b 53be 3789 7abd 3286 9fbe a9a9 133f
00000030: 77f0 d3be 532b 33bf 32ff 9a3e 1a46 163f
00000040: 771e 8fbe 4809 1dbf feb8 1b3f 4431 47bd

gat_layer_2.out_att.W f4 [50, 5]
0.45188037 -0.21414319 -0.16164336 -0.15023445 -0.34762958 0.20101449 -0.06132341 0.28201842
0.35022494 0.14727463 -0.10948442 0.3011843 -0.2997655 -0.33566722 -0.34161246 0.0031200873
-0.21663837 -0.077051036 -0.27765983 -0.32975858 0.17441273 -0.087006785 0.10993728 -0.069273405
0.0194052 -0.2423495 -0.19751875 0.3001928 -0.02082511 -0.15309794 -0.14461465 0.38119778
0.32782885 0.25715223 0.17102693 -0.16760083 -0.29480472 -0.23476873 0.07646835 0.24864314
-0.11822349 -0.35822797 -0.04314477 -0.40763584 0.032567754 0.15108031 0.39544955 -0.11140172
0.42058155 0.391077 0.057429153 -0.11017523 -0.17059891 -0.346516 -0.2792917 -0.19505584
0.0060098767 -0.047921278 -0.25298825 0.29127207 0.12100509 -0.21328829 -0.43476015 0.32726726
-0.29771417 -0.40261766 0.37220046 0.28396556 -0.061177574 0.1746854 -0.28225163 0.38599306
-0.062587045 -0.21264735 -0.11117988 -0.43990594 0.021019325 0.17277573 -0.23575754 -0.1604858
-0.31577465 0.14416659 -0.07933162 0.25076157 -0.0121944295 -0.089395806 -0.10035991 -0.46294862
-0.07200195 -0.31146362 -0.06759193 -0.3181591 -0.17444798 -0.24649996 -0.51506007 0.11184237
0.17440753 0.20536168 0.03816082 0.1295041 -0.33952823 -0.3092731 -0.059228797 -0.13828541
-0.26428923 -0.37775105 -0.14063278 -0.4250177 0.20166864 -0.4302625 -0.45558622 -0.19314851
-0.095949456 0.28454274 0.28878096 0.10554481 0.21182506 0.20032337 0.18607435 -0.14513156
-0.390331 -0.30460167 0.18689412 0.30184022 0.21527359 0.005633383 0.29773864 -0.36493647
0.28587958 -0.40428707 -0.17424673 0.19519457 0.3706129 -0.35339928 -0.0034155147 -0.24488011
-0.2103697 -0.22551313 0.012069756 -0.27639642 -0.053018916 -0.24653293 0.03844901 -0.3756202
-0.012174711 -0.4291938 0.44122747 -0.15419818 0.2806766 -0.43623954 0.32374144 -0.47311294
0.1483016 0.0004813717 0.2474528 -0.19281536 -0.28763798 -0.16138762 -0.067318894 -0.15685995
0.10900164 -0.23349698 -0.019401873 -0.15205151 0.3054468 -0.17687531 0.39400518 0.38862443
0.012726641 0.37223673 0.225998 -0.07634132 0.2049917 0.4061256 0.35533425 0.119268976
-0.26224244 -0.18119566 0.33615708 -0.0025553012 0.19004138 -0.049926996 -0.31009942 -0.29091364
0.12708655 -0.29882738 0.42774242 -0.45587125 0.12522344 -0.23477745 -0.37588003 -0.02818574
-0.009113029 0.38334695 -0.090761885 0.12802011 0.24362406 -0.012001261 0.022088178 0.5553471
-0.44122422 0.18504474 0.3159459 0.017567696 0.21479554 0.1760603 0.1399078 -0.056552313
-0.3859899 0.37596804 -0.116453625 -0.2818875 0.10782975 0.3010614 -0.135123 0.17640331
0.21704467 -0.28643683 0.032662977 0.3337149 -0.39993796 0.39226204 0.30069393 -0.44896328
-0.14904794 0.35615927 0.3662025 -0.30496255 0.24686694 0.3977002 -0.43831328 -0.010330092
0.073411465 -0.35345933 0.03358526 -0.29072142 -0.29681528 0.33539462 0.20399371 0.045555208
-0.330197 -0.004734257 0.3745872 -0.11605134 -0.50726783 0.07046164 -0.21809958 -0.25213104
-0.027325312 -0.36048484
00000000: dd5c e73e 5a48 5bbe d685 25be 0fd7 19be
00000010: 81fc b1be bed6 4d3e 422e 7bbd b864 903e
00000020: af50 b33e 29cf 163e 5e39 e0bd d434 9a3e
00000030: dd7a 99be 93dc abbe d4e7 aebe 617a 4c3b
00000040: 73d6 5dbe efcc 9dbd 6e29 8ebe 1ed6 a8be
00000050: 4099 323e 9d30 b2bd cc26 e13d 37df 8dbd
00000060: a7f7 9e3c 782a 78be 5b42 4abe dfb2 993e
00000070: 6c99 aabc b5c5 1cbe dd15 14be 5b2c c33e
00000080: 2fd9 a73e 75a9 833e af21 2f3e 8d9f 2bbe
00000090: a5f0 96be 3767 70be 709b 9c3d 4f9c 7e3e
000000a0: 281f f2bd a869 b7be 92b8 30bd a5b5 d0be
000000b0: c465 053d ccb4 1a3e 5d78 ca3e 9626 e4bd
000000c0: 7756 d73e 3f3b c83e d53a 6b3d 8da3 e1bd
000000d0: 7bb1 2ebe 8c6a b1be 52ff 8ebe b8bc 47be
000000e0: 80ee c43b 1a49 44bd ad87 81be 9d21 953e
000000f0: 84d1 f73d 3f68 5abe e298 debe 938f a73e
00000100: fe6d 98be e723 cebe 0f91 be3e ef63 913e
00000110: 5695 7abd bbe0 323e 4983 90be e2a0 c53e
00000120: a32d 80bd 3ac0 59be 47b2 e3bd 5a3b e1be
00000130: b830 ac3c 1fec 303e 6d6a 71be 6456 24be
00000140: 37ad a1be 68a0 133e 9e78 a2bd d263 803e
00000150: 25cb 47bc 2615 b7bd 7f89 cdbd 9a07 edbe
00000160: c275 93bd 2978 9fbe a36d 8abd c0e5 a2be
00000170: 7ea2 32be 7c6a 7cbe fada 03bf 9d0d e53d
00000180: e397 323e 554a 523e 854e 1c3d b99c 043e
00000190: a5d6 adbe 0b59 9ebe e599 72bd b19a 0dbe
000001a0: eb50 87be 9668 c1be 0a02 10be ec9b d9be
000001b0: 3982 4e3e 5e4b dcbe 9942 e9be b9c8 45be
000001c0: 2681 c4bd 96af 913e 19db 933e e127 d83d
000001d0: abe8 583e 9221 4d3e 468a 3e3e 5e9d 14be
000001e0: 77d9 c7be c0f4 9bbe 2c61 3f3e cd8a 9a3e
000001f0: ae70 5c3e 3e98 b83b 3371 983e f4d8 babe
00000200: cf5e 923e b7fe cebe bc6d 32be 16e1 473e
00000210: f9c0 bd3e c0f0 b4be d4d6 5fbb dac1 7abe
00000220: 286b 57be eaec 66be 3ac0 453c d583 8dbe
00000230: 5d2a 59bd 2173 7cbe b67c 1d3d 4a51 c0be
00000240: 7078 47bc 4abf dbbe 91e8 e13e 21e6 1dbe
00000250: d8b4 8f3e ca5a dfbe 70c1 a53e dc3b f2be
00000260: 60dc 173e 9e60 fc39 4464 7d3e 6471 45be
00000270: 4945 93be cc42 25be 7dde 89bd e59f 20be
00000280: 403c df3d d519 6fbe adf0 9ebc 64b3 1bbe
00000290: 8663 9c3e cd1e 35be 0cbb c93e c8f9 c63e
000002a0: 6783 503c d095 be3e 056c 673e d758 9cbd
000002b0: 58e9 513e b2ef cf3e 5fee b53e 4b43 f43d
000002c0: a444 86be 5b8b 39be c81c ac3e d776 27bb
000002d0: 359a 423e 4080 4cbd 5ac5 9ebe a2f2 94be
000002e0: fa22 023e e7ff 98be 0e01 db3e f567 e9be
000002f0: 933a 003e 8069 70be 5973 c0be c8e5 e6bc
00000300: d04e 15bc 0d46 c43e 5ee1 b9bd b417 033e
00000310: 9678 793e f0a0 44bc 44f2 b43c 3a2b 0e3f
00000320: 24e8 e1be 5e7c 3d3e a9c3 a13e 21ea 8f3c
00000330: 5df3 5b3e 2749 343e fe43 0f3e 66a3 67bd
00000340: 78a0 c5be e27e c03e 3d7f eebd 8f53 90be
00000350: d8d5 dc3d b824 9a3e af5d 0abe 12a3 343e
00000360: f540 5e3e d9a7 92be 9dc9 053d aedc aa3e
00000370: abc4 ccbe 92d6 c83e 8ef4 993e 84de e5be
00000380: 06a0 18be 825a b63e e57e bb3e 0d24 9cbe
00000390: b0ca 7c3e 5c9f cb3e 996a e0be 8c3f 29bc
000003a0: c058 963d 9ff8 b4be b390 093d 70d9 94be
000003b0: 2cf8 97be d8b8 ab3e bae3 503e 1998 3a3d
000003c0: 950f a9be d321 9bbb e5c9 bf3e 53ac edbd
000003d0: 4edc 01bf 314e 903d 7f55 5fbe 5217 81be
000003e0: 55d9 dfbc 7891 b8be

gat_layer_2.out_att.a f4 [10, 1]
0.10421359 0.8732817 -0.121467814 0.74488604 0.43849498 0.33765855 0.058061484 1.0168792
-0.37080097 -0.64475244
00000000: ef6d d53d 648f 5f3f 1ec4 f8bd dab0 3e3f
00000010: 6a82 e03e 95e1 ac3e e1d1 6d3d 1929 823f
00000020: a0d9 bdbe 7f0e 25bf
