tests/gat/encoder-checkpoint7.pt (torch, 20170 bytes, 36 tensors)

gat_layer_0.attention_0.W f4 [5, 10]
-0.46153682 -0.81553656 0.40774682 -0.32726666 -0.113239825 0.32164255 0.80634713 -0.12672077
0.50558156 -0.4738133 -0.21345045 0.14837024 0.28008723 -0.85421646 -0.20482899 0.09946121
-0.657835 -0.1364579 -0.39812154 0.07407557 0.13358809 0.4216934 0.37335986 0.47382393
-0.07044511 -0.37423405 0.41007537 0.7611691 0.023814315 -0.111846596 -0.46834666 0.43461236
0.039587773 -0.51630217 -0.24981208 0.390224 -0.8998026 0.3165382 0.7800698 -0.8508659
0.65787935 -0.74968475 0.24543612 0.29833516 -0.15273039 0.81269205 -0.03768122 0.7516232
0.44566444 -0.36726776
00000000: 8e4e ecbe 01c7 50bf 31c4 d03e 7f8f a7be
00000010: 48ea e7bd 55ae a43e c46c 4e3f 17c3 01be
00000020: cb6d 013f a897 f2be c192 5abe 5eee 173e
00000030: 9867 8f3e eead 5abf b1be 51be 52b2 cb3d
00000040: e067 28bf 9fbb 0bbe 96d6 cbbe efb4 973d
00000050: 51cb 083e 33e8 d73e 0629 bf3e 0d99 f23e
00000060: 8745 90bd 9b9b bfbe 66f5 d13e fadb 423f
00000070: 3d16 c33c d40f e5bd 22cb efbe 8385 de3e
00000080: ca26 223d 612c 04bf bdce 7fbe 71cb c73e
00000090: 7759 66bf 4c11 a23e a8b2 473f 59d2 59bf
000000a0: c86a 283f 57eb 3fbf 9b53 7b3e 63bf 983e
000000b0: 5b65 1cbe 960c 503f 9f57 1abd 616a 403f
000000c0: 212e e43e 850a bcbe

gat_layer_0.attention_0.a f4 [20, 1]
-0.11787531 -0.23127173 0.1886321 0.7456305 -0.33637488 -0.047426224 0.62792325 -0.48803952
-0.076202124 0.6352915 -0.5119389 -0.7649723 0.49181008 -0.13593915 -0.1451427 -0.32544166
0.32147527 0.16572711 0.07642474 0.027447535
00000000: 9c68 f1bd 7fd2 6cbe c628 413e a4e1 3e3f
00000010: 5439 acbe 0042 42bd 94bf 203f 51e0 f9be
00000020: dc0f 9cbd 77a2 223f 6e0e 03bf 3ad5 43bf
00000030: 88ce fb3e a233 0bbe 4aa0 14be 4aa0 a6be
00000040: 6898 a43e 5eb4 293e 9384 9c3d a7d9 e03c

gat_layer_0.attention_1.W f4 [5, 10]
-0.82374716 -0.02037465 -0.053169362 -0.011824227 -0.08635555 -0.22430964 -0.8379881 0.73573095
-0.7595097 -0.70825464 0.36292902 -0.8419748 -0.69453466 0.71703464 0.8670112 -0.3956597
0.754426 -0.29685226 -0.06439303 0.15940595 0.040194493 0.53811 -0.5531394 -0.3022534
-0.19060887 -0.43255058 0.7762928 0.10293017 -0.71887404 -0.4481549 0.5205854 0.11870985
0.3607867 0.37282646 0.054015763 0.77266234 -0.39064473 0.8784807 -0.39134502 -0.050268363
-0.60117483 -0.32847387 0.8249248 -0.6771022 0.58863044 0.6508766 -0.5371029 -0.5197374
-0.78077006 -0.6415755
00000000: 18e1 52bf bde8 a6bc 1ec8 59bd 67ba 41bc
00000010: 2edb b0bd 6db1 65be 6386 56bf dd58 3c3f
00000020: 3a6f 42bf 2d50 35bf d5d1 b93e a98b 57bf
00000030: 06cd 31bf 958f 373f 72f4 5d3f e893 cabe
00000040: 1022 413f 05fd 97be 7ee0 83bd 503b 233e
00000050: fba2 243d 94c1 093f 8b9a 0dbf f5c0 9abe
00000060: f92e 43be 4577 ddbe 20bb 463f 0ecd d23d
00000070: 2108 38bf 8f74 e5be 1645 053f 261e f33d
00000080: 09b9 b83e 1ce3 be3e a23f 5d3d 33cd 453f
00000090: 9602 c8be 1ce4 603f 605e c8be 33e6 4dbd
000000a0: 98e6 19bf ba2d a8be 462e 533f 9256 2dbf
000000b0: 7cb0 163f d99f 263f 937f 09bf 830d 05bf
000000c0: 8ce0 47bf 4b3e 24bf

gat_layer_0.attention_1.a f4 [20, 1]
-0.3585413 0.08745379 0.27983037 -0.23256767 0.22998841 -0.3883389 -0.5314645 -0.49571103
-0.09173703 -0.25730273 0.5491924 0.18185756 -0.30403697 -0.3255172 0.17891426 0.12778986
-0.39427736 -0.4673513 0.6817226 0.02291775
00000000: ba92 b7be f91a b33d ed45 8f3e 3826 6ebe
00000010: 1582 6b3e 5bd4 c6be 0f0e 08bf d6cd fdbe
00000020: a0e0 bbbd 2fbd 83be e097 0c3f de38 3a3e
00000030: bcaa 9bbe 31aa a6be 4d35 373e 58db 023e
00000040: b9de c9be ab48 efbe 5f85 2e3f 01be bb3c

gat_layer_0.attention_2.W f4 [5, 10]
0.8303073 -0.46132904 -0.13444266 0.78280914 0.6817484 0.07969684 -0.59697104 -0.5409058
-0.6185279 -0.54030496 0.26412317 -0.8872431 -0.8384456 0.17427398 -0.22446652 -0.36194795
-0.8544316 0.27579606 -0.080596544 -0.3973201 -0.53512985 0.69782543 0.7211451 -0.3543083
0.4611289 0.1856309 -0.5327034 -0.45699248 0.8733564 0.6307458 -0.8799962 0.28496227
0.6319714 0.24185693 -0.5846451 -0.2246354 -0.6940721 -0.32807666 -0.50224984 0.5487846
-0.0724974 -0.16511916 -0.6800095 0.18408832 0.03775571 -0.3158025 -0.8457063 -0.8447038
-0.15126133 0.32070437
00000000: 058f 543f 5233 ecbe 56ab 09be 2e66 483f
00000010: 1087 2e3f 1938 a33d 18d3 18bf cd78 0abf
00000020: d857 1ebf 6d51 0abf 273b 873e 5d22 63bf
00000030: 5fa4 56bf e174 323e 8dda 65be 3e51 b9be
00000040: 08bc 5abf 2435 8d3e cd0f a5bd 8a6d cbbe
00000050: 45fe 08bf b0a4 323f f79c 383f e667 b5be
00000060: 1619 ec3e 0716 3e3e 405f 08bf ebfa e9be
00000070: 4994 5f3f 8f78 213f 6e47 61bf 93e6 913e
00000080: e1c8 213f 58a9 773e 4dab 15bf d306 66be
00000090: b6ae 31bf aaf9 a7be 7293 00bf 267d 0c3f
000000a0: 8479 94bd ff14 29be 1a15 2ebf a681 3c3e
000000b0: bba5 1a3d deb0 a1be 3580 58bf 823e 58bf
000000c0: 40e4 1abe 5d33 a43e

gat_layer_0.attention_2.a f4 [20, 1]
-0.45648396 -0.2899171 -0.36441356 -0.6219319 -0.7265827 0.5247275 0.02062101 0.53268623
0.4565333 0.562961 0.73023456 -0.68614644 -0.5092717 0.24073808 0.494325 0.25360402
0.65699935 -0.28394285 -0.51478195 -0.49033114
00000000: 44b8 e9be 0470 94be 6a94 babe ee36 1fbf
00000010: 5301 3abf 8b54 063f 64ed a83c 205e 083f
00000020: bcbe e93e 361e 103f a7f0 3a3f 4ba7 2fbf
00000030: a15f 02bf 0b84 763e 2b18 fd3e 63d8 813e
00000040: 1c31 283f f560 91be c0c8 03bf af0c fbbe

gat_layer_0.attention_3.W f4 [5, 10]
-0.3492724 -0.10482692 0.08423742 0.39148408 -0.29251552 -0.7978341 -0.64044243 0.86220914
-0.062446255 -0.51691306 -0.6912423 0.15790643 0.12473732 0.1428937 -0.4156749 -0.57078
-0.6488452 0.17802963 0.5652042 0.15909751 0.58231246 0.71579134 -0.25521383 0.115511775
0.3498148 -0.6610616 0.42451105 -0.60875547 -0.5123723 0.35477963 -0.11478893 -0.0143711455
-0.5993868 0.48460376 0.6350031 -0.7290789 -0.47780848 -0.6823209 0.6272883 0.18614142
0.68246067 0.3258499 -0.75453556 0.45248923 0.136181 -0.35283726 -0.6319325 0.15891686
0.68656534 -0.6546938
00000000: d5d3 b2be 7faf d6bd ab84 ac3d 9a70 c83e
00000010: 98c4 95be db3e 4cbf 09f4 23bf bdb9 5c3f
00000020: a5c7 7fbd 6a54 04bf 41f5 30bf 39b2 213e
00000030: 4876 ff3d ba52 123e 57d3 d4be a31e 12bf
00000040: b81a 26bf 664d 363e 39b1 103f 75ea 223e
00000050: 6e12 153f 1a3e 373f 63ab 82be 7091 ec3d
00000060: ed1a b33e 553b 29bf 8359 d93e 66d7 1bbf
00000070: d52a 03bf ada5 b53e 7516 ebbd f474 6bbc
00000080: 6a71 19bf fc1d f83e 908f 223f eaa4 3abf
00000090: 50a3 f4be 95ac 2ebf f795 203f db9b 3e3e
000000a0: beb5 2e3f ccd5 a63e 3e29 41bf abac e73e
000000b0: 0873 0b3e 16a7 b4be 54c6 21bf 1abb 223e
000000c0: bfc2 2f3f 039a 27bf

gat_layer_0.attention_3.a f4 [20, 1]
-0.32917303 0.04050601 0.49016476 0.74656755 0.6530669 0.6670366 -0.03709858 0.7453819
0.07986196 -0.52036005 -0.2563971 -0.5794616 -0.05637648 -0.6468071 -0.3742327 0.08126482
0.47215095 0.019525392 0.44465265 0.12213099
00000000: 5e89 a8be a1e9 253d e0f6 fa3e 0d1f 3f3f
00000010: 642f 273f e9c2 2a3f aef4 17bd 59d1 3e3f
00000020: ab8e a33d 5136 05bf 7b46 83be 9857 14bf
00000030: 06eb 66bd 2695 25bf 6e9b bfbe 2c6e a63d
00000040: c5bd f13e b7f3 9f3c 83a9 e33e d01f fa3d

gat_layer_0.attention_4.W f4 [5, 10]
-0.3108233 -0.7456559 0.7870779 0.3418587 0.006504913 0.3033693 0.46566626 0.24862519
-0.34211242 -0.6602778 -0.12453727 -0.45988643 -0.8640985 -0.58322036 0.40524483 0.49853104
-0.65135473 -0.27274942 0.34002003 0.4270989 -0.68644303 0.51510197 -0.3158916 -0.45554253
-0.67177564 0.23132859 0.094619706 0.4857004 -0.1518437 0.6464731 -0.19886495 -0.2527707
-0.4653227 0.5746797 -0.88710344 0.20429008 -0.7262257 -0.46431237 -0.79105514 0.7261241
-0.6197358 0.7481965 0.5763048 -0.067632936 -0.25420597 0.801948 0.8096806 0.8008703
-0.8220249 0.15339884
00000000: 3b24 9fbe 4ee3 3ebf f07d 493f 1b08 af3e
00000010: 2a27 d53b 3953 9b3e cf6b ee3e 9a97 7e3e
00000020: 5c29 afbe f707 29bf 650d ffbd 3c76 ebbe
00000030: 8f35 5dbf ee4d 15bf 407c cf3e 763f ff3e
00000040: 2fbf 26bf d0a5 8bbe 1b17 ae3e b5ac da3e
00000050: bbba 2fbf b9dd 033f 8bbc a1be df3c e9be
00000060: 7df9 2bbf 67e1 6c3e fac7 c13d b9ad f83e
00000070: ea7c 1bbe 437f 253f 41a3 4bbe 296b 81be
00000080: c73e eebe 351e 133f 3619 63bf 6b31 513e
00000090: ede9 39bf 5aba edbe 9782 4abf 45e3 393f
000000a0: 01a7 1ebf ce89 3f3f b688 133f 2383 8abd
000000b0: 4927 82be 774c 4d3f 3a47 4f3f d605 4d3f
000000c0: 3970 52bf 9614 1d3e

gat_layer_0.attention_4.a f4 [20, 1]
0.024417557 -0.4518616 -0.46770236 -0.42717144 -0.2803037 0.5458408 0.42531073 0.16220573
-0.44843182 0.38749763 0.6532736 0.6421304 -0.23347756 0.5838231 0.38405898 0.5165842
0.4142422 0.48917022 0.5578603 -0.5656983
00000000: 5407 c83c 675a e7be af76 efbe 37b6 dabe
00000010: f783 8fbe 39bc 0b3f 54c2 d93e 4219 263e
00000020: db98 e5be 1766 c63e f03c 273f a862 243f
00000030: be14 6fbe 6e75 153f 61a3 c43e dd3e 043f
00000040: 8e17 d43e 8574 fa3e efcf 0e3f 9bd1 10bf

gat_layer_0.out_att.W f4 [50, 5]
-0.4116576 -0.2738365 0.02281836 -0.23729344 -0.25980562 -0.47625783 0.06631267 -0.27999932
0.12752016 -0.19222996 0.2952735 -0.34313965 0.19928919 -0.0053470237 0.2561629 -0.038257368
-0.18567878 0.10183999 0.34170035 -0.36330894 0.3902089 -0.048272036 0.13898516 0.23430257
0.43859568 -0.3042478 0.020802284 0.36498103 0.28046605 -0.20232429 0.40526786 0.23879935
-0.33293873 -0.30269969 0.17910127 -0.48166147 0.022040337 0.26534465 -0.2810299 0.018027183
0.18462597 -0.25685105 -0.04939156 0.10620017 0.023876188 -0.36004847 0.22811538 -0.13239552
-0.28776616 0.259037 -0.3072862 0.24187885 -0.18960209 -0.26564515 -0.091129534 -0.18992002
0.20545647 -0.014893517 0.23804238 -0.3109265 -0.03401982 0.32010806 -0.39126927 0.38366064
0.3183896 0.10677203 0.20658709 -0.2738016 0.21258289 0.4546367 0.022224871 -0.45537433
0.2690404 -0.3420355 0.4272707 -0.076634355 -0.06925916 -0.048854623 0.3477361 -0.43769112
-0.22129902 0.2563174 -0.1595857 0.45987737 0.4153548 0.05747427 -0.17390311 0.2203313
-0.012200083 0.17265208 -0.43913913 -0.04355479 -0.013212258 0.06582771 0.37897202 0.3095123
-0.28197253 -0.23741136 0.38089567 0.23401603 0.18910685 -0.4256343 -0.070641614 -0.05912522
0.3695062 0.30106467 0.31833014 -0.027416091 -0.19803335 -0.41104 0.3875812 0.28884915
-0.25401098 -0.14224218 0.31265768 0.013292817 -0.14581037 -0.17900412 0.17024021 -0.21528912
0.14276275 -0.41190782 0.10014435 0.1004193 -0.077838935 0.06974955 0.14874335 -0.28500593
0.3078726 -0.23834895 -0.31193712 -0.25824204 0.32265803 -0.46074328 -0.32674405 0.35196456
-0.03517052 -0.41311112 0.44655126 -0.3413974 -0.23406255 -0.08887982 0.2664829 -0.40760547
0.30293268 0.40748632 -0.16518404 0.21796238 -0.32002547 -0.35010156 0.005424725 0.369687
-0.07038928 -0.3840375 0.10552175 0.2870091 -0.15532011 -0.44113922 0.24263783 0.17849205
-0.3837662 0.20270099 -0.36812946 0.30248907 0.4138993 -0.4118109 0.18732244 0.4215608
0.16755988 0.4562042 -0.19708334 -0.23088346 0.4532125 0.35370213 -0.3593579 -0.142336
0.40455866 0.010217271 0.39125273 0.13975222 0.2089878 0.3561867 0.28691894 -0.36205056
0.062191013 -0.34438863 0.204896 0.2587715 0.11577394 -0.25615147 -0.32601866 0.29326445
0.0664096 -0.29729977 -0.38076827 0.3467342 0.22181919 -0.32320067 0.15131362 0.032952435
-0.19483836 0.34499705 0.2990832 -0.09746993 -0.19236362 0.003798272 0.32885674 0.08497788
0.30424815 -0.23172002 0.11332513 0.25173187 0.04187904 -0.06692786 0.21533518 -0.076471336
-0.3864707 0.3678832 -0.14785844 0.2786633 0.42780492 0.41400847 0.036811486 -0.38796386
0.0831265 -0.20391208 -0.33940628 0.015290135 -0.12710327 0.15488169 -0.094162926 -0.084823824
-0.42337453 0.2588073 -0.46005484 -0.16176634 0.009287604 -0.096870765 0.36739588 -0.25430465
-0.21615273 -0.44416872 0.39141926 -0.26727897 0.32317963 0.029123524 -0.4382293 0.37942934
-0.44919935 -0.1789455
00000000: c9c4 d2be 4c34 8cbe 92ed ba3c 0dfd 72be
00000010: 3e05 85be 11d8 f3be f0ce 873d 125c 8fbe
00000020: a594 023e eed7 44be 172e 973e 00b0 afbe
00000030: 7712 4c3e 1636 afbb c927 833e c2b3 1cbd
00000040: 9422 3ebe 7c91 d03d 59f3 ae3e a103 babe
00000050: 76c9 c73e e6b8 45bd 2052 0e3e 03ed 6f3e
00000060: 9d8f e03e 5ec6 9bbe 8d69 aa3c cbde ba3e
00000070: 3f99 8f3e 192e 4fbe 457f cf3e d187 743e
00000080: f276 aabe 74fb 9abe 5366 373e 559c f6be
00000090: f08d b43c 41db 873e 27e3 8fbe bead 933c
000000a0: 970e 3d3e fb81 83be ce4e 4abd 7a7f d93d
000000b0: ff97 c33c 4658 b8be 1497 693e b192 07be
000000c0: 1656 93be 7fa0 843e 9e54 9dbe 17af 773e
000000d0: 0d27 42be a402 88be 1fa2 babd 657a 42be
000000e0: 2e63 523e f003 74bc 62c1 733e c231 9fbe
000000f0: 5e58 0bbd 34e5 a33e 7254 c8be 2b6f c43e
00000100: f603 a33e 4bab da3d 918b 533e b92f 8cbe
00000110: 54af 593e 24c6 e83e ef10 b63c d326 e9be
00000120: aabf 893e 471f afbe 3ac3 da3e 79f2 9cbd
00000130: bfd7 8dbd c91b 48bd 770a b23e 0d19 e0be
00000140: 369c 62be 093c 833e 6f6a 23be 0c75 eb3e
00000150: 62a9 d43e 246a 6b3d a813 32be 879e 613e
00000160: dbe2 47bc b5cb 303e d8d6 e0be 8266 32bd
00000170: 3a78 58bc aed0 863d 9f08 c23e 6578 9e3e
00000180: b45e 90be f71b 73be c204 c33e e6a1 6f3e
00000190: 3aa5 413e bdec d9be 8dac 90bd 492d 72bd
000001a0: eb2f bd3e 2625 9a3e 2bfc a23e b697 e0bc
000001b0: 41c9 4abe d673 d2be 0b71 c63e 09e4 933e
000001c0: ba0d 82be efa7 11be ab14 a03e 1eca 593c
000001d0: 504f 15be db4c 37be 7353 2e3e c074 5cbe
000001e0: 6630 123e 95e5 d2be 7b18 cd3d a2a8 cd3d
000001f0: 056a 9fbd dad8 8e3d 2d50 183e 4cec 91be
00000200: 7aa1 9d3e bf11 74be 39b6 9fbe 4d38 84be
00000210: 6f33 a53e 8be6 ebbe ff4a a7be b334 b43e
00000220: f70e 10bd 4d83 d3be 5ea2 e43e a4cb aebe
00000230: 18ae 6fbe a006 b6bd 7270 883e aab1 d0be
00000240: fe19 9b3e 0ca2 d03e 0126 29be 8831 5f3e
00000250: 61da a3be 8340 b3be e4c1 b13b 9d47 bd3e
00000260: 4128 90bd 90a0 c4be ca1b d83d dbf2 923e
00000270: 3c0c 1fbe 00dd e1be 0d76 783e 9fc6 363e
00000280: 017d c4be d990 4f3e 777b bcbe d9df 9a3e
00000290: 9cea d33e e1d8 d2be 74d1 3f3e d1d6 d73e
000002a0: d194 2b3e 9993 e93e 37d0 49be b76c 6cbe
000002b0: 780b e83e 7218 b53e c2fd b7be 87c0 11be
000002c0: 5022 cf3e 5766 273c 4752 c83e 351b 0f3e
000002d0: e600 563e 1a5e b63e 0ae7 923e b15e b9be
000002e0: 01bc 7e3d b553 b0be 42d0 513e b37d 843e
000002f0: e31a ed3d 4926 83be ebeb a6be c226 963e
00000300: c201 883d ad37 98be 0ff4 c2be 2587 b13e
00000310: 9224 633e 8f7a a5be f5f1 1a3e 22f9 063d
00000320: b583 47be 74a3 b03e 6f21 993e 519e c7bd
00000330: f8fa 44be 6eec 783b e95f a83e e208 ae3d
00000340: 6ac6 9b3e 0348 6dbe 0117 e83d 00e3 803e
00000350: 5b89 2b3d 7911 89bd d380 5c3e 019d 9cbd
00000360: 7ddf c5be 305b bc3e 3468 17be f5ac 8e3e
00000370: 3f09 db3e ebf8 d33e a4c7 163d 33a3 c6be
00000380: 3a3e aa3d 54ce 50be a9c6 adbe 7983 7a3c
00000390: 5c27 02be 4e99 1e3e 7ed8 c0bd 1db8 adbd
000003a0: 8cc4 d8be 6482 843e 4f8c ebbe 13a6 25be
000003b0: 092b 183c 2e64 c6bd 501b bc3e 3834 82be
000003c0: 2457 5dbe 156a e3be 1b68 c83e cad8 88be
000003d0: cd77 a53e 7594 ee3c 975f e0be 9044 c23e
000003e0: 75fd e5be 7d3d 37be

gat_layer_0.out_att.a f4 [10, 1]
0.14512528 0.9892986 -0.6573067 -0.43362522 -0.42873532 -0.7654731 0.38933483 -0.110016465
-1.0031842 -0.70413417
00000000: b99b 143e ac42 7d3f 4045 28bf 2004 debe
00000010: 3283 dbbe 0cf6 43bf e556 c73e 5050 e1bd
00000020: 5768 80bf 2342 34bf

gat_layer_1.attention_0.W f4 [5, 10]
0.0148211 -0.2655442 0.5553806 -0.858182 0.48822522 -0.18236332 0.3140817 -0.011827362
-0.7248428 -0.5481772 0.7128792 -0.7881307 -0.4324855 -0.09352509 -0.8206388 -0.031026172
-0.7114812 -0.7188142 -0.6363115 0.5363114 0.45327744 -0.6687947 0.74043113 -0.24122472
0.6734823 0.031729717 -0.48213357 0.88674444 0.12564607 0.7829345 0.11671932 -0.78587145
0.37844977 -0.11868927 0.22372249 0.84731096 -0.5209654 -0.66573036 -0.22278064 -0.043462705
-0.2255054 0.75759876 0.83460873 0.73417056 -0.83663857 -0.62081647 0.616277 -0.32842833
0.525523 0.43534097
00000000: 33d4 723c 69f5 87be 6c2d 0e3f d1b1 5bbf
00000010: a8f8 f93e 73bd 3abe 51cf a03e 8dc7 41bc
00000020: 4c8f 39bf 5755 0cbf 407f 363f efc2 49bf
00000030: bd6e ddbe 158a bfbd 6215 52bf 992a febc
00000040: a223 36bf 3504 38bf 4fe5 22bf b44b 093f
00000050: fb13 e83e 2136 2bbf e58c 3d3f 9d03 77be
00000060: 5669 2c3f 05f7 013d 36da f6be af01 633f
00000070: 5da9 003e 656e 483f 8a0a ef3d df2e 49bf
00000080: 2bc4 c13e 5c13 f3bd 8217 653e 5fe9 583f
00000090: fd5d 05bf 4e6d 2abf 9c20 64be f305 32bd
000000a0: e3ea 66be fef1 413f eba8 553f 9af2 3b3f
000000b0: f22d 56bf d4ed 1ebf 54c4 1d3f c227 a8be
000000c0: ad88 063f 03e5 de3e

gat_layer_1.attention_0.a f4 [20, 1]
0.18417159 -0.51818657 -0.2150088 -0.38985372 0.74874717 -0.7313939 -0.32336205 -0.7201438
0.7267634 -0.6536051 0.7369405 -0.15946095 -0.20565298 -0.14056866 0.6822902 0.20702414
0.45490253 -0.21792059 -0.72251266 -0.18319155
00000000: 7a97 3c3e e0a7 04bf 442b 5cbe e89a c7be
00000010: e5ad 3f3f a13c 3bbf b68f a5be 585b 38bf
00000020: 2b0d 3a3f aa52 27bf 22a8 3c3f bb49 23be
00000030: b296 52be 3bf1 0fbe 92aa 2e3f 23fe 533e
00000040: fce8 e83e 9326 5fbe 97f6 38bf 9196 3bbe

gat_layer_1.attention_1.W f4 [5, 10]
0.52535784 -0.015374255 0.52061516 0.49242952 -0.43405697 -0.2643126 0.034327213 0.056454778
-0.5672316 0.16139954 -0.87344295 0.09856096 -0.7045993 0.8455934 -0.23212604 -0.33737487
0.15478526 -0.79350597 0.4539234 0.40501964 0.51968807 -0.64176714 -0.83402866 -0.350899
-0.21368304 -0.18934688 0.58702475 -0.11158565 -0.5499232 -0.35114887 0.09447586 0.29618168
-0.7266503 0.40332764 -0.2532584 0.33584344 -0.12333305 -0.24025556 -0.21817814 0.1766144
-0.72134274 0.52902806 -0.47724292 -0.35637695 0.24039507 0.09799385 0.15488462 -0.87342393
-0.4233914 -0.06727045
00000000: da7d 063f 4de4 7bbc 0947 053f b91f fc3e
00000010: b73c debe fb53 87be b19a 0c3d 203d 673d
00000020: 1736 11bf ec45 253e f599 5fbf 54da c93d
00000030: 9f60 34bf cf78 583f 73b2 6dbe 66bc acbe
00000040: 0780 1e3e 3523 4bbf a668 e83e bc5e cf3e
00000050: 470a 053f da4a 24bf e782 55bf 09a9 b3be
00000060: bacf 5abe 26e4 41be 4147 163f 0487 e4bd
00000070: c4c7 0cbf c9c9 b3be 8f7c c13d 20a5 973e
00000080: c105 3abf f680 ce3e 16ab 81be acf3 ab3e
00000090: 0a96 fcbd 8e05 76be 176a 5fbe 68da 343e
000000a0: eba9 38bf 626e 073f 2f59 f4be 0a77 b6be
000000b0: 202a 763e 00b1 c83d 139a 1e3e b698 5fbf
000000c0: c2c6 d8be 17c5 89bd

gat_layer_1.attention_1.a f4 [20, 1]
-0.5563095 0.14185476 -0.15155295 -0.3840812 0.21598434 -0.13607895 0.007681566 0.7453785
-0.40515682 -0.26786447 0.61083174 0.01705116 0.43724465 -0.6516493 -0.00049260864 -0.38719878
-0.3378964 0.7052277 -0.050258663 0.6453471
00000000: 4d6a 0ebf 6042 113e b230 1bbe 4ba6 c4be
00000010: 002b 5d3e 4858 0bbe a5b5 fb3b 20d1 3e3f
00000020: b770 cfbe 8825 89be 785f 1c3f e0ae 8b3c
00000030: 88de df3e 7dd2 26bf 6822 01ba eb3e c6be
00000040: c200 adbe cd89 343f 07dc 4dbd 7835 253f

gat_layer_1.attention_2.W f4 [5, 10]
-0.09779543 -0.7953843 -0.34270638 -0.31988138 -0.8717724 -0.3157875 0.7588153 -0.17980297
0.33450514 -0.022805987 0.47952583 -0.81040126 0.017154573 0.6157089 0.8749278 -0.32305837
-0.4149324 -0.18002115 -0.5323638 -0.005864946 0.10444978 0.4488635 -0.70693773 0.6168447
0.49326438 0.42054954 -0.79048795 0.23226725 0.052942578 0.22534285 0.12066043 -0.024921296
0.17989214 0.14858876 0.638749 -0.21706176 -0.47489345 -0.19649443 0.0136391055 0.34697354
0.22066051 -0.29053923 -0.6651168 0.79974693 0.624832 -0.20673525 0.3655554 -0.0026504216
0.14100648 0.09027921
00000000: f848 c8bd 4e9e 4bbf 3677 afbe 7ec7 a3be
00000010: 7a2c 5fbf e6ae a1be b841 423f 451e 38be
00000020: 4244 ab3e 9fd3 babc 6984 f53e 7576 4fbf
00000030: bf87 8c3c 199f 1d3f 45fb 5f3f e867 a5be
00000040: 0572 d4be 7757 38be fe48 08bf bc2e c0bb
00000050: c4e9 d53d 70d1 e53e dff9 34bf 89e9 1d3f
00000060: 268d fc3e 4552 d73e 6b5d 4abf 77d7 6d3e
00000070: 51da 583d 47c0 663e d11c f73d bf27 ccbc
00000080: a535 383e a727 183e 0e85 233f 7045 5ebe
00000090: 3c25 f3be d635 49be 8e76 5f3c 84a6 b13e
000000a0: d4f4 613e 8fc1 94be 1845 2abf 37bc 4c3f
000000b0: fdf4 1f3f 68b2 53be 142a bb3e b2b2 2dbb
000000c0: 0164 103e 4ee4 b83d

gat_layer_1.attention_2.a f4 [20, 1]
0.39402288 0.5580561 -0.30490443 0.5925588 0.61777765 -0.7055745 -0.40328774 0.014661425
-0.69516814 0.2659045 0.7152958 0.027402485 -0.014758392 -0.28856653 -0.66009617 -0.4963678
0.32290918 -0.056357797 -0.16157085 -0.1763665
00000000: 5ebd c93e c4dc 0e3f 6f1c 9cbe efb1 173f
00000010: ad26 1e3f 88a0 34bf bb7b cebe 7936 703c
00000020: 8af6 31bf a224 883e a01d 373f 2d7b e03c
00000030: 2fcd 71bc febe 93be 10fc 28bf ec23 febe
00000040: 5a54 a53e 6fd7 66bd d472 25be 6b99 34be

gat_layer_1.attention_3.W f4 [5, 10]
0.5615995 -0.8887833 0.41865832 -0.8898024 0.75927585 -0.18066756 -0.64856136 -0.8035408
0.91049075 -0.071103424 0.08215866 -0.4967502 -0.12520905 0.6882352 0.5742126 0.54584986
-0.39024797 0.2617746 0.7039138 0.6930488 0.6755419 0.4330816 -0.15038306 -0.71953064
-0.64601016 0.7468618 0.6452447 0.07698823 -0.66547644 0.08315689 -0.30421665 -0.8536617
-0.37204018 -0.40438077 0.6976267 -0.27361697 0.21652487 -0.3013471 0.461044 -0.63006914
-0.59481466 0.69994646 -0.84164053 -0.47590122 0.6504044 0.8407686 -0.071292 -0.40151426
0.48808476 0.38464537
00000000: fcc4 0f3f 4d87 63bf 625a d63e 17ca 63bf
00000010: e75f 423f eb00 39be 1e08 26bf dab4 4dbf
00000020: ec15 693f ac9e 91bd cd42 a83d 0b56 febe
00000030: cd36 00be 2f30 303f 99ff 123f d1bc 0b3f
00000040: 95ce c7be 5207 863e b233 343f a56b 313f
00000050: 50f0 2c3f dfbc dd3e 04fe 19be 2933 38bf
00000060: ec60 25bf 5632 3f3f c22e 253f 01ac 9d3d
00000070: aa5c 2abf 294e aa3d 49c2 9bbe 9389 5abf
00000080: 0d7c bebe ff0a cfbe aa97 323f 8617 8cbe
00000090: b2b8 5d3e 2b4a 9abe f60d ec3e 364c 21bf
000000a0: c645 18bf b12f 333f c175 57bf 53a9 f3be
000000b0: e780 263f 9c3c 573f 8a01 92bd 4793 cdbe
000000c0: 3fe6 f93e 3df0 c43e

gat_layer_1.attention_3.a f4 [20, 1]
-0.5368204 -0.18865332 -0.45696184 -0.22550653 -0.26107424 0.50113076 0.0130093135 0.4097055
0.13295488 -0.28054512 0.53336287 -0.1906879 -0.4009321 0.7085321 -0.36925277 -0.058979575
0.493302 0.59715253 -0.35429448 0.43648753
00000000: 106d 09bf 562e 41be e7f6 e9be 2feb 66be
00000010: 86ab 85be 1b4a 003f 0425 553c ebc4 d13e
00000020: 5325 083e 9ca3 8fbe 788a 083f b043 43be
00000030: f946 cdbe 5c62 353f b30e bdbe 9194 71bd
00000040: 1492 fc3e fdde 183f 1666 b5be 4b7b df3e

gat_layer_1.attention_4.W f4 [5, 10]
0.8327447 0.42534292 0.449177 0.08757067 0.14292681 0.11720867 -0.5493469 0.6760677
-0.6087928 0.43171886 -0.37798434 -0.81738204 0.4777007 0.67748624 0.80397826 0.69896346
-0.623691 0.68489724 -0.86003256 0.56125194 -0.12551568 0.84366876 -0.81059676 -0.2118982
-0.7940438 -0.61526823 -0.851664 0.15766573 -0.4971365 -0.66235316 -0.660333 -0.69393194
0.5671404 -0.23092265 0.7999347 0.6126437 0.7912962 -0.2805812 0.080080636 -0.25535884
-0.46526727 -0.45413232 0.7268637 0.7582755 0.58273 -0.7619446 -0.06520161 0.48715228
0.8052098 0.31739828
00000000: c22e 553f 8cc6 d93e 87fa e53e 4058 b33d
00000010: 685b 123e 190b f03d 00a2 0cbf c612 2d3f
00000020: d8d9 1bbf 410a dd3e 2a87 c1be f33f 51bf
00000030: 3095 f43e bd6f 2d3f 85d1 4d3f 45ef 323f
00000040: 37aa 1fbf 6d55 2f3f 182b 5cbf 35ae 0f3f
00000050: 2f87 00be adfa 573f 4583 4fbf d7fb 58be
00000060: 7446 4bbf 3882 1dbf a706 5abf 2073 213e
00000070: ad88 febe fa8f 29bf 950b 29bf 86a5 31bf
00000080: 1d30 113f fd76 6cbe 85c8 4c3f 38d6 1c3f
00000090: 6392 4a3f 57a8 8fbe 5101 a43d 65be 82be
000000a0: 8337 eebe 0884 e8be bd13 3a3f 581e 423f
000000b0: cb2d 153f cd0e 43bf 6c88 85bd 066c f93e
000000c0: 3b22 4e3f 0782 a23e

gat_layer_1.attention_4.a f4 [20, 1]
-0.761154 -0.43316886 -0.38434792 0.06945473 0.43441528 0.34059098 0.34964782 0.13750169
0.724785 0.4955981 0.07816428 0.13775179 -0.58580405 0.40089986 -0.66138494 0.5812856
0.5444719 -0.23299462 -0.28722388 0.4186488
00000000: fdda 42bf 4fc8 ddbe 40c9 c4be 483e 8e3d
00000010: ae6b de3e f161 ae3e 0a05 b33e 3ecd 0c3e
00000020: 828b 393f 09bf fd3e 9814 a03d ce0e 0d3e
00000030: 41f7 15bf bf42 cd3e 8650 29bf 22cf 143f
00000040: 8362 0b3f 2496 6ebe 020f 93be 2359 d63e

gat_layer_1.out_att.W f4 [50, 5]
0.14283316 0.041889325 0.030194262 0.022591194 -0.0315815 0.42385325 0.41425747 -0.077359
0.35503715 0.16548526 0.10277978 0.10677299 -0.3979793 0.19514532 0.2170691 0.10819056
0.04456427 0.08052622 -0.21653341 -0.43808702 -0.13307954 -0.12953609 -0.22438015 0.44325563
0.39980778 0.3215507 0.099951714 0.20821913 0.18827704 -0.26207998 -0.38929418 -0.40104318
0.25986204 0.10774387 -0.26463404 -0.36950302 -0.2940818 -0.12545435 0.055111416 0.00972426
0.4458691 0.14760049 -0.30101773 0.23628575 -0.20720334 0.08008082 0.4583337 0.25179085
0.053074744 0.42523462 -0.25472388 -0.014858623 -0.058164172 -0.37545598 -0.040269762 -0.3907876
-0.043783247 0.004251807 0.1649437 -0.36631083 0.35332865 -0.19258878 -0.23774484 0.30941194
-0.43839714 0.39132392 0.3767031 0.13786864 0.03485067 0.39028636 0.012821859 -0.014248038
0.023573197 0.28966033 0.28827178 -0.46981993 -0.19193721 -0.16150866 -0.37017098 0.4359513
-0.14401093 0.110768646 0.08201447 -0.015579439 0.21553895 -0.01830983 -0.3177646 0.2755839
0.091842644 0.14791809 -0.06664653 0.14741623 0.00042256736 0.14999244 0.0020211455 0.42480633
0.4193023 -0.1561107 -0.27484295 0.14838824 0.21890089 0.13322802 -0.3764863 0.053216517
-0.3966305 0.01827185 0.054120358 0.29055887 -0.03917004 -0.33482605 -0.38842916 0.33640006
0.36804965 0.42123824 -0.22727251 -0.47664163 0.15201923 0.14682579 0.21857351 -0.3377084
-0.27882776 0.24598779 0.34739104 0.4731718 -0.27222505 0.12718666 0.15259612 -0.1144612
-0.37347114 -0.43153444 -0.37482846 0.13284047 0.0029581029 0.2883822 0.1785232 0.27224225
0.14121029 -0.23346418 0.42297983 -0.43046406 0.13951072 -0.07705107 0.23056462 0.39869058
-0.13300008 -0.17710881 -0.17407662 -0.44211194 0.08713492 0.26317856 -0.3800368 -0.10002097
0.043667946 0.023322172 -0.45646012 0.34906632 0.23608243 -0.32365316 -0.32422024 -0.044744775
-0.2101582 -0.21866906 0.3354317 -0.42449436 0.19592479 -0.4047395 -0.3427418 0.29541874
-0.1066535 0.015572248 0.40136045 0.220581 -0.13398677 0.38487247 -0.4208227 0.21222956
-0.10254787 -0.310423 0.049226273 0.342254 -0.116510496 0.022645742 0.13401397 -0.29848164
0.41886503 -0.39457265 0.33093056 0.17101751 -0.05033771 0.25850204 -0.24596103 -0.2294585
-0.11691395 -0.021407116 0.3740143 0.39918482 -0.5433473 -0.0996858 0.40093955 -0.34527263
-0.047274884 -0.039164778 0.19135772 0.11806268 0.4230435 -0.009148627 -0.28096086 0.067352876
-0.32946423 0.018722521 -0.40053827 -0.32246026 -0.3993361 -0.029017061 0.16724549 -0.3934065
0.32217923 -0.16815287 0.25414285 -0.10339538 -0.15288146 -0.10517274 0.32576668 0.32508773
0.25042564 -0.26780254 -0.33075467 -0.0023586946 -0.32132837 0.09984985 -0.41529384 0.10131469
-0.31732053 -0.32838905 -0.29057038 0.15734138 0.40010208 0.14038472 -0.4075115 0.19912319
0.12724799 0.13136901 -0.2798183 0.3787824 0.41184852 -0.33122304 -0.096891254 -0.4433667
0.21521655 -0.1551088
00000000: db42 123e 2494 2b3d f559 f73c 2b11 b93c
00000010: 9a5b 01bd 4b03 d93e 8e19 d43e 656e 9ebd
00000020: 6ec7 b53e f874 293e 357e d23d ccab da3d
00000030: f1c3 cbbe 2dd4 473e 5d47 5e3e 0393 dd3d
00000040: 0689 363d eeea a43d efba 5dbe f14c e0be
00000050: 0146 08be 1ca5 04be e9c3 65be 67f2 e23e
00000060: 9bb3 cc3e 4ba2 a43e 7cb3 cc3d 6537 553e
00000070: b2cb 403e 592f 86be 9151 c7be 8855 cdbe
00000080: a30c 853e d1a8 dc3d 1d7e 87be 802f bdbe
00000090: e491 96be 1b77 00be 82bc 613d 8152 1f3c
000000a0: f448 e43e 9524 173e ff1e 9abe e4f4 713e
000000b0: 1d2d 54be 6a01 a43d b7aa ea3e bbea 803e
000000c0: e764 593d 5ab8 d93e 2b6b 82be 9571 73bc
000000d0: 8e3d 6ebd c43b c0be e8f1 24bd 5015 c8be
000000e0: 1056 33bd be52 8b3b 00e7 283e 188d bbbe
000000f0: 7ee7 b43e fe35 45be 6273 73be 3e6b 9e3e
00000100: 9775 e0be 9c5b c83e 3bdf c03e 702d 0d3e
00000110: 93bf 0e3d 9dd3 c73e c612 523c 9a70 69bc
00000120: 941c c13c 5c4e 943e 5c98 933e 3d8c f0be
00000130: 308b 44be 8762 25be 0d87 bdbe 0235 df3e
00000140: 9a77 13be acda e23d 34f7 a73d e740 7fbc
00000150: 3eb6 5c3e 7ffe 95bc 0bb2 a2be 5519 8d3e
00000160: ff17 bc3d d777 173e fa7d 88bd 48f4 163e
00000170: 088c dd39 9e97 193e 3275 043b 3780 d93e
00000180: cbae d63e 7cdb 1fbe 37b8 8cbe 16f3 173e
00000190: 8e27 603e ed6c 083e d0c2 c0be 90f9 593d
000001a0: 2713 cbbe d9ae 953c 4fad 5d3d 22c4 943e
000001b0: c470 20bd 526e abbe 30e0 c6be a13c ac3e
000001c0: 0171 bc3e 8aac d73e 20ba 68be 5f0a f4be
000001d0: eeaa 1b3e 8059 163e bcd1 5f3e 1ee8 acbe
000001e0: 83c2 8ebe 39e4 7b3e 3ddd b13e 9343 f23e
000001f0: 1561 8bbe 383d 023e 2842 1c3e a26a eabd
00000200: 9c37 bfbe 15f2 dcbe 84e9 bfbe 5507 083e
00000210: bbdc 413b d5a6 933e c9ce 363e 5663 8b3e
00000220: 6e99 103e 3c11 6fbe d090 d83e c965 dcbe
00000230: e6db 0e3e f4cc 9dbd 2219 6c3e 2c21 cc3e
00000240: 2c31 08be 035c 35be 2441 32be 7f5c e2be
00000250: cb73 b23d 57bf 863e 2f94 c2be cbd7 ccbd
00000260: 29dd 323d 240e bf3c 24b5 e9be d2b8 b23e
00000270: 98bf 713e deb5 a5be 3200 a6be 4c46 37bd
00000280: b633 57be c8ea 5fbe b4bd ab3e 5357 d9be
00000290: 82a0 483e 043a cfbe da7b afbe 2041 973e
000002a0: 266d dabd be22 7f3c 1e7f cd3e fcdf 613e
000002b0: d433 09be 010e c53e 1376 d7be b552 593e
000002c0: 9e04 d2bd c3ef 9ebe 7da1 493d eb3b af3e
000002d0: 0e9d eebd 9083 b93c f53a 093e 96d2 98be
000002e0: 7a75 d63e 6d05 cabe bb6f a93e 371f 2f3e
000002f0: ea2e 4ebd 615a 843e 35dd 7bbe 2bf7 6abe
00000300: 9570 efbd fa5d afbc cd7e bf3e f461 cc3e
00000310: cf18 0bbf 1228 ccbd f347 cd3e 93c7 b0be
00000320: 4fa3 41bd 3f6b 20bd 47f3 433e d9ca f13d
00000330: 2899 d83e 1fe4 15bc 1ada 8fbe 4ef0 893d
00000340: 89af a8be f95f 993c 5a13 cdbe 8319 a5be
00000350: c875 ccbe 30b5 edbc 6742 2b3e 946c c9be
00000360: adf4 a43e 4430 2cbe 031f 823e f5c0 d3bd
00000370: f58c 1cbe ce64 d7bd e4ca a63e e671 a63e
00000380: ca37 803e 6a1d 89be ad58 a9be 5494 1abb
00000390: 2785 a4be 147e cc3d 65a1 d4be 147e cf3d
000003a0: d677 a2be 9c22 a8be a4c5 94be 191e 213e
000003b0: 2eda cc3e 03c1 0f3e 59a5 d0be f3e6 4b3e
000003c0: 4c4d 023e 9985 063e 5844 8fbe c4ef c13e
000003d0: cfdd d23e 1196 a9be ec6e c6bd f600 e3be
000003e0: ba61 5c3e d7d4 1ebe

gat_layer_1.out_att.a f4 [10, 1]
0.59013623 -0.70174706 -0.3637124 -1.0590782 -0.29980376 -0.4210397 0.13773303 0.9045842
-0.6023067 -0.25033486
00000000: 2b13 173f b2a5 33bf 8338 babe e08f 87bf
00000010: e17f 99be 8492 d7be e309 0d3e d592 673f
00000020: c630 1abf e42b 80be

gat_layer_2.attention_0.W f4 [5, 10]
0.00016730977 -0.46089956 -0.103265725 0.0066373795 -0.0009536654 -0.282544 -0.38809386 -0.24635433
0.2547798 -0.62716585 0.7631517 0.66294694 0.53061086 -0.6187323 -0.14776875 0.3265791
0.05060594 -0.07729018 0.18499158 -0.57723534 -0.17262594 0.61821324 -0.8883244 -0.53053707
0.24110176 0.49426603 0.4646418 -0.7449012 0.12705882 -0.10490877 0.22550668 0.50316894
0.67625815 0.64866465 -0.49756962 -0.78589666 -0.29856 0.56261 -0.795761 0.1714742
-0.8772463 -0.25583342 -0.21558043 -0.011494482 0.7478927 -0.4991594 -0.07169939 -0.7966626
-0.8296216 0.7047377
00000000: e06f 2f39 07fb ebbe fb7c d3bd 607e d93b
00000010: 67ff 79ba 9ba9 90be 3db4 c6be 4f44 7cbe
00000020: 7f72 823e f18d 20bf e95d 433f e4b6 293f
00000030: 1dd6 073f 3d65 1ebf b150 17be 6035 a73e
00000040: 2d48 4f3d 504a 9ebd 6f6e 3d3e b2c5 13bf
00000050: dbc4 30be 3943 1e3f 3a69 63bf 47d1 07bf
00000060: 61e3 763e 7010 fd3e 88e5 ed3e d8b1 3ebf
00000070: b51b 023e 69da d6bd 39eb 663e aecf 003f
00000080: 411f 2d3f e30e 263f 72c1 febe 8630 49bf
00000090: dbdc 98be 3507 103f feb6 4bbf ef96 2f3e
000000a0: 3793 60bf 99fc 82be 1ec1 5cbe 5a53 3cbc
000000b0: e575 3f3f d291 ffbe 21d7 92bd 15f2 4bbf
000000c0: 1562 54bf b169 343f

gat_layer_2.attention_0.a f4 [20, 1]
-0.40662226 0.62599695 -0.14418317 -0.74204123 -0.16670898 0.6869479 0.33711615 -0.096278325
-0.011697173 -0.7071092 -0.12295457 -0.25663057 -0.1414573 0.5462515 -0.051063567 0.720327
-0.5917889 -0.35434058 0.45511326 -0.45277527
00000000: cb30 d0be 5641 203f c1a4 13be 6af6 3dbf
00000010: c2b5 2abe d1db 2f3f 7d9a ac3e 922d c5bd
00000020: 80a5 3fbc 1c05 35bf 9bcf fbbd 1565 83be
00000030: 2fda 10be 23d7 0b3f 0828 51bd 5a67 383f
00000040: 7a7f 17bf 216c b5be 9b04 e93e 29d2 e7be

gat_layer_2.attention_1.W f4 [5, 10]
0.37982607 0.10325513 0.7477777 0.62205267 0.29197472 0.19611108 0.3804012 -0.7233186
0.13479693 0.4433691 -0.10825672 -0.83357435 -0.594893 -0.32971135 -0.2681838 0.45546904
0.8291262 0.47565457 -0.31138292 0.27208877 0.5341122 -0.42843375 0.7426072 0.87064147
-0.09475775 -0.2778357 0.7989822 0.6735452 -0.30301926 0.9335301 -0.302491 -0.37509367
-0.35009924 0.7393048 0.53716373 -0.04415269 -0.87257284 0.0041411645 -0.89500856 -0.6553248
0.36566088 0.61877894 0.66624737 -0.35959628 -0.55151516 -0.32177874 0.12819211 -0.22459471
-0.015211546 -0.7867052
00000000: 9078 c23e 6d77 d33d 5c6e 3f3f d83e 1f3f
00000010: b67d 953e 58d1 483e f2c3 c23e 682b 39bf
00000020: 3508 0a3e 4601 e33e b3b5 ddbd 2165 55bf
00000030: e84a 18bf edcf a8be 634f 89be 3d33 e93e
00000040: 9d41 543f ff88 f33e 956d 9fbe 384f 8b3e
00000050: 94bb 083f ab5b dbbe 811b 3e3f 5ce2 5e3f
00000060: 5a10 c2bd 7b40 8ebe 198a 4c3f 756d 2c3f
00000070: 5725 9bbe d4fb 6e3f 1ae0 9abe 470c c0be
00000080: 3540 b3be 1443 3d3f 9083 093f 73d9 34bd
00000090: ef60 5fbf 9bb2 873b 481f 65bf 5ec3 27bf
000000a0: e737 bb3e 4c68 1e3f 308f 2a3f 011d b8be
000000b0: 1930 0dbf 2fc0 a4be cb44 033e 28fc 65be
000000c0: d939 79bc 8365 49bf

gat_layer_2.attention_1.a f4 [20, 1]
-0.643872 0.54050684 -0.18182999 0.115256876 -0.7074584 -0.5370353 0.6171419 0.3038127
0.23190019 -0.12994239 0.06307126 -0.48121986 0.19948427 0.1810586 0.4370888 -0.36282265
0.103307 -0.2832502 -0.40539214 -0.7334846
00000000: ccd4 24bf a85e 0a3f a431 3abe cc0b ec3d
00000010: fe1b 35bf 257b 09bf 03fd 1d3f 578d 9b3e
00000020: 3e77 6d3e 9e0f 05be 812b 813d 7362 f6be
00000030: 9b45 4c3e 6d67 393e 1aca df3e e4c3 b9be
00000040: 9f92 d33d 2c06 91be 8f8f cfbe a6c5 3bbf

gat_layer_2.attention_2.W f4 [5, 10]
0.26952124 -0.73010665 -0.1907785 0.6813985 0.050542086 -0.037981402 -0.075861946 0.07792013
0.04304402 0.62032723 0.31188172 -0.4950669 0.6744699 -0.73229295 0.17322965 0.168295
-0.5971956 -0.24308904 0.024933578 -0.726128 -0.30145216 0.62729317 -0.62712544 0.2740183
-0.56996834 0.11942773 0.21239549 0.21093759 -0.116130784 0.78962547 0.40135932 0.5385966
-0.15327975 0.25745037 -0.5526342 -0.13947368 -0.7420115 -0.58502525 0.2507223 -0.40980884
-0.22154982 -0.5154202 -0.45132202 0.525448 0.83567023 -0.36991093 -0.31014428 0.633292
0.19795923 0.889563
00000000: b0fe 893e 45e8 3abf 705b 43be 2270 2e3f
00000010: 3805 4f3d 6392 1bbd 825d 9bbd 9794 9f3d
00000020: ed4e 303d c4cd 1e3f f6ae 9f3e 6979 fdbe
00000030: 0faa 2c3f 8d77 3bbf 1d63 313e 8655 2c3e
00000040: d0e1 18bf 55ec 78be 8141 cc3c 86e3 39bf
00000050: f057 9abe 4996 203f 4b8b 20bf 204c 8c3e
00000060: 72e9 11bf 8796 f43d 347e 593e 0600 583e
00000070: fad5 edbd e524 4a3f f87e cd3e 77e1 093f
00000080: 5ef5 1cbe 89d0 833e 6f79 0dbf 30d2 0ebe
00000090: 77f4 3dbf 37c4 15bf ac5e 803e 77d2 d1be
000000a0: f5dd 62be 94f2 03bf ae13 e7be c383 063f
000000b0: 7cee 553f f764 bdbe 3bcb 9ebe 6d1f 223f
000000c0: d3b5 4a3e 67ba 633f

gat_layer_2.attention_2.a f4 [20, 1]
-0.2780373 -0.7381107 0.23138317 0.6462255 -0.6049913 0.7674078 -0.6554918 -0.5526262
-0.13589118 -0.26379323 0.6191882 0.31550002 0.6136073 -0.22558793 0.13091584 0.22433554
-0.03307104 -0.029090095 -0.37966827 -0.4844247
00000000: e85a 8ebe d3f4 3cbf b6ef 6c3e 096f 253f
00000010: b6e0 1abf d674 443f 50ce 27bf e978 0dbf
00000020: 0f27 0bbe e80f 87be 1e83 1e3f 3889 a13e
00000030: 5e15 1d3f 8600 67be cd0e 063e 37b8 653e
00000040: 8075 07bd 5a4e eebc e163 c2be 8406 f8be

gat_layer_2.attention_3.W f4 [5, 10]
-0.8380747 0.6219527 -0.34515622 0.6938365 -0.43049335 0.88702846 0.017796839 0.67026573
0.1973655 0.3282547 0.86925036 0.6600145 0.12171936 0.7355998 0.13061088 -0.3637025
-0.75654036 0.75951326 -0.5098011 0.4877937 0.78570086 0.28920904 -0.27306432 -0.55537945
0.7015303 0.5284268 0.085309125 -0.47925353 -0.72076494 0.3832861 0.009444193 -0.98273635
0.84440506 0.17572802 0.42632478 -0.7625316 -0.098282605 0.26438957 0.1983199 -0.20146567
0.7535491 -0.9801571 0.27060294 0.68979424 0.14892468 -0.568663 -0.7365779 0.14120208
0.38040686 0.47367364
00000000: 108c 56bf 4b38 1f3f 51b8 b0be 459f 313f
00000010: a069 dcbe 4c14 633f adca 913c 8996 2b3f
00000020: 2e1a 4a3e 0011 a83e 3187 5e3f b6f6 283f
00000030: 0048 f93d 4550 3c3f dcbe 053e 3737 babe
00000040: a1ac 41bf 766f 423f 5382 02bf 19c0 f93e
00000050: b123 493f 3513 943e 16cf 8bbe 592d 0ebf
00000060: 7d97 333f fb46 073f 8db6 ae3d b860 f5be
00000070: 0d84 38bf 133e c43e d1bb 1a3c 9c94 7bbf
00000080: ee2a 583f 0cf2 333e 3e47 da3e 4535 43bf
00000090: 6448 c9bd 125e 873e 5f14 4b3e 044d 4ebe
000000a0: 98e8 403f 93eb 7abf 788c 8a3e 5b96 303f
000000b0: b67f 183e e693 11bf 5f90 3cbf 4797 103e
000000c0: b0c4 c23e 5a85 f23e

gat_layer_2.attention_3.a f4 [20, 1]
0.6164777 -0.39523545 -0.7386943 0.5703067 -0.2444579 0.049480334 0.4186043 -0.5986315
-0.17113842 0.08617217 0.341565 0.6051359 -0.12707162 0.31647065 -0.15916526 -0.22978462
-0.38383883 0.28701192 -0.50340295 -0.2951287
00000000: 7cd1 1d3f 4d5c cabe 121b 3dbf 9fff 113f
00000010: 2c53 7abe e4ab 4a3d 4e53 d63e ea3f 19bf
00000020: e93e 2fbe 097b b03d 9ce1 ae3e 30ea 1a3f
00000030: 101f 02be 7108 a23e 38fc 22be a94c 6bbe
00000040: 8686 c4be 3af3 923e 04df 00bf 1c1b 97be

gat_layer_2.attention_4.W f4 [5, 10]
-0.16005652 0.539551 -0.66743535 -0.1416249 -0.26014346 0.34575453 -0.62401736 -0.34474087
0.11629074 0.3011558 0.511746 0.23431925 0.27543586 0.6521406 0.8355253 0.49479103
-0.11984103 -0.2904294 -0.37635082 -0.17148554 -0.6220535 -0.82642937 -0.6899656 0.8226096
-0.1887858 -0.67256325 -0.7327379 -0.17081061 0.17077096 -0.6251044 0.27710465 0.70443803
0.27885818 -0.541471 -0.562767 -0.3611135 0.76796657 0.14660655 0.26708844 -0.72654086
-0.103002764 -0.45883915 0.34689653 0.6410811 0.038079757 -0.64310235 -0.058821134 0.9130611
-0.20792998 -0.76629055
00000000: dbe5 23be 0420 0a3f 0bdd 2abf 1e06 11be
00000010: 8631 85be bd06 b13e 9abf 1fbf e081 b0be
00000020: d729 ee3d 1831 9a3e c901 033f 63f1 6f3e
00000030: ee05 8d3e b0f2 263f fce4 553f 4055 fd3e
00000040: 376f f5bd 2ab3 94be 0eb1 c0be e899 2fbe
00000050: e63e 1fbf e090 53bf 96a1 30bf 8b96 523f
00000060: 1151 41be 1b2d 2cbf b694 3bbf fae8 2ebe
00000070: 95de 2e3e d806 20bf a9e0 8d3e 0d56 343f
00000080: 80c6 8e3e d89d 0abf 8011 10bf dee3 b8be
00000090: 7599 443f 0720 163e d1bf 883e 95fe 39bf
000000a0: 1df3 d2bd f7ec eabe 6c9c b13e e41d 243f
000000b0: 85f9 1b3d 5ba2 24bf 6eee 70bd 5fbe 693f
000000c0: 99eb 54be 9e2b 44bf

gat_layer_2.attention_4.a f4 [20, 1]
-0.06607457 0.21051665 0.7363354 -0.5492265 -0.67785215 -0.49824467 -0.6159342 0.35716543
-0.19341294 -0.048172694 -0.32289463 0.56182486 -0.42778486 -0.70112944 0.29956803 0.58375597
-0.2889981 -0.60925484 0.6106167 -0.03597006
00000000: 1b52 87bd ad91 573e 7a80 3c3f 1c9a 0cbf
00000010: b887 2dbf ed19 ffbe ddad 1dbf 63de b63e
00000020: 0b0e 46be bb50 45bd 7252 a5be c1d3 0f3f
00000030: 9e06 dbbe 387d 33bf fb60 993e 0871 153f
00000040: 8ff7 93be 20f8 1bbf 6051 1c3f 5755 13bd

gat_layer_2.out_att.W f4 [50, 5]
0.4487016 -0.20443478 -0.16033511 -0.1516278 -0.34386796 0.1911933 -0.062708534 0.28856272
0.3458851 0.14176969 -0.11734577 0.30958134 -0.30044663 -0.3264249 -0.32484546 0.011180838
-0.2182804 -0.07717375 -0.26971558 -0.30847985 0.1764628 -0.09353967 0.08652454 -0.07629983
0.05754836 -0.25261173 -0.18768622 0.31882384 0.015062146 -0.14423165 -0.15028726 0.36444074
0.3365515 0.2580228 0.18606162 -0.15934733 -0.29398596 -0.2257178 0.08487254 0.2574295
-0.11263139 -0.36386913 -0.036608342 -0.38841748 0.052971892 0.1528274 0.38088882 -0.113603376
0.42289296 0.40703607 -0.0070218113 -0.14794113 -0.17910409 -0.33511677 -0.2602581 -0.1957274
0.001115782 -0.027979622 -0.2482678 0.3071397 0.112161934 -0.21757536 -0.41883048 0.33754364
-0.2980746 -0.39174938 0.4072734 0.33665904 -0.088882886 0.16347302 -0.27274296 0.40119088
-0.016603155 -0.20336 -0.100339666 -0.4107758 0.039015308 0.16154675 -0.24102113 -0.12703812
-0.32608807 0.108264945 -0.07787564 0.24445298 -0.018454218 -0.07050108 -0.093724094 -0.41780612
-0.06247296 -0.3072199 -0.06310837 -0.32129878 -0.11814752 -0.22768612 -0.4995754 0.13292435
0.19047552 0.27114737 0.07289695 0.14739096 -0.38766405 -0.33552802 -0.06036608 -0.1416085
-0.23979487 -0.37644428 -0.14238727 -0.41786295 0.2104663 -0.4223205 -0.4609085 -0.19515507
-0.08515791 0.2885781 0.3099333 0.12570696 0.21071364 0.22754198 0.18660985 -0.15037912
-0.4102583 -0.33514982 0.14912626 0.2905066 0.25612718 0.0107353665 0.31295145 -0.36497864
0.3034306 -0.37775904 -0.16205235 0.19379133 0.380611 -0.3556852 0.026230088 -0.25178555
-0.19898854 -0.24301872 0.023743419 -0.2506362 -0.08792226 -0.2575123 0.009187491 -0.3762095
-0.030377807 -0.4361624 0.44927412 -0.1915375 0.28437075 -0.432669 0.3217855 -0.47663057
0.17623286 -0.004449997 0.25182405 -0.18149976 -0.22186373 -0.15070756 -0.0589503 -0.14049679
0.110845834 -0.22946985 -0.025911575 -0.15227799 0.32744834 -0.21936685 0.38730744 0.39436352
0.013431176 0.34552008 0.22434016 -0.07925337 0.20293638 0.40559435 0.3529888 0.13979639
-0.24973603 -0.15435784 0.34090066 0.017252445 0.212613 -0.04830556 -0.3335558 -0.28797546
0.14348352 -0.2948511 0.41672695 -0.45770654 0.12155836 -0.22421496 -0.37171382 -0.033062536
-0.018311491 0.390135 -0.065773785 0.11038427 0.23510692 -0.011292641 0.019151092 0.5238095
-0.44066918 0.18794423 0.3169615 0.023961334 0.22250022 0.18683033 0.1653073 -0.053355902
-0.38691613 0.38949817 -0.10569057 -0.2870072 0.094012916 0.31798726 -0.121288165 0.17231748
0.22237203 -0.24837913 0.015412496 0.32540894 -0.39561856 0.40494096 0.31656948 -0.45179957
-0.14597154 0.36828646 0.38829502 -0.2999947 0.24840519 0.4080255 -0.43648604 -0.0025967064
0.07085363 -0.35093483 0.04247815 -0.2979979 -0.31823927 0.30553713 0.21211378 0.10413606
-0.3010578 -0.002588186 0.41330037 -0.10129724 -0.4832587 0.08610776 -0.21533659 -0.25151005
-0.007220759 -0.33748564
00000000: 37bc e53e 5a57 51be e32e 24be 5144 1bbe
00000010: 760f b0be 2dc8 433e 556d 80bd 7ebe 933e
00000020: da17 b13e 132c 113e fb52 f0bd 7281 9e3e
00000030: 24d4 99be 2a21 a7be 2552 a6be d52f 373c
00000040: e684 5fbe 450d 9ebd 2918 8abe 12f1 9dbe
00000050: aab2 343e ba91 bfbd c733 b13d 1643 9cbd
00000060: d4b7 6b3d 5356 81be d130 40be e13c a33e
00000070: 38c7 763c 76b1 13be e7e4 19be fa97 ba3e
00000080: 7a50 ac3e 901b 843e f086 3e3e f22b 23be
00000090: 5485 96be 9122 67be a7d1 ad3d cdcd 833e
000000a0: 49ab e6bd 0e4d babe a1f2 15bd a8de c6be
000000b0: 0ef9 583d c97e 1c3e dc03 c33e e3a8 e8bd
000000c0: 6d85 d83e 0867 d03e 3917 e6bb e17d 17be
000000d0: 1067 37be 6d94 abbe 8d40 85be c36c 48be
000000e0: 6e3f 923a 8535 e5bc ea39 7ebe 6a41 9d3e
000000f0: 28b5 e53d 13cc 5ebe f370 d6be 85d2 ac3e
00000100: 3c9d 98be 6093 c8be 2486 d03e 935e ac3e
00000110: 3b08 b6bd 7965 273e f7a4 8bbe e468 cd3e
00000120: 5703 88bc 9b3d 50be e27e cdbd 3551 d2be
00000130: 84ce 1f3d 836c 253e 3ece 76be 4816 02be
00000140: 04f5 a6be 03ba dd3d 437d 9fbd e251 7a3e
00000150: 4d2d 97bc df62 90bd 6bf2 bfbd afea d5be
00000160: a6e3 7fbd ed4b 9dbe f63e 81bd 4681 a4be
00000170: 54f7 f1bd 8d26 69be 59c8 ffbe 521d 083e
00000180: 040c 433e d4d3 8a3e ff4a 953d a8ed 163e
00000190: e77b c6be 54ca abbe 6c42 77bd d201 11be
000001a0: c98c 75be 4ebd c0be f8cd 11be 22f2 d5be
000001b0: 7a84 573e 643a d8be 33fc ebbe bbd6 47be
000001c0: 4567 aebd 82c0 933e 94af 9e3e 53b9 003e
000001d0: 51c5 573e c400 693e a716 3f3e fcfc 19be
000001e0: 600d d2be c298 abbe 8eb4 183e 48bd 943e
000001f0: 1a23 833e 64e3 2f3c 2c3b a03e 7bde babe
00000200: 415b 9b3e a269 c1be 0df1 25be 3c71 463e
00000210: 72df c23e 5f1c b6be 7be0 d63c 09ea 80be
00000220: a7c3 4bbe e6d9 78be 8f81 c23c 6353 80be
00000230: 9610 b4bd a7d8 83be 2187 163c 889e c0be
00000240: e1da f8bc ae50 dfbe 4207 e63e 6822 44be
00000250: 0b99 913e cb86 ddbe 12c1 a43e ec08 f4be
00000260: 6376 343e 48d1 91bb 15ef 803e 13db 39be
00000270: 3f30 63be 1553 1abe df75 71bd 64de 0fbe
00000280: 2403 e33d 25fa 6abe 8344 d4bc c3ee 1bbe
00000290: 4fa7 a73e b4a1 60be 294d c63e 04ea c93e
000002a0: 6f0e 5c3c 02e8 b03e 6db9 653e 974f a2bd
000002b0: 8ece 4f3e 10aa cf3e f3ba b43e c926 0f3e
000002c0: cdba 7fbe fb0f 1ebe 888a ae3e 0055 8d3c
000002d0: 39b7 593e 0ddc 45bd d3c7 aabe 8571 93be
000002e0: 58ed 123e b9f6 96be 3c5d d53e 8358 eabe
000002f0: 97f3 f83d 9b98 65be 4651 bebe 956c 07bd
00000300: fb01 96bc c6bf c73e 68b4 86bd 2611 e23d
00000310: debf 703e c504 39bc c0e2 9c3c 6118 063f
00000320: 649f e1be 7474 403e c748 a23e 8f4a c43c
00000330: 19d7 633e 7350 3f3e 5146 293e b88b 5abd
00000340: df19 c6be 4e6c c73e 4c74 d8bd 9cf2 92be
00000350: d889 c03d 3acf a23e ee65 f8bd fe73 303e
00000360: 7eb5 633e 1957 7ebe b284 7c3c 009c a63e
00000370: 848e cabe 6c54 cf3e 6515 a23e 4652 e7be
00000380: 9079 15be 0b90 bc3e 9bce c63e e898 99be
00000390: ee5d 7e3e b8e8 d03e 197b dfbe 812d 2abb
000003a0: b51b 913d bbad b3be 92fd 2d3d 2e93 98be
000003b0: 42f0 a2be 5d6f 9c3e 5b34 593e 4945 d53d
000003c0: 3f24 9abe 8e9e 29bb 1b9c d33e ed74 cfbd
000003d0: af6d f7be 4459 b03d 3281 5cbe edc5 80be
000003e0: 1e9c ecbb ebca acbe

gat_layer_2.out_att.a f4 [10, 1]
0.103591256 0.87308013 -0.12236306 0.74570227 0.43755934 0.33866778 0.063124985 1.0216993
-0.36806464 -0.63343513
00000000: a727 d43d 2e82 5f3f 7c99 fabd 58e6 3e3f
00000010: c707 e03e dd65 ad3e ac47 813d 0bc7 823f
00000020: f872 bcbe ce28 22bf
