tests/gat/encoder-checkpoint6.pt (torch, 20170 bytes, 36 tensors)

gat_layer_0.attention_0.W f4 [5, 10]
-0.45970255 -0.8120658 0.4065289 -0.32575116 -0.107811995 0.33154017 0.8070905 -0.13231318
0.5057545 -0.47861904 -0.2133038 0.15097857 0.2803338 -0.8502753 -0.19988976 0.10798988
-0.6578036 -0.14279328 -0.39795652 0.069855824 0.12929933 0.4153923 0.37762326 0.47126156
-0.067962885 -0.37551105 0.41156492 0.75951636 0.024407456 -0.11438476 -0.47149482 0.43199906
0.040871404 -0.5215455 -0.2579425 0.38652888 -0.89793694 0.3217735 0.7798651 -0.84921104
0.6481035 -0.7656759 0.24989396 0.29606754 -0.15178667 0.8125953 -0.03612075 0.74953437
0.4465038 -0.36843568
00000000: 225e ebbe 8be3 4fbf 8e24 d03e dbc8 a6be
00000010: 89cc dcbd a2bf a93e 7c9d 4e3f 1b7d 07be
00000020: 2079 013f 8e0d f5be 506c 5abe 209a 1a3e
00000030: e987 8f3e a4ab 59bf e7af 4cbe cc29 dd3d
00000040: d165 28bf 6738 12be f5c0 cbbe 9210 8f3d
00000050: 0b67 043e 4dae d43e d657 c13e 3249 f13e
00000060: 2030 8bbd fc42 c0be a3b8 d23e aa6f 423f
00000070: 25f2 c73c 8f42 eabd c567 f1be fb2e dd3e
00000080: c668 273d 0284 05bf 0a11 84be 1de7 c53e
00000090: 32df 65bf 7fbf a43e 3da5 473f e565 59bf
000000a0: 1cea 253f 5603 44bf 34e4 7f3e 2a96 973e
000000b0: f76d 1bbe 3f06 503f 5af3 13bd 7ce1 3f3f
000000c0: 259c e43e 9aa3 bcbe

gat_layer_0.attention_0.a f4 [20, 1]
-0.12035519 -0.22904125 0.18622445 0.7460994 -0.33384684 -0.049896333 0.6300967 -0.4906214
-0.07862096 0.6376578 -0.50801927 -0.7635645 0.4931214 -0.13445716 -0.14740501 -0.32655498
0.3223977 0.16722967 0.07946866 0.025698023
00000000: c87c f6bd ca89 6abe 9fb1 3e3e 5f00 3f3f
00000010: f9ed aabe 1960 4cbd 044e 213f ba32 fbbe
00000020: 0704 a1bd 8b3d 233f 8d0d 02bf f778 43bf
00000030: 687a fc3e 23af 09be 57f1 16be 3732 a7be
00000040: 5011 a53e 413e 2b3e 77c0 a23d a984 d23c

gat_layer_0.attention_1.W f4 [5, 10]
-0.8233799 -0.022051437 -0.05126647 -0.010896548 -0.0854755 -0.22277938 -0.84366107 0.73809946
-0.7598728 -0.71492505 0.36382285 -0.8435786 -0.6976514 0.70522106 0.8675519 -0.3857893
0.7437158 -0.29778713 -0.049748324 0.15955515 0.039550677 0.5364683 -0.5439868 -0.2959669
-0.19123766 -0.43916142 0.7669594 0.11151362 -0.72592455 -0.44466996 0.5201889 0.11838113
0.36432716 0.381318 0.05269309 0.7688175 -0.38963768 0.88084406 -0.40289277 -0.050106015
-0.6014714 -0.3301094 0.82583636 -0.6754556 0.5883504 0.65053654 -0.545486 -0.51442796
-0.78160185 -0.64184374
00000000: 06c9 52bf 37a5 b4bc cafc 51bd 6f87 32bc
00000010: c70d afbd 4720 64be 2cfa 57bf 16f4 3c3f
00000020: 0687 42bf 5405 37bf fd46 ba3e c4f4 57bf
00000030: 4899 32bf 5e89 343f e217 5e3f 2d86 c5be
00000040: 2964 3e3f 8e77 98be e6c4 4bbd 6d62 233e
00000050: e4ff 213d fd55 093f b842 0bbf f988 97be
00000060: ced3 43be c4d9 e0be 7457 443f 4161 e43d
00000070: 31d6 39bf c8ab e3be 1a2b 053f ce71 f23d
00000080: 1789 ba3e 1d3c c33e b6d4 573d 39d1 443f
00000090: 977e c7be ff7e 613f f647 cebe f73b 4dbd
000000a0: 08fa 19bf 1904 a9be 036a 533f a8ea 2cbf
000000b0: 229e 163f 9089 263f f8a4 0bbf 8db1 03bf
000000c0: 0f17 48bf df4f 24bf

gat_layer_0.attention_1.a f4 [20, 1]
-0.3586369 0.08677449 0.2820584 -0.23311377 0.23189291 -0.38523662 -0.5332025 -0.49388862
-0.09323247 -0.25849843 0.5443262 0.17471159 -0.29742846 -0.31680647 0.18439716 0.13410045
-0.40111518 -0.47436327 0.6896 0.03104207
00000000: 419f b7be d3b6 b13d f569 903e 60b5 6ebe
00000010: 5675 6d3e bc3d c5be f67f 08bf f8de fcbe
00000020: aaf0 bebd e859 84be f658 0b3f 98e7 323e
00000030: 8b48 98be 7534 a2be 9cd2 3c3e a151 093e
00000040: f85e cdbe bedf f2be a089 303f f04b fe3c

gat_layer_0.attention_2.W f4 [5, 10]
0.82328546 -0.45593846 -0.13285007 0.7796131 0.68278944 0.07935026 -0.60009915 -0.5376156
-0.61905855 -0.5364662 0.26166528 -0.8765785 -0.8358802 0.16967973 -0.22351442 -0.3625781
-0.8687782 0.28795 -0.08094776 -0.3928457 -0.5302686 0.7034045 0.7223778 -0.35057038
0.46275753 0.18487558 -0.52796006 -0.46320522 0.87272924 0.63504 -0.87677324 0.29107472
0.63381755 0.24833496 -0.5855781 -0.22412181 -0.6904824 -0.32944226 -0.50318116 0.5504642
-0.07218932 -0.15868074 -0.6786823 0.18534043 0.039069 -0.31641346 -0.84564483 -0.84300286
-0.15175614 0.32395208
00000000: d6c2 523f c470 e9be d909 08be b994 473f
00000010: 4acb 2e3f 6482 a23d 19a0 19bf 2da1 09bf
00000020: 9f7a 1ebf d955 09bf fef8 853e 7367 60bf
00000030: 3ffc 55bf 86c0 2d3e f7e0 64be d6a3 b9be
00000040: 4068 5ebf 2f6e 933e f0c7 a5bd 1223 c9be
00000050: afbf 07bf 5112 343f c0ed 383f f67d b3be
00000060: 8eee ec3e 0650 3d3e 6428 07bf 3c29 edbe
00000070: 2f6b 5f3f fb91 223f 3674 60bf bf07 953e
00000080: de41 223f 854b 7e3e 72e8 15bf 3080 65be
00000090: 74c3 30bf a8ac a8be 7bd0 00bf 39eb 0c3f
000000a0: ffd7 93bd 347d 22be 20be 2dbf e2c9 3d3e
000000b0: d106 203d f200 a2be 2e7c 58bf 09cf 57bf
000000c0: f665 1bbe 0cdd a53e

gat_layer_0.attention_2.a f4 [20, 1]
-0.45637265 -0.2900649 -0.36458048 -0.6217095 -0.7268094 0.52445614 0.020716349 0.5328001
0.45631906 0.5628331 0.72477895 -0.68170136 -0.5045836 0.2348842 0.49832857 0.2576438
0.6527207 -0.28837618 -0.5095593 -0.4852913
00000000: ada9 e9be 6383 94be 4baa babe 5b28 1fbf
00000010: 2e10 3abf c242 063f 55b5 a93c 9665 083f
00000020: a7a2 e93e d415 103f 1d8b 393f fb83 2ebf
00000030: 642c 01bf 7c85 703e ec24 ff3e e3e9 833e
00000040: b418 273f 0ba6 93be 7a72 02bf 1a78 f8be

gat_layer_0.attention_3.W f4 [5, 10]
-0.34573528 -0.10405804 0.084932715 0.39033133 -0.29415753 -0.7996504 -0.6385571 0.8621792
-0.060706057 -0.515264 -0.6888742 0.15831216 0.12457532 0.14150234 -0.41668916 -0.56892383
-0.6468468 0.1775251 0.5668252 0.16083565 0.5836801 0.71641725 -0.25610983 0.11374493
0.34911984 -0.6595937 0.4256323 -0.6074587 -0.51091576 0.3561791 -0.11111763 -0.014584862
-0.5941344 0.48550907 0.6339921 -0.72587115 -0.47392642 -0.683695 0.62260693 0.1878173
0.68406117 0.32632586 -0.7547826 0.45133388 0.13552493 -0.35304776 -0.63078845 0.15800107
0.6867898 -0.6535303
00000000: 3704 b1be 621c d5bd 34f1 ad3d 82d9 c73e
00000010: d19b 96be e3b5 4cbf 7a78 23bf c7b7 5c3f
00000020: eaa6 78bd 57e8 03bf 0f5a 30bf 951c 223e
00000030: 5821 ff3d fde5 103e 4858 d5be fea4 11bf
00000040: c097 25bf 24c9 353e 751b 113f 1ab2 243e
00000050: 0f6c 153f 1f67 373f d420 83be 1af3 e83d
00000060: d6bf b23e 22db 28bf 7aec d93e 6a82 1bbf
00000070: 60cb 02bf 1b5d b63e a491 e3bd 58f5 6ebc
00000080: 3119 18bf a594 f83e 4e4d 223f b1d2 39bf
00000090: 7ca6 f2be a306 2fbf 2b63 1f3f 2e53 403e
000000a0: a21e 2f3f 2f14 a73e 6f39 41bf 3c15 e73e
000000b0: 0cc7 0a3e adc2 b4be 5a7b 21bf 08cb 213e
000000c0: 75d1 2f3f c34d 27bf

gat_layer_0.attention_3.a f4 [20, 1]
-0.32939968 0.040278796 0.4903953 0.7463441 0.65316355 0.6672521 -0.036877792 0.7451828
0.079621114 -0.5201357 -0.2549984 -0.5780911 -0.057926238 -0.6449117 -0.37274677 0.079861894
0.47336015 0.01811434 0.44340822 0.123315305
00000000: 13a7 a8be 61fb 243d 1815 fb3e 6810 3f3f
00000010: ba35 273f 09d1 2a3f 2b0d 17bd 4dc4 3e3f
00000020: 6510 a33d 9d27 05bf 268f 82be c7fd 13bf
00000030: 1044 6dbd ef18 25bf aad8 bebe a28e a33d
00000040: 435c f23e 8664 943c 6706 e33e bc8c fc3d

gat_layer_0.attention_4.W f4 [5, 10]
-0.30657563 -0.7461537 0.79118925 0.33846375 0.013038424 0.30014816 0.46424344 0.2415496
-0.3466661 -0.65698344 -0.12504554 -0.46082193 -0.8614603 -0.58470446 0.4071915 0.49389535
-0.65237695 -0.2776807 0.33719626 0.43374076 -0.68687326 0.5141114 -0.3151231 -0.4562833
-0.6720737 0.23025732 0.09334446 0.4811999 -0.15296927 0.65382075 -0.20396577 -0.25167575
-0.4635684 0.57928324 -0.8875644 0.19818982 -0.7267666 -0.47061193 -0.79142493 0.724745
-0.61925566 0.74749094 0.5780631 -0.068333164 -0.2492708 0.7995422 0.8083978 0.7973262
-0.82270324 0.16072477
00000000: 7bf7 9cbe ee03 3fbf 618b 4a3f 1f4b ad3e
00000010: 1d9f 553c 05ad 993e 51b1 ed3e c758 773e
00000020: 387e b1be 1130 28bf f00b 00be daf0 ebbe
00000030: aa88 5cbf 31af 15bf 677b d03e dadf fc3e
00000040: 2d02 27bf 2a2c 8ebe fda4 ac3e 4513 de3e
00000050: edd6 2fbf ce9c 033f d157 a1be f79d e9be
00000060: 060d 2cbf 93c8 6b3e 612b bf3d d55f f63e
00000070: faa3 1cbe cc60 273f 67dc 50be a5db 80be
00000080: d658 edbe e84b 143f 6c37 63bf 46f2 4a3e
00000090: 600d 3abf 0cf4 f0be d39a 4abf e388 393f
000000a0: 8a87 1ebf 915b 3f3f f1fb 133f 42f2 8bbd
000000b0: d840 7fbe ccae 4c3f 29f3 4e3f 921d 4c3f
000000c0: ae9c 52bf 0995 243e

gat_layer_0.attention_4.a f4 [20, 1]
0.02433662 -0.45177972 -0.46778736 -0.42727953 -0.2803739 0.5459142 0.42543572 0.16230498
-0.44842082 0.38757116 0.6538974 0.64141417 -0.23283796 0.5844729 0.38466132 0.5156589
0.41364095 0.488464 0.5582811 -0.56634444
00000000: 975d c73c ac4f e7be d381 efbe 62c4 dabe
00000010: 2b8d 8fbe 08c1 0b3f b6d2 d93e 4733 263e
00000020: 6a97 e5be ba6f c63e d265 273f b833 243f
00000030: 136d 6ebe 04a0 153f 54f2 c43e 3902 043f
00000040: bfc8 d33e f417 fa3e 83eb 0e3f f3fb 10bf

gat_layer_0.out_att.W f4 [50, 5]
-0.4072444 -0.27668077 0.024349617 -0.238889 -0.25104338 -0.4735284 0.06447464 -0.2786423
0.12819648 -0.17937541 0.29748133 -0.34439427 0.2008013 -0.00618318 0.26380682 -0.036276195
-0.18505386 0.102320224 0.33704636 -0.36388776 0.3872849 -0.04687804 0.1377608 0.23547481
0.43243203 -0.31201407 0.024882069 0.35986704 0.28736323 -0.21080264 0.40778565 0.23703036
-0.33224416 -0.3041965 0.18848331 -0.47721767 0.021216795 0.27115306 -0.27933532 0.023636365
0.18642427 -0.25673226 -0.048656043 0.08841868 0.022994852 -0.3628118 0.22851788 -0.13308299
-0.28830785 0.2553209 -0.30605793 0.24240583 -0.18938944 -0.26718426 -0.090853505 -0.18734212
0.20475166 -0.014411582 0.2279426 -0.31168053 -0.036316402 0.31868547 -0.3955673 0.38794845
0.31810224 0.10511429 0.20696518 -0.27396113 0.21765663 0.45501998 0.019970635 -0.4546724
0.26852834 -0.3368338 0.42698866 -0.07773041 -0.06975622 -0.049353745 0.3547854 -0.4369812
-0.21903671 0.25545537 -0.15927076 0.4499794 0.414986 0.06109974 -0.17473942 0.22091886
-0.027344475 0.1719073 -0.4405467 -0.043700498 -0.013841666 0.06937109 0.37890083 0.3073486
-0.28124723 -0.23787941 0.38422966 0.23336053 0.18673994 -0.42460164 -0.07096883 -0.05316109
0.3696467 0.30469686 0.31706512 -0.027003665 -0.20175949 -0.4106331 0.38959116 0.28813893
-0.25373152 -0.14585456 0.31280622 0.012283939 -0.14562815 -0.17960167 0.17644624 -0.21512878
0.14467704 -0.41297126 0.10046888 0.096251436 -0.07785533 0.07206751 0.14768904 -0.28467894
0.3057515 -0.23835038 -0.31393027 -0.25777203 0.3226183 -0.45619437 -0.32591245 0.3475975
-0.03400054 -0.41373345 0.44885483 -0.34231752 -0.23185667 -0.08992552 0.26696545 -0.40941563
0.3030838 0.4095092 -0.16579743 0.21840918 -0.32263437 -0.35061657 0.006273639 0.3699559
-0.07013041 -0.3902162 0.10529617 0.28884065 -0.15606537 -0.44121772 0.23828764 0.17855217
-0.38584197 0.20310374 -0.36841166 0.305663 0.41400617 -0.40895054 0.18628448 0.4218217
0.16328962 0.45639774 -0.19514258 -0.23172383 0.453331 0.34902373 -0.35946548 -0.1444835
0.40541315 0.010177076 0.3966658 0.13889128 0.21079637 0.35521793 0.28689802 -0.3671477
0.06219836 -0.34654495 0.20563032 0.2587346 0.118548036 -0.25783965 -0.32983592 0.2955071
0.06582711 -0.2898045 -0.380785 0.34888366 0.22160296 -0.3231969 0.15048346 0.033221144
-0.19730647 0.34568742 0.29871517 -0.09338429 -0.19271964 0.0054335827 0.32818553 0.085659854
0.297826 -0.23273286 0.11074455 0.2527841 0.041542053 -0.06441292 0.2141851 -0.0792224
-0.38550696 0.36737084 -0.14364919 0.2787919 0.4254167 0.41434243 0.036353756 -0.38641185
0.0822122 -0.20073915 -0.34119567 0.018009411 -0.13555966 0.15371656 -0.091868475 -0.08666561
-0.42275727 0.25369996 -0.4613663 -0.16112792 0.009749159 -0.096001744 0.36078504 -0.25621676
-0.21674496 -0.44454613 0.3912083 -0.2625888 0.32398626 0.03077763 -0.43906894 0.3800527
-0.4551269 -0.17965485
00000000: 5782 d0be 1aa9 8dbe d978 c73c 519f 74be
00000010: c288 80be 5072 f2be 480b 843d 34aa 8ebe
00000020: f045 033e 30ae 37be 794f 983e 7254 b0be
00000030: db9e 4d3e 469c cabb b011 873e 5996 14bd
00000040: c27e 3dbe 448d d13d 5791 ac3e 7f4f babe
00000050: 354a c63e 3003 40bd 2b11 0d3e 4f20 713e
00000060: bb67 dd3e 4fc0 9fbe 7bd5 cb3c 7e40 b83e
00000070: 4621 933e a6dc 57be 48c9 d03e 16b8 723e
00000080: e81b aabe a5bf 9bbe c501 413e e055 f4be
00000090: d8ce ad3c 93d4 8a3e 0a05 8fbe 0da1 c13c
000000a0: 01e6 3e3e 6972 83be 8f4b 47bd da14 b53d
000000b0: b35f bc3c 78c2 b9be 9700 6a3e e846 08be
000000c0: 169d 93be 6cb9 823e a0b3 9cbe 3c39 783e
000000d0: 4eef 41be 60cc 88be 6711 babd 9dd6 3fbe
000000e0: 6baa 513e 8e1e 6cbc c969 693e 9794 9fbe
000000f0: 82c0 14bd be2a a33e cc87 cabe 2ea1 c63e
00000100: 4cde a23e 2946 d73d aeee 533e a244 8cbe
00000110: 61e1 5e3e 61f8 e83e 7599 a33c d2ca e8be
00000120: 8c7c 893e 7b75 acbe 429e da3e 1f31 9fbd
00000130: 59dc 8ebd 2727 4abd 6fa6 b53e 00bc dfbe
00000140: 294b 60be 0ccb 823e e017 23be b363 e63e
00000150: 0c79 d43e b943 7a3d e4ee 32be 8e38 623e
00000160: 8501 e0bc 7808 303e 568f e1be 4bff 32bd
00000170: 28c8 62bc 6e12 8e3d 4aff c13e cc5c 9d3e
00000180: a3ff 8fbe a996 73be c0b9 c43e 10f6 6e3e
00000190: c138 3f3e 6365 d9be 1b58 91bd 71bf 59bd
000001a0: 5542 bd3e 3a01 9c3e 5c56 a23e ca36 ddbc
000001b0: 0a9a 4ebe 803e d2be 7e78 c73e f286 933e
000001c0: 19e9 81be e65a 15be 2328 a03e 9342 493c
000001d0: 8c1f 15be 80e9 37be 53ae 343e b84a 5cbe
000001e0: 3826 143e f870 d3be a1c2 cd3d 791f c53d
000001f0: 9e72 9fbd 2198 933d cc3b 173e 70c1 91be
00000200: 768b 9c3e 1f12 74be 78bb a0be b2fa 83be
00000210: 3a2e a53e 4f92 e9be ffdd a6be 4df8 b13e
00000220: 2644 0bbd dfd4 d3be 4dd0 e53e 3e44 afbe
00000230: d66b 6dbe df2a b8bd b2af 883e ed9e d1be
00000240: cd2d 9b3e 31ab d13e cdc6 29be a8a6 5f3e
00000250: 5530 a5be 0484 b3be 1993 cd3b dc6a bd3e
00000260: 88a0 8fbd 6bca c7be 85a5 d73d ece2 933e
00000270: 9acf 1fbe 4ae7 e1be ad01 743e 61d6 363e
00000280: 148d c5be 6dfa 4f3e 74a0 bcbe dc7f 9c3e
00000290: 9ef8 d33e f761 d1be 5cc1 3e3e 04f9 d73e
000002a0: 6535 273e f7ac e93e 75d3 47be 0349 6dbe
000002b0: 001b e83e 3db3 b23e dc0b b8be 7cf3 13be
000002c0: 5092 cf3e c0bd 263c c817 cb3e 8439 0e3e
000002d0: 01db 573e 20df b53e 4ce4 923e c9fa bbbe
000002e0: b5c3 7e3d 576e b1be c190 523e dd78 843e
000002f0: 50c9 f23d 8f03 84be 41e0 a8be b54c 973e
00000300: 5dd0 863d 4161 94be 40f6 c2be e1a0 b23e
00000310: e3eb 623e 107a a5be 5618 1a3e e512 083d
00000320: b50a 4abe f1fd b03e 32f1 983e 4340 bfbd
00000330: 4c58 45be 320c b23b ef07 a83e 6f6e af3d
00000340: a67c 983e 8651 6ebe 0ace e23d eb6c 813e
00000350: 0028 2a3d ecea 83bd 5753 5b3e 5b3f a2bd
00000360: 2b61 c5be 0818 bc3e c618 13be d0bd 8e3e
00000370: 38d0 d93e b124 d43e ade7 143d c6d7 c5be
00000380: df5e a83d 908e 4dbe 33b1 aebe 7988 933c
00000390: 27d0 0abe e067 1d3e 8a25 bcbd bd7d b1bd
000003a0: a473 d8be f6e4 813e 3438 ecbe b8fe 24be
000003b0: f0ba 1f3c 909c c4bd d1b8 b83e d82e 83be
000003c0: 64f2 5dbe 8d9b e3be 744c c83e 0a72 86be
000003d0: 87e1 a53e 5e21 fc3c a5cd e0be 4496 c23e
000003e0: 6506 e9be 71f7 37be

gat_layer_0.out_att.a f4 [10, 1]
0.14539386 0.98914033 -0.65727574 -0.4335439 -0.42872655 -0.76382035 0.39099172 -0.106718965
-1.0017437 -0.71510035
00000000: 21e2 143e 4d38 7d3f 3943 28bf 77f9 ddbe
00000010: 0c82 dbbe bb89 43bf 1130 c83e 798f dabd
00000020: 2339 80bf d110 37bf

gat_layer_1.attention_0.W f4 [5, 10]
0.013350846 -0.27860674 0.55588907 -0.82704866 0.46796042 -0.18247846 0.32351434 -0.030544005
-0.72813475 -0.5468561 0.7110743 -0.7909375 -0.43254775 -0.05651436 -0.8241991 -0.028432934
-0.710056 -0.7253348 -0.6373048 0.53647125 0.4532336 -0.6696019 0.7404995 -0.22430348
0.6730598 0.030745506 -0.4827343 0.8848839 0.124902 0.7829667 0.1163044 -0.78760993
0.3771782 -0.094707906 0.22142833 0.84880453 -0.5212943 -0.6692982 -0.22371855 -0.04339485
-0.22709878 0.755361 0.83568394 0.77441204 -0.83784777 -0.6219048 0.6177699 -0.33228877
0.52462286 0.4364578
00000000: 82bd 5a3c 8ba5 8ebe bf4e 0e3f 76b9 53bf
00000010: 8298 ef3e a2db 3abe aca3 a53e 6c37 fabc
00000020: 0a67 3abf c3fe 0bbf f708 363f e17a 4abf
00000030: e676 ddbe 9a7b 67bd b6fe 52bf 2fec e8bc
00000040: 3bc6 35bf 8baf 39bf 6826 23bf 2e56 093f
00000050: 3c0e e83e 086b 2bbf 6091 3d3f d0af 65be
00000060: a64d 2c3f 00de fb3c f328 f7be c087 623f
00000070: 9fcc ff3d 8170 483f 0031 ee3d cea0 49bf
00000080: 801d c13e 38f6 c1bd 1cbe 623e 414b 593f
00000090: 8b73 05bf 2057 2bbf 7a16 65be ccbe 31bd
000000a0: 958c 68be 575f 413f 62ef 553f de3f 463f
000000b0: 317d 56bf 2735 1fbf 2b26 1e3f c121 aabe
000000c0: af4d 063f 6677 df3e

gat_layer_1.attention_0.a f4 [20, 1]
0.18199675 -0.5175673 -0.2147743 -0.38982776 0.74882007 -0.73174304 -0.32179475 -0.72043
0.7268344 -0.65569323 0.73628795 -0.15903085 -0.2062837 -0.14011747 0.68317634 0.20800988
0.45490372 -0.21703765 -0.72002554 -0.18350072
00000000: 5b5d 3a3e 4a7f 04bf cbed 5bbe 8197 c7be
00000010: acb2 3f3f 8353 3bbf 48c2 a4be 1a6e 38bf
00000020: d211 3a3f 83db 27bf 5e7d 3c3f fcd8 22be
00000030: 093c 53be f47a 0fbe a5e4 2e3f 8b00 553e
00000040: 24e9 e83e 1e3f 5ebe 9853 38bf 9de7 3bbe

gat_layer_1.attention_1.W f4 [5, 10]
0.5312956 -0.01917106 0.50880736 0.49182922 -0.44724527 -0.2560142 0.03359438 0.049474996
-0.5790951 0.16863029 -0.87247396 0.09796186 -0.7088982 0.84569776 -0.23447542 -0.3268783
0.13370545 -0.7954906 0.45182756 0.41453943 0.520068 -0.64382917 -0.8347991 -0.3515572
-0.21440442 -0.18608113 0.58739877 -0.11266077 -0.55054873 -0.34390494 0.0956996 0.29265913
-0.7295375 0.40291122 -0.25548646 0.3431922 -0.13571893 -0.24266498 -0.2202654 0.18620057
-0.7205866 0.52815866 -0.4802082 -0.35641608 0.23882186 0.10753994 0.15434746 -0.8750779
-0.424802 -0.05943811
00000000: fd02 083f a00c 9dbc 3341 023f 0ad1 fb3e
00000010: 55fd e4be 4b14 83be 439a 093d 4ba6 4a3d
00000020: 943f 14bf 6bad 2c3e 745a 5fbf 3aa0 c83d
00000030: 5a7a 35bf a67f 583f 531a 70be 985c a7be
00000040: 15ea 083e 46a5 4bbf f155 e73e 833e d43e
00000050: 2d23 053f fdd1 24bf 65b5 55bf 4eff b3be
00000060: d58c 5bbe 0d8c 3ebe c45f 163f b1ba e6bd
00000070: c3f0 0cbf 4f14 b0be 27fe c33d 6bd7 953e
00000080: f8c2 3abf 614a ce3e 1fcf 82be e3b6 af3e
00000090: e7f9 0abe 2b7d 78be 418d 61be 5dab 3e3e
000000a0: 5d78 38bf 6835 073f d9dd f5be 2b7c b6be
000000b0: b88d 743e e63d dc3d 430d 1e3e 1b05 60bf
000000c0: a67f d9be 6075 73bd

gat_layer_1.attention_1.a f4 [20, 1]
-0.55627686 0.14176767 -0.15145364 -0.38368234 0.21606798 -0.13621283 0.0075723133 0.7454704
-0.40503383 -0.26751906 0.6106395 0.017148683 0.43743387 -0.6514852 -0.00024042322 -0.3861035
-0.33862543 0.70779234 -0.049475055 0.64563817
00000000: 2968 0ebf 8b2b 113e aa16 1bbe 0372 c4be
00000010: ed40 5d3e 607b 0bbe 2b21 f83b 26d7 3e3f
00000020: 9860 cfbe 42f8 88be df52 1c3f 657b 8c3c
00000030: 55f7 df3e bcc7 26bf 1e1a 7cb9 5caf c5be
00000040: 5060 adbe e131 353f 5ba6 4abd 8b48 253f

gat_layer_1.attention_2.W f4 [5, 10]
-0.10345184 -0.7772838 -0.34376633 -0.31379405 -0.86444706 -0.31033263 0.7462567 -0.19149849
0.32977748 -0.017716013 0.46002093 -0.8024338 0.015605695 0.6343747 0.8956056 -0.321649
-0.417334 -0.18238893 -0.5339907 0.0020131755 0.115259625 0.451134 -0.7076831 0.6054354
0.48036593 0.42067727 -0.7910139 0.23167035 0.052526888 0.21413252 0.112153955 -0.020820463
0.17820586 0.15543312 0.6519155 -0.21560547 -0.47715318 -0.19833252 0.011986104 0.3573985
0.21350075 -0.2858401 -0.6662172 0.806884 0.631307 -0.20607877 0.36421067 -0.0043617697
0.14014636 0.09507091
00000000: 8fde d3bd 12fc 46bf 2402 b0be 9da9 a0be
00000010: 674c 5dbf ebe3 9ebe ae0a 3f3f 2e18 44be
00000020: 98d8 a83e 2c21 91bc dd87 eb3e 4d6c 4dbf
00000030: 07af 7f3c 6166 223f 6946 653f 2daf a4be
00000040: cdac d5be 2ac4 3abe 9db3 08bf 7bef 033b
00000050: 3d0d ec3d 09fb e63e b82a 35bf d0fd 1a3f
00000060: 86f2 f53e 0363 d73e e37f 4abf fe3a 6d3e
00000070: 6f26 573d 8e45 5b3e f9b0 e53d ad8f aabc
00000080: 997b 363e dc29 1f3e efe3 263f aec7 5cbe
00000090: 6c4d f4be ae17 4bbe 5d61 443c f0fc b63e
000000a0: f19f 5a3e a259 92be 368d 2abf f38f 4e3f
000000b0: 569d 213f 5006 53be d279 ba3e 2ded 8ebb
000000c0: 8782 0f3e 8ab4 c23d

gat_layer_1.attention_2.a f4 [20, 1]
0.39326227 0.55877995 -0.30457944 0.592097 0.61751586 -0.70505035 -0.40350428 0.015018662
-0.6949891 0.26587415 0.6969205 0.043632314 -0.013427198 -0.29803312 -0.6805116 -0.47740722
0.3173177 -0.03708885 -0.15702502 -0.18837434
00000000: ac59 c93e 340c 0f3f d6f1 9bbe ab93 173f
00000010: 8515 1e3f 2e7e 34bf 1d98 cebe d610 763c
00000020: ceea 31bf a820 883e 6269 323f ccb7 323d
00000030: c0fd 5bbc cc97 98be 0236 2ebf b86e f4be
00000040: 7777 a23e 7aea 17bd 2bcb 20be 34e5 40be

gat_layer_1.attention_3.W f4 [5, 10]
0.5612746 -0.8858107 0.42754072 -0.8803718 0.7590884 -0.18277986 -0.6350137 -0.8021934
0.91046846 -0.07268344 0.08039297 -0.49139315 -0.12338897 0.690096 0.57389164 0.5155216
-0.3752188 0.2619007 0.70332664 0.6879529 0.67443514 0.4357701 -0.1499345 -0.7191703
-0.64617616 0.7463711 0.65249246 0.077182315 -0.66563433 0.08209568 -0.30656666 -0.8438926
-0.3708352 -0.4032658 0.6975239 -0.29673183 0.22758226 -0.30194247 0.46073774 -0.6336209
-0.59525967 0.702035 -0.840285 -0.4745985 0.65039814 0.8408257 -0.060340133 -0.4009319
0.48845655 0.38405338
00000000: b1af 0f3f 7dc4 62bf 9ee6 da3e 0c60 61bf
00000010: 9e53 423f a52a 3bbe 4290 22bf 8c5c 4dbf
00000020: 7614 693f 0edb 94bd 12a5 a43d e297 fbbe
00000030: 5bb3 fcbd 22aa 303f 90ea 123f 39f9 033f
00000040: ae1c c0be d917 863e 370d 343f ae1d 303f
00000050: c8a7 2c3f 421d df3e 6e88 19be 8b1b 38bf
00000060: cd6b 25bf 2d12 3f3f bf09 273f c311 9e3d
00000070: 0367 2abf c821 a83d 4ef6 9cbe 5809 58bf
00000080: 1dde bdbe db78 cebe ed90 323f 3ced 97be
00000090: 530b 693e 3498 9abe d1e5 eb3e fb34 22bf
000000a0: f062 18bf 91b8 333f eb1c 57bf 93fe f2be
000000b0: 7e80 263f 5a40 573f 3727 77bd f246 cdbe
000000c0: fa16 fa3e a5a2 c43e

gat_layer_1.attention_3.a f4 [20, 1]
-0.5367291 -0.18890555 -0.45713913 -0.22537883 -0.26103064 0.5014486 0.013350445 0.40985823
0.13298832 -0.28040618 0.5330891 -0.1909265 -0.40052268 0.70980334 -0.3689164 -0.05934948
0.49248287 0.5991566 -0.35340655 0.43673533
00000000: 1467 09bf 7570 41be 240e eabe b5c9 66be
00000010: cfa5 85be ef5e 003f d3bb 5a3c f0d8 d13e
00000020: 172e 083e 6691 8fbe 8778 083f 3d82 43be
00000030: 4f11 cdbe acb5 353f 9ce2 bcbe 7118 73bd
00000040: b726 fc3e 5462 193f b4f1 b4be c69b df3e

gat_layer_1.attention_4.W f4 [5, 10]
0.832954 0.42832392 0.4500586 0.08665546 0.14232892 0.120693915 -0.54536456 0.6768109
-0.6195984 0.4304503 -0.37818384 -0.816649 0.4781164 0.67657256 0.8062395 0.6992402
-0.62112594 0.6860607 -0.8612794 0.5611779 -0.12606359 0.84388703 -0.81009054 -0.21348412
-0.79262376 -0.6149262 -0.84863806 0.15932256 -0.4975404 -0.66247034 -0.66110724 -0.6932759
0.5672603 -0.23223998 0.8011994 0.6132238 0.79508126 -0.28016582 0.07940531 -0.25548044
-0.46592936 -0.4535574 0.72698313 0.75842154 0.58006275 -0.76127553 -0.060272463 0.48707625
0.8042365 0.3173267
00000000: 793c 553f 464d db3e 156e e63e 6b78 b13d
00000010: acbe 113e 5f2e f73d 039d 0bbf 7b43 2d3f
00000020: 009e 1ebf fb63 dc3e 50a1 c1be e90f 51bf
00000030: accb f43e dc33 2d3f b665 4e3f 6801 333f
00000040: 1c02 1fbf ada1 2f3f cf7c 5cbf 5ba9 0f3f
00000050: d016 01be fb08 583f 1862 4fbf 959b 5abe
00000060: 64e9 4abf ce6b 1dbf 5840 59bf 7425 233e
00000070: 9ebd febe a897 29bf 533e 29bf 887a 31bf
00000080: f937 113f 51d0 6dbe 671b 4d3f 3cfc 1c3f
00000090: 728a 4b3f e571 8fbe 409f a23d 55ce 82be
000000a0: 4b8e eebe ad38 e8be 911b 3a3f ea27 423f
000000b0: fe7e 143f f4e2 42bf 42e0 76bd 0f62 f93e
000000c0: 71e2 4d3f a578 a23e

gat_layer_1.attention_4.a f4 [20, 1]
-0.75879776 -0.43077686 -0.3854023 0.06793174 0.43273962 0.340639 0.3508065 0.13650459
0.725649 0.4959071 0.07997947 0.13629964 -0.5839181 0.4022928 -0.66028 0.5813018
0.5469362 -0.23447706 -0.28399435 0.42074218
00000000: 9240 42bf c98e dcbe 7353 c5be cc1f 8b3d
00000010: 0c90 dd3e 3c68 ae3e e99c b33e dcc7 0b3e
00000020: 22c4 393f 89e7 fd3e 47cc a33d 2292 0b3e
00000030: a87b 15bf 52f9 cd3e 1c08 29bf 32d0 143f
00000040: 0304 0c3f c11a 70be b567 91be 856b d73e

gat_layer_1.out_att.W f4 [50, 5]
0.16652752 0.03594408 0.028582418 0.020178236 -0.03132839 0.39957812 0.4146767 -0.08000644
0.35699192 0.16558208 0.09723401 0.10197392 -0.39829442 0.19397393 0.21692908 0.10363966
0.0469823 0.07532133 -0.21060154 -0.44019583 -0.13775678 -0.13493012 -0.22746512 0.4458057
0.39993963 0.32400212 0.09534876 0.20845546 0.18836942 -0.26266152 -0.42023456 -0.39940596
0.25817785 0.109280065 -0.26474112 -0.39626673 -0.29383305 -0.13030696 0.06153528 0.01016762
0.44326416 0.14843237 -0.3033857 0.24168065 -0.2069424 0.09225025 0.45479244 0.25355417
0.05038539 0.42585856 -0.2754257 -0.015347565 -0.057995535 -0.37462705 -0.040463857 -0.37813866
-0.05071004 0.007966673 0.16168502 -0.36363804 0.3325122 -0.19242926 -0.24161652 0.31187567
-0.43827593 0.41148794 0.37655476 0.14206296 0.028794287 0.38953337 -0.01050972 -0.016369903
0.021687385 0.29245928 0.2885175 -0.44390216 -0.19502828 -0.17130476 -0.36726683 0.43687335
-0.16450578 0.11018283 0.08525631 -0.01689854 0.21579553 -0.03897386 -0.32663813 0.27562764
0.092635825 0.14817911 -0.0719684 0.14411077 -0.0007570375 0.15153903 0.0023028583 0.4290806
0.41814992 -0.15302359 -0.28022137 0.14735074 0.24913508 0.13668616 -0.37345597 0.047381967
-0.39707437 -0.0047375597 0.051907625 0.2788554 -0.030362561 -0.33428064 -0.38770667 0.3333253
0.36692342 0.42232186 -0.22720933 -0.44693246 0.1523484 0.14695546 0.21457016 -0.34113646
-0.26467794 0.24604727 0.34860924 0.46948612 -0.2746566 0.10262564 0.15249926 -0.11433361
-0.37048596 -0.4321122 -0.40908122 0.133315 0.002743442 0.28914526 0.17777914 0.24615897
0.1399111 -0.23727311 0.42892796 -0.43055764 0.11066383 -0.07678526 0.22977492 0.4002368
-0.13307056 -0.14420791 -0.17751937 -0.43612733 0.07991222 0.26279566 -0.40718585 -0.100095175
0.04356877 0.025875447 -0.45620456 0.32259429 0.23734038 -0.3350947 -0.30230546 -0.04412168
-0.2266946 -0.21775885 0.3347051 -0.42337367 0.19580357 -0.4096686 -0.34748152 0.29428715
-0.10519616 0.015801504 0.42951816 0.21766104 -0.13172366 0.37927735 -0.42015067 0.21221647
-0.10705112 -0.30799407 0.04702087 0.3425762 -0.10929406 0.021114599 0.117727436 -0.27946416
0.41887733 -0.40941364 0.32874146 0.17096491 -0.047889967 0.25936764 -0.21596597 -0.2322396
-0.11263178 -0.030957092 0.37409085 0.3773701 -0.54466575 -0.100050345 0.40837616 -0.34481454
-0.046120472 -0.035776757 0.19101961 0.11870223 0.42351156 -0.008578864 -0.27466702 0.06741102
-0.32845297 0.01894341 -0.3785715 -0.32411087 -0.39739808 -0.03245127 0.16761471 -0.3951957
0.32090697 -0.16942453 0.25296262 -0.10355135 -0.13415672 -0.107067354 0.32973894 0.31978637
0.25060263 -0.26496923 -0.3404674 -0.0017954462 -0.3208598 0.09992008 -0.40474322 0.100325316
-0.32215974 -0.32302183 -0.2884643 0.15937856 0.39674446 0.14323582 -0.41095448 0.1976998
0.10799882 0.13685262 -0.28178132 0.38115385 0.4111626 -0.3314369 -0.09641563 -0.44301492
0.2151637 -0.15507534
00000000: 3186 2a3e 1a3a 133d ad25 ea3c d44c a53c
00000010: 3352 00bd 8195 cc3e 8150 d43e 6bda a3bd
00000020: a5c7 b63e 598e 293e a022 c73d b4d7 d03d
00000030: 3fed cbbe 1aa1 463e a822 5e3e 0841 d43d
00000040: 8370 403d 1242 9a3d eea7 57be 5961 e1be
00000050: 1d10 0dbe 1f2b 0abe 9eec 68be a540 e43e
00000060: e3c4 cc3e 9be3 a53e 3646 c33d 5975 553e
00000070: eae3 403e 927b 86be fc28 d7be f07e ccbe
00000080: e32f 843e 3ace df3d 268c 87be 79e3 cabe
00000090: 4971 96be 306f 05be 6b0c 7c3d 1796 263c
000000a0: 85f3 e23e a8fe 173e 5f55 9bbe 227b 773e
000000b0: b5e8 53be b3ed bc3d 8eda e83e dad1 813e
000000c0: e960 4e3d 220a da3e 9904 8dbe 5a74 7bbc
000000d0: ba8c 6dbd 1ecf bfbe 6ebd 25bd 649b c1be
000000e0: 55b5 4fbd a686 023c c290 253e c42e babe
000000f0: 0a3f aa3e 2d0c 45be 526a 77be 2bae 9f3e
00000100: b465 e0be 8cae d23e c9cb c03e f478 113e
00000110: ffe1 eb3c eb70 c73e f630 2cbc 2d1a 86bc
00000120: bea9 b13c 39bd 953e 91b8 933e 2547 e3be
00000130: 7eb5 47be 846a 2fbe 660a bcbe ddad df3e
00000140: 3474 28be 89a7 e13d dc9a ae3d cf6e 8abc
00000150: 81f9 5c3e 0ea3 1fbd 1d3d a7be 111f 8d3e
00000160: dab7 bd3d 44bc 173e 2b64 93bd c691 133e
00000170: ed73 46ba 0c2d 1b3e 8deb 163b 74b0 db3e
00000180: bf17 d63e 37b2 1cbe 2d79 8fbe 1de3 163e
00000190: 441d 7f3e 75f7 0b3e 9f35 bfbe 9813 423d
000001a0: 554d cbbe 883d 9bbb 179d 543d 23c6 8e3e
000001b0: e8ba f8bc d526 abbe 7d81 c6be 9da9 aa3e
000001c0: 63dd bb3e 923a d83e 90a9 68be 55d4 e4be
000001d0: 3801 1c3e 7e7b 163e 48b8 5b3e 70a9 aebe
000001e0: de83 87be d1f3 7b3e e97c b23e 7c60 f03e
000001f0: ca9f 8cbe 642d d23d c428 1c3e bd27 eabd
00000200: 56b0 bdbe cf3d ddbe 1873 d1be ba83 083e
00000210: 52cb 333b d90a 943e bc0b 363e 1911 7c3e
00000220: db44 0f3e b9f7 72be 729c db3e 0d72 dcbe
00000230: b8a3 e23d 9741 9dbd 1e4a 6b3e d6eb cc3e
00000240: a643 08be 3dab 13be a3c7 35be 154c dfbe
00000250: 05a9 a33d 278d 863e aa7a d0be b3fe ccbd
00000260: 2b75 323d bff8 d33c a593 e9be 142b a53e
00000270: 5b09 733e 8891 abbe c8c7 9abe efb8 34bd
00000280: a122 68be 2dfc 5ebe 785e ab3e 6fc4 d8be
00000290: bb80 483e 15c0 d1be 19e9 b1be ceac 963e
000002a0: 1671 d7bd 2872 813c cee9 db3e 89e2 5e3e
000002b0: 91e2 06be a430 c23e fd1d d7be 464f 593e
000002c0: 9e3d dbbd 66b1 9dbe f598 403d 2666 af3e
000002d0: 90d5 dfbd 86f8 ac3c 151b f13d ed15 8fbe
000002e0: 1777 d63e aa9e d1be cd50 a83e 6d11 2f3e
000002f0: 4528 44bd d6cb 843e 2f26 5dbe 38d0 6dbe
00000300: 7eab e6bd ba99 fdbc d688 bf3e a736 c13e
00000310: 376f 0bbf 32e7 ccbd ae16 d13e 888b b0be
00000320: d2e8 3cbd a68a 12bd a59a 433e 281a f33d
00000330: 82d6 d83e 5d8e 0cbc 28a1 8cbe ca0e 8a3d
00000340: fd2a a8be 362f 9b3c 20d4 c1be dcf1 a5be
00000350: c377 cbbe 9feb 04bd 31a3 2b3e 1757 cabe
00000360: eb4d a43e a07d 2dbe 5184 813e bb12 d4bd
00000370: 6160 09be 2146 dbbd 8bd3 a83e 0abb a33e
00000380: fd4e 803e 0caa 87be be51 aebe 2d55 ebba
00000390: bc47 a4be e6a2 cc3d 813a cfbe 5c77 cd3d
000003a0: 1ff2 a4be 1e63 a5be 98b1 93be 2234 233e
000003b0: 1722 cb3e 69ac 123e a068 d2be d171 4a3e
000003c0: 7c2e dd3d 1823 0c3e a445 90be 9926 c33e
000003d0: e883 d23e 19b2 a9be 8f75 c5bd dad2 e2be
000003e0: df53 5c3e 12cc 1ebe

gat_layer_1.out_att.a f4 [10, 1]
0.59690094 -0.69726175 -0.36924177 -1.0518324 -0.30689776 -0.42880613 0.13454846 0.90464485
-0.596361 -0.24802873
00000000: 80ce 183f bf7f 32bf 420d bdbe 72a2 86bf
00000010: b421 9dbe 7a8c dbbe 12c7 093e ce96 673f
00000020: 1dab 18bf 3efb 7dbe

gat_layer_2.attention_0.W f4 [5, 10]
0.0059753056 -0.45723104 -0.09837237 0.016126504 -0.0014740966 -0.28148478 -0.39111042 -0.25004116
0.25071317 -0.63215977 0.76685214 0.66325426 0.53584784 -0.6144562 -0.14790475 0.3277515
0.048949458 -0.08190852 0.18437453 -0.581835 -0.17197996 0.6006771 -0.8855512 -0.51671094
0.24001135 0.5030599 0.45514253 -0.7503771 0.14133184 -0.11518801 0.22971189 0.49963012
0.6792914 0.6514935 -0.49970528 -0.78561556 -0.30128664 0.55913633 -0.79663247 0.1690083
-0.8729611 -0.2480064 -0.20697266 -0.0054290188 0.74604744 -0.49806476 -0.07555224 -0.7981759
-0.8357682 0.70188355
00000000: 7fcc c33b 301a eabe 7477 c9bd bb1b 843c
00000010: 7936 c1ba c61e 90be a03f c8be 6505 80be
00000020: 7a5d 803e 39d5 21bf 6c50 443f 08cb 293f
00000030: 532d 093f 004d 1dbf 5874 17be 0bcf a73e
00000040: 3a7f 483d a7bf a7bd adcc 3c3e 23f3 14bf
00000050: 841b 30be f9c5 193f 7cb3 62bf 2b47 04bf
00000060: 89c5 753e 89c8 003f 7108 e93e b718 40bf
00000070: 4bb9 103e b1e7 ebbd 9839 6b3e 85cf ff3e
00000080: 0be6 2d3f 47c8 263f 5fd9 ffbe 1a1e 49bf
00000090: 3e42 9abe 8f23 0f3f 1bf0 4bbf 8310 2d3e
000000a0: 617a 5fbf 64f5 7dbe a4f0 53be e9e5 b1bb
000000b0: f7fc 3e3f 5802 ffbe 22bb 9abd 4155 4cbf
000000c0: e8f4 55bf a4ae 333f

gat_layer_2.attention_0.a f4 [20, 1]
-0.40708584 0.6259542 -0.14436316 -0.7426043 -0.16595481 0.6869106 0.33719918 -0.09678585
-0.0121520385 -0.706839 -0.12451499 -0.25176203 -0.1481066 0.5416268 -0.0451714 0.72476965
-0.58667356 -0.36534956 0.45701724 -0.45310727
00000000: 8e6d d0be 893e 203f f0d3 13be 511b 3ebf
00000010: 0ff0 29be 60d9 2f3f 5fa5 ac3e a937 c6bd
00000020: 5819 47bc 67f3 34bf b701 ffbd f4e6 80be
00000030: 42a9 17be 0ea8 0a3f a505 39bd 818a 393f
00000040: 3d30 16bf 190f bbbe 2afe e93e adfd e7be

gat_layer_2.attention_1.W f4 [5, 10]
0.3797032 0.101941355 0.7477856 0.6217507 0.29189143 0.19618833 0.38050258 -0.72142065
0.13773195 0.44329047 -0.10682711 -0.8377638 -0.5929267 -0.33063647 -0.26796746 0.45545095
0.8291464 0.47728792 -0.30936292 0.27169368 0.5328804 -0.42990193 0.74166775 0.86860776
-0.09918435 -0.26856264 0.7858818 0.68052435 -0.29753286 0.94358844 -0.30130512 -0.37557217
-0.3490177 0.73843217 0.5375578 -0.044118863 -0.8724341 0.004478424 -0.89433837 -0.65577877
0.3668371 0.61839736 0.6671683 -0.36100054 -0.55155 -0.3219477 0.12824723 -0.22398646
-0.014279116 -0.7872217
00000000: 7568 c23e a1c6 d03d e16e 3f3f 0e2b 1f3f
00000010: cb72 953e 98e5 483e 3cd1 c23e 06af 38bf
00000020: 9b09 0d3e f8f6 e23e 2cc8 dabd b077 56bf
00000030: 0bca 17bf 2f49 a9be 0833 89be de30 e93e
00000040: f042 543f 155f f43e d164 9ebe 6f1b 8b3e
00000050: da6a 083f 1b1c dcbe f0dd 3d3f 145d 5e3f
00000060: 2a21 cbbd 0b81 89be 8d2f 493f d836 2e3f
00000070: 3a56 98be 038f 713f aa44 9abe ff4a c0be
00000080: 73b2 b2be e409 3d3f 639d 093f fbb5 34bd
00000090: d757 5fbf bebf 923b 5cf3 64bf 1ee1 27bf
000000a0: 13d2 bb3e 4a4f 1e3f 8bcb 2a3f 10d5 b8be
000000b0: 6132 0dbf 54d6 a4be 3e53 033e b55c 65be
000000c0: f4f2 69bc 5d87 49bf

gat_layer_2.attention_1.a f4 [20, 1]
-0.6452101 0.545889 -0.18287791 0.10563749 -0.7077759 -0.54023004 0.61542606 0.30537635
0.23910975 -0.13016354 0.06301876 -0.4811955 0.19943546 0.18030569 0.43668887 -0.36280385
0.10316575 -0.2832515 -0.40540951 -0.7358437
00000000: 7d2c 25bf 62bf 0b3f 5944 3bbe 7858 d83d
00000010: cd30 35bf 844c 0abf 908c 1d3f 4a5a 9c3e
00000020: 30d9 743e 9749 05be fb0f 813d 425f f6be
00000030: cf38 4c3e 0ea2 383e af95 df3e 6dc1 b9be
00000040: 9148 d33d 5706 91be d691 cfbe 4160 3cbf

gat_layer_2.attention_2.W f4 [5, 10]
0.3054881 -0.72721547 -0.19725028 0.68469435 0.04554111 -0.032228537 -0.07629061 0.07963762
0.04421554 0.62194335 0.3125975 -0.49432006 0.67394125 -0.73450625 0.17213233 0.16931707
-0.59740275 -0.24096581 0.024635442 -0.7262531 -0.23907249 0.6314975 -0.6451944 0.27962652
-0.58269197 0.1310655 0.21208404 0.21198207 -0.11143801 0.8012446 0.4061751 0.5426711
-0.1552807 0.24865481 -0.5551093 -0.13599044 -0.7451754 -0.5790734 0.24819489 -0.41003436
-0.21767949 -0.5080803 -0.45263895 0.52320755 0.8349305 -0.3640465 -0.3154639 0.6454816
0.19742794 0.8889625
00000000: f068 9c3e cb2a 3abf fafb 49be 2148 2f3f
00000010: 5189 3a3d 1202 04bd 403e 9cbd 0c19 a33d
00000020: 5b1b 353d ae37 1f3f c80c a03e 8517 fdbe
00000030: 6a87 2c3f 9a08 3cbf 7543 303e 7461 2d3e
00000040: 63ef 18bf bebf 76be 44d0 c93c b9eb 39bf
00000050: 6bcf 74be d2a9 213f 762b 25bf 352b 8f3e
00000060: 4d2b 15bf 0936 063e 8f2c 593e d411 593e
00000070: 9d39 e4bd 5e1e 4d3f 2ff6 cf3e 7eec 0a3f
00000080: e701 1fbe 5e9f 7e3e a51b 0ebf 1441 0bbe
00000090: d1c3 3ebf 283e 14bf cd26 7e3e 06f0 d1be
000000a0: 5fe7 5ebe 8d11 02bf 4bc0 e7be eef0 053f
000000b0: 01be 553f 4e64 babe 7c84 a1be 483e 253f
000000c0: 8d2a 4a3e 0c93 633f

gat_layer_2.attention_2.a f4 [20, 1]
-0.2770805 -0.7383872 0.23074546 0.6467011 -0.60493606 0.7666422 -0.65786445 -0.55245155
-0.13439922 -0.26329693 0.6198229 0.31502765 0.6154344 -0.22688617 0.13166055 0.2229549
-0.03371103 -0.02900132 -0.37871814 -0.4903375
00000000: 7fdd 8dbe f206 3dbf 8a48 6c3e 348e 253f
00000010: 17dd 1abf aa42 443f ce69 28bf 776d 0dbf
00000020: f39f 09be dbce 86be b7ac 1e3f 4e4b a13e
00000030: 1c8d 1d3f d954 68be 06d2 063e 4a4e 643e
00000040: 9414 0abd 2d94 edbc 58e7 c1be 840d fbbe

gat_layer_2.attention_3.W f4 [5, 10]
-0.8472891 0.6356135 -0.3493221 0.7037513 -0.43532428 0.8866865 0.014632794 0.67984325
0.19698086 0.32812974 0.8695883 0.6638063 0.12049464 0.7635882 0.12712587 -0.36440307
-0.7577268 0.7337129 -0.5103563 0.47993374 0.8038313 0.3027218 -0.2744177 -0.53261644
0.69995785 0.5254853 0.08340648 -0.47399506 -0.72576916 0.34501803 0.0049357456 -0.9731717
0.8430459 0.18339668 0.42274886 -0.7660129 -0.09860008 0.26084533 0.19816561 -0.22170609
0.7429869 -0.9674203 0.26592523 0.68843704 0.1451272 -0.5677965 -0.739392 0.14122021
0.3808281 0.4722391
00000000: f0e7 58bf 91b7 223f 59da b2be 0c29 343f
00000010: d3e2 debe e3fd 623f 63be 6f3c 350a 2e3f
00000020: 5ab5 493e 9f00 a83e 579d 5e3f 36ef 293f
00000030: e5c5 f63d 847a 433f 492d 023e 0a93 babe
00000040: 62fa 41bf 9cd4 3b3f b6a6 02bf e0b9 f53e
00000050: e3c7 4d3f 5afe 9a3e 7a80 8cbe 8d59 08bf
00000060: 7030 333f 3486 063f 04d1 aa3d 7baf f2be
00000070: 02cc 39bf 34a6 b03e 09bc a13b c821 79bf
00000080: dbd1 573f 57cc 3b3e 8a72 d83e 6c19 44bf
00000090: d7ee c9bd 858d 853e edeb 4a3e ec06 63be
000000a0: 6434 3e3f dba8 77bf 5a27 883e 693d 303f
000000b0: 3a9c 143e 1d5b 11bf cb48 3dbf 089c 103e
000000c0: e7fb c23e 53c9 f13e

gat_layer_2.attention_3.a f4 [20, 1]
0.60312796 -0.36950317 -0.7152244 0.5965125 -0.2752583 0.054712806 0.39541796 -0.571174
-0.18293531 0.107791975 0.36502388 0.61637294 -0.14368117 0.3101781 -0.130702 -0.20500198
-0.3826597 0.27895504 -0.52499825 -0.28081185
00000000: 9866 1a3f 852f bdbe f218 37bf 0bb5 183f
00000010: a8ee 8cbe 891a 603d 3974 ca3e 7638 12bf
00000020: 6553 3bbe 0ac2 dc3d 69e4 ba3e 9eca 1d3f
00000030: 2821 13be aacf 9e3e bfd6 05be 0aec 51be
00000040: f9eb c3be 32d3 8e3e 4966 06bf 92c6 8fbe

gat_layer_2.attention_4.W f4 [5, 10]
-0.16318108 0.534269 -0.6650952 -0.14049175 -0.25785276 0.34236512 -0.62479883 -0.34653604
0.11956777 0.3030007 0.50758153 0.22944771 0.27650732 0.65214753 0.8367646 0.4912137
-0.12009109 -0.29110143 -0.37446705 -0.16928941 -0.6303143 -0.8347806 -0.6782864 0.8216705
-0.18661276 -0.6779967 -0.7340346 -0.17201784 0.17667402 -0.6212102 0.26914734 0.7025961
0.2785619 -0.5415857 -0.5622472 -0.36275405 0.7681279 0.14507572 0.26929635 -0.72372484
-0.10988526 -0.46493775 0.34990945 0.6409482 0.039048843 -0.6463578 -0.061296582 0.9122386
-0.2078192 -0.7603196
00000000: f118 27be dac5 083f ae43 2abf 12dd 0fbe
00000010: 4705 84be 7b4a af3e d1f2 1fbf 2c6d b1be
00000020: f2df f43d e822 9b3e ddf0 013f 57f4 6a3e
00000030: 5e92 8d3e 24f3 263f 3436 563f 5d80 fb3e
00000040: 51f2 f5bd 3f0b 95be 25ba bfbe 345a 2dbe
00000050: 475c 21bf 2eb4 55bf 2da4 2dbf ff58 523f
00000060: 6a17 3fbe 3191 2dbf b1e9 3bbf 7225 30be
00000070: 09ea 343e a207 1fbf aecd 893e 57dd 333f
00000080: aa9f 8e3e 5ca5 0abf 6fef 0fbf e6ba b9be
00000090: 08a4 443f bb8e 143e 36e1 893e 0846 39bf
000000a0: 860b e1bd 520c eebe 5527 b33e 2e15 243f
000000b0: aef1 1f3d b477 25bf 2012 7bbd 7888 693f
000000c0: 8ece 54be 4ea4 42bf

gat_layer_2.attention_4.a f4 [20, 1]
-0.0659242 0.210041 0.7388597 -0.54983234 -0.677167 -0.49515164 -0.6148401 0.35625416
-0.19334814 -0.0472927 -0.32231006 0.562998 -0.4272689 -0.7009315 0.29969022 0.5838434
-0.28874174 -0.6094081 0.6104692 -0.0372777
00000000: 4403 87bd fd14 573e e925 3d3f d0c1 0cbf
00000010: d15a 2dbf 8484 fdbe 2966 1dbf f266 b63e
00000020: 0efd 45be fdb5 41bd d305 a5be a320 103f
00000030: fdc2 dabe 3f70 33bf ff70 993e c376 153f
00000040: f5d5 93be 2b02 1cbf b647 1c3f 80b0 18bd

gat_layer_2.out_att.W f4 [50, 5]
0.44898772 -0.20183735 -0.16021775 -0.15908553 -0.3394271 0.1907049 -0.057715964 0.28988296
0.32979423 0.13851924 -0.1174814 0.3145085 -0.3000793 -0.3321147 -0.31895107 0.010759598
-0.21603777 -0.077413216 -0.2697743 -0.3024963 0.17591538 -0.09481111 0.0858439 -0.07562096
0.058806945 -0.2525881 -0.18871108 0.32067657 0.010531163 -0.14120772 -0.15086706 0.3637149
0.33761027 0.25643432 0.18984391 -0.16038111 -0.2948131 -0.22666664 0.08250913 0.25942093
-0.113014035 -0.36256275 -0.035800703 -0.39440548 0.059938233 0.15247114 0.38062158 -0.114101276
0.4230232 0.40857533 -0.007167614 -0.15345296 -0.17637391 -0.33532172 -0.27230722 -0.19504051
0.0017680075 -0.02761327 -0.24952367 0.31252033 0.11498641 -0.2190462 -0.41444468 0.33772197
-0.30030537 -0.38569775 0.40942258 0.3539937 -0.09324385 0.1494872 -0.26652852 0.40510082
-0.009188545 -0.20303866 -0.09888271 -0.3895091 0.055097114 0.18521145 -0.24205595 -0.1332772
-0.3165643 0.113745876 -0.0689897 0.24559915 -0.02739859 -0.07070303 -0.09244582 -0.416906
-0.06464495 -0.30092087 -0.05623825 -0.32249373 -0.1128145 -0.22799711 -0.49498522 0.15832846
0.19443883 0.29129922 0.06936287 0.14399134 -0.3863169 -0.31852487 -0.053877205 -0.13806148
-0.21437427 -0.37841552 -0.14273103 -0.41827655 0.20948878 -0.41793624 -0.45698977 -0.18924849
-0.07801562 0.28522888 0.32085148 0.12452101 0.2102847 0.2316927 0.18660904 -0.15196213
-0.40553993 -0.33642 0.15350492 0.2883982 0.26430115 0.01492618 0.3175444 -0.35803708
0.29915094 -0.37002283 -0.1629063 0.19304635 0.38384303 -0.35583836 0.028374832 -0.2515313
-0.20139967 -0.24236998 0.025406808 -0.24988392 -0.09356575 -0.25870827 0.010687742 -0.37537214
-0.030828064 -0.4358126 0.44882733 -0.19209462 0.28472888 -0.43450448 0.32043055 -0.47725028
0.18591057 -0.006924966 0.2574863 -0.1757157 -0.20029573 -0.14962468 -0.06314726 -0.13621637
0.10921968 -0.2278281 -0.027498549 -0.15313536 0.33244908 -0.22171938 0.3863114 0.39914718
0.012876804 0.33856446 0.22079961 -0.07892244 0.20185767 0.4023983 0.36232302 0.14809744
-0.24665202 -0.15425932 0.34286162 0.016890183 0.21700943 -0.047311507 -0.3322598 -0.2895116
0.14655973 -0.2950321 0.41556558 -0.45770234 0.12098778 -0.22137676 -0.37361848 -0.032283396
-0.019242736 0.39034608 -0.060997285 0.100918815 0.23152798 -0.023048146 0.022426771 0.51300526
-0.44022202 0.19635947 0.31755516 0.02179699 0.22679047 0.18729788 0.17676897 -0.052961204
-0.38757306 0.39530662 -0.10460637 -0.2829332 0.094938375 0.31790647 -0.11660645 0.17122716
0.22052333 -0.23504308 0.014049699 0.32334727 -0.39342368 0.40672982 0.321131 -0.4522753
-0.14125732 0.37031803 0.40023705 -0.29884225 0.24805795 0.41271996 -0.4363293 0.00052658754
0.07151279 -0.35111535 0.047036614 -0.29903457 -0.31856528 0.30490026 0.21251805 0.107172705
-0.29446676 -0.0005375431 0.4198864 -0.10066918 -0.47980323 0.090517044 -0.21143177 -0.2506551
-0.005791713 -0.33400127
00000000: b8e1 e53e 73ae 4ebe 1f10 24be 51e7 22be
00000010: 64c9 adbe 2548 433e 9367 6cbd 8a6b 943e
00000020: cada a83e fdd7 0d3e 179a f0bd 4207 a13e
00000030: fea3 99be f00a aabe 8e4d a3be 0649 303c
00000040: 0139 5dbe d28a 9ebd db1f 8abe cce0 9abe
00000050: 2923 343e 542c c2bd edce af3d 29df 9abd
00000060: 8ddf 703d 3a53 81be 7a3d 41be b82f a43e
00000070: e68a 2c3c c298 10be e57c 1abe d738 ba3e
00000080: 41db ac3e 5c4b 833e 7166 423e f23a 24be
00000090: bef1 96be 4d1b 68be 8cfa a83d d2d2 843e
000000a0: e773 e7bd d3a1 b9be c2a3 12bd 84ef c9be
000000b0: cb81 753d 6521 1c3e d5e0 c23e eead e9bd
000000c0: 7f96 d83e c930 d13e 4ede eabb c622 1dbe
000000d0: 5d9b 34be 4aaf abbe da6b 8bbe b3b8 47be
000000e0: 7dbc e73a 3935 e2bc 2283 7fbe aa02 a03e
000000f0: ff7d eb3d a64d 60be 1832 d4be e5e9 ac3e
00000100: a0c1 99be 2d7a c5be d69f d13e aa3e b53e
00000110: a2f6 bebd 2c13 193e 6d76 88be 6069 cf3e
00000120: 8d8b 16bc 5ee9 4fbe 0583 cabd bd6d c7be
00000130: 83ad 613d 12a8 3d3e 84dd 77be d179 08be
00000140: b714 a2be 99f3 e83d 794a 8dbd 587e 7b3e
00000150: 0273 e0bc c0cc 90bd 3c54 bdbd b474 d5be
00000160: 9264 84bd 4d12 9abe 145a 66bd e61d a5be
00000170: 4a0b e7bd 1378 69be b46e fdbe db20 223e
00000180: f91a 473e 2c25 953e 1f0e 8e3d 7772 133e
00000190: 54cb c5be b115 a3be 58ae 5cbd fd5f 0dbe
000001a0: ee84 5bbe aebf c1be 1528 12be 5828 d6be
000001b0: 3a84 563e bdfb d5be 90fa e9be 5bca 41be
000001c0: a7c6 9fbd 8509 923e a546 a43e df04 ff3d
000001d0: df54 573e da40 6d3e 7116 3f3e f69b 1bbe
000001e0: eea2 cfbe 3e3f acbe 6530 1d3e eea8 933e
000001f0: 7b52 873e f08c 743c 2e95 a23e a350 b7be
00000200: 502a 993e a273 bdbe e9d0 26be f1ad 453e
00000210: 1387 c43e 7230 b6be 5672 e83c b6c8 80be
00000220: b73b 4ebe d62f 78be f021 d03c 92e1 7fbe
00000230: 669f bfbd 6975 84be a41b 2f3c c730 c0be
00000240: 238b fcbc d422 dfbe b2cc e53e 74b4 44be
00000250: fcc7 913e 5f77 debe 790f a43e 265a f4be
00000260: 575f 3e3e d3ea e2bb 3fd5 833e d1ee 33be
00000270: 531a 4dbe 3637 19be 5a53 81bd 4e7c 0bbe
00000280: 91ae df3d c54b 69be a344 e1bc 84cf 1cbe
00000290: c436 aa3e 680a 63be 9cca c53e 055d cc3e
000002a0: 3bf9 523c 5258 ad3e 4b19 623e 17a2 a1bd
000002b0: c7b3 4e3e 2607 ce3e 6782 b93e dba6 173e
000002c0: 5992 7cbe 28f6 1dbe 8f8b af3e 485d 8a3c
000002d0: b837 5e3e b6c9 41bd f51d aabe dd3a 94be
000002e0: c113 163e 730e 97be 03c5 d43e f657 eabe
000002f0: 71c8 f73d 97b0 62be ec4a bfbe 983b 04bd
00000300: f1a2 9dbc 71db c73e 4ad8 79bd 86ae ce3d
00000310: ac15 6d3e 77cf bcbc 59b8 b73c 5054 033f
00000320: c864 e1be 7512 493e 9796 a23e 9a8f b23c
00000330: c33b 683e 04cb 3f3e ed02 353e d9ed 58bd
00000340: fa6f c6be a165 ca3e dd3b d6bd 9fdc 90be
00000350: 0d6f c23d a3c4 a23e 5dcf eebd 2c56 2f3e
00000360: ded0 613e 22af 70be b530 663c c68d a53e
00000370: d46e c9be e43e d03e 486b a43e a190 e7be
00000380: c2a5 10be 539a bd3e dfeb cc3e da01 99be
00000390: e702 7e3e 0850 d33e 8e66 dfbe b10a 0a3a
000003a0: 4c75 923d 64c5 b3be 77a9 403d 0f1b 99be
000003b0: fd1a a3be e31b 9c3e 559e 593e 5d7d db3d
000003c0: 59c4 96be e8e9 0cba 5afb d63e a52b cebd
000003d0: c5a8 f5be 0061 b93d 9281 58be de55 80be
000003e0: 69c8 bdbb 3702 abbe

gat_layer_2.out_att.a f4 [10, 1]
0.103466384 0.8730785 -0.12238872 0.7455389 0.4374999 0.33895335 0.06447011 1.0218145
-0.36840838 -0.63194597
00000000: 2fe6 d33d 1382 5f3f f0a6 fabd a3db 3e3f
00000010: fdff df3e 4b8b ad3e e808 843d d1ca 823f
00000020: 06a0 bcbe 36c7 21bf
