tests/gat/encoder-checkpoint0.pt (torch, 20170 bytes, 36 tensors)

gat_layer_0.attention_0.W f4 [5, 10]
0	0xbef7c6c3	-0.4839383
1	0xbf564570	-0.83699703
2	0x3ed2c75b	0.4116772
3	0xbead4698	-0.3384292
4	0xbdcfe444	-0.1015096
5	0x3ea91337	0.33022472
6	0x3f503ab0	0.8133955
7	0xbe0f6132	-0.14001921
8	0x3f01c1cf	0.50686353
9	0xbefab4f6	-0.48966187
10	0xbe70998e	-0.23496076
11	0x3e0bfd1e	0.13670775
12	0x3e917470	0.28409147
13	0xbf5b0e21	-0.85568434
14	0xbe471c42	-0.19444373
15	0x3de036c1	0.109479435
16	0xbf26d1d1	-0.65163904
17	0xbe1678a6	-0.14694461
18	0xbecb5a6b	-0.3971742
19	0x3d862b55	0.06551234
20	0x3df2dca0	0.11858487
21	0x3ed17b66	0.40914458
22	0x3ec2d3b4	0.38052142
23	0x3eed9ebf	0.46410176
24	0xbd7ce4be	-0.061741583
25	0xbec063af	-0.37576053
26	0x3ed5548e	0.41666073
27	0x3f422fb1	0.7585402
28	0x3cc462fa	0.023972977
29	0xbdef3aea	-0.11681159
30	0xbef3ac6b	-0.47592482
31	0x3edc841d	0.43069544
32	0x3d29b85a	0.041435577
33	0xbf06a832	-0.52600396
34	0xbe79df00	-0.24401474
35	0x3ec6e0a6	0.38843268
36	0xbf650a19	-0.8946853
37	0x3ea483e2	0.3213187
38	0x3f476de6	0.77902067
39	0xbf597145	-0.8493846
40	0x3f1ee02b	0.62060803
41	0xbf49ec77	-0.7887644
42	0x3e82f445	0.25576988
43	0x3e9273c5	0.2860395
44	0xbe1918ab	-0.14950816
45	0x3f503d53	0.81343573
46	0xbd00dfb9	-0.03146336
47	0x3f3f9134	0.7483094
48	0x3ee4eead	0.44713345
49	0xbebd9d54	-0.37034094

gat_layer_0.attention_0.a f4 [20, 1]
0	0xbe15d0ed	-0.1463048
1	0xbe638ecc	-0.22222441
2	0x3e3fb875	0.18722709
3	0x3f375e3c	0.71628165
4	0xbead3b52	-0.3383432
5	0xbd4d0186	-0.05005028
6	0x3f1f6d32	0.62275994
7	0xbefc0d27	-0.49228784
8	0xbd971f8a	-0.073790625
9	0x3f21c71c	0.6319444
10	0xbf01bc16	-0.5067762
11	0xbf43784a	-0.7635542
12	0x3efc9354	0.49331152
13	0xbe0975fc	-0.13423914
14	0xbe1707c0	-0.1474905
15	0xbea73f3a	-0.32665426
16	0x3ea53721	0.32268623
17	0x3e2b67fb	0.16738884
18	0x3da2ba1d	0.079456545
19	0x3cd208ec	0.02563902

gat_layer_0.attention_1.W f4 [5, 10]
0	0xbf539e81	-0.8266373
1	0xbcc15840	-0.023601651
2	0xbd51a3af	-0.05118149
3	0xbc85c89a	-0.016331006
4	0xbd8f7773	-0.07005205
5	0xbe649af8	-0.22324741
6	0xbf5832e4	-0.8445265
7	0x3f3e2a33	0.7428314
8	0xbf4188e9	-0.75599533
9	0xbf32292e	-0.69594085
10	0x3eb98897	0.36237022
11	0xbf57d863	-0.84314555
12	0xbf34c7ba	-0.7061726
13	0x3f324cdd	0.69648534
14	0x3f612d25	0.8795951
15	0xbecf63c9	-0.40505818
16	0x3f40365b	0.7508294
17	0xbe959bfa	-0.29220563
18	0xbcf2ea04	-0.029652603
19	0x3e2b1412	0.16706875
20	0x3d255503	0.040364277
21	0x3f09b07a	0.53784907
22	0xbf0d07a1	-0.55089766
23	0xbe99a8c5	-0.30011573
24	0xbe3e93b9	-0.18611039
25	0xbedee5ea	-0.43534786
26	0x3f46f732	0.7772094
27	0x3de8be92	0.113644734
28	0xbf38afcc	-0.72143245
29	0xbee1ef3c	-0.44127834
30	0x3f04ec20	0.519228
31	0x3df36c5b	0.118859015
32	0x3ebb7a9f	0.3661699
33	0x3ec2855c	0.3799237
34	0x3d62d92d	0.055382896
35	0x3f432940	0.7623482
36	0xbec45ef0	-0.38353682
37	0x3f6360d3	0.8881962
38	0xbecff3f9	-0.40615824
39	0xbd476d03	-0.048687946
40	0xbf1a740f	-0.6033334
41	0xbea92569	-0.33036354
42	0x3f528e3e	0.82248294
43	0xbf2d02ca	-0.6758238
44	0x3f17adab	0.5924937
45	0x3f25cad8	0.6476264
46	0xbf09c53d	-0.53816587
47	0xbf021a67	-0.50821537
48	0xbf4836e8	-0.7820878
49	0xbf243484	-0.6414263

gat_layer_0.attention_1.a f4 [20, 1]
0	0xbec53d5d	-0.3852338
1	0x3d8e272d	0.06941066
2	0x3ea0ae68	0.3138306
3	0xbe821118	-0.25403666
4	0x3e8805b6	0.26566857
5	0xbeb42d0d	-0.3519062
6	0xbf0eb406	-0.55743444
7	0xbf029165	-0.51003104
8	0xbde96786	-0.11396699
9	0xbe8fba72	-0.28071934
10	0x3f0bd912	0.546281
11	0x3e379b63	0.17930369
12	0xbe9ab1fb	-0.30213913
13	0xbea5292d	-0.32257977
14	0x3e38e970	0.180578
15	0x3e04860c	0.1294176
16	0xbecb04f7	-0.39652225
17	0xbef135d9	-0.47111395
18	0x3f2f5240	0.6848488
19	0x3cd54110	0.026032

gat_layer_0.attention_2.W f4 [5, 10]
0	0x3f534d7e	0.8254012
1	0xbedad214	-0.42738402
2	0xbe00df22	-0.12585118
3	0x3f45d0a7	0.77271503
4	0x3f2e854b	0.6817214
5	0x3da399db	0.0798833
6	0xbf1a7b2b	-0.6034419
7	0xbf08f63e	-0.53500736
8	0xbf1f00da	-0.62110674
9	0xbf06dff7	-0.52685493
10	0x3e877beb	0.2646173
11	0xbf57ba6c	-0.8426883
12	0xbf542e48	-0.8288312
13	0x3e1f5c01	0.1556244
14	0xbe6575c0	-0.224082
15	0xbeb9b4d7	-0.36270782
16	0xbf5bd7e9	-0.8587633
17	0x3e879943	0.26484117
18	0xbdab214f	-0.083559625
19	0xbec4b05b	-0.384158
20	0xbf07aa9b	-0.529947
21	0x3f3d9943	0.74061984
22	0x3f3a4fee	0.72778213
23	0xbeb31f80	-0.3498497
24	0x3eec1372	0.46108586
25	0x3e3d43ec	0.18482941
26	0xbf071fd8	-0.52782965
27	0xbeecee60	-0.46275616
28	0x3f5f175e	0.8714503
29	0x3f24c67e	0.64365375
30	0xbf6126e5	-0.87949973
31	0x3e9fb651	0.31193784
32	0x3f237de3	0.6386396
33	0x3e5e0109	0.21680082
34	0xbf16c34f	-0.5889177
35	0xbe67c7ba	-0.22634783
36	0xbf31c8f6	-0.6944727
37	0xbeab33d1	-0.3343797
38	0xbf00a694	-0.5025418
39	0x3f0f3d62	0.5595304
40	0xbd945ee5	-0.07244662
41	0xbdfbb375	-0.12290088
42	0xbf2ca420	-0.67437935
43	0x3e2ca7e6	0.16860923
44	0x3d20e92d	0.039284874
45	0xbea24b64	-0.31698143
46	0xbf5aac20	-0.8541889
47	0xbf58f6c1	-0.84751517
48	0xbe1c91ec	-0.1529004
49	0x3ea95a86	0.33076876

gat_layer_0.attention_2.a f4 [20, 1]
0	0xbee66754	-0.45000708
1	0xbe977638	-0.2958238
2	0xbebdcae9	-0.3706887
3	0xbf1d8ec9	-0.61546
4	0xbf3bb513	-0.7332317
5	0x3f04cf21	0.51878554
6	0x3cde987a	0.027172316
7	0x3f0a1f5d	0.53954107
8	0x3ee6482c	0.44976938
9	0x3f0e789d	0.5565279
10	0x3f39ada5	0.72530586
11	0xbf2e7032	-0.68139946
12	0xbf0115e3	-0.5042402
13	0x3e6f0c6a	0.2334458
14	0x3effc7df	0.49957177
15	0x3e84f46d	0.25967732
16	0x3f27511a	0.65358126
17	0xbe9348f4	-0.28766596
18	0xbf022c2c	-0.5084865
19	0xbef898dc	-0.48554122

gat_layer_0.attention_3.W f4 [5, 10]
0	0xbeaa4f5d	-0.33263674
1	0xbdd1727b	-0.102269135
2	0x3db00f03	0.08596613
3	0x3ec67c04	0.3876649
4	0xbe97f01c	-0.29675376
5	0xbf4ad038	-0.79223967
6	0xbf214045	-0.6298869
7	0x3f5da67b	0.86582154
8	0xbd9cf152	-0.07663216
9	0xbf01617f	-0.5053939
10	0xbf2e6eb9	-0.681377
11	0x3e228cf5	0.15874083
12	0x3df42096	0.11920278
13	0x3e0faf36	0.14031681
14	0xbed62b3a	-0.41829854
15	0xbf0fbabf	-0.56144327
16	0xbf238b01	-0.6388398
17	0x3e3988b9	0.18118562
18	0x3f1014b6	0.562816
19	0x3e2a5255	0.1663297
20	0x3f17d559	0.5930992
21	0x3f3796d5	0.71714526
22	0xbe85d410	-0.26138353
23	0x3de7971c	0.11308119
24	0x3eb152df	0.34633538
25	0xbf28b8ba	-0.6590687
26	0x3ede6867	0.43439028
27	0xbf1bb1ec	-0.6081836
28	0xbf02d30c	-0.5110328
29	0x3eb8e386	0.36111087
30	0xbdd33aeb	-0.10313972
31	0xbc769b12	-0.01505162
32	0xbf190e7e	-0.5978774
33	0x3ef91ea3	0.48656186
34	0x3f224020	0.63379097
35	0xbf39131f	-0.722948
36	0xbeede7dc	-0.46465957
37	0xbf2d5c80	-0.6771927
38	0x3f1fa293	0.62357444
39	0x3e448024	0.19189507
40	0x3f304a72	0.68863595
41	0x3ea7758e	0.32706875
42	0xbf43c6e3	-0.7647535
43	0x3ee6c7f8	0.4507444
44	0x3e092e51	0.13396575
45	0xbeb30144	-0.34961903
46	0xbf201702	-0.6253511
47	0x3e25c700	0.16189194
48	0x3f2ee6e3	0.68321055
49	0xbf264d56	-0.64961755

gat_layer_0.attention_3.a f4 [20, 1]
0	0xbea3b2f7	-0.31972477
1	0x3d49bc0c	0.0492516
2	0x3ef6b2e5	0.4818336
3	0x3f40cfe4	0.75317216
4	0x3f276cb8	0.65400267
5	0x3f2950fb	0.6613919
6	0xbd321a3d	-0.043482054
7	0x3f4008d4	0.7501347
8	0x3db564ba	0.08857103
9	0xbf06e494	-0.5269253
10	0xbe8259ff	-0.25459287
11	0xbf13ed26	-0.57783735
12	0xbd713e3c	-0.058897242
13	0xbf24cb01	-0.6437226
14	0xbebe97d2	-0.37225205
15	0x3da30da3	0.079615854
16	0x3ef2551f	0.47330567
17	0x3c91870b	0.017764589
18	0x3ee3201e	0.4436044
19	0x3dfc9a4b	0.123341165

gat_layer_0.attention_4.W f4 [5, 10]
0	0xbe9a6f7a	-0.30163175
1	0xbf3d443e	-0.73932254
2	0x3f4c2054	0.7973683
3	0x3eb04913	0.3443075
4	0x3ca7ab7b	0.02046751
5	0x3e8d73fc	0.27627552
6	0x3eea9ea4	0.45824158
7	0x3e5afeaa	0.21386209
8	0xbeb537e4	-0.35394204
9	0xbf27e8f3	-0.6558983
10	0xbdf78e01	-0.12087632
11	0xbee9c109	-0.45655087
12	0xbf5d344d	-0.8640793
13	0xbf1313f6	-0.5745233
14	0x3ed0780f	0.40716597
15	0x3eef5c15	0.4674994
16	0xbf280fc7	-0.65649074
17	0xbe920690	-0.28520632
18	0x3eb4dc33	0.3532425
19	0x3edef24c	0.43544233
20	0xbf2f5dee	-0.685027
21	0x3f0478be	0.5174674
22	0xbe9fe0b0	-0.3122611
23	0xbee8a03a	-0.45434743
24	0xbf2b6241	-0.669468
25	0x3e50eb32	0.2040222
26	0x3db4f6a2	0.08836104
27	0x3ef15994	0.47138655
28	0xbe1f8d34	-0.15581208
29	0x3f28720a	0.6579901
30	0xbe5bf3a3	-0.21479659
31	0xbe7f4c08	-0.24931347
32	0xbedf4711	-0.43608907
33	0x3f137d1c	0.57612777
34	0xbf656cab	-0.8961894
35	0x3e3291b6	0.17438397
36	0xbf3ba703	-0.73301715
37	0xbefb528b	-0.49086413
38	0xbf4cd634	-0.8001435
39	0x3f3b2821	0.73108107
40	0xbf1f6bd8	-0.6227393
41	0x3f3fe7e7	0.7496323
42	0x3f1554d2	0.5833255
43	0xbd895ae6	-0.067067906
44	0xbe879301	-0.26479343
45	0x3f4674ee	0.7752217
46	0x3f4d9175	0.80300075
47	0x3f499197	0.7873778
48	0xbf528fc0	-0.82250595
49	0x3e29cef0	0.16582847

gat_layer_0.attention_4.a f4 [20, 1]
0	0x3cd1c0c5	0.025604615
1	0xbee7fe55	-0.45311227
2	0xbeeeede9	-0.46665886
3	0xbeda2d45	-0.42612663
4	0xbe8ee82e	-0.27911514
5	0x3f0b3c27	0.5438866
6	0x3ed908cb	0.4238952
7	0x3e24c784	0.16091734
8	0xbee4d34a	-0.4469245
9	0x3ec5c55f	0.38627145
10	0x3f27639c	0.65386367
11	0x3f2455d8	0.6419349
12	0xbe6fc0d8	-0.23413408
13	0x3f148a0a	0.5802313
14	0x3ec5cc3a	0.38632375
15	0x3f0223fc	0.5083616
16	0x3ed6bf18	0.41942668
17	0x3efb1bb5	0.49044576
18	0x3f134b8e	0.5753716
19	0xbf1144a7	-0.5674538

gat_layer_0.out_att.W f4 [50, 5]
0	0xbecda47f	-0.40164563
1	0xbe88c19f	-0.2671022
2	0x3ce68869	0.028141217
3	0xbe722a16	-0.23648867
4	0xbe7bffc6	-0.24609289
5	0xbef0d267	-0.47035524
6	0x3d98637a	0.07440849
7	0xbe8cd5e9	-0.2750695
8	0x3e0a509f	0.13507317
9	0xbe2e6344	-0.17030054
10	0x3e9afb96	0.3027007
11	0xbeadabe8	-0.33920217
12	0x3e50f321	0.20405246
13	0xbc0d1ac4	-0.008612338
14	0x3e88e332	0.26735836
15	0xbcf84441	-0.030305983
16	0xbe381e4f	-0.17980312
17	0x3dd969b3	0.10615864
18	0x3eb02012	0.34399468
19	0xbeb81f1d	-0.35961238
20	0x3ec36a2e	0.38166946
21	0xbd521bd1	-0.05129606
22	0x3e09f18a	0.13471046
23	0x3e710f1b	0.23540919
24	0x3edbda6a	0.42940074
25	0xbea7e1c8	-0.32789445
26	0x3be978ec	0.0071250107
27	0x3eb45dba	0.35227758
28	0x3e939460	0.2882414
29	0xbe629706	-0.22127923
30	0x3ed3aa2e	0.41340774
31	0x3e7999b5	0.24375041
32	0xbea8fbbe	-0.33004564
33	0xbe9f01dc	-0.31056106
34	0x3e4487ad	0.19192381
35	0xbef11330	-0.4708495
36	0x3d1291a1	0.035783414
37	0x3e918b7b	0.28426728
38	0xbe86f27f	-0.26356885
39	0x3ceb3e31	0.028716179
40	0x3e44a082	0.19201854
41	0xbe80f4f0	-0.25186872
42	0xbd3b57cb	-0.045738023
43	0x3dc837e6	0.09776287
44	0x3cdecd61	0.027197542
45	0xbebbbfe6	-0.36669844
46	0x3e6596f0	0.2242086
47	0xbe0adb02	-0.13560107
48	0xbe95bcfd	-0.2924575
49	0x3e8174a6	0.25284308
50	0xbe9b07a6	-0.30279273
51	0x3e819df6	0.25315827
52	0xbe3f6e7a	-0.18694487
53	0xbe8b7ae4	-0.27242196
54	0xbdb87fe0	-0.09008765
55	0xbe3c78e8	-0.18405497
56	0x3e590704	0.21194082
57	0xbc5acd5a	-0.013354624
58	0x3e67fcd1	0.22655036
59	0xbe9ed3eb	-0.31021056
60	0xbd3064d8	-0.043064922
61	0x3e9cff51	0.3066354
62	0xbecd14b4	-0.40054858
63	0x3ec7b4bd	0.3900508
64	0x3ea26ade	0.31722158
65	0x3dcfafaf	0.10140931
66	0x3e4ff5a9	0.20308556
67	0xbe8ce3d7	-0.27517578
68	0x3e5f0087	0.21777545
69	0x3ee7abd0	0.4524827
70	0x3c8d1a8d	0.017224574
71	0xbeeb2e47	-0.45933744
72	0x3e892bb4	0.26791155
73	0xbeac4897	-0.33649132
74	0x3ed92245	0.42408958
75	0xbda7ca71	-0.081929095
76	0xbd962687	-0.07331567
77	0xbd4e315e	-0.05034005
78	0x3eb5f81c	0.35540855
79	0xbee0b4a6	-0.43887824
80	0xbe5cc19b	-0.2155823
81	0x3e8808f1	0.26569322
82	0xbe21d291	-0.15802981
83	0x3ee5d5c0	0.4488964
84	0x3ed4d96b	0.41572127
85	0x3d8a42f7	0.06751054
86	0xbe2bf2cb	-0.16791837
87	0x3e65a4a7	0.22426091
88	0xbd338e4d	-0.04383688
89	0x3e306404	0.17225653
90	0xbee3a870	-0.44464445
91	0xbd414d45	-0.04719283
92	0xbc81c884	-0.015842684
93	0x3d8ddc2a	0.069267586
94	0x3ec0ea3c	0.37678707
95	0x3e9b3ec2	0.30321318
96	0xbe91c86b	-0.2847322
97	0xbe752585	-0.23940094
98	0x3ec452fc	0.38344562
99	0x3e6e2a96	0.23258433
100	0x3e3ab89a	0.18234482
101	0xbedb9d4c	-0.42893445
102	0xbd938bfa	-0.07204433
103	0xbd3f3bd7	-0.046687927
104	0x3ebd795f	0.3700666
105	0x3ea00bb7	0.31258938
106	0x3ea6a59a	0.3254822
107	0xbccfb2aa	-0.025353748
108	0xbe53eb24	-0.20695168
109	0xbed4bb72	-0.4154926
110	0x3ec9a568	0.39384007
111	0x3e96197f	0.29316327
112	0xbe818694	-0.25297987
113	0xbe19d497	-0.15022503
114	0x3ea08e61	0.31358626
115	0x3c0257d9	0.007955515
116	0xbe18c5b7	-0.14919172
117	0xbe38ff31	-0.18066098
118	0x3e3f47c0	0.18679714
119	0xbe5c4316	-0.21509966
120	0x3e1862ef	0.1488149
121	0xbed15f7c	-0.4089316
122	0x3dd07a34	0.101795584
123	0x3dba9e69	0.091122456
124	0xbd9ce688	-0.07661158
125	0x3d9b6402	0.07587434
126	0x3e1bb001	0.15203859
127	0xbe90d080	-0.28284073
128	0x3e9a9be3	0.30197057
129	0xbe73473e	-0.23757645
130	0xbea36270	-0.3191104
131	0xbe85cbb4	-0.26131976
132	0x3ea45d56	0.3210246
133	0xbee8b482	-0.45450217
134	0xbea7a3cc	-0.32742155
135	0x3eae7630	0.34074545
136	0xbd2ba2f1	-0.04190344
137	0xbed77207	-0.42079183
138	0x3ee793a1	0.4522982
139	0xbeb03cc6	-0.34421366
140	0xbe6a7e51	-0.22899748
141	0xbdadf4b0	-0.08493936
142	0x3e893b8d	0.26803246
143	0xbed48520	-0.41507816
144	0x3e9b02a6	0.30275458
145	0x3ed42f7c	0.41442478
146	0xbe25c332	-0.16187742
147	0x3e613fbf	0.21996973
148	0xbea82087	-0.32837316
149	0xbeb5172b	-0.35369238
150	0x3c19f42d	0.009396595
151	0x3ec04150	0.3754983
152	0xbd8e6cfe	-0.06954382
153	0xbecc579b	-0.39910588
154	0x3dd8a907	0.105791144
155	0x3e9637eb	0.29339537
156	0xbe1beeb2	-0.15227774
157	0xbee18ef2	-0.4405437
158	0x3e6eb5c5	0.23311527
159	0x3e38c7d4	0.18044978
160	0xbec7e509	-0.39041927
161	0x3e4c94a0	0.19978571
162	0xbebd68af	-0.3699393
163	0x3e9eba03	0.3100129
164	0x3ed24097	0.41064903
165	0xbece87e8	-0.40338063
166	0x3e468131	0.1938522
167	0x3ed8f960	0.42377758
168	0x3e1d551c	0.15364498
169	0x3ee976d7	0.4559848
170	0xbe445498	-0.19172895
171	0xbe689fe3	-0.22717242
172	0x3ee8c984	0.45466244
173	0x3eaf31d8	0.34217715
174	0xbeb7918f	-0.3585324
175	0xbe182248	-0.14856827
176	0x3ecd70b8	0.4012506
177	0x3c1363d4	0.008995969
178	0x3ecef5b8	0.40421844
179	0x3e0c7c46	0.13719282
180	0x3e5b364d	0.21407433
181	0x3eb8376c	0.35979784
182	0x3e935faa	0.28783923
183	0xbec064de	-0.37576956
184	0x3d817632	0.06321372
185	0xbeb412a8	-0.35170484
186	0x3e4ec33c	0.20191664
187	0x3e845fba	0.25854284
188	0x3e009ed4	0.12560588
189	0xbe83b9fd	-0.25727835
190	0xbead3b51	-0.33834317
191	0x3e92cd36	0.2867219
192	0x3d82c34d	0.06384907
193	0xbe8f109e	-0.27942365
194	0xbec41de7	-0.38304064
195	0x3eb5101c	0.35363853
196	0x3e68d8c7	0.22738944
197	0xbea51f90	-0.32250643
198	0x3e15762e	0.14595863
199	0x3d08fa83	0.03344203
200	0xbe4f3d3c	-0.20238203
201	0x3eaf335a	0.34218866
202	0x3e981ca2	0.29709345
203	0xbdbdbc96	-0.092644855
204	0xbe47d218	-0.19513738
205	0x3bfe04c2	0.007752032
206	0x3eaa4c2c	0.3326124
207	0x3db1c505	0.086801566
208	0x3e961a75	0.2931706
209	0xbe6e84b4	-0.2329281
210	0x3dd9560c	0.10612115
211	0x3e7ea607	0.24868022
212	0x3d26afad	0.04069488
213	0xbd75b607	-0.059988048
214	0x3e5c5e69	0.2152039
215	0xbdade8f0	-0.08491695
216	0xbec6fd84	-0.38865292
217	0x3ebbf2a1	0.3670855
218	0xbe115f9b	-0.14196627
219	0x3e8e08b1	0.27741006
220	0x3ed7c8b5	0.42145315
221	0x3ed23529	0.41056183
222	0x3d0edb67	0.034877207
223	0xbec5d64d	-0.3864006
224	0x3da2845f	0.07935404
225	0xbe45d527	-0.19319592
226	0xbeab0111	-0.3339925
227	0x3cd73fac	0.026275478
228	0xbe0a3118	-0.1349529
229	0x3e1f48e5	0.15555151
230	0xbdaeec25	-0.08541135
231	0xbda7f0b4	-0.08200207
232	0xbed7b3dd	-0.42129412
233	0x3e814598	0.25248408
234	0xbeeb636b	-0.45974287
235	0xbe20b562	-0.15694192
236	0x3c6247fe	0.01381111
237	0xbdc15160	-0.09439349
238	0x3eb8752f	0.36026904
239	0xbe82be0f	-0.25535628
240	0xbe61e033	-0.22058181
241	0xbee52d30	-0.44761038
242	0x3ec7409b	0.38916478
243	0xbe84de3b	-0.25950798
244	0x3ea62e88	0.32457376
245	0x3d0ebac4	0.034846082
246	0xbedfef44	-0.43737233
247	0x3ec3f0e4	0.38269722
248	0xbeea004f	-0.4570336
249	0xbe368712	-0.17824963

gat_layer_0.out_att.a f4 [10, 1]
0	0x3e15c755	0.1462682
1	0x3f7ec89b	0.9952485
2	0xbf29b57a	-0.66292536
3	0xbed98160	-0.42481518
4	0xbedea57a	-0.43485624
5	0xbf416c45	-0.7555583
6	0x3ecf0673	0.40434608
7	0xbdce805a	-0.10083075
8	0xbf80f50a	-1.007478
9	0xbf34ede7	-0.7067551

gat_layer_1.attention_0.W f4 [5, 10]
0	0x3c6c9bd1	0.014441446
1	0xbea2bbe9	-0.3178399
2	0x3f0d5512	0.5520793
3	0xbf4cf39e	-0.8005923
4	0x3ee81474	0.45328104
5	0xbe50f6f8	-0.20406711
6	0x3eb6f8ab	0.35736594
7	0xbcf1513d	-0.029457683
8	0xbf3e7ef4	-0.74412465
9	0xbf0e90b4	-0.5568955
10	0x3f2d7d1e	0.6776904
11	0xbf4cbb84	-0.79973626
12	0xbeda2b94	-0.42611372
13	0xbc938dcd	-0.018011952
14	0xbf557449	-0.8338056
15	0xbd9116df	-0.070844404
16	0xbf333679	-0.70004994
17	0xbf3ac972	-0.7296363
18	0xbf238e3a	-0.63888896
19	0x3f0affbf	0.5429649
20	0x3ede1790	0.43377352
21	0xbf2cc0f4	-0.67481923
22	0x3f420cb9	0.75800663
23	0xbe4d6168	-0.20056689
24	0x3f2bc4ab	0.67096967
25	0x3ce704f6	0.028200608
26	0xbef4f65e	-0.47844213
27	0x3f622074	0.8833077
28	0x3e006a25	0.12540491
29	0x3f4b87a6	0.7950386
30	0x3dc1c4fd	0.09461401
31	0xbf4bd137	-0.7961611
32	0x3ec6ab87	0.3880274
33	0xbd8aca31	-0.06776846
34	0x3e5c0839	0.21487512
35	0x3f54cd49	0.8312574
36	0xbf037c61	-0.5136166
37	0xbf2bda62	-0.671301
38	0xbe67920e	-0.22614309
39	0xbd48779f	-0.048942205
40	0xbe77e4dd	-0.24208398
41	0x3f3fa32c	0.74858356
42	0x3f58c687	0.8467793
43	0x3f4bf716	0.796739
44	0xbf5745a4	-0.8409064
45	0xbf206eb0	-0.62668896
46	0x3f1efa44	0.62100625
47	0xbeaaa3e2	-0.33328158
48	0x3f061bda	0.5238625
49	0x3ede64c1	0.43436244

gat_layer_1.attention_0.a f4 [20, 1]
0	0x3e348ab0	0.1763103
1	0xbf0367d9	-0.51330334
2	0xbe5f9b9f	-0.21836708
3	0xbec70968	-0.38874364
4	0x3f41bd46	0.75679433
5	0xbf33ff49	-0.7031141
6	0xbea6d03b	-0.32580742
7	0xbf375d11	-0.71626383
8	0x3f3cd18a	0.7375723
9	0xbf296cb6	-0.66181505
10	0x3f347230	0.70486736
11	0xbe0667a9	-0.1312548
12	0xbe6225ec	-0.22084779
13	0xbe0ffa4d	-0.14060326
14	0x3f2e6c89	0.6813436
15	0x3e3fa5bc	0.18715566
16	0x3ef90cb3	0.486425
17	0xbe5f35ff	-0.21797942
18	0xbf3552dc	-0.7082956
19	0xbe581859	-0.21103038

gat_layer_1.attention_1.W f4 [5, 10]
0	0x3f0b3580	0.5437851
1	0xbc674c8e	-0.014117373
2	0x3efe491d	0.49665156
3	0x3eeb1873	0.4591709
4	0xbef3c546	-0.47611445
5	0xbe851582	-0.25992972
6	0x3d1b9cc8	0.037991315
7	0x3d22c526	0.039738797
8	0xbf1b5125	-0.6067069
9	0x3e1a25f3	0.15053539
10	0xbf5ea78c	-0.86974406
11	0x3dc563f3	0.096382044
12	0xbf35d744	-0.71031594
13	0x3f58782d	0.84558374
14	0xbe760d6f	-0.24028562
15	0xbea449d2	-0.3208757
16	0x3e19ab58	0.15006769
17	0xbf4d6724	-0.80235505
18	0x3ee5cd55	0.44883218
19	0x3ed4b79e	0.4154634
20	0x3f05a2ac	0.5220134
21	0xbf2476aa	-0.64243567
22	0xbf55e051	-0.83545405
23	0xbec17c97	-0.37790367
24	0xbe606e28	-0.21917021
25	0xbe4b8481	-0.19874765
26	0x3f0f6684	0.560158
27	0xbdeefa4b	-0.11668833
28	0xbf0d90dc	-0.5529916
29	0xbeb1eff1	-0.34753373
30	0x3dc9f195	0.09860531
31	0x3e959dcb	0.2922195
32	0xbf3b909f	-0.7326755
33	0x3ecddc60	0.40207195
34	0xbe860213	-0.26173458
35	0x3eb146b3	0.34624252
36	0xbe0c3c48	-0.1369487
37	0xbe7eb40f	-0.24873374
38	0xbe65b222	-0.22431234
39	0x3e4d6273	0.20057087
40	0xbf379ed2	-0.71726716
41	0x3f07cdd8	0.5304847
42	0xbef6aa21	-0.48176673
43	0xbeb9b384	-0.36269772
44	0x3e6edad7	0.23325668
45	0x3de790ad	0.113068916
46	0x3e17b51f	0.14815186
47	0xbf62f544	-0.88655496
48	0xbedb20c5	-0.4279844
49	0xbd3cea0c	-0.046121642

gat_layer_1.attention_1.a f4 [20, 1]
0	0xbf1575be	-0.58382785
1	0x3e2b3a2c	0.1672141
2	0xbe3a7a4c	-0.18210715
3	0xbed5f4e2	-0.41788393
4	0x3e383d36	0.179921
5	0xbde53077	-0.111908846
6	0x3d30cc8d	0.043163825
7	0x3f36bac3	0.71378726
8	0xbee0b2f9	-0.43886545
9	0xbe9d5e2a	-0.30735904
10	0x3f20e99a	0.6285645
11	0xbbe413f6	-0.0069603873
12	0x3ed12624	0.4084941
13	0xbf2b926a	-0.67020285
14	0xbb9d9d07	-0.004809979
15	0xbec4a55f	-0.38407418
16	0xbe9fa5c1	-0.31181148
17	0x3f32a331	0.6978026
18	0xbd8dbd6d	-0.06920896
19	0x3f1e7489	0.6189657

gat_layer_1.attention_2.W f4 [5, 10]
0	0xbde487b8	-0.11158699
1	0xbf47d5de	-0.7806071
2	0xbec05fa2	-0.37572962
3	0xbea26b57	-0.3172252
4	0xbf5f38fd	-0.8719633
5	0xbe974414	-0.29544127
6	0x3f3a8975	0.7286599
7	0xbe4e7a45	-0.2016383
8	0x3ea33ecb	0.31883845
9	0xbc4dcd91	-0.012561218
10	0x3ef06657	0.4695308
11	0xbf4a1a28	-0.7894616
12	0x3c2d24ed	0.010567886
13	0x3f2069fc	0.6266172
14	0x3f62f205	0.8865054
15	0xbea2b369	-0.31777504
16	0xbed6f3f4	-0.41982996
17	0xbe3af0f9	-0.18255986
18	0xbf093d7f	-0.5360946
19	0xbbf48e57	-0.0074632573
20	0x3dd92dc3	0.106044315
21	0x3ee9abcb	0.4563888
22	0xbf35b660	-0.7098141
23	0x3f1a6280	0.6030655
24	0x3ef4f75b	0.47844967
25	0x3ed8a88b	0.42316088
26	0xbf4b01c7	-0.79299587
27	0x3e6d1b0e	0.23154852
28	0x3d544b97	0.0518299
29	0x3e573a04	0.21018225
30	0x3dc58569	0.096445866
31	0xbc6daef8	-0.014507048
32	0x3e2ee00f	0.17077659
33	0x3e1f7ef3	0.15575771
34	0x3f26fc30	0.6522856
35	0xbe58ae28	-0.21160185
36	0xbef5d3c3	-0.48013124
37	0xbe4c29ac	-0.19937772
38	0x3c271be7	0.0101995235
39	0x3eb69a6c	0.3566469
40	0x3e5667b0	0.20937991
41	0xbe90ec4d	-0.28305283
42	0xbf2c8345	-0.673878
43	0x3f5051ce	0.81374824
44	0x3f22022c	0.63284564
45	0xbe4f08b4	-0.20218164
46	0x3eb962e7	0.3620827
47	0xbb8966fc	-0.004193185
48	0x3e0e18a2	0.13876584
49	0x3dd577a2	0.10423209

gat_layer_1.attention_2.a f4 [20, 1]
0	0x3ecb2581	0.3967705
1	0x3f0eab55	0.5573018
2	0xbe9c3572	-0.30509526
3	0x3f1832a2	0.5945226
4	0x3f1ecfb8	0.62035704
5	0xbf34f54e	-0.70686805
6	0xbecf5857	-0.40497085
7	0x3c599fce	0.013282729
8	0xbf3239f6	-0.6961969
9	0x3e88e809	0.2673953
10	0x3f32381d	0.6961687
11	0x3d2f63fd	0.042819966
12	0xbc30b2b1	-0.010784791
13	0xbe9b291c	-0.303048
14	0xbf3181fd	-0.6933897
15	0xbef3694d	-0.47541276
16	0x3ea0e4ae	0.3142447
17	0xbd1886ca	-0.03723792
18	0xbe25c076	-0.161867
19	0xbe46fffc	-0.19433588

gat_layer_1.attention_3.W f4 [5, 10]
0	0x3f129bf8	0.5726924
1	0xbf6207f7	-0.88293403
2	0x3edcc2aa	0.43117267
3	0xbf5f8d1c	-0.8732469
4	0x3f479ce2	0.7797376
5	0xbe59cddd	-0.21269937
6	0xbf22bcdd	-0.6356943
7	0xbf524ca3	-0.8214819
8	0x3f5ef374	0.8709023
9	0xbd96c1ac	-0.07361159
10	0x3da7ce0e	0.08193599
11	0xbef5aa0d	-0.479813
12	0xbdfc58de	-0.123216376
13	0x3f307a44	0.6893656
14	0x3f1ab951	0.6043902
15	0x3f086e40	0.5329323
16	0xbec40a82	-0.38289267
17	0x3e8153ae	0.25259155
18	0x3f3a807c	0.728523
19	0x3f2edf9d	0.68309957
20	0x3f2ca989	0.6744619
21	0x3ee76793	0.45196208
22	0xbe19d894	-0.15024024
23	0xbf386aae	-0.7203778
24	0xbf16a060	-0.5883846
25	0x3f41ae2b	0.75656384
26	0x3f22f431	0.63653857
27	0x3d870569	0.06592829
28	0xbf2a3724	-0.6649039
29	0x3d9c4cae	0.07631813
30	0xbe9b8d9f	-0.30381486
31	0xbf53bff3	-0.82714766
32	0xbebd8034	-0.37011874
33	0xbece854d	-0.40336075
34	0x3f39045a	0.72272265
35	0xbea126c4	-0.31474888
36	0x3e62b199	0.2213806
37	0xbe9fbb71	-0.31197694
38	0x3ef2a931	0.47394708
39	0xbf23bd56	-0.6396078
40	0xbf17359d	-0.5906618
41	0x3f38a315	0.72123843
42	0xbf576ca6	-0.8415016
43	0xbef3ad2d	-0.4759306
44	0x3f27477c	0.6534345
45	0x3f55d717	0.83531326
46	0xbd7c7d82	-0.06164313
47	0xbed1e9ad	-0.40998593
48	0x3efa4a38	0.4888475
49	0x3ec3adde	0.38218588

gat_layer_1.attention_3.a f4 [20, 1]
0	0xbf06a8ae	-0.52601135
1	0xbe2925b6	-0.16518292
2	0xbee468c3	-0.44611177
3	0xbe529e97	-0.2056831
4	0xbe8e85b9	-0.27836397
5	0x3f01c3c2	0.5068933
6	0x3ce8b2cc	0.02840557
7	0x3edc399b	0.430127
8	0x3ded0a44	0.11574224
9	0xbe7fda60	-0.24985647
10	0x3f03906f	0.51392263
11	0xbe320943	-0.17386346
12	0xbebf3834	-0.37347567
13	0x3f3e5907	0.74354595
14	0xbecd8503	-0.40140542
15	0xbdab1f75	-0.08355609
16	0x3eeb739a	0.45986634
17	0x3f1b0c79	0.60565907
18	0xbec4a493	-0.3840681
19	0x3ee0d66b	0.43913588

gat_layer_1.attention_4.W f4 [5, 10]
0	0x3f4e7818	0.80652
1	0x3ee252aa	0.44203693
2	0x3edff902	0.43744665
3	0x3d803a03	0.06261065
4	0x3e096c7d	0.13420291
5	0x3e0d3be8	0.13792384
6	0xbf029edc	-0.5102365
7	0x3f2ec130	0.6826353
8	0xbf251111	-0.64479166
9	0x3ed9b5e9	0.425216
10	0xbecd3de2	-0.40086275
11	0xbf5095eb	-0.81478757
12	0x3ef5d6c3	0.48015413
13	0x3f2a0503	0.664139
14	0x3f4fa494	0.811105
15	0x3f330c98	0.6994109
16	0xbf116710	-0.56797886
17	0x3f32ad95	0.69796115
18	0xbf5d37f9	-0.8641353
19	0x3f0fad1a	0.5612351
20	0xbe1214ea	-0.1426579
21	0x3f582fa6	0.84447706
22	0xbf4f5d14	-0.810014
23	0xbe6b000c	-0.22949237
24	0xbf4be601	-0.79647833
25	0xbf1d5ac4	-0.6146662
26	0xbf4dc318	-0.80375814
27	0x3e3b1123	0.18268256
28	0xbeffc032	-0.4995132
29	0xbf298156	-0.66212976
30	0xbf2d5418	-0.6770644
31	0xbf310482	-0.69147503
32	0x3f114c51	0.56757075
33	0xbe842905	-0.25812545
34	0x3f4acfc4	0.79223275
35	0x3f1d85dc	0.6153238
36	0x3f57c504	0.84284997
37	0xbe8a71ce	-0.2703995
38	0x3d9cae5f	0.07650446
39	0xbe82e77a	-0.25567228
40	0xbef70703	-0.48247537
41	0xbee78da0	-0.4522524
42	0x3f397e8b	0.72458714
43	0x3f40aecb	0.7526671
44	0x3f10b5fd	0.5652769
45	0xbf426a7c	-0.7594373
46	0xbb55eb1c	-0.0032641357
47	0x3ef96ada	0.48714334
48	0x3f4d8266	0.802771
49	0x3ea2c014	0.3178717

gat_layer_1.attention_4.a f4 [20, 1]
0	0xbf3df79c	-0.74205947
1	0xbec3bd19	-0.38230208
2	0xbed68b2a	-0.4190305
3	0x3d1398a3	0.036034238
4	0x3ec84bd3	0.3912035
5	0x3ea66309	0.32497433
6	0x3ebdc9b3	0.37067947
7	0x3de35e92	0.11102022
8	0x3f429820	0.76013374
9	0x3eecc09b	0.46240696
10	0x3db00fad	0.0859674
11	0x3dfd166d	0.12357793
12	0xbf11e051	-0.56982905
13	0x3ecfaed6	0.40563077
14	0xbf25ef38	-0.64818144
15	0x3f17a892	0.5924159
16	0x3f1050a6	0.5637306
17	0xbe7affc3	-0.24511628
18	0xbe8a7168	-0.27039647
19	0x3edce472	0.4314304

gat_layer_1.out_att.W f4 [50, 5]
0	0x3e29d42f	0.16584848
1	0x3c3458bb	0.011007483
2	0x3cf368e0	0.029713094
3	0x3c3b08be	0.0114156585
4	0xbd2c9aa4	-0.042139664
5	0x3ed06281	0.40700153
6	0x3eddd695	0.43327776
7	0xbda8297c	-0.082110375
8	0x3eb9b6f0	0.36272383
9	0x3e3b6b52	0.18302658
10	0x3dc998a9	0.09843571
11	0x3d8076f8	0.062726915
12	0xbecb1030	-0.39660788
13	0x3e40245c	0.1876387
14	0x3e489878	0.19589412
15	0x3e17597a	0.14780226
16	0x3d9f86ae	0.0778936
17	0x3d7966b0	0.060888946
18	0xbe476072	-0.19470385
19	0xbed96b9a	-0.42464906
20	0xbe14caa5	-0.14530428
21	0xbe039b77	-0.12852274
22	0xbe6912a3	-0.22761016
23	0x3ee67c92	0.45016915
24	0x3ed6b481	0.4193459
25	0x3ea52d5d	0.32261172
26	0x3dbd3d3c	0.09240195
27	0x3e568fd5	0.20953305
28	0x3e410e37	0.18853079
29	0xbe869e33	-0.2629257
30	0xbedaeb5c	-0.4275769
31	0xbec9c8a3	-0.39410886
32	0x3e82f00e	0.25573772
33	0x3de8adaf	0.113612525
34	0xbe7bcd95	-0.24590142
35	0xbed20523	-0.41019544
36	0xbe952801	-0.29132083
37	0xbe04858c	-0.12941569
38	0x3d91f0d6	0.07126014
39	0x3cf2f23f	0.029656528
40	0x3ef0208c	0.4689983
41	0x3e3498be	0.17636392
42	0xbea2584c	-0.3170799
43	0x3e89992d	0.26874676
44	0xbe2d694d	-0.169347
45	0x3dd813d5	0.10550658
46	0x3ee1cc3e	0.44101137
47	0x3e81e6d8	0.25371432
48	0x3d3aaa14	0.045572355
49	0x3ed0fdfc	0.40818775
50	0xbe881df8	-0.26585364
51	0xbc62566c	-0.01381455
52	0xbd6b1f69	-0.057403002
53	0xbebe65de	-0.37187093
54	0xbcf6bb72	-0.030118678
55	0xbebafcf2	-0.36521107
56	0xbd6221e9	-0.05520812
57	0xbacd47a8	-0.0015661614
58	0x3e276b0e	0.16349432
59	0xbeb9b617	-0.36271736
60	0x3eac30dd	0.3363103
61	0xbe29a9fd	-0.16568752
62	0xbe765b03	-0.24058156
63	0x3ea2d224	0.3180095
64	0xbedcffb8	-0.43163848
65	0x3ecc975d	0.3995923
66	0x3eb69f62	0.35668474
67	0x3e14cdd4	0.14531642
68	0x3cc17748	0.023616448
69	0x3ecb0af5	0.39656797
70	0x3b274a2e	0.0025526392
71	0x3c752888	0.014963277
72	0x3ca81159	0.020516085
73	0x3e98044f	0.29690787
74	0x3e9bfc94	0.3046614
75	0xbeeb153e	-0.45914644
76	0xbe21ed4b	-0.15813176
77	0xbe2e9c7f	-0.17051886
78	0xbebe1b91	-0.37130406
79	0x3ef09be4	0.46993935
80	0xbe17f8c3	-0.14840989
81	0x3dab1af7	0.083547525
82	0x3dace3c8	0.08441883
83	0xbcb75958	-0.02238147
84	0x3e4d8472	0.20070055
85	0xbd29b866	-0.04143562
86	0xbe9f25c9	-0.31083515
87	0x3e8db0e7	0.27674028
88	0x3dc3a607	0.095531516
89	0x3e294640	0.16530704
90	0xbd890540	-0.066904545
91	0x3e2995ae	0.16561005
92	0xb9725458	-0.00023110339
93	0x3e1ea9c0	0.15494442
94	0x3c1d6abb	0.009607966
95	0x3ed6ffaa	0.4199193
96	0x3ed6a6cb	0.41924128
97	0xbe14c02d	-0.14526434
98	0xbe95842c	-0.29202402
99	0x3e28e6b5	0.16494258
100	0x3e816665	0.25273433
101	0x3dd7c9ba	0.10536523
102	0xbebfb6fd	-0.37444296
103	0x3d2ae213	0.041719507
104	0xbed74693	-0.4204603
105	0xba9d0167	-0.0011978567
106	0x3d86402c	0.065552086
107	0x3e9042ec	0.28176057
108	0xbca173e0	-0.019708574
109	0xbea23a67	-0.31685182
110	0xbec62515	-0.38700166
111	0x3eb3054d	0.34964982
112	0x3ebca894	0.36847365
113	0x3ed905e8	0.4238732
114	0xbe5df9c4	-0.2167731
115	0xbee140ca	-0.43994743
116	0x3dfb76d4	0.12278524
117	0x3e198343	0.14991479
118	0x3e53b562	0.20674661
119	0xbec27ce2	-0.37985903
120	0xbe82085a	-0.25396997
121	0x3e5c4617	0.21511112
122	0x3eb3c371	0.35110047
123	0x3eeca473	0.46219215
124	0xbe9da3ba	-0.30788976
125	0x3dcfc0e6	0.10144214
126	0x3e2713b4	0.1631611
127	0xbde8dac9	-0.11369855
128	0xbebb3f71	-0.3657184
129	0xbed60f40	-0.4180851
130	0xbece4dd8	-0.40293765
131	0x3e0a22b7	0.13489805
132	0x3b1cc331	0.0023920054
133	0x3e94b4bc	0.2904414
134	0x3e57c735	0.21072085
135	0x3e7a55e1	0.24446823
136	0x3e17b7c0	0.14816189
137	0xbe72b047	-0.23700057
138	0x3edf9d3f	0.43674657
139	0xbed4e9f0	-0.4158473
140	0x3dce4eca	0.100736216
141	0xbda0ec4f	-0.07857572
142	0x3e6a32ab	0.22870891
143	0x3ecde611	0.4021459
144	0xbdec3795	-0.11534039
145	0xbe25fc69	-0.16209568
146	0xbe8029ce	-0.25031894
147	0xbede5ed7	-0.43431732
148	0x3d915bf6	0.07097618
149	0x3e80c939	0.2515352
150	0xbecf9e8e	-0.40550655
151	0xbdcccc8f	-0.09999954
152	0x3d3aa198	0.045564264
153	0x3cff3564	0.031153388
154	0xbee7b438	-0.45254683
155	0x3eb7d8e8	0.35907674
156	0x3e86cd1e	0.26328367
157	0xbeb02da4	-0.3440982
158	0xbe8f3f3d	-0.27977934
159	0x3c149c3f	0.009070455
160	0xbe669840	-0.22519016
161	0xbe5d5d5f	-0.2161765
162	0x3eac41ff	0.336441
163	0xbed7caea	-0.42147
164	0x3e567281	0.20942117
165	0xbecddcb1	-0.40207437
166	0xbea574ca	-0.32315665
167	0x3e97bbb2	0.29635388
168	0xbdd269f6	-0.10274117
169	0x3d01a64a	0.031652726
170	0x3ed7ffbe	0.42187303
171	0x3e555382	0.20832637
172	0xbe0879d5	-0.13327725
173	0x3ebc282c	0.367494
174	0xbed57a50	-0.4169488
175	0x3e7050e2	0.23468354
176	0xbdc8ca7d	-0.098042466
177	0xbea001f7	-0.312515
178	0x3d3ac8aa	0.045601524
179	0x3ea4907f	0.32141492
180	0xbdc16cc2	-0.09444572
181	0x3cf82228	0.030289724
182	0x3e015c15	0.12632783
183	0xbe877c03	-0.264618
184	0x3edb8003	0.42871103
185	0xbec408c2	-0.38287932
186	0x3eb334a0	0.35001087
187	0x3e339c9a	0.17540208
188	0xbd2aa54d	-0.04166155
189	0x3e92928f	0.2862744
190	0xbe5c6fab	-0.21526973
191	0xbe7af350	-0.24506879
192	0xbde774e6	-0.113015935
193	0xbd3a5aa8	-0.045496613
194	0x3ec321f4	0.38111842
195	0x3ecdf103	0.4022294
196	0xbf041d79	-0.5160747
197	0xbdedc8bf	-0.11610555
198	0x3ed988fd	0.42487326
199	0xbeade88f	-0.3396649
200	0xbd39996b	-0.045312326
201	0xbd198fb7	-0.037490573
202	0x3e43de2a	0.19127718
203	0x3df8208e	0.12115584
204	0x3edda654	0.4329096
205	0xbcd9b592	-0.026575837
206	0xbe880643	-0.26567277
207	0x3d8eb2b1	0.069676764
208	0xbea68def	-0.32530162
209	0x3cfa1955	0.030529657
210	0xbebde19a	-0.37086183
211	0xbea0d44a	-0.31411964
212	0xbeccd99c	-0.40009773
213	0xbd3395dd	-0.043844093
214	0x3e41eded	0.18938418
215	0xbec1ce91	-0.3785291
216	0x3eb30d9c	0.3497132
217	0xbe42d924	-0.19028145
218	0x3e825796	0.25457448
219	0xbdd433f0	-0.10361469
220	0xbe0990fa	-0.1343421
221	0xbdbbebd9	-0.09175844
222	0x3eaa81f2	0.33302265
223	0x3e96df90	0.2946744
224	0x3e8ccce1	0.2750006
225	0xbe89e3d6	-0.26931638
226	0xbeb409c3	-0.35163698
227	0x3ba107b9	0.0049142507
228	0xbea36d16	-0.31919163
229	0x3de8b88e	0.11363326
230	0xbed75ba4	-0.42062104
231	0x3e118933	0.14212494
232	0xbea348a0	-0.31891346
233	0xbea40b4b	-0.32039866
234	0xbe7e0aad	-0.2480876
235	0x3e1c7da9	0.1528231
236	0x3eaeca54	0.3413874
237	0x3e12e2f0	0.14344382
238	0xbed4f97e	-0.41596597
239	0x3e3691f3	0.17829113
240	0x3dfe1767	0.124068074
241	0x3e4bcb42	0.19901755
242	0xbe928990	-0.28620577
243	0x3ec56629	0.38554505
244	0x3ee2f3d0	0.4432664
245	0xbea661b0	-0.32496405
246	0xbda26e50	-0.07931197
247	0xbee29260	-0.442523
248	0x3e5d4130	0.21606898
249	0xbe1449a5	-0.14481218

gat_layer_1.out_att.a f4 [10, 1]
0	0x3f1abbef	0.60443014
1	0xbf345523	-0.7044241
2	0xbebaf30b	-0.36513552
3	0xbf86ffe5	-1.0546843
4	0xbea3f826	-0.3202526
5	0xbeda0dd7	-0.42588684
6	0x3e008e98	0.12554395
7	0x3f6785fb	0.9043881
8	0xbf18d50a	-0.5970007
9	0xbe80771d	-0.25090876

gat_layer_2.attention_0.W f4 [5, 10]
0	0x3cb894e8	0.022531942
1	0xbf0004a8	-0.50007105
2	0xbd90009c	-0.07031366
3	0x3d7b069d	0.061285604
4	0xbb9b2765	-0.004734921
5	0xbe9283cf	-0.28616187
6	0xbed9ebd9	-0.4256275
7	0xbe8dfebc	-0.2773341
8	0x3e8812dd	0.26576892
9	0xbf2f34ed	-0.68440133
10	0x3f4d69f3	0.8023979
11	0x3f277cb3	0.6542465
12	0x3f13a72f	0.57676977
13	0xbf1567e5	-0.58361655
14	0xbe19dc92	-0.15025547
15	0x3ea4bc9a	0.32175142
16	0xbc1dbc8e	-0.0096274745
17	0xbdd51e7c	-0.10406205
18	0x3e4580ad	0.19287367
19	0xbf22f94a	-0.63661635
20	0xbe2800df	-0.16406582
21	0x3f17b7f3	0.5926506
22	0xbf597d95	-0.8495725
23	0xbefe0689	-0.4961436
24	0x3e74ea14	0.23917419
25	0x3f0202e3	0.50785655
26	0x3ee120cb	0.43970332
27	0xbf43b2a6	-0.7644447
28	0x3e0b3af4	0.13596708
29	0xbe1635c7	-0.14668952
30	0x3e869837	0.26288006
31	0x3ef708f8	0.4824903
32	0x3f33d33b	0.7024419
33	0x3f2a013e	0.66408145
34	0xbf04c46a	-0.51862204
35	0xbf4c5e04	-0.79830956
36	0xbeb543e1	-0.3540335
37	0x3f0dec0d	0.5543831
38	0xbf4a2d33	-0.7897522
39	0x3e16334b	0.14668004
40	0xbf5cbce5	-0.8622573
41	0xbea236ac	-0.31682336
42	0xbe320dad	-0.1738803
43	0x3c8a8c03	0.016912466
44	0x3f3a2d5b	0.72725457
45	0xbefedde8	-0.49778676
46	0xbdf0eb73	-0.117636584
47	0xbf4f2b9f	-0.80925936
48	0xbf50cffe	-0.8156737
49	0x3f2cb301	0.6746064

gat_layer_2.attention_0.a f4 [20, 1]
0	0xbec44d0f	-0.3834004
1	0x3f22862a	0.6348597
2	0xbdd8ccc5	-0.10585932
3	0xbf39f2bb	-0.72636
4	0xbe3c36ef	-0.1838033
5	0x3f26eb03	0.6520235
6	0x3e9ee461	0.31033614
7	0xbdc2b810	-0.095077634
8	0xbd294a15	-0.041330416
9	0xbf39b669	-0.7254396
10	0xbe011402	-0.12605289
11	0xbe81a754	-0.25322974
12	0xbe1a91ff	-0.15094756
13	0x3f0b616f	0.54445547
14	0xbd456baa	-0.04819838
15	0x3f3a5070	0.7277899
16	0xbf152eb9	-0.5827442
17	0xbeb6e6aa	-0.35722858
18	0x3eebeb7e	0.46078104
19	0xbee62e21	-0.4495707

gat_layer_2.attention_1.W f4 [5, 10]
0	0x3ec2f544	0.38077748
1	0x3dcafa17	0.09910982
2	0x3f3fed00	0.7497101
3	0x3f1ecaeb	0.6202838
4	0x3e95d381	0.29262927
5	0x3e49286b	0.19644324
6	0x3ec2e503	0.38065347
7	0xbf36db86	-0.71428716
8	0x3e19e76d	0.15029688
9	0x3ee22a73	0.4417301
10	0xbdd02b22	-0.10164477
11	0xbf590819	-0.8477798
12	0xbf1647f2	-0.5870353
13	0xbeab07f3	-0.33404502
14	0xbe8962d4	-0.26833212
15	0x3ee93ef7	0.4555585
16	0x3f5456df	0.82945055
17	0x3ef7a77f	0.48369977
18	0xbe99b5a0	-0.3002138
19	0x3e8a2503	0.26981363
20	0x3f12f457	0.57404083
21	0xbee31d20	-0.44358158
22	0x3f3f03b6	0.7461504
23	0x3f5e7285	0.8689349
24	0xbdb0f7a4	-0.08640984
25	0xbe854812	-0.26031548
26	0x3f52774d	0.8221329
27	0x3f33cbe4	0.7023299
28	0xbe8b30ff	-0.2718582
29	0x3f66dcd0	0.90180683
30	0xbe97a911	-0.29621175
31	0xbec0fd98	-0.37693477
32	0xbeb1754d	-0.34659806
33	0x3f3d1110	0.7385416
34	0x3f09cbc6	0.5382656
35	0xbd34846c	-0.0440716
36	0xbf5fded4	-0.87449384
37	0x3c0fc20b	0.008774291
38	0xbf63c31b	-0.8896958
39	0xbf28715d	-0.6579798
40	0x3ebc7d00	0.36814117
41	0x3f1db794	0.61608243
42	0x3f2b0624	0.66806245
43	0xbeba9f21	-0.3644953
44	0xbf0d63d8	-0.55230474
45	0xbea47cb0	-0.3212638
46	0x3e02664d	0.12734337
47	0xbe606ddd	-0.2191691
48	0xbb936830	-0.004498504
49	0xbf49fd9e	-0.78902614

gat_layer_2.attention_1.a f4 [20, 1]
0	0xbf27c4e6	-0.6553482
1	0x3f0a4321	0.5400868
2	0xbe469778	-0.19393718
3	0x3ddf70ea	0.109102085
4	0xbf3262e9	-0.69682175
5	0xbf0b574b	-0.54430073
6	0x3f1b78ea	0.60731375
7	0x3ea228b4	0.3167168
8	0x3e7552fa	0.23957434
9	0xbdf6b4b8	-0.12046188
10	0x3d8170bb	0.0632033
11	0xbef6799e	-0.48139662
12	0x3e4c5028	0.19952452
13	0x3e39eb65	0.18156202
14	0x3edf9267	0.43666384
15	0xbeb9a953	-0.36261997
16	0x3dd63178	0.10458654
17	0xbe90f9ff	-0.28315732
18	0xbecfabc9	-0.4056075
19	0xbf3b60f7	-0.7319483

gat_layer_2.attention_2.W f4 [5, 10]
0	0x3ea4bb0c	0.32173955
1	0xbf39a479	-0.7251659
2	0xbe709a76	-0.23496422
3	0x3f312336	0.6919435
4	0x3cd5896b	0.026066503
5	0xbcfbb30f	-0.03072503
6	0xbd95bec0	-0.07311773
7	0x3dd793f4	0.10526267
8	0x3d443a13	0.047906946
9	0x3f1c4f10	0.6105814
10	0x3ea04433	0.31302032
11	0xbefc94ea	-0.49332362
12	0x3f291404	0.66046166
13	0xbf3ccdce	-0.73751533
14	0x3e28f9af	0.16501497
15	0x3e3446c9	0.17605127
16	0xbf18faf3	-0.5975792
17	0xbe66a555	-0.22524007
18	0x3cd53e0a	0.02603056
19	0xbf3b72ca	-0.7322203
20	0xbe255479	-0.16145505
21	0x3f24687f	0.6422195
22	0xbf34eee5	-0.70677024
23	0x3e942c0c	0.28939855
24	0xbf214fc5	-0.63012344
25	0x3e25768a	0.161585
26	0x3e56cf05	0.20977409
27	0x3e602fea	0.21893278
28	0xbdd867fd	-0.10566709
29	0x3f4dc613	0.8038036
30	0x3ecc3e19	0.39891127
31	0x3f10c30f	0.56547636
32	0xbe355683	-0.17708783
33	0x3e7b58c1	0.24545576
34	0xbf12e2dc	-0.5737741
35	0xbdf31032	-0.118683234
36	0xbf45e9af	-0.773097
37	0xbf0c329c	-0.54764724
38	0x3e8828be	0.26593584
39	0xbedc720a	-0.43055755
40	0xbe5c8abb	-0.21537296
41	0xbf01b81a	-0.5067154
42	0xbef071e7	-0.469619
43	0x3f05cdaa	0.52266943
44	0x3f5381db	0.8262002
45	0xbeb9c52c	-0.36283243
46	0xbe9d5449	-0.30728367
47	0x3f30e6ad	0.69101983
48	0x3e4a9ff3	0.19787578
49	0x3f636f5f	0.88841814

gat_layer_2.attention_2.a f4 [20, 1]
0	0xbe8b4809	-0.27203396
1	0xbf3fd02b	-0.74927014
2	0x3e676f40	0.22601032
3	0x3f274f87	0.65355724
4	0xbf16768e	-0.5877465
5	0x3f41a5e0	0.7564373
6	0xbf2a9fe7	-0.6665024
7	0xbf0b35f8	-0.54379225
8	0xbe008e7c	-0.12554353
9	0xbe82f742	-0.25579268
10	0x3f1de5c4	0.6167872
11	0x3ea1590c	0.3151325
12	0x3f1dae4a	0.6159407
13	0xbe69674c	-0.22793311
14	0x3e06e412	0.1317294
15	0x3e65905d	0.22418351
16	0xbd06730d	-0.032824565
17	0xbce9734a	-0.028497357
18	0xbec296bc	-0.38005626
19	0xbefa8515	-0.4892966

gat_layer_2.attention_3.W f4 [5, 10]
0	0xbf5c05f3	-0.8594658
1	0x3f2edeb3	0.6830856
2	0xbeb7fc38	-0.35934615
3	0x3f39c9a9	0.72573334
4	0xbeeb742f	-0.4598708
5	0x3f64bd26	0.8935112
6	0x3c4fcba9	0.012682834
7	0x3f367f99	0.7128845
8	0x3e3fe639	0.18740167
9	0x3e92d68e	0.28679317
10	0x3f5daba8	0.8659005
11	0x3f2f881a	0.6856705
12	0x3de422bc	0.111394376
13	0x3f3d77fe	0.7401122
14	0x3dbc275b	0.09187194
15	0xbeb823be	-0.3596477
16	0xbf4261e7	-0.7593064
17	0x3f3e388c	0.74305034
18	0xbf04609b	-0.5170991
19	0x3ef253fa	0.47329694
20	0x3f44791a	0.76747286
21	0x3e9ea039	0.30981615
22	0xbe93132d	-0.28725567
23	0xbf0a36e2	-0.53989995
24	0x3f3203fa	0.6953732
25	0x3f0805f6	0.53134096
26	0x3da08e85	0.078396834
27	0xbef21a7b	-0.47285828
28	0xbf381c48	-0.71918154
29	0x3ea86e51	0.32896665
30	0xbc218c77	-0.00986015
31	0xbf693d33	-0.9110901
32	0x3f56d89c	0.8392427
33	0x3e4c4611	0.19948603
34	0x3ed3d4df	0.41373345
35	0xbf453e24	-0.77047944
36	0xbdc0f57f	-0.09421825
37	0x3e90df68	0.28295445
38	0x3e4c59e7	0.1995617
39	0xbe8d94fa	-0.27652723
40	0x3f3d6a46	0.73990285
41	0xbf6b2cfd	-0.9186552
42	0x3e8344df	0.25638482
43	0x3f3c7502	0.7361604
44	0x3e002be0	0.12516737
45	0xbf111b95	-0.5668271
46	0xbf3e51e7	-0.74343723
47	0x3e13f514	0.14448959
48	0x3ec0c4ae	0.37650055
49	0x3ed58d36	0.41709298

gat_layer_2.attention_3.a f4 [20, 1]
0	0x3f1290a0	0.5725193
1	0xbebc3b65	-0.36764064
2	0xbf3a9265	-0.7287963
3	0x3f18e236	0.5972017
4	0xbe93c7a0	-0.2886324
5	0x3d8c05a8	0.06837016
6	0x3ecee886	0.40411776
7	0xbf11e8e9	-0.5699602
8	0xbe179c4a	-0.14805713
9	0x3dd7397f	0.105090134
10	0x3ec1d5eb	0.3785852
11	0x3f13ab94	0.5768368
12	0xbdef203b	-0.11676069
13	0x3eb46e3a	0.35240346
14	0xbe093590	-0.13399339
15	0xbe5d7127	-0.21625195
16	0xbedc64f7	-0.4304578
17	0x3e9dad2e	0.30796188
18	0xbef97f76	-0.48730057
19	0xbe6685ae	-0.22511932

gat_layer_2.attention_4.W f4 [5, 10]
0	0xbe2f6157	-0.17126976
1	0x3f060425	0.52350074
2	0xbf2f56c0	-0.68491745
3	0xbe19700f	-0.14984153
4	0xbe83f097	-0.25769493
5	0x3eaa1a26	0.33223075
6	0xbf1ddee0	-0.61668205
7	0xbeb5f57a	-0.35538846
8	0x3e11510a	0.1419107
9	0x3ea25962	0.3170882
10	0x3ef9bcc5	0.48776832
11	0x3e5e1416	0.2168735
12	0x3e7d2bf7	0.24723803
13	0x3f219883	0.6312334
14	0x3f5677cb	0.8377654
15	0x3ef0661b	0.469529
16	0xbdedd206	-0.116123244
17	0xbe9cbf1c	-0.30614555
18	0xbeb04000	-0.34423828
19	0xbe20b669	-0.15694584
20	0xbf25cb60	-0.6476345
21	0xbf5a279f	-0.85216707
22	0xbf2b3c91	-0.6688929
23	0x3f524d71	0.82149416
24	0xbe3e6da7	-0.18596517
25	0xbf308eb7	-0.68967766
26	0xbf3c5069	-0.73560196
27	0xbe463246	-0.19355115
28	0x3e592266	0.21204528
29	0xbf1ab58c	-0.6043327
30	0x3e68970c	0.2271387
31	0x3f307c30	0.68939495
32	0x3e93a843	0.2883931
33	0xbf0cf37d	-0.55059034
34	0xbf0fde59	-0.5619865
35	0xbec6317e	-0.38709635
36	0x3f45fb14	0.7733624
37	0x3e15e28b	0.146372
38	0x3e8e1fd5	0.2775866
39	0xbf301d76	-0.68794954
40	0xbe00743c	-0.1254434
41	0xbef46844	-0.47735798
42	0x3eaa3a44	0.33247578
43	0x3f2442f2	0.6416465
44	0x3d29ba78	0.041437596
45	0xbf289ccf	-0.6586427
46	0xbd1a0392	-0.03760106
47	0x3f66d897	0.9017424
48	0xbe31972d	-0.17342825
49	0xbf3b7a0d	-0.7323311

gat_layer_2.attention_4.a f4 [20, 1]
0	0xbd6964b6	-0.05698081
1	0x3e5d7b3a	0.21629038
2	0x3f42732c	0.7595699
3	0xbf0cf369	-0.55058914
4	0xbf2c7fe9	-0.67382675
5	0xbef6c4dc	-0.48197067
6	0xbf1baf99	-0.60814816
7	0x3eb5a384	0.35476315
8	0xbe480994	-0.19534904
9	0xbd4cc732	-0.049994655
10	0xbe9b0add	-0.30281726
11	0x3f13c9b7	0.5772967
12	0xbed1e071	-0.40991548
13	0xbf2fbd7c	-0.68648505
14	0x3ea116a3	0.31462583
15	0x3f194c88	0.598824
16	0xbe9615de	-0.29313558
17	0xbf1f949b	-0.6233613
18	0x3f184394	0.59478116
19	0xbd44f619	-0.04808626

gat_layer_2.out_att.W f4 [50, 5]
0	0x3eed1407	0.46304342
1	0xbe4c7ed1	-0.19970252
2	0xbe2422c0	-0.16028881
3	0xbe132a7b	-0.14371674
4	0xbeab9b07	-0.33516714
5	0x3e584e85	0.21123703
6	0xbd6cb65a	-0.05779109
7	0x3e9cd4f4	0.3063122
8	0x3eb9d85f	0.3629789
9	0x3e135f35	0.14391787
10	0xbde7e12e	-0.113222465
11	0x3ea2e00e	0.31811565
12	0xbe9c7f54	-0.30565894
13	0xbea71cdb	-0.32639202
14	0xbe9cb817	-0.306092
15	0x3c679d46	0.014136618
16	0xbe54574f	-0.2073643
17	0xbd99c7f8	-0.07508844
18	0xbe83e44e	-0.2576012
19	0xbe8e6120	-0.27808475
20	0x3e37d232	0.17951277
21	0xbd95dedf	-0.073179
22	0x3dcf1d67	0.1011303
23	0xbda06752	-0.07832207
24	0x3d838a43	0.06422856
25	0xbe655df1	-0.22399117
26	0xbe2ffab6	-0.17185482
27	0x3eba26b0	0.3635764
28	0x3d528f6a	0.0514063
29	0xbdfcf665	-0.123516835
30	0xbe094434	-0.13404924
31	0x3ec138da	0.37738687
32	0x3ebb0c0a	0.36532623
33	0x3e89400c	0.26806676
34	0x3e4e3985	0.2013913
35	0xbe12effd	-0.14349361
36	0xbe99b23c	-0.30018795
37	0xbe5f8cbf	-0.21831034
38	0x3dce4c44	0.1007314
39	0x3e8c7ea5	0.27440372
40	0xbdd59116	-0.104280636
41	0xbeb56fa8	-0.3543675
42	0xbc941d9b	-0.018080523
43	0xbeb5b159	-0.35486868
44	0x3da96d71	0.082728274
45	0x3e2076c0	0.156703
46	0x3ec8e041	0.39233592
47	0xbde1cca9	-0.11025364
48	0x3edc1e9f	0.42992112
49	0x3ed765aa	0.4206975
50	0xbd8ab527	-0.06772833
51	0xbe2479bf	-0.16062067
52	0xbe3654a6	-0.17805728
53	0xbea948c2	-0.33063322
54	0xbe9afecb	-0.30272517
55	0xbe3dfa84	-0.18552595
56	0x3cf60175	0.030029992
57	0x3af49566	0.0018660247
58	0xbe7d74d6	-0.247516
59	0x3ea7348d	0.3265728
60	0x3de97f63	0.1140125
61	0xbe579c54	-0.21055728
62	0xbed3d372	-0.41372257
63	0x3eafeefa	0.34362012
64	0xbe9c363d	-0.3051013
65	0xbece670c	-0.40312994
66	0x3edee62f	0.4353499
67	0x3ead2a11	0.33821157
68	0xbdc2a474	-0.09504023
69	0x3e072cff	0.13200758
70	0xbe801a74	-0.25020182
71	0x3eda662e	0.42656082
72	0xbc5cd2b1	-0.013477967
73	0xbe4b4b5e	-0.19852969
74	0xbd962796	-0.07331769
75	0xbecbfd78	-0.3984182
76	0x3da746c2	0.08167793
77	0x3e451587	0.19246493
78	0xbe75d584	-0.24007231
79	0xbe067d0d	-0.1313364
80	0xbeb1e2bd	-0.347433
81	0x3dcb3309	0.099218436
82	0xbc9eeb23	-0.019399231
83	0x3e8eb9e5	0.278762
84	0xbd73966c	-0.059469625
85	0xbd205a5a	-0.039148666
86	0xbda404c4	-0.080087215
87	0xbec950e1	-0.39319518
88	0xbd27d58f	-0.04097515
89	0xbe944c06	-0.2896425
90	0xbcdb1b99	-0.026746558
91	0xbe990a28	-0.2989056
92	0xbd8ab345	-0.06772474
93	0xbe605412	-0.2190707
94	0xbef55fb6	-0.47924584
95	0x3e688161	0.22705604
96	0x3e5b1117	0.21393238
97	0x3eba5663	0.36394033
98	0x3dfc79c7	0.12327915
99	0x3e1fd179	0.15607251
100	0xbecc1de3	-0.39866552
101	0xbeb4bad5	-0.35298792
102	0xbd898d68	-0.06716424
103	0xbe20db02	-0.15708545
104	0xbe60358e	-0.2189543
105	0xbec50f19	-0.3848808
106	0xbe031933	-0.12802581
107	0xbed7972c	-0.42107522
108	0x3e79e256	0.24402747
109	0xbecdee53	-0.4022089
110	0xbee8c84a	-0.45465308
111	0xbe3daea3	-0.1852365
112	0xbd94092e	-0.072283134
113	0x3e9ef0a4	0.3104297
114	0x3eb10ef3	0.34581718
115	0x3df6474a	0.12025316
116	0x3e620446	0.22071943
117	0x3e680a94	0.22660285
118	0x3e3f8389	0.1870252
119	0xbe20f350	-0.15717816
120	0xbed0f31c	-0.40810478
121	0xbeac9720	-0.3370905
122	0x3e213b04	0.15745169
123	0x3e95356f	0.2914233
124	0x3e955473	0.29165992
125	0x3cfd269a	0.030902196
126	0x3ead9df8	0.33909583
127	0xbeac5def	-0.33665416
128	0x3eafbecd	0.34325257
129	0xbeb33ef9	-0.35008982
130	0xbe1b9373	-0.15192966
131	0x3e5c6fe8	0.21527064
132	0x3ed3b178	0.41346335
133	0xbeac3c6b	-0.33639845
134	0x3d3ff727	0.046866562
135	0xbe8021ff	-0.25025937
136	0xbe3b43a8	-0.18287528
137	0xbe7014bf	-0.23445414
138	0x3d012c57	0.031536426
139	0xbe7c164b	-0.24617879
140	0xbdf00724	-0.11720112
141	0xbe8e5798	-0.27801204
142	0xbceb78da	-0.02874415
143	0xbece297d	-0.40266028
144	0xbd7981a9	-0.06091467
145	0xbedd675e	-0.43242925
146	0x3eea0c80	0.45712662
147	0xbe3f7128	-0.1869551
148	0x3e936e0d	0.287949
149	0xbee0c6fa	-0.43901807
150	0x3ea68f4b	0.325312
151	0xbef42b25	-0.47689167
152	0x3e644f57	0.22295891
153	0xbc0e8d8f	-0.008700742
154	0x3e8906e2	0.26763064
155	0xbe1e2fee	-0.15447971
156	0xbe426e86	-0.18987474
157	0xbe12dfd6	-0.14343199
158	0xbd324771	-0.043525163
159	0xbe038a5a	-0.12845746
160	0x3de31764	0.11088446
161	0xbe6e1acf	-0.23252414
162	0xbcdfa295	-0.027299205
163	0xbe1085a0	-0.14113474
164	0x3eb60a5e	0.35554785
165	0xbe88ce6a	-0.2671998
166	0x3eba276b	0.363582
167	0x3eb355e1	0.35026458
168	0x3b69c1a5	0.00356684
169	0x3e9a8b5e	0.30184454
170	0x3e62e2e8	0.2215687
171	0xbd9b82b1	-0.07593287
172	0x3e535205	0.20636757
173	0x3ed91435	0.4239823
174	0x3ebe2f1c	0.37145317
175	0x3e234e7e	0.15947911
176	0xbe6fbe8f	-0.23412536
177	0xbe136769	-0.14394917
178	0x3eb625d4	0.35575736
179	0x3cd77cea	0.02630468
180	0x3e7d4fd6	0.24737486
181	0xbcfe35e5	-0.031031558
182	0xbe9fc913	-0.31208095
183	0xbe8c7bcd	-0.27438203
184	0x3e266000	0.16247559
185	0xbe98304d	-0.2972435
186	0x3ecc5fff	0.3991699
187	0xbeeb17d3	-0.45916614
188	0x3df3200e	0.11871348
189	0xbe6e8b95	-0.23295434
190	0xbebd1654	-0.36931098
191	0xbd054f3f	-0.032546278
192	0xbc8127f2	-0.015766118
193	0x3ecd70bf	0.4012508
194	0xbd252e5b	-0.04032741
195	0x3d2ead26	0.042645596
196	0x3e570e57	0.21001564
197	0xbd4b02ba	-0.049563147
198	0x3d26b981	0.040704254
199	0x3ef361ee	0.47535652
200	0xbee1d72a	-0.4410947
201	0x3e536903	0.20645528
202	0x3ea20ac0	0.31648827
203	0x3cce67cf	0.025195984
204	0x3e6f9737	0.23397528
205	0x3e3fc0a5	0.18725832
206	0x3e47c5c9	0.19509043
207	0xbd58da0e	-0.05294233
208	0xbec64326	-0.38723105
209	0x3ecfe366	0.4060318
210	0xbdc98b9a	-0.0984108
211	0xbe919e92	-0.28441292
212	0x3dcb6d45	0.09932951
213	0x3eb3b79f	0.3510103
214	0xbdd98386	-0.10620789
215	0x3e234f62	0.15948251
216	0x3e60ccee	0.21953174
217	0xbe6e8da6	-0.23296222
218	0x3c9c7234	0.019097425
219	0x3e96f6b7	0.29485103
220	0xbecb32ac	-0.39687097
221	0x3ed53e2c	0.41648996
222	0x3ea7658f	0.3269467
223	0xbedf756d	-0.43644276
224	0xbe0a4116	-0.13501391
225	0x3ec2f382	0.38076407
226	0x3eda6060	0.42651653
227	0xbe982d55	-0.29722086
228	0x3e82fd3a	0.25583822
229	0x3ed7f491	0.42178777
230	0xbedf3244	-0.43593037
231	0x3c56fe98	0.013122223
232	0x3d98f935	0.074694075
233	0xbeaeae9c	-0.3411759
234	0x3d6fe483	0.058567535
235	0xbe95c4a0	-0.29251575
236	0xbe9e1b0c	-0.3088001
237	0x3e9f19c4	0.31074345
238	0x3e5a48f0	0.21316886
239	0x3e0e2ac0	0.13883495
240	0xbe8bb93d	-0.27289763
241	0x3ca00f03	0.019538408
242	0x3edccac2	0.43123442
243	0xbd760b1f	-0.0600692
244	0xbee15e53	-0.44017276
245	0x3de39a91	0.111134656
246	0xbe305f81	-0.17223932
247	0xbe7ab56d	-0.24483271
248	0x3d31b96e	0.04338973
249	0xbea3299d	-0.31867686

gat_layer_2.out_att.a f4 [10, 1]
0	0x3dd4a831	0.103836425
1	0x3f612cd6	0.8795904
2	0xbdf73cbd	-0.12072132
3	0x3f3e723f	0.74393076
4	0x3ee0aaef	0.43880412
5	0x3eaf8c24	0.34286606
6	0x3d8f10ff	0.069856636
7	0x3f835b1f	1.0262183
8	0xbebbd7d5	-0.36688104
9	0xbf1d3794	-0.6141293
