tests/gat/encoder-checkpoint3.pt (torch, 20170 bytes, 36 tensors)

gat_layer_0.attention_0.W f4 [5, 10]
0	0xbeece0be	-0.46265215
1	0xbf50c816	-0.81555307
2	0x3ed07c6f	0.40719935
3	0xbea65f1f	-0.32494447
4	0xbdd7f1bc	-0.10544154
5	0x3eab560f	0.33464095
6	0x3f4ee1b2	0.80813134
7	0xbe0abb3c	-0.13547987
8	0x3f018544	0.5059397
9	0xbef5e671	-0.48027375
10	0xbe5e96a7	-0.21737157
11	0x3e16346a	0.14668432
12	0x3e8fde3a	0.28099233
13	0xbf5917ca	-0.84801924
14	0xbe4bac7b	-0.19890015
15	0x3de24584	0.11048415
16	0xbf284466	-0.6572937
17	0xbe136c84	-0.14396864
18	0xbecbbe79	-0.39793757
19	0x3d8c1e0c	0.068416685
20	0x3e01d51d	0.12678953
21	0x3ed3932e	0.41323227
22	0x3ec19d82	0.3781548
23	0x3ef02cd2	0.46909195
24	0xbd873fca	-0.06603964
25	0xbebfde58	-0.37474322
26	0x3ed3194e	0.41230243
27	0x3f42422a	0.7588221
28	0x3cc5382b	0.024074635
29	0xbdea6dfb	-0.11446758
30	0xbef1efb0	-0.4725318
31	0x3edcfbef	0.4316096
32	0x3d25e047	0.04049709
33	0xbf05cfaf	-0.52270025
34	0xbe820ca9	-0.25400284
35	0x3ec61dc2	0.38694578
36	0xbf65bd98	-0.8974242
37	0x3ea47e8f	0.32127807
38	0x3f478503	0.77937335
39	0xbf597825	-0.8494895
40	0x3f247473	0.6424019
41	0xbf45d032	-0.77270806
42	0x3e80ab07	0.25130484
43	0x3e965fa9	0.29369858
44	0xbe1a9951	-0.15097548
45	0x3f50574f	0.8138322
46	0xbd12236e	-0.03567832
47	0x3f3fe2cc	0.7495544
48	0x3ee48efd	0.4464034
49	0xbebcf3b9	-0.36904696

gat_layer_0.attention_0.a f4 [20, 1]
0	0xbe1332e8	-0.14374888
1	0xbe5a7fde	-0.2133784
2	0x3e2f9839	0.17147912
3	0x3f3d6844	0.7398722
4	0xbea34847	-0.3189108
5	0xbd87b344	-0.06625989
6	0x3f248c7e	0.64276874
7	0xbf021b86	-0.5082325
8	0xbdbd280b	-0.09236153
9	0x3f2699c6	0.6507839
10	0xbf02ffbb	-0.51171464
11	0xbf43a617	-0.7642531
12	0x3efc0b60	0.49227428
13	0xbe0ab4a1	-0.13545467
14	0xbe15e3b9	-0.1463765
15	0xbea6d41f	-0.3258371
16	0x3ea49bd1	0.32150128
17	0x3e2a5793	0.1663497
18	0x3da17f3b	0.078855954
19	0x3cd7e48e	0.0263541

gat_layer_0.attention_1.W f4 [5, 10]
0	0xbf52c6dd	-0.8233469
1	0xbcb8aa8c	-0.02254226
2	0xbd251dc8	-0.040311605
3	0xbc058000	-0.008148193
4	0xbdb3acee	-0.08773218
5	0xbe6308cc	-0.22171324
6	0xbf563634	-0.8367646
7	0x3f3cec4f	0.7379808
8	0xbf429a47	-0.7601666
9	0xbf332cda	-0.69990313
10	0x3eba6022	0.3640147
11	0xbf57c5aa	-0.84285986
12	0xbf3310d6	-0.69947565
13	0x3f336820	0.7008076
14	0x3f5eedc0	0.8708153
15	0xbec4566b	-0.38347182
16	0x3f3f0e75	0.74631435
17	0xbe976718	-0.29570842
18	0xbd345c37	-0.044033255
19	0x3e23da36	0.1600121
20	0x3d27b6bf	0.040945765
21	0x3f0983bf	0.53716654
22	0xbf0ba0b8	-0.5454211
23	0xbe9806a9	-0.2969258
24	0xbe42aec1	-0.19011976
25	0xbee02c9d	-0.43784037
26	0x3f457467	0.7713074
27	0x3de1f442	0.110329166
28	0xbf3981a2	-0.7246343
29	0xbee31c09	-0.44357327
30	0x3f053d1a	0.5204636
31	0x3df4865d	0.1193969
32	0x3ebdf814	0.3710333
33	0x3ec3dd52	0.38254791
34	0x3d569604	0.05238916
35	0x3f4572ce	0.77128303
36	0xbec5688a	-0.3855632
37	0x3f613b7f	0.8798141
38	0xbecbbb7a	-0.3979147
39	0xbd43431a	-0.047671415
40	0xbf19e6d2	-0.6011783
41	0xbea8e9c3	-0.32990846
42	0x3f53204a	0.82471144
43	0xbf2cd6c5	-0.6751521
44	0x3f170724	0.5899527
45	0x3f26d0cc	0.6516235
46	0xbf09dfd8	-0.53857183
47	0xbf032a4d	-0.5123642
48	0xbf4774cc	-0.7791259
49	0xbf247ef5	-0.6425622

gat_layer_0.attention_1.a f4 [20, 1]
0	0xbebda816	-0.37042302
1	0x3d9d2c02	0.076744094
2	0x3e9b1c17	0.30294868
3	0xbe7ae4e6	-0.2450138
4	0x3e81544b	0.25259623
5	0xbeb8b654	-0.36076605
6	0xbf0c70f2	-0.5485984
7	0xbeff59be	-0.49873155
8	0xbddbd880	-0.107346535
9	0xbe8b5eae	-0.27220672
10	0x3f0ba12c	0.54542804
11	0x3e343761	0.1759925
12	0xbe98dcad	-0.29855862
13	0xbea30c79	-0.31845453
14	0x3e3beadc	0.1835131
15	0x3e08466b	0.13308112
16	0xbeccbdfb	-0.39988694
17	0xbef244d7	-0.47318146
18	0x3f3029ae	0.688136
19	0x3cf20de3	0.029547637

gat_layer_0.attention_2.W f4 [5, 10]
0	0x3f548610	0.83017063
1	0xbee52f27	-0.44762537
2	0xbe06ee06	-0.13176736
3	0x3f47caf5	0.7804406
4	0x3f2ed2e5	0.6829055
5	0x3da360c4	0.07977441
6	0xbf19cccf	-0.6007814
7	0xbf092146	-0.53566396
8	0xbf1e8fd4	-0.61938214
9	0xbf093c73	-0.53607863
10	0x3e86c0f7	0.26319095
11	0xbf5dc3fd	-0.8662718
12	0xbf55cee1	-0.835188
13	0x3e2bcfa5	0.16778429
14	0xbe651403	-0.22370915
15	0xbeb9af04	-0.3626634
16	0xbf5c3fda	-0.8603493
17	0x3e8dd716	0.2770316
18	0xbda69cee	-0.08135401
19	0xbec86173	-0.39136848
20	0xbf081926	-0.53163373
21	0x3f37c1b7	0.7177996
22	0x3f39187a	0.72302973
23	0xbeb46785	-0.3523523
24	0x3eec7b3b	0.46187767
25	0x3e3c82dd	0.18409295
26	0xbf077c91	-0.5292445
27	0xbeec62ec	-0.4616922
28	0x3f5f92bd	0.8733328
29	0x3f2311e2	0.6369916
30	0xbf60c196	-0.8779539
31	0x3e992130	0.29908133
32	0x3f2268cd	0.63441163
33	0x3e783384	0.24238402
34	0xbf167c73	-0.58783644
35	0xbe653973	-0.22385196
36	0xbf31f6ab	-0.6951701
37	0xbea694a0	-0.32535267
38	0xbf00cf98	-0.5031676
39	0x3f0d4e22	0.55197346
40	0xbd932e79	-0.07186598
41	0xbe15f266	-0.14643249
42	0xbf2d990d	-0.6781166
43	0x3e3666bc	0.17812628
44	0x3d1f7c14	0.03893669
45	0xbea26328	-0.31716275
46	0xbf59c00b	-0.8505866
47	0xbf583762	-0.8445951
48	0xbe1b1e28	-0.15148222
49	0x3ea66eb9	0.3250635

gat_layer_0.attention_2.a f4 [20, 1]
0	0xbee8fd12	-0.45505577
1	0xbe951c27	-0.2912304
2	0xbebb5e3d	-0.36595336
3	0xbf1ed26e	-0.6203984
4	0xbf3a6190	-0.7280512
5	0x3f05eae8	0.52311563
6	0x3cb328c3	0.021870023
7	0x3f08b2d9	0.533979
8	0x3ee8f4a6	0.45499152
9	0x3f0fc556	0.56160486
10	0x3f3a0418	0.72662497
11	0xbf2ed9d8	-0.68301153
12	0xbf018065	-0.5058654
13	0x3e721921	0.23642398
14	0x3efeb0f0	0.49744368
15	0x3e8398a6	0.257024
16	0x3f277e68	0.65427256
17	0xbe92d4d7	-0.2867801
18	0xbf02cc7b	-0.5109326
19	0xbef95217	-0.48695442

gat_layer_0.attention_3.W f4 [5, 10]
0	0xbeadbd2c	-0.3393339
1	0xbdd54321	-0.104131944
2	0x3daf1a02	0.085498825
3	0x3ec83f8b	0.3911098
4	0xbe973e04	-0.29539502
5	0xbf481905	-0.78163177
6	0xbf22ebd3	-0.6364109
7	0x3f5e47f9	0.8682857
8	0xbd81332f	-0.063085906
9	0xbf034763	-0.512808
10	0xbf2fb08a	-0.6862875
11	0x3e219ab6	0.15781674
12	0x3dfa463e	0.12220429
13	0x3e118fcf	0.14215015
14	0xbed53c2c	-0.4164747
15	0xbf1021a9	-0.5630136
16	0xbf24f403	-0.6443483
17	0x3e3a4bec	0.18193024
18	0x3f11025c	0.56644225
19	0x3e25829a	0.16163102
20	0x3f1665d1	0.5874911
21	0x3f375815	0.7161878
22	0xbe8335ae	-0.25626892
23	0x3debea9b	0.11519357
24	0x3eb26dee	0.34849495
25	0xbf28bad9	-0.65910107
26	0x3edb4dc7	0.42832777
27	0xbf1b9c7d	-0.6078566
28	0xbf02c706	-0.51084936
29	0x3eb69e13	0.35667476
30	0xbddb80d2	-0.1071793
31	0xbc759336	-0.014988711
32	0xbf17e145	-0.5932811
33	0x3ef92153	0.48658237
34	0x3f2259fb	0.6341855
35	0xbf399e29	-0.7250696
36	0xbef1376f	-0.47112605
37	0xbf2ec001	-0.68261725
38	0x3f1f5685	0.62241393
39	0x3e413884	0.18869215
40	0x3f2f9fa9	0.68603
41	0x3ea70487	0.32620642
42	0xbf41a0f1	-0.756362
43	0x3ee7bd2a	0.45261508
44	0x3e0aa11b	0.1353802
45	0xbeb1bb66	-0.34713286
46	0xbf210906	-0.62904394
47	0x3e245c40	0.16050816
48	0x3f2f3f03	0.68455523
49	0xbf272991	-0.652978

gat_layer_0.attention_3.a f4 [20, 1]
0	0xbea8bf50	-0.3295846
1	0x3d245278	0.04011771
2	0x3efb28ad	0.4905447
3	0x3f3f08d0	0.7462282
4	0x3f27348d	0.6531456
5	0x3f2ad73e	0.66734684
6	0xbd1698c0	-0.036766768
7	0x3f3ebe90	0.74509525
8	0x3da2bfc4	0.07946733
9	0xbf051f96	-0.5200132
10	0xbe828035	-0.2548844
11	0xbf13f59f	-0.57796663
12	0xbd6c9f81	-0.057769302
13	0xbf2535ce	-0.64535224
14	0xbebedbc4	-0.37277043
15	0x3da37e73	0.07983103
16	0x3ef27db3	0.47361526
17	0x3c93e81e	0.018055018
18	0x3ee2e332	0.4431396
19	0x3dfcd77e	0.123457894

gat_layer_0.attention_4.W f4 [5, 10]
0	0xbe9d8078	-0.30762076
1	0xbf3e3fb2	-0.7431594
2	0x3f4be622	0.7964803
3	0x3eaf4e8a	0.34239608
4	0x3c83a6bf	0.016070722
5	0x3e97652d	0.29569378
6	0x3eeca637	0.46220562
7	0x3e717a0a	0.2358171
8	0xbeb1d111	-0.34729818
9	0xbf295629	-0.66147095
10	0xbdfe592d	-0.12419353
11	0xbeeb2dbb	-0.45933327
12	0xbf5c7da4	-0.8612921
13	0xbf14df99	-0.5815368
14	0x3ecd1257	0.40053055
15	0x3ef86252	0.48512512
16	0xbf277a2e	-0.65420806
17	0xbe8f35b6	-0.27970666
18	0x3eaf2148	0.3420508
19	0x3ede7027	0.4344494
20	0xbf304a93	-0.6886379
21	0x3f03f1a3	0.51540583
22	0xbea0a261	-0.31373885
23	0xbeea5443	-0.45767412
24	0xbf2c5f7b	-0.6733319
25	0x3e67a974	0.22623235
26	0x3dbab5d7	0.091167144
27	0x3ef48fb5	0.4776589
28	0xbe1f96c2	-0.15584853
29	0x3f27b187	0.6550526
30	0xbe546420	-0.2074132
31	0xbe8039ba	-0.25044042
32	0xbee7da1e	-0.45283598
33	0x3f13a295	0.57669955
34	0xbf63ab44	-0.88933206
35	0x3e43aa62	0.19107965
36	0xbf3a7dbf	-0.72848123
37	0xbef30e9d	-0.47472087
38	0xbf4b5108	-0.7942052
39	0x3f39984c	0.7249801
40	0xbf1e2799	-0.6177917
41	0x3f3fb422	0.74884236
42	0x3f144afc	0.5792692
43	0xbd88223f	-0.06647157
44	0xbe85faa6	-0.26167792
45	0x3f4b6a1b	0.7945878
46	0x3f4e4f07	0.80589336
47	0x3f4b7cb0	0.79487133
48	0xbf51c2ce	-0.81937873
49	0x3e252ba0	0.16129923

gat_layer_0.attention_4.a f4 [20, 1]
0	0x3cc7fc27	0.024412228
1	0xbee758e1	-0.45184997
2	0xbeef7888	-0.46771646
3	0xbedabbf5	-0.42721525
4	0xbe8f82eb	-0.2802957
5	0x3f0bb977	0.5457987
6	0x3ed9c9b7	0.4253671
7	0x3e261f1d	0.16222806
8	0xbee58b4d	-0.4483284
9	0x3ec66590	0.3874936
10	0x3f27d0c3	0.6555292
11	0x3f23d605	0.6399844
12	0xbe6bca79	-0.23026456
13	0x3f15e7b8	0.585567
14	0x3ec60f64	0.38683617
15	0x3f0374e5	0.5135024
16	0x3ed50817	0.41607735
17	0x3ef98ddc	0.48741043
18	0x3f0f9b9f	0.56096834
19	0xbf118eb4	-0.5685837

gat_layer_0.out_att.W f4 [50, 5]
0	0xbed05252	-0.40687805
1	0xbe8c1a99	-0.27364042
2	0x3cd6e41a	0.026231814
3	0xbe6df389	-0.23237433
4	0xbe7c985c	-0.24667495
5	0xbef206e0	-0.4727087
6	0x3d8ab0d4	0.067720085
7	0xbe8db954	-0.27680457
8	0x3e0c1e89	0.13683523
9	0xbe310dc8	-0.17290413
10	0x3e98e0d6	0.29859036
11	0xbeaf2a44	-0.34211934
12	0x3e4ec95d	0.20194001
13	0xbb0b0a8b	-0.0021216
14	0x3e88eac8	0.26741624
15	0xbd0e518f	-0.03474575
16	0xbe3b59e2	-0.18296006
17	0x3dd53378	0.104102075
18	0x3eb18c7d	0.34677497
19	0xbeb7cb57	-0.35897323
20	0x3ec5a022	0.38598734
21	0xbd473835	-0.048637588
22	0x3e0ba36b	0.13636558
23	0x3e6f33e8	0.23359644
24	0x3edca7a0	0.43096638
25	0xbea1b7a9	-0.31585434
26	0x3c977072	0.018486235
27	0x3eb5f81d	0.35540858
28	0x3e939a12	0.28828484
29	0xbe5df83d	-0.21676727
30	0x3ed15978	0.40888572
31	0x3e74ee9f	0.23919152
32	0xbea9517f	-0.3306999
33	0xbe9c0602	-0.30473334
34	0x3e43a8ae	0.19107315
35	0xbef33aa7	-0.47505686
36	0x3cd1d9f3	0.025616622
37	0x3e8d9607	0.27653524
38	0xbe858d53	-0.26084384
39	0x3ce68321	0.028138699
40	0x3e401dc8	0.1876136
41	0xbe82aa7f	-0.25520703
42	0xbd42462e	-0.04743021
43	0x3dc823c2	0.09772445
44	0x3cd01f70	0.025405616
45	0xbeba27e7	-0.36358568
46	0x3e6826c5	0.2267104
47	0xbe092b01	-0.13395311
48	0xbe96ab86	-0.29427737
49	0x3e81dd20	0.25364017
50	0xbe9cfdc6	-0.30662364
51	0x3e7c274f	0.2462437
52	0xbe405d5d	-0.18785615
53	0xbe8b8a99	-0.2725418
54	0xbdb9b771	-0.09068192
55	0xbe401260	-0.1875701
56	0x3e545ce8	0.20738566
57	0xbc5a563e	-0.013326226
58	0x3e65d90c	0.22446078
59	0xbe9ecf75	-0.31017652
60	0xbd1b02e8	-0.03784457
61	0x3ea0c80f	0.31402633
62	0xbecb3b66	-0.39693755
63	0x3ec82075	0.39087263
64	0x3ea3256e	0.31864494
65	0x3dd6cb44	0.104879886
66	0x3e5244e3	0.2053409
67	0xbe8cb076	-0.2747838
68	0x3e5fb20f	0.21845268
69	0x3ee83399	0.45351866
70	0x3c9f1fe3	0.019424384
71	0xbee9c400	-0.4565735
72	0x3e89325c	0.26796234
73	0xbeab63e2	-0.33474642
74	0x3eda31cd	0.4261612
75	0xbda17523	-0.0788367
76	0xbd914ef5	-0.07095138
77	0xbd4c4e89	-0.049879584
78	0x3eb69629	0.35661438
79	0xbee04420	-0.43801975
80	0xbe606ddf	-0.21916912
81	0x3e84ec07	0.25961325
82	0xbe21069f	-0.15725182
83	0x3ee48f1b	0.4464043
84	0x3ed48caf	0.41513583
85	0x3d7b2228	0.06131187
86	0xbe2f983a	-0.17147914
87	0x3e63cf3c	0.22247022
88	0xbd146a2f	-0.036234077
89	0x3e2f1350	0.17097211
90	0xbee1bf02	-0.4409104
91	0xbd384903	-0.044991504
92	0xbc7349e4	-0.01484916
93	0x3d8d35f2	0.06895055
94	0x3ec153c2	0.37759215
95	0x3e9cc5e9	0.30619743
96	0xbe907d60	-0.28220654
97	0xbe7479ad	-0.2387454
98	0x3ec45201	0.38343814
99	0x3e6e934b	0.23298375
100	0x3e3e5cbb	0.18590061
101	0xbeda4908	-0.42633843
102	0xbd92b39b	-0.07163163
103	0xbd55b8aa	-0.052178062
104	0x3ebd3538	0.36954665
105	0x3e9c8fff	0.3057861
106	0x3ea456e6	0.32097548
107	0xbcd72682	-0.02626348
108	0xbe5484f1	-0.20753838
109	0xbed56fdd	-0.41686907
110	0x3ec78022	0.38964945
111	0x3e948ea8	0.29015088
112	0xbe8195fe	-0.25309747
113	0xbe1a2824	-0.15054375
114	0x3e9fe192	0.31226784
115	0x3c3bd22d	0.011463684
116	0xbe16eb48	-0.1473819
117	0xbe3859d2	-0.18003014
118	0x3e3aa3f7	0.1822661
119	0xbe5b2850	-0.21402097
120	0x3e14709f	0.14496087
121	0xbed2c4e1	-0.41165832
122	0x3dcfb334	0.10141602
123	0x3dc41924	0.09575108
124	0xbd9cc914	-0.0765554
125	0x3d9332e9	0.07187445
126	0x3e19c5ff	0.15016936
127	0xbe914766	-0.28374785
128	0x3e9b71b1	0.30360177
129	0xbe736859	-0.23770274
130	0xbea15190	-0.3150754
131	0xbe84cf0a	-0.25939208
132	0x3ea4ea5f	0.3221006
133	0xbee98a0b	-0.4561313
134	0xbea6efa2	-0.326047
135	0x3eb19650	0.34684992
136	0xbd1a3123	-0.037644517
137	0xbed5abe7	-0.41732714
138	0x3ee67bfd	0.4501647
139	0xbeafb1cb	-0.34315333
140	0xbe6d96f1	-0.23202111
141	0xbdb2e387	-0.08734804
142	0x3e892024	0.26782334
143	0xbed38b86	-0.41317385
144	0x3e9ad9d3	0.30244312
145	0x3ed215ab	0.41032156
146	0xbe27cfea	-0.16387907
147	0x3e6029a1	0.2189088
148	0xbea74861	-0.32672408
149	0xbeb4d00e	-0.35314983
150	0x3bd23ce6	0.006415951
151	0x3ebe839b	0.37209782
152	0xbd8e2d1e	-0.06942199
153	0xbeca51ba	-0.39515477
154	0x3dd8d4bb	0.1058745
155	0x3e942a55	0.28938547
156	0xbe1e1098	-0.15436018
157	0xbee19fa1	-0.440671
158	0x3e7294b9	0.23689546
159	0x3e383107	0.17987452
160	0xbec5c820	-0.38629246
161	0x3e4e2be2	0.20133927
162	0xbebd07c2	-0.3691998
163	0x3e9cea44	0.3064748
164	0x3ed2b4cf	0.4115357
165	0xbed16c8a	-0.4090312
166	0x3e41cffa	0.18926993
167	0x3ed8aeee	0.4232096
168	0x3e232810	0.15933251
169	0x3eea3314	0.45742095
170	0xbe47e0e0	-0.19519377
171	0xbe6b554f	-0.22981761
172	0x3ee875a9	0.45402268
173	0x3eb0b187	0.34510443
174	0xbeb7bd7d	-0.35886756
175	0xbe1444f6	-0.14479432
176	0x3eceb978	0.40375876
177	0x3c1dd375	0.009632935
178	0x3ecd2b7c	0.40072238
179	0x3e0cc060	0.1374526
180	0x3e580201	0.21094514
181	0x3eb6a348	0.3567145
182	0x3e932e9f	0.28746507
183	0xbebe37ab	-0.37151846
184	0x3d8207a5	0.06349114
185	0xbeb1f2e7	-0.34755632
186	0x3e50fe64	0.20409542
187	0x3e845f71	0.25854066
188	0x3dfc1844	0.12309316
189	0xbe83c990	-0.25739717
190	0xbea94643	-0.33061418
191	0x3e950804	0.29107678
192	0x3d83919f	0.064242594
193	0xbe912e4b	-0.2835563
194	0xbec3cbe5	-0.38241497
195	0x3eb2b58d	0.34904137
196	0x3e657d79	0.22411145
197	0xbea52328	-0.32253385
198	0x3e1615ea	0.14656797
199	0x3d07cbe0	0.033153415
200	0xbe4b0f07	-0.19829951
201	0x3eb04fa7	0.3443577
202	0x3e987a8c	0.29780996
203	0xbdc0638f	-0.09393989
204	0xbe46a289	-0.1939794
205	0x3bb03a0a	0.0053780125
206	0x3ea8e790	0.32989168
207	0x3db17119	0.0866415
208	0x3e97010b	0.29492983
209	0xbe6ed150	-0.23322034
210	0x3de08946	0.10963683
211	0x3e80d038	0.25158858
212	0x3d285144	0.041093126
213	0xbd7fc510	-0.062443793
214	0x3e5c46db	0.21511404
215	0xbda4fed7	-0.08056419
216	0xbec5e412	-0.38650566
217	0x3ebbdac5	0.36690345
218	0xbe115e36	-0.14196095
219	0x3e8eaa29	0.27864197
220	0x3ed96f62	0.4246779
221	0x3ed38470	0.4131198
222	0x3d120831	0.035652343
223	0xbec58fae	-0.3858618
224	0x3da856f1	0.08219708
225	0xbe4bf01c	-0.19915813
226	0xbeadfbd0	-0.3398118
227	0x3cb5c06e	0.022186484
228	0xbe0ac421	-0.1355138
229	0x3e1eeab2	0.15519217
230	0xbdbaaae6	-0.091146275
231	0xbdae67d6	-0.08515899
232	0xbed7e86c	-0.4216951
233	0x3e817b7c	0.25289524
234	0xbeeba2a4	-0.46022522
235	0xbe244695	-0.1604255
236	0x3c2d6c67	0.010584927
237	0xbdc2f7de	-0.09519933
238	0x3eb84a1a	0.35994035
239	0xbe82730a	-0.25478393
240	0xbe5e974a	-0.217374
241	0xbee459f2	-0.44599873
242	0x3ec7e404	0.3904115
243	0xbe85d94a	-0.2614234
244	0x3ea63b18	0.3246696
245	0x3cfd67d1	0.030933293
246	0xbee062a0	-0.43825245
247	0x3ec32207	0.38111898
248	0xbee9da2a	-0.45674258
249	0xbe36f2db	-0.1786608

gat_layer_0.out_att.a f4 [10, 1]
0	0x3e14e21f	0.14539383
1	0x3f7eb6f7	0.9949793
2	0xbf29f7b3	-0.66393584
3	0xbeda1aef	-0.42598674
4	0xbede7387	-0.43447515
5	0xbf40df84	-0.7534106
6	0x3ed1ec48	0.4100058
7	0xbdda44db	-0.106576644
8	0xbf80db7f	-1.0066985
9	0xbf35403b	-0.7080113

gat_layer_1.attention_0.W f4 [5, 10]
0	0x3c2e7261	0.010647387
1	0xbe932547	-0.28739378
2	0x3f0e9401	0.55694586
3	0xbf52d08f	-0.82349485
4	0x3eee2f08	0.46520257
5	0xbe416d2f	-0.18889306
6	0x3eaacf6d	0.33361378
7	0xbcc6380e	-0.02419665
8	0xbf3b73ad	-0.7322338
9	0xbf0d80e5	-0.552748
10	0x3f349ed1	0.70554835
11	0xbf4abf57	-0.7919821
12	0xbedcaad2	-0.43099076
13	0xbd43ce3d	-0.047804106
14	0xbf53283f	-0.82483286
15	0xbd2063fa	-0.039157845
16	0xbf35d970	-0.7103491
17	0xbf398396	-0.7246641
18	0xbf232a00	-0.6373596
19	0x3f08b313	0.53398246
20	0x3ee5ede5	0.44908062
21	0xbf2b7568	-0.6697602
22	0x3f3e7abe	0.7440604
23	0xbe6089bb	-0.2192754
24	0x3f2c514e	0.6731156
25	0x3cf4a119	0.029861974
26	0xbef838f0	-0.4848094
27	0x3f629919	0.8851486
28	0x3e005265	0.12531431
29	0x3f49081e	0.7852801
30	0x3ddfd975	0.109301485
31	0xbf49e6fd	-0.78868085
32	0x3ec317f2	0.38104206
33	0xbdb6f56c	-0.08933529
34	0x3e625954	0.22104388
35	0x3f57c454	0.8428395
36	0xbf05d052	-0.52270997
37	0xbf2b3c41	-0.66888815
38	0xbe6583de	-0.22413585
39	0xbd3f04ac	-0.046635315
40	0xbe6fc077	-0.23413263
41	0x3f4143b3	0.75493926
42	0x3f575714	0.84117246
43	0x3f4690e3	0.7756483
44	0xbf568713	-0.83799857
45	0xbf1f97d1	-0.6234103
46	0x3f1d8787	0.61534923
47	0xbea98144	-0.33106434
48	0x3f06547d	0.5247267
49	0x3edea929	0.43488434

gat_layer_1.attention_0.a f4 [20, 1]
0	0x3e362438	0.17787254
1	0xbf03f4b6	-0.51545274
2	0xbe5d0045	-0.21582134
3	0xbec7c0df	-0.39014336
4	0x3f3fff8f	0.74999326
5	0xbf3ad883	-0.7298662
6	0xbea41aa8	-0.32051587
7	0xbf3849d6	-0.71987665
8	0x3f3a5d32	0.72798455
9	0xbf297b77	-0.6620402
10	0x3f3b1d50	0.730916
11	0xbe1d8476	-0.15382561
12	0xbe5831c9	-0.21112742
13	0xbe108994	-0.14114982
14	0x3f2eeca9	0.68329865
15	0x3e50dc0d	0.20396443
16	0x3eeb635c	0.45974243
17	0xbe5d1450	-0.2158978
18	0xbf37b003	-0.7175295
19	0xbe413dd4	-0.18871242

gat_layer_1.attention_1.W f4 [5, 10]
0	0x3f09684d	0.53674775
1	0xbc8aeea3	-0.016959494
2	0x3f027095	0.50953037
3	0x3efa0a9f	0.48836228
4	0xbee79604	-0.4523164
5	0xbe813691	-0.25236943
6	0x3cfb47f9	0.030673968
7	0x3d2c4aa8	0.042063385
8	0xbf168b6a	-0.5880648
9	0x3e2bedb8	0.16789901
10	0xbf5f2d06	-0.87178075
11	0x3dc8ef40	0.09811258
12	0xbf357e11	-0.7089549
13	0x3f58c6b8	0.8467822
14	0xbe710537	-0.23537146
15	0xbea48d27	-0.3213894
16	0x3e11dce0	0.14244413
17	0xbf4c453d	-0.7979315
18	0x3ee7048f	0.45120665
19	0x3ed26c86	0.41098422
20	0x3f053b53	0.52043647
21	0xbf24c8c8	-0.6436887
22	0xbf559ee1	-0.83445555
23	0xbeb3b930	-0.35102224
24	0xbe5bfd76	-0.21483406
25	0xbe3c13d7	-0.18366943
26	0x3f143319	0.5789047
27	0xbdea786b	-0.11448749
28	0xbf0d0b25	-0.5509513
29	0xbead4490	-0.33841372
30	0x3dc5fb48	0.09667069
31	0x3e953fd3	0.29150257
32	0xbf3adc1e	-0.7299212
33	0x3ed050d5	0.4068667
34	0xbe834bdb	-0.2564381
35	0x3eb1bf3d	0.34716216
36	0xbe0ea4d0	-0.13930058
37	0xbe7b7c2f	-0.24559091
38	0xbe627f99	-0.22118987
39	0x3e464376	0.19361672
40	0xbf383742	-0.71959317
41	0x3f0781c6	0.52932394
42	0xbef5ac06	-0.47982806
43	0xbeb6d6f3	-0.35710868
44	0x3e73dc4c	0.23814505
45	0x3de4ed10	0.111780286
46	0x3e183a6d	0.14866038
47	0xbf611b17	-0.8793196
48	0xbed9cd02	-0.4253922
49	0xbd5af7da	-0.053459026

gat_layer_1.attention_1.a f4 [20, 1]
0	0xbf0e50af	-0.55591863
1	0x3e0ffdb7	0.14061628
2	0xbe1baf19	-0.15203513
3	0xbec89956	-0.39179486
4	0x3e5c7347	0.2152835
5	0xbe0d1253	-0.13776521
6	0x3c171bde	0.009222953
7	0x3f3ea28d	0.7446678
8	0xbed022db	-0.40651593
9	0xbe8c41cc	-0.2739395
10	0x3f1d741f	0.6150531
11	0x3c684c6e	0.0141783785
12	0x3edbf5bd	0.4296092
13	0xbf298774	-0.6622231
14	0x3ab3beea	0.0013713513
15	0xbec14d60	-0.37754345
16	0xbea94b1e	-0.33065122
17	0x3f324542	0.6963693
18	0xbd6e7693	-0.05821855
19	0x3f225f0e	0.6342629

gat_layer_1.attention_2.W f4 [5, 10]
0	0xbdcdf0f8	-0.10055727
1	0xbf483f6f	-0.7822179
2	0xbeb70938	-0.3574922
3	0xbea17381	-0.31533435
4	0xbf5e1eee	-0.86765945
5	0xbe9dc16f	-0.3081164
6	0x3f3eb401	0.74493414
7	0xbe46957f	-0.19392966
8	0x3ea7ab85	0.32748047
9	0xbc826cac	-0.01592096
10	0x3eec6f5f	0.4617872
11	0xbf4d56ee	-0.8021077
12	0x3c59cc51	0.013293342
13	0x3f22337f	0.63359827
14	0x3f64fdce	0.89449775
15	0xbea446ac	-0.32085168
16	0xbed5e8da	-0.41779214
17	0xbe3ae4dd	-0.18251367
18	0xbf08e31a	-0.5347153
19	0x3ba75d51	0.0051075597
20	0x3df694b5	0.12040082
21	0x3ee58ba9	0.44833115
22	0xbf3580fe	-0.7089995
23	0x3f1a0d30	0.6017637
24	0x3ef4bdb5	0.47800985
25	0x3ed79346	0.42104548
26	0xbf4a81a0	-0.7910404
27	0x3e6d4bc9	0.23173441
28	0x3d557d9d	0.052121747
29	0x3e58b080	0.2116108
30	0x3de426d9	0.11140222
31	0xbcb78d18	-0.022406146
32	0x3e334699	0.175074
33	0x3e229ec5	0.15880878
34	0x3f276ccf	0.65400404
35	0xbe5c0b01	-0.21488573
36	0xbef472cf	-0.47743842
37	0xbe4b7a55	-0.19870885
38	0x3c39559f	0.011311918
39	0x3eb79162	0.35853106
40	0x3e5abbd4	0.21360713
41	0xbe93a6f9	-0.28838328
42	0xbf2b48a7	-0.66907734
43	0x3f4ef5a8	0.8084359
44	0x3f21a875	0.6314767
45	0xbe5255ff	-0.20540617
46	0x3eba749c	0.3641709
47	0xbb8f0c4f	-0.004365481
48	0x3e0f1b7d	0.1397533
49	0x3dceb5bf	0.10093259

gat_layer_1.attention_2.a f4 [20, 1]
0	0x3eca0860	0.39459515
1	0x3f0ede3d	0.5580786
2	0xbe9c5935	-0.3053681
3	0x3f17d978	0.59316206
4	0x3f1e4ca3	0.6183569
5	0xbf349bc6	-0.7055019
6	0xbecede55	-0.40404
7	0x3c6ec9c9	0.0145744765
8	0xbf31f4f9	-0.69514424
9	0x3e88694b	0.26642832
10	0x3f323746	0.6961559
11	0x3d29ce73	0.04145665
12	0xbc78e2f5	-0.0151908295
13	0xbe991f22	-0.29906565
14	0xbf309706	-0.68980443
15	0xbef49a3c	-0.4777392
16	0x3ea2b197	0.31776115
17	0xbd1e9f57	-0.038726177
18	0xbe1e16d6	-0.15438399
19	0xbe3f73fc	-0.18696588

gat_layer_1.attention_3.W f4 [5, 10]
0	0x3f10b180	0.56520844
1	0xbf629e5f	-0.88522905
2	0x3edb1af9	0.42794016
3	0xbf619cc5	-0.88129836
4	0x3f429158	0.76003027
5	0xbe43f7a0	-0.1913743
6	0xbf2312a0	-0.63700294
7	0xbf4f5b1a	-0.80998385
8	0x3f68eccc	0.90986323
9	0xbd945610	-0.072429776
10	0x3da84cb2	0.082177535
11	0xbef9f452	-0.48819214
12	0xbdfcc6b5	-0.12342588
13	0x3f30a4a7	0.6900124
14	0x3f12ba32	0.5731536
15	0x3f03e42e	0.5152005
16	0xbec09682	-0.37614828
17	0x3e84f9ec	0.25971925
18	0x3f33f31a	0.7029282
19	0x3f2ffc4d	0.68744355
20	0x3f2d5240	0.6770363
21	0x3ee3b759	0.4447582
22	0xbe1a06ec	-0.15041703
23	0xbf384d00	-0.7199249
24	0xbf25368b	-0.6453635
25	0x3f3ef5d0	0.7459383
26	0x3f2642ba	0.64945567
27	0x3d98dad2	0.07463612
28	0xbf2a5c54	-0.6654713
29	0x3da52d38	0.080652654
30	0xbe9bec26	-0.30453604
31	0xbf56a8f4	-0.8385155
32	0xbebde724	-0.3709041
33	0xbece9d81	-0.4035454
34	0x3f32ec0c	0.6989143
35	0xbe9c90f9	-0.30579355
36	0x3e688d73	0.22710209
37	0xbe9bfd66	-0.30466765
38	0x3eebda89	0.46065167
39	0xbf22c17e	-0.63576496
40	0xbf17df5e	-0.59325206
41	0x3f358e06	0.70919836
42	0xbf5745d3	-0.8409092
43	0xbef38d53	-0.4756876
44	0x3f26d37f	0.6516647
45	0x3f560d8c	0.8361442
46	0xbd79f89e	-0.061028115
47	0xbecf39a2	-0.40473658
48	0x3ef9cb52	0.48787934
49	0x3ec37996	0.381787

gat_layer_1.attention_3.a f4 [20, 1]
0	0xbf0708d0	-0.5274782
1	0xbe284961	-0.16434242
2	0xbee3e377	-0.4450948
3	0xbe511ebd	-0.20421882
4	0xbe8ecc32	-0.27890164
5	0x3f012dad	0.5046032
6	0x3cde26d7	0.02711813
7	0x3edc9cd2	0.43088394
8	0x3debfa4f	0.11522352
9	0xbe801345	-0.250147
10	0x3f083e56	0.5322012
11	0xbe44089b	-0.19143908
12	0xbecc86b3	-0.39946517
13	0x3f36a12e	0.7133969
14	0xbebc6ef4	-0.368034
15	0xbd76f925	-0.060296196
16	0x3efaf913	0.49018154
17	0x3f1adee1	0.60496336
18	0xbeb3b9aa	-0.35102588
19	0x3ee0094f	0.43757102

gat_layer_1.attention_4.W f4 [5, 10]
0	0x3f52f31b	0.824022
1	0x3edd5af8	0.43233466
2	0x3ee83c74	0.45358622
3	0x3da727a9	0.081618614
4	0x3e0f673b	0.14004223
5	0x3e01d6b0	0.12679553
6	0xbf08bda6	-0.5341438
7	0x3f2ccbfb	0.6749875
8	0xbf1f44a7	-0.6221413
9	0x3edcf94a	0.43158942
10	0xbec39bbb	-0.3820475
11	0xbf51054c	-0.8164871
12	0x3ef509bf	0.47858998
13	0x3f2c69b7	0.6734881
14	0x3f4dd104	0.8039706
15	0x3f331b33	0.6996338
16	0xbf1ca4f7	-0.61189216
17	0x3f2f2a4f	0.6842393
18	0xbf5c92cc	-0.86161494
19	0x3f0fb12b	0.5612971
20	0xbe059b6f	-0.13047574
21	0x3f57f7bf	0.84362406
22	0xbf4f490e	-0.8097085
23	0xbe5feb03	-0.21866994
24	0xbf4aacd1	-0.79169947
25	0xbf1d701b	-0.61499184
26	0xbf55fb93	-0.83586997
27	0x3e250cca	0.1611816
28	0xbefeb142	-0.49744612
29	0xbf29851d	-0.6621874
30	0xbf2a6fb8	-0.6657672
31	0xbf316a31	-0.6930266
32	0x3f11366a	0.56723654
33	0xbe73b50d	-0.23799534
34	0x3f4ca715	0.79942447
35	0x3f1d2db8	0.61397886
36	0x3f4f1e4a	0.8090559
37	0xbe8fe5ba	-0.28104955
38	0x3da23695	0.07920567
39	0xbe829650	-0.25505304
40	0xbef0db02	-0.4704209
41	0xbee8262b	-0.4534162
42	0x3f39aa6a	0.72525656
43	0x3f41a0c6	0.75635946
44	0x3f13c19c	0.577173
45	0xbf42ad95	-0.76046115
46	0xbd34b4c1	-0.044117693
47	0x3ef989cc	0.48737943
48	0x3f4df3fe	0.8045043
49	0x3ea2b594	0.31779158

gat_layer_1.attention_4.a f4 [20, 1]
0	0xbf3e1bc9	-0.74261147
1	0xbec42c30	-0.38314962
2	0xbed58947	-0.41706297
3	0x3d1a6438	0.037693232
4	0x3ec96b6c	0.3933977
5	0x3ea657c1	0.32488826
6	0x3ebc3916	0.36762303
7	0x3de7962f	0.11307942
8	0x3f41028d	0.7539452
9	0x3eed4b6e	0.4634661
10	0x3da9c15d	0.08288834
11	0x3e084c9a	0.13310471
12	0xbf14aec1	-0.58079153
13	0x3ece68b4	0.40314257
14	0xbf2845e5	-0.6573165
15	0x3f160bd8	0.5861182
16	0x3f0ce069	0.5502992
17	0xbe7209bd	-0.23636527
18	0xbe90a994	-0.28254378
19	0x3ed93065	0.42419735

gat_layer_1.out_att.W f4 [50, 5]
0	0x3e24a028	0.1607672
1	0x3cd59ae5	0.026074836
2	0x3ccbf916	0.024899047
3	0x3cabf4ab	0.02099069
4	0xbd06978d	-0.032859374
5	0x3ecf7c12	0.40524346
6	0x3ed61128	0.41809964
7	0xbda134f0	-0.07871425
8	0x3eb72e1e	0.35777372
9	0x3e2c2ad7	0.16813217
10	0x3dbd2b4b	0.09236773
11	0x3db40683	0.087903045
12	0xbeccfb32	-0.40035397
13	0x3e45e862	0.19326928
14	0x3e5a36b6	0.21309933
15	0x3ddd5e86	0.108090445
16	0x3d7c778a	0.06163744
17	0x3d8fbd97	0.07018583
18	0xbe530590	-0.2060759
19	0xbedd4068	-0.432132
20	0xbe0bb6eb	-0.13643996
21	0xbe09673d	-0.13418289
22	0xbe67f66e	-0.22652599
23	0x3ee4a082	0.44653708
24	0x3ecd93a8	0.40151715
25	0x3ea5c541	0.32377055
26	0x3dbee4fe	0.093210205
27	0x3e55dea4	0.20885712
28	0x3e40d399	0.18830718
29	0xbe864e99	-0.2623184
30	0xbed6100a	-0.41809112
31	0xbecc7892	-0.39935738
32	0x3e84a55a	0.25907403
33	0x3de1256f	0.10993468
34	0xbe86a4dd	-0.26297656
35	0xbecb71d8	-0.39735293
36	0xbe96659f	-0.29374406
37	0xbe036d64	-0.12834698
38	0x3d7f6fe4	0.062362567
39	0x3c453705	0.012037043
40	0x3ee86d94	0.453961
41	0x3e26d7e0	0.16293287
42	0xbe9ced84	-0.3064996
43	0x3e7d1fa5	0.24719103
44	0xbe4bc6dd	-0.19900079
45	0x3dc75ec9	0.09734876
46	0x3ee86a64	0.4539367
47	0x3e809a7e	0.25117868
48	0x3d49eb6d	0.049296785
49	0x3ed96e61	0.42467025
50	0xbe85d833	-0.2614151
51	0xbc721aad	-0.014776868
52	0xbd6ac5a2	-0.057317384
53	0xbebf74a8	-0.3739369
54	0xbd1f8275	-0.038942773
55	0xbec43761	-0.383235
56	0xbd34b058	-0.044113487
57	0x3a20e1ad	0.0006137144
58	0x3e2792f2	0.16364649
59	0xbeb97a80	-0.36226273
60	0x3eab4ed0	0.33458567
61	0xbe3ce3ad	-0.18446226
62	0xbe74418b	-0.23853128
63	0x3ea02c91	0.31284
64	0xbee06946	-0.43830317
65	0x3ece4c93	0.40292796
66	0x3eb8078b	0.35943255
67	0x3e108612	0.14113644
68	0x3ce35ed2	0.027755175
69	0x3ec765c4	0.3894483
70	0xbbcb84af	-0.0062108855
71	0xbbda603f	-0.0066643055
72	0x3cb61484	0.02222658
73	0x3e962db7	0.29331753
74	0x3e946ef8	0.28990912
75	0xbee77771	-0.45208314
76	0xbe3b892f	-0.1831405
77	0xbe30f812	-0.17282131
78	0xbebbbd2a	-0.36667758
79	0x3ee1e1a6	0.4411747
80	0xbe2c077c	-0.1679973
81	0x3dc53bc3	0.09630539
82	0x3da9ef94	0.08297649
83	0xbc905056	-0.017616432
84	0x3e5a8b7d	0.21342273
85	0xbd0cb7f0	-0.034355104
86	0xbea46806	-0.32110614
87	0x3e8dc25f	0.27687356
88	0x3dbe8bb9	0.09303994
89	0x3e183d85	0.14867218
90	0xbd83ae66	-0.06429748
91	0x3e19b804	0.15011603
92	0x39421c0e	0.00018511733
93	0x3e1bf567	0.15230332
94	0x3b5318c8	0.0032210816
95	0x3ed1acf4	0.40952265
96	0x3ed05fc4	0.40698063
97	0xbe1badb1	-0.15202977
98	0xbe901210	-0.2813878
99	0x3e15583d	0.14584441
100	0x3e735bc7	0.23765479
101	0x3dfbd26f	0.122959964
102	0xbec08544	-0.37601674
103	0x3d3eb3ac	0.046558067
104	0xbecd0854	-0.40045416
105	0x3c221dfc	0.009894844
106	0x3d6c347b	0.057667237
107	0x3e8fe9be	0.2810802
108	0xbcdff97e	-0.027340647
109	0xbea9fc41	-0.33200267
110	0xbec45baa	-0.38351184
111	0x3eab7788	0.33489633
112	0x3ebc3c8d	0.36764947
113	0x3ed87b29	0.42281464
114	0xbe67f0bd	-0.22650428
115	0xbee67e99	-0.4501846
116	0x3e0f5971	0.13998963
117	0x3e15c447	0.14625655
118	0x3e5a5c0a	0.21324173
119	0xbeb2d94d	-0.34931412
120	0xbe8bc50a	-0.27298766
121	0x3e6f5c3d	0.2337503
122	0x3eb1ba2b	0.34712347
123	0x3eefce8a	0.46837264
124	0xbe8f4eeb	-0.27989897
125	0x3de9341d	0.11386893
126	0x3e20b9f7	0.1569594
127	0xbde881a0	-0.11352849
128	0xbebd0fa6	-0.36926
129	0xbedc1f0d	-0.4299244
130	0xbecffbbd	-0.4062175
131	0x3e01a465	0.12660368
132	0x3b4e7121	0.0031500536
133	0x3e942a2f	0.28938434
134	0x3e36fc28	0.17869627
135	0x3e84ca43	0.25935563
136	0x3e141b77	0.14463602
137	0xbe726a03	-0.23673253
138	0x3edcb088	0.43103433
139	0xbedb5572	-0.42838627
140	0x3dccd5ec	0.1000174
141	0xbd9e39e0	-0.077258825
142	0x3e6b0a81	0.22953226
143	0x3ecd3596	0.40079945
144	0xbe071b3e	-0.13193986
145	0xbe228947	-0.1587268
146	0xbe51cea4	-0.20488983
147	0xbee14eb4	-0.44005358
148	0x3da0a47e	0.078438744
149	0x3e857d93	0.26072368
150	0xbecb8e4b	-0.39756998
151	0xbdccefc6	-0.10006671
152	0x3d37ac09	0.0448418
153	0x3ce2f7f4	0.027706124
154	0xbee91cf2	-0.45529896
155	0x3ea9a6e6	0.33135146
156	0x3e81096a	0.25202495
157	0xbeac089c	-0.33600318
158	0xbe98a666	-0.29814452
159	0xbd11f6ff	-0.035635944
160	0xbe607f4a	-0.21923557
161	0xbe60e11a	-0.2196087
162	0x3eabe548	0.33573365
163	0xbed89a0a	-0.42305022
164	0x3e4a6df5	0.19768508
165	0xbed56464	-0.41678154
166	0xbeb08f75	-0.3448445
167	0x3e977c3e	0.29586977
168	0xbdd6849b	-0.10474511
169	0x3c971d25	0.018446514
170	0x3edc021d	0.42970362
171	0x3e5194f4	0.20466977
172	0xbe0aa110	-0.13538003
173	0x3ec24432	0.37942654
174	0xbed83117	-0.42224953
175	0x3e59da5f	0.21274708
176	0xbdd95b9c	-0.10613176
177	0xbe9f2192	-0.310803
178	0x3d3f262d	0.046667267
179	0x3eae7a15	0.34077516
180	0xbdbf7fcd	-0.09350548
181	0x3ceb48ae	0.02872118
182	0x3df48ab7	0.1194052
183	0xbe8c4d94	-0.27402937
184	0x3ed92264	0.4240905
185	0xbecd62d5	-0.40114465
186	0x3eab39a6	0.3344242
187	0x3e3303a5	0.17481859
188	0xbd3db7d0	-0.046317875
189	0x3e8861c5	0.26637092
190	0xbe5a0bb3	-0.21293525
191	0xbe7aea92	-0.24503544
192	0xbdf08268	-0.11743623
193	0xbd018698	-0.0316225
194	0x3ebe8c12	0.3721624
195	0x3ec31c6e	0.38107628
196	0xbf0ad022	-0.54223835
197	0xbdd2be15	-0.102901615
198	0x3ed3edc5	0.4139234
199	0xbeaf1b5c	-0.3420056
200	0xbd3b5ac8	-0.045740873
201	0xbd3d451b	-0.046208482
202	0x3e441d42	0.19151786
203	0x3df3f9f6	0.11912911
204	0x3ed9cb49	0.42537907
205	0xbc32e183	-0.010918024
206	0xbe8d1ef7	-0.27562687
207	0x3d8cc384	0.06873229
208	0xbea7b94b	-0.32758555
209	0x3ca7d6c7	0.020488156
210	0xbec2d7ce	-0.3805527
211	0xbea8b90c	-0.3295368
212	0xbecd1ef2	-0.40062672
213	0xbd077ab5	-0.033076007
214	0x3e2afb5f	0.16697453
215	0xbec8ba24	-0.39204514
216	0x3ea541c4	0.32276738
217	0xbe355a14	-0.17710143
218	0x3e82e7a6	0.2556736
219	0xbdd5dcc9	-0.10442502
220	0xbe098283	-0.13428693
221	0xbde2f7d8	-0.11082429
222	0x3ea7f956	0.32807416
223	0x3ea28256	0.31740063
224	0x3e7fdf0f	0.24987434
225	0xbe87cb67	-0.2652237
226	0xbeae8890	-0.34088564
227	0x3a319016	0.00067734846
228	0xbea43d17	-0.32077858
229	0x3dd96864	0.10615614
230	0xbed7cee5	-0.42150036
231	0x3df6678d	0.120314695
232	0xbea3c9f9	-0.3199003
233	0xbea51d31	-0.32248834
234	0xbe916e3c	-0.28404415
235	0x3e2380ab	0.15967052
236	0x3ec33015	0.3812262
237	0x3e1049ae	0.14090607
238	0xbed2ac4f	-0.41147086
239	0x3e46739f	0.19380043
240	0x3de07f03	0.109617256
241	0x3e1ba43c	0.15199369
242	0xbe90981c	-0.2824105
243	0x3ec3d48c	0.38248098
244	0x3ed438f6	0.41449708
245	0xbea9736e	-0.33095878
246	0xbdcb6207	-0.099308066
247	0xbee27f9b	-0.4423798
248	0x3e5ce704	0.215725
249	0xbe1bb377	-0.15205179

gat_layer_1.out_att.a f4 [10, 1]
0	0x3f17f054	0.59351087
1	0xbf35bb03	-0.7098848
2	0xbebace09	-0.36485317
3	0xbf851d80	-1.0399628
4	0xbe9d5573	-0.30729255
5	0xbedda243	-0.43287858
6	0x3e05d7d8	0.13070619
7	0x3f676c00	0.9039917
8	0xbf18c4ef	-0.59675497
9	0xbe7c2b64	-0.24625927

gat_layer_2.attention_0.W f4 [5, 10]
0	0x3c203581	0.009778381
1	0xbef45745	-0.4772283
2	0xbdba30e1	-0.09091354
3	0x3cc294f2	0.023752663
4	0xbb013e12	-0.0019720835
5	0xbe9011a8	-0.2813847
6	0xbece547c	-0.4029883
7	0xbe827f7c	-0.25487888
8	0x3e845293	0.2584425
9	0xbf24ffaf	-0.6445264
10	0x3f45bcbf	0.7724113
11	0x3f29875a	0.66222155
12	0x3f0b0499	0.5430389
13	0xbf1c03d6	-0.60943353
14	0xbe17c637	-0.14821707
15	0x3ea70a3b	0.32624993
16	0x3d0713bf	0.032977816
17	0xbda853b0	-0.08219087
18	0x3e3fbbda	0.18724003
19	0xbf18473e	-0.59483707
20	0xbe2f1c52	-0.17100647
21	0x3f19b5cd	0.6004303
22	0xbf60c4b6	-0.8780016
23	0xbf02fce0	-0.51167107
24	0x3e7569af	0.23966096
25	0x3f00ffc6	0.5039028
26	0x3ee7e9a5	0.45295444
27	0xbf40abf7	-0.752624
28	0x3e0fc3c6	0.14039525
29	0xbdf97b4f	-0.121817224
30	0x3e7e86ef	0.2485616
31	0x3ef6f3fd	0.48233023
32	0x3f30b487	0.6902546
33	0x3f281b9d	0.65667135
34	0xbf008005	-0.5019534
35	0xbf4ab81e	-0.7918719
36	0xbea892ac	-0.32924402
37	0x3f0ef15f	0.55837053
38	0xbf4a5961	-0.7904263
39	0x3e20c81e	0.15701339
40	0xbf5f8ab0	-0.87320995
41	0xbe91889b	-0.28424534
42	0xbe4c24d5	-0.19935925
43	0xb98c9356	-0.00026812655
44	0x3f3d8a52	0.74039185
45	0xbefe4ed6	-0.49669522
46	0xbdb49844	-0.08818105
47	0xbf4cde39	-0.80026585
48	0xbf52c66f	-0.82334036
49	0x3f31e099	0.69483334

gat_layer_2.attention_0.a f4 [20, 1]
0	0xbed2d701	-0.4117966
1	0x3f1e46af	0.61826605
2	0xbe1c95d8	-0.15291536
3	0xbf3c5a9a	-0.73575747
4	0xbe2ade84	-0.16686445
5	0x3f32207b	0.6958081
6	0x3eaf46d6	0.3423373
7	0xbdbae33d	-0.091253735
8	0x3af19772	0.0018431975
9	0xbf33d1f6	-0.7024225
10	0xbe00aae2	-0.12565187
11	0xbe818781	-0.25298694
12	0xbe18d891	-0.14926364
13	0x3f0aea08	0.54263353
14	0xbd35647b	-0.04428528
15	0x3f399101	0.72486883
16	0xbf160e99	-0.58616024
17	0xbebac21c	-0.3647622
18	0x3eea17af	0.45721194
19	0xbee77153	-0.45203647

gat_layer_2.attention_1.W f4 [5, 10]
0	0x3ec2b0e1	0.38025573
1	0x3dcf5785	0.10124115
2	0x3f3fca82	0.7491838
3	0x3f1ef9b3	0.6209976
4	0x3e9591a0	0.29212666
5	0x3e48c2eb	0.19605605
6	0x3ec2cdf9	0.3804777
7	0xbf3820bb	-0.7192494
8	0x3e107195	0.14105828
9	0x3ee291af	0.44251773
10	0xbdd53b80	-0.10411739
11	0xbf571686	-0.84018743
12	0xbf16c414	-0.5889294
13	0xbeaa3ad5	-0.3324801
14	0xbe89b1ba	-0.26893407
15	0x3ee92b0f	0.45540664
16	0x3f544f9e	0.82933986
17	0x3ef57aa0	0.47945118
18	0xbe9ce5de	-0.30644125
19	0x3e8ab92a	0.27094394
20	0x3f0de4a7	0.5542702
21	0xbedd47c8	-0.43218827
22	0x3f3e7fb3	0.74413604
23	0x3f5e1321	0.8674794
24	0xbdc3516e	-0.09537016
25	0xbe8c7e00	-0.2743988
26	0x3f4e1de5	0.80514365
27	0x3f2eeb98	0.6832824
28	0xbe96bf22	-0.29442698
29	0x3f6c11ac	0.92214465
30	0xbe98c9fb	-0.298416
31	0xbec08dc8	-0.3760817
32	0xbeb15a5f	-0.3463926
33	0x3f3d2bec	0.73895144
34	0x3f09b4f0	0.53791714
35	0xbd3653e4	-0.044513598
36	0xbf5f4d60	-0.8722744
37	0x3bba1b03	0.0056794896
38	0xbf64617c	-0.8921125
39	0xbf282366	-0.65679014
40	0x3ebc09c7	0.3672621
41	0x3f1e4919	0.6183029
42	0x3f2aebdd	0.6676615
43	0xbeb9d913	-0.36298427
44	0xbf0d6f60	-0.5524807
45	0xbea4b0ab	-0.32166037
46	0x3e02caa2	0.12772611
47	0xbe63a990	-0.22232652
48	0xbc36c3cf	-0.011155083
49	0xbf49ab4e	-0.78777015

gat_layer_2.attention_1.a f4 [20, 1]
0	0xbf26009f	-0.648447
1	0x3f0b14bd	0.5432852
2	0xbe3efcd5	-0.18651135
3	0x3ddb64c8	0.10712582
4	0xbf346828	-0.7047143
5	0xbf0aca61	-0.54215056
6	0x3f1cde89	0.6127706
7	0x3e9ecc8d	0.31015435
8	0x3e732b98	0.23747098
9	0xbe04341f	-0.12910508
10	0x3d81363e	0.06309174
11	0xbef6783c	-0.48138607
12	0x3e4c4121	0.1994672
13	0x3e3a31e0	0.18183088
14	0x3ee00021	0.43750098
15	0xbeb99df4	-0.3625332
16	0x3dd4da95	0.10393254
17	0xbe9102b0	-0.28322363
18	0xbecfa1b5	-0.4055306
19	0xbf3b2737	-0.7310671

gat_layer_2.attention_2.W f4 [5, 10]
0	0x3e9d4f24	0.30724442
1	0xbf39e1eb	-0.7261035
2	0xbe51854d	-0.20461006
3	0x3f31e85c	0.6949518
4	0x3d27de62	0.040983565
5	0xbd0b8907	-0.034066226
6	0xbda37525	-0.07981328
7	0x3dbade19	0.09124393
8	0x3d37e096	0.044891916
9	0x3f1d9b9e	0.6156558
10	0x3e9ff416	0.3124091
11	0xbefc5a7d	-0.49287787
12	0x3f2c28f0	0.67249966
13	0xbf3c33ef	-0.73516744
14	0x3e2ec463	0.17067103
15	0x3e2dba7f	0.16965674
16	0xbf1a072b	-0.6016719
17	0xbe6dd2ac	-0.23224896
18	0x3cce410a	0.025177497
19	0xbf3ad86d	-0.7298649
20	0xbe615a6e	-0.22007152
21	0x3f222394	0.6333554
22	0xbf276c83	-0.6539995
23	0x3e8e9682	0.27849203
24	0xbf16efce	-0.5895966
25	0x3e0b5052	0.13604859
26	0x3e5856db	0.21126883
27	0x3e5ae32c	0.21375722
28	0xbde58cb6	-0.11208479
29	0x3f4d9ba6	0.80315626
30	0x3ec981a8	0.39356732
31	0x3f0c2087	0.5473713
32	0xbe250010	-0.16113305
33	0x3e811340	0.2521
34	0xbf0f60c6	-0.5600704
35	0xbe09d264	-0.13459164
36	0xbf42ae98	-0.7604766
37	0xbf109b64	-0.5648711
38	0x3e8673f3	0.26260337
39	0xbed9e270	-0.4255557
40	0xbe5e858c	-0.21730632
41	0xbf01e338	-0.50737333
42	0xbee93159	-0.45545462
43	0x3f05e41c	0.5230119
44	0x3f553e75	0.83298427
45	0xbebcccd2	-0.36875015
46	0xbea3095d	-0.3184308
47	0x3f2b788a	0.66980803
48	0x3e4a87f7	0.19778429
49	0x3f63782a	0.8885523

gat_layer_2.attention_2.a f4 [20, 1]
0	0xbe8e6dff	-0.27818295
1	0xbf3c9b5c	-0.7367456
2	0x3e6d6d59	0.23186244
3	0x3f254840	0.6456337
4	0xbf1b7c96	-0.6073698
5	0x3f44b52e	0.7683896
6	0xbf278edc	-0.6545236
7	0xbf0dccf7	-0.55390877
8	0xbe0beb66	-0.13664016
9	0xbe878e10	-0.26475573
10	0x3f1dd7c8	0.6165738
11	0x3ea163c4	0.31521428
12	0x3f1daf29	0.615954
13	0xbe698d5a	-0.22807828
14	0x3e06e68b	0.13173883
15	0x3e656a0e	0.22403738
16	0xbd068305	-0.032839794
17	0xbce9a254	-0.028519787
18	0xbec28df0	-0.37998915
19	0xbefaeb74	-0.4900776

gat_layer_2.attention_3.W f4 [5, 10]
0	0xbf597bd2	-0.8495456
1	0x3f2a5973	0.6654274
2	0xbeb41370	-0.3517108
3	0x3f3c0e99	0.73459774
4	0xbee01397	-0.43764946
5	0x3f63193d	0.88710386
6	0x3c5c3b9d	0.013441947
7	0x3f374c37	0.7160067
8	0x3e4be6e1	0.19912292
9	0x3e95de38	0.29271102
10	0x3f5e10b5	0.8674424
11	0x3f2c5128	0.67311335
12	0x3df41dda	0.11919756
13	0x3f3f6809	0.7476812
14	0x3e039eb9	0.12853517
15	0xbeb966ca	-0.36211234
16	0xbf4223f9	-0.7583614
17	0x3f3cfffe	0.73828113
18	0xbf01cc0b	-0.5070197
19	0x3ef930ad	0.4866995
20	0x3f48f443	0.78497714
21	0x3e9bec48	0.30453706
22	0xbe8da56a	-0.27665263
23	0xbf0908f2	-0.53529274
24	0x3f331649	0.6995588
25	0x3f06fc73	0.52728957
26	0x3da969e8	0.08272153
27	0xbef26eff	-0.47350308
28	0xbf39a1eb	-0.7251269
29	0x3eb05223	0.34437665
30	0x3b4468d6	0.0029969714
31	0xbf7007a4	-0.9376166
32	0x3f578f39	0.84202915
33	0x3e5469c4	0.20743471
34	0x3ed6253b	0.4182528
35	0xbf442c0d	-0.76629716
36	0xbdbeba2e	-0.09312855
37	0x3e90b5e4	0.28263772
38	0x3e4ade77	0.19811426
39	0xbe7d9c8f	-0.24766754
40	0x3f3e2f5b	0.7429101
41	0xbf707871	-0.9393378
42	0x3e872bb3	0.26400527
43	0x3f35fe50	0.71091175
44	0x3e10198b	0.14072244
45	0xbf112231	-0.56692797
46	0xbf3da879	-0.74085194
47	0x3e12ddd2	0.1434243
48	0x3ec2c0bd	0.38037673
49	0x3ee4d81e	0.44696134

gat_layer_2.attention_3.a f4 [20, 1]
0	0x3f10c858	0.565557
1	0xbeac5490	-0.33658266
2	0xbf40680a	-0.7515875
3	0x3f18561f	0.5950641
4	0xbea32713	-0.3186575
5	0x3dd58918	0.10426539
6	0x3ed0671d	0.4070367
7	0xbf1219a4	-0.57070374
8	0xbe30cefc	-0.17266458
9	0x3dd9758e	0.10618125
10	0x3eb41010	0.35168505
11	0x3f18720f	0.5954904
12	0xbdf9fcad	-0.12206397
13	0x3eae6550	0.3406167
14	0xbe1732f0	-0.14765525
15	0xbe4dddb3	-0.20104103
16	0xbed04635	-0.40678564
17	0x3e9fe65d	0.3123044
18	0xbefdb85e	-0.49554724
19	0xbe82543f	-0.254549

gat_layer_2.attention_4.W f4 [5, 10]
0	0xbe2950b1	-0.16534688
1	0x3f081e02	0.5317079
2	0xbf2994d2	-0.66242707
3	0xbe0bcb59	-0.1365179
4	0xbe81ba86	-0.2533762
5	0x3eae179b	0.34002385
6	0xbf1fbc23	-0.6239645
7	0xbeb051cf	-0.34437415
8	0x3df971f4	0.12179938
9	0x3e9d9f9a	0.3078583
10	0x3f01701e	0.505617
11	0x3e6880a2	0.2270532
12	0x3e9080ad	0.28223172
13	0x3f26d8a9	0.6517435
14	0x3f56727a	0.8376843
15	0x3ef92bc2	0.48666197
16	0xbdf7299f	-0.120684855
17	0xbe933f9b	-0.28759465
18	0xbebe7851	-0.3720117
19	0xbe291551	-0.16512038
20	0xbf222c70	-0.63349056
21	0xbf5690cd	-0.838147
22	0xbf2cfe38	-0.6757541
23	0x3f52554e	0.82161415
24	0xbe3f189e	-0.18661734
25	0xbf2e0727	-0.67979664
26	0xbf3c2fb5	-0.73510295
27	0xbe33cf6d	-0.17559595
28	0x3e3a8276	0.1821383
29	0xbf1e7ed5	-0.6191228
30	0x3e7f9cb1	0.24962117
31	0x3f3380d1	0.70118433
32	0x3e911b3a	0.28341085
33	0xbf0a700b	-0.54077214
34	0xbf0f7fda	-0.5605446
35	0xbebca9cc	-0.36848295
36	0x3f463496	0.7742399
37	0x3e175d3d	0.14781661
38	0x3e89aebf	0.26891133
39	0xbf34c6d9	-0.7061592
40	0xbde74c70	-0.11293876
41	0xbeef4169	-0.4672959
42	0x3eb34e53	0.35020694
43	0x3f253201	0.64529425
44	0x3d264363	0.04059161
45	0xbf2655d9	-0.64974743
46	0xbd4b3f0e	-0.04962068
47	0x3f69b111	0.91285807
48	0xbe4d1922	-0.20029119
49	0xbf40c2c0	-0.75297165

gat_layer_2.attention_4.a f4 [20, 1]
0	0xbd78c4ba	-0.060734488
1	0x3e5bbcd3	0.2145875
2	0x3f3f8e9c	0.7482698
3	0xbf0cbd27	-0.54976124
4	0xbf2d1dd5	-0.67623645
5	0xbefa751e	-0.48917478
6	0xbf1cc01c	-0.61230636
7	0x3eb7117e	0.35755533
8	0xbe47a4be	-0.19496438
9	0xbd4b5b4c	-0.049647614
10	0xbea4acab	-0.32162985
11	0x3f107d6e	0.5644139
12	0xbeda375e	-0.42620367
13	0xbf337bbc	-0.7011068
14	0x3e9968f6	0.2996289
15	0x3f156c92	0.5836879
16	0xbe934416	-0.28762883
17	0xbf1c0892	-0.6095058
18	0x3f1c52a7	0.6106362
19	0xbd1f5515	-0.0388995

gat_layer_2.out_att.W f4 [50, 5]
0	0x3eebf846	0.46087855
1	0xbe566c7d	-0.20939822
2	0xbe2441e3	-0.16040759
3	0xbe16acb1	-0.14714314
4	0xbead7a4f	-0.33882377
5	0x3e599186	0.21246919
6	0xbd82b042	-0.06381275
7	0x3e9b046a	0.30276805
8	0x3eb30e7a	0.34971982
9	0x3e02dbe3	0.12779193
10	0xbde53d63	-0.11193349
11	0x3e9fb82e	0.31195205
12	0xbe9a338c	-0.30117452
13	0xbea91346	-0.33022517
14	0xbea216a2	-0.31657892
15	0x3c42730c	0.01186825
16	0xbe56772a	-0.20943895
17	0xbd9e952b	-0.07743295
18	0xbe8a08b5	-0.26959768
19	0xbe98a3ae	-0.29812378
20	0x3e3183b1	0.17335393
21	0xbda482f6	-0.08032791
22	0x3dc2fca7	0.09520846
23	0xbd9d703f	-0.07687425
24	0x3d771ef7	0.060332265
25	0xbe6e687c	-0.23282045
26	0xbe33680d	-0.17520161
27	0x3eae26e5	0.3401405
28	0x3d0626dd	0.032751907
29	0xbe0bb1d8	-0.13642061
30	0xbe116872	-0.14199999
31	0x3ebf9deb	0.3742517
32	0x3eb2fe9f	0.34959885
33	0x3e85b9a8	0.26118207
34	0x3e438ed7	0.19097458
35	0xbe19b5b3	-0.15010719
36	0xbe969c20	-0.2941599
37	0xbe6886c9	-0.22707666
38	0x3dafef31	0.08590544
39	0x3e862ff1	0.2620845
40	0xbdddf94e	-0.10838567
41	0xbeb86750	-0.3601632
42	0xbce7c765	-0.02829332
43	0xbebd9604	-0.37028515
44	0x3d855a6b	0.065113865
45	0x3e1d688f	0.15371917
46	0x3ec82b23	0.3909541
47	0xbde78d9f	-0.11306309
48	0x3ed86b66	0.42269439
49	0x3ed274d1	0.4110475
50	0xbd363125	-0.04448046
51	0xbe2763c4	-0.16346651
52	0xbe3ade5b	-0.18248884
53	0xbea88992	-0.32917458
54	0xbe8d620a	-0.2761386
55	0xbe465327	-0.19367658
56	0x3c9db94e	0.0192534
57	0xbc8a60fd	-0.01689195
58	0xbe80361c	-0.25041282
59	0x3ea1603a	0.31518728
60	0x3dea8a00	0.11452103
61	0xbe59bca8	-0.21263373
62	0xbed404d5	-0.41409937
63	0x3ead722c	0.3387617
64	0xbe99ffe2	-0.30078036
65	0xbec4cc70	-0.38437223
66	0x3edae179	0.42750147
67	0x3eadeaa9	0.33968094
68	0xbdbe4357	-0.09290188
69	0x3e1585a4	0.14601761
70	0xbe8038a3	-0.2504321
71	0x3ed5d085	0.4176065
72	0xbc42003d	-0.011840877
73	0xbe53241a	-0.2061924
74	0xbdc1d0af	-0.09463631
75	0xbecb13db	-0.39663586
76	0x3d8a30d4	0.067475945
77	0x3e524caa	0.20537058
78	0xbe822406	-0.2541811
79	0xbe074629	-0.13210358
80	0xbea9fd59	-0.332011
81	0x3de8cc9b	0.113671504
82	0xbd0f426b	-0.03497545
83	0x3e79c63b	0.24392025
84	0xbd0f40e8	-0.03497401
85	0xbd5a7760	-0.0533365
86	0xbdb218d8	-0.08696145
87	0xbed092af	-0.4073691
88	0xbd5fcd78	-0.05463931
89	0xbe99047d	-0.29886237
90	0xbd30ce33	-0.043165397
91	0xbe9aea2f	-0.30256793
92	0xbdc7abec	-0.09749588
93	0xbe67bc83	-0.22630505
94	0xbefbc906	-0.49176806
95	0x3e50c238	0.20386589
96	0x3e54ff4e	0.20800516
97	0x3ea7ac5a	0.3274868
98	0x3da6b1f7	0.08139413
99	0x3e173a17	0.14768253
100	0xbec67582	-0.38761526
101	0xbeb3fc8b	-0.35153612
102	0xbd6e0322	-0.058108456
103	0xbe14c134	-0.14526826
104	0xbe568b75	-0.20951636
105	0xbec1e377	-0.37868854
106	0xbe082220	-0.13294268
107	0xbed6b0b0	-0.41931677
108	0x3e595fbb	0.21227925
109	0xbed4cbd7	-0.41561767
110	0xbee83bd1	-0.45358136
111	0xbe3b26e3	-0.18276553
112	0xbd9a2e33	-0.07528343
113	0x3e961292	0.29311043
114	0x3ea6af9c	0.32555854
115	0x3df7d793	0.121016644
116	0x3e5e8951	0.2173207
117	0x3e697fcf	0.22802661
118	0x3e3e3762	0.18575814
119	0xbe1ca012	-0.15295437
120	0xbed25972	-0.41083866
121	0xbead862d	-0.3389143
122	0x3e1d7e13	0.15380125
123	0x3e935e8a	0.28783065
124	0x3e8997e5	0.268737
125	0x3ccdadda	0.025107313
126	0x3eaae638	0.33378768
127	0xbeb3f312	-0.35146385
128	0x3ea0c7f4	0.31402552
129	0xbebcc03e	-0.3686542
130	0xbe21d308	-0.15803158
131	0x3e56e423	0.20985465
132	0x3ecad52e	0.39615768
133	0xbeb5cb4b	-0.35506663
134	0x3cfbc6b0	0.03073439
135	0xbe81b334	-0.25332034
136	0xbe3df5ca	-0.18550792
137	0xbe76fa5c	-0.24118942
138	0x3cd07d2a	0.025450308
139	0xbe7e791c	-0.24850887
140	0xbde4d112	-0.111726895
141	0xbe8dd82c	-0.2770399
142	0xbc189ed9	-0.009315216
143	0xbec534f6	-0.38516968
144	0xbd0e6a18	-0.034769148
145	0xbedb1738	-0.42791152
146	0x3ee906ae	0.4551291
147	0xbe41166d	-0.18856211
148	0x3e91f1f0	0.28504896
149	0xbedf672c	-0.436334
150	0x3ea3722e	0.3192305
151	0xbef5f7ad	-0.48040524
152	0x3e4b1044	0.19830424
153	0xbb84401b	-0.0040359623
154	0x3e83a6fd	0.2571334
155	0xbe204552	-0.15651444
156	0xbe423efd	-0.1896934
157	0xbe14f1ed	-0.14545412
158	0xbd656157	-0.056001034
159	0xbe0a09b7	-0.13480268
160	0x3dddd2d5	0.10831229
161	0xbe69e08f	-0.22839569
162	0xbcde9c13	-0.027174031
163	0xbe1a1ba7	-0.15049611
164	0x3ead0b25	0.33797565
165	0xbe759017	-0.23980747
166	0x3ebe5e57	0.3718135
167	0x3ec59378	0.38589072
168	0x3c214ecd	0.009845448
169	0x3ea86f31	0.32897332
170	0x3e5fa654	0.21840793
171	0xbd9d787c	-0.07688996
172	0x3e4f41c5	0.20239933
173	0x3eccb10b	0.39978823
174	0x3eba5111	0.36389974
175	0x3e1dfb88	0.15427983
176	0xbe76b558	-0.24092615
177	0xbe16a8f6	-0.14712891
178	0x3eb09f52	0.34496552
179	0x3c9a5395	0.018838683
180	0x3e6e4774	0.23269445
181	0xbd194693	-0.03742082
182	0xbea4f3db	-0.32217297
183	0xbe94290b	-0.28937563
184	0x3e18db4e	0.14927408
185	0xbe97d624	-0.29655564
186	0x3ed001b3	0.40626296
187	0xbeeab931	-0.45844415
188	0x3df53c82	0.119744316
189	0xbe64b35d	-0.22334047
190	0xbebca816	-0.3684699
191	0xbce7140c	-0.028207801
192	0xbc9c2109	-0.019058721
193	0x3ec7fc3b	0.39059624
194	0xbd705c9b	-0.058682065
195	0x3d90ee7d	0.07076738
196	0x3e60259a	0.21889344
197	0xbca76663	-0.020434564
198	0x3c927191	0.017876418
199	0x3f00fff4	0.50390553
200	0xbee1cedd	-0.44103137
201	0x3e4ab4a2	0.19795468
202	0x3ea219b6	0.3166024
203	0x3cbb9b28	0.022901133
204	0x3e6a1bec	0.22862214
205	0x3e4003de	0.18751475
206	0x3e330cb2	0.17485312
207	0xbd58fd12	-0.05297572
208	0xbec6e326	-0.38845176
209	0x3ecb5c18	0.397187
210	0xbdd6a76a	-0.104811504
211	0xbe8f7ff0	-0.28027296
212	0x3dc03ed7	0.09386986
213	0x3ea3eba9	0.32015732
214	0xbdebcb68	-0.11513406
215	0x3e21bc0a	0.15794387
216	0x3e5ace1a	0.21367684
217	0xbe6c1450	-0.23054624
218	0x3c3359ac	0.010946672
219	0x3e9ff4d4	0.31241477
220	0xbecdcb31	-0.40194085
221	0x3ed3f039	0.41394213
222	0x3ea35ec2	0.31908232
223	0xbee2a6e6	-0.44267958
224	0xbe0dd85a	-0.13852063
225	0x3ec1f427	0.37881586
226	0x3ed2e82b	0.41192755
227	0xbe9884b3	-0.2978874
228	0x3e8008de	0.25006765
229	0x3ed3d563	0.4137374
230	0xbedef1d7	-0.43543884
231	0x3bb9e0f9	0.005672571
232	0x3d919f40	0.07110453
233	0xbeb3ef55	-0.35143533
234	0x3d4a2320	0.049349904
235	0xbe99c60f	-0.3003392
236	0xbe9f7f0f	-0.31151626
237	0x3e9c397d	0.3051261
238	0x3e570463	0.20997767
239	0x3def3cfc	0.11681554
240	0xbe8d2cac	-0.27573144
241	0x3c522126	0.012825286
242	0x3ed7851a	0.42093736
243	0xbdd2c939	-0.102922864
244	0xbef20a35	-0.47273412
245	0x3dce97e8	0.100875676
246	0xbe44d3f4	-0.19221479
247	0xbe7f1f5d	-0.24914308
248	0x3a0da401	0.00054031616
249	0xbea983ad	-0.33108273

gat_layer_2.out_att.a f4 [10, 1]
0	0x3dd718f1	0.10502804
1	0x3f5f473e	0.8721808
2	0xbdf7d6ff	-0.12101554
3	0x3f3f778c	0.7479179
4	0x3edfefd4	0.43737662
5	0x3eae5962	0.3405257
6	0x3d8b7db7	0.068110876
7	0x3f830f45	1.0239035
8	0xbebb4393	-0.36574993
9	0xbf203d3f	-0.62593454
