tests/gat/encoder-checkpoint13.pt (torch, 20210 bytes, 36 tensors)

gat_layer_0.attention_0.W f4 [5, 10]
0	0xbee96a62	-0.45588976
1	0xbf4fb8d6	-0.8114141
2	0x3ecfabc1	0.40560725
3	0xbea51067	-0.32239076
4	0xbdfa0dec	-0.12209687
5	0x3e9fd4b7	0.31216976
6	0x3f4dd8c9	0.8040891
7	0xbdf62f16	-0.120207
8	0x3f012e0c	0.50460887
9	0xbeefcf3c	-0.46837795
10	0xbe519cfb	-0.2047004
11	0x3e1d9da6	0.1539217
12	0x3e8e3caa	0.27780658
13	0xbf5a76fa	-0.85337794
14	0xbe53f725	-0.20699747
15	0x3dc7dbfd	0.09758756
16	0xbf2901d0	-0.6601839
17	0xbe07ba28	-0.13254607
18	0xbecc59eb	-0.39912352
19	0x3d988014	0.07446304
20	0x3e0efd35	0.13963778
21	0x3ed9ff64	0.4257766
22	0x3ebe6a8b	0.3719066
23	0x3ef56883	0.479313
24	0xbd9aeba4	-0.07564476
25	0xbec082df	-0.37599847
26	0x3ed0f720	0.4081354
27	0x3f431a2c	0.7621181
28	0x3cc046f2	0.02347133
29	0xbddddc20	-0.10833001
30	0xbeef23f4	-0.46707118
31	0x3edea28c	0.43483388
32	0x3d203d96	0.039121233
33	0xbf030db3	-0.5119278
34	0xbe86258a	-0.26200515
35	0x3ec5a860	0.38605022
36	0xbf66866e	-0.90048873
37	0x3ea0c550	0.31400537
38	0x3f47c8b8	0.7804065
39	0xbf59abb6	-0.85027635
40	0x3f2ccd9c	0.67501235
41	0xbf3b4e4f	-0.73166364
42	0x3e77b20b	0.24189012
43	0x3ea11868	0.31463933
44	0xbe1cdf76	-0.15319619
45	0x3f50a93c	0.8150823
46	0xbd26741f	-0.040638085
47	0x3f404641	0.751072
48	0x3ee40735	0.4453675
49	0xbebc2203	-0.367447

gat_layer_0.attention_0.a f4 [20, 1]
0	0xbdf0fd11	-0.117670186
1	0xbe6d46ea	-0.23171583
2	0x3e417a07	0.18894206
3	0x3f3eec57	0.74579376
4	0xbeac44e2	-0.33646303
5	0xbd41a37f	-0.047275063
6	0x3f20cde7	0.6281418
7	0xbef9d0de	-0.48792166
8	0xbd9bce7f	-0.076077454
9	0x3f229ba9	0.6351877
10	0xbf031087	-0.51197094
11	0xbf434fb9	-0.7629352
12	0x3efcc395	0.49367967
13	0xbe093f95	-0.13403161
14	0xbe177e63	-0.14794306
15	0xbea79d01	-0.32736972
16	0x3ea58829	0.32330444
17	0x3e2ba00b	0.1676027
18	0x3da190a9	0.0788892
19	0x3cd0920a	0.025460262

gat_layer_0.attention_1.W f4 [5, 10]
0	0xbf5171fa	-0.8181454
1	0xbc99ed95	-0.018790046
2	0xbd6bcb75	-0.05756708
3	0xbc558d6a	-0.013034204
4	0xbdb6dd47	-0.08928924
5	0xbe626cac	-0.22111768
6	0xbf5544fd	-0.8330839
7	0x3f3c38be	0.7352408
8	0xbf427989	-0.759667
9	0xbf35b79d	-0.70983297
10	0x3ebbd920	0.3668909
11	0xbf5721c0	-0.84035873
12	0xbf332e91	-0.6999293
13	0x3f37b09a	0.7175385
14	0x3f5d4ab4	0.8644211
15	0xbec843be	-0.39114183
16	0x3f407677	0.75180763
17	0xbe98bad0	-0.29830027
18	0xbd849277	-0.064732485
19	0x3e22ab92	0.15885761
20	0x3d2f00e5	0.042725462
21	0x3f09b1a5	0.5378669
22	0xbf0d47fa	-0.5518795
23	0xbe9a3b87	-0.3012354
24	0xbe3fe0b1	-0.18738057
25	0xbedddb8a	-0.43331558
26	0x3f45aea1	0.7721959
27	0x3dccb5b3	0.09995594
28	0xbf384817	-0.71985
29	0xbee499df	-0.44648644
30	0x3f063975	0.5243142
31	0x3df37f28	0.118894875
32	0x3eb73224	0.35780442
33	0x3ebec756	0.37261456
34	0x3d59291f	0.05301773
35	0x3f466929	0.7750421
36	0xbecbf541	-0.3983555
37	0x3f5e8a6b	0.8692996
38	0xbec875e9	-0.39152458
39	0xbd4b3e18	-0.049619764
40	0xbf19527d	-0.5989149
41	0xbea81d06	-0.32834643
42	0x3f524540	0.8213692
43	0xbf2d76da	-0.6775948
44	0x3f163ac5	0.58683425
45	0x3f274886	0.65345037
46	0xbf09ef97	-0.5388121
47	0xbf0530ec	-0.52027774
48	0xbf47e216	-0.78079355
49	0xbf2462cd	-0.6421326

gat_layer_0.attention_1.a f4 [20, 1]
0	0xbeb7e30a	-0.35915405
1	0x3db0efb1	0.086394675
2	0x3e8fec05	0.28109756
3	0xbe6fdb34	-0.23423463
4	0x3e6d4ae5	0.23173101
5	0xbec649cc	-0.38728178
6	0xbf080023	-0.5312521
7	0xbf004d10	-0.5011759
8	0xbdbc3cf0	-0.091913104
9	0xbe83e0dd	-0.25757495
10	0x3f0c84f4	0.5489037
11	0x3e393474	0.18086416
12	0xbe9b2b42	-0.3030644
13	0xbea5f883	-0.32416162
14	0x3e37fc62	0.1796737
15	0x3e03d24f	0.12873195
16	0xbeca6021	-0.39526466
17	0xbeef9b9f	-0.46798417
18	0x3f2eccef	0.68281454
19	0x3cc55f48	0.024093285

gat_layer_0.attention_2.W f4 [5, 10]
0	0x3f5389ed	0.82632333
1	0xbef0daf2	-0.47042042
2	0xbe0da104	-0.13830954
3	0x3f48d35b	0.784475
4	0x3f2eabd5	0.68230945
5	0x3da2e614	0.0795404
6	0xbf18c4a7	-0.5967507
7	0xbf0a6722	-0.5406362
8	0xbf1e12a8	-0.6174722
9	0xbf0bb35c	-0.54570556
10	0x3e878f1d	0.26476374
11	0xbf6632e2	-0.8992139
12	0xbf578348	-0.84184694
13	0x3e3f5bda	0.18687382
14	0xbe665339	-0.22492684
15	0xbeba4cc7	-0.363867
16	0xbf5c9361	-0.8616238
17	0x3e95b433	0.29239044
18	0xbda1cc24	-0.07900265
19	0xbecd6271	-0.40114167
20	0xbf091c34	-0.5355866
21	0x3f2e429c	0.6807039
22	0x3f37f21c	0.71853805
23	0xbeb57379	-0.3543966
24	0x3eec9eb9	0.46214846
25	0x3e3cc436	0.18434224
26	0xbf0878e7	-0.5330948
27	0xbee9ae1e	-0.45640653
28	0x3f5fe781	0.8746262
29	0x3f20ad3c	0.62764335
30	0xbf60edbe	-0.87862766
31	0x3e8cdc03	0.27511606
32	0x3f20f6aa	0.6287638
33	0x3e8185d4	0.25297415
34	0xbf154228	-0.5830407
35	0xbe60c352	-0.21949509
36	0xbf3227d0	-0.69592
37	0xbea487d2	-0.32134873
38	0xbf009507	-0.502274
39	0x3f0b5787	0.5443043
40	0xbd936caf	-0.07198464
41	0xbe3be16f	-0.18347715
42	0xbf2eaece	-0.6823548
43	0x3e4775d6	0.19478545
44	0x3d1d2cfc	0.03837298
45	0xbea1fc9a	-0.31638032
46	0xbf5965e1	-0.8492108
47	0xbf5612c5	-0.8362239
48	0xbe19c73b	-0.15017407
49	0x3ea2ec6e	0.31821007

gat_layer_0.attention_2.a f4 [20, 1]
0	0xbee9bd4c	-0.45652235
1	0xbe946a42	-0.28987318
2	0xbeba8c53	-0.36435184
3	0xbf1f3a88	-0.62198687
4	0xbf39fd5e	-0.7265223
5	0x3f065a14	0.524812
6	0x3ca8b474	0.02059386
7	0x3f085c46	0.532658
8	0x3ee9c630	0.45659018
9	0x3f102083	0.5629961
10	0x3f3b0476	0.7305368
11	0xbf2fbb34	-0.68645024
12	0xbf027416	-0.50958383
13	0x3e76e4ad	0.2411067
14	0x3efcdd40	0.4938755
15	0x3e81a8cc	0.25324094
16	0x3f28498e	0.65737236
17	0xbe912ca1	-0.28354362
18	0xbf03e391	-0.51519114
19	0xbefb385b	-0.49066433

gat_layer_0.attention_3.W f4 [5, 10]
0	0xbeb43548	-0.351969
1	0xbdd95790	-0.10612404
2	0x3dae30d4	0.08505407
3	0x3ec939b0	0.39301825
4	0xbe930242	-0.2871266
5	0xbf4fb8f8	-0.81141615
6	0xbf25b4f9	-0.6472927
7	0x3f5be785	0.85900146
8	0xbd9ba4e6	-0.07599811
9	0xbf057ed7	-0.5214667
10	0xbf314776	-0.69249666
11	0x3e206d9b	0.15666811
12	0x3dff5696	0.12467687
13	0x3e129594	0.14314872
14	0xbed3e11f	-0.4138269
15	0xbf10611d	-0.56398183
16	0xbf2655a4	-0.6497443
17	0x3e2e3acf	0.17014621
18	0x3f0e5160	0.5559292
19	0x3e20c700	0.15700912
20	0x3f145615	0.5794385
21	0x3f36fbc5	0.7147792
22	0xbe81a24c	-0.25319135
23	0x3debd0e4	0.11514452
24	0x3eb3e16a	0.35132915
25	0xbf2996bc	-0.6624563
26	0x3ed72f92	0.4202848
27	0xbf1c17d6	-0.6097387
28	0xbf03abe5	-0.51434165
29	0x3eb49ddb	0.35276684
30	0xbdeebc5f	-0.11657023
31	0xbc703d5b	-0.014663066
32	0xbf1976cc	-0.59946895
33	0x3ef7465c	0.48295867
34	0x3f231a57	0.63712066
35	0xbf3c9e7b	-0.7367932
36	0xbef7a059	-0.48364523
37	0xbf308971	-0.6895972
38	0x3f1e9600	0.6194763
39	0x3e3cbe07	0.18431865
40	0x3f2de9e4	0.67935014
41	0x3ea67f62	0.3251906
42	0xbf40ff62	-0.75389683
43	0x3ee743f6	0.45169038
44	0x3e0c4753	0.13699083
45	0xbeb1abd1	-0.34701398
46	0xbf2278e2	-0.634657
47	0x3e1a812b	0.15088336
48	0x3f2eab1f	0.6822986
49	0xbf27e4a2	-0.6558324

gat_layer_0.attention_3.a f4 [20, 1]
0	0xbea755a1	-0.32682517
1	0x3d2df835	0.042473037
2	0x3efa16b2	0.4884544
3	0x3f3f6134	0.74757695
4	0x3f27923c	0.6545751
5	0x3f2a992b	0.66639966
6	0xbd1bd2d7	-0.03804287
7	0x3f3ee83e	0.74573123
8	0x3da7298a	0.0816222
9	0xbf057b5c	-0.52141356
10	0xbe83ce76	-0.25743455
11	0xbf14b858	-0.58093786
12	0xbd5ff744	-0.05467917
13	0xbf26865d	-0.6504877
14	0xbec0d293	-0.37660655
15	0x3dab291f	0.083574526
16	0x3ef112e7	0.47084734
17	0x3cb0e754	0.02159468
18	0x3ee4795e	0.44623846
19	0x3df5e238	0.120060384

gat_layer_0.attention_4.W f4 [5, 10]
0	0xbe9e9fda	-0.30981332
1	0xbf3eaf80	-0.7448654
2	0x3f486c1c	0.7828996
3	0x3eaf6df1	0.34263566
4	0x3b95f672	0.0045764977
5	0x3ea0da26	0.31416434
6	0x3ef168db	0.4715031
7	0x3e84d3ad	0.25942746
8	0xbeab5f5b	-0.33471188
9	0xbf28a040	-0.6586952
10	0xbe027d67	-0.1274315
11	0xbeeb0d80	-0.45908737
12	0xbf5dbb44	-0.8661387
13	0xbf15bd7f	-0.58492273
14	0x3ed01904	0.40644085
15	0x3f01948c	0.5061729
16	0xbf26684d	-0.650029
17	0xbe8987ee	-0.2686152
18	0x3eacfdb7	0.3378732
19	0x3edb56e5	0.42839733
20	0xbf2fcd76	-0.68672884
21	0x3f037548	0.5135083
22	0xbea26b65	-0.3172256
23	0xbee96fb6	-0.4559304
24	0xbf2c1bb5	-0.6722978
25	0x3e77b20d	0.24189015
26	0x3dc81d6d	0.097712375
27	0x3efa8f31	0.4893737
28	0xbe191d46	-0.14952573
29	0x3f268bc5	0.6505702
30	0xbe4ee725	-0.20205362
31	0xbe82461d	-0.25444117
32	0xbef048d4	-0.46930563
33	0x3f12ba52	0.5731555
34	0xbf62b414	-0.8855603
35	0x3e5047d1	0.20339896
36	0xbf384b04	-0.71989465
37	0xbee917bb	-0.45525917
38	0xbf4ad02a	-0.79223883
39	0x3f39cbd5	0.7257665
40	0xbf1f8755	-0.62315875
41	0x3f3f42e3	0.74711436
42	0x3f12a557	0.5728354
43	0xbd8ca32f	-0.06867062
44	0xbe83d6b2	-0.25749737
45	0x3f4f7048	0.810307
46	0x3f50228c	0.81302714
47	0x3f4dd9e0	0.80410576
48	0xbf5286c1	-0.8223687
49	0x3e20aaab	0.15690105

gat_layer_0.attention_4.a f4 [20, 1]
0	0x3cc3ba1b	0.023892453
1	0xbee7144a	-0.45132667
2	0xbeefc794	-0.46831954
3	0xbedaff0e	-0.42772716
4	0xbe8fc910	-0.28083086
5	0x3f0be7db	0.5465066
6	0x3ed9ff98	0.42577815
7	0x3e26aea4	0.16277558
8	0xbee5c674	-0.4487797
9	0x3ec6ade4	0.38804543
10	0x3f274618	0.6534133
11	0x3f24538d	0.6418999
12	0xbe6e89f6	-0.23294815
13	0x3f159005	0.5842288
14	0x3ec4b574	0.38419688
15	0x3f045d83	0.5170519
16	0x3ed44396	0.41457814
17	0x3efa6006	0.48901385
18	0x3f0e9298	0.55692434
19	0xbf10e0b7	-0.5659289

gat_layer_0.out_att.W f4 [50, 5]
0	0xbed4fc48	-0.41598725
1	0xbe8db994	-0.27680647
2	0x3cb00b7c	0.021489851
3	0xbe780b35	-0.24223025
4	0xbe87ce0e	-0.26524395
5	0xbef515c1	-0.4786816
6	0x3d8268f1	0.06367672
7	0xbe904a95	-0.28181902
8	0x3e0256a3	0.12728362
9	0xbe4b5402	-0.19856265
10	0x3e95e24a	0.29274207
11	0xbeb0dd58	-0.34543872
12	0x3e4a7b7c	0.19773668
13	0xbba453c9	-0.005014871
14	0x3e8161c2	0.25269896
15	0xbd292e89	-0.041304145
16	0xbe405834	-0.18783647
17	0x3dcc81ff	0.09985732
18	0x3eaf9fcc	0.34301603
19	0xbebc399b	-0.367627
20	0x3ec99512	0.39371544
21	0xbd3f5942	-0.046715982
22	0x3e0efcdd	0.13963647
23	0x3e678977	0.22611032
24	0x3ee10ab4	0.43953478
25	0xbe985332	-0.29750973
26	0x3cc563b8	0.024095401
27	0x3ebbdb02	0.36690527
28	0x3e8dad73	0.27671394
29	0xbe4952ad	-0.19660445
30	0x3ece3e45	0.40281883
31	0x3e71d502	0.23616412
32	0xbeab4038	-0.33447433
33	0xbe94b3a8	-0.29043317
34	0x3e3601a0	0.17774057
35	0xbef82868	-0.48468328
36	0x3c7f4768	0.015580989
37	0x3e84bf53	0.2592722
38	0xbe9374cc	-0.28800046
39	0x3c8290d9	0.01593821
40	0x3e3a7012	0.18206814
41	0xbe843c26	-0.2582714
42	0xbd4d5f66	-0.050139807
43	0x3ddc90b1	0.10769785
44	0x3cbf3579	0.023340927
45	0xbeb6fa86	-0.3573801
46	0x3e6ae9ea	0.22940794
47	0xbe0711b8	-0.13190353
48	0xbe9540c9	-0.2915099
49	0x3e86027d	0.26173773
50	0xbe9f2580	-0.31083298
51	0x3e77d2aa	0.24201456
52	0xbe426a9b	-0.1898598
53	0xbe89a5a0	-0.26884174
54	0xbdbded7d	-0.09273813
55	0xbe454197	-0.19263302
56	0x3e4fbf87	0.20287906
57	0xbc7b6999	-0.015345001
58	0x3e6e6d4d	0.23283882
59	0xbe9f113d	-0.3106784
60	0xbcf01300	-0.029305935
61	0x3ea597ca	0.32342368
62	0xbec93cd8	-0.39304233
63	0x3ec46a65	0.38362423
64	0x3ea3cf3d	0.31994048
65	0x3ddff3b8	0.109351575
66	0x3e540fbf	0.20709132
67	0xbe8c62b1	-0.27419046
68	0x3e59c58e	0.21266767
69	0x3ee97f62	0.45604998
70	0x3cca5f19	0.02470355
71	0xbee86843	-0.45392045
72	0x3e89bc0d	0.26901284
73	0xbeb02825	-0.34405628
74	0x3edaf039	0.427614
75	0xbd9793c6	-0.074012324
76	0xbd8c1572	-0.06840028
77	0xbd4900ac	-0.049072906
78	0x3eaf099a	0.34187013
79	0xbee050be	-0.438116
80	0xbe6583c9	-0.22413553
81	0x3e817b3f	0.25289342
82	0xbe2481e2	-0.16065171
83	0x3ee8da99	0.45479277
84	0x3ed3fb77	0.4140279
85	0x3d580b07	0.05274489
86	0xbe33fb38	-0.17576301
87	0x3e6101f5	0.21973403
88	0xbc9fc18f	-0.019501476
89	0x3e28d50a	0.16487518
90	0xbedfacea	-0.4368661
91	0xbd2b7d5c	-0.0418676
92	0xbc506501	-0.012719394
93	0x3d840a58	0.064472854
94	0x3ec24ce9	0.37949303
95	0x3e9fa93d	0.31183806
96	0xbe9024a3	-0.28152952
97	0xbe736e08	-0.23772442
98	0x3ec3f389	0.3827174
99	0x3e70a6ca	0.23501125
100	0x3e4425c4	0.19155031
101	0xbed9b762	-0.42522722
102	0xbd91a5ed	-0.07111726
103	0xbd6d86dd	-0.057989944
104	0x3ebf21ed	0.3733057
105	0x3e988aad	0.297933
106	0x3ea0c8e3	0.31403264
107	0xbce2df72	-0.027694438
108	0xbe477882	-0.19479564
109	0xbed16591	-0.40897802
110	0x3ec58647	0.38579008
111	0x3e92ca3e	0.28669924
112	0xbe820c4b	-0.25400004
113	0xbe145f49	-0.14489473
114	0x3e9f1bb7	0.31075832
115	0x3c82d18e	0.015969064
116	0xbe152bd7	-0.14567505
117	0xbe371503	-0.17879109
118	0x3e2e403a	0.17016688
119	0xbe56f959	-0.20993556
120	0x3e10ed48	0.14153016
121	0xbed3d312	-0.4137197
122	0x3dcc136c	0.09964642
123	0x3dcc7b02	0.099843994
124	0xbda23252	-0.07919754
125	0x3d89be5e	0.06725763
126	0x3e16a949	0.14713015
127	0xbe91e933	-0.2849823
128	0x3e9d27fc	0.30694568
129	0xbe757353	-0.23969774
130	0xbe9e7133	-0.3094574
131	0xbe838a74	-0.2569157
132	0x3ea52e5c	0.32261932
133	0xbeecbb40	-0.4623661
134	0xbea66c99	-0.32504728
135	0x3eb65326	0.35610312
136	0xbd0a1a87	-0.033716705
137	0xbed34709	-0.41265133
138	0x3ee4b658	0.44670367
139	0xbead1f89	-0.33813122
140	0xbe70fd10	-0.23534036
141	0xbdba9fc4	-0.09112504
142	0x3e889152	0.2667337
143	0xbecfb250	-0.4056573
144	0x3e9b583b	0.30340752
145	0x3ecf8118	0.40528178
146	0xbe29eeb4	-0.16594964
147	0x3e5f4937	0.21805273
148	0xbea3bb86	-0.31979007
149	0xbeb32b0f	-0.3499379
150	0x3b6d85ed	0.0036243156
151	0x3ebc2836	0.3674943
152	0xbd8fe3a4	-0.07025841
153	0xbec6034d	-0.38674393
154	0x3dd4ae03	0.103847526
155	0x3e91de30	0.28489828
156	0xbe2031e3	-0.1564403
157	0xbee180d2	-0.44043595
158	0x3e78ca75	0.24295981
159	0x3e34401d	0.17602582
160	0xbec30566	-0.38090056
161	0x3e5012a8	0.20319617
162	0xbebcb068	-0.36853337
163	0x3e9a4888	0.30133462
164	0x3ed5ead8	0.41780734
165	0xbed3adc5	-0.41343513
166	0x3e3de565	0.18544538
167	0x3ed77012	0.4207769
168	0x3e2d88bd	0.16946693
169	0x3ee82ec4	0.4534818
170	0xbe4bab8f	-0.19889663
171	0xbe6d7858	-0.23190439
172	0x3ee8386d	0.4535555
173	0x3eb587d6	0.35455197
174	0xbeb82044	-0.35962117
175	0xbe0edce5	-0.13951452
176	0x3ecf290c	0.40461004
177	0x3c226bba	0.009913379
178	0x3ec67609	0.3876193
179	0x3e123cd6	0.1428102
180	0x3e541170	0.20709777
181	0x3eb5446b	0.3540376
182	0x3e92bf3b	0.28661522
183	0xbeb81c82	-0.3595925
184	0x3d79aa3b	0.06095336
185	0xbeaf4ec1	-0.34239772
186	0x3e526085	0.20544632
187	0x3e847a76	0.2587468
188	0x3deb3262	0.11484219
189	0xbe8152f9	-0.25258616
190	0xbea4ebcd	-0.32211152
191	0x3e971f50	0.29516077
192	0x3d8791ff	0.066196434
193	0xbe974635	-0.2954575
194	0xbec111b8	-0.3770883
195	0x3eb06a8f	0.34456298
196	0x3e626b3b	0.22111218
197	0xbea5516f	-0.3228869
198	0x3e1b5713	0.15169935
199	0x3cfdc170	0.030976027
200	0xbe450e79	-0.19243802
201	0x3eb146bb	0.34624276
202	0x3e994b6a	0.2994035
203	0xbdc85057	-0.097809486
204	0xbe402fb9	-0.18768205
205	0x3ad23f9b	0.0016040684
206	0x3ea77cac	0.32712305
207	0x3dac5913	0.08415427
208	0x3e9a3a51	0.30122617
209	0xbe6fb270	-0.23407912
210	0x3deeb6ba	0.11655946
211	0x3e818171	0.25294068
212	0x3d2c1a01	0.042016987
213	0xbd93ff09	-0.072263785
214	0x3e5ceee4	0.21575505
215	0xbd953d96	-0.07287137
216	0xbec593be	-0.3858928
217	0x3ebc4f87	0.36779425
218	0xbe17e40e	-0.1483309
219	0x3e90c56f	0.2827563
220	0x3edc8eb7	0.43077633
221	0x3ed42674	0.41435587
222	0x3d181480	0.037128925
223	0xbec58ef4	-0.38585627
224	0x3db6da4d	0.08928356
225	0xbe545bfc	-0.20738214
226	0xbeafa627	-0.34306452
227	0x3c400328	0.0117195025
228	0xbe05d700	-0.13070297
229	0x3e1a2a09	0.15055098
230	0xbdc5069e	-0.09620403
231	0xbdb1208f	-0.08648788
232	0xbed8e0cc	-0.42359006
233	0x3e8526a3	0.2600604
234	0xbeedd8f9	-0.464546
235	0xbe27e39d	-0.16395421
236	0x3bef3504	0.007300021
237	0xbdc8d8a5	-0.09806947
238	0x3ebb5e1d	0.3659524
239	0xbe81beef	-0.25340983
240	0xbe5ae11f	-0.2137494
241	0xbee2e7e3	-0.4431754
242	0x3ec88de8	0.39170766
243	0xbe8a83c7	-0.27053663
244	0x3ea76392	0.32693154
245	0x3cdd1987	0.026989711
246	0xbee1e2b8	-0.44118285
247	0x3ec1c426	0.37844962
248	0xbee5ccb9	-0.44882753
249	0xbe370dc8	-0.17876351

gat_layer_0.out_att.a f4 [10, 1]
0	0x3e1426c2	0.1446791
1	0x3f7cd6d9	0.9876533
2	0xbf282b5e	-0.65691173
3	0xbede25a4	-0.43388093
4	0xbedbec1d	-0.42953578
5	0xbf45ad2a	-0.7721735
6	0x3ec856c5	0.391287
7	0xbde29fc5	-0.1106563
8	0xbf7fd731	-0.9993773
9	0xbf33a9aa	-0.7018076

gat_layer_1.attention_0.W f4 [5, 10]
0	0x3c92c3d2	0.01791564
1	0xbe8cd380	-0.27505112
2	0x3f0d76a0	0.5525913
3	0xbf5b4c98	-0.8566375
4	0x3ef24974	0.47321665
5	0xbe378e38	-0.17925346
6	0x3ea9c1ee	0.3315577
7	0xbd095a80	-0.033533573
8	0xbf3d5dd1	-0.7397128
9	0xbf09bee9	-0.5380693
10	0x3f374104	0.7158358
11	0xbf49dd56	-0.78853357
12	0xbed994bb	-0.42496285
13	0xbdc8a995	-0.0979797
14	0xbf524b9f	-0.8214664
15	0xbc4db1f1	-0.012554632
16	0xbf34c1df	-0.70608324
17	0xbf38f4fd	-0.7224882
18	0xbf23b4a8	-0.63947535
19	0x3f0a48a8	0.54017115
20	0x3ee7f12b	0.45301184
21	0xbf2b0d58	-0.66817236
22	0x3f3e0142	0.7422067
23	0xbe7cf90c	-0.24704379
24	0x3f2c1edd	0.67234594
25	0x3d18a5e3	0.037267577
26	0xbef41ee9	-0.47679833
27	0x3f61be3d	0.88180906
28	0x3dffcec2	0.12490608
29	0x3f486b8a	0.7828909
30	0x3def92a1	0.11697889
31	0xbf4907b2	-0.7852737
32	0x3ec27f47	0.3798773
33	0xbdfbc851	-0.12294067
34	0x3e640c8e	0.22270414
35	0x3f581cf5	0.84419185
36	0xbf04fb33	-0.519458
37	0xbf2b9498	-0.6702361
38	0xbe64b2cf	-0.22333835
39	0xbd14d91e	-0.03633987
40	0xbe649515	-0.22322495
41	0x3f4149c8	0.75503206
42	0x3f54ef25	0.83177406
43	0x3f3cd88c	0.73767924
44	0xbf568472	-0.83795846
45	0xbf1db002	-0.6159669
46	0x3f210065	0.62891227
47	0xbeabd6eb	-0.33562407
48	0x3f050030	0.5195341
49	0x3ee2d415	0.4430243

gat_layer_1.attention_0.a f4 [20, 1]
0	0x3e3e801d	0.18603559
1	0xbf054116	-0.5205244
2	0xbe599b18	-0.2125057
3	0xbec94fd0	-0.39318705
4	0x3f401e8d	0.75046617
5	0xbf3d0110	-0.73829746
6	0xbea43ee2	-0.32079226
7	0xbf3897f4	-0.7210686
8	0x3f390cfa	0.72285426
9	0xbf26a674	-0.6509774
10	0x3f3cf1fc	0.7380674
11	0xbe23c651	-0.1599362
12	0xbe51f3f2	-0.20503214
13	0xbe10d2e1	-0.14142944
14	0x3f2e3a57	0.6805777
15	0x3e51aacb	0.20475309
16	0x3ee8eb26	0.45491904
17	0xbe607976	-0.21921334
18	0xbf39fa41	-0.7264748
19	0xbe3b0c5e	-0.18266436

gat_layer_1.attention_1.W f4 [5, 10]
0	0x3f08dcdf	0.5346202
1	0xbc40c643	-0.011766019
2	0x3f00ee6b	0.50363797
3	0x3effff83	0.49999627
4	0xbee2ae2b	-0.44273505
5	0xbe864ee5	-0.26232067
6	0x3d3679de	0.044549815
7	0x3db02fe6	0.08602886
8	0xbf13ea06	-0.57778966
9	0x3e1cd5f4	0.15315992
10	0xbf5fa2e4	-0.87357926
11	0x3dc7f3bc	0.097632855
12	0xbf34e433	-0.70660704
13	0x3f594d01	0.84883124
14	0xbe6dbe8b	-0.23217218
15	0xbeac0c56	-0.33603162
16	0x3e1851e1	0.14874984
17	0xbf495c6d	-0.78656656
18	0x3ee85e77	0.4538457
19	0x3ec9db61	0.39425185
20	0x3f0527f6	0.520141
21	0xbf23f679	-0.6404796
22	0xbf55fe7c	-0.8359144
23	0xbeafd858	-0.34344745
24	0xbe5ba012	-0.2144778
25	0xbe3e049b	-0.18556444
26	0x3f1910ba	0.5979115
27	0xbddba0b0	-0.10724008
28	0xbf0cd3a7	-0.55010456
29	0xbeb698c9	-0.3566344
30	0x3dc12c68	0.09432298
31	0x3e988d61	0.29795364
32	0xbf3a4063	-0.72754496
33	0x3ed4e4bc	0.4158076
34	0xbe8196cb	-0.25310358
35	0x3eac0316	0.33596104
36	0xbdf376a5	-0.11887864
37	0xbe70dd18	-0.2352184
38	0xbe5f0d2a	-0.21782365
39	0x3e2b06c6	0.16701803
40	0xbf386fc2	-0.7204553
41	0x3f075e8b	0.52878636
42	0xbef68eac	-0.48155725
43	0xbeb27b11	-0.34859517
44	0x3e7550cd	0.23956604
45	0x3dd72927	0.10505896
46	0x3e21e6c0	0.1581068
47	0xbf5c6a3f	-0.8609962
48	0xbed93e0a	-0.42430145
49	0xbda167e2	-0.07881142

gat_layer_1.attention_1.a f4 [20, 1]
0	0xbf0e7964	-0.5565398
1	0x3e11f0f8	0.14252079
2	0xbe1bec0a	-0.1522676
3	0xbec5fe59	-0.38670614
4	0x3e5c834a	0.21534458
5	0xbe0a792c	-0.13522786
6	0x3c0be20e	0.008537782
7	0x3f3ea517	0.7447066
8	0xbecfeb07	-0.40609
9	0xbe8ab554	-0.27091467
10	0x3f18733c	0.59550834
11	0x3cbdcb49	0.023168223
12	0x3ee5127d	0.44740668
13	0xbf289e9c	-0.6586702
14	0x3c5a1479	0.013310545
15	0xbec33c93	-0.38132152
16	0xbeb172f1	-0.34658006
17	0x3f36386b	0.71179837
18	0xbd0f4e38	-0.034986705
19	0x3f253bea	0.64544547

gat_layer_1.attention_2.W f4 [5, 10]
0	0xbdc5326e	-0.09628759
1	0xbf4340ed	-0.76270944
2	0xbeaa15a9	-0.3321965
3	0xbea3fb6a	-0.3202775
4	0xbf5f18fa	-0.87147486
5	0xbe9fcb0c	-0.312096
6	0x3f3fdb86	0.7494434
7	0xbe3af68b	-0.18258111
8	0x3eacf7ff	0.33782956
9	0xbd0154bc	-0.03157495
10	0x3ef5fb12	0.48043114
11	0xbf4d9ce6	-0.80317533
12	0x3cb03d2e	0.021513548
13	0x3f1d2914	0.61390805
14	0x3f6027aa	0.8756052
15	0xbea5af5d	-0.32360354
16	0xbed4787d	-0.41498175
17	0xbe383c62	-0.17991784
18	0xbf07caaf	-0.53043646
19	0xbc578a29	-0.013155499
20	0x3de03bc3	0.10948899
21	0x3eea73eb	0.45791563
22	0xbf342f2b	-0.7038447
23	0x3f1c6830	0.6109648
24	0x3ef93a51	0.48677304
25	0x3ed764d8	0.42069125
26	0xbf4a676a	-0.7906405
27	0x3e6e9776	0.23299965
28	0x3d5d055a	0.05396018
29	0x3e5dba00	0.21652985
30	0x3df8db59	0.12151212
31	0xbc8b9947	-0.017040862
32	0x3e3bd1d0	0.18341756
33	0x3e188e1a	0.14897957
34	0x3f234619	0.63778836
35	0xbe5ef652	-0.21773651
36	0xbef3133c	-0.47475612
37	0xbe4916ac	-0.19637555
38	0x3c7a8ff6	0.015293112
39	0x3eafd78b	0.34344134
40	0x3e5acb1d	0.21366544
41	0xbe8fad3d	-0.28061858
42	0xbf290559	-0.66023785
43	0x3f4e4114	0.8056805
44	0x3f21e33d	0.63237363
45	0xbe544a1a	-0.20731393
46	0x3ebae5e2	0.36503512
47	0xbb425c58	-0.0029657092
48	0x3e12456c	0.14284295
49	0x3db03cc1	0.08605338

gat_layer_1.attention_2.a f4 [20, 1]
0	0x3ec9f49f	0.39444444
1	0x3f0eb26d	0.55741006
2	0xbe9bc1ca	-0.30421287
3	0x3f17ab8f	0.5924615
4	0x3f1e6047	0.6186566
5	0xbf351a15	-0.70742923
6	0xbece8edc	-0.40343368
7	0x3c4ec778	0.012620799
8	0xbf319d05	-0.6938022
9	0x3e88de51	0.26732114
10	0x3f368246	0.7129253
11	0x3ce1c459	0.027559446
12	0xbc631273	-0.013859379
13	0xbe95a2a4	-0.29225647
14	0xbf2a5699	-0.6653839
15	0xbefd3131	-0.49451593
16	0x3ea2a1d3	0.31764087
17	0xbd68e36d	-0.056857515
18	0xbe25c828	-0.16189635
19	0xbe31a280	-0.17347145

gat_layer_1.attention_3.W f4 [5, 10]
0	0x3f102363	0.56303996
1	0xbf67939b	-0.90459603
2	0x3ed87fb3	0.42284927
3	0xbf5f2809	-0.87170464
4	0x3f4166f6	0.7554773
5	0xbe35bb27	-0.17747174
6	0xbf2495f7	-0.6429133
7	0xbf4a1c82	-0.7894975
8	0x3f68a338	0.9087405
9	0xbd989858	-0.07450932
10	0x3da93369	0.08261759
11	0xbf014368	-0.5049348
12	0xbdfff465	-0.124977864
13	0x3f309be3	0.68987864
14	0x3f133610	0.5750437
15	0x3f0c92b4	0.5491135
16	0xbec6ec2c	-0.3885206
17	0x3e88503f	0.26623723
18	0x3f344beb	0.7042834
19	0x3f31235f	0.69194597
20	0x3f2e2976	0.68032014
21	0x3edf94b1	0.4366813
22	0xbe1ae536	-0.151265
23	0xbf381144	-0.71901345
24	0xbf25c396	-0.64751565
25	0x3f3fc02d	0.7490261
26	0x3f254cbb	0.64570206
27	0x3da63cf3	0.08117094
28	0xbf2a68b3	-0.6656601
29	0x3d9d5344	0.07681897
30	0xbe9b54f3	-0.3033825
31	0xbf5b4513	-0.85652274
32	0xbebea49e	-0.37234968
33	0xbece8b8a	-0.40340835
34	0x3f335507	0.70051616
35	0xbe8a2d12	-0.2698751
36	0x3e5f5968	0.2181145
37	0xbe974fd8	-0.29553103
38	0x3eec5337	0.46157238
39	0xbf231b58	-0.637136
40	0xbf183c5c	-0.594671
41	0x3f2fbce7	0.6864762
42	0xbf574451	-0.8408862
43	0xbef23453	-0.47305545
44	0x3f26d37d	0.65166456
45	0x3f571eda	0.8403145
46	0xbd8aaa46	-0.06770758
47	0xbec9df9e	-0.3942842
48	0x3efa7325	0.48915973
49	0x3ec1c41d	0.37844935

gat_layer_1.attention_3.a f4 [20, 1]
0	0xbf098289	-0.53714806
1	0xbe4076a9	-0.18795265
2	0xbee99a81	-0.4562569
3	0xbe6630cd	-0.22479554
4	0xbe85f6a8	-0.26164746
5	0x3effebb5	0.49984518
6	0x3c56d5b9	0.013112479
7	0x3ed20bd4	0.4102465
8	0x3e078c4b	0.13237111
9	0xbe8fa8bd	-0.28058425
10	0x3f08a56b	0.5337741
11	0xbe43f782	-0.19137385
12	0xbecc59b3	-0.39912185
13	0x3f35d686	0.7103046
14	0xbebd7aea	-0.37007838
15	0xbd784e72	-0.060621686
16	0x3efc0922	0.49225718
17	0x3f19c7d2	0.60070527
18	0xbeb5ad12	-0.35483605
19	0x3edf06f7	0.4356

gat_layer_1.attention_4.W f4 [5, 10]
0	0x3f593af3	0.84855574
1	0x3edd9ddb	0.43284497
2	0x3ee8b7f9	0.4545286
3	0x3dadcb99	0.08486099
4	0x3e22d21a	0.1590046
5	0x3e02631e	0.12733123
6	0xbf11ce13	-0.5695507
7	0x3f2ee493	0.68317527
8	0xbf1b4508	-0.6065221
9	0x3edc7171	0.430553
10	0xbebe281c	-0.37139976
11	0xbf511eb4	-0.81687474
12	0x3ef34c97	0.4751937
13	0x3f30053b	0.6875798
14	0x3f49d84d	0.78845674
15	0x3f33239e	0.6997622
16	0xbf241a38	-0.64102507
17	0x3f296088	0.6616292
18	0xbf5c19e0	-0.8597698
19	0x3f0fa22c	0.5610683
20	0xbdf9ca68	-0.12196809
21	0x3f582f82	0.8444749
22	0xbf4dc7af	-0.8038282
23	0xbe40a00b	-0.18811052
24	0xbf4ff187	-0.81227916
25	0xbf1dbf6b	-0.61620206
26	0xbf5a7d35	-0.853473
27	0x3e1e7791	0.15475298
28	0xbefe3f26	-0.49657553
29	0xbf2998fb	-0.66249055
30	0xbf27a4b0	-0.6548567
31	0xbf318053	-0.6933643
32	0x3f13321a	0.57498324
33	0xbe555837	-0.20834433
34	0x3f445b40	0.76701736
35	0x3f1c85cf	0.61141676
36	0x3f48de9b	0.7846467
37	0xbe916e3c	-0.28404415
38	0x3da595a2	0.08085181
39	0xbe82b8d0	-0.25531626
40	0xbeeaa7c1	-0.4583111
41	0xbee7b472	-0.45254856
42	0x3f3938b5	0.72352153
43	0x3f4309a3	0.7618658
44	0x3f18a153	0.5962116
45	0xbf42bb0b	-0.76066655
46	0xbdb562f5	-0.08856765
47	0x3ef8a32f	0.48562
48	0x3f4e2904	0.80531335
49	0x3ea24245	0.31691185

gat_layer_1.attention_4.a f4 [20, 1]
0	0xbf446481	-0.76715857
1	0xbee331ad	-0.44373837
2	0xbec0d026	-0.37658805
3	0x3d9c4bac	0.07631621
4	0x3ee31489	0.44351605
5	0x3eaf6c15	0.34262148
6	0x3eb19c7a	0.34689695
7	0x3e120381	0.14259149
8	0x3f38b538	0.7215152
9	0x3effde88	0.49974465
10	0x3d739abf	0.05947375
11	0x3e045c70	0.12925887
12	0xbf162395	-0.58648044
13	0x3eceb636	0.4037339
14	0xbf27fa44	-0.6561625
15	0x3f16c000	0.5888672
16	0x3f0baeea	0.5456377
17	0xbe71dfc2	-0.23620513
18	0xbe94eaef	-0.2908549
19	0x3ed489f2	0.41511494

gat_layer_1.out_att.W f4 [50, 5]
0	0x3e106dfc	0.14104456
1	0x3d396837	0.045265403
2	0x3d0faa64	0.035074607
3	0x3cb7c2b9	0.022431718
4	0xbcfa516f	-0.030556409
5	0x3ed6aaa2	0.41927058
6	0x3eca5627	0.39518854
7	0xbd9ed278	-0.077549875
8	0x3eb59ba6	0.35470313
9	0x3e29d64e	0.16585657
10	0x3dc6fd5d	0.09716294
11	0x3dfecdc2	0.12441589
12	0xbec8904a	-0.39172584
13	0x3e46382c	0.19357365
14	0x3e6079b4	0.21921426
15	0x3de200db	0.110353194
16	0x3c7fc25f	0.0156103065
17	0x3dcd3822	0.10020472
18	0xbe6368f8	-0.22208011
19	0xbee2247e	-0.44168466
20	0xbe048514	-0.1294139
21	0xbe0e9a2d	-0.13926001
22	0xbe6a39b1	-0.2287357
23	0x3ee2e6bf	0.4431667
24	0x3ecb7c29	0.39743164
25	0x3ea50c41	0.3223591
26	0x3dc60b7e	0.09670161
27	0x3e53f83f	0.20700167
28	0x3e403713	0.18771009
29	0xbe84f688	-0.25969338
30	0xbec99859	-0.39374045
31	0xbed6adb1	-0.4192939
32	0x3e85f73d	0.2616519
33	0x3ddb0407	0.106941275
34	0xbe86be13	-0.2631689
35	0xbec25e04	-0.37962353
36	0xbe96ac1d	-0.29428187
37	0xbe064399	-0.13111724
38	0x3d6597dd	0.05605303
39	0x3c0292a3	0.007969531
40	0x3edfcb57	0.43709823
41	0x3e12ed13	0.14348249
42	0xbe9bec7a	-0.30453855
43	0x3e722ca1	0.23649837
44	0xbe58070e	-0.21096441
45	0x3d9d996d	0.07695279
46	0x3ef16dc3	0.47154054
47	0x3e824fbb	0.25451455
48	0x3d5647ff	0.052314755
49	0x3edadefd	0.42748252
50	0xbe83dd33	-0.257547
51	0xbc806113	-0.015671289
52	0xbd7c3eae	-0.061583214
53	0xbec01b56	-0.37520856
54	0xbd2ba426	-0.04190459
55	0xbec15fb1	-0.3776832
56	0xbd87d53f	-0.0663247
57	0x3c84dc61	0.016218366
58	0x3e295b49	0.16538729
59	0xbeb9eda6	-0.36314124
60	0x3eafc958	0.343333
61	0xbe5284b4	-0.20558435
62	0xbe790a57	-0.2432035
63	0x3e9ea37f	0.30984113
64	0xbee098af	-0.43866488
65	0x3ec79802	0.3898316
66	0x3ec359c2	0.38154417
67	0x3e0fa161	0.14026405
68	0x3d08542a	0.03328339
69	0x3ec991db	0.3936909
70	0x3bdbbf8a	0.006706183
71	0xbc9dbee2	-0.01925606
72	0x3ca9d64a	0.020732064
73	0x3e9498f8	0.29022956
74	0x3e940d1b	0.2891625
75	0xbeee6247	-0.46559355
76	0xbe4640e2	-0.19360688
77	0xbe3be8dc	-0.18350548
78	0xbeb8bbcd	-0.3608078
79	0x3ede526a	0.43422252
80	0xbe18fdbd	-0.14940543
81	0x3df2c1ab	0.118533455
82	0x3db16255	0.086613335
83	0xbc85b97d	-0.0163238
84	0x3e61dbc6	0.22056493
85	0xbd147181	-0.03624106
86	0xbea4a268	-0.32155156
87	0x3e8b0d8b	0.2715877
88	0x3dbd09af	0.092303626
89	0x3e19268c	0.1495611
90	0xbd88aade	-0.06673215
91	0x3e11a3a5	0.14222582
92	0xbba81165	-0.0051290267
93	0x3e1ac8ff	0.15115736
94	0x3b40089c	0.0029302007
95	0x3ee1c445	0.44095054
96	0x3ed19e1c	0.4094094
97	0xbe2a458e	-0.16628096
98	0xbe894e6d	-0.26817647
99	0x3e178f2f	0.14800714
100	0x3e5a9fe1	0.21350051
101	0x3e1615e3	0.14656787
102	0xbebdac73	-0.3704563
103	0x3d530a41	0.05152345
104	0xbec93d78	-0.3930471
105	0x3ce5617b	0.028000584
106	0x3d52af41	0.051436666
107	0x3e8b319c	0.27186286
108	0xbd10328c	-0.035204455
109	0xbead62db	-0.33864483
110	0xbeca41e4	-0.39503396
111	0x3ea7b30c	0.3275379
112	0x3ebad8d3	0.3649355
113	0x3ed7fbc5	0.42184272
114	0xbe67adab	-0.22624843
115	0xbef35364	-0.4752456
116	0x3e2b4339	0.16724862
117	0x3e19acef	0.15007375
118	0x3e5e6178	0.21716869
119	0xbea65212	-0.3248449
120	0xbe85fc34	-0.26168978
121	0x3e823ecf	0.25438544
122	0x3eb3ee98	0.3514297
123	0x3ef225b6	0.47294396
124	0xbe8add0c	-0.2712177
125	0x3e01bf0f	0.1267054
126	0x3e1a7d8d	0.15086956
127	0xbdfbe871	-0.12300194
128	0xbebe8640	-0.372118
129	0xbeded807	-0.4352419
130	0xbec2f4b0	-0.38077307
131	0x3ddf2941	0.108965404
132	0x3b58db28	0.0033089612
133	0x3e937a39	0.28804186
134	0x3e3f37d1	0.18673636
135	0x3e8b68ba	0.27228338
136	0x3e0f3b04	0.13987356
137	0xbe723842	-0.23654273
138	0x3ed85f0f	0.42260024
139	0xbedd8a48	-0.43269563
140	0x3e0e2ff6	0.13885483
141	0xbd9cc407	-0.07654577
142	0x3e6bf882	0.23044017
143	0x3ecbb2c3	0.39784822
144	0xbe05ca5b	-0.13065474
145	0xbe312114	-0.17297775
146	0xbe264ee8	-0.16241038
147	0xbede89ad	-0.43464413
148	0x3dafa1fe	0.085758194
149	0x3e8927e8	0.2678826
150	0xbec467d2	-0.3836046
151	0xbdccd5ec	-0.1000174
152	0x3d295a02	0.041345604
153	0x3cb43cde	0.02200168
154	0xbeebe9ac	-0.46076715
155	0x3eaedb29	0.3415158
156	0x3e664cb8	0.22490203
157	0xbea7bb11	-0.32759908
158	0xbea6e158	-0.325938
159	0xbd4ac433	-0.049503516
160	0xbe5c4893	-0.2151206
161	0xbe6559d0	-0.22397542
162	0x3eaaef4f	0.33385703
163	0xbed9c082	-0.42529684
164	0x3e4880b2	0.19580343
165	0xbecfbccb	-0.40573725
166	0xbeb959e9	-0.36201409
167	0x3e9509d5	0.29109064
168	0xbdd89678	-0.10575575
169	0x3c857986	0.016293298
170	0x3ed01867	0.40643618
171	0x3e6ad4a3	0.22932677
172	0xbe02e0b6	-0.12781033
173	0x3ec4a29c	0.3840531
174	0xbed6193f	-0.41816136
175	0x3e4eaa99	0.20182265
176	0xbdb6e6c0	-0.08930731
177	0xbe9c771f	-0.30559632
178	0x3d445455	0.047931988
179	0x3eb14ef0	0.34630537
180	0xbdf3b9fa	-0.119007066
181	0x3ca5403f	0.020172236
182	0x3df41c44	0.11919454
183	0xbe97f95a	-0.29682428
184	0x3ed51573	0.41617927
185	0xbec92f51	-0.39293912
186	0x3ea7644e	0.32693714
187	0x3e219931	0.15781094
188	0xbd468d85	-0.048474807
189	0x3e84444c	0.25833356
190	0xbe725b02	-0.23667529
191	0xbe68820a	-0.22705856
192	0xbde970e1	-0.11398483
193	0xbc9652a3	-0.018349951
194	0x3ec11fd4	0.37719595
195	0x3ecd90bb	0.40149483
196	0xbf11fc39	-0.57025486
197	0xbda730b2	-0.08163585
198	0x3ecc67fe	0.3992309
199	0xbeb2330e	-0.34804577
200	0xbd44ad53	-0.048016857
201	0xbd1fd1c6	-0.039018415
202	0x3e420b28	0.18949568
203	0x3df1f906	0.118150756
204	0x3ed80dcd	0.4219803
205	0xbc146048	-0.009056158
206	0xbe9094f3	-0.2823864
207	0x3d847344	0.06467298
208	0xbea8ab25	-0.32943073
209	0x3c833202	0.016015057
210	0xbecb0e2e	-0.39659256
211	0xbeafa866	-0.34308165
212	0xbec2994a	-0.38007575
213	0xbd0071a4	-0.031358376
214	0x3e2d0d46	0.16899595
215	0xbeca5fb3	-0.39526138
216	0x3e967c46	0.29391688
217	0xbe0641f6	-0.131111
218	0x3e7ff79c	0.24996799
219	0xbdd19861	-0.10234142
220	0xbe1a86fc	-0.15090555
221	0xbdd5ad4e	-0.10433446
222	0x3eaad3cc	0.33364713
223	0x3ea5ab69	0.32357338
224	0x3e80faf8	0.25191474
225	0xbe87893a	-0.26471883
226	0xbeab34d0	-0.3343873
227	0xbc701a47	-0.0146547025
228	0xbea2acd5	-0.31772485
229	0x3dd291dd	0.102817275
230	0xbecf612d	-0.40503827
231	0x3dc694a1	0.096963175
232	0xbea86cd1	-0.3289552
233	0xbea54b4b	-0.32284006
234	0xbe951460	-0.29117107
235	0x3e27d523	0.16389899
236	0x3ebf211f	0.37329957
237	0x3e1b1205	0.15143593
238	0xbed128e6	-0.40851516
239	0x3e4fc3ce	0.20289537
240	0x3e055dc7	0.13024054
241	0x3de9fb00	0.114248276
242	0xbe8e72a7	-0.27821848
243	0x3ec16678	0.3777349
244	0x3ed2e155	0.4118754
245	0xbea9957c	-0.3312186
246	0xbdcceb02	-0.10005762
247	0xbee2ec0c	-0.44320714
248	0x3e5af1bb	0.21381275
249	0xbe1ac57f	-0.15114401

gat_layer_1.out_att.a f4 [10, 1]
0	0x3f159cd4	0.58442426
1	0xbf335538	-0.7005191
2	0xbeb929d4	-0.36164725
3	0xbf871128	-1.0552111
4	0xbe9d9547	-0.30777952
5	0xbed3e2da	-0.41384012
6	0x3e076778	0.13223064
7	0x3f69fa88	0.91397905
8	0xbf186d04	-0.59541345
9	0xbe82586c	-0.25458086

gat_layer_2.attention_0.W f4 [5, 10]
0	0xbbfe4999	-0.0077602384
1	0xbee95111	-0.4556966
2	0xbdf6c68f	-0.12049591
3	0xbc930864	-0.017948337
4	0xba015e26	-0.00049349887
5	0xbe96853c	-0.29398525
6	0xbec70d63	-0.388774
7	0xbe6eac60	-0.23307943
8	0x3e86b43f	0.26309392
9	0xbf18b00c	-0.59643626
10	0x3f3e31d8	0.74294806
11	0x3f2a8fc5	0.66625625
12	0x3f013cc5	0.5048335
13	0xbf239cd6	-0.6391119
14	0xbe165f6a	-0.14684835
15	0x3ea101d7	0.31446716
16	0x3d4bbb66	0.049739264
17	0xbd858078	-0.06518644
18	0x3e43496b	0.19070975
19	0xbf0ad10a	-0.5422522
20	0xbe3b2cde	-0.18278834
21	0x3f1ed3f3	0.6204216
22	0xbf6a200e	-0.9145516
23	0xbf0c51a5	-0.5481208
24	0x3e767222	0.24066976
25	0x3efac6a4	0.48979676
26	0x3eee4dfd	0.46543875
27	0xbf3c1804	-0.73474145
28	0x3e026e3f	0.12737368
29	0xbdaa099a	-0.083026126
30	0x3e61e5a5	0.22060259
31	0x3f00fcee	0.5038594
32	0x3f2c9db3	0.6742813
33	0x3f21389f	0.6297702
34	0xbefa062f	-0.48832843
35	0xbf4c4b30	-0.7980223
36	0xbe998023	-0.29980573
37	0x3f11621d	0.56790334
38	0xbf47ec43	-0.7809488
39	0x3e4e3e9c	0.20141071
40	0xbf627952	-0.8846637
41	0xbe800bf1	-0.2500911
42	0xbe745894	-0.23861915
43	0xbccb2ab1	-0.02480063
44	0x3f429285	0.7600482
45	0xbf003381	-0.5007859
46	0xbd86b43c	-0.06577346
47	0xbf4abfe8	-0.79199076
48	0xbf549860	-0.83045006
49	0x3f378193	0.7168209

gat_layer_2.attention_0.a f4 [20, 1]
0	0xbecf4721	-0.40483955
1	0x3f1fe060	0.62451744
2	0xbe1290f3	-0.14313106
3	0xbf3cdae9	-0.7377153
4	0xbe2e6acd	-0.17032929
5	0x3f300224	0.68753266
6	0x3eac561a	0.3365944
7	0xbdbe2df0	-0.09286106
8	0xbc06d6af	-0.0082298955
9	0xbf3534e5	-0.70783836
10	0xbdfd124b	-0.12357005
11	0xbe83b3f4	-0.2572323
12	0xbe115fd1	-0.14196707
13	0x3f0c11da	0.5471474
14	0xbd505d8a	-0.050870456
15	0x3f3871ff	0.72048944
16	0xbf176274	-0.591346
17	0xbeb50176	-0.35352677
18	0x3ee8f193	0.45496807
19	0xbee769ac	-0.4519781

gat_layer_2.attention_1.W f4 [5, 10]
0	0x3ec0a65d	0.37626925
1	0x3dd822bc	0.105535
2	0x3f3f903b	0.74829453
3	0x3f1f2c61	0.6217709
4	0x3e947c60	0.2900114
5	0x3e499930	0.19687343
6	0x3ec258b5	0.37958303
7	0xbf396b21	-0.7242909
8	0x3e02ffb2	0.12792853
9	0x3ee38b0a	0.44442016
10	0xbdfc0e0a	-0.12307365
11	0xbf53e797	-0.82775253
12	0xbf19ad79	-0.60030323
13	0xbea465bd	-0.3210887
14	0xbe8a30de	-0.26990408
15	0x3ee915d9	0.4552448
16	0x3f5450eb	0.8293597
17	0x3ef2a56a	0.47391826
18	0xbea2b810	-0.31781054
19	0x3e8c700e	0.2742924
20	0x3f091762	0.53551304
21	0xbed4f788	-0.415951
22	0x3f3de628	0.74179316
23	0x3f5f6a2b	0.87271374
24	0xbdcf4e1d	-0.10122321
25	0xbe924891	-0.2857099
26	0x3f4d2486	0.80133855
27	0x3f2b29a1	0.66860396
28	0xbea77e5e	-0.32713598
29	0x3f6eac11	0.932313
30	0xbea42036	-0.32055825
31	0xbebfa145	-0.37427726
32	0xbeb42ea9	-0.3519185
33	0x3f3e2f4b	0.74290913
34	0x3f091448	0.5354657
35	0xbd34bed5	-0.044127304
36	0xbf5f616b	-0.87258023
37	0x3b164184	0.0022927234
38	0xbf659bef	-0.8969106
39	0xbf275e04	-0.6537783
40	0x3eb8bb24	0.36080277
41	0x3f1ea007	0.6196293
42	0x3f29c4e7	0.66316074
43	0xbeb3d928	-0.35126615
44	0xbf0d877f	-0.55284876
45	0xbea4de9e	-0.32201093
46	0x3e0375ab	0.12837856
47	0xbe684de8	-0.22685969
48	0xbcb29a7c	-0.02180218
49	0xbf48f152	-0.78493226

gat_layer_2.attention_1.a f4 [20, 1]
0	0xbf242938	-0.64125395
1	0x3f07aa32	0.5299407
2	0xbe3835e3	-0.17989306
3	0x3e08b27d	0.13349338
4	0xbf34fcb0	-0.7069807
5	0xbf081cf3	-0.53169173
6	0x3f1eeca4	0.62079835
7	0x3e9b09f3	0.30281028
8	0x3e62168b	0.22078912
9	0xbdf94820	-0.1217196
10	0x3d8087fe	0.062759385
11	0xbef66d8a	-0.48130447
12	0x3e4bf2c7	0.19916831
13	0x3e36d90c	0.17856234
14	0x3edef353	0.43545017
15	0xbeb9f5c3	-0.36320314
16	0x3dd21890	0.10258591
17	0xbe90c34d	-0.28274003
18	0xbecfa3df	-0.4055471
19	0xbf3cf663	-0.73813456

gat_layer_2.attention_2.W f4 [5, 10]
0	0x3e7e6316	0.24842486
1	0xbf3ba78b	-0.73302525
2	0xbe326f7f	-0.17425345
3	0x3f2dc1c6	0.678738
4	0x3dbabe7c	0.09118363
5	0xbd55f639	-0.05223677
6	0xbdab1a5a	-0.083546355
7	0x3db6cfae	0.089263305
8	0x3d1d733e	0.03843998
9	0x3f20eced	0.6286152
10	0x3e9e70e9	0.3094552
11	0xbefffbf8	-0.49996924
12	0x3f2f2d30	0.68428326
13	0xbf39957f	-0.7249374
14	0x3e4fd578	0.20296276
15	0x3e1ad227	0.1511923
16	0xbf19a725	-0.6002067
17	0xbe7943e2	-0.24342301
18	0x3cc113d2	0.023569021
19	0xbf383337	-0.7195315
20	0xbea8d67a	-0.32976133
21	0x3f1e1927	0.6175713
22	0xbf193099	-0.5983978
23	0x3e8be0b7	0.2731988
24	0xbf0bb272	-0.5456916
25	0x3dca6766	0.09883003
26	0x3e5aacb0	0.21354938
27	0x3e570ea3	0.21001677
28	0xbdf9da95	-0.12199894
29	0x3f47feb8	0.78123045
30	0x3ece851d	0.40335932
31	0x3f08494b	0.53236836
32	0xbe1d215e	-0.1534476
33	0x3e8f940f	0.28042647
34	0xbf044170	-0.5166235
35	0xbe27c1bd	-0.16382499
36	0xbf412a5e	-0.7545527
37	0xbf15d939	-0.5853458
38	0x3e807009	0.25085476
39	0xbecb19a5	-0.39668003
40	0xbe665f50	-0.22497296
41	0xbf060cad	-0.5236309
42	0xbee3aeb2	-0.4446922
43	0x3f07e077	0.5307688
44	0x3f566cd2	0.83759797
45	0xbec1fbdf	-0.37887475
46	0xbe990d30	-0.29892874
47	0x3f1b08e8	0.60560465
48	0x3e4ad6e7	0.19808541
49	0x3f637f60	0.88866234

gat_layer_2.attention_2.a f4 [20, 1]
0	0xbe8e9d18	-0.27854228
1	0xbf3cf0cd	-0.7380493
2	0x3e6cd02d	0.23126288
3	0x3f256ae7	0.64616245
4	0xbf1ad5fe	-0.60482776
5	0x3f44772e	0.76744354
6	0xbf27c6d3	-0.65537757
7	0xbf0d6a00	-0.5523987
8	0xbe0b3ead	-0.13598128
9	0xbe87026c	-0.26369035
10	0x3f1e9d2e	0.6195859
11	0x3ea1795a	0.31537896
12	0x3f1d1a98	0.61368704
13	0xbe66d391	-0.22541644
14	0x3e060218	0.13086736
15	0x3e660421	0.22462513
16	0xbd0759f3	-0.033044767
17	0xbcee831c	-0.029115252
18	0xbec27316	-0.3797843
19	0xbef7a7a9	-0.48370102

gat_layer_2.attention_3.W f4 [5, 10]
0	0xbf53feae	-0.82810485
1	0x3f1e22a3	0.617716
2	0xbeac6393	-0.3366972
3	0x3f35c3a6	0.7100166
4	0xbedae8d7	-0.42755768
5	0x3f69a978	0.91274214
6	0x3d041916	0.032250486
7	0x3f2fd0af	0.686778
8	0x3e400c04	0.18754584
9	0x3e9cc20d	0.306168
10	0x3f60f793	0.8787777
11	0x3f1d5ed8	0.61472845
12	0x3e06054e	0.13087961
13	0x3f3caeae	0.7370404
14	0x3e0b5f3b	0.13610546
15	0xbeb50a9c	-0.35359657
16	0xbf3cfee2	-0.7382642
17	0x3f429ced	0.760207
18	0xbf0418e3	-0.51600474
19	0x3ef92d00	0.48667145
20	0x3f4950c9	0.78638893
21	0x3e92f2bc	0.28700817
22	0xbe83d051	-0.2574487
23	0xbf0d8cb0	-0.552928
24	0x3f33bde9	0.70211655
25	0x3f079559	0.5296226
26	0x3db7e608	0.08979422
27	0xbef566c0	-0.47929955
28	0xbf3bfd2e	-0.73433197
29	0x3ec52a3c	0.38508785
30	0x3cd931f6	0.026513081
31	0xbf8152de	-1.0103414
32	0x3f583829	0.84460694
33	0x3e357351	0.17719771
34	0x3edc0d23	0.42978773
35	0xbf3bd48d	-0.733712
36	0xbd8f0e51	-0.069851525
37	0x3e8af460	0.27139568
38	0x3e38bdaf	0.18041109
39	0xbe4b4a8a	-0.19852653
40	0x3f418cc4	0.75605416
41	0xbf806c75	-1.0033098
42	0x3e8e8fe9	0.2784417
43	0x3f312609	0.6919866
44	0x3e1a0db5	0.15044291
45	0xbf118205	-0.5683902
46	0xbf3bf926	-0.73427045
47	0x3e10b084	0.14129835
48	0x3ebec461	0.372592
49	0x3ef12fa3	0.47106656

gat_layer_2.attention_3.a f4 [20, 1]
0	0x3f1dcff9	0.61645466
1	0xbeca5461	-0.395175
2	0xbf3cfb94	-0.7382138
3	0x3f11d1d3	0.5696079
4	0xbe790780	-0.24319267
5	0x3d483443	0.048877966
6	0x3ed6b544	0.4193517
7	0xbf195d85	-0.59908324
8	0xbe30faf1	-0.17283227
9	0x3dae962f	0.08524739
10	0x3ea5107d	0.32239142
11	0x3f1d83ed	0.6152943
12	0xbe0ec84b	-0.13943593
13	0x3ea8078c	0.32818258
14	0xbe336365	-0.17518385
15	0xbe5505fc	-0.20803064
16	0xbec59ba1	-0.38595298
17	0x3e9aef30	0.3026061
18	0xbefe113e	-0.4962253
19	0xbe9135ea	-0.28361446

gat_layer_2.attention_4.W f4 [5, 10]
0	0xbe1f3a6d	-0.15549631
1	0x3f0c62b4	0.5483811
2	0xbf2b5ad1	-0.6693545
3	0xbe109f19	-0.14123191
4	0xbe8cf731	-0.27532342
5	0x3eb2e727	0.3494198
6	0xbf2024bb	-0.62556046
7	0xbea86d7f	-0.3289604
8	0x3da59e09	0.080867834
9	0x3e94bb0b	0.29048952
10	0x3f057e7e	0.52146137
11	0x3e81186a	0.2521394
12	0x3e8b3081	0.27185443
13	0x3f256b29	0.6461664
14	0x3f50cb48	0.8156018
15	0x3efab3c3	0.48965272
16	0xbdf7a12e	-0.120912895
17	0xbe8e6399	-0.27810362
18	0xbec84d73	-0.3912159
19	0xbe3d57b9	-0.18490495
20	0xbf1c58d3	-0.61073035
21	0xbf50752e	-0.814288
22	0xbf3389f7	-0.7013239
23	0x3f5324e3	0.8247816
24	0xbe426962	-0.18985513
25	0xbf2af525	-0.6678031
26	0xbf3b5141	-0.7317086
27	0xbe1cdff4	-0.15319806
28	0x3e11157f	0.14168356
29	0xbf22ffaa	-0.6367136
30	0x3e86dfef	0.26342723
31	0x3f386dda	0.7204262
32	0x3e8564d7	0.26053497
33	0xbf0daf57	-0.5534567
34	0xbf14ba69	-0.5809694
35	0xbebc9b3c	-0.36837184
36	0x3f4271ac	0.759547
37	0x3e2146d2	0.15749672
38	0x3e81571f	0.2526178
39	0xbf40f921	-0.7538014
40	0xbdcce663	-0.1000488
41	0xbee8e3f8	-0.45486426
42	0x3eb19aec	0.3468851
43	0x3f244a6d	0.64176065
44	0x3d1ac9d4	0.037790135
45	0xbf250bba	-0.6447102
46	0xbd661a12	-0.056177206
47	0x3f6b3f47	0.9189343
48	0xbe47f514	-0.19527084
49	0xbf47f220	-0.7810383

gat_layer_2.attention_4.a f4 [20, 1]
0	0xbd82f9f3	-0.0639533
1	0x3e590c03	0.21195988
2	0x3f3dbec3	0.74119204
3	0xbf0c3535	-0.5476869
4	0xbf2d489c	-0.6768892
5	0xbf011bf7	-0.50433296
6	0xbf1dad23	-0.6159231
7	0x3eb8eb0d	0.3611683
8	0xbe487503	-0.19575886
9	0xbd501419	-0.050800417
10	0xbe9eb935	-0.31000677
11	0x3f14bdab	0.5810191
12	0xbed39639	-0.41325548
13	0xbf331318	-0.6995101
14	0x3e9ad3d1	0.30239728
15	0x3f162365	0.5864776
16	0xbe8ea348	-0.2785895
17	0xbf1cfba2	-0.6132146
18	0x3f1bb144	0.6081736
19	0xbd5db30f	-0.05412584

gat_layer_2.out_att.W f4 [50, 5]
0	0x3ee4efac	0.44714105
1	0xbe4d0265	-0.20020445
2	0xbe24c0d9	-0.1608919
3	0xbe1a1f8a	-0.15051094
4	0xbeb1eef4	-0.3475262
5	0x3e4060b7	0.18786894
6	0xbd78cde5	-0.06074323
7	0x3e91c868	0.2847321
8	0x3eb231ed	0.34803715
9	0x3e17c250	0.14820218
10	0xbdeb8fc1	-0.11502028
11	0x3e9faad4	0.3118502
12	0xbe9af164	-0.3026229
13	0xbea6dc55	-0.32589975
14	0xbeaeb411	-0.34121755
15	0x3bc04695	0.005867789
16	0xbe5c9b31	-0.21543576
17	0xbd9d14bd	-0.07669971
18	0xbe8c1816	-0.27362126
19	0xbea7cecb	-0.32774958
20	0x3e324071	0.17407395
21	0xbdabff18	-0.08398265
22	0x3de56224	0.112003595
23	0xbd97aa88	-0.07405573
24	0x3ca52066	0.02015705
25	0xbe853cec	-0.26023042
26	0xbe4bacd5	-0.19890149
27	0x3ea4f9f3	0.32221946
28	0xbab2e5d8	-0.0013648821
29	0xbe180102	-0.14844134
30	0xbe1b6810	-0.15176415
31	0x3ec38474	0.3818699
32	0x3eaf6617	0.34257576
33	0x3e8396a5	0.2570087
34	0x3e30d87b	0.17270081
35	0xbe2d09cf	-0.16898273
36	0xbe96cf3c	-0.29454982
37	0xbe696f33	-0.22796325
38	0x3da8d000	0.08242798
39	0x3e7f8eab	0.24956767
40	0xbdf6f26e	-0.120579585
41	0xbeb470f7	-0.35242435
42	0xbd01a44e	-0.031650834
43	0xbec5f3c2	-0.38662535
44	0x3d15497a	0.036447026
45	0x3e1af832	0.15133741
46	0x3ecbc080	0.39795303
47	0xbde0a9d6	-0.10969894
48	0x3ed7a651	0.42119077
49	0x3ec8aea8	0.39195752
50	0x3c4b1872	0.012395965
51	0xbe0ceaf3	-0.13761501
52	0xbe43cfad	-0.19122191
53	0xbeb10581	-0.34574512
54	0xbe8f5f13	-0.28002223
55	0xbe4bcba7	-0.19901906
56	0x3c127ee4	0.008941386
57	0xbd39a1f1	-0.045320455
58	0xbe8078e1	-0.25092223
59	0x3e965bef	0.29367015
60	0x3dea6938	0.1144585
61	0xbe5c6aff	-0.21525191
62	0xbedee682	-0.43535239
63	0x3eabc4c2	0.33548552
64	0xbe98b32a	-0.2982419
65	0xbec811fc	-0.3907622
66	0x3ecb6448	0.39724946
67	0x3e90fa78	0.28316092
68	0xbd7e6fbf	-0.062118288
69	0x3e2d00ea	0.1689488
70	0xbe914b74	-0.2837788
71	0x3ecc6323	0.39919385
72	0xbd80517e	-0.062655434
73	0xbe555167	-0.20831834
74	0xbdd79828	-0.105270684
75	0xbed24816	-0.41070622
76	0x3d25e651	0.04050285
77	0x3e2d465d	0.16921373
78	0xbe6efd8e	-0.23338911
79	0xbdfdf387	-0.12399965
80	0xbea39113	-0.3194662
81	0x3dcf13e1	0.101112135
82	0xbda335d8	-0.07969254
83	0x3e7ef69f	0.24898766
84	0xbc0fee8a	-0.0087848995
85	0xbdb17563	-0.08664968
86	0xbdbe41b6	-0.09289877
87	0xbedd168f	-0.43181273
88	0xbd93f228	-0.07223922
89	0xbe9dc754	-0.30816138
90	0xbd9dab97	-0.07698744
91	0xbea0f758	-0.31438708
92	0xbe205d90	-0.15660691
93	0xbe752811	-0.23941065
94	0xbf02cd46	-0.5109447
95	0x3de74115	0.1129171
96	0x3e522efd	0.20525737
97	0x3e679ec4	0.22619158
98	0x3d6a3ba3	0.05718578
99	0x3e0f0c26	0.13969478
100	0xbebbcbea	-0.36679012
101	0xbeacf3c7	-0.33779737
102	0xbda98d1e	-0.08278869
103	0xbe0cc067	-0.1374527
104	0xbe714e07	-0.23564921
105	0xbec13752	-0.3773752
106	0xbe0bcd26	-0.13652477
107	0xbed92a2e	-0.42414993
108	0x3e534eae	0.20635483
109	0xbedb5b30	-0.42843008
110	0xbeeb904c	-0.46008527
111	0xbe47f61b	-0.19527476
112	0xbdbd9cfd	-0.09258459
113	0x3e93d7e7	0.28875658
114	0x3e9852bd	0.29750624
115	0x3e02a881	0.12759592
116	0x3e5aa349	0.21351351
117	0x3e5352db	0.20637076
118	0x3e3cf350	0.18452191
119	0xbe1889fa	-0.14896384
120	0xbecd86ce	-0.4014191
121	0xbe9e4187	-0.30909368
122	0x3e3bee59	0.18352641
123	0x3e9930eb	0.29920134
124	0x3e5d3d97	0.21605526
125	0x3c87a95b	0.016560247
126	0x3ea0999a	0.3136719
127	0xbeb7156a	-0.35758525
128	0x3e98c293	0.29835948
129	0xbec97628	-0.3934796
130	0xbe25d600	-0.16194916
131	0x3e50f774	0.20406896
132	0x3ec56a35	0.38557592
133	0xbeb5a3ed	-0.35476628
134	0xbae1cfdd	-0.0017228086
135	0xbe7e5d8d	-0.24840374
136	0xbe59835d	-0.21241517
137	0xbe62d437	-0.22151266
138	0x3bf8e859	0.0075960574
139	0xbe877bb0	-0.26461554
140	0xbdaa1136	-0.08304064
141	0xbe8accbe	-0.2710933
142	0x3b784ea8	0.003788868
143	0xbebe49cd	-0.3716568
144	0xbc760f56	-0.015018305
145	0xbedbc3bf	-0.4292278
146	0x3ee13f5d	0.43993655
147	0xbe1c4337	-0.15260015
148	0x3e8f042b	0.27932867
149	0xbedf7cc9	-0.4364989
150	0x3ea46499	0.32108
151	0xbef596c1	-0.4796658
152	0x3e2413e6	0.16023216
153	0xba9d5412	-0.0012003204
154	0x3e8269b8	0.25471282
155	0xbe3a7cc4	-0.18211657
156	0xbe6dba2e	-0.23215553
157	0xbe21f928	-0.15817702
158	0xbd625769	-0.055259142
159	0xbe143053	-0.14471559
160	0x3de5832c	0.1120666
161	0xbe6e9872	-0.23300341
162	0xbcc7ea5d	-0.024403745
163	0xbe1efdcc	-0.15526503
164	0x3e9cca2b	0.30622992
165	0xbe52c5ed	-0.20583315
166	0x3ebd99c1	0.37031367
167	0x3ebd9c31	0.37033227
168	0x3c633646	0.01386792
169	0x3ebc09e4	0.36726296
170	0x3e652b53	0.22379808
171	0xbda0e027	-0.07855254
172	0x3e507d96	0.20360407
173	0x3ecfacce	0.40561527
174	0x3eb5ade4	0.3548423
175	0x3e08736e	0.13325283
176	0xbe779897	-0.24179302
177	0xbe184ab0	-0.14872241
178	0x3eb0023a	0.343767
179	0xbb973c66	-0.0046153544
180	0x3e4904a8	0.19630682
181	0xbd2611d3	-0.040544342
182	0xbea220f3	-0.31665763
183	0xbe93131d	-0.2872552
184	0x3e051926	0.12997875
185	0xbe962f44	-0.29332936
186	0x3ed564d8	0.416785
187	0xbee9dd7e	-0.45676798
188	0x3dfc10ac	0.123078674
189	0xbe6306ac	-0.22170514
190	0xbebd824f	-0.3701348
191	0xbce74a89	-0.028233783
192	0xbc9f025d	-0.019410307
193	0x3ec66241	0.38746837
194	0xbdb67ef0	-0.0891093
195	0x3df39226	0.1189311
196	0x3e6468c0	0.22305584
197	0xbc9387b1	-0.018009039
198	0x3c8ee995	0.017445365
199	0x3f0c21c3	0.54739016
200	0xbee1c302	-0.44094092
201	0x3e3cd2de	0.18439814
202	0x3ea2295e	0.31672186
203	0x3cc987c9	0.02460088
204	0x3e609ac0	0.21934032
205	0x3e3eb1f8	0.18622577
206	0x3e2450b2	0.16046408
207	0xbd66e1ce	-0.056367688
208	0xbec5c695	-0.3862807
209	0x3ec57d69	0.38572243
210	0xbde3b499	-0.11118431
211	0xbe8e3794	-0.27776778
212	0x3dcc02ee	0.09961496
213	0x3e9f0f60	0.31066418
214	0xbe06edc7	-0.13176642
215	0x3e36c778	0.17849529
216	0x3e5e7037	0.21722494
217	0xbe88dc87	-0.2673075
218	0x3cc0f57f	0.023554562
219	0x3ea8f263	0.32997426
220	0xbecbc908	-0.39801812
221	0x3ecdb391	0.4017606
222	0x3e9de56a	0.30839092
223	0xbee70bde	-0.4512624
224	0xbe158034	-0.14599687
225	0x3ebbdabf	0.36690328
226	0x3ec6401a	0.3872078
227	0xbe9b95f9	-0.30387858
228	0x3e7d449b	0.24733202
229	0x3ecfa9fb	0.40559372
230	0xbedfe871	-0.43732026
231	0xbb0baa68	-0.0021311287
232	0x3d8bda73	0.06828775
233	0xbeb490ed	-0.3526682
234	0x3d12166a	0.035665907
235	0xbe96c07a	-0.29443723
236	0xbe9888c5	-0.29791847
237	0x3ea6a73c	0.32549465
238	0x3e54abbc	0.20768636
239	0x3d3f1556	0.046651207
240	0xbea48b9a	-0.32137758
241	0x3ae3e2ff	0.0017386376
242	0x3ebcfb62	0.3691054
243	0xbddd0caf	-0.10793435
244	0xbf0020e8	-0.5005021
245	0x3d9be5d5	0.07612196
246	0xbe544245	-0.20728405
247	0xbe845c83	-0.2585183
248	0xbc22ef4d	-0.009944749
249	0xbeb3fc58	-0.3515346

gat_layer_2.out_att.a f4 [10, 1]
0	0x3dd384af	0.10328042
1	0x3f5f7a0c	0.87295604
2	0xbdfae529	-0.1225074
3	0x3f3ec3f9	0.7451778
4	0x3ee03938	0.43793654
5	0x3ead200f	0.3381352
6	0x3d80e2d1	0.06293262
7	0x3f82a34a	1.0206082
8	0xbebc7d90	-0.36814547
9	0xbf2327ae	-0.6373242
