tests/gat/encoder-checkpoint9.pt (torch, 20170 bytes, 36 tensors)

gat_layer_0.attention_0.W f4 [5, 10]
-0.45352492 -0.8046901 0.40255198 -0.3233754 -0.11530479 0.32594976 0.80408436 -0.12659748
0.5042633 -0.47372627 -0.21091652 0.14857472 0.2792237 -0.85358 -0.20668352 0.09787898
-0.65922046 -0.13449116 -0.39887425 0.074414566 0.13600308 0.42345473 0.37156802 0.4765544
-0.073561504 -0.37463132 0.4089524 0.7625343 0.023044147 -0.11045866 -0.4665246 0.43597054
0.037342213 -0.5117591 -0.2546132 0.39056656 -0.9007589 0.31659138 0.779093 -0.8505456
0.66322666 -0.7445929 0.24277966 0.30541882 -0.15362164 0.812698 -0.03900985 0.7518788
0.44511402 -0.3674132
00000000: 6b34 e8be 2c00 4ebf 4b1b ce3e 7691 a5be
00000010: eb24 ecbd e3e2 a63e 79d8 4d3f c5a2 01be
00000020: 6617 013f 408c f2be 80fa 57be f923 183e
00000030: 69f6 8e3e 3884 5abf d8a4 53be c674 c83d
00000040: acc2 28bf 0db8 09be 3f39 ccbe aa66 983d
00000050: 6444 0b3e 0fcf d83e 2a3e be3e f0fe f33e
00000060: 6aa7 96bd adcf bfbe 3562 d13e 7335 433f
00000070: 14c7 bc3c 2638 e2bd 50dc eebe 8837 df3e
00000080: 26f4 183d a502 03bf a95c 82be 57f8 c73e
00000090: 2398 66bf 4418 a23e a472 473f 5bbd 59bf
000000a0: 39c9 293f a49d 3ebf 3b9b 783e db5f 9c3e
000000b0: fe4e 1dbe fa0c 503f cbc8 1fbd 217b 403f
000000c0: fce5 e33e 951d bcbe

gat_layer_0.attention_0.a f4 [20, 1]
-0.11726489 -0.23190592 0.18907553 0.7459077 -0.3366471 -0.047068365 0.62792784 -0.48770222
-0.07592099 0.63504153 -0.5091989 -0.7645422 0.49223882 -0.13533469 -0.14559667 -0.32589284
0.32195413 0.16620937 0.07602709 0.027302999
00000000: 9328 f0bd bf78 6dbe 049d 413e cff3 3e3f
00000010: 025d acbe c2ca 40bd e1bf 203f 1bb4 f9be
00000020: 777c 9bbd 1592 223f dc5a 02bf 0ab9 43bf
00000030: ba06 fc3e 2d95 0abe 4b17 15be 6ddb a6be
00000040: 2cd7 a43e ca32 2a3e 17b4 9b3d 8aaa df3c

gat_layer_0.attention_1.W f4 [5, 10]
-0.82120514 -0.019406296 -0.05350834 -0.012427693 -0.08613976 -0.2239959 -0.8349612 0.73493326
-0.7590002 -0.70863736 0.36396223 -0.8413908 -0.6940783 0.7176382 0.8667148 -0.39574617
0.75371945 -0.30008477 -0.064466596 0.15908636 0.041355204 0.53841937 -0.5529276 -0.3021727
-0.19137917 -0.43280554 0.7726507 0.0982685 -0.71916133 -0.44915992 0.5224663 0.11900688
0.3602367 0.37177202 0.054028664 0.7728655 -0.3966587 0.8711635 -0.39029032 -0.050480403
-0.60024244 -0.32815328 0.82458186 -0.6773838 0.588554 0.65082943 -0.53807396 -0.52321213
-0.7807521 -0.6420308
00000000: 803a 52bf f4f9 9ebc 902b 5bbd 869d 4bbc
00000010: 0b6a b0bd 2e5f 65be 04c0 55bf 9624 3c3f
00000020: d64d 42bf 4269 35bf 4259 ba3e 6365 57bf
00000030: 1eaf 31bf 23b7 373f 05e1 5d3f 3e9f cabe
00000040: c2f3 403f b6a4 99be 1007 84bd 89e7 223e
00000050: 1364 293d dad5 093f aa8c 0dbf 61b6 9abe
00000060: e7f8 43be b098 ddbe 70cc 453f ff40 c93d
00000070: f51a 38bf 4af8 e5be 5ac0 053f e1b9 f33d
00000080: f270 b83e e758 be3e 294d 5d3d 83da 453f
00000090: d916 cbbe 9204 5f3f 22d4 c7be 8ac4 4ebd
000000a0: 7da9 19bf b503 a8be cc17 533f 0669 2dbf
000000b0: 7aab 163f c29c 263f 37bf 09bf 3bf1 05bf
000000c0: 5fdf 47bf 215c 24bf

gat_layer_0.attention_1.a f4 [20, 1]
-0.35903183 0.08744419 0.27948663 -0.23267052 0.22974423 -0.3889889 -0.5313443 -0.4962461
-0.09160236 -0.2573092 0.549134 0.18156217 -0.3037357 -0.3250777 0.17914012 0.12809356
-0.39459467 -0.46738887 0.6820332 0.0232561
00000000: 05d3 b7be f115 b33d df18 8f3e 2e41 6ebe
00000010: 1242 6b3e 8e29 c7be 2e06 08bf f813 febe
00000020: 059a bbbd 08be 83be 0c94 0c3f 6feb 393e
00000030: 3f83 9bbe 9670 a6be 8270 373e f52a 033e
00000040: 5008 cabe 984d efbe ba99 2e3f 9483 be3c

gat_layer_0.attention_2.W f4 [5, 10]
0.8294028 -0.46149567 -0.13654408 0.7829642 0.68152374 0.08026866 -0.59732425 -0.54074615
-0.6177178 -0.5421859 0.26397595 -0.8902184 -0.84063023 0.17538452 -0.22459133 -0.362368
-0.8557731 0.27731362 -0.07950505 -0.39906728 -0.5353466 0.6931279 0.719694 -0.35446367
0.46107593 0.18604471 -0.5329024 -0.45678055 0.874052 0.6290474 -0.8798011 0.28218523
0.6295527 0.24214545 -0.58538395 -0.22058612 -0.6935085 -0.32866576 -0.5010807 0.5459833
-0.07265686 -0.16887094 -0.68140393 0.18546341 0.037592158 -0.3152915 -0.8454227 -0.8438661
-0.15056069 0.3195534
00000000: be53 543f 2949 ecbe 36d2 0bbe 5870 483f
00000010: 5778 2e3f e563 a43d 3eea 18bf 576e 0abf
00000020: c122 1ebf b2cc 0abf db27 873e 5ae5 63bf
00000030: 8b33 57bf 0098 333e 45fb 65be 4c88 b9be
00000040: f213 5bbf 0dfc 8d3e 8bd3 a2bd 8c52 ccbe
00000050: 7a0c 09bf d470 313f de3d 383f 437c b5be
00000060: 2512 ec3e 8182 3e3e 4b6c 08bf 24df e9be
00000070: dfc1 5f3f 4009 213f a53a 61bf 957a 903e
00000080: 5e2a 213f faf4 773e b9db 15bf 54e1 61be
00000090: c689 31bf e146 a8be d346 00bf 90c5 0b3f
000000a0: 1fcd 94bd 81ec 2cbe 7d70 2ebf 1fea 3d3e
000000b0: 3cfa 193d e36d a1be 9f6d 58bf 9c07 58bf
000000c0: 952c 1abe 819c a33e

gat_layer_0.attention_2.a f4 [20, 1]
-0.4565382 -0.28987262 -0.36438894 -0.6219834 -0.7265086 0.52474165 0.020528296 0.5325822
0.45659667 0.56302804 0.7303328 -0.6862811 -0.50937325 0.24093696 0.49403748 0.2534279
0.6571955 -0.28370538 -0.5150104 -0.4904872
00000000: 60bf e9be 2f6a 94be 3091 babe 4e3a 1fbf
00000010: 78fc 39bf 7855 063f f52a a83c 4f57 083f
00000020: 0ac7 e93e 9b22 103f 17f7 3a3f 1eb0 2fbf
00000030: 4966 02bf 2eb8 763e 7bf2 fc3e 4dc1 813e
00000040: f73d 283f d541 91be b9d7 03bf 2321 fbbe

gat_layer_0.attention_3.W f4 [5, 10]
-0.34921762 -0.106851086 0.08506605 0.39166403 -0.28951955 -0.79748005 -0.64178663 0.8630937
-0.061507847 -0.51913446 -0.69156176 0.15671393 0.12444893 0.14315215 -0.4141038 -0.57162637
-0.6494061 0.17827436 0.56601036 0.15783854 0.5820952 0.71481466 -0.25548822 0.11517003
0.3508503 -0.6601065 0.4237171 -0.60779715 -0.5113612 0.35373935 -0.113576174 -0.015883926
-0.5993275 0.4828047 0.6361254 -0.729163 -0.47764006 -0.6811282 0.6278296 0.18548591
0.68225914 0.32513326 -0.7550294 0.45215923 0.13709083 -0.35361898 -0.6323706 0.15969472
0.68718815 -0.6553943
00000000: a7cc b2be bed4 dabd 1c37 ae3d 3088 c83e
00000010: e83b 94be a727 4cbf 214c 24bf b5f3 5c3f
00000020: a7ef 7bbd ffe5 04bf 310a 31bf 9e79 203e
00000030: 15df fe3d 7a96 123e 6a05 d4be 1b56 12bf
00000040: 7a3f 26bf 8e8d 363e 0ee6 103f 6da0 213e
00000050: 3104 153f 18fe 363f 5acf 82be 44de eb3d
00000060: a7a2 b33e bdfc 28bf 73f1 d83e 9898 1bbf
00000070: 91e8 02bf 531d b53e a09a e8bd 021f 82bc
00000080: 876d 19bf 2d32 f73e 1dd9 223f 6daa 3abf
00000090: 3d8d f4be 6b5e 2ebf 71b9 203f 05f0 3d3e
000000a0: 89a8 2e3f de77 a63e 9b49 41bf 6a81 e73e
000000b0: 8a61 0c3e 8c0d b5be 0ae3 21bf 0387 233e
000000c0: 90eb 2f3f ecc7 27bf

gat_layer_0.attention_3.a f4 [20, 1]
-0.32896134 0.040700883 0.48997727 0.7467242 0.6530685 0.6668989 -0.0372516 0.74550384
0.08005691 -0.52052134 -0.25551474 -0.5785705 -0.057251632 -0.64575964 -0.3732889 0.08035785
0.4730076 0.018600488 0.4437583 0.122959726
00000000: 9f6d a8be f8b5 263d 4dde fa3e 5129 3f3f
00000010: 7f2f 273f e3b9 2a3f 2295 18bd 57d9 3e3f
00000020: e1f4 a33d e340 05bf d4d2 82be 321d 14bf
00000030: b080 6abd 8150 25bf b91f bfbe a892 a43d
00000040: 0d2e f23e 0d60 983c 4a34 e33e 4fd2 fb3d

gat_layer_0.attention_4.W f4 [5, 10]
-0.3103743 -0.7433015 0.786406 0.3419928 0.006392963 0.3032202 0.4688426 0.25553185
-0.34166673 -0.66120523 -0.12470557 -0.45933026 -0.8646651 -0.5835002 0.40447757 0.5011178
-0.65036476 -0.27007732 0.33950236 0.42776954 -0.68755966 0.51523453 -0.31583068 -0.45664492
-0.67282015 0.2308187 0.0966847 0.48750573 -0.15272851 0.64758855 -0.19736215 -0.25183627
-0.46776974 0.57545763 -0.8867756 0.19661295 -0.7221388 -0.4604682 -0.7899361 0.72556716
-0.6192613 0.7485488 0.5752198 -0.067750454 -0.25494185 0.8004666 0.8117683 0.8027944
-0.82202953 0.15343346
00000000: 61e9 9ebe 0249 3ebf e751 493f ae19 af3e
00000010: 107c d13b ae3f 9b3e 230c f03e 12d5 823e
00000020: f1ee aebe bf44 29bf a265 ffbd 562d ebbe
00000030: b15a 5dbf 4560 15bf af17 cf3e 4249 003f
00000040: 4e7e 26bf 9347 8abe 41d3 ad3e 9c04 db3e
00000050: e903 30bf 69e6 033f 8fb4 a1be 5dcd e9be
00000060: f13d 2cbf bd5b 6c3e a102 c63d 5a9a f93e
00000070: dd64 1cbe 5dc8 253f 4e19 4abe aff0 80be
00000080: 847f efbe 3151 133f ba03 63bf e854 493e
00000090: 17de 38bf 7dc2 ebbe 4139 4abf c5be 393f
000000a0: e987 1ebf e5a0 3f3f 9b41 133f c0c0 8abd
000000b0: bd87 82be 61eb 4c3f 0cd0 4f3f ef83 4d3f
000000c0: 8770 52bf a91d 1d3e

gat_layer_0.attention_4.a f4 [20, 1]
0.024203604 -0.45163658 -0.46789822 -0.42738146 -0.2805108 0.54616964 0.42559332 0.1624489
-0.4486357 0.38770846 0.6542943 0.64090323 -0.23240483 0.58516914 0.38493115 0.5156031
0.4127269 0.48786727 0.5574052 -0.5666753
00000000: a346 c63c e93c e7be 5b90 efbe bed1 dabe
00000010: 1d9f 8fbe c6d1 0b3f 5ee7 d93e 0159 263e
00000020: 94b3 e5be b981 c63e d57f 273f 3c12 243f
00000030: 88fb 6dbe a5cd 153f b215 c53e 91fe 033f
00000040: f150 d33e bdc9 f93e 1bb2 0e3f a211 11bf

gat_layer_0.out_att.W f4 [50, 5]
-0.41348696 -0.2735566 0.022833398 -0.23695324 -0.2649346 -0.476999 0.06682812 -0.28034237
0.12483833 -0.19948204 0.29397544 -0.3426309 0.19913425 -0.0071460907 0.25187406 -0.039718464
-0.18528369 0.10160729 0.33993062 -0.36880335 0.39188933 -0.047952153 0.13879493 0.22861984
0.4407949 -0.29964384 0.020021895 0.36378154 0.28205928 -0.1961944 0.40379727 0.23902214
-0.33295652 -0.30570576 0.17391473 -0.48315144 0.021914074 0.2648358 -0.28772038 0.014753497
0.18296582 -0.25678658 -0.04952139 0.10354847 0.021396428 -0.35848448 0.22774136 -0.13245644
-0.286077 0.26347253 -0.3083942 0.24236609 -0.18957222 -0.2676776 -0.09387692 -0.1913975
0.20487836 -0.014873673 0.23415081 -0.31135145 -0.030568525 0.31939846 -0.3933284 0.38518226
0.321912 0.10835594 0.20635176 -0.27405804 0.21443696 0.45704076 0.023725918 -0.45543325
0.26871568 -0.34097612 0.4300592 -0.07532485 -0.06925848 -0.049242824 0.3447462 -0.43573865
-0.22306317 0.25621483 -0.15885718 0.45676774 0.41275918 0.055365555 -0.17366336 0.22058998
-0.019421678 0.16277896 -0.43763372 -0.04360348 -0.013562588 0.06648839 0.38103095 0.31105596
-0.28211892 -0.23772234 0.38207233 0.23615226 0.1907968 -0.42625016 -0.07096686 -0.058569852
0.3746758 0.29895788 0.3179828 -0.027120879 -0.19665556 -0.41278908 0.38647425 0.28904462
-0.2536621 -0.14148004 0.30987886 0.014096566 -0.14643727 -0.17917477 0.17074291 -0.20938839
0.14227703 -0.41187936 0.10021229 0.10169815 -0.07969396 0.06847254 0.14891861 -0.2846363
0.3084727 -0.24065721 -0.31050813 -0.2584211 0.32242513 -0.46124172 -0.32445726 0.35454917
-0.03605356 -0.41413146 0.44650063 -0.336813 -0.23494354 -0.08950298 0.26659328 -0.40694836
0.30299333 0.40636367 -0.16538832 0.21828057 -0.31726322 -0.35040092 0.004208099 0.36983782
-0.07010743 -0.3851665 0.10274048 0.285608 -0.15479845 -0.44089058 0.24018674 0.1752262
-0.38197756 0.20224355 -0.3683987 0.30301636 0.41928846 -0.41305727 0.18803567 0.42160523
0.16658175 0.45124498 -0.19838426 -0.23117055 0.45335534 0.35399145 -0.3604991 -0.14065588
0.4040298 0.009931226 0.39116883 0.14425206 0.20788199 0.35628125 0.28721547 -0.36058286
0.05991892 -0.34354267 0.20423178 0.2587494 0.11696127 -0.2505802 -0.32437173 0.29156953
0.06601866 -0.2961638 -0.37556335 0.34539038 0.22188503 -0.3230742 0.1515007 0.030853663
-0.19304343 0.34430155 0.2989284 -0.09714021 -0.18602481 0.0023620366 0.3288064 0.08516062
0.30220917 -0.23423666 0.115048975 0.25156796 0.041590434 -0.06816465 0.21764429 -0.07428365
-0.38729486 0.36758494 -0.14689799 0.2839369 0.42974442 0.413218 0.03661304 -0.38559115
0.09061817 -0.20640615 -0.33789688 0.015415213 -0.12952513 0.14950486 -0.09592224 -0.08429947
-0.42329463 0.25881192 -0.46457037 -0.16301522 0.0090017365 -0.09688762 0.36579594 -0.25494826
-0.21475793 -0.44466862 0.3911416 -0.2681716 0.3276435 0.027798893 -0.43832344 0.37954396
-0.45025635 -0.1796987
00000000: 90b4 d3be 9c0f 8cbe 1b0d bb3c dfa3 72be
00000010: 82a5 87be 3739 f4be 2edd 883d 0989 8fbe
00000020: 3dab ff3d 0545 4cbe f383 963e 516d afbe
00000030: d9e9 4b3e c129 eabb a3f5 803e d4af 22bd
00000040: 02bb 3dbe 7c17 d03d 630b ae3e cbd3 bcbe
00000050: b8a5 c83e 7a69 44bd 4220 0e3e 521b 6a3e
00000060: deaf e13e eb6a 99be f504 a43c 9341 ba3e
00000070: 136a 903e 2fe7 48be 84be ce3e 38c2 743e
00000080: 4779 aabe 7785 9cbe b416 323e a05f f7be
00000090: 2585 b33c 8f98 873e 1650 93be a7b8 713c
000000a0: 645b 3b3e 8879 83be f1d6 4abd 3811 d43d
000000b0: 9047 af3c 478b b7be 0835 693e a9a2 07be
000000c0: af78 92be dfe5 863e d8e5 9dbe d12e 783e
000000d0: 381f 42be 0a0d 89be 8b42 c0bd b5fd 43be
000000e0: a2cb 513e b5b0 73bc 3bc5 6f3e 7569 9fbe
000000f0: d86a fabc 3288 a33e 5762 c9be 9c36 c53e
00000100: a6d1 a43e b8e9 dd3d e04d 533e 5651 8cbe
00000110: 5d95 5b3e 3f01 ea3e db5c c23c 8c2e e9be
00000120: 1a95 893e 6c94 aebe b830 dc3e ea43 9abd
00000130: 64d7 8dbd d8b2 49bd 9382 b03e 2319 dfbe
00000140: ac6a 64be 972e 833e 75ab 22be 76dd e93e
00000150: 2c55 d33e fec6 623d cfd4 31be 57e2 613e
00000160: 361a 9fbc 87af 263e 8711 e0be 9099 32bd
00000170: 9e35 5ebc 112b 883d 7d16 c33e ba42 9f3e
00000180: e471 90be 7c6d 73be fc9e c33e e6d1 713e
00000190: 3d60 433e 763d dabe 1357 91bd f1e6 6fbd
000001a0: 82d5 bf3e 0211 993e a4ce a23e 9b2c debc
000001b0: 1360 49be 1759 d3be f4df c53e a8fd 933e
000001c0: 00e0 81be 25e0 10be 71a8 9e3e 48f5 663c
000001d0: a7f3 15be 9779 37be 3bd7 2e3e e969 56be
000001e0: 12b1 113e dae1 d2be 1a3c cd3d 1f47 d03d
000001f0: 9636 a3bd 553b 8c3d 1f7e 183e d9bb 91be
00000200: 22f0 9d3e d86e 76be ecfa 9ebe c54f 84be
00000210: e814 a53e e027 ecbe 431f a6be 7887 b53e
00000220: e6ac 13bd 0a09 d4be bb9b e43e c172 acbe
00000230: 0a95 70be 574d b7bd ea7e 883e 895b d0be
00000240: f121 9b3e e60e d03e 8e5b 29be f184 5f3e
00000250: 5370 a2be c067 b3be 18e4 893b 625b bd3e
00000260: 7c94 8fbd 8b34 c5be 9a69 d23d 363b 923e
00000270: 7c83 1ebe 69bc e1be 83f3 753e 7f6e 333e
00000280: 9092 c3be ef18 4f3e c19e bcbe f624 9b3e
00000290: faac d63e 3e7c d3be 6c8c 403e a4dc d73e
000002a0: 6894 2a3e 9509 e73e 3e25 4bbe f9b7 6cbe
000002b0: 311e e83e 5e3e b53e 5793 b8be 1808 10be
000002c0: fedc ce3e 95b6 223c 4847 c83e d0b6 133e
000002d0: 04df 543e 7f6a b63e e80d 933e 519e b8be
000002e0: 8b6d 753d d3e4 afbe 2322 513e cd7a 843e
000002f0: 6489 ef3d 0c4c 80be 0d14 a6be 9a48 953e
00000300: cb34 873d c8a2 97be d749 c0be 02d7 b03e
00000310: d435 633e fb69 a5be 0023 1b3e d2c0 fc3c
00000320: 2dad 45be 4b48 b03e 250d 993e 72f1 c6bd
00000330: 4a7d 3ebe 66cc 1a3b 5059 a83e b168 ae3d
00000340: 29bb 9a3e bcdb 6fbe cc9e eb3d 84cd 803e
00000350: bb5a 2a3d e899 8bbd 25de 5e3e 0722 98bd
00000360: 834b c6be 1834 bc3e 6d6c 16be 2d60 913e
00000370: 7607 dc3e 4f91 d33e 8ef7 153d 346c c5be
00000380: 0596 b93d 225c 53be d200 adbe 1790 7c3c
00000390: 3ca2 04be cd17 193e e172 c4bd 33a5 acbd
000003a0: 13ba d8be ff82 843e 2bdc edbe 76ed 26be
000003b0: 057c 133c 046d c6bd 9b49 bb3e 9488 82be
000003c0: 81e9 5bbe 9bab e3be b643 c83e ca4d 89be
000003d0: e4c0 a73e 81ba e33c ee6b e0be 9653 c23e
000003e0: 0088 e6be f002 38be

gat_layer_0.out_att.a f4 [10, 1]
0.1451981 0.9886141 -0.6571615 -0.4337401 -0.42903492 -0.77113736 0.39234993 -0.11196557
-0.9990819 -0.70240146
00000000: d0ae 143e d015 7d3f bc3b 28bf 2f13 debe
00000010: 77aa dbbe 4269 45bf 17e2 c83e 344e e5bd
00000020: d5c3 7fbf 95d0 33bf

gat_layer_1.attention_0.W f4 [5, 10]
0.014860157 -0.26719576 0.55441004 -0.8571871 0.48713222 -0.18314023 0.31434265 -0.015817665
-0.7267478 -0.5470901 0.711151 -0.7878054 -0.43049407 -0.096257135 -0.8205872 -0.007729111
-0.70914316 -0.7186494 -0.6361401 0.5368756 0.4532852 -0.6663543 0.74032354 -0.25019282
0.6733529 0.03675435 -0.48600367 0.88657796 0.12853311 0.78264475 0.11774814 -0.78398913
0.37841856 -0.12472146 0.22391807 0.84746206 -0.5263844 -0.66605437 -0.22069402 -0.04232127
-0.2244062 0.75759584 0.83361256 0.73492503 -0.83680516 -0.61564523 0.6199822 -0.32913187
0.52533704 0.43680522
00000000: 0478 733c e2cd 88be d1ed 0d3f 9d70 5bbf
00000010: 6569 f93e 1d89 3bbe 85f1 a03e 0c94 81bc
00000020: 250c 3abf 190e 0cbf fe0d 363f 9dad 49bf
00000030: b869 dcbe 7622 c5bd 0112 52bf 7b44 fdbb
00000040: 688a 35bf 68f9 37bf 14da 22bf ae70 093f
00000050: ff14 e83e 3296 2abf d885 3d3f 4619 80be
00000060: db60 2c3f bb8b 163d 79d5 f8be c6f6 623f
00000070: 2f9e 033e 685b 483f f025 f13d 83b3 48bf
00000080: 14c0 c13e f76d ffbd c74a 653e 46f3 583f
00000090: 21c1 06bf 8a82 2abf 9dfd 61be 1159 2dbd
000000a0: bdca 65be cdf1 413f a267 553f 0c24 3c3f
000000b0: dd38 56bf ed9a 1dbf 27b7 1e3f f983 a8be
000000c0: 7d7c 063f efa4 df3e

gat_layer_1.attention_0.a f4 [20, 1]
0.18696277 -0.5210183 -0.21239392 -0.3935874 0.7501099 -0.73814756 -0.32105842 -0.7213058
0.72190756 -0.6505509 0.73603666 -0.15900654 -0.2055481 -0.1398337 0.6828281 0.20775436
0.45540792 -0.21773432 -0.7207166 -0.18362592
00000000: 2b73 3f3e 7561 05bf cb7d 59be 4a84 c9be
00000010: 3407 403f 3df7 3cbf c561 a4be 7fa7 38bf
00000020: efce 383f 818a 26bf e66c 3c3f 9cd2 22be
00000030: 337b 52be 9130 0fbe d3cd 2e3f 8fbd 543e
00000040: 3a2b e93e bff5 5ebe e280 38bf 6f08 3cbe

gat_layer_1.attention_1.W f4 [5, 10]
0.5271769 -0.015598004 0.51934505 0.49027833 -0.43525457 -0.26542184 0.03291116 0.0611101
-0.5684143 0.15868115 -0.8738121 0.097140804 -0.7042591 0.8477466 -0.23216274 -0.33923566
0.15389901 -0.7925154 0.45421463 0.38622734 0.5192564 -0.64231735 -0.8332938 -0.34630266
-0.21355453 -0.19136156 0.5874085 -0.11286398 -0.54919904 -0.3542373 0.094151326 0.29749176
-0.7260268 0.40715668 -0.25325006 0.33352497 -0.12386395 -0.24103288 -0.2175557 0.17201345
-0.72169524 0.52733874 -0.47722188 -0.3540535 0.24024345 0.09583175 0.15648182 -0.8716593
-0.42309523 -0.08048311
00000000: 11f5 063f c58e 7fbc ccf3 043f c305 fb3e
00000010: b0d9 debe 5fe5 87be dacd 063d 964e 7a3d
00000020: 9983 11bf 507d 223e 26b2 5fbf c2f1 c63d
00000030: 534a 34bf ec05 593f 12bc 6dbe 4cb0 adbe
00000040: b497 1d3e 4ae2 4abf d28e e83e 97bf c53e
00000050: fded 043f e96e 24bf be52 55bf 954e b1be
00000060: 0aae 5abe 49f4 43be 6760 163f 3b25 e7bd
00000070: 4f98 0cbf 975e b5be 69d2 c03d d750 983e
00000080: e4dc 39bf d776 d03e fea9 81be c9c3 aa3e
00000090: 62ac fdbd 53d1 76be ecc6 5ebe 4b24 303e
000000a0: 05c1 38bf acff 063f 6d56 f4be 8046 b5be
000000b0: 6102 763e 7043 c43d c53c 203e 1025 5fbf
000000c0: f09f d8be 54d4 a4bd

gat_layer_1.attention_1.a f4 [20, 1]
-0.5564557 0.14212841 -0.15169503 -0.384596 0.21589914 -0.13584381 0.007820457 0.7452315
-0.40532994 -0.26834804 0.6131037 0.018083928 0.43705866 -0.64755857 -0.0038551213 -0.3875386
-0.33874735 0.7044455 -0.052145276 0.64834744
00000000: e173 0ebf 1c8a 113e f155 1bbe c4e9 c4be
00000010: aa14 5d3e a41a 0bbe 6021 003c 7ec7 3e3f
00000020: 6887 cfbe ea64 89be 5df4 1c3f bf24 943c
00000030: 27c6 df3e 66c6 25bf 34a6 7cbb 766b c6be
00000040: 4b70 adbe 8a56 343f 4996 55bd 19fa 253f

gat_layer_1.attention_2.W f4 [5, 10]
-0.0947039 -0.78992444 -0.34124625 -0.32270026 -0.87523794 -0.31601262 0.760115 -0.18107593
0.33360142 -0.027198168 0.48814502 -0.81007797 0.019550493 0.60838914 0.8668953 -0.32321334
-0.41467777 -0.17966634 -0.5315318 -0.011202755 0.10397802 0.44939965 -0.70493215 0.6171081
0.4939299 0.42042708 -0.78977424 0.232751 0.05378021 0.22362311 0.12380996 -0.024323415
0.18194301 0.14633667 0.6339306 -0.21725102 -0.47417277 -0.1960349 0.0145417545 0.34263477
0.22485584 -0.2892898 -0.66211474 0.7956465 0.6212102 -0.20693047 0.3658275 -0.00239809
0.14204228 0.08563634
00000000: 1ef4 c1bd 7d38 4abf d4b7 aebe f838 a5be
00000010: 980f 60bf 68cc a1be e696 423f f86b 39be
00000020: cecd aa3e b1ce debc 25ee f93e 4561 4fbf
00000030: 5b28 a03c 64bf 1b3f daec 5d3f 387c a5be
00000040: a550 d4be 74fa 37be 7812 08bf c38b 37bc
00000050: 6ef2 d43d b617 e63e 6f76 34bf ccfa 1d3f
00000060: 61e4 fc3e 3842 d73e a52e 4abf 4756 6e3e
00000070: a348 5c3d 75fd 643e 1490 fd3d e641 c7bc
00000080: 454f 3a3e 48d9 153e 4749 223f 0d77 5ebe
00000090: c6c6 f2be 5fbd 48be 8a40 6e3c d36d af3e
000000a0: 9c40 663e cb1d 94be 5a80 29bf 7daf 4b3f
000000b0: a207 1f3f 95e5 53be be4d bb3e 4629 1dbb
000000c0: 8873 113e 1b62 af3d

gat_layer_1.attention_2.a f4 [20, 1]
0.39564863 0.55696595 -0.30560628 0.59363973 0.61859405 -0.70639485 -0.40341976 0.01404418
-0.69543743 0.26627523 0.725094 0.020400701 -0.017680055 -0.28239805 -0.65053886 -0.5036158
0.32479498 -0.0630028 -0.16189578 -0.1705679
00000000: 7592 ca3e 5295 0e3f 6d78 9cbe c6f8 173f
00000010: 2e5c 1e3f 4bd6 34bf 098d cebe 8f19 663c
00000020: 3008 32bf 3a55 883e c39f 393f 5f1f a73c
00000030: c3d5 90bc 7a96 90be b789 26bf f7ec 00bf
00000040: 874b a63e 9d07 81bd 02c8 25be 5aa9 2ebe

gat_layer_1.attention_3.W f4 [5, 10]
0.5627397 -0.8925104 0.42007625 -0.88647455 0.75963175 -0.17943752 -0.64597994 -0.80170375
0.9107198 -0.072980165 0.084654205 -0.49987817 -0.12524389 0.68847597 0.5741568 0.54596967
-0.3900888 0.2616481 0.70365375 0.6931531 0.6805265 0.44209015 -0.15134645 -0.7208889
-0.6438437 0.7477964 0.6453892 0.07734352 -0.6654012 0.07785119 -0.3007818 -0.8495406
-0.37279278 -0.40527815 0.7008453 -0.27304667 0.21734129 -0.30058804 0.46091208 -0.6341653
-0.5914092 0.69439983 -0.84157425 -0.47527444 0.6506151 0.8408038 -0.07033959 -0.40139753
0.48824567 0.38328958
00000000: b50f 103f 907b 64bf 3c14 d73e ffef 62bf
00000010: 3a77 423f 78be 37be f15e 25bf 753c 4dbf
00000020: ef24 693f a076 95bd 2f5f ad3d 08f0 ffbe
00000030: ef3f 00be f63f 303f f1fb 123f abc4 0b3f
00000040: b8b9 c7be bdf6 853e a722 343f 7b72 313f
00000050: fc36 2e3f a459 e23e 90fa 1abe 2d8c 38bf
00000060: f1d2 24bf 966f 3f3f 3a38 253f 4866 9e3d
00000070: bc57 2abf 7270 9f3d 1200 9abe 7e7b 59bf
00000080: b2de bebe 9e80 cfbe 996a 333f c6cc 8bbe
00000090: b78e 5e3e ade6 99be abfc eb3e a858 22bf
000000a0: 9866 17bf 30c4 313f 6971 57bf 2c57 f3be
000000b0: b68e 263f eb3e 573f 340e 90bd fa83 cdbe
000000c0: 56fb f93e 883e c43e

gat_layer_1.attention_3.a f4 [20, 1]
-0.53767735 -0.18864302 -0.45663136 -0.22507869 -0.26113337 0.49997306 0.0124862045 0.40985572
0.13290735 -0.28087342 0.532925 -0.19116537 -0.40085807 0.7096308 -0.36862653 -0.05930367
0.49294758 0.59958076 -0.35327867 0.43637073
00000000: 39a5 09bf a32b 41be 96cb e9be 077b 66be
00000010: 46b3 85be 78fc ff3e f092 4c3c 9cd8 d13e
00000020: dd18 083e a4ce 8fbe c66d 083f dbc0 43be
00000030: 453d cdbe 5daa 353f 9ebc bcbe 68e8 72bd
00000040: a063 fc3e 207e 193f f1e0 b4be fc6b df3e

gat_layer_1.attention_4.W f4 [5, 10]
0.83428687 0.4260023 0.46112067 0.086318515 0.15139419 0.11776241 -0.5562869 0.6825118
-0.6075032 0.43194544 -0.37728757 -0.8175558 0.47557825 0.6861136 0.7903482 0.6984388
-0.62607986 0.6637071 -0.8602563 0.5611969 -0.12520048 0.843462 -0.8022909 -0.18856621
-0.8122126 -0.6179096 -0.84403217 0.16141391 -0.49668255 -0.66212577 -0.65975744 -0.69402283
0.5743223 -0.2090055 0.7685887 0.6105248 0.79701996 -0.28015202 0.08052321 -0.25509468
-0.4646663 -0.45417863 0.7319911 0.7619058 0.58695424 -0.76262784 -0.06995186 0.48535395
0.80487496 0.31732833
00000000: d393 553f f91c da3e 0218 ec3e c3c7 b03d
00000010: 1407 1b3e 6b2d f13d d168 0ebf 18b9 2e3f
00000020: 5485 1bbf f427 dd3e d62b c1be 564b 51bf
00000030: fe7e f33e 24a5 2f3f 4254 4a3f e3cc 323f
00000040: c546 20bf b5e8 293f c239 5cbf 9aaa 0f3f
00000050: 8e34 00be 20ed 573f f062 4dbf 8017 41be
00000060: 2aed 4fbf 532f 1ebf 7e12 58bf b049 253e
00000070: 2d4d febe 1381 29bf dde5 28bf 7bab 31bf
00000080: c906 133f 8a05 56be 3bc2 443f 5a4b 1c3f
00000090: 8009 4c3f 1670 8fbe 5ae9 a43d c59b 82be
000000a0: bee8 edbe 1a8a e8be c563 3b3f 420c 433f
000000b0: a242 163f 943b 43bf ec42 8fbd 5080 f83e
000000c0: 490c 4e3f dc78 a23e

gat_layer_1.attention_4.a f4 [20, 1]
-0.76215076 -0.43011388 -0.38647658 0.0684335 0.43216884 0.3379437 0.34832877 0.13685729
0.7258293 0.49156055 0.06444128 0.12533677 -0.5814181 0.40572435 -0.6520422 0.5930976
0.55069983 -0.23850541 -0.2865625 0.42081106
00000000: 501c 43bf e337 dcbe 42e0 c5be dd26 8c3d
00000010: 3c45 dd3e f506 ad3e 2658 b23e 5124 0c3e
00000020: f3cf 393f d3ad fb3e caf9 833d 4858 003e
00000030: d1d7 14bf 1abb cf3e 3dec 26bf 3fd5 173f
00000040: aafa 0c3f c33a 74be 52b8 92be 8c74 d73e

gat_layer_1.out_att.W f4 [50, 5]
0.14079218 0.045506135 0.02900333 0.025083529 -0.031899143 0.42205617 0.39505517 -0.07336464
0.3543146 0.16584343 0.10394602 0.1220265 -0.39815763 0.19556934 0.21617562 0.10817338
0.014202882 0.099661484 -0.2195217 -0.44203204 -0.13329974 -0.12531354 -0.22563617 0.44258183
0.40146077 0.32212105 0.1021697 0.20708974 0.18794279 -0.25934365 -0.39068395 -0.41916978
0.26365712 0.10691377 -0.26409608 -0.37039098 -0.29386216 -0.12609708 0.05489862 0.009879134
0.44703585 0.14463438 -0.2996285 0.23625453 -0.20882815 0.081532754 0.46991405 0.2512952
0.05369278 0.42465156 -0.25830138 -0.014938459 -0.05892165 -0.37575784 -0.03906443 -0.38868636
-0.06627516 0.018809026 0.16329373 -0.3697797 0.3505103 -0.2067909 -0.2361604 0.30886632
-0.43828332 0.3903495 0.3797524 0.13875611 0.035306256 0.38790983 0.00977445 -0.01897913
0.023504268 0.28931484 0.2898365 -0.4701591 -0.1912435 -0.16294444 -0.36951196 0.4328764
-0.14144948 0.11942403 0.081344426 -0.014894511 0.21412437 -0.02395056 -0.32272443 0.27495238
0.091507345 0.15141478 -0.0711546 0.14177196 7.4692514e-05 0.14958142 0.003649341 0.42240697
0.40706566 -0.14562346 -0.27804196 0.14688107 0.2201123 0.14322942 -0.3760154 0.05366512
-0.39746216 0.018326998 0.053972047 0.2882064 -0.03876756 -0.3348154 -0.38905498 0.32774463
0.36758077 0.42095983 -0.22547223 -0.47653887 0.1676103 0.14540574 0.21903774 -0.33537573
-0.2798853 0.2607546 0.3463494 0.4739235 -0.2738681 0.12750779 0.15285592 -0.116126195
-0.3737014 -0.42971307 -0.37556672 0.10840166 0.0041145133 0.28782707 0.18759397 0.27334937
0.14153565 -0.23424387 0.42280668 -0.42941412 0.13886034 -0.07642721 0.2301475 0.39853254
-0.13207681 -0.17717655 -0.1601952 -0.44380227 0.08780516 0.26396364 -0.38125506 -0.09973124
0.042481028 0.02297407 -0.45479372 0.34922794 0.22606346 -0.32193482 -0.32434332 -0.04638993
-0.21426399 -0.2237895 0.33498564 -0.42496434 0.19749531 -0.4056098 -0.36122364 0.2951891
-0.10688782 0.017024236 0.40313306 0.23033 -0.13521814 0.3861535 -0.4216694 0.21301293
-0.09159961 -0.3111315 0.049738787 0.3408275 -0.11550212 0.024232587 0.13081996 -0.29609644
0.41721398 -0.39520434 0.3287899 0.16857283 -0.05060875 0.26195264 -0.24634334 -0.22728615
-0.11617823 -0.020467006 0.37292147 0.40065372 -0.5699048 -0.082574 0.4005882 -0.34581783
-0.047453888 -0.03948419 0.19124866 0.11781672 0.42308113 -0.010529198 -0.28014368 0.06691394
-0.32962754 0.018782174 -0.40221047 -0.3431592 -0.38668615 -0.029739313 0.16689786 -0.39413348
0.29355767 -0.13976295 0.2512432 -0.10373739 -0.15568113 -0.10477295 0.32576337 0.32644215
0.24997939 -0.26818532 -0.33559942 -0.004288999 -0.3219848 0.10388071 -0.41504726 0.09524219
-0.31738028 -0.32935634 -0.2907081 0.1542054 0.3731902 0.14513713 -0.4074289 0.19976772
0.12614222 0.11533901 -0.2780156 0.37807453 0.4113422 -0.33137017 -0.10073897 -0.44245556
0.2143014 -0.15320267
00000000: d32b 103e a464 3a3d 6498 ed3c f97b cd3c
00000010: ada8 02bd bf17 d83e ac44 ca3e 3340 96bd
00000020: b968 b53e dcd2 293e a7e1 d43d 08e9 f93d
00000030: 51db cbbe 5443 483e 245d 5d3e 018a dd3d
00000040: 34b3 683c 521b cc3d 4cca 60be 0652 e2be
00000050: ba7f 08be 3152 00be 2b0d 67be 169a e23e
00000060: 448c cd3e 0ded a43e 593e d13d 550f 543e
00000070: 1374 403e b1c8 84be ba07 c8be 6c9d d6be
00000080: 11fe 863e 9bf5 da3d 9a37 87be e3a3 bdbe
00000090: 1a75 96be 981f 01be 60dd 603d 17dc 213c
000000a0: e2e1 e43e 091b 143e e868 99be b5ec 713e
000000b0: 0cd7 55be a5fa a63d 9398 f03e c4a9 803e
000000c0: f6ec 5b3d ee6b d93e 1440 84be 70c0 74bc
000000d0: d457 71bd 5563 c0be 0602 20bd e601 c7be
000000e0: 45bb 87bd 6315 9a3c 7936 273e c453 bdbe
000000f0: 1676 b33e fec0 53be 08d4 71be ba23 9e3e
00000100: ac66 e0be e4db c73e e86e c23e 1516 0e3e
00000110: 4b9d 103d 1e9c c63e 0425 203c 1f7a 9bbc
00000120: 068c c03c 1321 943e 7365 943e b2b8 f0be
00000130: 56d5 43be e8da 26be ac30 bdbe faa1 dd3e
00000140: 22d8 10be 9694 f43d e897 a63d 1b08 74bc
00000150: 6b43 5b3e f733 c4bc 233c a5be 8fc6 8c3e
00000160: 3468 bb3d 7a0c 1b3e 81b9 91bd ab2c 113e
00000170: 3da4 9c38 df2b 193e c829 6f3b ba45 d83e
00000180: e96a d03e 511e 15be 845b 8ebe fe67 163e
00000190: 1e65 613e bcaa 123e 1785 c0be f5cf 5b3d
000001a0: 2980 cbbe 8022 963c cb11 5d3d ca8f 933e
000001b0: bcca 1ebd ed6c abbe 3732 c7be 25ce a73e
000001c0: 8c33 bc3e 0c88 d73e 31e2 66be e7fc f3be
000001d0: 09a2 2b3e 3ee5 143e 6e4b 603e 5eb6 abbe
000001e0: 204d 8fbe a081 853e b554 b13e 1aa6 f23e
000001f0: 7138 8cbe 6791 023e 4386 1c3e 92d3 edbd
00000200: ca55 bfbe 5a03 dcbe 484a c0be b101 de3d
00000210: 0ad3 863b 125e 933e a218 403e 73f4 8b3e
00000220: b9ee 103e a0dd 6fbe 1e7a d83e 2bdc dbbe
00000230: 6831 0e3e de85 9cbd c9ab 6b3e 750c cc3e
00000240: 253f 07be c56d 35be 360a 24be 0d3a e3be
00000250: 31d3 b33d 3e26 873e dd33 c3be e43f ccbd
00000260: 9600 2e3d 1e34 bc3c b9da e8be 01ce b23e
00000270: 2e7d 673e a4d4 a4be 5410 a6be 5e03 3ebd
00000280: 0568 5bbe 1329 65be 3d83 ab3e ed94 d9be
00000290: 363c 4a3e 16ac cfbe 4ef2 b8be 0723 973e
000002a0: 00e8 dabd 6976 8b3c 7567 ce3e a1db 6b3e
000002b0: a076 0abe e9b5 c53e 0de5 d7be 1020 5a3e
000002c0: 9498 bbbd a14c 9fbe e6ba 4b3d f180 ae3e
000002d0: 608c ecbd 6b83 c63c abf5 053e f499 97be
000002e0: 129d d53e 3958 cabe 2657 a83e 5b9e 2c3e
000002f0: 1f4b 4fbd a81e 863e 6e41 7cbe b3bd 68be
00000300: daee edbd 6caa a7bc 90ef be3e 7c22 cd3e
00000310: 48e5 11bf 8f1c a9bd e619 cd3e 090f b1be
00000320: 025f 42bd 2dba 21bd b0d6 433e e449 f13d
00000330: 179e d83e a882 2cbc fe6e 8fbe 2d0a 893d
00000340: f1c4 a8be 13dd 993c 88ee cdbe 90b2 afbe
00000350: bafb c5be dc9f f3bc 46e7 2a3e ddcb c9be
00000360: 314d 963e 051e 0fbe f3a2 803e 4574 d4bd
00000370: e06a 1fbe 3393 d6bd 75ca a63e 6d23 a73e
00000380: 99fa 7f3e 964f 89be b0d3 abbe bb8a 8cbb
00000390: 31db a4be 69bf d43d 1381 d4be 560e c33d
000003a0: ab7f a2be 65a1 a8be b1d7 94be 05e8 1d3e
000003b0: c912 bf3e d49e 143e 859a d0be e98f 4c3e
000003c0: 6d2b 013e dc36 ec3d 1058 8ebe fc92 c13e
000003d0: 729b d23e 5aa9 a9be 3c50 cebd 8989 e2be
000003e0: d471 5b3e 29e1 1cbe

gat_layer_1.out_att.a f4 [10, 1]
0.5844976 -0.7019119 -0.36170843 -1.05928 -0.30476245 -0.4205451 0.13693224 0.9052136
-0.60132766 -0.25029746
00000000: a2a1 153f 80b0 33bf d931 b9be 7d96 87bf
00000010: d309 9cbe b051 d7be f737 0c3e 14bc 673f
00000020: 9cf0 19bf fd26 80be

gat_layer_2.attention_0.W f4 [5, 10]
-0.007470696 -0.45692906 -0.120105475 -0.012715601 -0.00062218646 -0.2859735 -0.38585716 -0.23560332
0.25567153 -0.60985106 0.7473305 0.6643106 0.50659585 -0.6300968 -0.14754494 0.32504866
0.054058608 -0.06817064 0.18566117 -0.56031066 -0.18191019 0.6200662 -0.91305315 -0.5473684
0.24119988 0.48986697 0.46551985 -0.73495543 0.12857673 -0.08347292 0.2219616 0.5041504
0.6749315 0.6443215 -0.49693358 -0.7837336 -0.29431027 0.56488824 -0.7944304 0.17756245
-0.8835351 -0.2503314 -0.23542227 -0.021087982 0.7486671 -0.502292 -0.06831647 -0.7925636
-0.8298622 0.7152352
00000000: bdcc f4bb 9bf2 e9be dcf9 f5bd 1955 50bc
00000010: 3a1a 23ba 1e6b 92be 128f c5be ff41 71be
00000020: 61e7 823e 331f 1cbf 0d51 3f3f 4210 2a3f
00000030: 44b0 013f 064e 21bf 0516 17be c76c a63e
00000040: 8f6c 5d3d 0c9d 8bbd f61d 3e3e 8570 0fbf
00000050: aa46 3abe a9bc 1e3f dabd 69bf 5620 0cbf
00000060: 1afd 763e d8cf fa3e 9e58 ee3e 0a26 3cbf
00000070: 9ea9 033e daf3 aabd e749 633e 0010 013f
00000080: 50c8 2c3f 41f2 243f 146e febe c4a2 48bf
00000090: d6af 96be 849c 103f ca5f 4bbf eed2 353e
000000a0: 5b2f 62bf 702b 80be 8912 71be b4c0 acbc
000000b0: a6a8 3f3f 3596 00bf 81e9 8bbd 73e5 4abf
000000c0: d971 54bf a719 373f

gat_layer_2.attention_0.a f4 [20, 1]
-0.40624782 0.62527466 -0.1448049 -0.73946416 -0.16862465 0.6873601 0.3371238 -0.094722494
-0.009645422 -0.70744145 -0.12289619 -0.25657472 -0.14140055 0.54611105 -0.050964043 0.72034186
-0.59181845 -0.3545205 0.45512715 -0.45285994
00000000: b7ff cfbe 0012 203f bc47 14be 864d 3dbf
00000010: f1ab 2cbe d5f6 2f3f 7e9b ac3e defd c1bd
00000020: d507 1ebc e21a 35bf ffb0 fbbd c35d 83be
00000030: 4ecb 10be efcd 0b3f acbf 50bd 5368 383f
00000040: 6a81 17bf b683 b5be 6d06 e93e 42dd e7be

gat_layer_2.attention_1.W f4 [5, 10]
0.37901852 0.10551562 0.74764574 0.6221975 0.29140612 0.19606131 0.38044247 -0.72439265
0.12788548 0.4435703 -0.11621035 -0.8273689 -0.6021871 -0.3259187 -0.26940092 0.4552903
0.82926214 0.47444874 -0.3162495 0.27323166 0.5330603 -0.4153437 0.74255687 0.8708529
-0.10324805 -0.2825738 0.7970519 0.6682914 -0.32739326 0.93407094 -0.3105642 -0.3744713
-0.35469145 0.7430007 0.53620195 -0.04418915 -0.8724168 0.0034596291 -0.8957337 -0.654148
0.36170432 0.6201982 0.6625589 -0.35637733 -0.55213237 -0.32201234 0.12839471 -0.2258984
-0.019836085 -0.7858712
00000000: b70e c23e 9318 d83d b665 3f3f 5648 1f3f
00000010: 2f33 953e 4cc4 483e 5bc9 c23e cc71 39bf
00000020: 69f4 023e a51b e33e b1ff edbd 73ce 53bf
00000030: ef28 1abf d1de a6be ebee 89be cf1b e93e
00000040: 864a 543f f2ea f23e 74eb a1be 05e5 8b3e
00000050: a476 083f eea7 d4be 3518 3e3f 37f0 5e3f
00000060: b773 d3bd 83ad 90be 980b 4c3f 2515 2b3f
00000070: 17a0 a7be 461f 6f3f 4502 9fbe b4ba bfbe
00000080: 1e9a b5be 4b35 3e3f 8844 093f afff 34bd
00000090: b556 5fbf f2ba 623b ce4e 65bf 3e76 27bf
000000a0: 4f31 b93e 4fc5 1e3f 769d 293f 1777 b6be
000000b0: 8c58 0dbf cdde a4be e779 033e e951 67be
000000c0: 497f a2bc db2e 49bf

gat_layer_2.attention_1.a f4 [20, 1]
-0.6417941 0.5323656 -0.18042032 0.12568624 -0.70873207 -0.53265 0.62004495 0.3024543
0.21965648 -0.13296035 0.06307097 -0.48122787 0.199472 0.18077762 0.43679637 -0.36282295
0.10344438 -0.28321952 -0.40541384 -0.7340263
00000000: 9e4c 24bf 1d49 083f 1bc0 38be e5b3 003e
00000010: 776f 35bf c05b 08bf 44bb 1e3f 4adb 9a3e
00000020: a1ed 603e c226 08be 5a2b 813d 8063 f6be
00000030: 6342 4c3e c51d 393e c6a3 df3e eec3 b9be
00000040: a6da d33d 2602 91be 6792 cfbe 26e9 3bbf

gat_layer_2.attention_2.W f4 [5, 10]
0.24795233 -0.73523724 -0.17429024 0.6808724 0.06325638 -0.04509817 -0.07494548 0.07064046
0.04138529 0.615508 0.30961198 -0.50204813 0.6837971 -0.7246627 0.1814451 0.15972997
-0.59321475 -0.2549625 0.024372948 -0.7278131 -0.32744738 0.6176336 -0.5997859 0.27460843
-0.54644305 0.0994361 0.2138444 0.20741493 -0.11921282 0.7822364 0.40480205 0.52584314
-0.15353982 0.2800497 -0.54861796 -0.14290911 -0.72929627 -0.60280997 0.2502562 -0.41634473
-0.22444792 -0.52406925 -0.445295 0.5305524 0.83675075 -0.3775314 -0.2999287 0.60531604
0.19787818 0.8894202
00000000: 37e7 7d3e 8238 3cbf 2479 32be a74d 2e3f
00000010: 908c 813d dcb8 38bd 047d 99bd f2ab 903d
00000020: 9f83 293d ef91 1d3f 7685 9e3e 3a86 00bf
00000030: 540d 2f3f 7f83 39bf bfcc 393e 4190 233e
00000040: ecdc 17bf 728a 82be c7a9 c73c f651 3abf
00000050: 2fa7 a7be 3c1d 1e3f 928b 19bf 7a99 8c3e
00000060: b1e3 0bbf 27a5 cb3d 07fa 5a3e 9464 543e
00000070: da25 f4bd a540 483f 3742 cf3e a89d 063f
00000080: 8b39 1dbe ad62 8f3e 3a72 0cbf c456 12be
00000090: 29b3 3abf c151 1abf 9521 803e 232b d5be
000000a0: add5 65be 6729 06bf b5fd e3be 48d2 073f
000000b0: 4c35 563f cc4b c1be 4190 99be fef5 1a3f
000000c0: 94a0 4a3e 0bb1 633f

gat_layer_2.attention_2.a f4 [20, 1]
-0.2772245 -0.73849344 0.23132534 0.64644337 -0.6046112 0.7668777 -0.65683377 -0.55270183
-0.1349627 -0.26369396 0.61955285 0.31536913 0.6136355 -0.22543213 0.13098553 0.22417393
-0.033176087 -0.029069781 -0.37952277 -0.48397064
00000000: 5ff0 8dbe e80d 3dbf 8de0 6c3e 507d 253f
00000010: cdc7 1abf 1952 443f 4226 28bf de7d 0dbf
00000020: a933 0abe e502 87be 049b 1e3f 1078 a13e
00000030: 3717 1d3f aed7 66be 1221 063e da8d 653e
00000040: a6e3 07bd c023 eebc cf50 c2be 00cb f7be

gat_layer_2.attention_3.W f4 [5, 10]
-0.8370718 0.61599064 -0.3362035 0.69634247 -0.42887828 0.8856543 0.02277328 0.6731967
0.19189055 0.32412884 0.86924326 0.6506984 0.13178751 0.7367965 0.13284014 -0.36300918
-0.7513249 0.76016366 -0.51325375 0.48675612 0.78717124 0.28861323 -0.25696474 -0.55222684
0.7019659 0.52840227 0.08939533 -0.47918305 -0.73841834 0.38388243 0.010617606 -0.9913181
0.84452057 0.17634457 0.42697385 -0.7625804 -0.09490526 0.27042976 0.19602917 -0.20262289
0.75366485 -0.9848909 0.27785113 0.6897299 0.15029882 -0.5694049 -0.73456156 0.14131346
0.3753394 0.4737664
00000000: 564a 56bf 90b1 1d3f dd22 acbe 8043 323f
00000010: ef95 dbbe 3dba 623f 088f ba3c 9e56 2c3f
00000020: f57e 443e 37f4 a53e ba86 5e3f 2c94 263f
00000030: 4ef3 063e b29e 3c3f 3f07 083e 57dc b9be
00000040: d456 40bf 169a 423f 9964 03bf 1938 f93e
00000050: 0e84 493f 1dc5 933e e290 83be bd5e 0dbf
00000060: 0ab4 333f 5f45 073f e614 b73d 7b57 f5be
00000070: fc08 3dbf 3d8c c43e 78f5 2d3c 06c7 7dbf
00000080: 8032 583f ac93 343e 519c da3e 7838 43bf
00000090: b05d c2bd c575 8a3e dfbb 483e 607c 4fbe
000000a0: 2ef0 403f cf21 7cbf 8142 8e3e 2492 303f
000000b0: efe7 193e 85c4 11bf 3a0c 3cbf 7ab4 103e
000000c0: 7c2c c03e 8291 f23e

gat_layer_2.attention_3.a f4 [20, 1]
0.6166937 -0.39482036 -0.73880064 0.5695153 -0.24316935 0.049183257 0.4193985 -0.5991535
-0.17357826 0.08528302 0.33762947 0.6071596 -0.12905031 0.318242 -0.16198613 -0.22520065
-0.38390267 0.28970474 -0.50237006 -0.29366753
00000000: a3df 1d3f e525 cabe 0a22 3dbf c1cb 113f
00000010: 6301 79be 6274 493d 66bb d63e 2062 19bf
00000020: 80be 31be dda8 ae3d c5dd ac3e d06e 1b3f
00000030: c425 04be 9ef0 a23e b1df 25be 009b 66be
00000040: e48e c4be 2e54 943e 539b 00bf 975b 96be

gat_layer_2.attention_4.W f4 [5, 10]
-0.15529679 0.54776096 -0.6712585 -0.13798442 -0.26008388 0.349162 -0.62395096 -0.33899736
0.10097866 0.294587 0.520147 0.25090706 0.2691225 0.6454522 0.8375807 0.49334127
-0.120509095 -0.28845075 -0.37849566 -0.17769504 -0.6117682 -0.8160226 -0.7040544 0.8266003
-0.18909353 -0.6688603 -0.73090434 -0.15441523 0.14350954 -0.63704526 0.26999658 0.7193756
0.270613 -0.5506044 -0.5603974 -0.36986032 0.76323867 0.14268404 0.28300104 -0.7326778
-0.10016202 -0.45604807 0.34570533 0.64296424 0.038021386 -0.6435235 -0.060247134 0.9155672
-0.20502472 -0.7716057
00000000: 1f06 1fbe 103a 0c3f 99d7 2bbf ca4b 0dbe
00000010: b729 85be 5dc5 b23e 40bb 1fbf 1091 adbe
00000020: e6cd ce3d 1bd4 963e 5b28 053f e476 803e
00000030: 6dca 893e 5b3c 253f b06b 563f 3a97 fc3e
00000040: 79cd f6bd d1af 93be 2fca c1be b0f5 35be
00000050: d79c 1cbf dbe6 50bf e93c 34bf 149c 533f
00000060: bca1 41be 6e3a 2bbf 8c1c 3bbf 071f 1ebe
00000070: 2af4 123e 6615 23bf fe3c 8a3e 0029 383f
00000080: ca8d 8a3e 69f4 0cbf 3476 0fbf 555e bdbe
00000090: 9c63 433f c41b 123e 83e5 903e c690 3bbf
000000a0: bf21 cdbd 227f e9be 4a00 b13e 4e99 243f
000000b0: 50bc 1b3d f5bd 24bf b3c5 76bd 9d62 6a3f
000000c0: 00f2 51be f387 45bf

gat_layer_2.attention_4.a f4 [20, 1]
-0.06543826 0.21066669 0.73957455 -0.5487797 -0.67743844 -0.501553 -0.61548483 0.3590687
-0.19411422 -0.048977263 -0.30946985 0.58070636 -0.412719 -0.6989785 0.30314377 0.58738947
-0.2789478 -0.61410177 0.60741645 -0.053228997
00000000: 7f04 86bd 02b9 573e c254 3d3f d47c 0cbf
00000010: 9b6c 2dbf c765 00bf 6a90 1dbf dad7 b73e
00000020: e1c5 46be 629c 48bd d572 9ebe 2ca9 143f
00000030: e84f d3be 41f0 32bf a935 9b3e 285f 163f
00000040: 3fd2 8ebe c635 1dbf a57f 1b3f a606 5abd

gat_layer_2.out_att.W f4 [50, 5]
0.44788972 -0.20399489 -0.16023843 -0.15192871 -0.34749138 0.18852733 -0.06258671 0.28845197
0.34434995 0.143479 -0.114405654 0.3112909 -0.29984543 -0.32702702 -0.34029886 0.00584853
-0.2179075 -0.077608384 -0.2701709 -0.32623535 0.17622973 -0.09643969 0.08464463 -0.07565638
0.057444464 -0.25595438 -0.18836185 0.31286165 0.01377342 -0.14683157 -0.15120238 0.36434445
0.33538947 0.25803837 0.18414444 -0.1688117 -0.29423818 -0.22690055 0.08438608 0.2496032
-0.11821888 -0.3625613 -0.038858503 -0.38817635 0.050288916 0.1511945 0.38117194 -0.11322869
0.42262498 0.40126756 0.006469899 -0.13508028 -0.19901387 -0.34968174 -0.2550035 -0.19773988
0.005977835 -0.043920584 -0.24834703 0.2964954 0.114098825 -0.2124534 -0.43696624 0.3323491
-0.2983091 -0.38802058 0.40983623 0.31302264 -0.0832765 0.16664714 -0.28096706 0.40241835
-0.036862284 -0.20238128 -0.10468736 -0.40718532 0.037229486 0.16428629 -0.24424732 -0.12370782
-0.31998104 0.108718574 -0.077614784 0.24390031 -0.009531467 -0.087209515 -0.09590086 -0.42081144
-0.064228036 -0.3080427 -0.07655782 -0.31590798 -0.14318813 -0.2289277 -0.5109655 0.117863804
0.20413405 0.24193817 0.07156183 0.1493808 -0.36807567 -0.33299023 -0.057812996 -0.14149408
-0.23926696 -0.37768915 -0.14140098 -0.42557853 0.2097308 -0.42914265 -0.45942298 -0.19660167
-0.088075705 0.28777695 0.29850215 0.12582365 0.21269199 0.2083479 0.18442251 -0.14908475
-0.40242586 -0.3340311 0.15728708 0.29138133 0.24036649 0.01525853 0.30907586 -0.36514828
0.30218205 -0.38593584 -0.16347125 0.19622159 0.36284536 -0.3558487 0.018226027 -0.25190738
-0.19466186 -0.25090933 0.022689633 -0.26626903 -0.08624592 -0.25429624 0.017597007 -0.37605694
-0.03217255 -0.4378036 0.45011264 -0.18685235 0.2813854 -0.43512094 0.32104024 -0.47642446
0.17268378 -0.003399503 0.25230858 -0.18181056 -0.22866659 -0.15056749 -0.055340853 -0.14108476
0.11036889 -0.22918488 -0.025438327 -0.1520877 0.30390573 -0.212511 0.39059132 0.3910084
0.013409725 0.35174918 0.22097915 -0.07913699 0.2034227 0.40534782 0.35315126 0.13593087
-0.2503914 -0.15489735 0.3406758 0.01589315 0.1976615 -0.049230948 -0.33208686 -0.28881413
0.1381232 -0.29358292 0.41902664 -0.45769343 0.12172077 -0.22218475 -0.37171835 -0.033221714
-0.01896955 0.38978654 -0.086304404 0.11516576 0.24034579 -0.015034537 0.019031484 0.53157973
-0.44078186 0.18847112 0.3169018 0.022876667 0.21914826 0.18621054 0.16584934 -0.053613346
-0.38694757 0.38691354 -0.11148207 -0.2875253 0.093591355 0.31725374 -0.13012889 0.17746466
0.22250877 -0.24941759 0.016754419 0.32925096 -0.39424932 0.4028975 0.31488496 -0.4522393
-0.14604308 0.36817187 0.38911334 -0.30197093 0.24841684 0.40651572 -0.43755677 -0.0026524093
0.07010972 -0.3513868 0.03574984 -0.29726 -0.31770766 0.30642536 0.21097907 0.07290224
-0.32080716 0.0010977358 0.39092156 -0.10142848 -0.49605015 0.07945654 -0.21914616 -0.25333095
-0.00878121 -0.3431553
00000000: cd51 e53e 09e4 50be 8b15 24be 3393 1bbe
00000010: 64ea b1be 4f0d 413e 762d 80bd faaf 933e
00000020: a34e b03e 29ec 123e 834d eabd 8561 9f3e
00000030: 5785 99be 1670 a7be a73b aebe 07a5 bf3b
00000040: 2523 5fbe 25f1 9ebd d753 8abe 5208 a7be
00000050: 9175 343e 2c82 c5bd 2a5a ad3d bbf1 9abd
00000060: e34a 6b3d 740c 83be eee1 40be 672f a03e
00000070: e9a9 613c 045b 16be ccd4 1abe 5b8b ba3e
00000080: 2bb8 ab3e 9b1d 843e 5c90 3c3e f9dc 2cbe
00000090: 63a6 96be 9e58 68be 9cd2 ac3d fb97 7f3e
000000a0: bd1c f2bd a2a1 b9be 182a 1fbd 0dbf c6be
000000b0: c0fb 4d3d bbd2 1a3e f828 c33e 72e4 e7bd
000000c0: 4d62 d83e f172 cd3e 7201 d43b 7c52 0abe
000000d0: 4bca 4bbe 7c09 b3be d28f 82be 537c 4abe
000000e0: b7e1 c33b 12e6 33bd af4e 7ebe 3fce 973e
000000f0: a5ac e93d 628d 59be 0aba dfbe a929 aa3e
00000100: f8bb 98be a2aa c6be 0ed6 d13e 8144 a03e
00000110: df8c aabd 8ca5 2a3e eada 8fbe c709 ce3e
00000120: e8fc 16bd 0a3d 4fbe 5466 d6bd 987a d0be
00000130: f27d 183d aa3a 283e f81b 7abe 875a fdbd
00000140: 8ed4 a3be d8a7 de3d 80f4 9ebd 01c1 793e
00000150: df29 1cbc e79a b2bd ac67 c4bd 9974 d7be
00000160: fd89 83bd c6b7 9dbe 59ca 9cbd b1be a1be
00000170: e99f 12be 066c 6abe a3ce 02bf 9462 f13d
00000180: 8408 513e a4be 773e 028f 923d 48f7 183e
00000190: 6a74 bcbe b27d aabe 52cd 6cbd d3e3 10be
000001a0: 6602 75be 7960 c1be 6bcb 10be 6ee5 d9be
000001b0: acc3 563e 96b8 dbbe 7d39 ebbe f351 49be
000001c0: 0961 b4bd 8057 933e 46d5 983e ead7 003e
000001d0: eecb 593e 2759 553e 41d9 3c3e aca9 18be
000001e0: c30a cebe 2006 abbe dd0f 213e ef2f 953e
000001f0: a222 763e eafe 793c 313f 9e3e b7f4 babe
00000200: 9bb7 9a3e 6299 c5be 0265 27be 50ee 483e
00000210: dec6 b93e cd31 b6be c04e 953c 01fa 80be
00000220: 7055 47be 3077 80be 9cdf b93c 6a54 88be
00000230: b3a1 b0bd 1e33 82be 9927 903c 898a c0be
00000240: 5dc7 03bd cb27 e0be 2a75 e63e 3956 3fbe
00000250: bf11 903e 2cc8 debe 635f a43e e8ed f3be
00000260: 04d4 303e 32ca 5ebb 972e 813e 8c2c 3abe
00000270: 9327 6abe 5d2e 1abe 17ad 62bd 8678 10be
00000280: 1609 e23d 71af 6abe 0a64 d0bc e1bc 1bbe
00000290: 8899 9b3e 7c9c 59be 96fb c73e 4132 c83e
000002a0: 77b4 5b3c 7818 b43e 5c48 623e 9312 a2bd
000002b0: 0a4e 503e c089 cf3e 3ed0 b43e 7631 0b3e
000002c0: 4d33 80be 699d 1ebe 0f6d ae3e 5a32 823c
000002d0: c767 4a3e 64a6 49bd 4a07 aabe 72df 93be
000002e0: 2b70 0d3e 8050 96be a98a d63e cb56 eabe
000002f0: bd48 f93d 6684 63be de51 bebe 7e13 08bd
00000300: 0866 9bbc 1a92 c73e 5dc0 b0bd 07dc eb3d
00000310: 351d 763e 6b53 76bc eae7 9b3c 9c15 083f
00000320: 29ae e1be 93fe 403e f440 a23e d967 bb3c
00000330: 6768 603e faad 3e3e 69d4 293e ab99 5bbd
00000340: fe1d c6be 8819 c63e b650 e4bd 8436 93be
00000350: d3ac bf3d 156f a23e 8240 05be 4cb9 353e
00000360: 57d9 633e 5367 7fbe 9040 893c 9593 a83e
00000370: 0cdb c9be 9548 ce3e 9a38 a13e e98b e7be
00000380: 518c 15be 0681 bc3e dd39 c73e ef9b 9abe
00000390: fc60 7e3e d422 d03e 7107 e0be 0bd4 2dbb
000003a0: af95 8f3d f8e8 b3be 6d6e 123d 7632 98be
000003b0: 94aa a2be c9e3 9c3e e60a 583e c54d 953d
000003c0: d640 a4be e7e1 8f3a df26 c83e bcb9 cfbd
000003d0: 49fa fdbe 1cba a23d da67 60be 98b4 81be
000003e0: 10df 0fbc 0db2 afbe

gat_layer_2.out_att.a f4 [10, 1]
0.103756554 0.87294495 -0.12238856 0.7457238 0.43742406 0.3386348 0.06364034 1.0215287
-0.36772257 -0.6341942
00000000: 517e d43d 5279 5f3f daa6 fabd c1e7 3e3f
00000010: 0cf6 df3e 8a61 ad3e de55 823d 74c1 823f
00000020: 2246 bcbe 8d5a 22bf
