tests/gat/encoder-checkpoint18.pt (torch, 20210 bytes, 36 tensors)

gat_layer_0.attention_0.W f4 [5, 10]
-0.4388446 -0.7908383 0.39382225 -0.31368384 -0.13501638 0.308502 0.79511476 -0.10038772
0.50155306 -0.45734897 -0.19476755 0.16623387 0.27121374 -0.8551348 -0.21404266 0.09108784
-0.66521883 -0.1264945 -0.4008519 0.07938266 0.14866108 0.43672004 0.3642662 0.4847062
-0.088728935 -0.3795873 0.40227702 0.7671052 0.021329328 -0.096630566 -0.47113663 0.43095627
0.0414139 -0.5159364 -0.29969102 0.3731382 -0.90039533 0.33791828 0.77876544 -0.83544445
0.71520454 -0.6844888 0.2243845 0.33119604 -0.15371723 0.8228628 -0.049777735 0.75449306
0.4422212 -0.36575645
00000000: 3db0 e0be 6174 4abf 12a3 c93e 2b9b a0be
00000010: bc41 0abe f9f3 9d3e a48c 4b3f 1498 cdbd
00000020: c865 003f a529 eabe 2571 47be 3639 2a3e
00000030: 87dc 8a3e 1dea 5abf 002e 5bbe 438c ba3d
00000040: c84b 2abf c687 01be 763c cdbe 6093 a23d
00000050: 9c3a 183e c599 df3e 1981 ba3e 692b f83e
00000060: 84b7 b5bd 4459 c2be 41f7 cd3e 0261 443f
00000070: d8ba ae3c 3fe6 c5bd d238 f1be 4da6 dc3e
00000080: 9fa1 293d 6814 04bf 1a71 99be f80b bf3e
00000090: 4f80 66bf a003 ad3e 2c5d 473f b0df 55bf
000000a0: a517 373f a83a 2fbf 0dc5 653e 8792 a93e
000000b0: 0d68 1dbe 23a7 523f bde3 4bbd 7526 413f
000000c0: d16a e23e 6e44 bbbe

gat_layer_0.attention_0.a f4 [20, 1]
-0.116450064 -0.2344935 0.1910473 0.7459732 -0.33753726 -0.046071634 0.6291212 -0.48704538
-0.075031064 0.6342606 -0.52134705 -0.7577018 0.49738526 -0.13052914 -0.15565622 -0.33168814
0.3260368 0.17153633 0.08675768 0.020335149
00000000: 5f7d eebd 101f 70be e7a1 433e 1af8 3e3f
00000010: afd1 acbe 9cb5 3cbd 160e 213f 035e f9be
00000020: e3a9 99bd e75e 223f 0077 05bf bff8 41bf
00000030: 48a9 fe3e 6ea9 05be 5864 1fbe 07d3 a9be
00000040: 4cee a63e 38a7 2f3e 03ae b13d e695 a63c

gat_layer_0.attention_1.W f4 [5, 10]
-0.8035907 -0.013984544 -0.062330198 -0.021785555 -0.09221839 -0.20480067 -0.81900245 0.72908926
-0.7566385 -0.70745486 0.37933213 -0.8359032 -0.7027588 0.7104494 0.8626086 -0.37999704
0.76666033 -0.32455713 -0.059993856 0.16024314 0.050360933 0.5405397 -0.5489586 -0.29978836
-0.20885974 -0.43437412 0.78547513 0.089420386 -0.72237253 -0.4491445 0.5318394 0.121480964
0.354641 0.37004286 0.05377096 0.77648324 -0.38312933 0.8591073 -0.39382085 -0.04958246
-0.59090024 -0.32521543 0.8213925 -0.6763013 0.58687454 0.6526154 -0.5230862 -0.52695364
-0.7818852 -0.6403064
00000000: 1fb8 4dbf 6e1f 65bc f34d 7fbd 9f77 b2bc
00000010: ffdc bcbd 44b7 51be 25aa 51bf 98a5 3a3f
00000020: 10b3 41bf c31b 35bf d237 c23e c1fd 55bf
00000030: 00e8 33bf 03e0 353f ebd3 5c3f f98e c2be
00000040: da43 443f 5a2c a6be 1ebc 75bd c716 243e
00000050: 4447 4e3d cf60 0a3f 8d88 0cbf dc7d 99be
00000060: 54df 55be 4966 debe e614 493f 0922 b73d
00000070: 68ed 38bf 45f6 e5be a026 083f 03cb f83d
00000080: 8193 b53e 4276 bd3e f03e 5c3d 9bc7 463f
00000090: 8729 c4be 75ee 5b3f e3a2 c9be fa16 4bbd
000000a0: 3d45 17bf a382 a6be c746 523f 1522 2dbf
000000b0: 693d 163f ce11 273f fae8 05bf 6fe6 06bf
000000c0: a129 48bf 1feb 23bf

gat_layer_0.attention_1.a f4 [20, 1]
-0.35855582 0.08405553 0.28779995 -0.23510323 0.23716892 -0.37786156 -0.53675693 -0.49525967
-0.095822975 -0.26049605 0.5470617 0.17828767 -0.30067912 -0.32062307 0.1815729 0.13095747
-0.39784664 -0.4693014 0.68564206 0.02705708
00000000: a194 b7be 4e25 ac3d 845a 933e e7be 70be
00000010: 69dc 723e 1277 c1be e768 09bf ad92 fdbe
00000020: d63e c4bd bd5f 85be 3c0c 0c3f 0b91 363e
00000030: 9df2 99be b528 a4be 3fee 393e b719 063e
00000040: 8eb2 cbbe 4648 f0be 3d86 2f3f cfa6 dd3c

gat_layer_0.attention_2.W f4 [5, 10]
0.8300067 -0.48419902 -0.14563943 0.79223096 0.67968524 0.08104987 -0.59433883 -0.5397923
-0.6157994 -0.55942315 0.26942512 -0.9096465 -0.84645015 0.20208073 -0.22691093 -0.36150795
-0.84257823 0.28152156 -0.07882424 -0.41133335 -0.5418253 0.6707503 0.7149747 -0.35597575
0.4603434 0.18468639 -0.5389353 -0.45074448 0.87591296 0.6186087 -0.8862532 0.2733448
0.624009 0.24260165 -0.5905125 -0.21637666 -0.70174176 -0.3185142 -0.50253063 0.53254384
-0.06610319 -0.19890009 -0.6869056 0.2041481 0.036943574 -0.31529725 -0.8269225 -0.85078585
-0.14947946 0.3094565
00000000: 527b 543f efe8 f7be 8122 15be a6cf 4a3f
00000010: daff 2d3f 79fd a53d 9726 18bf d42f 0abf
00000020: 08a5 1dbf 5b36 0fbf 17f2 893e 98de 68bf
00000030: f5b0 58bf 40ee 4e3e 575b 68be 9217 b9be
00000040: 35b3 57bf 9823 903e 9a6e a1bd 499a d2be
00000050: 10b5 0abf 4bb6 2b3f 9508 373f 7442 b6be
00000060: 21b2 eb3e 6e1e 3d3e aaf7 09bf fbc7 e6be
00000070: d53b 603f 245d 1e3f 7de1 62bf daf3 8b3e
00000080: 0ebf 1f3f 916c 783e d42b 17bf d891 5dbe
00000090: 59a5 33bf 4b14 a3be d9a5 00bf cb54 083f
000000a0: 1c61 87bd 77ac 4bbe 0cd9 2fbf 330c 513e
000000b0: 2552 173d a46e a1be 31b1 53bf 1acd 59bf
000000c0: 2511 19be 1571 9e3e

gat_layer_0.attention_2.a f4 [20, 1]
-0.4533188 -0.2902155 -0.36451447 -0.6242171 -0.7245965 0.5299087 0.024856519 0.53636765
0.4578335 0.56073385 0.7375488 -0.6925067 -0.5178862 0.24947627 0.4896374 0.24421325
0.65969735 -0.28208894 -0.52180296 -0.49587098
00000000: 6719 e8be 2097 94be a4a1 babe b1cc 1fbf
00000010: 287f 39bf 19a8 073f e69f cb3c 644f 093f
00000020: 2769 ea3e 418c 0f3f 00d0 3c3f 1e48 31bf
00000030: 3194 04bf b576 7f3e c1b1 fa3e 0a13 7a3e
00000040: ede1 283f f66d 90be e194 05bf cde2 fdbe

gat_layer_0.attention_3.W f4 [5, 10]
-0.3537499 -0.11189141 0.081297316 0.40200478 -0.27998793 -0.81296754 -0.64731157 0.8538122
-0.07811159 -0.525302 -0.6899014 0.15366961 0.1300026 0.14757682 -0.41066766 -0.5743546
-0.65142995 0.16627246 0.552211 0.15293619 0.57951134 0.71268445 -0.2505573 0.11979539
0.3549926 -0.6638853 0.41903844 -0.60924554 -0.5157639 0.34866786 -0.11339972 -0.017873779
-0.60216916 0.48803854 0.63999754 -0.74119854 -0.485055 -0.6877847 0.6191326 0.18028012
0.6801628 0.32317364 -0.7533535 0.45503905 0.1399549 -0.34393433 -0.63563967 0.1509701
0.6807971 -0.6590145
00000000: b51e b5be 5327 e5bd 357f a63d 92d3 cd3e
00000010: 945a 8fbe a41e 50bf 36b6 25bf 7093 5a3f
00000020: f8f8 9fbd 317a 06bf 619d 30bf 915b 1d3e
00000030: 671f 053e 611e 173e 0843 d2be e708 13bf
00000040: 1dc4 26bf 5443 2a3e b35d 0d3f 4e9b 1c3e
00000050: db5a 143f 7d72 363f 0c49 80be 4957 f53d
00000060: 97c1 b53e 63f4 29bf 358c d63e 84f7 1bbf
00000070: 1a09 04bf 9884 b23e 1d3e e8bd 086c 92bc
00000080: c227 1abf 30e0 f93e e1d6 233f 30bf 3dbf
00000090: 2159 f8be a812 30bf 797f 1e3f 5a9b 383e
000000a0: 261f 2e3f 0477 a53e c6db 40bf e1fa e83e
000000b0: 5650 0f3e 2918 b0be 48b9 22bf e897 1a3e
000000c0: b848 2e3f 2db5 28bf

gat_layer_0.attention_3.a f4 [20, 1]
-0.3254693 0.04389642 0.48685277 0.74932283 0.65344256 0.66464484 -0.039790522 0.7474102
0.08327565 -0.52318084 -0.25883934 -0.582365 -0.052624807 -0.6537109 -0.378436 0.0853144
0.46988162 0.023170322 0.44732964 0.118863866
00000000: e9a3 a6be bccc 333d c444 f93e 9fd3 3f3f
00000010: 0348 273f 2a26 2a3f 63fb 22bd 4656 3f3f
00000020: 6d8c aa3d 2eef 05bf 9786 84be df15 15bf
00000030: 1c8d 57bd 9959 27bf 5dc2 c1be 51b9 ae3d
00000040: 5394 f03e b0cf bd3c 6408 e53e e66e f33d

gat_layer_0.attention_4.W f4 [5, 10]
-0.29876432 -0.74047065 0.7740694 0.34855947 0.010361005 0.31765547 0.47866112 0.28888693
-0.32325935 -0.68514556 -0.12355404 -0.45803598 -0.8716894 -0.58419776 0.41032898 0.50567764
-0.6428332 -0.24929363 0.34026012 0.4034166 -0.67799306 0.51347136 -0.32187372 -0.44751287
-0.6665404 0.24081272 0.10463306 0.5063416 -0.14558885 0.6312798 -0.20714526 -0.25333998
-0.4665613 0.57111746 -0.8907875 0.19437024 -0.7144233 -0.42689496 -0.79728603 0.7145324
-0.62358505 0.7475598 0.5724217 -0.06808338 -0.26131353 0.809209 0.8172069 0.8175552
-0.82250416 0.13627122
00000000: a3f7 98be 7c8f 3dbf 6a29 463f 6376 b23e
00000010: 34c1 293c bda3 a23e 1213 f53e fde8 933e
00000020: 4082 a5be b365 2fbf e709 fdbd b183 eabe
00000030: 0927 5fbf fc8d 15bf a416 d23e 1774 013f
00000040: b790 24bf d446 7fbe 9336 ae3e 9f8c ce3e
00000050: f490 2dbf dc72 033f a2cc a4be 6820 e5be
00000060: 64a2 2abf 9c97 763e dc49 d63d 9a9f 013f
00000070: 3e15 15be 8e9b 213f e31d 54be c7b5 81be
00000080: 1fe1 eebe c134 123f a60a 64bf fe08 473e
00000090: 72e4 36bf fa91 dabe f01a 4cbf 98eb 363f
000000a0: 45a3 1fbf 1460 3f3f 3b8a 123f 4d6f 8bbd
000000b0: e3ca 85be 5228 4f3f 7934 513f 4c4b 513f
000000c0: a28f 52bf af8a 0b3e

gat_layer_0.attention_4.a f4 [20, 1]
0.023880115 -0.4513054 -0.4684238 -0.42780843 -0.2808411 0.5463857 0.42569473 0.16278234
-0.44859162 0.3880772 0.6443512 0.65109223 -0.23938549 0.5746704 0.3764278 0.530858
0.4304697 0.500369 0.5534967 -0.55833507
00000000: 3ba0 c33c 8011 e7be 3fd5 efbe b509 dbbe
00000010: 68ca 8fbe efdf 0b3f a9f4 d93e 6ab0 263e
00000020: cdad e5be 0eb2 c63e 33f4 243f fbad 263f
00000030: 7821 75be 991d 133f 25bb c03e 4fe6 073f
00000040: 8666 dc3e 2f18 003f f6b1 0d3f 0cef 0ebf

gat_layer_0.out_att.W f4 [50, 5]
-0.42884788 -0.2745651 0.024959944 -0.22654052 -0.2686721 -0.48499927 0.06322047 -0.28581905
0.14535385 -0.20636132 0.2853573 -0.34282443 0.19623372 0.011050732 0.24495572 -0.04949748
-0.18640858 0.095451765 0.36050335 -0.372944 0.40519097 -0.049699664 0.13875736 0.20428693
0.44874236 -0.27890098 0.023004089 0.36720034 0.25049314 -0.184002 0.39503068 0.2374958
-0.33428332 -0.25999385 0.1718173 -0.4948883 0.012803206 0.25395226 -0.2648493 0.012009576
0.17677063 -0.25695458 -0.049927633 0.13133891 0.01671014 -0.34831947 0.2275761 -0.13188618
-0.31023577 0.26735982 -0.32259628 0.24196303 -0.194378 -0.26014405 -0.09437729 -0.1962478
0.20303626 -0.01690704 0.23613772 -0.31420922 -0.010470081 0.31778258 -0.3985756 0.37046275
0.32585314 0.11537326 0.20744242 -0.27267745 0.19571604 0.45930073 0.031509314 -0.4543084
0.2704449 -0.3614964 0.4307845 -0.06473389 -0.06947777 -0.048223495 0.3182594 -0.43269372
-0.23201466 0.25085017 -0.16121276 0.47015536 0.41212308 0.044371895 -0.17672375 0.21776539
-0.006336583 0.16413058 -0.42834276 -0.04306024 -0.0120150475 0.052266695 0.38248524 0.32050765
-0.28371808 -0.23698607 0.371038 0.23926078 0.2005818 -0.4278354 -0.071965694 -0.073814265
0.3799024 0.2900986 0.31578404 -0.028185882 -0.18856868 -0.4168167 0.38067296 0.2881821
-0.25560194 -0.13997664 0.30589905 0.025142405 -0.14748167 -0.17811574 0.15091202 -0.20087728
0.13753855 -0.4133158 0.09873238 0.10510006 -0.082569085 0.06187229 0.14840165 -0.2842033
0.3109556 -0.24249904 -0.30287224 -0.25804842 0.32386902 -0.47647306 -0.31914037 0.36596072
-0.035751566 -0.41018367 0.43140158 -0.3334891 -0.23909347 -0.088642746 0.26763216 -0.40517744
0.29852948 0.39943254 -0.16486481 0.217772 -0.31493446 -0.35544607 -0.00018580482 0.36851695
-0.06835684 -0.38466895 0.10176977 0.27782437 -0.15554547 -0.44083926 0.2561945 0.17312494
-0.37237537 0.20176646 -0.36959445 0.28663194 0.42268065 -0.42353725 0.1865876 0.4216428
0.18236016 0.44628698 -0.20071928 -0.23294581 0.45619506 0.35645187 -0.36112225 -0.13202575
0.40384334 0.009673733 0.36682528 0.1447482 0.20308235 0.35537273 0.28741422 -0.36041054
0.05646105 -0.33331507 0.20395276 0.25835404 0.09091891 -0.24649595 -0.30578813 0.2932842
0.06294877 -0.31689098 -0.37177944 0.34023073 0.22106174 -0.32125682 0.15129088 0.029283678
-0.18301237 0.34335464 0.29776055 -0.11217969 -0.17944708 0.00038040706 0.32688308 0.08058453
0.303903 -0.23756365 0.12591109 0.25039336 0.04220773 -0.08897457 0.22035968 -0.06507887
-0.386733 0.36975124 -0.16183701 0.28869364 0.4340835 0.41210467 0.037860196 -0.3876795
0.09798005 -0.2120405 -0.33969557 0.005680559 -0.12889399 0.14514501 -0.1062546 -0.084407814
-0.42416823 0.26897568 -0.4701781 -0.16906899 0.00784147 -0.09802916 0.37850055 -0.25402573
-0.2064641 -0.44453487 0.39345187 -0.28686544 0.33081907 0.021330152 -0.43903944 0.37549254
-0.4368316 -0.18016839
00000000: f391 dbbe cc93 8cbe cc78 cc3c 3dfa 67be
00000010: 648f 89be d351 f8be bc79 813d e056 92be
00000020: a4d7 143e 6250 53be 5a1a 923e af86 afbe
00000030: 7ef1 483e 210e 353c acd5 7a3e dfbd 4abd
00000040: e4e1 3ebe 377c c33d e593 b83e 84f2 bebe
00000050: 3175 cf3e e091 4bbd 6916 0e3e 9830 513e
00000060: 8fc1 e53e 1ccc 8ebe 1273 bc3c af01 bc3e
00000070: a340 803e 056b 3cbe 7641 ca3e 1932 733e
00000080: 2f27 abbe ea1d 85be e0f0 2f3e 0062 fdbe
00000090: 8ac4 513c 0806 823e 549a 87be d0c3 443c
000000a0: 5c03 353e 8d8f 83be eb80 4cbd b57d 063e
000000b0: b4e3 883c ee56 b2be b609 693e 2c0d 07be
000000c0: 39d7 9ebe 63e3 883e 572b a5be 28c5 773e
000000d0: 070b 47be 9a31 85be e148 c1bd 2ff5 48be
000000e0: bde8 4f3e a280 8abc 16ce 713e 08e0 a0be
000000f0: b48a 2bbc 66b4 a23e 1a12 ccbe 4bad bd3e
00000100: 39d6 a63e d148 ec3d c96b 543e 619c 8bbe
00000110: c969 483e 7729 eb3e e90f 013d 1c9b e8be
00000120: c177 8a3e 0e16 b9be c98f dc3e 3493 84bd
00000130: 5c4a 8ebd 0086 45bd e5f2 a23e 088a ddbe
00000140: 4095 6dbe 6f6f 803e f514 25be 34b8 f03e
00000150: cc01 d33e 4ebf 353d 12f7 34be e4fd 5e3e
00000160: 1ca3 cfbb d911 283e be4f dbbe ef5f 30bd
00000170: c3da 44bc 9a15 563d 1bd5 c33e 9419 a43e
00000180: 7f43 91be 7aac 72be b1f8 bd3e c700 753e
00000190: 5165 4d3e 3e0d dbbe c062 93bd ef2b 97bd
000001a0: 9182 c23e ce87 943e 72ae a13e 14e6 e6bc
000001b0: 2618 41be 0069 d5be 91e7 c23e 9b8c 933e
000001c0: 42de 82be 0956 0fbe cd9e 9c3e 72f7 cd3c
000001d0: 6f05 17be f963 36be ae88 1a3e c6b2 4dbe
000001e0: e8d6 0c3e 219e d3be 3434 ca3d b33e d73d
000001f0: fb19 a9bd cc6d 7d3d 9af6 173e 1883 91be
00000200: 9335 9f3e ab51 78be 1212 9bbe ec1e 84be
00000210: 29d2 a53e 47f4 f3be 5e66 a3be 345f bb3e
00000220: 3c70 12bd 9803 d2be abe0 dc3e 15bf aabe
00000230: ebd4 74be 548a b5bd 1507 893e 6b73 cfbe
00000240: dbd8 983e 6c82 cc3e 52d2 28be a0ff 5e3e
00000250: 173f a1be 07fd b5be 9ad4 42b9 41ae bc3e
00000260: acfe 8bbd 54f3 c4be ab6c d03d ff3e 8e3e
00000270: 5047 1fbe afb5 e1be ed2b 833e aa47 313e
00000280: fca7 bebe de9b 4e3e 7c3b bdbe 6cc1 923e
00000290: 9969 d83e e0d9 d8be d210 3f3e 91e1 d73e
000002a0: 9fbc 3a3e ba7f e43e 5b89 4dbe 5989 6ebe
000002b0: 6692 e93e dc80 b63e 04e5 b8be c231 07be
000002c0: 8ec4 ce3e 947e 1e3c 86d0 bb3e df38 143e
000002d0: d2f4 4f3e 6af3 b53e f527 933e bb87 b8be
000002e0: b443 673d 46a8 aabe fed8 503e fb46 843e
000002f0: b233 ba3d 6f69 7cbe 4390 9cbe 5929 963e
00000300: 49eb 803d 893f a2be e059 bebe b932 ae3e
00000310: 025e 623e c67b a4be ffeb 1a3e 53e4 ef3c
00000320: 9867 3bbe 2ecc af3e 1274 983e 77be e5bd
00000330: fac0 37be 5f71 c739 385d a73e 8109 a53d
00000340: 2d99 9b3e e343 73be d6ee 003e 8f33 803e
00000350: 03e2 2c3d 4d38 b6bd f8a5 613e 1248 85bd
00000360: de01 c6be 0950 bd3e 9ab8 25be a7cf 933e
00000370: 3140 de3e 62ff d23e 4b13 1b3d ed7d c6be
00000380: c4a9 c83d 2521 59be 94ec adbe fc23 ba3b
00000390: c9fc 03be e5a0 143e 039c d9bd 01de acbd
000003a0: 942c d9be 2eb7 893e 2fbb f0be 6c20 2dbe
000003b0: 8279 003c 83c3 c8bd d3ca c13e a90f 82be
000003c0: 536b 53be 139a e3be 8672 c93e 07e0 92be
000003d0: 1e61 a93e 92bc ae3c c7c9 e0be 8f40 c03e
000003e0: 64a8 dfbe 107e 38be

gat_layer_0.out_att.a f4 [10, 1]
0.14234935 0.98987436 -0.6562135 -0.4323129 -0.4307225 -0.7722566 0.39180893 -0.108146794
-0.99833477 -0.7042453
00000000: 07c4 113e 6868 7d3f 9cfd 27bf 1e58 ddbe
00000010: a987 dcbe 9cb2 45bf 2e9b c83e 117c ddbd
00000020: de92 7fbf 6c49 34bf

gat_layer_1.attention_0.W f4 [5, 10]
0.024643801 -0.2634291 0.54428005 -0.8795556 0.49038365 -0.18243547 0.32229134 -0.025226995
-0.7352175 -0.53741086 0.7119878 -0.7842633 -0.43070063 -0.1263035 -0.8161022 0.023917526
-0.7029145 -0.71701205 -0.63249964 0.53501976 0.45564264 -0.6648648 0.7400332 -0.28073734
0.6737582 0.04205887 -0.4741887 0.88416874 0.12797533 0.78066546 0.10937251 -0.782361
0.3806114 -0.14504811 0.2259858 0.8656135 -0.5185151 -0.66677994 -0.21891014 -0.033342294
-0.22196436 0.758038 0.8298573 0.71159387 -0.83576167 -0.60770357 0.6304486 -0.33341232
0.52447134 0.4437769
00000000: cce1 c93c 2ee0 86be f055 0b3f 8e2a 61bf
00000010: 9113 fb3e 5dd0 3abe 5f03 a53e d8a8 cebc
00000020: 3737 3cbf c293 09bf d544 363f 7bc5 48bf
00000030: cb84 dcbe b455 01be 13ec 50bf b0ee c33c
00000040: 34f2 33bf 1a8e 37bf 7feb 21bf 0ef7 083f
00000050: fe49 e93e 9434 2abf d172 3d3f cebc 8fbe
00000060: 6b7b 2c3f ec45 2c3d dcc8 f2be e258 623f
00000070: f70b 033e b1d9 473f b2fe df3d cf48 48bf
00000080: 7fdf c23e 7e87 14be d268 673e d998 5d3f
00000090: 68bd 04bf 17b2 2abf fb29 60be ee91 08bd
000000a0: a04a 63be c70e 423f 8771 543f 042b 363f
000000b0: 7af4 55bf 7692 1bbf 1465 213f 05b5 aabe
000000c0: c143 063f ba36 e33e

gat_layer_1.attention_0.a f4 [20, 1]
0.21009065 -0.53719866 -0.20437203 -0.40525195 0.7299662 -0.753829 -0.3218807 -0.73506355
0.69655776 -0.63434076 0.73654926 -0.15649709 -0.20492145 -0.14739986 0.68526596 0.18959945
0.45937505 -0.21088997 -0.7213373 -0.18284771
00000000: 0122 573e da85 09bf e746 51be 2f7d cfbe
00000010: 11df 3a3f f0fa 40bf 8ccd a4be 202d 3cbf
00000020: 9c51 323f 2864 22bf 7e8e 3c3f c640 20be
00000030: eed6 51be fdef 16be 976d 2f3f 5c26 423e
00000040: 3533 eb3e 8af3 57be 90a9 38bf 6e3c 3bbe

gat_layer_1.attention_1.W f4 [5, 10]
0.52663606 -0.0068358425 0.51179385 0.49704054 -0.4276287 -0.25846764 0.040962428 0.07656406
-0.5623129 0.15525967 -0.87640107 0.11742897 -0.7018399 0.8479874 -0.2301898 -0.36524636
0.14300163 -0.78662044 0.45621064 0.34520087 0.5180316 -0.6271538 -0.8328171 -0.34338158
-0.21217538 -0.20816274 0.5973927 -0.10574634 -0.5477286 -0.37480327 0.09257338 0.31014138
-0.724165 0.41704 -0.25135154 0.32147145 -0.122971095 -0.23503105 -0.21549767 0.14838
-0.7227666 0.53656256 -0.47814333 -0.3490884 0.24191494 0.08673603 0.15978947 -0.8608269
-0.42209283 -0.09689057
00000000: 9fd1 063f 34ff dfbb ec04 033f 197c fe3e
00000010: 26f2 dabe df55 84be 38c8 273d 9ecd 9c3d
00000020: bdf3 0fbf 64fc 1e3e d25b 60bf 9a7e f03d
00000030: c8ab 33bf b415 593f e0b6 6bbe 9201 bbbe
00000040: 056f 123e f55f 49bf 7194 e93e 2bbe b03e
00000050: b89d 043f 278d 20bf 8033 55bf b6cf afbe
00000060: 8144 59be 9d28 55be baee 183f 8991 d8bd
00000070: f137 0cbf 37e6 bfbe 1d97 bd3d daca 9e3e
00000080: e162 39bf 4486 d53e 26b1 80be e897 a43e
00000090: 45d8 fbbd fbab 70be 6cab 5cbe edf0 173e
000000a0: 3b07 39bf 2a5c 093f 34cf f4be b7bb b2be
000000b0: 8db8 773e a9a2 b13d da9f 233e 275f 5cbf
000000c0: 8d1c d8be 906e c6bd

gat_layer_1.attention_1.a f4 [20, 1]
-0.5560314 0.1416763 -0.15254776 -0.38920215 0.21490736 -0.13557349 0.009179248 0.74449044
-0.40659702 -0.273668 0.6008131 0.02594067 0.44641972 -0.6553691 0.009499191 -0.37163585
-0.34893975 0.7190044 -0.039163366 0.6475142
00000000: 1358 0ebf 9813 113e 7b35 1cbe 8145 c7be
00000010: ad10 5c3e c7d3 0abe 8e64 163c ed96 3e3f
00000020: 7c2d d0be 361e 8cbe e3ce 193f 8781 d43c
00000030: 2091 e43e 45c6 27bf 7fa2 1b3c 0e47 bebe
00000040: 3ba8 b2be ac10 383f c469 20bd 7ec3 253f

gat_layer_1.attention_2.W f4 [5, 10]
-0.117198944 -0.77180153 -0.32496086 -0.29051605 -0.8439982 -0.31466645 0.7489784 -0.1730236
0.34529334 -0.0047464143 0.4585787 -0.807379 0.027384771 0.6407567 0.9023182 -0.32548237
-0.4123546 -0.17633304 -0.5253427 0.017360048 0.08535589 0.45330152 -0.6998321 0.64159226
0.5185126 0.41856572 -0.7882436 0.23570862 0.057976376 0.25645143 0.14149557 -0.018441569
0.1867746 0.13261817 0.612158 -0.22054529 -0.4723289 -0.19387077 0.01820775 0.32754788
0.19515504 -0.28234884 -0.654918 0.8300905 0.6547041 -0.20957981 0.3668418 -0.00043784364
0.1459351 0.11598482
00000000: 0006 f0bd c994 45bf 4561 a6be 85be 94be
00000010: 4410 58bf f61b a1be 0cbd 3f3f 192d 31be
00000020: 4aca b03e cf87 9bbb d4ca ea3e 64b0 4ebf
00000030: 0756 e03c a208 243f 53fe 663f a0a5 a6be
00000040: 2420 d3be a690 34be dc7c 06bf a936 8e3c
00000050: 12cf ae3d 2317 e83e 3228 33bf 643f 243f
00000060: 3ebd 043f 3f4e d63e 55ca 49bf 9a5d 713e
00000070: a378 6d3d 9a4d 833e 37e4 103e c612 97bc
00000080: d741 3f3e 0fcd 073e 63b6 1c3f a0d6 61be
00000090: 18d5 f1be 0f86 46be 6b28 953c 5bb4 a73e
000000a0: b9d6 473e 0790 90be b5a8 27bf d080 543f
000000b0: b09a 273f 179c 56be b0d2 bb3e 618e e5b9
000000c0: 0370 153e 7389 ed3d

gat_layer_1.attention_2.a f4 [20, 1]
0.4294474 0.5196763 -0.34013346 0.62569416 0.62667066 -0.74004227 -0.37681627 -0.015227956
-0.6652551 0.28017148 0.69326234 0.04888617 0.009838457 -0.31312007 -0.68062717 -0.47877645
0.29821634 -0.052128427 -0.17595367 -0.18148087
00000000: 88e0 db3e 8209 053f f925 aebe 7e2d 203f
00000010: 7d6d 203f 6973 3dbf 10ee c0be ad7e 79bc
00000020: 294e 2abf a372 8f3e a479 313f dd3c 483d
00000030: 7b31 213c 4651 a0be 953d 2ebf 3022 f5be
00000040: d0af 983e 9e84 55bd 332d 34be 1fd6 39be

gat_layer_1.attention_3.W f4 [5, 10]
0.56269544 -0.91792494 0.4102037 -0.87638617 0.7576206 -0.16657564 -0.6584965 -0.792022
0.90913844 -0.06787975 0.08304792 -0.5084497 -0.12673083 0.6894413 0.57239413 0.55522037
-0.39100152 0.2646274 0.70117474 0.6949269 0.68076694 0.42336002 -0.15275711 -0.7193007
-0.6453272 0.7473957 0.6390971 0.080573164 -0.6659259 0.07975642 -0.30287698 -0.8652915
-0.37375292 -0.4029665 0.6982354 -0.26676318 0.21405435 -0.29529834 0.46068648 -0.6327067
-0.5950981 0.6829336 -0.84229565 -0.47308016 0.65460956 0.84050465 -0.07471936 -0.39548868
0.490573 0.38174665
00000000: cf0c 103f 21fd 6abf 3806 d23e d85a 60bf
00000010: 6cf3 413f ce92 2abe 3a93 28bf f4c1 4abf
00000020: 4cbd 683f 8a04 8bbd 0715 aa3d c229 02bf
00000030: bac5 01be 3a7f 303f 6c88 123f ec22 0e3f
00000040: 5a31 c8be 3e7d 873e 3080 333f bbe6 313f
00000050: be46 2e3f a5c2 d83e 5c6c 1cbe 1724 38bf
00000060: 2a34 25bf 5355 3f3f de9b 233f 8b03 a53d
00000070: 1f7a 2abf 5557 a33d b112 9bbe be83 5dbf
00000080: 8b5c bfbe a051 cebe 8ebf 323f 2f95 88be
00000090: 1031 5b3e 5831 97be 19df eb3e 11f9 21bf
000000a0: 5958 18bf bdd4 2e3f b0a0 57bf 9037 f2be
000000b0: 7e94 273f 502b 573f 7706 99bd 7e7d cabe
000000c0: 622c fb3e 4c74 c33e

gat_layer_1.attention_3.a f4 [20, 1]
-0.55680054 -0.19115092 -0.45385346 -0.21814774 -0.25865245 0.48181656 -0.0009040325 0.41009304
0.13564834 -0.28735125 0.5346114 -0.19418001 -0.40067956 0.7115409 -0.36624724 -0.059337553
0.49309114 0.6097024 -0.34933624 0.43613642
00000000: 7b8a 0ebf 11bd 43be 7b5f e8be 1f62 5fbe
00000010: 186e 84be a9b0 f63e 98fc 6cba b7f7 d13e
00000020: 66e7 0a3e b41f 93be 4bdc 083f 20d7 46be
00000030: df25 cdbe 8b27 363f c284 bbbe ef0b 73bd
00000040: 7176 fc3e 7515 1c3f 33dc b2be 464d df3e

gat_layer_1.attention_4.W f4 [5, 10]
0.8475758 0.42119583 0.47454637 0.08788551 0.18571979 0.107549936 -0.57562727 0.68911767
-0.5852368 0.43348745 -0.36943966 -0.8198141 0.47380945 0.70547384 0.7944599 0.69624233
-0.6698275 0.63873243 -0.8569141 0.56198543 -0.114543796 0.8443231 -0.83353436 -0.15731147
-0.8356599 -0.6013491 -0.8324803 0.12548164 -0.49658024 -0.65732414 -0.65247226 -0.69538957
0.57333934 -0.19965252 0.7571167 0.6090508 0.7682962 -0.29201385 0.08295629 -0.25452736
-0.45689958 -0.45459485 0.73293144 0.7588485 0.61440986 -0.76465076 -0.11022104 0.48752853
0.8079311 0.31745988
00000000: bafa 583f fba6 d73e bef7 f23e 51fd b33d
00000010: 542d 3e3e 2443 dc3d 4f5c 13bf 046a 303f
00000020: 14d2 15bf 11f2 dd3e 3227 bdbe 56df 51bf
00000030: 2797 f23e ef99 343f b961 4b3f f03c 323f
00000040: d179 2bbf f883 233f b95e 5bbf 47de 0f3f
00000050: f095 eabd 8f25 583f 8262 55bf 4216 21be
00000060: cfed 55bf 04f2 19bf 6e1d 55bf 427e 003e
00000070: c43f febe 6546 28bf 6c08 27bf 0d05 32bf
00000080: 5ec6 123f b671 4cbe 66d2 413f c1ea 1b3f
00000090: 0faf 443f d782 95be fde4 a93d 6951 82be
000000a0: beee e9be a8c0 e8be 65a1 3b3f e543 423f
000000b0: f749 1d3f 27c0 43bf 92bb e1bd 579d f93e
000000c0: 93d4 4e3f 1a8a a23e

gat_layer_1.attention_4.a f4 [20, 1]
-0.7514168 -0.41312894 -0.40869334 0.04878092 0.41140565 0.32876834 0.36086565 0.116121
0.731039 0.4703283 0.017858116 0.14870647 -0.60853916 0.37530476 -0.67530423 0.5726441
0.52063113 -0.20869185 -0.32505712 0.38829345
00000000: da5c 40bf a385 d3be 4140 d1be 81ce 473d
00000010: c3a3 d23e 5354 a83e 62c3 b83e d9d0 ed3d
00000020: 5f25 3b3f dfce f03e 2f4b 923c 8246 183e
00000030: 39c9 1bbf f227 c03e bde0 2cbf ce98 123f
00000040: 1548 053f 51b3 55be e36d a6be 66ce c63e

gat_layer_1.out_att.W f4 [50, 5]
0.12887415 0.0524846 0.029548692 0.033094365 -0.028351903 0.43855312 0.39373538 -0.07491157
0.35039616 0.16589452 0.076901786 0.12449546 -0.39507216 0.20016293 0.22562335 0.1313012
0.009919677 0.114151224 -0.23982856 -0.44684455 -0.13367772 -0.13916084 -0.22401173 0.43814272
0.40032217 0.32044283 0.09516771 0.20716792 0.18586789 -0.26055044 -0.3774851 -0.42077395
0.26445127 0.10201243 -0.26202276 -0.36154017 -0.29453322 -0.12897341 0.04850189 0.011207709
0.45555466 0.14628935 -0.29273546 0.22062013 -0.21142451 0.0758226 0.4725297 0.2526404
0.059091583 0.42736217 -0.2639602 -0.015955418 -0.061122254 -0.37747085 -0.041894745 -0.3735923
-0.06856857 0.01455153 0.16617548 -0.35926706 0.3420172 -0.2057103 -0.2422576 0.30484125
-0.43881482 0.39409277 0.38317248 0.13979425 0.03571273 0.39433774 0.007858732 -0.022551453
0.022907523 0.28777018 0.2863969 -0.47261465 -0.20059936 -0.17222759 -0.3777566 0.42697924
-0.15663064 0.12460561 0.08206431 -0.007898162 0.2226137 -0.038121376 -0.32720935 0.27289706
0.08914993 0.14792904 -0.066285186 0.1396761 -0.0036870146 0.148149 0.0016801641 0.43889624
0.40751657 -0.16290173 -0.27155685 0.14039998 0.21296945 0.14556982 -0.3732781 0.05958944
-0.39161938 0.033106834 0.049924906 0.27682072 -0.0433576 -0.3362331 -0.39347002 0.32381165
0.3662602 0.41928214 -0.22598341 -0.48128733 0.16955687 0.14552999 0.22502421 -0.32715005
-0.271827 0.25731125 0.34842274 0.48107928 -0.27199632 0.12980504 0.15167674 -0.121533394
-0.37604442 -0.4344705 -0.37915906 0.10865912 0.004133201 0.2852697 0.19511542 0.26453084
0.14093933 -0.2349795 0.41898948 -0.4327929 0.13434505 -0.07673896 0.23205012 0.3941549
-0.1286164 -0.16992088 -0.16772346 -0.4419105 0.09512313 0.27016473 -0.3886129 -0.09908907
0.041766305 0.022381421 -0.46075934 0.36328125 0.22367525 -0.31738377 -0.34168676 -0.05499458
-0.20658027 -0.22355573 0.33409128 -0.4269862 0.19549043 -0.3884945 -0.36249417 0.29092205
-0.10725395 0.014176365 0.39057782 0.22686414 -0.13083778 0.39382005 -0.41605404 0.21916609
-0.09012321 -0.30857313 0.052732192 0.3468682 -0.11720537 0.022568678 0.12949896 -0.31248373
0.41412678 -0.3766453 0.32700574 0.1595565 -0.05251183 0.25651887 -0.24734156 -0.22425936
-0.1166654 -0.010992812 0.37957537 0.4162987 -0.572821 -0.07874779 0.38935322 -0.3483484
-0.04053628 -0.040463265 0.1894494 0.11611349 0.42226088 0.00055957533 -0.28715852 0.064958684
-0.33162794 0.016562972 -0.4099474 -0.3428647 -0.38721162 -0.02752789 0.17040679 -0.40120596
0.29416215 -0.1354005 0.25820628 -0.101177216 -0.16514097 -0.102653235 0.32859057 0.33247495
0.25049788 -0.26827204 -0.33531877 -0.013863247 -0.3244648 0.09739138 -0.3946226 0.08635472
-0.3238706 -0.3459513 -0.2882549 0.1441817 0.3766304 0.14805041 -0.40028924 0.20780632
0.16152345 0.10874677 -0.2759659 0.3691866 0.40741193 -0.33098465 -0.09862526 -0.44329563
0.21210362 -0.15110858
00000000: 96f7 033e 18fa 563d 1910 f23c f58d 073d
00000010: 4042 e8bc 098a e03e af97 c93e 3d6b 99bd
00000020: 2067 b33e 41e0 293e af7e 9d3d 7af7 fe3d
00000030: e646 cabe 83f7 4c3e cf09 673e d273 063e
00000040: 2486 223c 1ec8 e93d 9e95 75be cfc8 e4be
00000050: d0e2 08be 2e80 0ebe 5563 65be 3e54 e03e
00000060: 07f7 cc3e 1511 a43e 4ae7 c23d d423 543e
00000070: 2754 3e3e de66 85be ba45 c1be af6f d7be
00000080: 2866 873e e5eb d03d d927 86be cb1b b9be
00000090: 0fcd 96be 9b11 04be eba9 463d 8aa0 373c
000000a0: 763e e93e e0cc 153e 6ce1 95be 3eea 613e
000000b0: ab7f 58be e148 9b3d 6aef f13e 155a 813e
000000c0: 040a 723d 37cf da3e cb25 87be f0b4 82bc
000000d0: 545b 7abd dc43 c1be d399 2bbd 7d47 bfbe
000000e0: ae6d 8cbd 8a69 6e3c e829 2a3e daf1 b7be
000000f0: e11c af3e b9a5 52be 6012 78be 2714 9c3e
00000100: 56ac e0be 87c6 c93e 2f2f c43e 3926 0f3e
00000110: 8347 123d a3e6 c93e e9c1 003c d3bd b8bc
00000120: 8fa8 bb3c 9d56 933e 9da2 923e 8cfa f1be
00000130: eb69 4dbe 6e5c 30be 5069 c1be 069d da3e
00000140: c863 20be 3a31 ff3d 5511 a83d 4b67 01bc
00000150: d9f4 633e 2925 1cbd fc87 a7be 2ab9 8b3e
00000160: 3d94 b63d b67a 173e 87c0 87bd 4007 0f3e
00000170: d7a1 71bb 5fb4 173e f438 dc3a 02b7 e03e
00000180: 03a6 d03e b6cf 26be 8009 8bbe 03c5 0f3e
00000190: aa14 5a3e 4110 153e 4f1e bfbe 0e14 743d
000001a0: 5682 c8be 089b 073d 0f7e 4c3d 72bb 8d3e
000001b0: bd97 31bd bf26 acbe e774 c9be a4ca a53e
000001c0: 7586 bb3e 26ac d63e 3268 67be 4b6b f6be
000001d0: 51a0 2d3e d005 153e bf6c 663e 3680 a7be
000001e0: e92c 8bbe 4dbe 833e 7764 b23e 0650 f63e
000001f0: 1a43 8bbe 9deb 043e 2651 1b3e 80e6 f8bd
00000200: e588 c0be eb72 debe 2321 c2be ac88 de3d
00000210: ce6f 873b df0e 923e 56cc 473e 9670 873e
00000220: 6652 103e 779e 70be ca85 d63e 0897 ddbe
00000230: c091 093e 5129 9dbd 8c9e 6d3e acce c93e
00000240: 04b4 03be bdff 2dbe b3bf 2bbe 1842 e2be
00000250: eacf c23d 0853 8a3e 45f8 c6be 36ef cabd
00000260: 2513 2b3d 3e59 b73c a6e8 ebbe 0000 ba3e
00000270: 200b 653e 2080 a2be 91f1 aebe ff41 61bd
00000280: c789 53be cbeb 64be 030e ab3e ef9d dabe
00000290: a52e 483e c0e8 c6be d698 b9be bcf3 943e
000002a0: f5a7 dbbd fc43 683c d1f9 c73e 134f 683e
000002b0: 57fa 05be c8a2 c93e 0905 d5be 136d 603e
000002c0: 8492 b8bd 4cfd 9dbe b6fd 573d b598 b13e
000002d0: 5e09 f0bd f3e1 b83c 609b 043e defd 9fbe
000002e0: 6d08 d43e a7d7 c0be 4c6d a73e c762 233e
000002f0: a516 57bd 7156 833e 1b47 7dbe 3fa4 65be
00000300: 45ee eebd 321b 34bc b457 c23e 1a25 d53e
00000310: 66a4 12bf 8546 a1bd 4e59 c73e b95a b2be
00000320: 5f09 26bd cfbc 25bd 06ff 413e e9cc ed3d
00000330: 9432 d83e 77b0 123a 7106 93be 0f09 853d
00000340: 23cb a9be 12af 873c a0e4 d1be f68b afbe
00000350: 9a40 c6be 2b82 e1bc 1e7f 2e3e de6a cdbe
00000360: 6c9c 963e 6ea6 0abe 9d33 843e 0036 cfbd
00000370: b71a 29be dc3b d2bd 063d a83e 283a aa3e
00000380: 4241 803e f45a 89be e7ae abbe ac22 63bc
00000390: 4020 a6be 2275 c73d f90b cabe beda b03d
000003a0: 5ed2 a5be 8720 b1be 2596 93be 5ea4 133e
000003b0: b3d5 c03e 879a 173e b6f2 ccbe 2ecb 543e
000003c0: 6766 253e a0b6 de3d 674b 8dbe 0706 bd3e
000003d0: 4c98 d03e d276 a9be 0afc c9bd a5f7 e2be
000003e0: b131 593e 35bc 1abe

gat_layer_1.out_att.a f4 [10, 1]
0.5840963 -0.7011616 -0.3625679 -1.0547557 -0.30767667 -0.40837112 0.1351436 0.9169654
-0.5938701 -0.25749657
00000000: 5687 153f 547f 33bf 80a2 b9be 3c02 87bf
00000010: cc87 9dbe 0516 d1be 1563 0a3e 3fbe 6a3f
00000020: df07 18bf 97d6 83be

gat_layer_2.attention_0.W f4 [5, 10]
-0.01050425 -0.45510247 -0.12528932 -0.045193844 0.001016254 -0.28575158 -0.3763973 -0.2292804
0.25480536 -0.5783763 0.7398443 0.66595894 0.5001277 -0.6602385 -0.14569691 0.31837738
0.071936645 -0.061813537 0.18494916 -0.52373344 -0.18365909 0.6221581 -0.9183416 -0.55382353
0.24154243 0.4877964 0.46548095 -0.7317602 0.12001291 -0.07989783 0.21861808 0.506085
0.6651914 0.6100721 -0.47891828 -0.78598833 -0.2842934 0.5660603 -0.78562593 0.20449524
-0.88546276 -0.24752657 -0.23845929 -0.035607476 0.7644695 -0.49448586 -0.055490166 -0.79087645
-0.847633 0.7221851
00000000: 051a 2cbc 3103 e9be d84b 00be 2e1d 39bd
00000010: d333 853a 084e 92be 26b7 c0be 7bc8 6abe
00000020: d975 823e 7810 14bf 7066 3d3f 497c 2a3f
00000030: 5e08 003f 6405 29bf 9231 15be 5c02 a33e
00000040: 8553 933d 3130 7dbd 5063 3d3e 6513 06bf
00000050: 2111 3cbe c145 1f3f 6f18 6bbf 61c7 0dbf
00000060: e656 773e 73c0 f93e 8553 ee3e a354 3bbf
00000070: 54c9 f53d 79a1 a3bd 6bdd 5f3e c98e 013f
00000080: fc49 2a3f af2d 1c3f c734 f5be 8836 49bf
00000090: e88e 91be 54e9 103f c81e 49bf 3367 513e
000000a0: b0ad 62bf 9b77 7dbe ac2e 74be 25d9 11bd
000000b0: 46b4 433f 402d fdbe a849 63bd e176 4abf
000000c0: 7afe 58bf 1fe1 383f

gat_layer_2.attention_0.a f4 [20, 1]
-0.40474787 0.62356424 -0.14301741 -0.7369717 -0.17058203 0.6878264 0.3363711 -0.0923505
-0.007003054 -0.70803374 -0.12246098 -0.25711218 -0.14038414 0.54723394 -0.05319108 0.71922165
-0.5929808 -0.35243192 0.45483434 -0.45321745
00000000: 1d3b cfbe e8a1 1f3f 2873 12be 2daa 3cbf
00000010: 0ead 2ebe 6415 303f d538 ac3e 4222 bdbd
00000020: e079 e5bb b341 35bf d3cc fabd 35a4 83be
00000030: dcc0 0fbe 8617 0c3f e4de 59bd e91e 383f
00000040: 97cd 17bf f571 b4be 0ce0 e83e 1e0c e8be

gat_layer_2.attention_1.W f4 [5, 10]
0.3769848 0.10396925 0.7476581 0.62134707 0.2891476 0.1968562 0.3789302 -0.7290859
0.122746184 0.44532326 -0.12309678 -0.8307621 -0.6008602 -0.31912044 -0.27049413 0.45547825
0.8293568 0.4702418 -0.32214594 0.27554125 0.5189839 -0.41543943 0.74068457 0.87249535
-0.10653658 -0.31655005 0.80703235 0.676874 -0.3336506 0.9476107 -0.32100007 -0.37468514
-0.3515889 0.74290025 0.53395987 -0.044063333 -0.8725463 -0.0052364743 -0.89894015 -0.6519811
0.35990244 0.61953306 0.6635776 -0.3489017 -0.55266404 -0.32322282 0.12784499 -0.23218633
-0.024400178 -0.783249
00000000: 2704 c13e d5ed d43d 8566 3f3f 9a10 1f3f
00000010: 270b 943e ac94 493e 2403 c23e 60a5 3abf
00000020: 5a62 fb3d 6901 e43e 2a1a fcbd d3ac 54bf
00000030: f9d1 19bf c163 a3be 357e 8abe 7234 e93e
00000040: ba50 543f 89c3 f03e 50f0 a4be be13 8d3e
00000050: 21dc 043f 7ab4 d4be 819d 3d3f db5b 5f3f
00000060: da2f dabd d912 a2be ac99 4e3f 9d47 2d3f
00000070: 40d4 aabe 9d96 723f 1f5a a4be bbd6 bfbe
00000080: 7603 b4be b62e 3e3f 98b1 083f c17b 34bd
00000090: 325f 5fbf bb96 abbb f120 66bf 3ce8 26bf
000000a0: 2245 b83e b899 1e3f 39e0 293f 3ea3 b2be
000000b0: 647b 0dbf 767d a5be cce9 023e 41c2 6dbe
000000c0: e2e2 c7bc 0283 48bf

gat_layer_2.attention_1.a f4 [20, 1]
-0.6422307 0.55496454 -0.17459407 0.14293127 -0.7100969 -0.5680359 0.6047564 0.3159498
0.19769806 -0.16678731 0.06275353 -0.48126772 0.19918662 0.17891334 0.43583736 -0.36330104
0.102212 -0.2827641 -0.40550318 -0.737647
00000000: 3b69 24bf 2812 0e3f cac8 32be 935c 123e
00000010: e9c8 35bf cd6a 11bf 51d1 1a3f 2cc4 a13e
00000020: 5c71 4a3e 4bca 2abe ec84 803d b968 f6be
00000030: 94f7 4b3e 0f35 373e 1326 df3e 9802 babe
00000040: 8654 d13d 75c6 90be 1d9e cfbe 6fd6 3cbf

gat_layer_2.attention_2.W f4 [5, 10]
0.23312232 -0.7291253 -0.16619448 0.66567063 0.092179656 -0.050136782 -0.07967153 0.06983145
0.032336053 0.6421708 0.30783084 -0.49716532 0.68888617 -0.7181402 0.20391287 0.15494761
-0.5941199 -0.25403997 0.020436542 -0.7123426 -0.34592608 0.6185117 -0.5858245 0.26115963
-0.54250824 0.08828884 0.21130139 0.21036045 -0.13796629 0.7580166 0.40442607 0.53484493
-0.14391652 0.28525552 -0.5155855 -0.16119587 -0.74286383 -0.60429054 0.25094825 -0.4001262
-0.2291092 -0.519842 -0.4381288 0.54071563 0.8402008 -0.38150603 -0.28694302 0.5812425
0.1981181 0.8884137
00000000: 9eb7 6e3e f5a7 3abf e32e 2abe 6469 2a3f
00000010: b0c8 bc3d 3a5c 4dbd d42a a3bd cb03 8f3d
00000020: cf72 043d 4e65 243f 019c 9d3e 748c febe
00000030: d85a 303f 09d8 37bf 89ce 503e 96aa 1e3e
00000040: 3e18 18bf 8711 82be 896a a73c 165c 36bf
00000050: 391d b1be c856 1e3f 98f8 15bf b7b6 853e
00000060: d2e1 0abf c8d0 b43d 645f 583e bb68 573e
00000070: 0947 0dbe 600d 423f ef10 cf3e 99eb 083f
00000080: da5e 13be 030d 923e 69fd 03bf 8810 25be
00000090: 532c 3ebf c9b2 1abf 4a7c 803e 57dd ccbe
000000a0: 9a9b 6abe 5e14 05bf 6b52 e0be 576c 0a3f
000000b0: 6617 573f c254 c3be 32ea 92be 4fcc 143f
000000c0: 79df 4a3e 156f 633f

gat_layer_2.attention_2.a f4 [20, 1]
-0.28831503 -0.7262017 0.23420236 0.6392732 -0.6249574 0.7837527 -0.6343171 -0.55670327
-0.15366088 -0.26977742 0.6184299 0.31584084 0.613441 -0.22645544 0.1303031 0.22634465
-0.03299466 -0.029234827 -0.38059422 -0.48278555
00000000: 079e 93be 5be8 39bf bed2 6f3e 69a7 233f
00000010: 35fd 1fbf 04a4 483f 9b62 22bf 1b84 0ebf
00000020: 4759 1dbe 4420 8abe 6c51 1e3f e4b5 a13e
00000030: 780a 1d3f efe3 67be 2d6e 053e e4c6 673e
00000040: 6925 07bd e07d efbc 3fdd c2be ab2f f7be

gat_layer_2.attention_3.W f4 [5, 10]
-0.8280902 0.6027147 -0.33806038 0.7160093 -0.41411263 0.89991564 0.033506583 0.6785658
0.20212586 0.30847025 0.8805593 0.59411085 0.12855686 0.7546659 0.15790248 -0.36009198
-0.73606056 0.7446808 -0.5028118 0.4930657 0.7850162 0.27067125 -0.2562032 -0.5482841
0.70224947 0.53079987 0.09261655 -0.48554164 -0.7305653 0.38513038 0.025589326 -1.0448754
0.84390306 0.18967238 0.43145385 -0.7446031 -0.07454324 0.25886232 0.18223108 -0.19341901
0.7526656 -1.0386041 0.2786731 0.70146364 0.15080959 -0.58728606 -0.7338926 0.13506564
0.3719779 0.47327965
00000000: b8fd 53bf 834b 1a3f 4016 adbe 634c 373f
00000010: 9206 d4be df60 663f 333e 093d 7db6 2d3f
00000020: 15fa 4e3e d0ef 9d3e 566c 613f a617 183f
00000030: 69a4 033e c931 413f 30b1 213e fa5d b8be
00000040: 776e 3cbf 67a3 3e3f 46b8 00bf 1c73 fc3e
00000050: d2f6 483f 6c95 8a3e 112d 83be 595c 0cbf
00000060: 9fc6 333f 80e2 073f bfad bd3d ea98 f8be
00000070: 5406 3bbf cf2f c53e b5a0 d13c 7abe 85bf
00000080: 080a 583f 7a39 423e 85e7 dc3e 4f9e 3ebf
00000090: 20aa 98bd 9a89 843e c99a 3a3e a20f 46be
000000a0: b1ae 403f fbf0 84bf 3eae 8e3e 1f93 333f
000000b0: d46d 1a3e 6158 16bf 63e0 3bbf a64e 0a3e
000000c0: e373 be3e b651 f23e

gat_layer_2.attention_3.a f4 [20, 1]
0.6394587 -0.4127947 -0.70885736 0.5929382 -0.2289129 0.027734552 0.39392436 -0.57903254
-0.1468037 0.10952938 0.32592905 0.6128048 -0.13609505 0.32923436 -0.17308658 -0.21147661
-0.38887715 0.3032768 -0.49635872 -0.2818455
00000000: 91b3 233f d459 d3be ad77 35bf ccca 173f
00000010: 2568 6abe 9233 e33c 74b0 c93e 7a3b 14bf
00000020: b653 16be f150 e03d 2ce0 a63e c6e0 1c3f
00000030: 805c 0bbe 6891 a83e 9c3d 31be 538d 58be
00000040: e81a c7be 1947 9b3e bb22 febe 0e4e 90be

gat_layer_2.attention_4.W f4 [5, 10]
-0.15448117 0.548954 -0.67262477 -0.13987508 -0.278834 0.3527716 -0.6282683 -0.3356404
0.070423715 0.2905133 0.5238626 0.25530505 0.26820442 0.64647615 0.81360066 0.49461055
-0.12382202 -0.2854298 -0.401667 -0.18475139 -0.60324425 -0.80581295 -0.706587 0.8297071
-0.19460043 -0.66032696 -0.7312971 -0.15075427 0.12105781 -0.64371365 0.2591537 0.71889275
0.2534355 -0.55202276 -0.5805114 -0.36601642 0.7486661 0.15144685 0.24409029 -0.75785714
-0.095799014 -0.44554076 0.3428017 0.6500898 0.032871764 -0.6391942 -0.06523488 0.9178694
-0.22030863 -0.79212576
00000000: 5030 1ebe 4088 0c3f 2331 2cbf 6a3b 0fbe
00000010: 54c3 8ebe 7b9e b43e 31d6 20bf 0fd9 abbe
00000020: 4f3a 903d 29be 943e dc1b 063f 58b7 823e
00000030: 1752 893e 767f 253f 2248 503f 983d fd3e
00000040: 6696 fdbd db23 92be 4ca7 cdbe 782f 3dbe
00000050: 376e 1abf c249 4ebf e3e2 34bf af67 543f
00000060: 5645 47be 300b 29bf 4936 3bbf 545f 1abe
00000070: 28ed f73d 6bca 24bf cbaf 843e 5b09 383f
00000080: 4cc2 813e 5d51 0dbf 659c 14bf 8166 bbbe
00000090: 95a8 3f3f e214 1b3e cef2 793e ed02 42bf
000000a0: 4632 c4bd eb1d e4be b483 af3e 496c 263f
000000b0: 8ba4 063d 3ba2 23bf dd99 85bd 7df9 6a3f
000000c0: 9698 61be c1c8 4abf

gat_layer_2.attention_4.a f4 [20, 1]
-0.046660475 0.22059377 0.77085584 -0.54324996 -0.66446584 -0.5108978 -0.60349923 0.36826903
-0.20769121 -0.06215365 -0.31173518 0.5756632 -0.41376433 -0.69974715 0.30299234 0.5871582
-0.27963847 -0.61366117 0.6081605 -0.047649074
00000000: 0e1f 3fbd 55e3 613e cf56 453f 6e12 0bbf
00000010: 6f1a 2abf 33ca 02bf ed7e 1abf c28d bc3e
00000020: 01ad 54be d394 7ebd c19b 9fbe aa5e 133f
00000030: ebd8 d3be a122 33bf d021 9b3e 0050 163f
00000040: c62c 8fbe e618 1dbf 68b0 1b3f ad2b 43bd

gat_layer_2.out_att.W f4 [50, 5]
0.45011973 -0.1923632 -0.16321512 -0.1482244 -0.3470478 0.20023695 -0.033079065 0.2825985
0.35008118 0.147882 -0.10669984 0.30376127 -0.29856256 -0.33498538 -0.34202737 0.0040833503
-0.21822667 -0.07615377 -0.2919801 -0.33120427 0.17263141 -0.08752697 0.1097453 -0.06721505
0.019709097 -0.24821047 -0.19044164 0.29914442 -0.016915506 -0.15201297 -0.1450487 0.3845941
0.32830662 0.24957766 0.17109272 -0.166996 -0.28962344 -0.2326493 0.07177973 0.24820243
-0.12401799 -0.3589734 -0.04941198 -0.40129107 0.034732446 0.151141 0.39665982 -0.11189738
0.41241422 0.39074332 0.058850683 -0.10341565 -0.17119057 -0.3338758 -0.27920067 -0.19627906
0.0038598955 -0.04648936 -0.2634154 0.29051787 0.121750705 -0.21341082 -0.43406495 0.33182296
-0.29940248 -0.37817058 0.36771297 0.28533578 -0.05560871 0.16705729 -0.2741307 0.38703874
-0.061828557 -0.21367474 -0.11282798 -0.4407198 0.031975515 0.16858494 -0.22132826 -0.15871902
-0.31858683 0.15506892 -0.08380879 0.25150517 -0.010189281 -0.09609565 -0.10154393 -0.4702853
-0.08979494 -0.31060645 -0.06956104 -0.31156006 -0.174563 -0.25331163 -0.51563126 0.11112225
0.17701633 0.20452037 0.04007927 0.12968086 -0.3394026 -0.3054382 -0.065489426 -0.12980066
-0.26310244 -0.3743997 -0.1355301 -0.41948244 0.1908399 -0.43140432 -0.45584083 -0.19391118
-0.09844518 0.28458634 0.28886855 0.10596596 0.20985065 0.20289318 0.18578377 -0.14475222
-0.38472116 -0.30600095 0.19025245 0.30430737 0.21536456 0.0076119476 0.31330836 -0.35420176
0.28538057 -0.40625495 -0.17587252 0.19818628 0.3714763 -0.35340673 -0.003582273 -0.24871436
-0.2107036 -0.2265022 -0.0028954754 -0.27391776 -0.046467286 -0.24872376 0.039267745 -0.36282033
-0.011560726 -0.42355686 0.43995622 -0.15252995 0.2760777 -0.43632165 0.32095754 -0.4720622
0.1444894 0.007426957 0.25088435 -0.20050208 -0.29215115 -0.17015655 -0.060504925 -0.15089595
0.10982226 -0.23271914 -0.018406628 -0.16911773 0.3044092 -0.17292157 0.40043586 0.39820775
0.021515502 0.37286302 0.22883922 -0.075463496 0.20625146 0.38620144 0.3545253 0.116382524
-0.26482886 -0.18790613 0.33933198 5.8982132e-05 0.18952261 -0.05240352 -0.3124626 -0.29038742
0.12679867 -0.29954755 0.432337 -0.45535052 0.12811804 -0.2349606 -0.37374368 -0.030175975
-0.00425152 0.3720227 -0.091687776 0.1309657 0.2503675 -0.0074539203 0.029864212 0.556584
-0.4413155 0.18784648 0.31605145 0.017005581 0.21473557 0.17615241 0.14005552 -0.056699216
-0.38610017 0.37583253 -0.11603563 -0.2807006 0.10848305 0.30103436 -0.13539541 0.17601408
0.23444323 -0.30282393 0.024447603 0.341422 -0.41037872 0.41027462 0.29717305 -0.4490459
-0.1471904 0.35405615 0.37678328 -0.30672762 0.24867107 0.39824367 -0.43757927 -0.0069111846
0.074130625 -0.35331818 0.033186357 -0.29019532 -0.2968991 0.33803654 0.2056403 0.043651864
-0.32164526 -0.004374788 0.3790681 -0.11599554 -0.51364475 0.07117775 -0.213486 -0.25293174
-0.026356116 -0.36074135
00000000: 1876 e63e dcfa 44be dd21 27be 23c8 17be
00000010: 40b0 b1be ea0a 4d3e ea7d 07bd c0b0 903e
00000020: d73d b33e 616e 173e 7285 dabd 9986 9b3e
00000030: 31dd 98be 3483 abbe 361e afbe a0cd 853b
00000040: d076 5fbe 82f6 9bbd 6a7e 95be 9b93 a9be
00000050: 4ac6 303e 5741 b3bd 25c2 e03d 0ba8 89bd
00000060: f974 a13c e32a 7ebe 2203 43be 7529 993e
00000070: 6392 8abc 4aa9 1bbe a587 14be 85e9 c43e
00000080: ce17 a83e 4991 7f3e ee32 2f3e 0001 2bbe
00000090: 8649 94be 9e3b 6ebe 4001 933d c728 7e3e
000000a0: 25fd fdbd 5dcb b7be 3764 4abd 0676 cdbe
000000b0: 9c43 0e3d b5c4 1a3e ff16 cb3e 742a e5bd
000000c0: f527 d33e 820f c83e 6a0d 713d 96cb d3bd
000000d0: 954c 2fbe c5f1 aabe 64f3 8ebe 61fd 48be
000000e0: 4df6 7c3b a16b 3ebd 62de 86be c2be 943e
000000f0: 6f58 f93d 5e88 5abe c33d debe b3e4 a93e
00000100: 484b 99be 939f c1be e044 bc3e 8817 923e
00000110: f5c5 63bd 1111 2b3e dc5a 8cbe f129 c63e
00000120: f13f 7dbd 8dcd 5abe 5b12 e7bd 07a6 e1be
00000130: c2f8 023d 88a1 2c3e e0a3 62be 3d87 22be
00000140: d01d a3be 63ca 1e3e f1a3 abbd 49c5 803e
00000150: f1f0 26bc cccd c4bd 44f6 cfbd 3cc9 f0be
00000160: 69e6 b7bd cf07 9fbe 0576 8ebd cd84 9fbe
00000170: a5c0 32be 10b2 81be 6900 04bf 1094 e33d
00000180: c543 353e ca6d 513e 292a 243d 0fcb 043e
00000190: 2dc6 adbe 6562 9cbe 521f 86bd 77ea 04be
000001a0: 5db5 86be 51b1 bfbe 67c8 0abe 67c6 d6be
000001b0: 896b 433e 07e1 dcbe f863 e9be a790 46be
000001c0: a09d c9bd 4db5 913e 94e6 933e ae04 d93d
000001d0: 17e3 563e 3bc3 4f3e 1a3e 3e3e ed39 14be
000001e0: 2cfa c4be 28ac 9cbe 8ad1 423e 2dce 9b3e
000001f0: 8788 5c3e a56d f93b f469 a03e ef59 b5be
00000200: 671d 923e a600 d0be ed17 34be 58f1 4a3e
00000210: 2432 be3e baf1 b4be 91c4 6abb faae 7ebe
00000220: afc2 57be 31f0 67be 04c2 3dbb f33e 8cbe
00000230: 7b54 3ebd 71b1 7ebe 37d7 203d 96c3 b9be
00000240: 3369 3dbc 72dc d8be f141 e13e d030 1cbe
00000250: 0e5a 8d3e 8d65 dfbe 8c54 a43e 23b2 f1be
00000260: 07f5 133e d55d f33b ea73 803e 6b50 4dbe
00000270: d694 95be 853d 2ebe 03d4 77bd 7884 1abe
00000280: 7eea e03d ed4d 6ebe 7fc9 96bc 332d 2dbe
00000290: 86db 9b3e 5a12 31be ee05 cd3e e3e1 cb3e
000002a0: 4741 b03c e7e7 be3e d454 6a3e 9b8c 9abd
000002b0: 9533 533e 32bc c53e 5784 b53e f659 ee3d
000002c0: a697 87be 776a 40be ecbc ad3e 9563 7738
000002d0: 3712 423e 13a5 56bd 19fb 9fbe a9ad 94be
000002e0: 83d7 013e 4c5e 99be 465b dd3e b423 e9be
000002f0: 6031 033e 8399 70be 555b bfbe 9b33 f7bc
00000300: 5650 8bbb c279 be3e cdc6 bbbd df1b 063e
00000310: 2b30 803e 0440 f4bb cba5 f43c 4a7c 0e3f
00000320: 1bf4 e1be d45a 403e 7fd1 a13e 4a4f 8b3c
00000330: a4e3 5b3e 4c61 343e b76a 0f3e 703d 68bd
00000340: ecae c5be 1f6d c03e 17a4 edbd fdb7 8fbe
00000350: 5c2c de3d 2d21 9a3e 18a5 0abe 093d 343e
00000360: e311 703e bd0b 9bbe 5746 c83c ddce ae3e
00000370: 291d d2be 840f d23e 1127 983e 58e9 e5be
00000380: 15b9 16be d946 b53e bde9 c03e 670b 9dbe
00000390: a1a3 7e3e 98e6 cb3e 640a e0be 3877 e2bb
000003a0: ccd1 973d 1fe6 b4be 6bee 073d 7b94 94be
000003b0: 2903 98be 2013 ad3e 5f93 523e 4ccc 323d
000003c0: b0ae a4be 625a 8fbb 3715 c23e 128f edbd
000003d0: 397e 03bf a4c5 913d 139c 5abe 4580 81be
000003e0: c8e8 d7bc 17b3 b8be

gat_layer_2.out_att.a f4 [10, 1]
0.10439328 0.8735189 -0.12155336 0.744802 0.43863988 0.33551285 0.06252203 1.0174044
-0.36885205 -0.64932275
00000000: 25cc d53d ef9e 5f3f f8f0 f8bd 58ab 3e3f
00000010: 6895 e03e 57c8 ab3e 8d0b 803d 4f3a 823f
00000020: 2dda bcbe 043a 26bf
