tests/gat/encoder-checkpoint1.pt (torch, 20170 bytes, 36 tensors)

gat_layer_0.attention_0.W f4 [5, 10]
0	0xbef393ae	-0.47573608
1	0xbf5502a0	-0.8320713
2	0x3ed24234	0.41066134
3	0xbeab2f4e	-0.33434528
4	0xbdd5b065	-0.10434035
5	0x3ea97514	0.33097136
6	0x3f4f8a00	0.81069946
7	0xbe0d5116	-0.13800463
8	0x3f0196ff	0.50621027
9	0xbef8cb39	-0.48592547
10	0xbe67d2f3	-0.22639064
11	0x3e0e1141	0.1387377
12	0x3e9193c4	0.2843305
13	0xbf5ac17f	-0.854515
14	0xbe49d678	-0.1971072
15	0x3de0c892	0.10975756
16	0xbf279e5a	-0.65476
17	0xbe14cf82	-0.14532283
18	0xbecb8144	-0.3974706
19	0x3d8bd451	0.068276055
20	0x3dfa72a3	0.122288965
21	0x3ed1f902	0.4101029
22	0x3ec2d4b9	0.3805292
23	0x3eedbe60	0.46434307
24	0xbd82cb10	-0.06386387
25	0xbec0346a	-0.3753999
26	0x3ed46b49	0.41488102
27	0x3f41f2e1	0.7576123
28	0x3cc55a40	0.024090886
29	0xbdecf35a	-0.11569853
30	0xbef2a981	-0.47394946
31	0x3edcc6f4	0.4312054
32	0x3d28b2a5	0.041185994
33	0xbf0667ab	-0.52501935
34	0xbe7e03f7	-0.248062
35	0x3ec71dc3	0.38889894
36	0xbf656b31	-0.89616686
37	0x3ea343f0	0.3188777
38	0x3f47818a	0.77932036
39	0xbf594a07	-0.8487858
40	0x3f21ac0a	0.63153136
41	0xbf485424	-0.7825339
42	0x3e824410	0.25442553
43	0x3e93165a	0.2872799
44	0xbe19ec17	-0.15031467
45	0x3f5048d0	0.81361103
46	0xbd0906c7	-0.03345373
47	0x3f3fa9fd	0.74868757
48	0x3ee4aada	0.446616
49	0xbebd4cce	-0.3697266

gat_layer_0.attention_0.a f4 [20, 1]
0	0xbe3d8fa8	-0.18511832
1	0xbe498227	-0.19678555
2	0x3e2df983	0.16989712
3	0x3f37a5c5	0.7173732
4	0xbea643ed	-0.32473698
5	0xbd85e8bb	-0.065385304
6	0x3f21b2a2	0.631632
7	0xbf01fd93	-0.5077755
8	0xbdb1536e	-0.08658491
9	0x3f24e622	0.64413655
10	0xbf020739	-0.5079227
11	0xbf438b64	-0.7638457
12	0x3efc659d	0.49296275
13	0xbe09dc40	-0.13462925
14	0xbe16970d	-0.14706059
15	0xbea71904	-0.32636273
16	0x3ea509c5	0.32234016
17	0x3e2b08f7	0.16702639
18	0x3da1dd6a	0.079035595
19	0x3cd4bec7	0.025969876

gat_layer_0.attention_1.W f4 [5, 10]
0	0xbf5344b4	-0.8252671
1	0xbcbc310d	-0.022972608
2	0xbd484f31	-0.048903648
3	0xbc647523	-0.013943943
4	0xbda192df	-0.078893416
5	0xbe654cc5	-0.22392567
6	0xbf57c139	-0.8427921
7	0x3f3e69d5	0.74380237
8	0xbf420dfb	-0.7580258
9	0xbf33de74	-0.7026131
10	0x3eb98765	0.3623611
11	0xbf57e056	-0.84326684
12	0xbf34dcc9	-0.7064939
13	0x3f3142dc	0.69242644
14	0x3f606c63	0.87665385
15	0xbecad895	-0.39618364
16	0x3f3f0a8a	0.74625456
17	0xbe94481b	-0.28961262
18	0xbcfbae9e	-0.030722912
19	0x3e290d4f	0.16508983
20	0x3d2531bd	0.040330637
21	0x3f098f95	0.53734714
22	0xbf0d2abe	-0.55143344
23	0xbe99fdb1	-0.30076364
24	0xbe3f064b	-0.18654744
25	0xbede607f	-0.43432996
26	0x3f45edb5	0.7731584
27	0x3de8533f	0.11344003
28	0xbf388090	-0.7207117
29	0xbee21105	-0.4415361
30	0x3f04e3f1	0.5191031
31	0x3df2e9d4	0.118610054
32	0x3ebc5f11	0.3679128
33	0x3ec2db95	0.38058153
34	0x3d5dd313	0.054156374
35	0x3f43abda	0.764341
36	0xbec56aa7	-0.38557932
37	0x3f6351f0	0.887969
38	0xbecfa74b	-0.40557322
39	0xbd4b113f	-0.049576994
40	0xbf1a1db3	-0.6020157
41	0xbea8fc4c	-0.33004987
42	0x3f52e988	0.8238759
43	0xbf2cbe2a	-0.6747767
44	0x3f1729b5	0.59048015
45	0x3f26291c	0.6490648
46	0xbf097ab6	-0.5370287
47	0xbf022396	-0.5083555
48	0xbf482f6c	-0.7819736
49	0xbf249a26	-0.6429771

gat_layer_0.attention_1.a f4 [20, 1]
0	0xbebd6ec3	-0.36998567
1	0x3d9a7ab7	0.07542937
2	0x3e9a7e77	0.3017461
3	0xbe79e0fd	-0.24402232
4	0x3e80c24f	0.25148246
5	0xbeba13f1	-0.3634334
6	0xbf0c3991	-0.5477534
7	0xbf00df11	-0.5034037
8	0xbdd57eb2	-0.10424556
9	0xbe8a05d9	-0.26957586
10	0x3f0c16c4	0.5472224
11	0x3e3861ff	0.18006133
12	0xbe9b1365	-0.30288234
13	0xbea59fb3	-0.32348403
14	0x3e384c08	0.17997754
15	0x3e03cee5	0.12871893
16	0xbeca9dbe	-0.39573473
17	0xbef0f5c0	-0.47062492
18	0x3f2f21e8	0.6841111
19	0x3ccf3027	0.025291516

gat_layer_0.attention_2.W f4 [5, 10]
0	0x3f537364	0.8259795
1	0xbede6914	-0.43439543
2	0xbe035733	-0.12826233
3	0x3f46bd31	0.77632433
4	0x3f2e919c	0.6819093
5	0x3da391cc	0.07986793
6	0xbf19ebac	-0.6012523
7	0xbf09337b	-0.5359418
8	0xbf1ecb35	-0.6202882
9	0xbf07cc8d	-0.53046495
10	0x3e86b9f5	0.2631375
11	0xbf5a7efc	-0.8535001
12	0xbf54f3c8	-0.8318448
13	0x3e239411	0.15974452
14	0xbe64db9e	-0.22349402
15	0xbeb9d07b	-0.3629187
16	0xbf5ae09e	-0.8549899
17	0x3e89ff39	0.26952532
18	0xbda8cb64	-0.08241919
19	0xbec5c02a	-0.38623172
20	0xbf078336	-0.52934587
21	0x3f3b4570	0.7315283
22	0x3f39cfb5	0.7258256
23	0xbeb2db07	-0.3493273
24	0x3eec860f	0.4619603
25	0x3e3d2344	0.18470484
26	0xbf06f031	-0.52710253
27	0xbeed7fed	-0.46386662
28	0x3f5f54ea	0.87238944
29	0x3f2459cb	0.64199513
30	0xbf6135d9	-0.8797279
31	0x3e9d0ae6	0.30672377
32	0x3f22d4a6	0.63605726
33	0x3e61d218	0.220528
34	0xbf1667c2	-0.5875207
35	0xbe673f56	-0.22582754
36	0xbf31308f	-0.6921472
37	0xbeabea7d	-0.33577338
38	0xbf008da4	-0.50216126
39	0x3f0ea65d	0.557226
40	0xbd94c015	-0.07263199
41	0xbe07877e	-0.1323528
42	0xbf2d0b97	-0.6759581
43	0x3e2ee12c	0.17078084
44	0x3d20370d	0.039115
45	0xbea258ca	-0.31708366
46	0xbf59d6fe	-0.8509368
47	0xbf590b63	-0.84783
48	0xbe1ba937	-0.15201269
49	0x3ea8550b	0.32877383

gat_layer_0.attention_2.a f4 [20, 1]
0	0xbee77d5f	-0.45212838
1	0xbe966ffb	-0.2938231
2	0xbebcb678	-0.36857963
3	0xbf1e2179	-0.61769825
4	0xbf3b2530	-0.7310362
5	0x3f0557d6	0.5208715
6	0x3ccdda6e	0.02512857
7	0x3f0992b9	0.53739506
8	0x3ee7735f	0.4520521
9	0x3f0f0312	0.5586406
10	0x3f397771	0.7244788
11	0xbf2e4688	-0.6807637
12	0xbf00e8b9	-0.50355107
13	0x3e6e974a	0.232999
14	0x3f000543	0.5000803
15	0x3e851faf	0.26000735
16	0x3f2717d7	0.6527075
17	0xbe93b9c9	-0.2885268
18	0xbf020836	-0.5079378
19	0xbef834b2	-0.48477703

gat_layer_0.attention_3.W f4 [5, 10]
0	0xbeabe3a3	-0.3357211
1	0xbdd33842	-0.10313465
2	0x3daeff7e	0.08544825
3	0x3ec79795	0.38982835
4	0xbe97461e	-0.29545683
5	0xbf49ad3e	-0.7877997
6	0xbf21f248	-0.63260317
7	0x3f5faa46	0.8736919
8	0xbd8902e5	-0.06690005
9	0xbf021a95	-0.5082181
10	0xbf2f33f0	-0.68438625
11	0x3e220360	0.158216
12	0x3df46ef3	0.119352244
13	0x3e10c1fa	0.14136496
14	0xbed575d7	-0.41691467
15	0xbf101b98	-0.56292105
16	0xbf242b52	-0.641286
17	0x3e3ed439	0.18635644
18	0x3f10db73	0.5658485
19	0x3e280467	0.1640793
20	0x3f172d6f	0.590537
21	0x3f3787fe	0.7169188
22	0xbe8462fd	-0.25856772
23	0x3de8758e	0.11350547
24	0x3eb1bf2c	0.34716165
25	0xbf28b95f	-0.65907854
26	0x3edd33c8	0.43203568
27	0xbf1b5469	-0.60675675
28	0xbf02cf53	-0.510976
29	0x3eb823be	0.3596477
30	0xbdd8ae1e	-0.10580085
31	0xbc7c8983	-0.015413645
32	0xbf195bd1	-0.59905726
33	0x3ef8e82c	0.48614633
34	0x3f226350	0.6343279
35	0xbf388f33	-0.72093505
36	0xbeef1380	-0.46694565
37	0xbf2ca355	-0.67436725
38	0x3f206a48	0.6266217
39	0x3e43345d	0.19062944
40	0x3f302830	0.6881132
41	0x3ea732b7	0.3265588
42	0xbf42f7c0	-0.76159286
43	0x3ee737a3	0.45159635
44	0x3e09a60d	0.1344225
45	0xbeb156a5	-0.34636417
46	0xbf206463	-0.6265318
47	0x3e296f88	0.16546452
48	0x3f2fa281	0.68607336
49	0xbf269cff	-0.6508331

gat_layer_0.attention_3.a f4 [20, 1]
0	0xbea962f1	-0.330833
1	0x3d1f8d13	0.0389529
2	0x3efbba67	0.4916565
3	0x3f3ecbb7	0.74529594
4	0x3f2737e9	0.6531969
5	0x3f2b0c54	0.66815686
6	0xbd12e1eb	-0.035859983
7	0x3f3e8eea	0.7443682
8	0x3da05f41	0.07830668
9	0xbf04e1c6	-0.51907
10	0xbe8272b9	-0.2547815
11	0xbf13f876	-0.57800996
12	0xbd711b77	-0.058864083
13	0xbf24bc32	-0.64349663
14	0xbebea21d	-0.37233058
15	0x3da335cc	0.07969245
16	0x3ef23495	0.47305742
17	0x3c929b97	0.017896457
18	0x3ee33e21	0.44383338
19	0x3dfc48e4	0.1231859

gat_layer_0.attention_4.W f4 [5, 10]
0	0xbe99a7b1	-0.3001075
1	0xbf3d256e	-0.7388524
2	0x3f4cc357	0.79985565
3	0x3ead7175	0.33875623
4	0x3cce31c4	0.025170214
5	0x3e8fb76f	0.28069636
6	0x3eeada13	0.45869502
7	0x3e67a2e3	0.2262073
8	0xbeb7f5b8	-0.35929656
9	0xbf289268	-0.658484
10	0xbdf468d7	-0.11934059
11	0xbeea3627	-0.4574444
12	0xbf5d4bd5	-0.86443835
13	0xbf13a6ff	-0.5767669
14	0x3ed06227	0.40699884
15	0x3ef5781d	0.47943202
16	0xbf27f002	-0.656006
17	0xbe8ffcc0	-0.2812252
18	0x3eb3ba88	0.3510325
19	0x3ee000be	0.43750566
20	0xbf2efdb9	-0.683559
21	0x3f041d5a	0.51607287
22	0xbea0bb9d	-0.31393138
23	0xbee7e1d7	-0.4528949
24	0xbf2b14e1	-0.66828734
25	0x3e5c230c	0.21497744
26	0x3db5a08a	0.08868511
27	0x3ef25952	0.4733377
28	0xbe1d869b	-0.15383379
29	0x3f2850da	0.6574837
30	0xbe5bd4f9	-0.21467961
31	0xbe807944	-0.25092518
32	0xbedf1cd2	-0.43576676
33	0x3f13385f	0.5750789
34	0xbf65be06	-0.8974308
35	0x3e39efd5	0.18157895
36	0xbf3b6748	-0.7320447
37	0xbef99406	-0.48745745
38	0xbf4cfefb	-0.8007657
39	0x3f3b6be2	0.7321149
40	0xbf1f37b8	-0.62194395
41	0x3f3fd0de	0.7492808
42	0x3f156e68	0.5837159
43	0xbd8cfaf6	-0.068838045
44	0xbe86dddf	-0.2634115
45	0x3f48530e	0.7825173
46	0x3f4db0c6	0.8034786
47	0x3f4a594b	0.790425
48	0xbf52d6e4	-0.8235915
49	0x3e28f7be	0.16500756

gat_layer_0.attention_4.a f4 [20, 1]
0	0x3cd1ee3c	0.025626294
1	0xbee7ff33	-0.4531189
2	0xbeeec8e7	-0.4663765
3	0xbeda1b86	-0.42599124
4	0xbe8ee2ee	-0.2790751
5	0x3f0b4e82	0.5441667
6	0x3ed9332f	0.42421862
7	0x3e24c8da	0.16092244
8	0xbee5041f	-0.44729707
9	0x3ec5bd17	0.38620827
10	0x3f26f209	0.65213066
11	0x3f24d1f0	0.6438284
12	0xbe713350	-0.2355473
13	0x3f141845	0.5784953
14	0x3ec4f941	0.38471416
15	0x3f02c7e9	0.5108629
16	0x3ed7f10e	0.42176098
17	0x3efc2215	0.49244753
18	0x3f12ecc4	0.57392526
19	0xbf10d640	-0.5657692

gat_layer_0.out_att.W f4 [50, 5]
0	0xbece9ad2	-0.40352494
1	0xbe8a82a5	-0.270528
2	0x3ce51f3d	0.027968997
3	0xbe742b55	-0.23844655
4	0xbe7c889f	-0.24661492
5	0xbef1069d	-0.47075358
6	0x3d91c242	0.0711713
7	0xbe8d4222	-0.27589518
8	0x3e0900fd	0.13379283
9	0xbe2fe742	-0.17178062
10	0x3e9a690d	0.30158272
11	0xbeaea7f7	-0.34112522
12	0x3e508afe	0.20365521
13	0xbbf95438	-0.0076089166
14	0x3e88cce5	0.26718822
15	0xbd047e6b	-0.032347124
16	0xbe3903b1	-0.18067814
17	0x3dd725d6	0.105052635
18	0x3eaf8612	0.34281975
19	0xbeb7dc2f	-0.35910174
20	0x3ec42e24	0.38316453
21	0xbd4cf491	-0.050037924
22	0x3e0a8fa4	0.13531357
23	0x3e741fe3	0.23840289
24	0x3edc299c	0.43000495
25	0xbea553a3	-0.32290372
26	0x3c4292b0	0.011875793
27	0x3eb488fc	0.3526076
28	0x3e95f811	0.29290822
29	0xbe5ebb79	-0.21751203
30	0x3ed2fe7a	0.41209775
31	0x3e770339	0.24122323
32	0xbea8f5a3	-0.32999906
33	0xbe9f40d0	-0.31104136
34	0x3e436e21	0.1908498
35	0xbef11d08	-0.47092462
36	0x3cf82766	0.030292224
37	0x3e905fb7	0.28198025
38	0xbe8797b7	-0.26482937
39	0x3ce4aef6	0.02791546
40	0x3e42f2e3	0.19037966
41	0xbe81b5ce	-0.25334018
42	0xbd3cecf9	-0.046124432
43	0x3db8c426	0.09021787
44	0x3ccf7d3b	0.02532827
45	0xbebb45f3	-0.36576805
46	0x3e66a0d7	0.22522293
47	0xbe0a1d7a	-0.13487807
48	0xbe955760	-0.29168224
49	0x3e81ae4e	0.25328296
50	0xbe9b6364	-0.30349267
51	0x3e7fba52	0.2497342
52	0xbe3f6975	-0.18692572
53	0xbe8bc987	-0.2730219
54	0xbdb8f7ce	-0.0903164
55	0xbe3ddf65	-0.1854225
56	0x3e56d037	0.20977865
57	0xbc572529	-0.013131418
58	0x3e62d4b4	0.22151452
59	0xbe9efa4d	-0.3105034
60	0xbd29b970	-0.041436613
61	0x3e9ebbd2	0.3100267
62	0xbecbd0f3	-0.39807853
63	0x3ec84c43	0.39120683
64	0x3ea2511d	0.3170251
65	0x3dd27915	0.10277001
66	0x3e50cec9	0.20391382
67	0xbe8cdf62	-0.27514178
68	0x3e5fb758	0.21847284
69	0x3ee7efa9	0.45300034
70	0x3c9249d2	0.017857466
71	0xbeea8d7d	-0.45811072
72	0x3e893db5	0.2680489
73	0xbeab53f4	-0.3346249
74	0x3ed94670	0.42436552
75	0xbda57416	-0.08078782
76	0xbd945982	-0.07243635
77	0xbd4ccfe1	-0.050002936
78	0x3eb6fd15	0.3573996
79	0xbee0b0a1	-0.43884757
80	0xbe5e313e	-0.21698472
81	0x3e867593	0.26261577
82	0xbe213ac0	-0.15745068
83	0x3ee4dcda	0.44699746
84	0x3ed4c37c	0.41555393
85	0x3d8532bd	0.06503818
86	0xbe2d7998	-0.16940916
87	0x3e6541c4	0.22388369
88	0xbd227846	-0.039665483
89	0x3e316004	0.17321783
90	0xbee2eade	-0.44319814
91	0xbd3e7d90	-0.046506464
92	0xbc7f4819	-0.015581154
93	0x3d8ddeff	0.06927299
94	0x3ec0e78c	0.37676656
95	0x3e9bd561	0.30436233
96	0xbe915f47	-0.28393003
97	0xbe74a5bd	-0.23891349
98	0x3ec4bf64	0.3842727
99	0x3e6e72e5	0.23286016
100	0x3e3c05bd	0.18361564
101	0xbedb22cb	-0.42799982
102	0xbd933ef4	-0.07189742
103	0xbd4eb51d	-0.05046569
104	0x3ebd090a	0.3692096
105	0x3e9f1048	0.3106711
106	0x3ea56165	0.3230087
107	0xbcd03e0f	-0.025420217
108	0xbe53fa30	-0.20700908
109	0xbed4c885	-0.41559234
110	0x3ec8ef36	0.39245003
111	0x3e954e8f	0.29161498
112	0xbe816da8	-0.25278974
113	0xbe19b55e	-0.15010592
114	0x3ea04203	0.31300363
115	0x3c152771	0.009103642
116	0xbe17ccc2	-0.14824203
117	0xbe38da2d	-0.18051977
118	0x3e3d4ba5	0.18485887
119	0xbe5c6a68	-0.21524966
120	0x3e174313	0.1477168
121	0xbed22072	-0.4104038
122	0x3dd07d81	0.10180188
123	0x3dc0affc	0.09408566
124	0xbd9c4e8c	-0.07632169
125	0x3d997a51	0.07494033
126	0x3e1b04f0	0.15138602
127	0xbe90f457	-0.28311417
128	0x3e9b4ffe	0.30334467
129	0xbe72edd0	-0.23723531
130	0xbea28531	-0.31742242
131	0xbe85373c	-0.26018703
132	0x3ea45ffb	0.32104477
133	0xbee97976	-0.4560048
134	0xbea781dc	-0.32716262
135	0x3eafa0ac	0.3430227
136	0xbd22cd7a	-0.03974674
137	0xbed70272	-0.41994053
138	0x3ee6aba5	0.4505283
139	0xbeb036f9	-0.3441694
140	0xbe6c153f	-0.2305498
141	0xbdaf2e7b	-0.08553787
142	0x3e895195	0.26820055
143	0xbed370e6	-0.41297072
144	0x3e9b15b7	0.30290005
145	0x3ed398ee	0.41327614
146	0xbe26f438	-0.163041
147	0x3e60ff9e	0.2197251
148	0xbea731e8	-0.32655263
149	0xbeb51ab2	-0.3537193
150	0x3c07ab81	0.008280636
151	0x3ebf6c5b	0.37387356
152	0xbd8e1b46	-0.06938796
153	0xbecb9c75	-0.39767805
154	0x3dd999ec	0.106250614
155	0x3e959db8	0.29221892
156	0xbe1d64e7	-0.15370522
157	0xbee1769f	-0.44035813
158	0x3e708df1	0.23491646
159	0x3e38d134	0.18048555
160	0xbec71971	-0.38886598
161	0x3e4d2c19	0.20036353
162	0xbebd4b39	-0.36971453
163	0x3e9db5dc	0.3080281
164	0x3ed211b1	0.41029122
165	0xbecf2ce3	-0.40463933
166	0x3e4445db	0.19167273
167	0x3ed8df8f	0.42358062
168	0x3e20a0ab	0.1568629
169	0x3eea2704	0.45732892
170	0xbe456180	-0.19275475
171	0xbe69effc	-0.22845453
172	0x3ee8c129	0.4545987
173	0x3eaf7072	0.34265476
174	0xbeb780e4	-0.35840523
175	0xbe16d426	-0.14729366
176	0x3ecdde0b	0.40208468
177	0x3c18717b	0.0093044
178	0x3ece1620	0.40251255
179	0x3e0ca4f5	0.13734801
180	0x3e5a43aa	0.21314874
181	0x3eb76a03	0.35823068
182	0x3e935e63	0.2878295
183	0xbebf7d97	-0.37400505
184	0x3d82a269	0.063786335
185	0xbeb321f7	-0.3498685
186	0x3e4f7449	0.20259203
187	0x3e845138	0.25843215
188	0x3dff7762	0.12473942
189	0xbe8452c7	-0.25844404
190	0xbeabe829	-0.33575562
191	0x3e9401ee	0.28907722
192	0x3d845937	0.06462329
193	0xbe8fbdb6	-0.28074425
194	0xbec44084	-0.38330472
195	0x3eb44c4c	0.3521446
196	0x3e67aee6	0.22625312
197	0xbea53119	-0.3226402
198	0x3e149314	0.14509231
199	0x3d0802a2	0.033205636
200	0xbe4da434	-0.2008217
201	0x3eafd6e1	0.34343627
202	0x3e983663	0.29728994
203	0xbdbea65c	-0.09309074
204	0xbe47e9bb	-0.19522755
205	0x3bf59b40	0.007495314
206	0x3ea97f6f	0.33105037
207	0x3db0fdd6	0.08642165
208	0x3e96eb0c	0.29476202
209	0xbe6d256b	-0.23158805
210	0x3ddbcdae	0.1073259
211	0x3e8005e0	0.25004482
212	0x3d26c7bc	0.040717825
213	0xbd780356	-0.060550056
214	0x3e5c4875	0.21512015
215	0xbda9f07b	-0.08297821
216	0xbec6a269	-0.38795784
217	0x3ebbf917	0.36713478
218	0xbe101334	-0.14069825
219	0x3e8e583b	0.2780169
220	0x3ed873ea	0.42275935
221	0x3ed2ccc6	0.41171855
222	0x3d0fab9b	0.035075765
223	0xbec5623e	-0.38551515
224	0x3da5775c	0.080794066
225	0xbe47b7de	-0.19503734
226	0xbeacd3d1	-0.33755353
227	0x3cd75bc9	0.026288884
228	0xbe0a1fd9	-0.13488711
229	0x3e1f6287	0.15564929
230	0xbdb3195e	-0.08745073
231	0xbdaac53b	-0.083384
232	0xbed78cf8	-0.42099738
233	0x3e815794	0.2526213
234	0xbeeb4190	-0.45948458
235	0xbe21e416	-0.15809664
236	0x3c47e3ab	0.012200276
237	0xbdc1287b	-0.09431549
238	0x3eb878de	0.36029714
239	0xbe82ca2f	-0.2554488
240	0xbe609e48	-0.2193538
241	0xbee4cee6	-0.446891
242	0x3ec76172	0.38941532
243	0xbe85a405	-0.261017
244	0x3ea60ece	0.3243317
245	0x3d0a6021	0.033783082
246	0xbee03d3c	-0.43796718
247	0x3ec3be39	0.38231066
248	0xbee967c9	-0.45586994
249	0xbe366856	-0.17813239

gat_layer_0.out_att.a f4 [10, 1]
0	0x3e16bcf5	0.14720519
1	0x3f7ef3fb	0.99591035
2	0xbf29c331	-0.66313463
3	0xbed9d2aa	-0.42543536
4	0xbede5f42	-0.4343205
5	0xbf419859	-0.7562309
6	0x3ed0311a	0.40662462
7	0xbdd92a61	-0.10603786
8	0xbf80c25a	-1.0059311
9	0xbf34dad8	-0.7064643

gat_layer_1.attention_0.W f4 [5, 10]
0	0x3c38c8c5	0.011278336
1	0xbe9cb46f	-0.3060641
2	0x3f0e32fe	0.5554656
3	0xbf501e8c	-0.8129661
4	0x3eeb2e4a	0.45933753
5	0xbe4ccfcd	-0.20001145
6	0x3eb35cb8	0.35031676
7	0xbcda3b1a	-0.02663951
8	0xbf3d7bc1	-0.7401696
9	0xbf0dc177	-0.5537333
10	0x3f2f0074	0.68360066
11	0xbf4c5992	-0.79824173
12	0xbed83fde	-0.42236227
13	0xbcf33aef	-0.029691188
14	0xbf55011e	-0.8320483
15	0xbd951678	-0.07279676
16	0xbf33209d	-0.6997164
17	0xbf3a62ae	-0.72806823
18	0xbf236b30	-0.6383543
19	0x3f0a8b50	0.54118824
20	0x3ee28c60	0.44247723
21	0xbf2c731c	-0.6736314
22	0x3f3ff805	0.7498782
23	0xbe57419f	-0.21021126
24	0x3f2bdad3	0.67130774
25	0x3cebea25	0.028798172
26	0xbef48650	-0.47758722
27	0x3f623c97	0.883737
28	0x3e00aad7	0.1256517
29	0x3f49da3c	0.78848624
30	0x3dbf4ec3	0.093411945
31	0xbf4b3d57	-0.7939047
32	0x3ec89718	0.39177775
33	0xbd9ec2c3	-0.077519916
34	0x3e5d9585	0.21639068
35	0x3f54cdee	0.83126724
36	0xbf03a372	-0.5142127
37	0xbf2b9892	-0.6702968
38	0xbe664682	-0.22487834
39	0xbd3c5749	-0.04598168
40	0xbe79acca	-0.2438232
41	0x3f4015a3	0.75033015
42	0x3f599d7d	0.85005933
43	0x3f4972cd	0.786908
44	0xbf5719cd	-0.84023744
45	0xbf2036f2	-0.6258384
46	0x3f1efc76	0.62103975
47	0xbeaa369b	-0.33244786
48	0x3f0637a3	0.52428645
49	0x3edf83e9	0.43655327

gat_layer_1.attention_0.a f4 [20, 1]
0	0x3e3a71f4	0.18207532
1	0xbf045f89	-0.51708275
2	0xbe5e5223	-0.2171102
3	0xbec7add4	-0.38999808
4	0x3f410ae6	0.75407255
5	0xbf349585	-0.7054065
6	0xbea77d0c	-0.3271259
7	0xbf37d160	-0.71803856
8	0x3f3b3dc3	0.73141116
9	0xbf285255	-0.6575063
10	0x3f373d6a	0.71578085
11	0xbe0ed337	-0.1394776
12	0xbe5ee771	-0.21767975
13	0xbe17454c	-0.14772528
14	0x3f3041ba	0.6885029
15	0x3e4294b4	0.19002038
16	0x3ef38309	0.4756091
17	0xbe562eed	-0.20916338
18	0xbf340362	-0.7031766
19	0xbe4e1767	-0.20126115

gat_layer_1.attention_1.W f4 [5, 10]
0	0x3f0aef06	0.5427097
1	0xbcab99d3	-0.020947373
2	0x3f0052f6	0.5012659
3	0x3ef9e426	0.48806876
4	0xbeeda5a0	-0.46415424
5	0xbe7a4136	-0.24438938
6	0x3d1670a9	0.036728535
7	0x3d3b4508	0.04572013
8	0xbf19cf0d	-0.6008156
9	0x3e2ed604	0.17073828
10	0xbf5ec2e9	-0.8701616
11	0x3dc924b4	0.09821454
12	0xbf35923e	-0.7092627
13	0x3f585c1b	0.8451554
14	0xbe74f618	-0.23922002
15	0xbea33546	-0.31876582
16	0x3e15a490	0.14613557
17	0xbf4d2aac	-0.8014324
18	0x3ee6110e	0.44934887
19	0x3ed325d5	0.412398
20	0x3f0581ae	0.52151
21	0xbf24e9fa	-0.6441952
22	0xbf55a199	-0.83449703
23	0xbeb6bcf7	-0.35691044
24	0xbe5eaee1	-0.21746399
25	0xbe3a7fee	-0.18212864
26	0x3f10cbfd	0.5656126
27	0xbded2221	-0.11578775
28	0xbf0d660f	-0.55233854
29	0xbeaae305	-0.33376327
30	0x3dc894dd	0.097940184
31	0x3e94b406	0.29043597
32	0xbf3b1da6	-0.73092115
33	0x3ece7b1b	0.40328297
34	0xbe850a60	-0.25984478
35	0x3eb32c70	0.3499484
36	0xbe0c1f4d	-0.13683815
37	0xbe7d1ea0	-0.24718714
38	0xbe649e85	-0.22326095
39	0x3e493772	0.19650057
40	0xbf37d3c4	-0.71807504
41	0x3f07885c	0.5294244
42	0xbef5d9a8	-0.4801762
43	0xbeb962ec	-0.36208284
44	0x3e70721d	0.23481031
45	0x3dec716b	0.1154507
46	0x3e16bc9d	0.14720388
47	0xbf625491	-0.8841029
48	0xbedab67e	-0.42717355
49	0xbd4dc0ab	-0.05023257

gat_layer_1.attention_1.a f4 [20, 1]
0	0xbf15d587	-0.5852894
1	0x3e2b8488	0.16749775
2	0xbe3a58a5	-0.18197878
3	0xbed5980a	-0.4171756
4	0x3e3d3d05	0.18480308
5	0xbde0434f	-0.10950338
6	0x3d2133fe	0.039356224
7	0x3f37068d	0.7149437
8	0xbedf508f	-0.4361615
9	0xbe9bc539	-0.30423906
10	0x3f1f5b2b	0.62248486
11	0xba36d398	-0.0006974279
12	0x3ed5900e	0.41711468
13	0xbf2b705a	-0.6696831
14	0xbaa10fa5	-0.0012287988
15	0xbec6545e	-0.38736242
16	0xbea1f713	-0.31633815
17	0x3f318011	0.6933604
18	0xbd85686a	-0.06514056
19	0x3f1f4f28	0.6223016

gat_layer_1.attention_2.W f4 [5, 10]
0	0xbdd94b5d	-0.106100775
1	0xbf478a11	-0.7794505
2	0xbebf9a34	-0.37422335
3	0xbea5a1b1	-0.32349923
4	0xbf603c91	-0.87592417
5	0xbe9ac370	-0.30227232
6	0x3f3bf7f8	0.73425245
7	0xbe4cb0be	-0.19989297
8	0x3ea3cf37	0.3199403
9	0xbc81c046	-0.015838753
10	0x3ef57c4e	0.479464
11	0xbf4a9931	-0.7914
12	0x3c3c59c3	0.01149601
13	0x3f1e358d	0.6180046
14	0x3f60cd34	0.87813115
15	0xbea33b2d	-0.31881085
16	0xbed6a8ed	-0.41925755
17	0xbe3a450a	-0.18190399
18	0xbf091348	-0.53545046
19	0xbbcd4258	-0.0062640123
20	0x3de312ad	0.110875465
21	0x3ee8e4d2	0.45487076
22	0xbf35b159	-0.70973736
23	0x3f19391a	0.59852755
24	0x3ef35bb5	0.47530904
25	0x3ed82fda	0.42224008
26	0xbf4ac8ef	-0.7921285
27	0x3e6dac54	0.23210269
28	0x3d562944	0.052285448
29	0x3e579973	0.2105463
30	0x3dd1f23b	0.1025128
31	0xbc846754	-0.016162552
32	0x3e307965	0.17233808
33	0x3e190ddc	0.14946693
34	0x3f24f071	0.64429384
35	0xbe5a3361	-0.21308662
36	0xbef5564f	-0.4791741
37	0xbe4b65cc	-0.19863051
38	0x3c31b18e	0.010845555
39	0x3eb43edb	0.35204205
40	0x3e57f8db	0.21091025
41	0xbe9112bb	-0.28334603
42	0xbf2bffed	-0.67187387
43	0x3f4fd0f1	0.81178194
44	0x3f21c9e1	0.6319867
45	0xbe506500	-0.20351028
46	0x3eb9b80f	0.36273238
47	0xbb8162a7	-0.003948528
48	0x3e0ea035	0.13928302
49	0x3dd27cc6	0.10277705

gat_layer_1.attention_2.a f4 [20, 1]
0	0x3eca669f	0.3953142
1	0x3f0ea918	0.55726767
2	0xbe9c0e25	-0.3047954
3	0x3f17d54f	0.5930986
4	0x3f1e57c8	0.61852694
5	0xbf34c477	-0.7061228
6	0xbecede23	-0.40403852
7	0x3c651654	0.013982374
8	0xbf324060	-0.6962948
9	0x3e884ff9	0.26623514
10	0x3f345300	0.7043915
11	0x3d13a24d	0.036043454
12	0xbc62fb35	-0.013853838
13	0xbe991ab0	-0.29903173
14	0xbf2f0add	-0.6837595
15	0xbef744d9	-0.48294714
16	0x3ea0a169	0.31373146
17	0xbd40717b	-0.046983223
18	0xbe236385	-0.15955932
19	0xbe3c2ee0	-0.18377256

gat_layer_1.attention_3.W f4 [5, 10]
0	0x3f119688	0.5687032
1	0xbf6108a5	-0.87903816
2	0x3edc5945	0.43036857
3	0xbf6073dd	-0.87676793
4	0x3f423604	0.7586367
5	0xbe52fedb	-0.20605032
6	0xbf2235b9	-0.63363224
7	0xbf4f8114	-0.8105633
8	0x3f68bd29	0.90913635
9	0xbd9d6877	-0.07685941
10	0x3dafa266	0.08575897
11	0xbef7da72	-0.48408848
12	0xbdfd532b	-0.12369379
13	0x3f30c358	0.6904807
14	0x3f12a9bf	0.5729026
15	0x3f03a954	0.5143025
16	0xbec05749	-0.37566593
17	0x3e8487e3	0.25884923
18	0x3f33ead2	0.7028018
19	0x3f3003d7	0.6875586
20	0x3f2e4982	0.68080914
21	0x3ee7ba75	0.45259443
22	0xbe1a416d	-0.1506402
23	0xbf383d8a	-0.719689
24	0xbf25f1b6	-0.64821947
25	0x3f3b096a	0.7306124
26	0x3f268e1a	0.6506058
27	0x3d9715d8	0.07377213
28	0xbf2a832a	-0.6660639
29	0x3da3bee7	0.07995396
30	0xbe99fcd0	-0.30075693
31	0xbf5505a0	-0.8321171
32	0xbebdd53b	-0.37076744
33	0xbece4d21	-0.4029322
34	0x3f324640	0.69638443
35	0xbea464d8	-0.32108188
36	0x3e69515f	0.22784947
37	0xbe9c95b7	-0.30582973
38	0x3eebe8c1	0.46076015
39	0xbf234d47	-0.6378979
40	0xbf173737	-0.59068626
41	0x3f37ab42	0.71745694
42	0xbf5770da	-0.8415657
43	0xbef3b8e0	-0.47601986
44	0x3f26db47	0.6517834
45	0x3f55c918	0.8350997
46	0xbd75e529	-0.060032997
47	0xbed055e7	-0.40690538
48	0x3ef9b6d2	0.48772293
49	0x3ec2f794	0.38079512

gat_layer_1.attention_3.a f4 [20, 1]
0	0xbf06b5df	-0.52621263
1	0xbe2a7027	-0.16644345
2	0xbee4899b	-0.44636235
3	0xbe52d2f2	-0.20588282
4	0xbe8e2870	-0.27765226
5	0x3f01d39a	0.50713503
6	0x3cdd2b7d	0.026998276
7	0x3edbf693	0.4296156
8	0x3deeb6ff	0.116559975
9	0xbe7f4805	-0.24929817
10	0x3f08b039	0.53393894
11	0xbe442bf3	-0.1915739
12	0xbecc4b61	-0.3990126
13	0x3f365282	0.71219647
14	0xbebcc1d5	-0.36866632
15	0xbd759d3a	-0.059964396
16	0x3efb1820	0.49041843
17	0x3f1a76a6	0.60337293
18	0xbeb407d7	-0.3516223
19	0x3ee02519	0.43778303

gat_layer_1.attention_4.W f4 [5, 10]
0	0x3f517c2e	0.8183011
1	0x3ee1508d	0.44006768
2	0x3ee97ad3	0.4560152
3	0x3d70c403	0.05878068
4	0x3e0f08ef	0.13968252
5	0x3e09a3cf	0.13441394
6	0xbf052433	-0.5200836
7	0x3f2d45f1	0.6768485
8	0xbf22aae0	-0.63541985
9	0x3eda237b	0.42605194
10	0xbecb0338	-0.39650893
11	0xbf50c0e1	-0.8154431
12	0x3ef51ecb	0.47875056
13	0x3f2b7d79	0.6698833
14	0x3f4e54a8	0.80597925
15	0x3f330cb2	0.69941247
16	0xbf13b8fa	-0.57704127
17	0x3f2f9bd7	0.6859717
18	0xbf5d03b6	-0.8633379
19	0x3f0fb573	0.56136245
20	0xbe0edd99	-0.1395172
21	0x3f5811a2	0.84401906
22	0xbf4ed0b6	-0.8078722
23	0xbe6e435b	-0.23267882
24	0xbf49bad0	-0.7880068
25	0xbf1d7502	-0.61506665
26	0xbf5027a1	-0.8131047
27	0x3e2b9a93	0.16758184
28	0xbeff3a95	-0.49849382
29	0xbf298bd7	-0.66229004
30	0xbf2c636f	-0.67339224
31	0xbf312df5	-0.6921075
32	0x3f11394b	0.5672805
33	0xbe82757c	-0.25480258
34	0x3f4be539	0.7964664
35	0x3f1d4291	0.614297
36	0x3f55d1e6	0.83523405
37	0xbe8f76a5	-0.28020206
38	0x3d9eaf87	0.07748323
39	0xbe82a4bd	-0.2551631
40	0xbef54a50	-0.47908258
41	0xbee7c0bb	-0.4526423
42	0x3f39d7eb	0.7259509
43	0x3f4138d1	0.7547732
44	0x3f127142	0.5720407
45	0xbf4296ca	-0.76011336
46	0xbc5f6c46	-0.013636654
47	0x3ef97940	0.4872532
48	0x3f4da72c	0.8033321
49	0x3ea2e1f9	0.31813028

gat_layer_1.attention_4.a f4 [20, 1]
0	0xbf3d5f0a	-0.73973143
1	0xbec2876b	-0.3799394
2	0xbed67a23	-0.41890058
3	0x3d13f96d	0.036126543
4	0x3ec828a6	0.39093512
5	0x3ea71179	0.32630518
6	0x3ebc9492	0.368321
7	0x3de5190d	0.11186419
8	0x3f40a856	0.7525686
9	0x3eee5aae	0.46553558
10	0x3dac550d	0.0841466
11	0x3dfc3a83	0.12315848
12	0xbf120416	-0.57037485
13	0x3ed0253b	0.40653405
14	0xbf25b444	-0.6472819
15	0x3f1879e0	0.59560966
16	0x3f0f8aed	0.5607136
17	0xbe7748e2	-0.24148896
18	0xbe8d1ca9	-0.27560928
19	0x3edcd258	0.4312923

gat_layer_1.out_att.W f4 [50, 5]
0	0x3e274f76	0.16338906
1	0x3c9210a4	0.0178302
2	0x3cd522f4	0.026017644
3	0x3c89750f	0.01677945
4	0xbd2035d9	-0.039113853
5	0x3ecfd83d	0.40594664
6	0x3edb4745	0.42827812
7	0xbda63b39	-0.081167646
8	0x3eb8ffb6	0.36132592
9	0x3e38d4db	0.18049948
10	0x3dbbca03	0.0916939
11	0x3d94f403	0.07273104
12	0xbecbdf17	-0.39818642
13	0x3e426e74	0.18987447
14	0x3e50405d	0.20337053
15	0x3e041844	0.12899882
16	0x3d902ec9	0.070401736
17	0x3d850971	0.064959414
18	0xbe4c6c7e	-0.19963261
19	0xbede1a77	-0.43379566
20	0xbe0f3aca	-0.1398727
21	0xbe0813b1	-0.13288762
22	0xbe68cbf3	-0.2273405
23	0x3ee5d888	0.44891763
24	0x3ed54f5b	0.41662106
25	0x3ea4bdce	0.3217606
26	0x3dc89327	0.09793692
27	0x3e56226b	0.20911567
28	0x3e40f532	0.18843535
29	0xbe86a048	-0.2629416
30	0xbed572ea	-0.41689235
31	0xbeca1697	-0.3947036
32	0x3e833135	0.2562348
33	0x3de65967	0.11247521
34	0xbe7d8eb2	-0.24761465
35	0xbecc5f1d	-0.39916316
36	0xbe9525b8	-0.2913034
37	0xbe04e2c9	-0.12977137
38	0x3d8bf2c5	0.06833414
39	0x3cd787d1	0.02630988
40	0x3ef00473	0.46878394
41	0x3e2de7f2	0.16983011
42	0xbea06a9c	-0.31331336
43	0x3e8604df	0.2617559
44	0xbe389909	-0.18027128
45	0x3dcb640e	0.09931193
46	0x3ee5bd5d	0.44871035
47	0x3e813114	0.25232756
48	0x3d40baa3	0.04705299
49	0x3ed39354	0.4132334
50	0xbe8c967b	-0.27458557
51	0xbc6d298f	-0.01447524
52	0xbd6af1bc	-0.057359442
53	0xbebeb44d	-0.37246934
54	0xbd00a491	-0.031406943
55	0xbec2cf24	-0.3804866
56	0xbd3b1c60	-0.045681357
57	0xbad8a68e	-0.0016529129
58	0x3e260a4d	0.16214867
59	0xbebb08b5	-0.3653008
60	0x3eab05ec	0.33402956
61	0xbe30c957	-0.17264305
62	0xbe750705	-0.23928459
63	0x3ea1b956	0.31586713
64	0xbedd9246	-0.4327566
65	0x3ecd5bbc	0.4010905
66	0x3eb38e74	0.3506962
67	0x3e125f66	0.14294204
68	0x3cd7ad48	0.026327744
69	0x3ec80428	0.3906567
70	0xbba03b39	-0.0048898724
71	0x3b5ff1ce	0.0034171226
72	0x3cac9d3f	0.021071075
73	0x3e978ad5	0.29598108
74	0x3e97cce4	0.29648507
75	0xbee810a6	-0.45325202
76	0xbe3aa9e8	-0.18228877
77	0xbe3165ca	-0.17323986
78	0xbebb07bd	-0.3652934
79	0x3ee12fdd	0.4398183
80	0xbe1bd756	-0.15218863
81	0x3dbe050d	0.09278307
82	0x3da985d0	0.08277476
83	0xbca3e2f1	-0.020005675
84	0x3e534b48	0.20634186
85	0xbd3e4110	-0.046448767
86	0xbea15e67	-0.31517336
87	0x3e8d990e	0.27655834
88	0x3dc23a92	0.09483828
89	0x3e25d49b	0.16194384
90	0xbd8ba741	-0.068190105
91	0x3e23170f	0.15926765
92	0x3776a1fa	1.4700456e-05
93	0x3e1dc354	0.15406543
94	0x3be4e038	0.006984737
95	0x3ed0c632	0.4077621
96	0x3ecef7ee	0.4042353
97	0xbe17e704	-0.14834219
98	0xbe912768	-0.28350377
99	0x3e137611	0.14400508
100	0x3e7d0160	0.24707556
101	0x3de270a3	0.1105664
102	0xbebfae11	-0.3743749
103	0x3d30f2e3	0.043200385
104	0xbed34b3e	-0.41268343
105	0x3c1a9e02	0.009437086
106	0x3d800f95	0.06252972
107	0x3e8efa22	0.2792521
108	0xbcaafbaf	-0.020871965
109	0xbea4df1f	-0.32201478
110	0xbec5cf20	-0.38634586
111	0x3eae20f8	0.34009528
112	0x3ebc7cd7	0.36813995
113	0x3ed8e966	0.4236557
114	0xbe621d0e	-0.22081396
115	0xbee75fad	-0.45190182
116	0x3e04c41a	0.12965432
117	0x3e182a23	0.14859824
118	0x3e566dda	0.20940343
119	0xbebc29bb	-0.36750588
120	0xbe875f1c	-0.2643975
121	0x3e655797	0.22396694
122	0x3eb31f21	0.34984687
123	0x3eedd8be	0.46454424
124	0xbe9755a1	-0.29557517
125	0x3de67edb	0.112546645
126	0x3e24314d	0.16034432
127	0xbdea7b91	-0.1144935
128	0xbebb9774	-0.36638987
129	0xbed963a7	-0.4245884
130	0xbed2d890	-0.4118085
131	0x3e04eec9	0.12981714
132	0x3b2ff2c3	0.0026847578
133	0x3e947d75	0.29001966
134	0x3e48c4d3	0.19606332
135	0x3e83142e	0.25601333
136	0x3e169760	0.14706182
137	0xbe72c4d5	-0.23707898
138	0x3ede4f55	0.434199
139	0xbed6ce0d	-0.4195408
140	0x3dcc3473	0.099709414
141	0xbd9ee0ad	-0.07757697
142	0x3e6a544e	0.22883722
143	0x3ecdb304	0.4017564
144	0xbdece047	-0.11566215
145	0xbe1c034d	-0.15235634
146	0xbe6e84d4	-0.23292857
147	0xbedfc481	-0.43704608
148	0x3d98569f	0.07438397
149	0x3e82622d	0.25465527
150	0xbed04085	-0.40674224
151	0xbdcd3dab	-0.10021528
152	0x3d38d6d4	0.04512675
153	0x3cf546aa	0.029940922
154	0xbee7f65d	-0.45305148
155	0x3eb2cd6a	0.34922343
156	0x3e845018	0.25842357
157	0xbeadc7d1	-0.3394151
158	0xbe93e69e	-0.28886884
159	0xbc47070a	-0.012147674
160	0xbe6397de	-0.22225901
161	0xbe5fb6bf	-0.21847056
162	0x3eac256f	0.3362231
163	0xbed81281	-0.42201617
164	0x3e54c05a	0.20776501
165	0xbed3f712	-0.41399437
166	0xbeacb53a	-0.33732015
167	0x3e97b990	0.2963376
168	0xbdd38684	-0.10328391
169	0x3ccfa863	0.025348848
170	0x3ed99d38	0.4250276
171	0x3e4345b1	0.19069554
172	0xbe086bbd	-0.13322349
173	0x3ebf5ddb	0.37376294
174	0xbedb0bb5	-0.4278237
175	0x3e70bb2c	0.235089
176	0xbdb9e578	-0.09076971
177	0xbea0c766	-0.3140213
178	0x3d3e39ce	0.046441846
179	0x3ea752ae	0.32680267
180	0xbdbfce11	-0.09365476
181	0x3cfe048f	0.031008033
182	0x3dfafa02	0.122547165
183	0xbe886df5	-0.2664639
184	0x3ed92f1b	0.4241875
185	0xbec60e0c	-0.38682592
186	0x3eaf2509	0.34207943
187	0x3e325b63	0.17417674
188	0xbd2d901c	-0.04237376
189	0x3e8bce5b	0.27305874
190	0xbe657ae9	-0.22410168
191	0xbe842c34	-0.25814974
192	0xbdebf2f9	-0.11520953
193	0xbd17726d	-0.03697436
194	0x3ebc8c34	0.36825716
195	0x3ec97239	0.39344957
196	0xbf057618	-0.5213332
197	0xbde8e1a6	-0.11371164
198	0x3ed742c0	0.42043114
199	0xbeb0a3e6	-0.34500045
200	0xbd4c321b	-0.04985247
201	0xbd17f6bd	-0.037100542
202	0x3e441644	0.19149119
203	0x3df6562f	0.12028157
204	0x3edcc7da	0.43121225
205	0xbca4f074	-0.020134188
206	0xbe8a2203	-0.26979074
207	0x3d8e049b	0.06934472
208	0xbea6f522	-0.32608896
209	0x3ce6bdd0	0.028166682
210	0xbec359b9	-0.3815439
211	0xbeabd2c1	-0.3355923
212	0xbecc6451	-0.39920285
213	0xbd0e6c0d	-0.034771014
214	0x3e2824de	0.16420314
215	0xbec7f992	-0.39057595
216	0x3eac4341	0.3364506
217	0xbe4258d1	-0.18979193
218	0x3e840d1a	0.25791246
219	0xbddeb138	-0.108736455
220	0xbe0be18d	-0.1366026
221	0xbdea052b	-0.11426767
222	0x3ea8f586	0.3299982
223	0x3ea142b1	0.31496194
224	0x3e7d2dc7	0.24724494
225	0xbe882793	-0.26592693
226	0xbeb00e63	-0.34385976
227	0x3b4b0059	0.003097555
228	0xbea3b9ce	-0.31977695
229	0x3de4b745	0.111677684
230	0xbee1cf96	-0.44103688
231	0x3e00df9b	0.12585299
232	0xbea398a8	-0.31952405
233	0xbea32200	-0.31861877
234	0xbe8a8ccd	-0.27060547
235	0x3e23f019	0.16009559
236	0x3eb5410d	0.35401192
237	0x3e118299	0.14209975
238	0xbed3fc99	-0.41403654
239	0x3e3ce665	0.18447264
240	0x3de31644	0.11088231
241	0x3e3437db	0.17599432
242	0xbe920f36	-0.2852723
243	0x3ec5320a	0.3851474
244	0x3ed81c8e	0.42209285
245	0xbeaa2d84	-0.3323785
246	0xbdba0158	-0.090822875
247	0xbee27e15	-0.44236818
248	0x3e5d36ef	0.21602987
249	0xbe1afda6	-0.15135822

gat_layer_1.out_att.a f4 [10, 1]
0	0x3f19b75e	0.6004542
1	0xbf366dc5	-0.71261245
2	0xbebb3b99	-0.36568907
3	0xbf84529d	-1.0337712
4	0xbe9d50f3	-0.30725822
5	0xbeded9dd	-0.43525591
6	0x3e00e488	0.12587178
7	0x3f67d77d	0.90563184
8	0xbf18c989	-0.5968252
9	0xbe7a03a1	-0.24415447

gat_layer_2.attention_0.W f4 [5, 10]
0	0x3c940c2d	0.018072212
1	0xbefa050f	-0.48831984
2	0xbd9f1866	-0.077683255
3	0x3d42fdc9	0.04760531
4	0xbb56cdb4	-0.0032776417
5	0xbe92d6f1	-0.28679612
6	0xbed625c8	-0.418257
7	0xbe8973e1	-0.2684622
8	0x3e897f12	0.2685476
9	0xbf2bfe80	-0.6718521
10	0x3f4adbb8	0.79241514
11	0x3f28b485	0.6590045
12	0x3f10de1a	0.565889
13	0xbf17d653	-0.5931141
14	0xbe187b3c	-0.1489076
15	0x3ea4f3da	0.32217294
16	0x3bae852f	0.0053259353
17	0xbdc37bda	-0.09545107
18	0x3e478a89	0.1948644
19	0xbf1f746b	-0.62287015
20	0xbe2b68b7	-0.16739164
21	0x3f17d97b	0.59316224
22	0xbf5cc323	-0.86235255
23	0xbf00decb	-0.50339955
24	0x3e751a9b	0.2393593
25	0x3f01ffea	0.5078112
26	0x3ee36ecc	0.4442047
27	0xbf428cef	-0.759963
28	0x3e101d5a	0.14073697
29	0xbe0a20ca	-0.1348907
30	0x3e84992a	0.25898105
31	0x3ef70284	0.48244107
32	0x3f32ffe8	0.6992173
33	0x3f29a4cc	0.66267085
34	0xbf023f58	-0.50877905
35	0xbf4b9c5c	-0.7953546
36	0xbeb28832	-0.34869534
37	0x3f0e179a	0.55504763
38	0xbf4973de	-0.78692424
39	0x3e184874	0.14871389
40	0xbf5db3a1	-0.86602217
41	0xbe999202	-0.29994208
42	0xbe3af689	-0.18258108
43	0x3c18a91f	0.009317665
44	0x3f3cbfe2	0.7373029
45	0xbeff3aad	-0.49849454
46	0xbdda59a4	-0.10661629
47	0xbf4e4f8a	-0.80590117
48	0xbf50372e	-0.813342
49	0x3f2e8eec	0.6818683

gat_layer_2.attention_0.a f4 [20, 1]
0	0xbed498ff	-0.41522977
1	0x3f1efaf1	0.62101656
2	0xbe13a8da	-0.1441988
3	0xbf3c6745	-0.73595077
4	0xbe235347	-0.15949737
5	0x3f2e9c93	0.68207663
6	0x3eabded7	0.3356845
7	0xbdc92d33	-0.09823074
8	0xbcaadabc	-0.020856254
9	0xbf333061	-0.69995695
10	0xbe005cc4	-0.12535387
11	0xbe80f491	-0.2518659
12	0xbe1a61b8	-0.15076339
13	0x3f0b584c	0.54431605
14	0xbd4d01e6	-0.05005064
15	0x3f3a5991	0.7279292
16	0xbf152770	-0.582633
17	0xbeb6c277	-0.3569524
18	0x3eebe38e	0.46072048
19	0xbee676cc	-0.4501251

gat_layer_2.attention_1.W f4 [5, 10]
0	0x3ec2bd6b	0.3803514
1	0x3dccb607	0.099956565
2	0x3f3fda43	0.74942416
3	0x3f1ee05b	0.6206109
4	0x3e95b830	0.29242086
5	0x3e48fe05	0.19628151
6	0x3ec2dc83	0.38058862
7	0xbf3757de	-0.7161845
8	0x3e16a58e	0.14711592
9	0x3ee262ef	0.44216105
10	0xbdd1e05c	-0.10247871
11	0xbf58499f	-0.84487337
12	0xbf166b66	-0.58757627
13	0xbeaae57b	-0.33378205
14	0xbe8987e9	-0.26861504
15	0x3ee93c5e	0.4555387
16	0x3f5456fb	0.8294522
17	0x3ef6c8bb	0.4820002
18	0xbe9ab912	-0.30219322
19	0x3e8a683e	0.27032655
20	0x3f1096bf	0.5648002
21	0xbee105fb	-0.43949875
22	0x3f3ede9a	0.74558413
23	0x3f5e1221	0.8674641
24	0xbdbd210e	-0.0923482
25	0xbe87b548	-0.26505494
26	0x3f5016ff	0.8128509
27	0x3f31d15a	0.6946007
28	0xbe8fba84	-0.28071988
29	0x3f693317	0.9109358
30	0xbe981956	-0.2970683
31	0xbec09d94	-0.37620223
32	0xbeb1af5c	-0.347041
33	0x3f3d0ad5	0.73844653
34	0x3f09c410	0.5381479
35	0xbd342b23	-0.04398645
36	0xbf5feddb	-0.87472314
37	0x3bf2c4b0	0.007408701
38	0xbf63d826	-0.8900169
39	0xbf28511a	-0.6574875
40	0x3ebc554f	0.36783835
41	0x3f1df57e	0.61702716
42	0x3f2afa26	0.66787946
43	0xbeba8675	-0.36430708
44	0xbf0d6db0	-0.55245495
45	0xbea4913e	-0.3214206
46	0x3e025665	0.1272827
47	0xbe62157e	-0.22078511
48	0xbbe9cb7e	-0.007134854
49	0xbf49d9ff	-0.7884826

gat_layer_2.attention_1.a f4 [20, 1]
0	0xbf25b48d	-0.64728624
1	0x3f091ffc	0.5356443
2	0xbe3edf9b	-0.18639986
3	0x3dde36f6	0.10850327
4	0xbf3460cd	-0.70460206
5	0xbf08dd1c	-0.53462386
6	0x3f1dcd6e	0.61641586
7	0x3e9dc32f	0.30812976
8	0x3e74f245	0.23920543
9	0xbde1fde0	-0.11034751
10	0x3d814fc3	0.063140415
11	0xbef677ff	-0.48138425
12	0x3e4c46a4	0.19948822
13	0x3e39e2fe	0.18152997
14	0x3edfb89c	0.43695533
15	0xbeb9a64e	-0.36259693
16	0x3dd57a64	0.10423735
17	0xbe90fcef	-0.28317973
18	0xbecfa73a	-0.4055727
19	0xbf3b6285	-0.73197204

gat_layer_2.attention_2.W f4 [5, 10]
0	0x3ea38998	0.31940913
1	0xbf3a2e75	-0.7272714
2	0xbe66dd0b	-0.22545259
3	0x3f31bf00	0.6943207
4	0x3d16a692	0.036779948
5	0xbd110211	-0.03540236
6	0xbd91081f	-0.07081627
7	0x3dcae2a1	0.09906507
8	0x3d3afec2	0.045653112
9	0x3f1be9be	0.6090354
10	0x3ea01844	0.31268513
11	0xbefd3ade	-0.49458975
12	0x3f29f36d	0.66387063
13	0xbf3cb37d	-0.7371138
14	0x3e2d1759	0.16903438
15	0x3e2c059c	0.16799015
16	0xbf186a1e	-0.5953692
17	0xbe69efc6	-0.22845373
18	0x3cd06865	0.025440404
19	0xbf3b88fb	-0.7325589
20	0xbe3cc898	-0.18435895
21	0x3f23325e	0.6374873
22	0xbf2e5f1b	-0.6811387
23	0x3e908de0	0.28233242
24	0xbf19fcdf	-0.60151476
25	0x3e1b4a16	0.1516498
26	0x3e586ce2	0.21135285
27	0x3e5dddb3	0.21666603
28	0xbde2e44e	-0.11078702
29	0x3f4d2e8b	0.80149144
30	0x3ecb4125	0.3969814
31	0x3f0e8d7c	0.5568464
32	0xbe340a81	-0.17582132
33	0x3e7c44b0	0.24635577
34	0xbf1258a4	-0.57166505
35	0xbe045fc3	-0.12927155
36	0xbf439207	-0.76394695
37	0xbf0e17c8	-0.5550504
38	0x3e885574	0.26627696
39	0xbede9126	-0.43470114
40	0xbe5d8ddd	-0.21636148
41	0xbf027476	-0.50958955
42	0xbeee733d	-0.46572295
43	0x3f05c2b6	0.5225023
44	0x3f53b38b	0.82695836
45	0xbebd58d6	-0.3698184
46	0xbe9a9978	-0.30195212
47	0x3f2e534f	0.6809587
48	0x3e4ab331	0.19794919
49	0x3f6360c8	0.8881955

gat_layer_2.attention_2.a f4 [20, 1]
0	0xbe8ad181	-0.27112964
1	0xbf401d0c	-0.7504432
2	0x3e6568b8	0.22403228
3	0x3f27c0f4	0.655288
4	0xbf15ea7d	-0.58560926
5	0x3f40e028	0.75342035
6	0xbf2b5a7e	-0.66934955
7	0xbf0acb9c	-0.54216933
8	0xbdfaba88	-0.12242609
9	0xbe821a8a	-0.25410873
10	0x3f1de82f	0.6168241
11	0x3ea15a02	0.31513983
12	0x3f1db218	0.61599874
13	0xbe6977e5	-0.22799642
14	0x3e06d1db	0.13165991
15	0x3e65e487	0.22450458
16	0xbd061e07	-0.03274348
17	0xbce9ba13	-0.02853111
18	0xbec2adb5	-0.38023153
19	0xbefa7ba7	-0.48922464

gat_layer_2.attention_3.W f4 [5, 10]
0	0xbf5b2660	-0.8560543
1	0x3f2d86db	0.677839
2	0xbeb65400	-0.35610962
3	0x3f3b1276	0.73075044
4	0xbee917ef	-0.45526072
5	0x3f637734	0.88853765
6	0x3c69e4a1	0.014275701
7	0x3f3715e8	0.715178
8	0x3e3f996a	0.18710867
9	0x3e92da8c	0.28682363
10	0x3f5dbee3	0.86619395
11	0x3f2eabbb	0.6823079
12	0x3decd183	0.11563399
13	0x3f3deb76	0.7418741
14	0x3dca94d6	0.098916695
15	0xbeb843de	-0.3598928
16	0xbf41dd4b	-0.7572829
17	0x3f3d27c7	0.7388882
18	0xbf0430a4	-0.5163672
19	0x3ef36871	0.4754062
20	0x3f469955	0.77577716
21	0x3e9dd6f3	0.30828056
22	0xbe90966c	-0.28239763
23	0xbf0953ce	-0.536435
24	0x3f328c23	0.6974508
25	0x3f083f6d	0.5322178
26	0x3da33b15	0.079702534
27	0xbef25bb8	-0.473356
28	0xbf377ae0	-0.7167187
29	0x3ea9d65a	0.3317135
30	0xbbb509c0	-0.005524844
31	0xbf6b71f2	-0.9197074
32	0x3f571292	0.8401271
33	0x3e548f6b	0.20757835
34	0x3ed3f3c1	0.41396907
35	0xbf456536	-0.7710756
36	0xbdba9102	-0.09109689
37	0x3e90101f	0.281373
38	0x3e48e427	0.19618283
39	0xbe8ff06e	-0.2811312
40	0x3f3e0663	0.74228495
41	0xbf6becc9	-0.9215818
42	0x3e84c7de	0.25933737
43	0x3f3df6e4	0.7420485
44	0x3e0408a8	0.12893927
45	0xbf1152b4	-0.5676682
46	0xbf3e0870	-0.74231625
47	0x3e13af58	0.14422357
48	0x3ebe95dc	0.3722371
49	0x3ed2ac6e	0.41147178

gat_layer_2.attention_3.a f4 [20, 1]
0	0x3f124512	0.5713664
1	0xbebb3fc2	-0.3657208
2	0xbf3ae48b	-0.7300498
3	0x3f18e234	0.5972016
4	0xbe94e3ac	-0.2907995
5	0x3d94109d	0.07229731
6	0x3ecf0841	0.40435985
7	0xbf11e24e	-0.5698594
8	0xbe182955	-0.14859517
9	0x3dd7575f	0.105147116
10	0x3ec26190	0.3796506
11	0x3f11ef0e	0.57005394
12	0xbddc7115	-0.10763756
13	0x3eb82abb	0.359701
14	0xbe0773aa	-0.13227716
15	0xbe631d55	-0.22179158
16	0xbedf9837	-0.43670818
17	0x3ea0dc05	0.31417862
18	0xbef62788	-0.48077035
19	0xbe62425e	-0.2209563

gat_layer_2.attention_4.W f4 [5, 10]
0	0xbe2d3c5d	-0.16917558
1	0x3f06a1b4	0.5259049
2	0xbf2e43b0	-0.6807203
3	0xbe1294da	-0.14314595
4	0xbe832886	-0.25616854
5	0x3eab9b47	0.33516905
6	0xbf1e1fbb	-0.61767167
7	0xbeb40f23	-0.35167798
8	0x3e086ffb	0.13323967
9	0x3ea0c58f	0.31400725
10	0x3efbb327	0.4916012
11	0x3e62b5a1	0.22139598
12	0x3e818495	0.25296465
13	0x3f221e90	0.63327885
14	0x3f57b0f1	0.84254366
15	0x3ef440e2	0.47705752
16	0xbdee5bca	-0.11638601
17	0xbe99ab11	-0.30013326
18	0xbeb4e595	-0.35331407
19	0xbe2344b2	-0.15944174
20	0xbf24ae9f	-0.6432895
21	0xbf590531	-0.84773546
22	0xbf2b0037	-0.667972
23	0x3f531c15	0.82464725
24	0xbe3f53af	-0.18684267
25	0xbf2faaae	-0.6861981
26	0xbf3c5b7c	-0.73577094
27	0xbe3a2728	-0.18179
28	0x3e4bac6d	0.19889994
29	0xbf1bf185	-0.60915405
30	0x3e6ffeec	0.23437089
31	0x3f312234	0.69192815
32	0x3e935a6f	0.28779933
33	0xbf0bd194	-0.54616666
34	0xbf0e6c9c	-0.55634475
35	0xbec4c742	-0.38433272
36	0x3f46638a	0.77495635
37	0x3e143bdd	0.14475961
38	0x3e8ba362	0.2727309
39	0xbf31354e	-0.6922196
40	0xbdfa472c	-0.12220606
41	0xbef31a18	-0.47480845
42	0x3eab07bf	0.33404347
43	0x3f24a5fe	0.64315784
44	0x3d267429	0.040638123
45	0xbf27ef74	-0.6559975
46	0xbd1ad511	-0.037800852
47	0x3f68fc5f	0.9101009
48	0xbe3dd073	-0.18536548
49	0xbf3cf9db	-0.7381875

gat_layer_2.attention_4.a f4 [20, 1]
0	0xbd78b524	-0.060719624
1	0x3e5ba1e7	0.2144848
2	0x3f3f3cd7	0.7470221
3	0xbf0d42dd	-0.5518015
4	0xbf2d3759	-0.6766258
5	0xbef42241	-0.47682384
6	0xbf1c5f23	-0.6108267
7	0x3eb46230	0.3523116
8	0xbe45ee05	-0.19329078
9	0xbd419b6d	-0.047267366
10	0xbe9a6b57	-0.3016002
11	0x3f140380	0.5781784
12	0xbed0fd9a	-0.40818483
13	0xbf2fac6f	-0.6862249
14	0x3ea1620d	0.3152012
15	0x3f197119	0.599382
16	0xbe95b344	-0.2923833
17	0xbf1fc84b	-0.62415
18	0x3f18232d	0.59428674
19	0xbd4793c3	-0.0487249

gat_layer_2.out_att.W f4 [50, 5]
0	0x3eecee03	0.4627534
1	0xbe4b3212	-0.19843319
2	0xbe23c02e	-0.1599128
3	0xbe13fdb3	-0.14452247
4	0xbeac6f77	-0.3367879
5	0x3e592a96	0.21207651
6	0xbd693b38	-0.05694124
7	0x3e9ddf1a	0.30834275
8	0x3eb6ac92	0.35678536
9	0x3e0a3c42	0.13499549
10	0xbde43fed	-0.111450054
11	0x3ea3c8c8	0.3198912
12	0xbe9a226c	-0.30104387
13	0xbea8fa6e	-0.33003563
14	0xbe9f29b4	-0.31086504
15	0x3c4f9267	0.012669182
16	0xbe52a9be	-0.20572564
17	0xbd9f2ce1	-0.07772232
18	0xbe84757e	-0.2587089
19	0xbe940465	-0.28909603
20	0x3e337b45	0.17527492
21	0xbd9cecc5	-0.07662348
22	0x3dca2657	0.09870594
23	0xbd9b4fbe	-0.07583569
24	0x3d83db97	0.06438368
25	0xbe68673a	-0.22695628
26	0xbe306695	-0.17226632
27	0x3eb65203	0.35609445
28	0x3d49091c	0.049080953
29	0xbe02ea26	-0.12784633
30	0xbe0fb0f4	-0.14032346
31	0x3ec0cb96	0.37655324
32	0x3eb79f0c	0.3586353
33	0x3e897718	0.26848674
34	0x3e4a6626	0.19765529
35	0xbe196f3a	-0.14983836
36	0xbe96cbe8	-0.29452443
37	0xbe6766c9	-0.22597803
38	0x3dc6ef7d	0.097136475
39	0x3e89fed1	0.26952222
40	0xbddc95ac	-0.10770735
41	0xbeb523c2	-0.35378844
42	0xbcb761e9	-0.022385554
43	0xbeb5ace7	-0.35483477
44	0x3d9cc525	0.0765479
45	0x3e1ddf3e	0.15417191
46	0x3ec95f25	0.39330402
47	0xbde56763	-0.1120136
48	0x3edb82ea	0.42873317
49	0x3ed53949	0.41645268
50	0xbd518ae2	-0.05115784
51	0xbe24c9f7	-0.16092668
52	0xbe351ee7	-0.1768757
53	0xbea9f85e	-0.33197302
54	0xbe95491c	-0.2915734
55	0xbe424032	-0.18969801
56	0x3cfcf316	0.030877631
57	0xbc02c679	-0.00798189
58	0xbe7e8ebf	-0.24859141
59	0x3ea4ff4b	0.32226023
60	0x3dea9d48	0.1145578
61	0xbe57b236	-0.21064076
62	0xbed3aaca	-0.4134124
63	0x3eaf5a0e	0.34248394
64	0xbe9b249b	-0.30301365
65	0xbec71d60	-0.388896
66	0x3eded8e9	0.43524864
67	0x3eb35dd3	0.3503252
68	0xbdc62e35	-0.09676782
69	0x3e0ea76d	0.13931055
70	0xbe7dbe7b	-0.24779694
71	0x3ed8d63a	0.42350942
72	0xbc45960c	-0.0120597
73	0xbe50c30d	-0.20386906
74	0xbdabb30d	-0.083837606
75	0xbec68397	-0.3877227
76	0x3daa552f	0.08317029
77	0x3e56a836	0.20962605
78	0xbe77c992	-0.24197987
79	0xbe0b97b0	-0.13632083
80	0xbeae3045	-0.34021202
81	0x3dcaff47	0.099119715
82	0xbcea32d0	-0.028588682
83	0x3e9035d4	0.28166068
84	0xbd431947	-0.04763153
85	0xbd455898	-0.048180193
86	0xbdabac07	-0.08382421
87	0xbecd53f8	-0.40103126
88	0xbd2a8753	-0.04163296
89	0xbe95b6ed	-0.29241124
90	0xbd175412	-0.03694541
91	0xbe9973d4	-0.29971182
92	0xbdad8b51	-0.08473838
93	0xbe6020fd	-0.21887584
94	0xbef74729	-0.48296478
95	0x3e5ed10b	0.21759431
96	0x3e5c0abd	0.21488471
97	0x3eae27f2	0.3401485
98	0x3e00dfa6	0.12585315
99	0x3e1d18e3	0.15341525
100	0xbec68ed6	-0.3878085
101	0xbeb2cd0e	-0.3492207
102	0xbd76cc41	-0.060253385
103	0xbe21eb2b	-0.15812366
104	0xbe618d2a	-0.22026506
105	0xbec28924	-0.37995255
106	0xbe061375	-0.1309336
107	0xbed592ab	-0.4171346
108	0x3e73ede4	0.23821217
109	0xbed1347e	-0.4086036
110	0xbee8209d	-0.45337382
111	0xbe3cc3c0	-0.18434048
112	0xbd97a143	-0.07403805
113	0x3e9c8155	0.30567423
114	0x3eac39e7	0.33637926
115	0x3df85d40	0.12127161
116	0x3e6166cd	0.22011872
117	0x3e68f9a7	0.22751485
118	0x3e3e9b14	0.18613845
119	0xbe1ef6cc	-0.15523833
120	0xbed06fae	-0.40710205
121	0xbeac8a6b	-0.33699355
122	0x3e21a47a	0.15785399
123	0x3e95ab3c	0.29232204
124	0x3e8d1c84	0.27560818
125	0x3cec975b	0.028880766
126	0x3eac7892	0.33685738
127	0xbeb05da2	-0.34446436
128	0x3eaf16b0	0.34196997
129	0xbeb71187	-0.3575556
130	0xbe1fae83	-0.15593915
131	0x3e5b672d	0.21426077
132	0x3ece63b9	0.40310457
133	0xbeac7659	-0.33684042
134	0x3d243211	0.04008681
135	0xbe810178	-0.25196433
136	0xbe3b5748	-0.18295014
137	0xbe730a78	-0.23734462
138	0x3d05e564	0.032689467
139	0xbe7c60b5	-0.24646266
140	0xbde7fe19	-0.11327762
141	0xbe8f09fa	-0.279373
142	0xbc5ebead	-0.013595265
143	0xbecece68	-0.4039185
144	0xbd4f0363	-0.05054034
145	0xbedc89fc	-0.43074024
146	0x3ee9fe3f	0.45701787
147	0xbe3f722e	-0.186959
148	0x3e932713	0.2874075
149	0xbee04a92	-0.43806893
150	0x3ea53733	0.32268676
151	0xbef6a3f9	-0.48171976
152	0x3e560939	0.20901956
153	0xbbc7a4b9	-0.0060926345
154	0x3e88cea3	0.2672015
155	0xbe1f1cfd	-0.15538402
156	0xbe3903a7	-0.180678
157	0xbe142e28	-0.14470732
158	0xbd38f524	-0.04515566
159	0xbe04e9fc	-0.12979883
160	0x3de29d69	0.1106518
161	0xbe6b0354	-0.22950488
162	0xbcdd3bc0	-0.02700603
163	0xbe1589a1	-0.14603283
164	0x3eb230ca	0.34802848
165	0xbe810684	-0.25200284
166	0x3eba2115	0.36353365
167	0x3ec001f3	0.37501487
168	0x3b1052af	0.002202194
169	0x3ea05b3e	0.31319612
170	0x3e609272	0.21930864
171	0xbd9ea9dc	-0.07747242
172	0x3e50d099	0.20392074
173	0x3ed81f0e	0.42211193
174	0x3ebd266f	0.36943385
175	0x3e1fd38c	0.15608042
176	0xbe6fb318	-0.23408163
177	0xbe165731	-0.14681698
178	0x3eb4e35d	0.35329714
179	0x3cbb6c67	0.022878839
180	0x3e752940	0.23941517
181	0xbd0025ed	-0.03128617
182	0xbea5008e	-0.32226986
183	0xbe8d13a5	-0.2755405
184	0x3e20ebcc	0.1571495
185	0xbe98018e	-0.29688686
186	0x3ecccd83	0.40000543
187	0xbeeac011	-0.4584966
188	0x3df2750a	0.1183873
189	0xbe6a8dd3	-0.22905664
190	0xbebc6abd	-0.36800185
191	0xbcde7365	-0.027154634
192	0xbca68458	-0.020326778
193	0x3ecb5d5b	0.39719662
194	0xbd48e4fb	-0.049046498
195	0x3d7a0e01	0.06104851
196	0x3e594e99	0.21221389
197	0xbd009d32	-0.031399913
198	0x3d231b01	0.039820675
199	0x3ef86b71	0.4851947
200	0xbee186f8	-0.44048285
201	0x3e538cb9	0.2065915
202	0x3ea25ae8	0.3170998
203	0x3cb1d0ab	0.021705946
204	0x3e6d6f72	0.23187044
205	0x3e4049fc	0.18778223
206	0x3e4a1be1	0.19737197
207	0xbd58c66e	-0.052923612
208	0xbec6f045	-0.38855186
209	0x3ece1a29	0.40254334
210	0xbdcc5cd0	-0.0997864
211	0xbe8f4d23	-0.27988538
212	0x3dc74f6a	0.09731944
213	0x3eaea994	0.34113753
214	0xbde0bb44	-0.10973218
215	0x3e1ed81b	0.15512125
216	0x3e594356	0.21217093
217	0xbe6fbf5e	-0.23412845
218	0x3cf99fc0	0.030471683
219	0x3e9dc95b	0.30817685
220	0xbecc0540	-0.39847755
221	0x3ed5d893	0.41766796
222	0x3ea7383d	0.32660094
223	0xbedcf9b0	-0.43159246
224	0xbe0bf25b	-0.1366667
225	0x3ec24a6e	0.3794741
226	0x3edc10b7	0.42981502
227	0xbe985d80	-0.29758835
228	0x3e83554d	0.25651017
229	0x3ed66dca	0.41880637
230	0xbeded771	-0.43523744
231	0x3c61ace0	0.013774127
232	0x3d95c9ce	0.07313882
233	0xbeb02be3	-0.34408483
234	0x3d5f589b	0.05452786
235	0xbe990662	-0.29887682
236	0xbe9f8595	-0.31156603
237	0x3e9e2a7d	0.3089179
238	0x3e5a7063	0.21331935
239	0x3e04c744	0.12966639
240	0xbe8bfe21	-0.27342322
241	0x3cb22eba	0.021750797
242	0x3ed94b62	0.42440325
243	0xbd8c7f34	-0.068601996
244	0xbee9d19e	-0.45667738
245	0x3ddad838	0.10685772
246	0xbe32487e	-0.17410466
247	0xbe7bfe6e	-0.24608776
248	0x3d14f809	0.036369357
249	0xbea51fc1	-0.3225079

gat_layer_2.out_att.a f4 [10, 1]
0	0x3dd56e2d	0.10421405
1	0x3f5eef74	0.87084126
2	0xbdf8d390	-0.12149727
3	0x3f3f4114	0.74708676
4	0x3edfb863	0.43695363
5	0x3eae4aba	0.34041387
6	0x3d8c5708	0.068525374
7	0x3f833539	1.0250617
8	0xbebb4217	-0.3657386
9	0xbf1f9a4a	-0.623448
