tests/gat/encoder-checkpoint4.pt (torch, 20170 bytes, 36 tensors)

gat_layer_0.attention_0.W f4 [5, 10]
00000000: 0c4b ecbe bd46 50bf a678 d03e 5bd1 a6be
00000010: f677 d8bd fdd9 aa3e eccd 4e3f 7eee 0abe
00000020: bd89 013f 459d f5be f620 5dbe 84ac 183e
00000030: b3f7 8f3e 5e5d 59bf 798e 4bbe b463 e23d
00000040: 8346 28bf 9159 14be a08f cbbe 8924 8c3d
00000050: 947f 023e 6f22 d43e cd99 c13e 24d8 ef3e
00000060: 9eb8 87bd 35f6 bfbe b424 d33e f812 423f
00000070: 5da8 c83c 5c6d eabd 9eae f1be 7329 dd3e
00000080: aa39 263d 38de 05bf c9c6 81be ac2c c63e
00000090: 58c8 65bf 5998 a33e 259d 473f 007d 59bf
000000a0: 58d7 243f b219 45bf 8ebc 803e f9e1 953e
000000b0: b3a0 1abe 6446 503f b9f2 11bd 69c3 3f3f
000000c0: cbb2 e43e 6df2 bcbe
-0.46151006 -0.8135794 0.40717047 -0.325816 -0.10569756 0.33369437 0.8078296 -0.1356754
0.50600797 -0.4797155 -0.21594605 0.1490956 0.28118667 -0.8490809 -0.19878568 0.11054173
-0.6573259 -0.14487292 -0.39758015 0.06842906 0.1274398 0.4143252 0.37812653 0.4684459
-0.0662701 -0.3749253 0.4123894 0.75810194 0.024494344 -0.1144664 -0.47203535 0.43195686
0.040582336 -0.52292204 -0.25346974 0.38705957 -0.89758825 0.3195217 0.7797416 -0.8495636
0.6439109 -0.7699233 0.25143856 0.29273966 -0.15100364 0.8135741 -0.03563187 0.7490755
0.44667658 -0.36903706

gat_layer_0.attention_0.a f4 [20, 1]
00000000: 06df 15be 9165 5abe c7c5 303e 71b2 3c3f
00000010: 5a20 a4be 4351 85bd 721a 243f f0d5 01bf
00000020: c6f4 b9bd 3e2f 263f 6fb6 02bf e09d 43bf
00000030: 4c24 fc3e 5276 0abe 6f15 16be 24e8 a6be
00000040: ceb9 a43e 118a 2a3e 318d a13d d30d d73c
-0.14635858 -0.21327807 0.17262946 0.7370978 -0.32055932 -0.0650964 0.6410285 -0.5071707
-0.0907989 0.64915836 -0.5105962 -0.76412773 0.49246442 -0.13521698 -0.14656614 -0.32598984
0.32173008 0.1665423 0.07888258 0.02625171

gat_layer_0.attention_1.W f4 [5, 10]
00000000: 05d5 52bf 30dc b8bc 2842 1fbd 8ab9 bbbb
00000010: 1f06 b4bd b25f 65be 4fad 56bf 4910 3d3f
00000020: 85dc 42bf cfb4 32bf 484a ba3e 62e8 57bf
00000030: ab1d 33bf 374c 333f a50d 5f3f f934 c4be
00000040: d2d9 3e3f af89 97be aa31 33bd 6b72 243e
00000050: 6581 263d e569 093f 0711 0bbf c540 97be
00000060: a5a7 43be cfea e0be d461 453f 537b e03d
00000070: 81ef 39bf e86b e3be e120 053f e475 f33d
00000080: d524 be3e 46be c43e a4c8 563d e750 453f
00000090: 9256 c5be 8d88 613f 71b1 ccbe 72d1 41bd
000000a0: 09ea 19bf b30d a9be 7324 533f 2410 2dbf
000000b0: 151d 173f a1fa 263f 9510 0abf 6d52 03bf
000000c0: d168 47bf a384 24bf
-0.8235629 -0.022565931 -0.03888145 -0.005728905 -0.0879023 -0.22399786 -0.838582 0.73852974
-0.76117736 -0.6980714 0.36384797 -0.84338963 -0.69967145 0.7003817 0.87130195 -0.38321665
0.7455112 -0.29597232 -0.043748535 0.16059272 0.040650744 0.5367721 -0.54322857 -0.29541603
-0.1910692 -0.43929145 0.771024 0.10961022 -0.7263108 -0.44418263 0.52003294 0.1188772
0.37137476 0.38426417 0.05243744 0.7707657 -0.3854261 0.88098985 -0.39979127 -0.047318883
-0.60122734 -0.33018264 0.8247749 -0.67602754 0.5902875 0.6522618 -0.5393155 -0.51297647
-0.7789431 -0.6426489

gat_layer_0.attention_1.a f4 [20, 1]
00000000: 374a bebe 1614 9d3d a311 9a3e c0a7 7bbe
00000010: f0b0 803e 01c7 babe 9ffc 0bbf 410b 01bf
00000020: 6fde d8bd cef0 8abe 175f 0b3f ae75 323e
00000030: 9208 98be 46f8 a1be 444b 3d3e 04dd 093e
00000040: 4e95 cdbe 0922 f3be 93a5 303f 8b11 013d
-0.37165996 0.07669847 0.3009158 -0.2457571 0.25134993 -0.36479953 -0.54682344 -0.504078
-0.10589301 -0.27136844 0.5444197 0.17427704 -0.2969404 -0.3163473 0.18485743 0.13463217
-0.40152973 -0.47486904 0.69002646 0.03151087

gat_layer_0.attention_2.W f4 [5, 10]
00000000: 9507 543f a758 e7be c7f8 06be 9df9 473f
00000010: 3ed6 2e3f 4ab6 a43d 11d2 19bf a729 09bf
00000020: dea4 1ebf 157b 09bf dce6 863e 9c6c 5fbf
00000030: d4e0 55bf b738 2d3e c5c7 64be f296 b9be
00000040: 3829 5cbf 9eaf 8d3e 2103 a6bd 1cd4 c8be
00000050: cf0a 08bf fd56 363f 3c18 393f 9b34 b4be
00000060: 6895 ec3e 3e5c 3d3e 1770 07bf a779 ecbe
00000070: c685 5f3f 06ce 223f 348d 60bf 3130 973e
00000080: 1a5c 223f b225 7c3e 9b52 16bf 1129 65be
00000090: e0c7 31bf eeb5 a6be 3bc7 00bf fb08 0d3f
000000a0: 5091 93bd dcc9 1cbe 129e 2dbf 3b7c 383e
000000b0: dbc7 1f3d be27 a2be b97e 59bf 6b83 58bf
000000c0: 441e 1bbe b80f a63e
0.8282407 -0.45184824 -0.13180839 0.78115255 0.6829566 0.080425814 -0.6008616 -0.5357918
-0.6197032 -0.53703433 0.26348007 -0.872751 -0.83546185 0.16916166 -0.22341831 -0.36247975
-0.86000395 0.27673048 -0.081060655 -0.39224327 -0.5314149 0.71226484 0.72302604 -0.35196385
0.46207738 0.18492219 -0.5290541 -0.46186563 0.873135 0.63595617 -0.8771546 0.29528955
0.63421786 0.24623755 -0.58719796 -0.22378947 -0.6944561 -0.32560676 -0.50304 0.5509183
-0.072054505 -0.15311378 -0.6781932 0.1801614 0.039008956 -0.31670946 -0.8495899 -0.8457553
-0.15148264 0.32433867

gat_layer_0.attention_2.a f4 [20, 1]
00000000: 0ae9 e8be 532b 95be ed65 bbbe 43ca 1ebf
00000010: 636b 3abf 5beb 053f 7913 b53c 87c3 083f
00000020: b8e1 e83e b8b9 0f3f c1f1 393f b2cb 2ebf
00000030: 8e6e 01bf acd3 713e c8c0 fe3e 01b6 833e
00000040: bd74 273f b6e4 92be 55be 02bf 7f35 f9be
-0.45490295 -0.29134616 -0.366012 -0.62027377 -0.7282011 0.5231225 0.022104012 0.5342335
0.4548471 0.5614276 0.7263451 -0.68279564 -0.5055932 0.23615903 0.49756455 0.25724795
0.65412503 -0.28690118 -0.51071674 -0.48673627

gat_layer_0.attention_3.W f4 [5, 10]
00000000: be73 aebe 6e41 d4bd a737 b23d 84c2 c73e
00000010: 145a 97be dbbe 48bf 9926 23bf b25d 5e3f
00000020: 9d04 77bd b17b 03bf 7af3 2fbf 3a08 223e
00000030: 0ec5 fa3d df0e 113e 326d d5be 9106 11bf
00000040: dd2f 25bf 88df 383e bcf0 103f a937 253e
00000050: 002c 163f bd73 373f f63b 83be 0c95 ea3d
00000060: 0f42 b23e a9c0 28bf 84c5 da3e c0f7 1bbf
00000070: 21cb 02bf f295 b63e a058 debd 3905 6fbc
00000080: 4dda 17bf 24f5 f83e 4d4b 223f a9f9 39bf
00000090: d4db f1be 8d06 2fbf bf3d 1f3f 99ff 403e
000000a0: 8579 2f3f 9b27 a73e 1089 41bf dd77 e73e
000000b0: 4d59 0a3e a685 b3be fe3b 21bf 2067 243e
000000c0: 2956 2f3f bc35 27bf
-0.3407268 -0.10364042 0.08702021 0.3901559 -0.29560912 -0.7841622 -0.6373077 0.8686172
-0.060307134 -0.51360613 -0.6873089 0.1582345 0.122446164 0.14165829 -0.41684872 -0.56650645
-0.6452616 0.1805402 0.5661733 0.16134514 0.5866089 0.7166098 -0.25631684 0.1145421
0.34816024 -0.65918976 0.42728817 -0.6092491 -0.510912 0.35661274 -0.108567476 -0.0145886475
-0.59317476 0.48624527 0.6339615 -0.72646576 -0.47238028 -0.6836937 0.6220359 0.18847503
0.685448 0.32647404 -0.75599766 0.45208636 0.13510628 -0.35062903 -0.62982166 0.16054964
0.68490845 -0.6531637

gat_layer_0.attention_3.a f4 [20, 1]
00000000: 30df a8be 347c 233d 1840 fb3e cc01 3f3f
00000010: 442b 273f c9db 2a3f 722e 16bd d1bb 3e3f
00000020: bb5e a23d 5118 05bf b27c 82be caf4 13bf
00000030: 3709 6dbd 4027 25bf b8d9 bebe ad6c a33d
00000040: 1176 f23e b904 943c fae8 e23e ccba fc3d
-0.3298278 0.03991337 0.49072337 0.74612117 0.65300393 0.66741616 -0.036665387 0.74505335
0.07928225 -0.5199023 -0.2548576 -0.57795393 -0.057870116 -0.64513016 -0.3727548 0.07979713
0.47355703 0.018068658 0.44318372 0.12340316

gat_layer_0.attention_4.W f4 [5, 10]
00000000: a6cd 9dbe 1c51 3ebf 6be3 4b3f 48af af3e
00000010: 7fe8 7d3c 263f 983e d376 ed3e 024c 733e
00000020: 3a19 b2be e166 29bf eab2 febd b482 ebbe
00000030: 29cf 5cbf 30b7 14bf 8dca cc3e 5649 fb3e
00000040: cd41 27bf 9be6 8ebe a85c af3e f261 de3e
00000050: f80c 30bf abd7 033f f2fd a0be 87ed e9be
00000060: eb2f 2cbf 6dcc 6a3e dace bc3d cde8 f43e
00000070: 7423 1ebe bb63 273f 91a9 54be 2892 80be
00000080: b9e1 e8be eae2 133f 3ac4 63bf fd7e 473e
00000090: cb52 3abf deaf f2be b230 4bbf 3a8e 393f
000000a0: 0e82 1ebf 1e92 3f3f 9b05 143f 1059 86bd
000000b0: 60c2 87be de4f 4c3f 8989 4e3f d5a0 4b3f
000000c0: 13b3 51bf b94d 243e
-0.3082096 -0.74342513 0.7964389 0.34313416 0.015497326 0.29735678 0.46379718 0.23759463
-0.3478487 -0.66172606 -0.12436469 -0.45998156 -0.862536 -0.5809202 0.39998284 0.49079388
-0.6533478 -0.27910313 0.3425038 0.434341 -0.6876979 0.5150096 -0.31443745 -0.4568903
-0.67260617 0.22929545 0.09219141 0.47833863 -0.15443212 0.6538655 -0.2076781 -0.25111508
-0.45484713 0.5776812 -0.8897129 0.19482036 -0.7278258 -0.473998 -0.7937118 0.72482646
-0.619172 0.7483233 0.57821053 -0.06559956 -0.26515484 0.7980937 0.8067861 0.79542285
-0.8191387 0.16045274

gat_layer_0.attention_4.a f4 [20, 1]
00000000: c7fd c63c d448 e7be b086 efbe c6c9 dabe
00000010: 1293 8fbe 69c6 0b3f 64db d93e 0641 263e
00000020: 2a9f e5be d875 c63e 5896 273f 710e 243f
00000030: b006 6dbe d7ae 153f ac8d c53e 97b2 033f
00000040: 48ec d43e a2f7 f93e 0279 0f3f 294a 11bf
0.024290932 -0.4517275 -0.46782446 -0.42732066 -0.28041893 0.54599625 0.42550194 0.16235742
-0.44847995 0.38761783 0.6546378 0.64084536 -0.23147082 0.5846991 0.3858465 0.5144438
0.41586518 0.4882174 0.5604402 -0.56753784

gat_layer_0.out_att.W f4 [50, 5]
00000000: e55e d0be 82c1 8cbe 1dbf ce3c 56ac 6ebe
00000010: 8abe 7cbe e63a f2be 0e8a 883d e047 8ebe
00000020: 0b5d 0a3e 029c 30be a5a5 983e 70b4 afbe
00000030: b1f2 4d3e 1055 73bb e83c 893e 7932 10bd
00000040: 3e61 3cbe bfec d23d 51da b03e e32d b7be
00000050: e2d4 c53e 01fe 42bd 5752 0c3e fe66 6f3e
00000060: 7da9 db3e ae5c a1be c7a4 b33c 987b b73e
00000070: 20b8 933e ea29 5dbe 9524 d13e 93d3 733e
00000080: 8fd9 a9be 6fd5 9cbe d763 453e 9054 f3be
00000090: ce6f be3c a6fe 8b3e 9414 87be eb37 e93c
000000a0: e2a0 3f3e 7825 83be 733f 45bd c1f7 c63d
000000b0: 3e80 e13c 66ee b9be cbf5 683e 9fa6 08be
000000c0: 482b 96be 8655 813e 09ba 9cbe b5ff 7a3e
000000d0: 3a71 41be 3834 8bbe f1df b9bd be9b 3fbe
000000e0: 2076 533e 98b3 66bc 5ad8 643e fa32 9fbe
000000f0: e528 19bd a577 a13e 09a6 c9be 9f2d c83e
00000100: 5cdc a23e f380 d63d 64bb 523e cf63 8cbe
00000110: cac2 5f3e 6c76 e83e d118 9e3c f16f e9be
00000120: 3d74 893e b854 abbe 9d7a da3e 4620 a1bd
00000130: abfc 8fbd 7ba0 4abd 2f9e b63e 9a75 e0be
00000140: 3c90 60be 4a3b 843e 0f88 22be 3c53 e43e
00000150: 2cbb d43e 906d 7a3d b3b7 30be 48c9 623e
00000160: 2beb 15bd 769f 303e b1c8 e1be 86e3 36bd
00000170: 9172 69bc 6a8f 8d3d 0776 c13e 87de 9c3e
00000180: e239 90be f0f1 73be e57e c43e e3e6 6d3e
00000190: a383 3e3e e9e7 d9be cde4 91bd 02bc 58bd
000001a0: 199e bc3e 413e 9c3e 41c5 a33e b470 dbbc
000001b0: 50bc 53be 1b8e d3be a671 c73e 7931 943e
000001c0: 8ae5 81be 1b28 19be 5945 a03e 118c 3d3c
000001d0: bf3e 16be 0008 38be f233 3a3e e91f 5cbe
000001e0: 67a5 143e 2dec d2be 3463 ce3d 0fca c53d
000001f0: 6cda 9cbd 86c2 933d eb15 193e 1dac 91be
00000200: e467 9b3e 16b4 73be b228 a1be 7a7b 84be
00000210: 0833 a53e e78f e9be d45e a7be 20b9 b13e
00000220: 9e74 14bd 40a8 d4be 6470 e63e 23a8 afbe
00000230: 61a5 6dbe f748 b4bd bfc7 883e 1a4f d3be
00000240: 072e 9b3e 5df5 d13e fd75 28be 9aa3 5f3e
00000250: f9f8 a6be d9e6 b3be ed36 d13b 1e23 be3e
00000260: 329e 8fbd a9dc c9be 490e da3d 3219 943e
00000270: b3c6 1ebe 93fc e1be e123 733e a9d5 383e
00000280: a5c5 c5be 26fb 4e3e 58c3 bcbe f7e0 9c3e
00000290: 68ed d23e 5071 d1be dfad 403e 4909 d83e
000002a0: 51b8 233e a1a4 ea3e f3fa 47be 8e13 6cbe
000002b0: 4218 e83e 9623 b13e 906d b7be f050 14be
000002c0: 90fc ce3e 17ec 273c ee18 cd3e d85c 0d3e
000002d0: 7923 583e a75a b63e 83e2 923e f3c5 bdbe
000002e0: ec22 823d f3e1 b1be eddc 513e f892 843e
000002f0: fc3c f93d 8b5e 84be 8361 a9be dfc4 953e
00000300: 6212 873d bec1 91be 117d c3be e691 b23e
00000310: a3ca 643e 076f a5be 1dc3 163e 5da9 0b3d
00000320: b6ef 4abe b2c1 b03e e7c5 983e 3b79 c0bd
00000330: 146b 47be 2157 b63b 6ba1 a83e eb29 b03d
00000340: 8f44 973e 5a6a 6fbe e1c2 e03d a311 813e
00000350: b637 2a3d 5f43 80bd e6d1 5b3e b614 a4bd
00000360: 87a8 c5be db04 bc3e a6a8 11be 2a36 8e3e
00000370: 697f d93e b6cb d33e dbaf 133d f5a5 c5be
00000380: 10d8 a53d 0c31 4cbe d5b5 aebe 45ba a43c
00000390: f98e 0abe cb79 1f3e cd7f babd 0705 b0bd
000003a0: 3055 d8be e18d 813e f87b ebbe ce65 24be
000003b0: 88fe 283c fa0d c4bd 7992 b83e dd2d 82be
000003c0: 4571 5ebe 4cff e3be 0a17 c83e 3b17 86be
000003d0: d7bc a53e eeeb fe3c 0a90 e0be 64cb c23e
000003e0: 5786 e9be 1af9 36be
-0.406974 -0.27491385 0.025237614 -0.23307928 -0.2468206 -0.4731056 0.06666957 -0.2778921
0.13512056 -0.17247012 0.29813877 -0.3431735 0.2011211 -0.0037129559 0.2680428 -0.035204384
-0.1839647 0.10299062 0.34541562 -0.35777196 0.3863898 -0.04760552 0.13703285 0.23379132
0.42902747 -0.3151602 0.021929158 0.35836482 0.28851414 -0.2159802 0.40848222 0.23811178
-0.33173797 -0.30631587 0.19276367 -0.47525454 0.023246672 0.2734272 -0.26382887 0.028469047
0.18713716 -0.25614524 -0.048156213 0.09715224 0.027526971 -0.36314696 0.22750013 -0.13344811
-0.29329896 0.25260562 -0.30610684 0.24511607 -0.18890849 -0.27188277 -0.090759166 -0.18711755
0.2065053 -0.014080904 0.22348157 -0.3109358 -0.037392516 0.31536594 -0.39384487 0.39097306
0.31808746 0.10473814 0.20579296 -0.27419898 0.2185165 0.4540285 0.019298943 -0.45593217
0.26846495 -0.33463073 0.42671672 -0.07867484 -0.070306145 -0.049469452 0.3566756 -0.43839723
-0.21930021 0.25826484 -0.15872215 0.44594753 0.4154905 0.061139643 -0.17257576 0.22147095
-0.036601227 0.1724833 -0.44098428 -0.044650577 -0.014248506 0.0691212 0.3778536 0.30638525
-0.2816916 -0.2382276 0.38378063 0.23232608 0.18604903 -0.42559746 -0.071237184 -0.052913673
0.3683937 0.30516246 0.3198643 -0.02678714 -0.20677304 -0.41319355 0.38953894 0.28943995
-0.25370437 -0.14956705 0.31302908 0.011569039 -0.14672373 -0.17971802 0.18183878 -0.21496548
0.14516221 -0.41195813 0.10077515 0.0965768 -0.07658848 0.07214837 0.14949767 -0.28451625
0.303527 -0.23799166 -0.3147636 -0.25875455 0.32265496 -0.456176 -0.32689536 0.34711552
-0.036244027 -0.41534615 0.45007622 -0.34307966 -0.23207618 -0.088029794 0.26714894 -0.41271287
0.30308554 0.4100751 -0.16451259 0.21839753 -0.32611826 -0.3513706 0.0063847215 0.37136167
-0.07012595 -0.39426163 0.10647256 0.28925472 -0.15505485 -0.4413801 0.23744155 0.18050255
-0.38627353 0.20212993 -0.36867785 0.30640385 0.41196752 -0.40906763 0.18816327 0.42194584
0.1598828 0.45828727 -0.19529323 -0.23054335 0.45331007 0.34597462 -0.35825777 -0.14484
0.40427065 0.010249159 0.40058082 0.13804948 0.21107282 0.35616037 0.2868844 -0.37065086
0.06354317 -0.34742698 0.20494433 0.25893378 0.12169835 -0.2585338 -0.33082208 0.29251763
0.06595303 -0.28468126 -0.38181356 0.34876937 0.22342925 -0.3231127 0.14722867 0.034097064
-0.19818005 0.34522778 0.29838488 -0.09398123 -0.19474441 0.005564586 0.32935652 0.08601745
0.29544494 -0.23380414 0.1097467 0.25208768 0.041557036 -0.0626285 0.21466789 -0.08011763
-0.3860514 0.36722454 -0.1422449 0.277757 0.4248002 0.41366357 0.03605638 -0.38603178
0.08097851 -0.19940585 -0.34123102 0.020108351 -0.13531102 0.15573804 -0.09106407 -0.08594709
-0.42252493 0.25303558 -0.45993018 -0.1605446 0.010314591 -0.09572978 0.3604925 -0.25425616
-0.21722896 -0.44530714 0.39080077 -0.26189598 0.32370636 0.03111836 -0.43859893 0.380458
-0.45610306 -0.17868462

gat_layer_0.out_att.a f4 [10, 1]
00000000: 42f0 143e 4da3 7e3f 950a 2abf 5218 dabe
00000010: 2a8e debe 4768 41bf e5b3 d13e 8cb3 dbbd
00000020: beb4 80bf 5c1f 35bf
0.14544776 0.9946793 -0.66422397 -0.4259668 -0.43467838 -0.7554974 0.4095756 -0.10727605
-1.0055158 -0.70750976

gat_layer_1.attention_0.W f4 [5, 10]
00000000: f568 603c c33f 93be 1315 0e3f e686 53bf
00000010: 9287 ed3e f3e9 40be 85fc ab3e 06af dabc
00000020: 1569 3bbf 2b34 0dbf a229 353f ceb9 4abf
00000030: 0a85 dcbe 1861 58bd d916 53bf 7e48 35bd
00000040: 0da6 35bf f776 39bf 222d 23bf 72a0 083f
00000050: 503f e83e 9097 2bbf 6478 3d3f aa25 63be
00000060: e049 2c3f 6c5d f43c 3a36 f7be 6db5 623f
00000070: 0bfe ff3d a521 483f 2638 ee3d 3bfa 49bf
00000080: 2ebe c03e b110 bdbd 1e1c 623e e0b3 573f
00000090: a043 05bf 9c31 2bbf 69a3 65be e8a9 3dbd
000000a0: 657a 69be 281f 413f a61c 563f cc40 463f
000000b0: ee93 56bf 149e 1fbf 27f8 1d3f 5288 a9be
000000c0: 7948 063f 7f96 de3e
0.013696899 -0.28759584 0.55500907 -0.82627714 0.46392494 -0.18839245 0.33591095 -0.026694786
-0.7320722 -0.55157727 0.7076665 -0.79189765 -0.4307025 -0.05282697 -0.8245674 -0.044258587
-0.709565 -0.7244715 -0.6374074 0.5336982 0.45360804 -0.6702814 0.74011827 -0.22182336
0.67300224 0.029829703 -0.4828356 0.88558084 0.12499627 0.7817634 0.11631803 -0.78897446
0.37645096 -0.09231699 0.22081038 0.8425884 -0.5205631 -0.6687257 -0.22425617 -0.046304613
-0.22800596 0.75438166 0.83637464 0.7744262 -0.8381947 -0.62350583 0.61706775 -0.33111817
0.52454334 0.43474194

gat_layer_1.attention_0.a f4 [20, 1]
00000000: 9b96 3a3e d49a 04bf ea1e 5cbe 6141 c8be
00000010: 3ad7 3f3f 87ab 3abf 44e2 a4be 7776 38bf
00000020: ff9e 393f 1c6c 28bf 6637 3c3f ff88 22be
00000030: f18c 52be ce9c 11be b678 2f3f 7ce1 553e
00000040: 134f e93e fdd8 5cbe 0bd3 37bf 5290 3cbe
0.18221514 -0.5179875 -0.21496168 -0.3911238 0.74937785 -0.7291798 -0.32203877 -0.72055763
0.72508234 -0.6578996 0.7352203 -0.15872572 -0.20561577 -0.14219972 0.68543565 0.20886797
0.4556814 -0.2156715 -0.718064 -0.18414429

gat_layer_1.attention_1.W f4 [5, 10]
00000000: 9077 093f 0d1f 9dbc 3c74 023f 8222 fa3e
00000010: c53c e7be 9101 81be 8613 063d 6f91 2e3d
00000020: 2141 16bf a559 2c3e fb34 5fbf 980a c73d
00000030: 4f7e 35bf c7df 583f f5aa 70be 9348 a4be
00000040: b14a 123e 0829 4cbf 6b08 e73e 7499 d33e
00000050: 6d40 053f 2cfb 24bf ce9e 55bf d4ea b5be
00000060: 80f4 5bbe c640 3cbe 6e11 143f b6d5 e9bd
00000070: f612 0dbf 862d aebe c8f5 c53d f1e0 943e
00000080: 88d5 3abf 3082 cd3e 4f44 83be c29c b13e
00000090: 3b6d 0cbe d6dd 7abe b08f 62be f650 423e
000000a0: 2e33 38bf e66e 073f bbbe f5be 22e0 b8be
000000b0: 70be 733e f380 e43d b735 1a3e f4d6 60bf
000000c0: e6e7 d9be d077 62bd
0.5369806 -0.019179845 0.5095861 0.48854452 -0.4516355 -0.25196508 0.032733463 0.042619165
-0.5869313 0.16831072 -0.87190217 0.097188175 -0.70895857 0.8471646 -0.23502715 -0.3208662
0.14286305 -0.7975011 0.4512361 0.41328013 0.5205143 -0.6444576 -0.8344544 -0.35530722
-0.21479988 -0.18384084 0.57839096 -0.11417715 -0.5510706 -0.34019107 0.0966602 0.29077867
-0.7298207 0.40138388 -0.25638053 0.3468991 -0.13713543 -0.24498686 -0.22125125 0.18976197
-0.71953094 0.5290359 -0.47997078 -0.361085 0.23803115 0.111574076 0.15059553 -0.8782799
-0.42559737 -0.055290043

gat_layer_1.attention_1.a f4 [20, 1]
00000000: 5e67 0ebf 7624 113e 6016 1bbe f278 c4be
00000010: 5b3f 5d3e 3e84 0bbe 0689 f83b 03d7 3e3f
00000020: b161 cfbe 31ff 88be c48d 1d3f d767 563c
00000030: 1bbc db3e 3b8c 29bf 5c0e 753a 3094 c2be
00000040: d4a9 a8be 2dde 313f 73bb 70bd e640 223f
-0.55626476 0.14174065 -0.15145254 -0.38373524 0.216062 -0.13624665 0.007584694 0.7454683
-0.4050422 -0.26757196 0.6154444 0.013086281 0.4291695 -0.662296 0.0009348148 -0.38003683
-0.3294207 0.6947964 -0.058772516 0.6338028

gat_layer_1.attention_2.W f4 [5, 10]
00000000: a1cc dabd e0ca 47bf 9623 b5be 33ee 9cbe
00000010: 8acd 5bbf b9fc 9dbe 29aa 3e3f f272 47be
00000020: 3c1a a83e b71d 49bc a91e e93e 5167 4dbf
00000030: 4725 603c 07b8 233f 0983 663f 6e77 a4be
00000040: 6ad8 d5be fa19 3bbe 4cd0 08bf 68b9 be3b
00000050: babc e53d e632 e63e 027a 35bf fe58 1c3f
00000060: 0cab f93e bc94 d73e 648a 4abf 4a17 6d3e
00000070: 8726 563d 7616 613e ea58 e13d dae7 abbc
00000080: cab5 333e 8895 253e 5f54 283f 6338 5cbe
00000090: 547c f4be 0bb5 4bbe f4e7 3d3c bd8e b83e
000000a0: 7aa7 593e 36e4 92be 5049 2bbf cef9 4e3f
000000b0: cef7 213f 1f5a 52be 7355 ba3e 9d40 9dbb
000000c0: 6c27 0f3e 2433 c73d
-0.10683561 -0.7804394 -0.35378712 -0.30650482 -0.858605 -0.30856875 0.74478394 -0.19477442
0.32832515 -0.012275151 0.45531204 -0.80235773 0.013680763 0.6395268 0.90043694 -0.32122368
-0.41766673 -0.18271628 -0.53442836 0.005820442 0.11217637 0.44960707 -0.70889294 0.6107329
0.4876331 0.42105663 -0.7911742 0.23153415 0.052282836 0.21981224 0.11003287 -0.020984579
0.17549816 0.16170323 0.6575374 -0.21505885 -0.47751105 -0.19893281 0.0115909465 0.360464
0.21255293 -0.28689736 -0.6690874 0.8084992 0.63268745 -0.20542191 0.36393318 -0.0047989623
0.13979882 0.09726551

gat_layer_1.attention_2.a f4 [20, 1]
00000000: 7895 c93e 9016 0f3f 8900 9cbe 07ab 173f
00000010: c830 1e3f 826e 34bf faf1 cebe 7e00 783c
00000020: 1b09 32bf 9739 883e 5c3b 313f 536b 433d
00000030: 6a73 2dbc 9d27 9abe 5fe3 2ebf d3b0 f2be
00000040: c7f5 a13e adc7 09bd 11d2 22be 961a 45be
0.39371848 0.558938 -0.30469158 0.5924534 0.61793184 -0.7048112 -0.40418988 0.015136836
-0.69545144 0.26606438 0.692312 0.047709774 -0.010586599 -0.30108348 -0.6831569 -0.4740053
0.31632826 -0.03363769 -0.15900446 -0.19248423

gat_layer_1.attention_3.W f4 [5, 10]
00000000: ec3f 103f 8939 63bf 3da9 db3e 72e5 61bf
00000010: d242 423f a678 3bbe 8072 22bf e4aa 4ebf
00000020: 9ff4 683f 0982 95bd 5fd2 a53d 7601 fbbe
00000030: 7875 fcbd b3a8 303f 07c7 123f 2920 043f
00000040: 6e18 c0be b056 853e 3400 343f 1a30 303f
00000050: 8d86 2c3f dffc df3e 109b 19be 5537 38bf
00000060: 6a2b 25bf 1625 3f3f bb9d 263f 3d09 9a3d
00000070: eb50 2abf 8b1d a73d dfe6 9cbe 79a8 57bf
00000080: e5b8 bdbe b482 cebe 13b4 323f 178d 98be
00000090: 5ece 693e b058 9bbe 8cfc eb3e 8d98 22bf
000000a0: a659 18bf 77a3 343f 4d22 57bf 0b5f f3be
000000b0: 1eca 263f 37ba 573f e033 74bd ca80 cebe
000000c0: 134a fa3e d658 c33e
0.5634754 -0.88759667 0.42902556 -0.8824073 0.7588321 -0.18307742 -0.63455963 -0.8072951
0.9099826 -0.07300193 0.08096766 -0.49024552 -0.12327093 0.69007415 0.5733494 0.5161157
-0.37518638 0.260427 0.7031281 0.688234 0.6739281 0.43747613 -0.15000558 -0.7195943
-0.6451937 0.74665964 0.6508443 0.07521293 -0.6652972 0.08159932 -0.3064489 -0.84241444
-0.37055126 -0.40334094 0.6980602 -0.29795143 0.22832629 -0.303411 0.46091115 -0.63514024
-0.5951179 0.7056193 -0.84036714 -0.4753345 0.65152156 0.84268516 -0.059619784 -0.40332633
0.4888464 0.38153714

gat_layer_1.attention_3.a f4 [20, 1]
00000000: 3192 09bf 79d2 42be 4204 ebbe 1d71 67be
00000010: 8274 84be 2ab0 013f b471 043c fc1d d13e
00000020: 570d 0b3e 97a3 8cbe c45b 083f 6daf 44be
00000030: e30a ccbe 03b4 363f af6c bcbe 1c7e 7abd
00000040: d9a5 fa3e cc72 1a3f 6685 b3be 1fb2 df3e
-0.53738695 -0.19025601 -0.45901686 -0.22601743 -0.25870138 0.5065943 0.00808375 0.4084319
0.13579307 -0.2746856 0.53265023 -0.19207545 -0.39852056 0.71368426 -0.3680167 -0.061155424
0.48954657 0.60331416 -0.35062712 0.43690583

gat_layer_1.attention_4.W f4 [5, 10]
00000000: b3a5 533f 6632 dd3e 0258 e63e 0414 b33d
00000010: d581 0d3e 7ed4 043e bcc9 09bf b00b 2c3f
00000020: ad9d 1ebf 3480 dc3e 6ba3 c2be e502 51bf
00000030: b8d1 f43e bb91 2c3f 290f 4e3f 4b23 333f
00000040: 0a8c 1dbf 0a55 2f3f a985 5cbf afa9 0f3f
00000050: b84e 02be f80e 583f e865 4fbf 2715 5cbe
00000060: 021f 4bbf eb51 1dbf 7402 58bf b349 243e
00000070: 5fb0 febe 909b 29bf b1c9 29bf 8559 31bf
00000080: 6435 113f cba4 6fbe 7893 4c3f 9f53 1d3f
00000090: 2a28 4d3f 41ab 8fbe 4c79 a23d 5cd2 82be
000000a0: 7bb5 efbe 3ff7 e7be 29bd 393f dc93 413f
000000b0: 7b1c 143f 948f 42bf f7e2 51bd fc97 f93e
000000c0: 16f4 4d3f e072 a23e
0.8267471 0.43202513 0.4498902 0.08744052 0.13819058 0.12971684 -0.5382345 0.67205334
-0.61959344 0.4306656 -0.38015303 -0.8164504 0.47816253 0.6740987 0.8049188 0.6997573
-0.6154181 0.68489134 -0.8614145 0.5611829 -0.12725341 0.8439784 -0.8101487 -0.21492444
-0.7934419 -0.6145312 -0.84378743 0.16043739 -0.49743935 -0.66252995 -0.6632338 -0.6927722
0.5672209 -0.23402707 0.7991252 0.6145572 0.8013941 -0.28060344 0.07933292 -0.25551116
-0.46818146 -0.4530582 0.7255426 0.7561624 0.5785596 -0.7600033 -0.05124184 0.48748767
0.8045057 0.31728268

gat_layer_1.attention_4.a f4 [20, 1]
00000000: 20db 3fbf 2b86 d1be 5abd d0be 05f2 5f3d
00000010: 00c4 d13e 525c ad3e 6d9f b23e e706 ff3d
00000020: f288 393f 18dd f73e bf05 ac3d 64d1 0b3e
00000030: 9f23 15bf e7d0 cd3e 38d3 28bf bd7f 153f
00000040: 96f1 0b3f a085 6ebe 7358 92be a94e d83e
-0.74943733 -0.40922675 -0.40769464 0.054674167 0.4096985 0.33859497 0.34887257 0.124524884
0.72474587 0.4841087 0.083995335 0.13654095 -0.5825748 0.40198442 -0.65947294 0.5839804
0.54665506 -0.23293161 -0.28583106 0.42247513

gat_layer_1.out_att.W f4 [50, 5]
00000000: d454 233e 6bd3 dd3c ea05 d43c 2bec a83c
00000010: 1776 01bd 7a66 cf3e 3655 d83e 0eca a2bd
00000020: 9d23 b73e a316 2a3e 2710 be3d 2031 b33d
00000030: 0191 ccbe e3af 453e 717a 5c3e 27d8 db3d
00000040: 9466 633d fe49 933d ffe2 55be a3be dfbe
00000050: 975b 0bbe e601 0bbe 6e2a 68be 97a6 e43e
00000060: 1b35 cd3e 55bd a53e 5a11 bc3d 1dd3 553e
00000070: 53e6 403e 3150 86be 45c3 d5be c1c9 c9be
00000080: d954 843e 65a2 e03d 6a68 87be 52fe cabe
00000090: 415b 96be 13ec 03be 0c06 7f3d 8945 343c
000000a0: e553 e83e 4d1f 253e 6655 9cbe e31b 7b3e
000000b0: 6386 51be 4f70 c53d 4827 e63e 073b 813e
000000c0: 8a1e 493d 892b d93e 93bc 85be 8721 70bc
000000d0: 35be 6abd 297e bfbe 5857 23bd 5769 c4be
000000e0: 8a25 55bd 961a 953b 70f0 253e 3ab2 babe
000000f0: 7918 ab3e 94f3 3fbe 89cb 74be 9519 a03e
00000100: d25b e0be 3459 cd3e af64 be3e 15b1 123e
00000110: a2cd e43c ba3d c83e 9600 e5bb 7fc8 e8bb
00000120: 5b01 b63c 7423 963e b7dc 933e b547 e8be
00000130: 26ca 3dbe 48fc 2ebe 6010 bcbe e601 e03e
00000140: f934 2cbe 7026 c13d e9b0 ab3d e2a9 91bc
00000150: e294 5a3e 1b54 07bd c407 a5be 2e90 8d3e
00000160: 44b4 be3d 008b 183e 5d3d 85bd 514e 1d3e
00000170: 2251 1c39 0efc 1b3e 60d7 2d3b 6d32 d13e
00000180: 78bc d33e 1ba6 18be c91f 90be 7032 173e
00000190: cb07 733e b7d6 f63d 2cf4 bfbe 48ac 3d3d
000001a0: 6e56 ccbe 5a38 393c 595a 693d ff72 8f3e
000001b0: b6d4 e4bc 2753 aabe 7e58 c4be 16e7 ad3e
000001c0: 8c1f bc3e 9475 d83e d807 68be 8a81 e6be
000001d0: bacb 0d3e a036 163e 3da9 5a3e 6047 b0be
000001e0: 7f0f 8cbe df56 6b3e f22c b23e 78c7 ef3e
000001f0: eadc 8dbe 128b eb3d ee6a 203e 20ab e9bd
00000200: 7c2e bdbe 3cae dcbe 4517 d0be 706d 093e
00000210: bc31 433b 8d21 943e 4a3c 373e 12bd 843e
00000220: 77fd 133e 45e2 72be 519b dc3e 30e2 dbbe
00000230: 46e9 cf3d 47f7 9cbd 7b17 6b3e 1412 cd3e
00000240: 1cd7 07be 8bfc 21be 80da 51be 6896 e0be
00000250: 6a54 a13d 06de 853e 2232 cbbe 9766 ccbd
00000260: 7069 353d 8000 e23c 526d e9be 04a5 a83e
00000270: 5c0f 803e 10d7 abbe 1a9d 99be 0a2c 2dbd
00000280: e117 61be a4ce 5cbe 35b5 ab3e 588e d8be
00000290: 9bd1 483e 66ec d4be d97c adbe 3c64 973e
000002a0: fccc d6bd f3a8 833c 6f17 db3e 12eb 4f3e
000002b0: 6bfe 08be 41fc c13e 8b92 d7be 451d 593e
000002c0: 40e3 dbbd 5e2a 9ebe f007 3b3d 8b5a ae3e
000002d0: f3bd c4bd b5aa de3c e4de f63d fa18 8dbe
000002e0: 4358 d73e 02c0 cdbe 5e33 ac3e afbe 313e
000002f0: 6f26 3ebd ca74 853e 894e 5cbe 06c6 7bbe
00000300: 6066 ecbd a4fc 02bd 0232 bf3e 324b c23e
00000310: 2e48 0abf 751c d0bd 54ce d23e ee86 b0be
00000320: 693b 35bd 5734 01bd 58ca 433e f70a f43d
00000330: b626 d93e 4a38 1dbc 7395 8bbe 4df3 8b3d
00000340: 76be a7be dbfa a23c 2fd2 c3be 6cc0 a8be
00000350: 6512 ccbe 7f37 09bd 7dde 2a3e 25b4 c9be
00000360: 7f61 a13e 0b3a 32be e2e2 813e e95e d4bd
00000370: 6b32 0bbe 4102 e4bd f250 a93e ef41 a23e
00000380: 9f0a 803e e2e3 87be 635c afbe b288 acb9
00000390: 402f a4be bbe9 cc3d 9358 d7be e0c8 f13d
000003a0: bbac a3be 608b a5be 7554 93be 0f2a 1e3e
000003b0: 6381 c03e f63f 113e 80d6 d2be ba8f 483e
000003c0: 9899 e03d b35f 1d3e 1d74 90be 9a70 c33e
000003d0: 07c1 d23e 0951 a9be bb65 c4bd bedc e2be
000003e0: 50ae 5c3e fb85 1ebe
0.15950328 0.027078351 0.025881726 0.020620426 -0.03160676 0.4050787 0.4225251 -0.07948695
0.35769358 0.16610198 0.092804246 0.08749604 -0.3995438 0.19305377 0.21531083 0.10734587
0.055517748 0.07191847 -0.20887373 -0.43700132 -0.13609158 -0.13574943 -0.22672436 0.44658348
0.4007958 0.3237101 0.09182997 0.20881315 0.18837862 -0.26233056 -0.4175054 -0.3941174
0.25845984 0.10968474 -0.2644685 -0.39647156 -0.29366496 -0.12883024 0.062261626 0.011002907
0.45376506 0.16125222 -0.30533904 0.24522357 -0.2046142 0.09640562 0.44951844 0.25240347
0.04910139 0.42416027 -0.26120433 -0.014656431 -0.0573103 -0.3740094 -0.03987822 -0.38361618
-0.052037753 0.0045502884 0.16205001 -0.364641 0.3341711 -0.18745261 -0.23905768 0.31269518
-0.43820053 0.4010712 0.3718619 0.14325364 0.027930085 0.39109594 -0.0069885952 -0.007103979
0.022217443 0.29323924 0.2887933 -0.45367208 -0.18534145 -0.17088425 -0.36731243 0.43751448
-0.16817082 0.094311595 0.08383352 -0.017781202 0.21345857 -0.033039194 -0.32232487 0.27649063
0.09311727 0.14896774 -0.06505845 0.15361907 0.00014907544 0.1523287 0.0026526079 0.40858784
0.41354728 -0.14907114 -0.2814925 0.14765334 0.23733442 0.12052672 -0.37490976 0.04630688
-0.3990969 0.011304939 0.056970928 0.28017423 -0.02793346 -0.33266565 -0.38348764 0.33965367
0.36742818 0.42277205 -0.22659242 -0.45020705 0.13847247 0.14669275 0.21353622 -0.34429455
-0.27355573 0.22982357 0.34799916 0.4683187 -0.27707607 0.11501135 0.1566579 -0.11409593
-0.36949527 -0.4310168 -0.40642753 0.13420653 0.0029784283 0.28931847 0.17894092 0.259255
0.14452158 -0.23719127 0.43087247 -0.42946005 0.10151915 -0.07664352 0.22958176 0.40052855
-0.13265651 -0.15818994 -0.20493507 -0.4386475 0.07877429 0.26145953 -0.39686686 -0.09980505
0.044290006 0.027588129 -0.45591217 0.32938397 0.25011718 -0.33562517 -0.3000267 -0.042278327
-0.21981765 -0.21563202 0.33536687 -0.422961 0.19611208 -0.41586608 -0.33884314 0.2956866
-0.104883164 0.016071772 0.42791316 0.20304516 -0.13378303 0.37887767 -0.4210399 0.21202572
-0.10736704 -0.308917 0.045661867 0.34053454 -0.096065424 0.027181009 0.12054232 -0.27558118
0.42059526 -0.40185553 0.3363294 0.17357896 -0.046423372 0.26065665 -0.21514334 -0.24587259
-0.11542964 -0.031979218 0.3734284 0.37947994 -0.5401639 -0.10161678 0.4117304 -0.34477943
-0.04424611 -0.031544056 0.19120157 0.11916154 0.42412347 -0.00959594 -0.27262458 0.06833515
-0.32762498 0.019895008 -0.38246295 -0.32959306 -0.39857784 -0.03350019 0.16686435 -0.39395252
0.31519696 -0.17404954 0.2536841 -0.10369665 -0.13593452 -0.111332424 0.3306957 0.31690928
0.25008103 -0.26541048 -0.34250173 -0.00032908242 -0.320673 0.10005518 -0.42059764 0.11805892
-0.3196772 -0.32332897 -0.28775373 0.15445732 0.37598714 0.14184555 -0.41179276 0.19586077
0.10966796 0.15368538 -0.28213587 0.38171846 0.41162893 -0.33069637 -0.09589716 -0.44309038
0.2155087 -0.15480797

gat_layer_1.out_att.a f4 [10, 1]
00000000: 2004 183f 1ad2 35bf 5db1 babe 571b 85bf
00000010: 9100 9ebe 58e2 dcbe 97ea 053e 951a 673f
00000020: e009 19bf a2d4 7cbe
0.59381294 -0.71023715 -0.36463442 -1.0398968 -0.30859807 -0.43141437 0.1307777 0.90274936
-0.59780693 -0.24690488

gat_layer_2.attention_0.W f4 [5, 10]
00000000: 4ab1 173c cb1b f3be ab51 bebd a511 c43c
00000010: 3681 d7ba 87a4 8fbe 99bc cbbe 5fc3 82be
00000020: a5ef 833e c013 24bf 5f10 453f d65e 293f
00000030: ab11 0a3f 6316 1cbf 397c 17be 49a9 a73e
00000040: bbc1 2b3d 403e abbd 8b71 3e3e 05eb 16bf
00000050: 7f13 2fbe 7bd7 193f 3c85 61bf 5977 03bf
00000060: 5d8f 753e d9f3 003f 4a68 e83e e968 40bf
00000070: 00f7 0f3e 927e f4bd 09f5 7b3e b3c3 f73e
00000080: ca01 303f 7302 283f 1565 00bf 76df 49bf
00000090: 7c95 a0be d665 0e3f b586 4abf dea6 273e
000000a0: 55a4 5fbf 60df 8fbe d6f5 4dbe 93d8 c9ba
000000b0: 012f 3e3f c611 febe 7ece abbd beea 4cbf
000000c0: fb44 53bf 0a81 323f
0.009258578 -0.47482142 -0.09292921 0.023934195 -0.0016441706 -0.28055212 -0.39792326 -0.2553968
0.25768772 -0.64092636 0.76978105 0.66160333 0.5393321 -0.6097166 -0.14793481 0.32746342
0.041932803 -0.083614826 0.18598 -0.5895236 -0.17097281 0.6009442 -0.88093925 -0.51353985
0.2398047 0.5037208 0.45392066 -0.7516008 0.14059067 -0.11938204 0.24605192 0.48391494
0.6875273 0.6562874 -0.5015424 -0.788566 -0.31364048 0.5562414 -0.79111797 0.16372249
-0.87360126 -0.2810011 -0.2011331 -0.0015399627 0.7429047 -0.49622935 -0.08388995 -0.8004569
-0.8252713 0.6972815

gat_layer_2.attention_0.a f4 [20, 1]
00000000: b521 d3be 6651 1e3f bb56 1dbe 4c53 3cbf
00000010: a5aa 2abe ad69 323f ddd7 af3e 8506 babd
00000020: 1acd 0a3b 7685 33bf ddba ffbd 6a20 81be
00000030: e0fb 17be 23c0 0a3f ce13 38bd 6d8c 393f
00000040: 3c26 16bf 73e1 babe b607 ea3e 60cc e7be
-0.41236654 0.61842954 -0.15365116 -0.735646 -0.16666658 0.696925 0.34344378 -0.09083275
0.002117938 -0.7012552 -0.12486813 -0.25220042 -0.14842176 0.5419943 -0.044940762 0.724799
-0.5865209 -0.3650013 0.45709008 -0.45273113

gat_layer_2.attention_1.W f4 [5, 10]
00000000: 61ab c23e d3d7 cf3d 0388 3f3f 443e 1f3f
00000010: 9cac 953e f1a9 483e c9d4 c23e c278 38bf
00000020: e47d 0e3e eda2 e23e 18d4 d5bd 7bca 56bf
00000030: 30c4 17bf 3571 a9be e32b 89be 0028 e93e
00000040: 674f 543f 0abd f43e f9c1 9dbe 34d5 8a3e
00000050: b27d 0e3f ac1e ddbe 9278 3e3f f44d 5e3f
00000060: fca7 c6bd b135 8ebe 9638 4f3f 3a1f 2e3f
00000070: 17ab 97be 2b75 6b3f 2c52 99be e17e c0be
00000080: f594 b2be 1b14 3d3f 29a4 093f 6cb3 35bd
00000090: 6d55 5fbf 7453 ad3b 05b1 64bf 1610 28bf
000000a0: 30f1 bb3e c453 1e3f 5bc6 2a3f 4743 b9be
000000b0: 2551 0dbf 68b7 a4be b2bd 023e d726 64be
000000c0: 6460 49bc 009b 49bf
0.38021377 0.10148587 0.7481691 0.62204385 0.29233253 0.19596078 0.38052967 -0.7205926
0.13915211 0.44264928 -0.10440844 -0.8390271 -0.59283733 -0.33094183 -0.26791295 0.4553833
0.8293366 0.47800475 -0.30812052 0.27115786 0.55660546 -0.43187463 0.74402726 0.868377
-0.09700009 -0.27775338 0.8094572 0.680164 -0.2962272 0.9197566 -0.29945505 -0.375968
-0.3487927 0.73858804 0.53766114 -0.044360563 -0.87239724 0.0052894894 -0.8933261 -0.65649545
0.3670745 0.61846566 0.66708916 -0.3618414 -0.5520194 -0.32171178 0.12767676 -0.22280441
-0.012291048 -0.78752136

gat_layer_2.attention_1.a f4 [20, 1]
00000000: b0be 25bf d6b9 0a3f 9ff3 3dbe f316 e33d
00000010: 3b84 34bf d684 0abf a817 1d3f 9330 9e3e
00000020: 0fe9 6f3e 2c25 06be 2c43 813d ec79 f6be
00000030: 3e46 4c3e 7a75 3a3e 4f0f e03e 9c9b b9be
00000040: 6d13 d53d cd03 91be 57a2 cfbe 00f9 3abf
-0.6474409 0.54189813 -0.18549965 0.110883616 -0.7051427 -0.5410894 0.6136422 0.30896434
0.23428749 -0.13100117 0.0631164 -0.48139894 0.1994867 0.18208876 0.4376168 -0.36251533
0.10404096 -0.28323212 -0.40553543 -0.73036194

gat_layer_2.attention_2.W f4 [5, 10]
00000000: 007c a03e c326 3abf 4898 51be d291 2f3f
00000010: 38b3 2f3d 4c14 0cbd d7eb 9bbd bcbc ac3d
00000020: d37f 363d 1d37 1f3f 4f10 a03e afef fcbe
00000030: 8228 2c3f 124d 3cbf 72b8 2f3e b161 2d3e
00000040: ce10 19bf 5a4b 74be fbae cc3c 9f3d 3abf
00000050: 7913 68be ea0d 223f 631d 27bf d2ec 8e3e
00000060: 48dd 16bf c322 0a3e 035f 583e eea6 5a3e
00000070: 3c15 e3bd 838d 4d3f a606 cf3e 8a1a 0b3f
00000080: 6f33 23be f06a 7d3e 2a64 0ebf b046 0ebe
00000090: 6c8a 3fbf 532e 13bf 13b0 803e b78a d3be
000000a0: 9268 5ebe ef25 02bf 001c e9be 54ea 053f
000000b0: 81ad 553f 0632 bcbe 626b a1be d1d3 273f
000000c0: 9032 4a3e ee75 633f
0.31344604 -0.72715396 -0.20468247 0.6858188 0.042895526 -0.034199044 -0.07613342 0.08434436
0.044555496 0.6219347 0.31262442 -0.49401614 0.6724931 -0.735551 0.17160204 0.16931798
-0.59791267 -0.2385687 0.024985781 -0.72750276 -0.22663678 0.6330248 -0.65279216 0.27915055
-0.589314 0.13489823 0.21129994 0.21352741 -0.110880345 0.80294055 0.4043476 0.5433737
-0.15937589 0.24747825 -0.5562159 -0.13894153 -0.7482059 -0.5749256 0.25134334 -0.4131677
-0.21719578 -0.5083913 -0.45529175 0.5231068 0.8346787 -0.36756915 -0.3152724 0.6555758
0.1974585 0.8885182

gat_layer_2.attention_2.a f4 [20, 1]
00000000: 347e 8ebe d897 3cbf 6871 6d3e 5645 253f
00000010: ad78 1bbf 05b2 443f 5e8e 27bf 39cc 0dbf
00000020: a3e7 0bbe 4e92 87be 6b83 1e3f be46 a13e
00000030: 9099 1d3f 1f93 68be 9deb 063e 9f5c 643e
00000040: bb89 09bd d856 ecbc 52fd c1be d90b fbbe
-0.2783066 -0.73669195 0.23187792 0.64558923 -0.6073101 0.76834136 -0.6545161 -0.55389744
-0.13662581 -0.2647881 0.6191928 0.31499285 0.6156244 -0.22712372 0.13175817 0.22300957
-0.033578616 -0.028850004 -0.3788858 -0.49032477

gat_layer_2.attention_3.W f4 [5, 10]
00000000: 4007 59bf 0c39 293f fcc6 b3be 5d46 3c3f
00000010: 6199 e0be b17f 613f 94b2 523c 7e9a 373f
00000020: 3363 493e 4390 953e e535 5e3f 7cbe 2b3f
00000030: 8ff8 f43d a000 3f3f 41d8 003e c332 bbbe
00000040: cc48 42bf b5bd 3c3f b34f 02bf 0409 fb3e
00000050: 8fc3 483f e798 9b3e a47b 8dbe def2 08bf
00000060: bd19 333f e3e8 063f 3115 a93d 9075 f2be
00000070: 8d04 39bf 6c8d b03e 5ed1 703b 12cf 71bf
00000080: a79f 573f 020c 543e 8775 d63e 871c 45bf
00000090: e79e cbbd 7a94 903e c193 483e 9641 7dbe
000000a0: fe9b 3e3f 188d 71bf 6580 873e bd21 353f
000000b0: e329 113e 778b 11bf bda6 3dbf f2bd 123e
000000c0: 1cf1 c13e f977 e63e
-0.8477669 0.6610267 -0.3511275 0.73544866 -0.4386702 0.88085467 0.012859959 0.7172011
0.19666748 0.29211625 0.86800987 0.6708753 0.11961471 0.7461033 0.12582494 -0.36562166
-0.7589233 0.7372697 -0.5090286 0.49030316 0.784234 0.30390093 -0.27633393 -0.53495586
0.6996115 0.52699107 0.08255995 -0.47355318 -0.7227257 0.34482896 0.0036745886 -0.9445659
0.84227985 0.20707706 0.4188654 -0.76996654 -0.099424176 0.2823828 0.19587614 -0.2473205
0.74456775 -0.94355917 0.26465145 0.70754606 0.14176135 -0.5685343 -0.7408255 0.14330271
0.37879264 0.45013407

gat_layer_2.attention_3.a f4 [20, 1]
00000000: 13b2 103f ff89 acbe c363 40bf d42d 183f
00000010: 51b3 a2be 8792 d43d 2cb1 d03e 293d 12bf
00000020: fe99 31be 80ee d73d d460 b23e 6634 193f
00000030: 4f82 ffbd 3d58 ad3e 8cf7 18be ca4a 4abe
00000040: 7c84 cebe 07a9 9f3e 688d febe 34dd 83be
0.5652172 -0.33699033 -0.75152224 0.5944493 -0.31777433 0.103795104 0.4076017 -0.57124573
-0.173439 0.10543537 0.348395 0.5984558 -0.12476026 0.33856383 -0.14938182 -0.19755092
-0.40335453 0.31183645 -0.4971726 -0.25754702

gat_layer_2.attention_4.W f4 [5, 10]
00000000: 5d48 29be d232 083f ea74 2abf 281e 0cbe
00000010: d714 82be ed44 ae3e 4d75 1fbf 160c b2be
00000020: f4e8 fd3d 014a 9c3e 598c 013f caa5 693e
00000030: bf05 8e3e 85d4 263f a473 563f dada f93e
00000040: a211 f5bd 4f68 95be ed73 bdbe a8b4 2bbe
00000050: 601a 22bf 9366 56bf dbc6 2cbf bd36 523f
00000060: c43b 3fbe 3fe4 2dbf a32a 3cbf 0b1f 32be
00000070: b3fc 373e 6f92 1ebf a96a 803e 82a7 333f
00000080: 4475 8c3e 4789 0abf 975b 0fbf 09f3 bbbe
00000090: a745 463f 00d6 123e 655e 8d3e 9164 37bf
000000a0: 03ef e6bd 4bf8 eebe e286 b23e f32e 253f
000000b0: 2696 243d 6032 26bf 0d9f 4cbd da63 693f
000000c0: cade 4dbe e8ab 41bf
-0.1653151 0.53202546 -0.66584647 -0.13683379 -0.25406525 0.3403696 -0.6228836 -0.34774846
0.12397948 0.3052521 0.5060478 0.2281715 0.2773876 0.6516803 0.83770204 0.48799783
-0.11966254 -0.29181144 -0.37002507 -0.16768134 -0.63321495 -0.83750266 -0.6749093 0.82114774
-0.18675143 -0.679264 -0.7350256 -0.17394654 0.17967491 -0.6194219 0.25081375 0.7017747
0.27433217 -0.5411572 -0.5599913 -0.3670886 0.7745003 0.14339447 0.2761108 -0.7163783
-0.112760566 -0.46673808 0.34868532 0.64524764 0.040182255 -0.64920616 -0.04995637 0.91167986
-0.20104519 -0.75652933

gat_layer_2.attention_4.a f4 [20, 1]
00000000: c624 7bbd b01f 5b3e cf59 3f3f 10ca 0cbf
00000010: 4921 2dbf 5b54 fabe 11c4 1cbf 84cc b63e
00000020: b059 47be 9d47 49bd 9fab a4be 1385 103f
00000030: eb2e dabe f781 33bf b65e 993e 4b66 153f
00000040: de29 93be 220a 1cbf a459 1c3f eb10 20bd
-0.061314367 0.21398807 0.7474641 -0.5499582 -0.67628914 -0.48892483 -0.61236674 0.35702908
-0.19467807 -0.04914056 -0.32162187 0.56453055 -0.4261392 -0.70120186 0.2995507 0.5835921
-0.2874288 -0.6095296 0.6107428 -0.039078634

gat_layer_2.out_att.W f4 [50, 5]
00000000: 33a8 eb3e 9a6e 53be a173 24be 70e7 17be
00000010: 7565 adbe faab 593e 3a4c 69bd 6e38 9a3e
00000020: cac2 b13e 4c0b 053e f35e ebbd da79 a03e
00000030: 93e0 98be a273 aabe 4852 a2be 0512 313c
00000040: aea6 5cbe 682d 9ebd b7ad 89be 9d01 99be
00000050: a496 313e 9c70 bebd 7c70 b13d 5031 9abd
00000060: ef5a 763d 24a0 6ebe 6b87 40be 0182 a73e
00000070: 9322 013d d470 0dbe 335d 12be f31d bb3e
00000080: 773b b03e e302 863e f11d 433e b814 1cbe
00000090: b3dd 96be 50ef 69be 3adb af3d 1fe0 853e
000000a0: 67b1 dfbd bad0 b9be 02cc 07bd 7b5a bebe
000000b0: 16d6 813d 9f17 1d3e 9bc4 c33e 9d28 e9bd
000000c0: 80e3 d83e c62b d23e 1090 35bd b4a6 1dbe
000000d0: f054 4fbe baf1 a7be a52b 8cbe 589e 48be
000000e0: fd39 953b 1302 debc 34bd 7ebe 4104 a13e
000000f0: 1e2d e53d 2183 5fbe e10a d5be c839 af3e
00000100: 88a5 99be 254d c8be 2759 d43e 6830 b33e
00000110: 18a0 babd 1e24 183e 76d7 82be 6dd3 d13e
00000120: a42e 19bc 17d2 4fbe ed9b c5bd 8354 cabe
00000130: 47b7 943d f427 473e c151 83be cf06 09be
00000140: f741 a8be 8b60 ea3d 2f15 73bd 617a 7a3e
00000150: eba5 04bd 9964 62bd 3e0c b9bd 98b9 d3be
00000160: d57c 66bd e6fc 98be 635a 4ebd f1f8 a2be
00000170: d254 dabd bc86 67be ac1b fcbe 7b27 383e
00000180: 2fbd 543e 50a3 a13e 65b3 a13d 4ff1 163e
00000190: 23f8 c5be 6bfd aebe a95e 70bd 7156 14be
000001a0: 6403 59be f49f c1be aa65 11be 1034 d6be
000001b0: bb91 5a3e e02f d5be f14b e9be 6899 3bbe
000001c0: 7999 9cbd 96a7 953e 025f a63e cebe fe3d
000001d0: 072d 583e 9712 6d3e 8492 413e 4df6 1cbe
000001e0: 20f0 d1be a78f acbe 8f74 1a3e 2c9a 933e
000001f0: 157c 893e ac08 9a3c 913d a83e 662c b6be
00000200: ccb2 9f3e d8f4 bcbe ef8d 25be 2e80 4a3e
00000210: 1df4 c63e 6ae7 b4be fb1a f83c b2e7 81be
00000220: a656 4dbe 5060 79be 1a00 e03c 0f60 7dbe
00000230: 12f2 d9bd e164 88be 7c81 07bb 16e4 c4be
00000240: a52d 07bd 86b9 dbbe 1559 e63e c24c 42be
00000250: bc1a 933e e82d dfbe 67d5 a33e ca11 f5be
00000260: b1e5 453e 6bf3 2fbb 643b 843e 4327 23be
00000270: 9008 3bbe ae73 16be daa0 69bd 44bb 0abe
00000280: a706 dd3d 3713 69be 7276 e2bc 92ed 1bbe
00000290: 2c91 ac3e 0748 71be 83bb c33e 6231 ca3e
000002a0: c768 223c dbd9 a93e a607 603e ffff a0bd
000002b0: 7ba8 4e3e f2d8 ce3e a8ca b93e 8fe2 193e
000002c0: 14bb 79be 8e80 1abe 3be2 b13e 2dde 943c
000002d0: 5468 693e 4cf7 39bd 05cc a8be adac 93be
000002e0: bb06 183e fa9f 97be 0588 d23e 0f92 eabe
000002f0: ee9e f53d 1021 64be f5cb bdbe a9e9 ffbc
00000300: f980 92bc 34f1 c73e f4a5 73bd cd38 9c3d
00000310: 9965 683e 9905 1bbd a8e3 943c 1ba3 013f
00000320: 78c5 e1be d58f 4c3e f23a a23e 02ad a33c
00000330: 3901 6a3e 20f8 3f3e 0650 333e d8c5 58bd
00000340: 90df c6be ed26 cb3e dd94 d5bd 9bce 8fbe
00000350: c55b c43d a17a a33e fc9b ecbd d5d0 233e
00000360: 6761 5e3e 7ee2 6abe 54fd 3a3c 2f2a a13e
00000370: 7ea3 cdbe 0170 d43e 5cda a23e affe e2be
00000380: 59ec 0dbe 71b5 c13e 3a01 d33e 7986 98be
00000390: b34d 7f3e 349f d33e 7fef debe 490f 2c3b
000003a0: 15b9 923d e878 b3be f838 483d b6d1 99be
000003b0: 68cd a2be 94d3 9b3e 68fb 583e 38e3 ec3d
000003c0: 764c 8fbe 9804 2f3a a0ae d73e 245b cbbd
000003d0: 18bd f2be e32c c73d 8ab3 51be a879 80be
000003e0: c09c 9aba 8aca a9be
0.46026763 -0.2064766 -0.16059734 -0.1483438 -0.33866468 0.2125701 -0.05695746 0.30121177
0.34718925 0.1299259 -0.114927195 0.31342965 -0.29858837 -0.33291346 -0.317034 0.010807519
-0.21547958 -0.07723504 -0.26890346 -0.29884043 0.17342621 -0.09298822 0.08664033 -0.07528937
0.060145315 -0.23303276 -0.18801658 0.32716373 0.031527113 -0.13812572 -0.14293365 0.36546287
0.34420368 0.26174077 0.1905439 -0.15242279 -0.29466018 -0.22845197 0.08586736 0.26147553
-0.10922509 -0.36292058 -0.03315354 -0.37178406 0.06339662 0.15341042 0.38235936 -0.113846995
0.4236107 0.4104902 -0.04432684 -0.15395623 -0.20247245 -0.3280161 -0.27377048 -0.19591653
0.004554032 -0.027100598 -0.24876863 0.31448558 0.11190246 -0.21827365 -0.41609862 0.3422377
-0.30009103 -0.39121357 0.41474268 0.3499787 -0.09112567 0.14857528 -0.2555501 0.40981618
-0.009349499 -0.20294987 -0.09648881 -0.39517602 0.0726152 0.19448835 -0.2564831 -0.13381504
-0.32862827 0.11444195 -0.059346374 0.24460746 -0.032384794 -0.05527172 -0.09035538 -0.41352534
-0.056271393 -0.29880446 -0.05037917 -0.31830552 -0.106607094 -0.22609991 -0.49239862 0.1798381
0.20775293 0.3156991 0.07895545 0.1474049 -0.38665876 -0.34177718 -0.058684025 -0.144861
-0.211927 -0.37817347 -0.14198938 -0.41836596 0.21344654 -0.41638088 -0.4556575 -0.18320239
-0.0764646 0.2922942 0.3249436 0.12438737 0.21110927 0.23151623 0.18903548 -0.15328331
-0.41003513 -0.33703348 0.15083526 0.2882856 0.2685248 0.018802963 0.3285947 -0.35580748
0.311911 -0.3690555 -0.16167425 0.19775459 0.3885812 -0.35332805 0.030286303 -0.25372082
-0.20052585 -0.24353147 0.027343798 -0.24743675 -0.106418744 -0.26639464 -0.0020676544 -0.38455266
-0.033002514 -0.4291498 0.4498984 -0.18974593 0.28731334 -0.4358971 0.3199875 -0.47865134
0.19325902 -0.002684797 0.2582656 -0.15932946 -0.18264985 -0.14692566 -0.057038166 -0.13547999
0.107922845 -0.22761236 -0.02764437 -0.15227345 0.33704507 -0.23562633 0.38228998 0.394908
0.009912676 0.33174023 0.21877918 -0.078613274 0.20181458 0.4039989 0.36287427 0.15027831
-0.24387771 -0.15088102 0.34742913 0.018172348 0.22793704 -0.045401856 -0.32968155 -0.2884268
0.14846317 -0.2961424 0.411194 -0.4581456 0.11993204 -0.22278237 -0.3706967 -0.031239348
-0.017883765 0.3905121 -0.059484437 0.076280214 0.22695006 -0.037847135 0.018174961 0.50639504
-0.4409597 0.19976743 0.31685597 0.019979957 0.22852029 0.18746996 0.17510995 -0.052923054
-0.3884244 0.39678136 -0.10428784 -0.28087315 0.09587816 0.31929496 -0.11553189 0.15997632
0.21716844 -0.22937962 0.011412937 0.31477496 -0.40163797 0.41491702 0.3180722 -0.44334933
-0.1385969 0.3783374 0.41211873 -0.29790094 0.24931984 0.413324 -0.43542096 0.0026254228
0.07164208 -0.35053182 0.048882455 -0.3004281 -0.31797338 0.3043486 0.21189654 0.11566776
-0.27988023 0.0006676405 0.42125416 -0.09929493 -0.47409892 0.09725358 -0.20478645 -0.25092816
-0.0011795983 -0.33162338

gat_layer_2.out_att.a f4 [10, 1]
00000000: 8c00 d73d cec2 5f3f 3446 f8bd da5d 3f3f
00000010: bedb df3e 9245 ae3e 7950 8b3d 2a04 833f
00000020: 4854 bbbe fe9a 20bf
0.10498151 0.87406623 -0.12122765 0.7475258 0.43722337 0.34037453 0.06802458 1.0235646
-0.3658774 -0.627365
