tests/gat/encoder-checkpoint5.pt (torch, 20170 bytes, 36 tensors)

gat_layer_0.attention_0.W f4 [5, 10]
0	0xbeec0206	-0.46095294
1	0xbf502fc7	-0.813229
2	0x3ed06500	0.40702057
3	0xbea6c8d3	-0.32575092
4	0xbdda63e4	-0.10663584
5	0x3eaa68c8	0.33283067
6	0x3f4eaa02	0.8072816
7	0xbe093813	-0.13400297
8	0x3f017b5c	0.50578856
9	0xbef585aa	-0.4795354
10	0xbe5b9a78	-0.21445644
11	0x3e19f4e5	0.15034826
12	0x3e8fb58a	0.2806819
13	0xbf594a45	-0.8487895
14	0xbe4c047a	-0.19923583
15	0x3de20d19	0.110376544
16	0xbf2883a6	-0.6582588
17	0xbe12b37a	-0.14326277
18	0xbecbb7be	-0.39788622
19	0x3d8c2dec	0.068446964
20	0x3e02e63f	0.12783144
21	0x3ed4670d	0.41484872
22	0x3ec19036	0.37805337
23	0x3eefd171	0.4683948
24	0xbd89e41c	-0.067329615
25	0xbec02dd5	-0.37534967
26	0x3ed2e23e	0.41188234
27	0x3f4257a2	0.7591497
28	0x3cc6f31c	0.024285845
29	0xbde96ad0	-0.11397326
30	0xbef1a92e	-0.47199386
31	0x3edd3522	0.432046
32	0x3d25d663	0.04048766
33	0xbf05e399	-0.5230041
34	0xbe82eb67	-0.25570223
35	0x3ec5ef64	0.38659203
36	0xbf65e4bd	-0.8980215
37	0x3ea48aed	0.32137242
38	0x3f478848	0.77942324
39	0xbf595db1	-0.84908587
40	0x3f250bb4	0.6447098
41	0xbf4493d4	-0.7678807
42	0x3e80805c	0.2509793
43	0x3e961cd1	0.2931886
44	0xbe1ae8fd	-0.1512794
45	0x3f503dd6	0.81344354
46	0xbd13e130	-0.036103427
47	0x3f3fca89	0.7491842
48	0x3ee4a7d5	0.44659296
49	0xbebcd65c	-0.36882293

gat_layer_0.attention_0.a f4 [20, 1]
0	0xbe191371	-0.14948823
1	0xbe52ca1c	-0.20584911
2	0x3e2c4a81	0.16825296
3	0x3f3c9531	0.7366515
4	0xbea37a5a	-0.31929284
5	0xbd896aa3	-0.067097925
6	0x3f23865c	0.6387689
7	0xbf0226d2	-0.50840485
8	0xbdbcf0df	-0.0922563
9	0x3f26812c	0.6504085
10	0xbf023f24	-0.50877595
11	0xbf4383b3	-0.7637283
12	0x3efc6358	0.49294543
13	0xbe09e770	-0.13467193
14	0xbe16bc7a	-0.14720336
15	0xbea71c18	-0.3263862
16	0x3ea4f8ee	0.32221168
17	0x3e2b0d6e	0.16704342
18	0x3da2b1ee	0.07944094
19	0x3cd375b0	0.025812954

gat_layer_0.attention_1.W f4 [5, 10]
0	0xbf527a4b	-0.82217854
1	0xbcb639ba	-0.022244323
2	0xbd1e9d24	-0.03872408
3	0xbbbb98ab	-0.0057249865
4	0xbdb61a90	-0.08891785
5	0xbe657020	-0.22406054
6	0xbf56e4ca	-0.83942854
7	0x3f3ca606	0.7369083
8	0xbf42c5b7	-0.7608294
9	0xbf32ed64	-0.6989348
10	0x3eba75a1	0.3641787
11	0xbf57eac8	-0.8434262
12	0xbf334ccd	-0.70039064
13	0x3f3328c6	0.6998409
14	0x3f5f28de	0.87171733
15	0xbec41541	-0.38297465
16	0x3f3f3960	0.7469692
17	0xbe97043b	-0.29495415
18	0xbd343e3d	-0.044004668
19	0x3e247853	0.16061525
20	0x3d270845	0.04077937
21	0x3f0960e2	0.53663456
22	0xbf0b1cb8	-0.54340696
23	0xbe975d39	-0.2956331
24	0xbe454f87	-0.19268619
25	0xbee0e315	-0.4392325
26	0x3f460489	0.7735067
27	0x3de26075	0.11053554
28	0xbf39ebba	-0.72625315
29	0xbee3d85a	-0.44501
30	0x3f054ac6	0.5206722
31	0x3df40182	0.1191435
32	0x3ebe4b01	0.37166598
33	0x3ec53cb8	0.38522887
34	0x3d571183	0.052506935
35	0x3f45338c	0.7703178
36	0xbec4f38d	-0.38467064
37	0x3f6140ec	0.8798969
38	0xbecc7598	-0.39933467
39	0xbd40f244	-0.047106043
40	0xbf19c31a	-0.60063326
41	0xbea9001e	-0.33007902
42	0x3f52f974	0.82411885
43	0xbf2d2658	-0.6763663
44	0x3f17376d	0.5906895
45	0x3f26f131	0.6521178
46	0xbf0a262d	-0.539645
47	0xbf037ccc	-0.513623
48	0xbf477e1c	-0.779268
49	0xbf247fbc	-0.6425741

gat_layer_0.attention_1.a f4 [20, 1]
0	0xbebd9d0b	-0.37033877
1	0x3d9e6144	0.07733396
2	0x3e9976e9	0.29973534
3	0xbe7ae30d	-0.24500675
4	0x3e800e40	0.25010872
5	0xbebb61e6	-0.36598128
6	0xbf0bb50d	-0.54573137
7	0xbf00fe26	-0.503878
8	0xbdd71bb0	-0.10503328
9	0xbe8a70fa	-0.2703932
10	0x3f0b6c1d	0.5446184
11	0x3e328857	0.17434822
12	0xbe9812ef	-0.29701945
13	0xbea1f778	-0.31634116
14	0x3e3d31f0	0.18476081
15	0x3e09ca83	0.13456158
16	0xbecd8da3	-0.40147123
17	0xbef30681	-0.474659
18	0x3f30a275	0.6899789
19	0x3d00e7fc	0.031471238

gat_layer_0.attention_2.W f4 [5, 10]
0	0x3f52c9fd	0.8233946
1	0xbee7f593	-0.45304546
2	0xbe07443c	-0.13209623
3	0x3f477f88	0.7792897
4	0x3f2e9b9a	0.6820618
5	0x3da456be	0.08024357
6	0xbf1a1bbe	-0.6019858
7	0xbf090bab	-0.5353343
8	0xbf1e8239	-0.61917454
9	0xbf09aae2	-0.5377637
10	0x3e85f0a1	0.26160148
11	0xbf604714	-0.87608457
12	0xbf55e945	-0.83559066
13	0x3e2a790e	0.16647741
14	0xbe653d5f	-0.22386692
15	0xbeb9a9b7	-0.36262295
16	0xbf5ea41a	-0.8696915
17	0x3e90d7cf	0.2828965
18	0xbda531cd	-0.08066139
19	0xbec94fef	-0.39318797
20	0xbf07b43f	-0.5300941
21	0x3f353e1e	0.7079791
22	0x3f390aed	0.72282296
23	0xbeb36d26	-0.3504421
24	0x3eec8d5c	0.462016
25	0x3e3d85bc	0.18508047
26	0xbf071da4	-0.52779603
27	0xbeed47b7	-0.46343777
28	0x3f5f83a2	0.8731023
29	0x3f2278f5	0.63465816
30	0xbf6039f5	-0.87588435
31	0x3e965113	0.2935873
32	0x3f223cad	0.63373834
33	0x3e7eb15e	0.24872348
34	0xbf16691e	-0.58754146
35	0xbe650741	-0.22366048
36	0xbf3175b4	-0.69320226
37	0xbea7077b	-0.32622895
38	0xbf00b003	-0.5026857
39	0x3f0ca17b	0.549339
40	0xbd9403fc	-0.072273225
41	0xbe1feead	-0.15618391
42	0xbf2dadaa	-0.67843115
43	0x3e3a4897	0.18191753
44	0x3d1ea9c2	0.038736112
45	0xbea214f9	-0.31656626
46	0xbf5848bf	-0.84486
47	0xbf59433e	-0.8486823
48	0xbe1af293	-0.15131597
49	0x3ea5a2ea	0.32350856

gat_layer_0.attention_2.a f4 [20, 1]
0	0xbee8ee6e	-0.45494407
1	0xbe952742	-0.29131514
2	0xbebb603d	-0.3659686
3	0xbf1ecbd6	-0.6202978
4	0xbf3a69f7	-0.7281794
5	0x3f05ed4c	0.5231521
6	0x3cb4ce8c	0.022071145
7	0x3f08c1bb	0.5342061
8	0x3ee8e532	0.45487362
9	0x3f0fbbd9	0.5614601
10	0x3f398753	0.72472113
11	0xbf2e7ba5	-0.68157417
12	0xbf01250d	-0.5044716
13	0x3e7040d3	0.23462228
14	0x3eff45ee	0.4985804
15	0x3e840c73	0.25790748
16	0x3f27150f	0.6526651
17	0xbe93b1ef	-0.2884669
18	0xbf026352	-0.509328
19	0xbef86afd	-0.48519126

gat_layer_0.attention_3.W f4 [5, 10]
0	0xbeaee650	-0.3416009
1	0xbdd4f0f2	-0.10397519
2	0x3db0c53b	0.08631369
3	0x3ec80678	0.39067435
4	0xbe9713e5	-0.29507366
5	0xbf48b693	-0.78403586
6	0xbf235cd0	-0.63813496
7	0x3f5f04a9	0.87116486
8	0xbd6f7735	-0.058463294
9	0xbf03b03b	-0.5144078
10	0xbf304751	-0.6885882
11	0x3e21f662	0.15816644
12	0x3df9523f	0.1217389
13	0x3e118028	0.14209044
14	0xbed537f4	-0.4164425
15	0xbf108495	-0.56452304
16	0xbf256d32	-0.64619744
17	0x3e3b6251	0.18299223
18	0x3f116f05	0.5681003
19	0x3e24dec0	0.16100597
20	0x3f15cde1	0.5851727
21	0x3f37753d	0.71663266
22	0xbe82d004	-0.25549328
23	0x3deb4c45	0.11489157
24	0x3eb26083	0.34839258
25	0xbf28dbae	-0.65960205
26	0x3eda3b2b	0.42623267
27	0xbf1b0b43	-0.6056406
28	0xbf02c900	-0.5108795
29	0x3eb6881e	0.35650724
30	0xbddf4d27	-0.109033875
31	0xbc716694	-0.014733929
32	0xbf17d72f	-0.5931272
33	0x3ef92012	0.4865728
34	0x3f22508b	0.6340415
35	0xbf39db60	-0.72600365
36	0xbef2191b	-0.4728478
37	0xbf2f00fe	-0.6836089
38	0x3f1f322e	0.62185943
39	0x3e40b0d9	0.18817462
40	0x3f2f5b4a	0.6849867
41	0x3ea71a69	0.32637337
42	0xbf41ccda	-0.75703204
43	0x3ee796cb	0.45232233
44	0x3e0a7d35	0.13524325
45	0xbeb39370	-0.35073423
46	0xbf215fd8	-0.6303687
47	0x3e27508a	0.16339317
48	0x3f2fd87f	0.6868972
49	0xbf274820	-0.6534443

gat_layer_0.attention_3.a f4 [20, 1]
0	0xbea89ee2	-0.32933718
1	0x3d2513b9	0.040302012
2	0x3efb154e	0.49039692
3	0x3f3f0be9	0.7462755
4	0x3f27454d	0.6534012
5	0x3f2ad761	0.6673489
6	0xbd16c040	-0.036804438
7	0x3f3ebc74	0.74506307
8	0x3da30d38	0.07961506
9	0xbf052338	-0.52006865
10	0xbe829782	-0.25506216
11	0xbf140264	-0.5781615
12	0xbd6c4759	-0.05768523
13	0xbf2534f7	-0.6453394
14	0xbebef4bc	-0.37296093
15	0x3da3d85b	0.08000251
16	0x3ef25af3	0.47335014
17	0x3c95b740	0.018275857
18	0x3ee3054d	0.44339982
19	0x3dfc5578	0.12320989

gat_layer_0.attention_4.W f4 [5, 10]
0	0xbe9dde7e	-0.3083381
1	0xbf3e4b3a	-0.74333537
2	0x3f4be975	0.796531
3	0x3eaf040b	0.34182772
4	0x3c7271b6	0.014797619
5	0x3e989d71	0.29807618
6	0x3eed9498	0.4640243
7	0x3e764d49	0.2405292
8	0xbeb1faf8	-0.34761786
9	0xbf299b39	-0.66252476
10	0xbdffefe8	-0.1249693
11	0xbeeba06c	-0.4602083
12	0xbf5cd56e	-0.8626317
13	0xbf14c559	-0.5811363
14	0x3ecc1796	0.39861745
15	0x3efc1657	0.49235794
16	0xbf27301d	-0.6530779
17	0xbe8e161e	-0.2775125
18	0x3eaee4d4	0.34158957
19	0x3ede5d8f	0.43430755
20	0xbf2fc593	-0.6866085
21	0x3f03d649	0.5149885
22	0xbea15ced	-0.3151621
23	0xbee96f05	-0.45592514
24	0xbf2bf697	-0.6717314
25	0x3e6c1d38	0.23058021
26	0x3dbd4d40	0.0924325
27	0x3ef5b8b3	0.47992477
28	0xbe1ca930	-0.15298915
29	0x3f27189d	0.6527193
30	0xbe538e46	-0.20659742
31	0xbe8055d0	-0.2506547
32	0xbee96acd	-0.45589295
33	0x3f140b6a	0.57829916
34	0xbf638ed2	-0.888898
35	0x3e48f508	0.19624722
36	0xbf3a42f8	-0.72758436
37	0xbef102b0	-0.47072363
38	0xbf4adc51	-0.79242426
39	0x3f395783	0.7239916
40	0xbf1e5698	-0.6185088
41	0x3f3f8e4e	0.74826515
42	0x3f13c101	0.57716376
43	0xbd862810	-0.0655061
44	0xbe87bd5c	-0.26511657
45	0x3f4cb6d7	0.7996649
46	0x3f4ea57e	0.8072127
47	0x3f4bf122	0.79664814
48	0xbf5199dc	-0.81875396
49	0x3e241038	0.16021812

gat_layer_0.attention_4.a f4 [20, 1]
0	0x3cc6a347	0.024247779
1	0xbee74293	-0.4516798
2	0xbeef8dd7	-0.46787903
3	0xbedacfdb	-0.42736706
4	0xbe8f98c7	-0.28046247
5	0x3f0bca17	0.5460524
6	0x3ed9e031	0.42553857
7	0x3e264d32	0.16240385
8	0xbee5a37c	-0.4485129
9	0x3ec67c13	0.38766536
10	0x3f274b0b	0.6534888
11	0x3f2452e5	0.64188987
12	0xbe6ea1c1	-0.23303892
13	0x3f1579ae	0.58388793
14	0x3ec4d14c	0.3844093
15	0x3f041e6b	0.51608914
16	0x3ed47173	0.41492805
17	0x3efa6a19	0.4890907
18	0x3f0f0409	0.5586553
19	0xbf10ea67	-0.5660767

gat_layer_0.out_att.W f4 [50, 5]
0	0xbed09dde	-0.40745443
1	0xbe8cde03	-0.27513131
2	0x3ccc77fd	0.024959559
3	0xbe6ded86	-0.23235139
4	0xbe7c7fb8	-0.24658096
5	0xbef27a29	-0.47358826
6	0x3d87b142	0.06625606
7	0xbe8e5880	-0.27801895
8	0x3e0a64e7	0.13515054
9	0xbe30b623	-0.1725698
10	0x3e985ef2	0.29759938
11	0xbeafd740	-0.3434391
12	0x3e4deab8	0.2010907
13	0x394a34a4	0.00019283831
14	0x3e898793	0.26861247
15	0xbd13d139	-0.036088202
16	0xbe3c3f74	-0.1838358
17	0x3dd2bb6e	0.102896556
18	0x3eaff866	0.343692
19	0xbeb79ccb	-0.3586181
20	0x3ec6433d	0.38723174
21	0xbd429d4e	-0.0475133
22	0x3e0c7c75	0.13719352
23	0x3e6b417c	0.22974199
24	0x3edb5393	0.428372
25	0xbea0291d	-0.31281367
26	0x3cb7f878	0.022457346
27	0x3eb794f6	0.35855836
28	0x3e90b062	0.2825957
29	0xbe5e8032	-0.2172859
30	0x3ed0d1af	0.40784976
31	0x3e73a65a	0.23793927
32	0xbea9e901	-0.3318558
33	0xbe98a44e	-0.29812855
34	0x3e4668e5	0.19375952
35	0xbef3f776	-0.47649735
36	0x3cbaab29	0.022786694
37	0x3e8bd1e2	0.27308565
38	0xbe88a521	-0.26688483
39	0x3ce65ed6	0.028121393
40	0x3e3f01f3	0.18653087
41	0xbe832907	-0.2561724
42	0xbd45d1cc	-0.04829578
43	0x3dca3f28	0.09875327
44	0x3ce2d17c	0.02768778
45	0xbeb9b792	-0.36272866
46	0x3e691576	0.22762093
47	0xbe089424	-0.13337761
48	0xbe962969	-0.29328468
49	0x3e8140a4	0.2524463
50	0xbe9ced2f	-0.30649707
51	0x3e7abd4b	0.24486272
52	0xbe41b129	-0.18915237
53	0xbe893ecc	-0.26805723
54	0xbdb8860c	-0.090099424
55	0xbe3fb92b	-0.1872298
56	0x3e530b6a	0.20609823
57	0xbc6a4386	-0.014298325
58	0x3e6c51f0	0.23078132
59	0xbe9ea35e	-0.30984014
60	0xbd13aabc	-0.036051497
61	0x3ea1b461	0.3158293
62	0xbec9c13f	-0.39405248
63	0x3ec6d9ef	0.38838145
64	0x3ea2a4d7	0.31766388
65	0x3dd79df9	0.10528178
66	0x3e52d4ef	0.2058904
67	0xbe8c5ae3	-0.2741309
68	0x3e5e0c0f	0.21684287
69	0x3ee86da9	0.45396164
70	0x3ca3718c	0.019951604
71	0xbee961cb	-0.45582423
72	0x3e89885a	0.2686184
73	0xbeac8da2	-0.33701807
74	0x3eda2d50	0.42612696
75	0xbd9fa96d	-0.07795987
76	0xbd900f07	-0.07034116
77	0xbd4aadb7	-0.049482074
78	0x3eb52776	0.3538167
79	0xbee076bf	-0.43840596
80	0xbe605f8c	-0.21911448
81	0x3e83d453	0.25747928
82	0xbe22c6e5	-0.15896185
83	0x3ee70bc9	0.4512618
84	0x3ed53b2d	0.4164671
85	0x3d78c831	0.060737792
86	0xbe31205b	-0.17297499
87	0x3e6299b7	0.2212895
88	0xbccfd102	-0.025368217
89	0x3e33c47c	0.17555422
90	0xbee16a5b	-0.44026455
91	0xbd3626cb	-0.04447059
92	0xbc69a53b	-0.014260585
93	0x3d8b39bc	0.06798121
94	0x3ec1474b	0.37749705
95	0x3e9d3ef2	0.30712086
96	0xbe902e1f	-0.28160188
97	0xbe73dc06	-0.23814401
98	0x3ec4318b	0.38319048
99	0x3e6dc496	0.23219523
100	0x3e3f291d	0.18668027
101	0xbed9d4df	-0.4254522
102	0xbd91a53f	-0.07111596
103	0xbd631004	-0.055435196
104	0x3ebc4d57	0.36777756
105	0x3e9c0476	0.30472153
106	0x3ea378de	0.31928152
107	0xbcdc3c3a	-0.026884187
108	0xbe4e8778	-0.20168865
109	0xbed257da	-0.4108265
110	0x3ec7591c	0.38935173
111	0x3e940c7d	0.28915778
112	0xbe81eae6	-0.25374526
113	0xbe153819	-0.14572181
114	0x3ea0b47b	0.31387696
115	0x3c46d821	0.01213649
116	0xbe162141	-0.14661123
117	0xbe37f3b8	-0.17964065
118	0x3e3700b1	0.17871358
119	0xbe5c53e0	-0.21516371
120	0x3e142e66	0.14470825
121	0xbed300e7	-0.41211626
122	0x3dce18e2	0.1006334
123	0x3dc859d4	0.09782758
124	0xbd9c104d	-0.076202966
125	0x3d93354f	0.07187902
126	0x3e18b29b	0.14911883
127	0xbe91baa6	-0.28462714
128	0x3e9c6e12	0.30552727
129	0xbe733070	-0.23748946
130	0xbea0be0e	-0.31395
131	0xbe84665f	-0.25859353
132	0x3ea54029	0.32275513
133	0xbeea84b4	-0.4580437
134	0xbea7b1ef	-0.3275294
135	0x3eb23d6c	0.34812486
136	0xbd133ec8	-0.035948545
137	0xbed431d7	-0.41444275
138	0x3ee5760f	0.44816634
139	0xbeafd842	-0.3434468
140	0xbe6dc4ac	-0.23219556
141	0xbdb54ca2	-0.08852507
142	0x3e88ba74	0.26704752
143	0xbed225d1	-0.41044477
144	0x3e9b95dd	0.30387774
145	0x3ed1bc6c	0.40964067
146	0xbe28bbca	-0.16477886
147	0x3e5fb7ca	0.21847454
148	0xbea5131d	-0.32241145
149	0xbeb35516	-0.35025853
150	0x3bca7b02	0.0061792145
151	0x3ebddc0e	0.3708195
152	0xbd8f8aee	-0.070089206
153	0xbec792d6	-0.38979214
154	0x3ddbd794	0.10734478
155	0x3e93f2bb	0.28896126
156	0xbe1f2757	-0.1554235
157	0xbee1ece7	-0.44126055
158	0x3e7668b2	0.24063376
159	0x3e393f4c	0.18090552
160	0xbec569c0	-0.38557243
161	0x3e4f3288	0.2023412
162	0xbebcc5a7	-0.36869547
163	0x3e9c421f	0.30519196
164	0x3ed2e568	0.41190648
165	0xbed182c8	-0.4092009
166	0x3e3fdd63	0.18736796
167	0x3ed8051e	0.42191404
168	0x3e27dc1b	0.16392557
169	0x3eeb51a6	0.4596073
170	0xbe4827dd	-0.19546457
171	0xbe6c5521	-0.23079349
172	0x3ee819d7	0.45332214
173	0x3eb23504	0.34806073
174	0xbeb73c7a	-0.35788327
175	0xbe13c7df	-0.14431714
176	0x3ecf2219	0.40455702
177	0x3c25a85a	0.010110939
178	0x3ecb1f33	0.3967224
179	0x3e0c6bd8	0.13713014
180	0x3e580f25	0.21099527
181	0x3eb61853	0.35565433
182	0x3e92e330	0.28688955
183	0xbebb57b9	-0.36590365
184	0x3d842d1b	0.06453916
185	0xbeb18aa7	-0.34676096
186	0x3e5206c3	0.20510392
187	0x3e8480ea	0.25879604
188	0x3df2b106	0.11850171
189	0xbe84b8d4	-0.25922263
190	0xbea8c59c	-0.32963264
191	0x3e964259	0.29347494
192	0x3d86fca8	0.06591159
193	0xbe9467b6	-0.28985375
194	0xbec407dd	-0.3828725
195	0x3eb282bd	0.3486537
196	0x3e64326c	0.2228486
197	0xbea57247	-0.3231375
198	0x3e1a3c99	0.15062179
199	0x3d0ee694	0.034887865
200	0xbe4a3ae2	-0.19749025
201	0x3eb0d9d1	0.3454118
202	0x3e98ccde	0.298438
203	0xbdc4ae8a	-0.09603603
204	0xbe4858d5	-0.19565137
205	0x3bad0c49	0.0052810055
206	0x3ea88f88	0.32922006
207	0x3dafe406	0.08588414
208	0x3e98466f	0.29741237
209	0xbe6e9e4a	-0.2330257
210	0x3de24d94	0.11049953
211	0x3e811dd0	0.25218058
212	0x3d2a7e74	0.0416245
213	0xbd85ad70	-0.06527221
214	0x3e5b0b92	0.21391132
215	0xbda2907b	-0.07937714
216	0xbec5a377	-0.38601276
217	0x3ebc06bf	0.36723897
218	0xbe140f11	-0.14458872
219	0x3e8df12d	0.27723065
220	0x3ed9d7b1	0.42547372
221	0x3ed3d5f1	0.41374162
222	0x3d1417a0	0.036155343
223	0xbec657ad	-0.38738766
224	0x3da497da	0.08036776
225	0xbe4d289f	-0.20035027
226	0xbeae9e39	-0.3410509
227	0x3c9ffc15	0.019529382
228	0xbe09204d	-0.13391228
229	0x3e1fea69	0.15616764
230	0xbdbc44b5	-0.09192792
231	0xbdafd2c7	-0.085851245
232	0xbed86bbd	-0.42269698
233	0x3e81d404	0.25357068
234	0xbeeb3737	-0.45940563
235	0xbe24d61f	-0.16097306
236	0x3c26addf	0.01017329
237	0xbdc467d1	-0.09590114
238	0x3eb95a5d	0.36201754
239	0xbe81f893	-0.2538496
240	0xbe5dd77b	-0.2166423
241	0xbee3e27a	-0.44508725
242	0x3ec821e3	0.39088354
243	0xbe872063	-0.26391897
244	0x3ea56677	0.32304737
245	0x3cfd4bed	0.030919993
246	0xbee09df9	-0.43870524
247	0x3ec2b502	0.38028723
248	0xbee8de46	-0.4548208
249	0xbe366891	-0.17813326

gat_layer_0.out_att.a f4 [10, 1]
0	0x3e157e9b	0.14599077
1	0x3f7efae2	0.99601567
2	0xbf2a38f5	-0.6649316
3	0xbed99624	-0.4249736
4	0xbede6de4	-0.43443215
5	0xbf430fe4	-0.7619612
6	0x3eca4083	0.39502344
7	0xbdd83b5d	-0.10558198
8	0xbf80512f	-1.0024775
9	0xbf36924b	-0.71316975

gat_layer_1.attention_0.W f4 [5, 10]
0	0x3c4df866	0.01257143
1	0xbe919d55	-0.28440347
2	0x3f0e6261	0.55618864
3	0xbf53bc38	-0.82709074
4	0x3eee626c	0.46559465
5	0xbe3f5686	-0.1868535
6	0x3ea78691	0.32719854
7	0xbce2fe40	-0.027709126
8	0xbf3ae52d	-0.73005944
9	0xbf0c80f7	-0.54884285
10	0x3f35a9fa	0.7096249
11	0xbf4a927f	-0.79129785
12	0xbedd76c0	-0.43254662
13	0xbd65e0bf	-0.056122538
14	0xbf52fb84	-0.8241503
15	0xbd2724f1	-0.040806714
16	0xbf35d24e	-0.71024024
17	0xbf39826d	-0.7246464
18	0xbf232a3a	-0.6373631
19	0x3f08f233	0.53494567
20	0x3ee7f77b	0.45306
21	0xbf2b7ac2	-0.6698419
22	0x3f3d9c7a	0.7406689
23	0xbe65364b	-0.22383992
24	0x3f2c517e	0.6731185
25	0x3cf5c0c5	0.029999146
26	0xbef731ab	-0.4828008
27	0x3f62b305	0.8855441
28	0x3e000d76	0.12505135
29	0x3f487130	0.7829771
30	0x3def54a4	0.11686066
31	0xbf49d687	-0.7884297
32	0x3ec05054	0.37561285
33	0xbdc0ddd7	-0.094173126
34	0x3e62680d	0.22110005
35	0x3f58184f	0.8441209
36	0xbf05738d	-0.5212944
37	0xbf2b39d3	-0.6688511
38	0xbe6582ec	-0.22413224
39	0xbd354664	-0.044256583
40	0xbe6958be	-0.22787759
41	0x3f4143bc	0.7549398
42	0x3f5617f3	0.83630294
43	0x3f45e67d	0.7730482
44	0xbf5686df	-0.83799547
45	0xbf1f895b	-0.6231896
46	0x3f1dd4b9	0.61652714
47	0xbea9a6eb	-0.3313516
48	0x3f065663	0.52475566
49	0x3edefe07	0.43553182

gat_layer_1.attention_0.a f4 [20, 1]
0	0x3e395b72	0.1810129
1	0xbf047408	-0.5173955
2	0xbe5c4be6	-0.21513328
3	0xbec832d2	-0.39101273
4	0x3f3fdf01	0.7494965
5	0xbf3abef3	-0.72947615
6	0xbea49c82	-0.32150656
7	0xbf3870a9	-0.72046906
8	0x3f39bb1c	0.7255113
9	0xbf28c42a	-0.6592432
10	0x3f3c55fe	0.73568714
11	0xbe22b65c	-0.15889877
12	0xbe534e85	-0.20635422
13	0xbe0f4c50	-0.13993955
14	0x3f2f0ec6	0.6838192
15	0x3e5695b6	0.20955548
16	0x3ee8f03f	0.45495793
17	0xbe5e1a53	-0.2168973
18	0xbf380238	-0.71878386
19	0xbe3c4b62	-0.18388131

gat_layer_1.attention_1.W f4 [5, 10]
0	0x3f091ba7	0.5355782
1	0xbca1cafa	-0.019750107
2	0x3f02559d	0.50911885
3	0x3efaa613	0.4895483
4	0xbee68036	-0.45019692
5	0xbe821df2	-0.2541347
6	0x3d08ec22	0.03342832
7	0x3d2d124c	0.042253777
8	0xbf15bc49	-0.58490425
9	0x3e2c4e81	0.16826822
10	0xbf5f4bee	-0.87225235
11	0x3dc88854	0.097916275
12	0xbf3569f8	-0.7086482
13	0x3f585418	0.84503317
14	0xbe703f74	-0.23461705
15	0xbea61e05	-0.32444778
16	0x3e098253	0.13428621
17	0xbf4bfcab	-0.79682416
18	0x3ee7336c	0.4515642
19	0x3ed3e55e	0.4138593
20	0x3f05288f	0.5201501
21	0xbf24d07a	-0.6438061
22	0xbf559741	-0.8343392
23	0xbeb50a99	-0.35359648
24	0xbe5b9353	-0.21442918
25	0xbe3dff5c	-0.18554443
26	0x3f15f61d	0.58578664
27	0xbde91878	-0.1138162
28	0xbf0d0105	-0.5507968
29	0xbeafe581	-0.34354785
30	0x3dc52b2b	0.09627374
31	0x3e956a50	0.29182673
32	0xbf3aca4c	-0.7296493
33	0x3ecde0d2	0.40210587
34	0xbe830b74	-0.25594676
35	0x3eb07bb8	0.3446939
36	0xbe0a88a5	-0.13528688
37	0xbe7a3e00	-0.24437714
38	0xbe622daf	-0.2208774
39	0x3e3f4358	0.18678033
40	0xbf3853a9	-0.72002655
41	0x3f075ce6	0.52876127
42	0xbef5b817	-0.47992012
43	0xbeb791d3	-0.35853443
44	0x3e742c34	0.23844987
45	0x3dde3785	0.10850433
46	0x3e1de24f	0.15418361
47	0xbf60ab67	-0.8776154
48	0xbed9b890	-0.42523623
49	0xbd725cce	-0.059170537

gat_layer_1.attention_1.a f4 [20, 1]
0	0xbf0e6884	-0.5562823
1	0x3e112ac4	0.1417647
2	0xbe1b193e	-0.15146348
3	0xbec48218	-0.38380504
4	0x3e5d3ed5	0.21606
5	0xbe0b7f97	-0.1362289
6	0x3bf8ed03	0.0075966134
7	0x3f3ed640	0.7454567
8	0xbecf637e	-0.40505594
9	0xbe8903f5	-0.2676083
10	0x3f1c9f29	0.6118036
11	0x3c7ce84e	0.015436245
12	0x3edf15e5	0.43571392
13	0xbf26f88d	-0.6522301
14	0xba3b20e6	-0.0007138386
15	0xbec5dd18	-0.38645244
16	0xbeac8f14	-0.3370291
17	0x3f353f0c	0.70799327
18	0xbd4e8db2	-0.0504281
19	0x3f24f0ab	0.6442973

gat_layer_1.attention_2.W f4 [5, 10]
0	0xbdd83861	-0.105576284
1	0xbf47f9a8	-0.7811532
2	0xbeb4833e	-0.3525638
3	0xbe9f6a0b	-0.31135592
4	0xbf5cd56f	-0.86263174
5	0xbe9ebbf5	-0.31002775
6	0x3f3f0f01	0.7463227
7	0xbe46b660	-0.19405508
8	0x3ea873b1	0.32900766
9	0xbc5bcccf	-0.013415529
10	0x3eea1996	0.45722646
11	0xbf4d929e	-0.80301845
12	0x3c6b2d5a	0.014354074
13	0x3f2306a9	0.6368204
14	0x3f65d6b9	0.89780766
15	0xbea4a09b	-0.32153782
16	0xbed5b1d9	-0.4173725
17	0xbe3aee23	-0.18254904
18	0xbf08c178	-0.5342021
19	0x3b9e0d94	0.004823396
20	0x3de91f85	0.11382965
21	0x3ee646d6	0.4497592
22	0xbf355645	-0.7083476
23	0x3f1b6dee	0.60714614
24	0x3ef7441a	0.48294145
25	0x3ed7658a	0.42069656
26	0xbf4a7be2	-0.7909528
27	0x3e6d3b7a	0.2316722
28	0x3d56ce06	0.052442573
29	0x3e5f99ef	0.21836065
30	0x3de176e2	0.11009003
31	0xbcadd3c2	-0.021219138
32	0x3e349a1a	0.1763691
33	0x3e21e0ce	0.15808412
34	0x3f277562	0.65413487
35	0xbe5ca5fd	-0.21547695
36	0xbef4548c	-0.47720754
37	0xbe4b88d2	-0.19876412
38	0x3c41327c	0.011791822
39	0x3eb887e7	0.36041185
40	0x3e5a1bd2	0.21299675
41	0xbe9308a9	-0.28717545
42	0xbf2b182a	-0.66833746
43	0x3f4eca65	0.8077758
44	0x3f21bdf8	0.63180494
45	0xbe52dd51	-0.20592238
46	0x3eba7c39	0.364229
47	0xbb971cf1	-0.0046116044
48	0x3e0f5025	0.13995416
49	0x3dc7aeda	0.09750147

gat_layer_1.attention_2.a f4 [20, 1]
0	0x3ec910c4	0.39270604
1	0x3f0f457e	0.5596541
2	0xbe9bb124	-0.30408585
3	0x3f17794e	0.5916947
4	0x3f1e0c3c	0.6173742
5	0xbf345009	-0.70434624
6	0xbececa29	-0.4038861
7	0x3c7f67a1	0.015588672
8	0xbf3203c6	-0.6953701
9	0x3e8803e1	0.2656546
10	0x3f31b574	0.694175
11	0x3d3da162	0.046296485
12	0xbc42efac	-0.011897963
13	0xbe996e3e	-0.2996692
14	0xbf2eab25	-0.68229896
15	0xbef31560	-0.47477245
16	0x3ea223c2	0.31667906
17	0xbd0c19cb	-0.034204286
18	0xbe2238ff	-0.15842055
19	0xbe441c44	-0.19151407

gat_layer_1.attention_3.W f4 [5, 10]
0	0x3f0f5578	0.5598979
1	0xbf62ccfc	-0.8859403
2	0x3edb6a41	0.42854503
3	0xbf615a49	-0.8802839
4	0x3f424317	0.7588362
5	0xbe3b81c0	-0.18311214
6	0xbf21e7e3	-0.63244456
7	0xbf4e2288	-0.8052144
8	0x3f68f8b9	0.9100452
9	0xbd9792ff	-0.07401084
10	0x3da423cc	0.0801464
11	0xbefb16f4	-0.4904095
12	0xbdfcc702	-0.12342645
13	0x3f30a7fd	0.6900633
14	0x3f12db62	0.57366
15	0x3f041e8f	0.5160913
16	0xbebfed6a	-0.3748582
17	0x3e858a0f	0.26081893
18	0x3f341212	0.70340073
19	0x3f302951	0.68813044
20	0x3f2c87d2	0.67394745
21	0x3edf43c0	0.43606377
22	0xbe19ad0b	-0.15007417
23	0xbf382d19	-0.71943814
24	0xbf253506	-0.6453403
25	0x3f3f26fa	0.7466885
26	0x3f26f8f0	0.652236
27	0x3d9b275e	0.07575868
28	0xbf2a5734	-0.6653931
29	0x3da887f3	0.08229055
30	0xbe9d3329	-0.30703095
31	0xbf57b8ef	-0.8426656
32	0xbebdcad0	-0.37068796
33	0xbece75d4	-0.4032427
34	0x3f32b749	0.6981092
35	0xbe98b754	-0.29827368
36	0x3e6a8c78	0.22905147
37	0xbe9b1132	-0.30286556
38	0x3eebfda1	0.4609194
39	0xbf229919	-0.6351486
40	0xbf188058	-0.5957084
41	0x3f347250	0.7048693
42	0xbf5727ad	-0.84044915
43	0xbef33ce2	-0.47507387
44	0x3f26c09a	0.65137637
45	0x3f57ae84	0.84250665
46	0xbd70aa9c	-0.058756456
47	0xbece0bd4	-0.402434
48	0x3efa3f1c	0.48876274
49	0x3ec3540d	0.38150063

gat_layer_1.attention_3.a f4 [20, 1]
0	0xbf095d22	-0.53657734
1	0xbe431dd1	-0.19054343
2	0xbeeb100a	-0.45910674
3	0xbe68103d	-0.22662444
4	0xbe846c01	-0.2586365
5	0x3f01bcde	0.50678813
6	0x3c0e204c	0.008674692
7	0x3ed0f3f6	0.40811127
8	0x3e0b14f4	0.13582212
9	0xbe8d0c86	-0.27548617
10	0x3f086918	0.5328536
11	0xbe44585f	-0.19174336
12	0xbecc16e5	-0.39861217
13	0x3f3681ad	0.7129162
14	0xbebcbc25	-0.36862293
15	0xbd79ea1f	-0.06101429
16	0x3efae703	0.49004373
17	0x3f1a386b	0.60242337
18	0xbeb417f8	-0.35174537
19	0x3edf9acf	0.43672797

gat_layer_1.attention_4.W f4 [5, 10]
0	0x3f5422da	0.8286568
1	0x3edca22b	0.43092474
2	0x3ee65d02	0.44992834
3	0x3dad1419	0.08451099
4	0x3e10fdc9	0.14159311
5	0x3e033079	0.1281146
6	0xbf0afbe2	-0.5429059
7	0x3f2cfe64	0.6757567
8	0xbf1e53b8	-0.61846495
9	0x3edc6027	0.43042108
10	0xbec22c38	-0.3792436
11	0xbf510d7b	-0.81661195
12	0x3ef5082e	0.47857803
13	0x3f2c7c52	0.673772
14	0x3f4ebfd3	0.8076145
15	0x3f331621	0.6995564
16	0xbf1e7aff	-0.6190643
17	0x3f2ff6eb	0.6873614
18	0xbf5c7dc8	-0.86129427
19	0x3f0faa6f	0.56119436
20	0xbe019431	-0.12654187
21	0x3f5802fc	0.84379554
22	0xbf4f7b02	-0.8104707
23	0xbe5baf9e	-0.21453711
24	0xbf4b3334	-0.79375005
25	0xbf1d5e08	-0.61471605
26	0xbf58bda7	-0.84664387
27	0x3e237e5d	0.15966173
28	0xbefeaa31	-0.4973922
29	0xbf299854	-0.6624806
30	0xbf2990a8	-0.6623635
31	0xbf31665c	-0.69296813
32	0x3f11366a	0.56723654
33	0xbe6fd02e	-0.23419258
34	0x3f4cd804	0.80017114
35	0x3f1d3c51	0.6142016
36	0x3f4c4670	0.7979498
37	0xbe8f905b	-0.28039822
38	0x3da2c401	0.07947541
39	0xbe82cc75	-0.25546613
40	0xbeef342e	-0.46719497
41	0xbee81534	-0.45328677
42	0x3f39488c	0.7237632
43	0x3f41dcd7	0.757276
44	0x3f13f709	0.5779882
45	0xbf42a33d	-0.7603033
46	0xbd63ac76	-0.055584393
47	0x3ef9654c	0.48710096
48	0x3f4dfa28	0.80459833
49	0x3ea2776c	0.31731737

gat_layer_1.attention_4.a f4 [20, 1]
0	0xbf411766	-0.7542633
1	0xbeda0402	-0.42581183
2	0xbec61f38	-0.38695693
3	0x3d88adea	0.066737965
4	0x3edbe038	0.42944503
5	0x3ead2cfd	0.33823386
6	0x3eb434e4	0.35196602
7	0x3e0a9214	0.13532287
8	0x3f3aefbe	0.7302207
9	0x3efec6b5	0.49760976
10	0x3da505ec	0.0805777
11	0x3e0c7491	0.13716342
12	0xbf15a98d	-0.5846184
13	0x3ecd989e	0.401555
14	0xbf294b35	-0.6613038
15	0x3f147f8a	0.5800711
16	0x3f0c0b71	0.5470496
17	0xbe70d124	-0.23517281
18	0xbe910911	-0.2832723
19	0x3ed73254	0.42030585

gat_layer_1.out_att.W f4 [50, 5]
0	0x3e28da94	0.16489631
1	0x3d065cd4	0.03280337
2	0x3cd699c2	0.026196364
3	0x3caac7cf	0.02084723
4	0xbd0199fe	-0.031641
5	0x3ecd79ad	0.40131894
6	0x3ed73056	0.42029065
7	0xbda31e1e	-0.07964729
8	0x3eb6f6f4	0.35735285
9	0x3e298e97	0.165583
10	0x3dca430f	0.09876072
11	0x3db948ff	0.09047126
12	0xbecc6c69	-0.3992646
13	0x3e4608df	0.19339322
14	0x3e5dea8d	0.21671505
15	0x3dd653b3	0.10465183
16	0x3d46953e	0.048482172
17	0x3d95f14c	0.07321414
18	0xbe55fb21	-0.2089658
19	0xbee0ee18	-0.4393165
20	0xbe0c9d24	-0.1373182
21	0xbe0a5016	-0.13507113
22	0xbe6853eb	-0.22688262
23	0x3ee481fd	0.44630423
24	0x3eccbd28	0.39988065
25	0x3ea4da2e	0.32197708
26	0x3dc127e0	0.09431434
27	0x3e55cd48	0.2087909
28	0x3e40d14c	0.1882984
29	0xbe867cf8	-0.2626722
30	0xbed682b3	-0.4189659
31	0xbeca1449	-0.394686
32	0x3e84487d	0.25836554
33	0x3ddffffd	0.10937498
34	0xbe879ac0	-0.26485252
35	0xbeca55b1	-0.39518502
36	0xbe966bc8	-0.29379106
37	0xbe0486e7	-0.12942086
38	0x3d7d33d0	0.06181699
39	0x3c276832	0.010217713
40	0x3ee3a0b0	0.44458532
41	0x3e203570	0.15645385
42	0xbe9c1458	-0.3048427
43	0x3e7aa099	0.24475326
44	0xbe53a788	-0.20669377
45	0x3dbdf60f	0.092754476
46	0x3ee548d4	0.44782126
47	0x3e814e44	0.25255024
48	0x3d4cbfbd	0.049987543
49	0x3ed9db21	0.42549995
50	0xbe8c1599	-0.27360228
51	0xbc802276	-0.015641432
52	0xbd6b623e	-0.057466738
53	0xbebfaace	-0.37435
54	0xbd253986	-0.04033806
55	0xbec2762b	-0.3798078
56	0xbd484b2e	-0.048899822
57	0x3b9d5a70	0.0048020408
58	0x3e256e93	0.16155462
59	0xbeba2ebf	-0.3636379
60	0x3ea90fef	0.3301997
61	0xbe43d34f	-0.19123577
62	0xbe757354	-0.23969775
63	0x3e9fcfd9	0.31213263
64	0xbee06f13	-0.43834743
65	0x3ecf8349	0.4052985
66	0x3ebfc4dc	0.3745488
67	0x3e12977d	0.143156
68	0x3ce0df8a	0.027450342
69	0x3ec7d59d	0.39030161
70	0xbc52d73f	-0.0128687015
71	0xbc25fdca	-0.010131309
72	0x3cb44b65	0.022008607
73	0x3e95f226	0.29286307
74	0x3e93a34a	0.28835517
75	0xbee70fe5	-0.45129314
76	0xbe3fdfde	-0.18737742
77	0xbe2f6e1b	-0.17131846
78	0xbebc44a7	-0.36771128
79	0x3edfb211	0.4369054
80	0xbe279ac9	-0.1636764
81	0x3dca33c3	0.09873154
82	0x3dabd652	0.08390488
83	0xbc8e2088	-0.017349496
84	0x3e5c14ae	0.21492264
85	0xbd270730	-0.04077834
86	0xbea705d8	-0.32621646
87	0x3e8d7596	0.27628773
88	0x3dbe2503	0.09284403
89	0x3e17e4e0	0.14833403
90	0xbd9d26be	-0.07673405
91	0x3e198505	0.14992149
92	0xb91f84c0	-0.00015212875
93	0x3e1bab04	0.15201956
94	0x3b16ea5a	0.0023027868
95	0x3ed60fb0	0.41808844
96	0x3ed4c579	0.4155691
97	0xbe19e2ba	-0.15027896
98	0xbe901f3c	-0.2814883
99	0x3e17918d	0.14801617
100	0x3e7bb3a7	0.2458025
101	0x3dfdd2b2	0.123937026
102	0xbebfd244	-0.37465107
103	0x3d3fecca	0.04685668
104	0xbecb6f12	-0.39733177
105	0xbbaf1633	-0.0053432225
106	0x3d5e809e	0.054321878
107	0x3e8f8ba9	0.2803624
108	0xbce9d7d3	-0.028545296
109	0xbeab2001	-0.33422855
110	0xbec61fa3	-0.38696012
111	0x3eac8844	0.33697712
112	0x3ebc17c0	0.3673687
113	0x3ed85907	0.42255422
114	0xbe688b6f	-0.2270944
115	0xbee66357	-0.44997665
116	0x3e0fe989	0.1405393
117	0x3e16c05b	0.14721815
118	0x3e5b535b	0.21418516
119	0xbeaeabb5	-0.34115377
120	0xbe89ebee	-0.26937813
121	0x3e70ae15	0.23503907
122	0x3eb216dc	0.34783065
123	0x3ef00df5	0.46885648
124	0xbe8c8559	-0.27445486
125	0x3dd3d41c	0.10343191
126	0x3e1e3bfd	0.15452571
127	0xbdea0785	-0.114272155
128	0xbebd732f	-0.3700194
129	0xbedd407d	-0.43213263
130	0xbed16a76	-0.40901536
131	0x3e089fad	0.13342161
132	0x3b3fae08	0.0029248018
133	0x3e9409d2	0.28913742
134	0x3e35c006	0.17749032
135	0x3e7ead12	0.24870709
136	0x3e11b549	0.14229311
137	0xbe72e428	-0.23719847
138	0x3edc6340	0.43044472
139	0xbedc71fa	-0.43055707
140	0x3de06ee3	0.1095865
141	0xbd9d892a	-0.076921776
142	0x3e6b1798	0.22958219
143	0x3eccfff3	0.40039024
144	0xbe085c7e	-0.13316533
145	0xbe17e2fe	-0.14832684
146	0xbe4a77b6	-0.19772229
147	0xbee04af1	-0.43807176
148	0x3da265b4	0.079295546
149	0x3e867332	0.26259762
150	0xbed03d1d	-0.40671626
151	0xbdcdd124	-0.10049656
152	0x3d33f6a6	0.043936394
153	0x3cdda480	0.027055979
154	0xbee99668	-0.45622563
155	0x3ea4edd2	0.32212692
156	0x3e7adfc3	0.24499421
157	0xbeaba916	-0.3352744
158	0xbe9a1c25	-0.30099598
159	0xbd35f994	-0.04442747
160	0xbe675ae8	-0.22593272
161	0xbe5dea86	-0.21671495
162	0x3eaba046	0.33520716
163	0xbed8af01	-0.42321017
164	0x3e4892d4	0.1958726
165	0xbed3c119	-0.4135826
166	0xbeaef842	-0.3417378
167	0x3e970eed	0.29503575
168	0xbdd6e81d	-0.10493491
169	0x3c80bd7e	0.015715357
170	0x3edcdce8	0.43137288
171	0x3e541c04	0.20713812
172	0xbe084ef7	-0.13311373
173	0x3ec24b1b	0.37947926
174	0xbed737dc	-0.42034805
175	0x3e582371	0.2110727
176	0xbdd9bb75	-0.10631458
177	0xbe9e1e21	-0.30882362
178	0x3d3dd87d	0.046349037
179	0x3eaee09e	0.34155744
180	0xbde71e6d	-0.112851
181	0x3cbf4d4c	0.023352288
182	0x3df6e831	0.12056006
183	0xbe8d33c3	-0.27578554
184	0x3ed62838	0.4182756
185	0xbed28b4a	-0.41121894
186	0x3eaa6127	0.33277246
187	0x3e30ca63	0.17264704
188	0xbd3ffdd2	-0.04687292
189	0x3e84d39a	0.2594269
190	0xbe56d441	-0.20979406
191	0xbe782a33	-0.24234848
192	0xbdeb7736	-0.11497347
193	0xbd00e8d9	-0.03147206
194	0x3ebf96e1	0.374198
195	0x3ec1afd0	0.37829447
196	0xbf0adfde	-0.54247844
197	0xbdd2ea44	-0.10298589
198	0x3ed291cd	0.41126862
199	0xbeb09267	-0.34486696
200	0xbd3922aa	-0.045199074
201	0xbd116d5d	-0.035504688
202	0x3e43aaa6	0.19108066
203	0x3df3be65	0.11901549
204	0x3ed8fddc	0.4238118
205	0xbc0316c1	-0.00800103
206	0xbe8c8754	-0.27446997
207	0x3d8b30a4	0.06796387
208	0xbea7daf2	-0.3278423
209	0x3c9f7c35	0.019468406
210	0xbec28915	-0.3799521
211	0xbea8123d	-0.32826415
212	0xbecc0f9f	-0.39855668
213	0xbd070dd3	-0.03297217
214	0x3e2b5cf3	0.16734676
215	0xbeca399a	-0.39497072
216	0x3ea1bc1a	0.31588823
217	0xbe30a7bd	-0.17251487
218	0x3e820869	0.2539704
219	0xbdd41914	-0.10356346
220	0xbe08b2bd	-0.13349433
221	0xbde1715d	-0.110079505
222	0x3ea92555	0.33036295
223	0x3ea2c618	0.3179176
224	0x3e803f61	0.25048354
225	0xbe87b609	-0.2650607
226	0xbeaf27c9	-0.3421004
227	0xba781a63	-0.0009464381
228	0xbea45189	-0.32093456
229	0x3dcc7e5b	0.09985038
230	0xbed6ac84	-0.41928494
231	0x3de9e0b2	0.1141981
232	0xbea40b8d	-0.32040063
233	0xbea5c6e1	-0.32378295
234	0xbe93c8f8	-0.28864264
235	0x3e22c290	0.15894532
236	0x3ec3716b	0.3817247
237	0x3e1186ba	0.1421155
238	0xbed2b0e5	-0.41150585
239	0x3e495735	0.19662173
240	0x3ddc6c08	0.10762793
241	0x3e198fad	0.14996214
242	0xbe9086c7	-0.28227827
243	0x3ec35634	0.38151705
244	0x3ed267be	0.41094774
245	0xbea9076f	-0.33013484
246	0xbdc4fddc	-0.09618732
247	0xbee2d2cd	-0.44301453
248	0x3e5c6c5f	0.21525715
249	0xbe1eb1d7	-0.15497528

gat_layer_1.out_att.a f4 [10, 1]
0	0x3f190644	0.59775186
1	0xbf32d42d	-0.69855005
2	0xbebcbc82	-0.3686257
3	0xbf86887d	-1.0510403
4	0xbe9dcdc6	-0.30821055
5	0xbedbc46b	-0.42923293
6	0x3e07f602	0.13277438
7	0x3f67b466	0.9050964
8	0xbf1888c5	-0.59583694
9	0xbe7f4345	-0.24928005

gat_layer_2.attention_0.W f4 [5, 10]
0	0x3bedc314	0.007255921
1	0xbef0b36d	-0.4701189
2	0xbdc16928	-0.09443885
3	0x3ca86a8a	0.020558614
4	0xbac31459	-0.0014883383
5	0xbe8f7545	-0.28019157
6	0xbeca1f62	-0.39477068
7	0xbe823995	-0.25434557
8	0x3e82c1a0	0.2553835
9	0xbf230bca	-0.63689864
10	0x3f43d76c	0.7650058
11	0x3f2968c4	0.66175485
12	0x3f095ded	0.53658944
13	0xbf1cc83d	-0.6124304
14	0xbe17c041	-0.14819433
15	0x3ea7d616	0.32780522
16	0x3d3a9d12	0.04555995
17	0xbda9032c	-0.08252558
18	0x3e3de80f	0.18545555
19	0xbf15ed94	-0.5856564
20	0xbe2f7102	-0.17132953
21	0x3f198d3b	0.59981126
22	0xbf621656	-0.8831533
23	0xbf03cc18	-0.514833
24	0x3e75a3e1	0.23988296
25	0x3f00e72d	0.50352746
26	0x3ee89b75	0.45431104
27	0xbf405845	-0.7513469
28	0x3e10b16e	0.14130184
29	0xbdf17e8d	-0.11791716
30	0x3e733063	0.23748927
31	0x3efa4906	0.48883837
32	0x3f2fa9cf	0.6861848
33	0x3f278965	0.6544402
34	0xbf005bc1	-0.50140005
35	0xbf49780c	-0.786988
36	0xbe9df081	-0.30847552
37	0x3f0e5ace	0.55607307
38	0xbf4b1ce9	-0.7934099
39	0x3e2a1912	0.16611126
40	0xbf601f21	-0.875475
41	0xbe8c1a36	-0.27363747
42	0xbe4f75ca	-0.20259777
43	0xbb6083fe	-0.003425836
44	0x3f3e93cc	0.7444427
45	0xbefde8de	-0.49591726
46	0xbda30618	-0.07960147
47	0xbf4cbbd8	-0.79974127
48	0xbf542aab	-0.82877606
49	0x3f33190d	0.699601

gat_layer_2.attention_0.a f4 [20, 1]
0	0xbed4b519	-0.41544417
1	0x3f1f18f8	0.62147474
2	0xbe1dd658	-0.15413797
3	0xbf3cfab4	-0.7382004
4	0xbe264d2a	-0.16240373
5	0x3f31ec2a	0.6950098
6	0x3eb06461	0.34451583
7	0xbdc1554b	-0.094400965
8	0xbbc35dc7	-0.005962107
9	0xbf32bace	-0.6981629
10	0xbdff321d	-0.1246073
11	0xbe80f1a6	-0.25184363
12	0xbe17bd74	-0.14818364
13	0x3f0ab4b6	0.54181993
14	0xbd396fd3	-0.04527266
15	0x3f398865	0.72473747
16	0xbf162d4c	-0.5866287
17	0xbebaee86	-0.36510104
18	0x3ee9f698	0.4569595
19	0xbee7ec21	-0.4529734

gat_layer_2.attention_1.W f4 [5, 10]
0	0x3ec297ae	0.38006347
1	0x3dd07c0c	0.1017991
2	0x3f3f7bc3	0.7479822
3	0x3f1f3ab9	0.6219898
4	0x3e958ea2	0.29210383
5	0x3e48bc97	0.19603191
6	0x3ec2e833	0.3806778
7	0xbf388ec9	-0.7209287
8	0x3e0db6f1	0.13839318
9	0x3ee2c9de	0.44294637
10	0xbdd78f5e	-0.10525392
11	0xbf56a0fc	-0.8383939
12	0xbf17ad7b	-0.59249085
13	0xbea92da6	-0.3304264
14	0xbe8921f5	-0.2678372
15	0x3ee91d31	0.45530084
16	0x3f544df2	0.82931435
17	0x3ef4885e	0.4776029
18	0xbe9e2a3b	-0.30891594
19	0x3e8ae2ad	0.27126065
20	0x3f08747a	0.5330273
21	0xbedc4b30	-0.43026114
22	0x3f3dd9f1	0.7416068
23	0x3f5ddb79	0.86663014
24	0xbdcdd7ad	-0.100509025
25	0xbe8a0f55	-0.26964822
26	0x3f4932d4	0.7859318
27	0x3f2eecb5	0.68329936
28	0xbe97968d	-0.2960705
29	0x3f7139e2	0.9422895
30	0xbe995127	-0.29944727
31	0xbec06a53	-0.3758112
32	0xbeb2946f	-0.3487887
33	0x3f3d1574	0.7386086
34	0x3f099d7e	0.5375594
35	0xbd35b39d	-0.044360746
36	0xbf5f48fa	-0.8722073
37	0x3ba1bd1a	0.0049358727
38	0xbf64cdb6	-0.8937639
39	0xbf280137	-0.65626854
40	0x3ebbf5f6	0.3671109
41	0x3f1e65b9	0.61873966
42	0x3f2ac591	0.6670771
43	0xbeb90408	-0.36135888
44	0xbf0d4d3d	-0.5519598
45	0xbea4c6dc	-0.32182968
46	0x3e03281c	0.1280827
47	0xbe648210	-0.2231524
48	0xbc586247	-0.013207025
49	0xbf498f95	-0.78734714

gat_layer_2.attention_1.a f4 [20, 1]
0	0xbf25b753	-0.64732856
1	0x3f0b91ba	0.54519236
2	0xbe3d81b5	-0.1850651
3	0x3ddbdb5c	0.10735199
4	0xbf348b0c	-0.7052467
5	0xbf0ab6c4	-0.5418513
6	0x3f1d0dc3	0.61349124
7	0x3e9dd275	0.30824628
8	0x3e75c8f1	0.24002434
9	0xbe01dc61	-0.12681724
10	0x3d80efe2	0.06295754
11	0xbef6767b	-0.48137268
12	0x3e4c24f9	0.19935979
13	0x3e393f7c	0.18090624
14	0x3edfed40	0.43735695
15	0xbeb98fbb	-0.3624247
16	0x3dd40690	0.10352814
17	0xbe91040e	-0.28323406
18	0xbecf9e8d	-0.40550652
19	0xbf3bb4dd	-0.7332285

gat_layer_2.attention_2.W f4 [5, 10]
0	0x3e9dab90	0.30794954
1	0xbf3a52d7	-0.72782654
2	0xbe4dfb54	-0.20115405
3	0x3f2f4cb9	0.68476444
4	0x3d2ce67c	0.042211995
5	0xbd0f08dd	-0.034920562
6	0xbd9a66c1	-0.0753913
7	0x3da6a630	0.081371665
8	0x3d345d70	0.04403442
9	0x3f1f8463	0.6231138
10	0x3ea00b69	0.31258705
11	0xbefd0f1f	-0.494256
12	0x3f2c5fa0	0.6733341
13	0xbf3c1f6d	-0.7348545
14	0x3e2efd90	0.17088914
15	0x3e2cd0a8	0.16876471
16	0xbf18ef80	-0.5974045
17	0xbe75d066	-0.24005279
18	0x3cc872bf	0.024468778
19	0xbf39fe77	-0.7265391
20	0xbe70f4a5	-0.23530824
21	0x3f21cb70	0.63201046
22	0xbf25e4db	-0.6480233
23	0x3e8f0382	0.27932364
24	0xbf166a79	-0.58756214
25	0x3e072c8c	0.13200587
26	0x3e58afd8	0.21160829
27	0x3e59ba3c	0.21262449
28	0xbde5562a	-0.11198075
29	0x3f4d7f4e	0.80272377
30	0x3ecf57b2	0.40496594
31	0x3f0ac4ee	0.5420674
32	0xbe2130b1	-0.1574123
33	0x3e7d7e5b	0.24755232
34	0xbf0eb914	-0.55751157
35	0xbe0e82b5	-0.13917048
36	0xbf3ea65c	-0.74472594
37	0xbf13dc4b	-0.57758015
38	0x3e8034bd	0.25040236
39	0xbed2f620	-0.41203403
40	0xbe5ed9c3	-0.21762757
41	0xbf026560	-0.50935936
42	0xbee8454f	-0.45365378
43	0x3f05f370	0.5232458
44	0x3f55aa65	0.83463126
45	0xbebc7617	-0.36808845
46	0xbea0eccd	-0.31430665
47	0x3f263560	0.64925194
48	0x3e4a38d5	0.19748242
49	0x3f637bc9	0.88860756

gat_layer_2.attention_2.a f4 [20, 1]
0	0xbe8e61b7	-0.27808926
1	0xbf3cae2f	-0.73703283
2	0x3e6d3f33	0.2316864
3	0x3f25556a	0.64583457
4	0xbf1b455a	-0.606527
5	0x3f4482a6	0.76761854
6	0xbf27bfd3	-0.65527076
7	0xbf0dba67	-0.5536255
8	0xbe0b28de	-0.13589808
9	0xbe8774fe	-0.26456445
10	0x3f1e8d12	0.61934006
11	0x3ea14f40	0.31505775
12	0x3f1d9323	0.6155264
13	0xbe68868c	-0.22707576
14	0x3e06d78d	0.13168164
15	0x3e646b24	0.22306496
16	0xbd099cf6	-0.033596955
17	0xbced006f	-0.02893087
18	0xbec1fba7	-0.37887308
19	0xbefb1ed2	-0.49046952

gat_layer_2.attention_3.W f4 [5, 10]
0	0xbf58cf7f	-0.84691614
1	0x3f275429	0.65362793
2	0xbeb36769	-0.35039833
3	0x3f3be05f	0.7338924
4	0xbedff131	-0.43738702
5	0x3f624bb5	0.8839677
6	0x3c608e9e	0.013705878
7	0x3f356643	0.70859164
8	0x3e48aa77	0.19596277
9	0x3e98e42e	0.29861587
10	0x3f5e53a2	0.86846364
11	0x3f2a5058	0.66528845
12	0x3df613d7	0.12015503
13	0x3f421929	0.7581964
14	0x3e01872a	0.12649217
15	0xbebaaf1b	-0.3646172
16	0xbf421eba	-0.75828135
17	0x3f3ac05b	0.7294976
18	0xbf025cb8	-0.5092273
19	0x3efab3cb	0.48965296
20	0x3f49518a	0.78640044
21	0x3e9b4fb2	0.3033424
22	0xbe8d0f55	-0.2755076
23	0xbf08c373	-0.5342323
24	0x3f331da1	0.69967085
25	0x3f06d941	0.52675253
26	0x3daa0f38	0.08303684
27	0xbef2752b	-0.47355017
28	0xbf393bc3	-0.72356814
29	0x3eb09e66	0.34495848
30	0x3b9f08bb	0.0048533357
31	0xbf74aa74	-0.9557259
32	0x3f5796ae	0.84214294
33	0x3e524f0f	0.20537971
34	0x3ed7965f	0.42106912
35	0xbf44857c	-0.7676618
36	0xbdca69c6	-0.09883456
37	0x3e8d87f0	0.27642775
38	0x3e485f43	0.1956759
39	0xbe76a2b6	-0.24085507
40	0x3f3eb8e3	0.74500865
41	0xbf729ee8	-0.9477372
42	0x3e87c86b	0.26520094
43	0x3f367038	0.7126498
44	0x3e12abc6	0.14323339
45	0xbf11403d	-0.56738645
46	0xbf3d84a4	-0.7403052
47	0x3e12b943	0.14328484
48	0x3ec18e44	0.37803853
49	0x3ee50962	0.4473372

gat_layer_2.attention_3.a f4 [20, 1]
0	0x3f13cfe5	0.57739097
1	0xbeb12e3a	-0.3460558
2	0xbf3bd941	-0.7337838
3	0x3f1b0788	0.60558367
4	0xbe9c5e85	-0.30540863
5	0x3dac2ee6	0.08407383
6	0x3ecadca9	0.39621475
7	0xbf0f8d6b	-0.5607516
8	0xbe231c3d	-0.15928741
9	0x3ded9e53	0.116024636
10	0x3eb5d8d1	0.3551698
11	0x3f18badb	0.5966012
12	0xbe00a3d0	-0.1256249
13	0x3ead6b01	0.338707
14	0xbe17030a	-0.14747253
15	0xbe4df937	-0.20114599
16	0xbed076cf	-0.40715644
17	0x3e9ddda0	0.3083315
18	0xbefedbe0	-0.49777126
19	0xbe819260	-0.25306988

gat_layer_2.attention_4.W f4 [5, 10]
0	0xbe286b30	-0.16447139
1	0x3f086d35	0.53291637
2	0xbf2a6b71	-0.6657019
3	0xbe0ee701	-0.13955308
4	0xbe82f48c	-0.255772
5	0x3eaebbfe	0.34127802
6	0xbf1f764a	-0.6228987
7	0xbeb1b9f8	-0.34712195
8	0x3df9bf2d	0.12194667
9	0x3e9b9cf9	0.30393198
10	0x3f01c0c3	0.50684756
11	0x3e6a7960	0.22897863
12	0x3e8dbf8a	0.27685195
13	0x3f270260	0.65238
14	0x3f563ac5	0.83683425
15	0x3efaed35	0.490091
16	0xbdf5bbcb	-0.11998709
17	0xbe953a27	-0.2914593
18	0xbebe7652	-0.37199646
19	0xbe2cbd44	-0.16869074
20	0xbf21cb62	-0.6320096
21	0xbf561961	-0.83632475
22	0xbf2d5165	-0.67702323
23	0x3f527c4d	0.8222092
24	0xbe3f55c8	-0.18685067
25	0xbf2dcb0d	-0.67887956
26	0xbf3c099e	-0.73452175
27	0xbe31b3b1	-0.17353703
28	0x3e35cf05	0.17754753
29	0xbf1ed395	-0.620416
30	0x3e851e78	0.25999808
31	0x3f338efa	0.7014004
32	0x3e8da88d	0.27667657
33	0xbf0a921d	-0.541292
34	0xbf0fc278	-0.5615611
35	0xbeba87fc	-0.36431873
36	0x3f45f0ea	0.7732073
37	0x3e13e504	0.14442831
38	0x3e8bebb3	0.27328262
39	0xbf386139	-0.7202335
40	0xbde43ef1	-0.111448176
41	0xbeee61b1	-0.46558908
42	0x3eb2aa4c	0.3489555
43	0x3f24665f	0.64218706
44	0x3d1f0b31	0.038829032
45	0xbf25e235	-0.6479829
46	0xbd4fc863	-0.050728213
47	0x3f697405	0.91192657
48	0xbe513b80	-0.20432854
49	0xbf425cd4	-0.75922894

gat_layer_2.attention_4.a f4 [20, 1]
0	0xbd837404	-0.064186126
1	0x3e582911	0.21109416
2	0x3f3e5cfd	0.7436064
3	0xbf0d18e9	-0.55116135
4	0xbf2d39d3	-0.6766636
5	0xbef8f9e7	-0.4862816
6	0xbf1cd366	-0.6126007
7	0x3eb58878	0.3545568
8	0xbe45ec59	-0.1932844
9	0xbd3dd8db	-0.046349388
10	0xbea51a8a	-0.3224681
11	0x3f10059a	0.5625855
12	0xbedabbaf	-0.42721316
13	0xbf3381b9	-0.70119816
14	0x3e99615a	0.29957086
15	0x3f156ef7	0.58372444
16	0xbe93a95b	-0.28840145
17	0xbf1c0626	-0.6094688
18	0x3f1c5585	0.6106799
19	0xbd16eb20	-0.036845326

gat_layer_2.out_att.W f4 [50, 5]
0	0x3eeb5398	0.45962214
1	0xbe52ad9f	-0.20574044
2	0xbe24db1b	-0.16099207
3	0xbe1a0d24	-0.15044075
4	0xbead9e71	-0.33909944
5	0x3e587c1e	0.21141097
6	0xbd69adf3	-0.057050657
7	0x3e994d91	0.2994199
8	0x3eae9a7d	0.3410224
9	0x3e05fcfa	0.13084784
10	0xbdf01f5b	-0.117247306
11	0x3ea0e553	0.3142496
12	0xbe998c56	-0.2998988
13	0xbeaa4fc3	-0.33263978
14	0xbea281dc	-0.317397
15	0x3c32613a	0.010887438
16	0xbe5cd988	-0.21567357
17	0xbd9e9af9	-0.077444024
18	0xbe89d979	-0.2692373
19	0xbe9a38d3	-0.30121478
20	0x3e3305e1	0.17482711
21	0xbdc23107	-0.094820075
22	0x3db2786b	0.08714374
23	0xbd995ea9	-0.07488758
24	0x3d74edc2	0.059797056
25	0xbe6f3d6a	-0.23363271
26	0xbe418be6	-0.18901023
27	0x3ea54386	0.3227808
28	0x3ccc6e7b	0.024955025
29	0xbe0e9e77	-0.13927637
30	0xbe12a48e	-0.14320585
31	0x3eba9c12	0.36447197
32	0x3eaef390	0.34170198
33	0x3e84f2fe	0.25966638
34	0x3e4280ef	0.18994497
35	0xbe1e110d	-0.15436192
36	0xbe96b835	-0.29437414
37	0xbe6c4a42	-0.23075202
38	0x3dad60cb	0.084657274
39	0x3e856b52	0.2605844
40	0xbde1c4fa	-0.110238984
41	0xbeba1f1f	-0.3635187
42	0xbd0e2230	-0.034700572
43	0xbec2f2d8	-0.380759
44	0x3d7bf2fe	0.061511032
45	0x3e1d2aad	0.15348311
46	0x3ec32f64	0.38122094
47	0xbde98f77	-0.11404317
48	0x3ed8c79b	0.42339787
49	0x3ed1b385	0.40957275
50	0xbd1007e4	-0.035163775
51	0xbe1ca405	-0.15296943
52	0xbe42654e	-0.18983957
53	0xbea8dade	-0.32979482
54	0xbe8b9ffe	-0.27270502
55	0xbe4812e9	-0.19538464
56	0x3b332a63	0.0027338497
57	0xbce69c3a	-0.028150667
58	0xbe7f19d1	-0.24912192
59	0x3ea09851	0.31366208
60	0x3de845a3	0.11341407
61	0xbe60103e	-0.21881196
62	0xbed4160a	-0.41423064
63	0x3eadf8c8	0.33978868
64	0xbe99cbb2	-0.3003822
65	0xbec76f30	-0.38952017
66	0x3ed25f03	0.41088113
67	0x3eb454da	0.35220987
68	0xbdc3d491	-0.09562028
69	0x3e16a3d8	0.14710939
70	0xbe82a659	-0.25517538
71	0x3ed0caaf	0.40779635
72	0xbc10d68b	-0.0088402135
73	0xbe50e541	-0.20399953
74	0xbdca6011	-0.098816045
75	0xbecb907d	-0.39758673
76	0x3d913fb3	0.07092228
77	0x3e4c31c4	0.19940859
78	0xbe838309	-0.2568591
79	0xbe085a78	-0.13315761
80	0xbea7aab5	-0.32747427
81	0x3dec47cf	0.11537134
82	0xbd78ca3b	-0.060739737
83	0x3e7a9f0b	0.24474733
84	0xbcf8b335	-0.03035889
85	0xbd67fb99	-0.056636427
86	0xbdbaa34e	-0.09113179
87	0xbed44f8b	-0.41466936
88	0xbd7e4a01	-0.062082294
89	0xbe9992d0	-0.29994822
90	0xbd4ee84c	-0.050514504
91	0xbea3acec	-0.31967866
92	0xbddbf095	-0.10739247
93	0xbe68a032	-0.2271736
94	0xbefccf49	-0.49376896
95	0x3e347d5f	0.1762595
96	0x3e52d2b2	0.20588186
97	0x3e9fab6b	0.3118547
98	0x3d8d311b	0.06894132
99	0x3e11f6ea	0.14254346
100	0xbec580b9	-0.3857477
101	0xbeaabbd9	-0.3334644
102	0xbd653be2	-0.05596531
103	0xbe128576	-0.14308724
104	0xbe5c6df9	-0.21526326
105	0xbec1dffc	-0.378662
106	0xbe12037a	-0.14259139
107	0xbed6bb9f	-0.4194002
108	0x3e5969c9	0.2123176
109	0xbed59469	-0.4171479
110	0xbee948cd	-0.45563355
111	0xbe392958	-0.18082178
112	0xbda32455	-0.07965914
113	0x3e94df6f	0.29076716
114	0x3ea5076a	0.3223222
115	0x3dfcc539	0.12342305
116	0x3e577b0f	0.21043037
117	0x3e6c9b1f	0.23106049
118	0x3e3ff27e	0.18744847
119	0xbe1c4772	-0.15261629
120	0xbed04aa0	-0.40681934
121	0xbeacd7a5	-0.33758274
122	0x3e1c10be	0.15240762
123	0x3e93f384	0.28896725
124	0x3e894ce2	0.2681647
125	0x3c81d6a3	0.015849417
126	0x3ea83eaa	0.3286031
127	0xbeb7d8ad	-0.35907498
128	0x3e9db85f	0.30804726
129	0xbebdb11d	-0.3704919
130	0xbe27125c	-0.16315597
131	0x3e495c29	0.19664063
132	0x3ec54930	0.385324
133	0xbeb4f63f	-0.3534412
134	0x3cefcee2	0.029273454
135	0xbe811527	-0.2521145
136	0xbe4e7795	-0.20162804
137	0xbe7915f6	-0.24324784
138	0x3ce207dc	0.027591638
139	0xbe7e038c	-0.2480604
140	0xbdc7c3af	-0.097541206
141	0xbe873ce4	-0.26413643
142	0x3bb22af9	0.0054372516
143	0xbec34468	-0.38138127
144	0xbd00ba83	-0.03142787
145	0xbee0a150	-0.43873072
146	0x3ee5ea36	0.4490525
147	0xbe45ed68	-0.19328845
148	0x3e92b2e9	0.28652123
149	0xbede6572	-0.43436772
150	0x3ea3f259	0.32020834
151	0xbef45a18	-0.47724986
152	0x3e3fc011	0.18725611
153	0xbb31836c	-0.002708639
154	0x3e84391f	0.2582483
155	0xbe247160	-0.16058874
156	0xbe3dc245	-0.18531139
157	0xbe16f1f1	-0.14740731
158	0xbd7fdc96	-0.062466227
159	0xbe0b89fe	-0.13626859
160	0x3ddded44	0.108362705
161	0xbe68f8fa	-0.22751227
162	0xbce1b8fe	-0.027554031
163	0xbe1bf45a	-0.15229931
164	0x3eab9108	0.33509088
165	0xbe6d7522	-0.23189214
166	0x3ec4f5b9	0.38468722
167	0x3ecd4bb3	0.40096816
168	0x3c29312a	0.010326663
169	0x3eab2c08	0.3343203
170	0x3e60e665	0.21962889
171	0xbda2fb62	-0.07958104
172	0x3e4ee6a2	0.20205167
173	0x3eced3f6	0.40396088
174	0x3eb9699e	0.36213392
175	0x3e17fd0c	0.14842623
176	0xbe79f8d1	-0.24411322
177	0xbe1d17b9	-0.1534108
178	0x3eb02b00	0.34407806
179	0x3c8bb332	0.01705322
180	0x3e66e07a	0.22546569
181	0xbd3e3532	-0.04643745
182	0xbea94186	-0.33057803
183	0xbe93cacd	-0.28865662
184	0x3e16a27a	0.14710417
185	0xbe978001	-0.29589847
186	0x3ed3b314	0.41347563
187	0xbeea7495	-0.4579207
188	0x3df63474	0.120217234
189	0xbe631806	-0.22177133
190	0xbebd7f3a	-0.3701113
191	0xbd04fc2c	-0.032467052
192	0xbc944a7d	-0.018101925
193	0x3ec7c117	0.39014503
194	0xbd7866c1	-0.06064487
195	0x3dac628c	0.08417234
196	0x3e6b375f	0.22970341
197	0xbd007a4c	-0.03136663
198	0x3ca59e61	0.020217123
199	0x3f025fbe	0.5092734
200	0xbee1d308	-0.44106317
201	0x3e4dc78f	0.20095657
202	0x3ea224af	0.31668612
203	0x3cb0a775	0.021564225
204	0x3e69533a	0.22785655
205	0x3e3fbc75	0.18724234
206	0x3e33a759	0.17544307
207	0xbd59090a	-0.052987136
208	0xbec69287	-0.38783666
209	0x3ecac1d2	0.39600998
210	0xbdd6ba5d	-0.10484765
211	0xbe9033e4	-0.2816459
212	0x3dc08e2d	0.09402118
213	0x3ea3b4dd	0.31973925
214	0xbded6a7d	-0.11592577
215	0x3e262e09	0.16228499
216	0x3e605c73	0.21910267
217	0xbe6eb2e0	-0.23310423
218	0x3c56d073	0.013111222
219	0x3ea2e17e	0.31812662
220	0xbecdbdac	-0.4018377
221	0x3ed502f8	0.41603827
222	0x3ea16eac	0.31529748
223	0xbee4c98c	-0.44685018
224	0xbe0e7fcd	-0.1391594
225	0x3ec15ceb	0.37766203
226	0x3ed2c70c	0.41167486
227	0xbe987786	-0.2977869
228	0x3e7fed52	0.24992874
229	0x3ed334de	0.41251272
230	0xbedf16ed	-0.43572178
231	0x3b1867c2	0.0023255204
232	0x3d91b66f	0.071148746
233	0xbeb3637f	-0.35036847
234	0x3d4470dc	0.047959194
235	0xbe99ddbf	-0.3005199
236	0xbea2fd6e	-0.31833977
237	0x3e9b758b	0.30363116
238	0x3e599b05	0.21250542
239	0x3de8b356	0.113623306
240	0xbe8ff2e3	-0.28114995
241	0x3943975e	0.00018653038
242	0x3ed729f6	0.420242
243	0xbdccd217	-0.10001009
244	0xbef48d04	-0.47763836
245	0x3dc3dcc9	0.09563596
246	0xbe538eb8	-0.20659912
247	0xbe812b92	-0.25228554
248	0xbb3b1728	-0.0028547738
249	0xbeaa5d21	-0.33274177

gat_layer_2.out_att.a f4 [10, 1]
0	0x3dd5a92b	0.10432657
1	0x3f616514	0.8804486
2	0xbdf94962	-0.121722
3	0x3f3f10c9	0.7463499
4	0x3edfc9d2	0.43708664
5	0x3eae474b	0.34038767
6	0x3d89e84b	0.067337595
7	0x3f82fcdc	1.0233417
8	0xbebb8e2b	-0.36631903
9	0xbf209421	-0.62726027
