tests/gat/encoder-checkpoint11.pt (torch, 20210 bytes, 36 tensors)

gat_layer_0.attention_0.W f4 [5, 10]
0	0xbeebc4b1	-0.460485
1	0xbf5162be	-0.81791294
2	0x3ed069db	0.4070576
3	0xbea7ed72	-0.32798344
4	0xbdf79c8a	-0.12090404
5	0x3ea01358	0.31264758
6	0x3f4e31ea	0.8054491
7	0xbdfd62fd	-0.12372396
8	0x3f0145c1	0.5049706
9	0xbef0ac43	-0.47006425
10	0xbe559b17	-0.20859943
11	0x3e19b25f	0.1500945
12	0x3e8ed60e	0.27897686
13	0xbf5a4796	-0.8526548
14	0xbe533882	-0.20627025
15	0x3dc9dce0	0.09856582
16	0xbf28f341	-0.65996176
17	0xbe091dc3	-0.1339026
18	0xbecc3040	-0.39880562
19	0x3d973da7	0.07384806
20	0x3e0ccd2e	0.13750145
21	0x3ed8e2aa	0.4236043
22	0x3ebebe69	0.37254646
23	0x3ef4b3fc	0.47793567
24	0xbd992dff	-0.07479476
25	0xbec060d2	-0.37573868
26	0x3ed12665	0.40849605
27	0x3f432e74	0.76242757
28	0x3cbf892c	0.023380838
29	0xbddfe643	-0.10932591
30	0xbeefc4ae	-0.46829742
31	0x3eddfcd3	0.43356952
32	0x3d21e3d0	0.0395239
33	0xbf037f5b	-0.51366204
34	0xbe863a98	-0.26216578
35	0x3ec58dc3	0.38584718
36	0xbf665347	-0.8997082
37	0x3ea174ae	0.31534332
38	0x3f47c076	0.7802805
39	0xbf59a815	-0.850221
40	0x3f2bdd41	0.6713448
41	0xbf3ca1ae	-0.73684204
42	0x3e782420	0.2423253
43	0x3e9ea196	0.30982655
44	0xbe1ce3c8	-0.15321267
45	0x3f508d43	0.8146555
46	0xbd237652	-0.03990776
47	0x3f405bec	0.7514026
48	0x3ee3f189	0.44520214
49	0xbebc2ecf	-0.36754462

gat_layer_0.attention_0.a f4 [20, 1]
0	0xbdf21c39	-0.11821789
1	0xbe6cf8d0	-0.2314179
2	0x3e41721f	0.1889119
3	0x3f3ebd6b	0.7450778
4	0xbeac5d7f	-0.33665082
5	0xbd417282	-0.047228344
6	0x3f20b5ed	0.62777597
7	0xbef9cded	-0.4878992
8	0xbd9b7285	-0.07590202
9	0x3f228e77	0.63498634
10	0xbf033892	-0.51258194
11	0xbf4361f4	-0.7632134
12	0x3efca28b	0.4934276
13	0xbe0997f3	-0.1343687
14	0xbe175a78	-0.14780605
15	0xbea76ef9	-0.32701853
16	0x3ea5584b	0.32293925
17	0x3e2b613f	0.16736315
18	0x3da2ede0	0.07955527
19	0x3cd05a98	0.025433823

gat_layer_0.attention_1.W f4 [5, 10]
0	0xbf51f67d	-0.82016736
1	0xbca48a6c	-0.020085536
2	0xbd5d964a	-0.054098405
3	0xbc53f1a0	-0.012936026
4	0xbdb03581	-0.08603955
5	0xbe65ba1f	-0.22434281
6	0xbf561ed9	-0.8364082
7	0x3f3c68f0	0.7359762
8	0xbf4246af	-0.75889105
9	0xbf3597aa	-0.70934546
10	0x3ebb194f	0.36542746
11	0xbf5757e5	-0.8411849
12	0xbf31b3c2	-0.69414914
13	0x3f383de1	0.7196942
14	0x3f5dbc1a	0.86615145
15	0xbec9e85d	-0.39435092
16	0x3f40dcc0	0.7533684
17	0xbe97573d	-0.29558745
18	0xbd83bf17	-0.06432932
19	0x3e230578	0.15920055
20	0x3d2c2e7c	0.04203652
21	0x3f099512	0.5374309
22	0xbf0d7bcb	-0.5526702
23	0xbe9a9523	-0.30191907
24	0xbe40a540	-0.18813038
25	0xbeddb57d	-0.43302527
26	0x3f451a61	0.76993376
27	0x3dd1287e	0.102128014
28	0xbf382766	-0.7193512
29	0xbee5e8a4	-0.44904053
30	0x3f05e502	0.52302563
31	0x3df1de37	0.11809962
32	0x3eb879f0	0.3603053
33	0x3ebffe76	0.37498826
34	0x3d5b0220	0.053468823
35	0x3f462774	0.7740395
36	0xbecc3840	-0.39886665
37	0x3f5f40dd	0.8720835
38	0xbec7a13f	-0.38990209
39	0xbd4bdc40	-0.049770594
40	0xbf1985bb	-0.5996968
41	0xbea86db8	-0.3289621
42	0x3f531c3a	0.82464945
43	0xbf2d6880	-0.6773758
44	0x3f16a950	0.588521
45	0x3f26b7a2	0.6512395
46	0xbf0a5487	-0.5403523
47	0xbf051ac2	-0.51993954
48	0xbf47d5ff	-0.7806091
49	0xbf2460a1	-0.64209944

gat_layer_0.attention_1.a f4 [20, 1]
0	0xbeb5da37	-0.35518047
1	0x3db64eaf	0.089017265
2	0x3e8ddbd0	0.27706766
3	0xbe6bdea3	-0.23034148
4	0x3e6891d9	0.22711886
5	0xbec83467	-0.3910248
6	0xbf075baa	-0.52874243
7	0xbefd7e91	-0.49510625
8	0xbdb6c2c7	-0.089238696
9	0xbe8255d1	-0.25456098
10	0x3f0c94de	0.54914653
11	0x3e39b9e2	0.18137315
12	0xbe9b6b16	-0.30355138
13	0xbea64b6b	-0.32479414
14	0x3e3794ec	0.17927903
15	0x3e035ae9	0.12827648
16	0xbeca213b	-0.39478478
17	0xbeef57a1	-0.46746543
18	0x3f2ea7ee	0.6822499
19	0x3cc072c7	0.02349223

gat_layer_0.attention_2.W f4 [5, 10]
0	0x3f53ef2b	0.82786816
1	0xbeede8a8	-0.46466565
2	0xbe0c443a	-0.13697901
3	0x3f48289f	0.7818698
4	0x3f2edb32	0.68303216
5	0x3da2a116	0.07940881
6	0xbf18cc90	-0.5968714
7	0xbf0aac57	-0.5416922
8	0xbf1e1287	-0.6174702
9	0xbf0ade43	-0.54245394
10	0x3e871456	0.26382703
11	0xbf6526d9	-0.895124
12	0xbf576e6b	-0.8415286
13	0x3e358739	0.17727365
14	0xbe6639f9	-0.22483052
15	0xbebac0d1	-0.36475232
16	0xbf5b3145	-0.85622054
17	0x3e90a7f2	0.28253132
18	0xbd9ff8af	-0.078111045
19	0xbeccafd6	-0.39977902
20	0xbf091e1f	-0.53561586
21	0x3f2f5911	0.6849528
22	0x3f381373	0.7190468
23	0xbeb57f2a	-0.3544858
24	0x3eecbbee	0.4623713
25	0x3e3c800d	0.18408222
26	0xbf087868	-0.53308725
27	0xbee9b10d	-0.45642892
28	0x3f5fee19	0.87472683
29	0x3f210eb9	0.6291309
30	0xbf60fcbc	-0.8788564
31	0x3e8e9b65	0.27852932
32	0x3f213598	0.629724
33	0x3e7da51f	0.2477002
34	0xbf1520c4	-0.5825312
35	0xbe624f6a	-0.22100607
36	0xbf320342	-0.6953622
37	0xbea58c21	-0.32333472
38	0xbf005765	-0.50133353
39	0x3f0c2aca	0.5475279
40	0xbd951bd8	-0.072807014
41	0xbe3624b9	-0.17787446
42	0xbf2e97f9	-0.6820064
43	0x3e3e8927	0.18607007
44	0x3d1d64bd	0.03842615
45	0xbea227fd	-0.31671134
46	0xbf581945	-0.8441356
47	0xbf5835fe	-0.84457386
48	0xbe198c35	-0.14994891
49	0x3ea387ce	0.31939548

gat_layer_0.attention_2.a f4 [20, 1]
0	0xbee9abcc	-0.45638883
1	0xbe9479d1	-0.2899919
2	0xbeba9fa3	-0.36449918
3	0xbf1f316e	-0.621848
4	0xbf3a062d	-0.72665673
5	0x3f065006	0.52465856
6	0x3ca9a4b2	0.020708416
7	0x3f0863b7	0.5327715
8	0x3ee9b3b7	0.45644924
9	0x3f101890	0.5628748
10	0x3f3b043f	0.73053354
11	0xbf2fbbed	-0.68646127
12	0xbf027470	-0.5095892
13	0x3e76f192	0.2411559
14	0x3efcd8be	0.4938411
15	0x3e81a3a3	0.25320157
16	0x3f2848eb	0.65736264
17	0xbe912ca2	-0.28354365
18	0xbf03e5b0	-0.5152235
19	0xbefb392b	-0.49067053

gat_layer_0.attention_3.W f4 [5, 10]
0	0xbeb39759	-0.35076407
1	0xbdd85f34	-0.105650336
2	0x3db3851a	0.087656215
3	0x3ec8dd02	0.39231116
4	0xbe9367ed	-0.28790227
5	0xbf4f1101	-0.8088532
6	0xbf2532a9	-0.64530426
7	0x3f5d1505	0.863602
8	0xbd955d09	-0.07293136
9	0xbf050b57	-0.5197043
10	0xbf31173a	-0.69176066
11	0x3e201206	0.15631875
12	0x3dfb7dea	0.122798756
13	0x3e12a9ac	0.14322537
14	0xbed3f12d	-0.4139494
15	0xbf12c01d	-0.5732439
16	0xbf262045	-0.6489299
17	0x3e35ade2	0.17742112
18	0x3f10e099	0.5659271
19	0x3e211f4a	0.15734592
20	0x3f146c6f	0.57977957
21	0x3f37010f	0.7148599
22	0xbe81ef1b	-0.25377735
23	0x3dead845	0.114670314
24	0x3eb3c556	0.35111493
25	0xbf29b4a1	-0.6629124
26	0x3ed7b4a1	0.42129996
27	0xbf1b8a8b	-0.60758275
28	0xbf03c491	-0.5147181
29	0x3eb4dc44	0.353243
30	0xbded0dac	-0.11574873
31	0xbc6de33b	-0.014519508
32	0xbf19578c	-0.5989921
33	0x3ef74d2e	0.4830107
34	0x3f22f02b	0.6364772
35	0xbf3cd9d9	-0.7376991
36	0xbef6e8b6	-0.4822442
37	0xbf2fc474	-0.6865914
38	0x3f1f0be7	0.62127537
39	0x3e3da8c6	0.18521413
40	0x3f2e1e0c	0.680146
41	0x3ea6670f	0.32500502
42	0xbf416e71	-0.75559145
43	0x3ee73267	0.4515564
44	0x3e0c5ebf	0.13708018
45	0xbeb3c331	-0.35109857
46	0xbf222ea1	-0.633524
47	0x3e23d7b4	0.16000253
48	0x3f307b18	0.68937826
49	0xbf27d598	-0.65560293

gat_layer_0.attention_3.a f4 [20, 1]
0	0xbea87d7e	-0.32908243
1	0x3d264ded	0.04060166
2	0x3efaeaeb	0.49007353
3	0x3f3f2538	0.74666166
4	0x3f272ba9	0.65300995
5	0x3f2abcb5	0.66694194
6	0xbd1853e7	-0.03718939
7	0x3f3ed76e	0.7454747
8	0x3da3bcf3	0.079950236
9	0xbf053cb0	-0.52045727
10	0xbe840a31	-0.25789025
11	0xbf14d5b2	-0.58138573
12	0xbd5e1993	-0.05422361
13	0xbf26a81d	-0.6510027
14	0xbec10fc3	-0.37707338
15	0x3dac1362	0.084021345
16	0x3ef0dba0	0.4704256
17	0x3cb4a34d	0.022050524
18	0x3ee4b2fe	0.4466781
19	0x3df5120b	0.11966332

gat_layer_0.attention_4.W f4 [5, 10]
0	0xbe9ec6f7	-0.31011173
1	0xbf3e9c43	-0.74457186
2	0x3f4935f4	0.7859795
3	0x3eaf5b8f	0.3424954
4	0x3bba699b	0.0056888587
5	0x3e9e09ab	0.3086675
6	0x3eefc18a	0.46827346
7	0x3e81b23c	0.25331295
8	0xbeaefbe7	-0.3417656
9	0xbf286c87	-0.657906
10	0xbe00d4fe	-0.1258125
11	0xbeeaf82f	-0.45892474
12	0xbf5d7139	-0.8650089
13	0xbf156ee1	-0.5837231
14	0x3ecf3645	0.40471092
15	0x3f00fe30	0.5038786
16	0xbf26be32	-0.65133965
17	0xbe8b1c31	-0.27169946
18	0x3ead8d3e	0.33896822
19	0x3edcc86a	0.43121654
20	0xbf2fcfeb	-0.6867663
21	0x3f038266	0.5137085
22	0xbea20a3a	-0.31648427
23	0xbee98853	-0.4561182
24	0xbf2c1b61	-0.67229277
25	0x3e74c685	0.23903854
26	0x3dc59543	0.0964761
27	0x3ef95e3c	0.48704708
28	0xbe1bb468	-0.15205538
29	0x3f26f815	0.65222293
30	0xbe4e7e69	-0.20165409
31	0xbe8217c3	-0.25408754
32	0xbeef609d	-0.46753398
33	0x3f12ffc1	0.574215
34	0xbf62c43c	-0.8858068
35	0x3e4eabb7	0.20182692
36	0xbf38c486	-0.7217487
37	0xbeebe82a	-0.46075565
38	0xbf4a956e	-0.7913426
39	0x3f3a644f	0.7280931
40	0xbf1e733b	-0.6189458
41	0x3f3f5cd0	0.74750996
42	0x3f131903	0.5746004
43	0xbd8ab39d	-0.0677254
44	0xbe832753	-0.2561594
45	0x3f4ebd1e	0.8075732
46	0x3f4fbae5	0.81144553
47	0x3f4d6ba8	0.80242395
48	0xbf52600d	-0.8217781
49	0x3e223f9a	0.15844575

gat_layer_0.attention_4.a f4 [20, 1]
0	0x3cc411df	0.023934303
1	0xbee71900	-0.4513626
2	0xbeefb754	-0.46819556
3	0xbedaf5fa	-0.4276579
4	0xbe8fc26c	-0.2807802
5	0x3f0be97e	0.54653156
6	0x3eda0a5c	0.4258603
7	0x3e26a647	0.16274367
8	0xbee5ceaf	-0.4488425
9	0x3ec6a615	0.38798586
10	0x3f274839	0.6534458
11	0x3f2450a8	0.6418557
12	0xbe6ea997	-0.23306881
13	0x3f15962e	0.5843228
14	0x3ec4af9b	0.38415226
15	0x3f0459f6	0.5169977
16	0x3ed3fb6a	0.4140275
17	0x3efa4f9b	0.4888886
18	0x3f0e865e	0.5567378
19	0xbf10dcf3	-0.5658714

gat_layer_0.out_att.W f4 [50, 5]
0	0xbed3fcac	-0.4140371
1	0xbe8db717	-0.2767875
2	0x3cb78579	0.022402512
3	0xbe74d6ba	-0.23910037
4	0xbe86f78d	-0.2636074
5	0xbef482ba	-0.47755986
6	0x3d83ba8a	0.06432064
7	0xbe8fb58d	-0.280682
8	0x3dfbd8ca	0.122972086
9	0xbe4b576f	-0.19857572
10	0x3e963eea	0.29344875
11	0xbeb09685	-0.34489837
12	0x3e4b7191	0.19867541
13	0xbc176ed6	-0.009242734
14	0x3e817dc2	0.25291258
15	0xbd253f39	-0.040343497
16	0xbe3ff94b	-0.18747441
17	0x3dcf519f	0.1012299
18	0x3ead10fe	0.33802027
19	0xbebbe841	-0.36700633
20	0x3ec9066c	0.39262712
21	0xbd406aba	-0.046976782
22	0x3e0e6814	0.1390689
23	0x3e6d6e92	0.2318671
24	0x3ee12c37	0.43979046
25	0xbe995a2b	-0.29951605
26	0x3cbd9c66	0.023145866
27	0x3eba1db6	0.36350793
28	0x3e91e588	0.2849543
29	0xbe4b3732	-0.19845274
30	0x3ece7c93	0.40329418
31	0x3e728cd1	0.2368653
32	0xbeaad317	-0.33364174
33	0xbe9cf759	-0.3065746
34	0x3e33c552	0.1755574
35	0xbef7a8e5	-0.48371044
36	0x3c8875d6	0.016657751
37	0x3e86a825	0.2630016
38	0xbe93757f	-0.2880058
39	0x3c820378	0.015870795
40	0x3e3b1a41	0.18271734
41	0xbe83f83f	-0.25775334
42	0xbd49ed8a	-0.0492988
43	0x3dd7a182	0.10528852
44	0x3cbcefe6	0.023063611
45	0xbeb762e9	-0.3581765
46	0x3e6a7187	0.2289487
47	0xbe078e77	-0.1323794
48	0xbe91b617	-0.28459236
49	0x3e866d7d	0.26255408
50	0xbe9e70b7	-0.3094537
51	0x3e787077	0.24261652
52	0xbe417ea3	-0.18895964
53	0xbe8b1ec5	-0.27171913
54	0xbdbf05eb	-0.09327301
55	0xbe44a34c	-0.19202918
56	0x3e500542	0.20314506
57	0xbc71585a	-0.014730537
58	0x3e6a1932	0.22861174
59	0xbe9ed970	-0.31025267
60	0xbcf54b46	-0.02994312
61	0x3ea51c8c	0.32248342
62	0xbec97c58	-0.3935268
63	0x3ec5b33c	0.38613307
64	0x3ea445b0	0.32084417
65	0x3dde3894	0.10850635
66	0x3e53ded1	0.20690466
67	0xbe8c8170	-0.27442503
68	0x3e5d06ea	0.21584669
69	0x3ee9ad02	0.45639807
70	0x3cc461a5	0.023972342
71	0xbee8a0f5	-0.454353
72	0x3e89ae68	0.26890874
73	0xbeade9bd	-0.3396739
74	0x3edbda16	0.42939824
75	0xbd98ffea	-0.07470687
76	0xbd8cf9ec	-0.06883606
77	0xbd49ca92	-0.04926545
78	0x3eb1a013	0.3469244
79	0xbedf49bc	-0.43610942
80	0xbe64ec35	-0.22355731
81	0x3e81e192	0.2536741
82	0xbe23ca0e	-0.15995046
83	0x3ee781a9	0.4521611
84	0x3ed3bb33	0.4135376
85	0x3d5df554	0.05418904
86	0xbe338fd6	-0.17535338
87	0x3e61b873	0.22043018
88	0xbcd0ac6c	-0.025472842
89	0x3e28948e	0.16462919
90	0xbee00878	-0.4375646
91	0xbd2cd6d7	-0.042197075
92	0xbc5711bd	-0.013126788
93	0x3d87a705	0.06623653
94	0x3ec2b7f8	0.38030982
95	0x3e9f5ef4	0.3112713
96	0xbe904db8	-0.28184295
97	0xbe73c2b5	-0.23804744
98	0x3ec441a0	0.38331318
99	0x3e717219	0.23578681
100	0x3e43b296	0.19111094
101	0xbed9e6f1	-0.42559007
102	0xbd9253c2	-0.07144882
103	0xbd69b583	-0.05705787
104	0x3ebf82e1	0.3740454
105	0x3e990998	0.29890132
106	0x3ea10354	0.31447852
107	0xbcdef774	-0.027217604
108	0xbe49f0aa	-0.19720712
109	0xbed2512d	-0.41077557
110	0x3ec5ed7a	0.38657743
111	0x3e92e227	0.28688166
112	0xbe81dd87	-0.25364324
113	0xbe144ffb	-0.14483635
114	0x3e9f15fd	0.31071463
115	0x3c72d425	0.014821087
116	0xbe152e79	-0.14568509
117	0xbe375abb	-0.17905705
118	0x3e3031a9	0.17206444
119	0xbe56d0e0	-0.20978117
120	0x3e11c2b6	0.14234433
121	0xbed3b684	-0.41350186
122	0x3dcd0b1e	0.10011886
123	0x3dca1c79	0.09868712
124	0xbda28d50	-0.079371095
125	0x3d8b6f3f	0.06808328
126	0x3e16db88	0.14732182
127	0xbe91ad05	-0.28452316
128	0x3e9d0825	0.30670276
129	0xbe759dba	-0.23985949
130	0xbe9ee12f	-0.31031176
131	0xbe83a44a	-0.2571128
132	0x3ea4f825	0.3222057
133	0xbeeb425d	-0.4594907
134	0xbea65de6	-0.32493514
135	0x3eb5eae7	0.3553078
136	0xbd0c0f07	-0.03419402
137	0xbed46bb1	-0.41488412
138	0x3ee59299	0.44838408
139	0xbeacc38b	-0.33742937
140	0xbe707f25	-0.23486002
141	0xbdba0365	-0.09082679
142	0x3e88d239	0.26722887
143	0xbed03f39	-0.40673235
144	0x3e9b4a4f	0.3033013
145	0x3ecfe9b0	0.40607977
146	0xbe29b9cb	-0.1657478
147	0x3e5fc64b	0.21852987
148	0xbea3f26b	-0.32020888
149	0xbeb3040b	-0.34964022
150	0x3b84f767	0.004057813
151	0x3ebc4704	0.3677293
152	0xbd8f9f06	-0.07012753
153	0xbec66079	-0.38745478
154	0x3dd3c7c8	0.103408396
155	0x3e923464	0.28555596
156	0xbe1feff2	-0.15618876
157	0xbee17a84	-0.44038785
158	0x3e75b36c	0.23994225
159	0x3e342439	0.17591943
160	0xbec37b46	-0.38179988
161	0x3e4fb268	0.202829
162	0xbebce496	-0.36893147
163	0x3e9bdddf	0.30442712
164	0x3ed67729	0.41887787
165	0xbed35567	-0.41276094
166	0x3e3e50cf	0.18585514
167	0x3ed79cb1	0.42111734
168	0x3e2af1e7	0.16693841
169	0x3ee7974c	0.45232618
170	0xbe4b304b	-0.19842641
171	0xbe6d29e5	-0.23160513
172	0x3ee8465d	0.45366183
173	0x3eb40a8d	0.351643
174	0xbeb88af0	-0.360435
175	0xbe0fab46	-0.1403018
176	0x3ecef74a	0.40423042
177	0x3c2016cd	0.009771061
178	0x3ec9324d	0.3929619
179	0x3e134a5e	0.14383838
180	0x3e549bc8	0.20762551
181	0x3eb555f8	0.3541715
182	0x3e92d4ce	0.28677982
183	0xbeb98651	-0.36235288
184	0x3d786e5c	0.060652122
185	0xbeafb871	-0.34320405
186	0x3e52353a	0.20528117
187	0x3e847519	0.25870588
188	0x3df469a1	0.119342096
189	0xbe80cb44	-0.2515508
190	0xbea5d95a	-0.3239239
191	0x3e97186e	0.29510826
192	0x3d870bcb	0.06594046
193	0xbe969112	-0.29407555
194	0xbec0ae86	-0.3763315
195	0x3eb0cf24	0.34533036
196	0x3e62b51c	0.221394
197	0xbea54459	-0.32278708
198	0x3e196369	0.14979328
199	0x3cfd0739	0.030887233
200	0xbe45d834	-0.19320756
201	0x3eb10c02	0.34579474
202	0x3e990722	0.29888254
203	0xbdc442c1	-0.09583045
204	0xbe3f02a1	-0.18653347
205	0x3b014b53	0.0019728735
206	0x3ea7a37a	0.3274191
207	0x3dad95ce	0.084758386
208	0x3e997546	0.29972285
209	0xbe6fd876	-0.23422417
210	0x3dec97c4	0.115523845
211	0x3e815212	0.25257927
212	0x3d2c0139	0.041993354
213	0xbd8c16be	-0.06840275
214	0x3e5ed011	0.21759059
215	0xbd96f6c6	-0.07371287
216	0xbec5cca6	-0.38632697
217	0x3ebc319d	0.36756602
218	0xbe1542a2	-0.145762
219	0x3e913f39	0.28368548
220	0x3edc2fe2	0.43005282
221	0x3ed3fba6	0.4140293
222	0x3d16a996	0.036782824
223	0xbec47a10	-0.38374376
224	0x3db88df8	0.090114534
225	0xbe533d0c	-0.20628756
226	0xbeaf4c69	-0.34237984
227	0x3c63dd1f	0.0139077
228	0xbe0780a6	-0.13232669
229	0x3e199082	0.14996532
230	0xbdc37eef	-0.09545695
231	0xbdb088d0	-0.08619845
232	0xbed88fc8	-0.42297196
233	0x3e846b02	0.2586289
234	0xbeedb450	-0.4642663
235	0xbe27626d	-0.1634614
236	0x3bfae11c	0.0076562297
237	0xbdc70d77	-0.09719365
238	0x3eba51b8	0.3639047
239	0xbe823784	-0.2543298
240	0xbe5ba9fe	-0.21451566
241	0xbee31a88	-0.4435618
242	0x3ec857a4	0.39129364
243	0xbe89417e	-0.2680778
244	0x3ea7cb15	0.32772127
245	0x3ce359a1	0.0277527
246	0xbee1af33	-0.4407898
247	0x3ec21800	0.37908936
248	0xbee65f89	-0.44994763
249	0xbe37c70d	-0.17947026

gat_layer_0.out_att.a f4 [10, 1]
0	0x3e1463dd	0.1449122
1	0x3f7cf511	0.9881144
2	0xbf2833a7	-0.65703815
3	0xbede17ea	-0.4337762
4	0xbedbc7d6	-0.429259
5	0xbf456fcc	-0.77123713
6	0x3ec9096c	0.39265
7	0xbde5d973	-0.11223116
8	0xbf7fbbd9	-0.9989601
9	0xbf33d33e	-0.70244205

gat_layer_1.attention_0.W f4 [5, 10]
0	0x3c9acfb4	0.018897869
1	0xbe8ca609	-0.27470425
2	0x3f0d1a5d	0.5511835
3	0xbf5b6534	-0.857013
4	0x3ef36adf	0.47542474
5	0xbe398a1d	-0.18119092
6	0x3eaa17b6	0.33221215
7	0xbcf4aeb9	-0.02986847
8	0xbf3cf823	-0.73816127
9	0xbf0c08e6	-0.5470108
10	0x3f36cf04	0.7140963
11	0xbf49fb12	-0.7889873
12	0xbed8fedd	-0.42381945
13	0xbdc89977	-0.09794896
14	0xbf527332	-0.82207024
15	0xbbe9a665	-0.0071304315
16	0xbf34f4b8	-0.7068591
17	0xbf38c4ef	-0.72175497
18	0xbf238a6a	-0.6388308
19	0x3f0a1e45	0.5395244
20	0x3ee7dd56	0.45286053
21	0xbf2b086b	-0.6680972
22	0x3f3e0975	0.7423318
23	0xbe7c377f	-0.24630545
24	0x3f2c203f	0.67236704
25	0x3d16b486	0.036793254
26	0xbef58f96	-0.4796111
27	0x3f61f13b	0.88258713
28	0x3dff548d	0.12467299
29	0x3f484d63	0.7824308
30	0x3dea131b	0.11429425
31	0xbf490626	-0.78525007
32	0x3ec2c5b6	0.38041466
33	0xbdfbe976	-0.123003885
34	0x3e64129f	0.22272728
35	0x3f588ebc	0.84592795
36	0xbf05af83	-0.52220935
37	0xbf2b30c4	-0.66871285
38	0xbe64760d	-0.22310658
39	0xbd2c09b9	-0.04200146
40	0xbe65bb09	-0.2243463
41	0x3f414eda	0.7551094
42	0x3f54c47b	0.83112305
43	0x3f3cd253	0.7375843
44	0xbf5686a6	-0.8379921
45	0xbf1d8de7	-0.6154465
46	0x3f2032e9	0.6257768
47	0xbeab2452	-0.33426148
48	0x3f052e04	0.5202334
49	0x3edf72af	0.43642184

gat_layer_1.attention_0.a f4 [20, 1]
0	0x3e3f65e3	0.1869121
1	0xbf0564c4	-0.5210688
2	0xbe59757b	-0.21236221
3	0xbec983d5	-0.39358392
4	0x3f3ffffd	0.7499998
5	0xbf3ccd24	-0.7375052
6	0xbea45f53	-0.32103977
7	0xbf38ae24	-0.7214072
8	0x3f38c6d2	0.72178376
9	0xbf26925b	-0.6506707
10	0x3f3ca1a8	0.7368417
11	0xbe22a156	-0.15881857
12	0xbe516232	-0.20447615
13	0xbe117bfb	-0.14207451
14	0x3f2e5c62	0.68109715
15	0x3e4f040b	0.20216386
16	0x3ee9db3f	0.45675084
17	0xbe5fd4c1	-0.21858503
18	0xbf39ba17	-0.72549576
19	0xbe3bc2e2	-0.1833606

gat_layer_1.attention_1.W f4 [5, 10]
0	0x3f0956ed	0.53648263
1	0xbc537a20	-0.012907535
2	0x3f017064	0.5056212
3	0x3efd3011	0.49450734
4	0xbee2f9bf	-0.44331166
5	0xbe8561d1	-0.2605119
6	0x3d119db6	0.035550795
7	0x3da8996c	0.08232388
8	0xbf13fd8c	-0.57808757
9	0x3e23c39b	0.15992586
10	0xbf5f8dab	-0.87325543
11	0x3dc754b1	0.097329505
12	0xbf34d412	-0.70636094
13	0x3f595637	0.8489718
14	0xbe6e421d	-0.23267408
15	0xbeacc09c	-0.337407
16	0x3e1ccf1b	0.1531338
17	0xbf4a04e9	-0.7891374
18	0x3ee84ed6	0.45372647
19	0x3eca0b51	0.3946176
20	0x3f0532ce	0.52030647
21	0xbf241f60	-0.64110374
22	0xbf5601ab	-0.83596295
23	0xbeaf702a	-0.34265262
24	0xbe5ba4db	-0.21449606
25	0xbe3cf699	-0.18453445
26	0x3f18abb4	0.59637
27	0xbddddb9b	-0.10832902
28	0xbf0cd9ec	-0.5502002
29	0xbeb528a6	-0.35382575
30	0x3dc20dce	0.09475289
31	0x3e986aba	0.29768926
32	0xbf3a2bc2	-0.7272302
33	0x3ed40420	0.41409397
34	0xbe81accd	-0.2532715
35	0x3eac0cc3	0.33603486
36	0xbdfcd8d5	-0.12346045
37	0xbe7356af	-0.23763536
38	0xbe5f312b	-0.217961
39	0x3e30d340	0.17268085
40	0xbf385c03	-0.720154
41	0x3f07328c	0.52811503
42	0xbef65182	-0.4810906
43	0xbeb1fed1	-0.34764722
44	0x3e75185b	0.23935072
45	0x3dd4d6a3	0.10392501
46	0x3e2135b3	0.15743141
47	0xbf5d5aa0	-0.8646641
48	0xbed94a82	-0.42439657
49	0xbd9a0576	-0.07520573

gat_layer_1.attention_1.a f4 [20, 1]
0	0xbf0e71b4	-0.5564225
1	0x3e117e25	0.14208277
2	0xbe1b554a	-0.15169254
3	0xbec4e11b	-0.38452992
4	0x3e5d121d	0.21588941
5	0xbe0b1ab6	-0.13584408
6	0x3c00065d	0.007814017
7	0x3f3ec82f	0.74524206
8	0xbecf8603	-0.4053193
9	0xbe896273	-0.26832923
10	0x3f1b48e0	0.60658073
11	0x3cdf34f1	0.027246924
12	0x3ee2d2be	0.4430141
13	0xbf257ff4	-0.64648366
14	0x3a5db217	0.00084570184
15	0xbec01f14	-0.3752371
16	0xbeb249a6	-0.34821814
17	0x3f35765e	0.7088374
18	0xbd3b0ee7	-0.04566851
19	0x3f274d26	0.65352094

gat_layer_1.attention_2.W f4 [5, 10]
0	0xbdbc881b	-0.092056476
1	0xbf444b78	-0.76677656
2	0xbeabd73e	-0.33562654
3	0xbea65de6	-0.32493514
4	0xbf609802	-0.87731946
5	0xbe9f9cc5	-0.31174293
6	0x3f4009eb	0.75015134
7	0xbe39f87a	-0.18161193
8	0x3eab3db5	0.33445516
9	0xbced11c0	-0.028939128
10	0x3efa1ae8	0.48848653
11	0xbf4deca8	-0.80439234
12	0x3ca78775	0.020450333
13	0x3f1ba0c7	0.607922
14	0x3f5e27d3	0.86779517
15	0xbea5519d	-0.32288828
16	0xbed49a87	-0.41524145
17	0xbe37fbf8	-0.17967212
18	0xbf07ffd9	-0.5312477
19	0xbc46fba6	-0.012144959
20	0x3de6d391	0.11270822
21	0x3eea4cc8	0.45761704
22	0xbf3437f2	-0.70397866
23	0x3f1bc630	0.60849285
24	0x3ef7c7e4	0.48394692
25	0x3ed773ca	0.42080528
26	0xbf4a69ed	-0.7906788
27	0x3e6e6e69	0.23284306
28	0x3d5c83f2	0.05383677
29	0x3e5fb422	0.21846059
30	0x3dfe19b9	0.1240725
31	0xbc98c5ec	-0.018649064
32	0x3e3b1147	0.1826831
33	0x3e16581a	0.14682046
34	0x3f2283c5	0.63482314
35	0xbe5e9478	-0.21736324
36	0xbef322fd	-0.4748763
37	0xbe4900e4	-0.19629246
38	0x3c7223d6	0.014779052
39	0x3eafd901	0.34345248
40	0x3e604ad5	0.21903546
41	0xbe90841f	-0.282258
42	0xbf2946e0	-0.6612377
43	0x3f4d2eef	0.8014974
44	0x3f206d72	0.62667
45	0xbe53babb	-0.20676701
46	0x3ebacd86	0.36484927
47	0xbb333bc4	-0.0027348856
48	0x3e11b091	0.14227511
49	0x3dbb9ef9	0.09161181

gat_layer_1.attention_2.a f4 [20, 1]
0	0x3ecb96dd	0.39763537
1	0x3f0e7f02	0.5566255
2	0xbe9c6999	-0.30549315
3	0x3f1846a1	0.5948277
4	0x3f1ef351	0.6209002
5	0xbf353e31	-0.7079802
6	0xbecf903d	-0.40539733
7	0x3c44cc7b	0.012011643
8	0xbf31d7f3	-0.6947014
9	0x3e89836a	0.26858073
10	0x3f38bc79	0.72162586
11	0x3cb16526	0.021654677
12	0xbc92bcc0	-0.017912269
13	0xbe924e4e	-0.28575367
14	0xbf285d4a	-0.6576735
15	0xbf0001b7	-0.50002617
16	0x3ea3784f	0.31927726
17	0xbd7c290a	-0.061562575
18	0xbe24deef	-0.16100667
19	0xbe2c770a	-0.16842285

gat_layer_1.attention_3.W f4 [5, 10]
0	0x3f0fa83b	0.56116074
1	0xbf65075b	-0.8946435
2	0x3ed7761c	0.42082298
3	0xbf5fd9e3	-0.87441844
4	0x3f4184de	0.75593364
5	0xbe373174	-0.17889959
6	0xbf255f8f	-0.64598936
7	0xbf4a7a78	-0.7909312
8	0x3f68dc98	0.909616
9	0xbd99442e	-0.07483707
10	0x3dac9149	0.084261484
11	0xbf000a71	-0.5001593
12	0xbe005050	-0.12530637
13	0x3f3087a5	0.6895698
14	0x3f130514	0.57429624
15	0x3f0becbf	0.5465812
16	0xbec7bc98	-0.39011073
17	0x3e877a73	0.2646061
18	0x3f342a12	0.70376694
19	0x3f312aa0	0.69205666
20	0x3f2dfcfb	0.6796414
21	0x3ee08dae	0.43858093
22	0xbe1af430	-0.15132213
23	0xbf381fe8	-0.71923685
24	0xbf25c633	-0.64755553
25	0x3f3f9695	0.74839145
26	0x3f251b4a	0.64494765
27	0x3da66909	0.081255026
28	0xbf2a7aa6	-0.66593397
29	0x3d9a8fbd	0.07546947
30	0xbe9b1ab6	-0.30293816
31	0xbf5a0755	-0.8516744
32	0xbebecf5c	-0.37267578
33	0xbecec423	-0.40384015
34	0x3f331db1	0.6996718
35	0xbe8ba8da	-0.2727726
36	0x3e5e7866	0.21725616
37	0xbe97a6d9	-0.29619482
38	0x3eebdc95	0.46066728
39	0xbf234dcd	-0.6379059
40	0xbf180dda	-0.59396136
41	0x3f3163eb	0.6929309
42	0xbf5767b9	-0.84142643
43	0xbef2973f	-0.47381017
44	0x3f26b850	0.6512499
45	0x3f576800	0.84143066
46	0xbd8f9d2f	-0.07012402
47	0xbecad153	-0.39612827
48	0x3efa50c8	0.48889756
49	0x3ec17df8	0.3779142

gat_layer_1.attention_3.a f4 [20, 1]
0	0xbf099f59	-0.5375877
1	0xbe416f92	-0.18890217
2	0xbee9ec95	-0.4568831
3	0xbe66c376	-0.225355
4	0xbe857f7d	-0.26073828
5	0x3f00318e	0.50075614
6	0x3c3cefac	0.011531752
7	0x3ed1a98f	0.40949675
8	0x3e0895ab	0.13338344
9	0xbe8f6d35	-0.28013006
10	0x3f084bd9	0.53240734
11	0xbe445844	-0.19174296
12	0xbecd0c99	-0.40048674
13	0x3f35ec73	0.7106392
14	0xbebca511	-0.36844686
15	0xbd7666f3	-0.060156774
16	0x3efc5546	0.49283808
17	0x3f1a162c	0.6019008
18	0xbeb4cb11	-0.35311177
19	0x3edef59a	0.43546754

gat_layer_1.attention_4.W f4 [5, 10]
0	0x3f58269e	0.84433925
1	0x3edd5095	0.43225542
2	0x3ee932ad	0.45546475
3	0x3dae0236	0.084965155
4	0x3e225e5d	0.15856309
5	0x3e035464	0.12825161
6	0xbf10c969	-0.5655733
7	0x3f2ecc48	0.6828046
8	0xbf1b1c1c	-0.60589767
9	0x3edc482f	0.43023822
10	0xbebfe53f	-0.37479588
11	0xbf511731	-0.8167601
12	0x3ef38184	0.4755975
13	0x3f2fe72e	0.6871213
14	0x3f4a2df7	0.78976387
15	0x3f332c38	0.6998935
16	0xbf21ba4c	-0.6317489
17	0x3f29a380	0.66265106
18	0xbf5c27fe	-0.85998523
19	0x3f0fa0af	0.5610456
20	0xbdf9d56a	-0.121989086
21	0x3f5833bc	0.8445394
22	0xbf4df289	-0.80448204
23	0xbe40d33b	-0.18830578
24	0xbf500bab	-0.81267804
25	0xbf1da332	-0.6157714
26	0xbf5991f2	-0.8498832
27	0x3e216fa8	0.1576525
28	0xbefe44f9	-0.49661997
29	0xbf298d9f	-0.6623172
30	0xbf280317	-0.65629715
31	0xbf317e52	-0.69333375
32	0x3f12fc95	0.5741666
33	0xbe557e62	-0.20848992
34	0x3f44722f	0.7673673
35	0x3f1ca326	0.61186445
36	0x3f4a556d	0.790366
37	0xbe900cf5	-0.28134885
38	0x3da55c27	0.08074217
39	0xbe8299af	-0.25507876
40	0xbeebb1af	-0.46034
41	0xbee7b734	-0.4525696
42	0x3f39b552	0.725423
43	0x3f4313cb	0.76202077
44	0x3f18b5d4	0.5965245
45	0xbf42a06e	-0.76026046
46	0xbda377e3	-0.07981851
47	0x3ef86ef8	0.48522162
48	0x3f4e1f6a	0.80516684
49	0x3ea26a0b	0.3172153

gat_layer_1.attention_4.a f4 [20, 1]
0	0xbf43062b	-0.76181287
1	0xbedcc7e0	-0.43121243
2	0xbec4de43	-0.38450822
3	0x3d8b9173	0.068148516
4	0x3ede41d3	0.43409595
5	0x3eadf98e	0.33979458
6	0x3eb2b910	0.34906816
7	0x3e0ceea4	0.13762909
8	0x3f394722	0.72374165
9	0x3efc1381	0.4923363
10	0x3d755000	0.059890747
11	0x3e0619d4	0.1309579
12	0xbf169d7a	-0.5883404
13	0x3ecdbb29	0.40181854
14	0xbf2879f1	-0.6581107
15	0x3f166852	0.5875293
16	0x3f0b859a	0.54500735
17	0xbe7297fc	-0.2369079
18	0xbe951668	-0.29118657
19	0x3ed3d158	0.41370654

gat_layer_1.out_att.W f4 [50, 5]
0	0x3e0c6c07	0.13713084
1	0x3d33f32a	0.04393307
2	0x3d0cb4aa	0.034351982
3	0x3cb7b48c	0.022424959
4	0xbcf948cd	-0.030430222
5	0x3ed9318c	0.42420614
6	0x3eca2f17	0.39489052
7	0xbd9d5b4e	-0.076834306
8	0x3eb5b7b7	0.35491726
9	0x3e299550	0.16560864
10	0x3dbdc42f	0.09265935
11	0x3dffd7ef	0.12492358
12	0xbec9b757	-0.3939769
13	0x3e464903	0.1936379
14	0x3e618b71	0.22025849
15	0x3de2002c	0.11035189
16	0x3c5e4e79	0.013568514
17	0x3dccb940	0.09996271
18	0xbe639e94	-0.22228462
19	0xbee21707	-0.44158193
20	0xbe042052	-0.12902954
21	0xbe0ed2f9	-0.13947667
22	0xbe695e46	-0.22789869
23	0x3ee31c15	0.44357362
24	0x3ecce91f	0.40021607
25	0x3ea44c36	0.32089394
26	0x3dc02f67	0.09384041
27	0x3e541302	0.20710376
28	0x3e404256	0.18775305
29	0xbe84adb0	-0.25913763
30	0xbec73d2f	-0.38913867
31	0xbed6b361	-0.4193373
32	0x3e862fce	0.26208347
33	0x3ddb9ba2	0.10723044
34	0xbe87240b	-0.26394686
35	0xbebd93fb	-0.37026963
36	0xbe96a8d8	-0.29425693
37	0xbe043d65	-0.12914045
38	0x3d672656	0.056433044
39	0x3c1fb1c2	0.009746971
40	0x3ee3868b	0.44438586
41	0x3e122663	0.14272456
42	0xbe9a8bdf	-0.30184838
43	0x3e72327b	0.2365207
44	0xbe557967	-0.20847093
45	0x3d9df76d	0.07713208
46	0x3ef0e178	0.4704702
47	0x3e828160	0.2548933
48	0x3d549419	0.05189905
49	0x3edb7953	0.42866
50	0xbe815789	-0.25262097
51	0xbc80b65c	-0.015711956
52	0xbd77f678	-0.060537785
53	0xbec00478	-0.3750341
54	0xbd240ae1	-0.040049437
55	0xbec18fd7	-0.37805054
56	0xbd89923d	-0.06717346
57	0x3c4eac5b	0.012614335
58	0x3e293044	0.16522318
59	0xbeb95b96	-0.36202687
60	0x3eafadac	0.3431219
61	0xbe52746f	-0.20552228
62	0xbe77305d	-0.24139543
63	0x3e9ec630	0.3101058
64	0xbee0af89	-0.43883923
65	0x3ec7568e	0.38933223
66	0x3ec338a0	0.3812914
67	0x3e12d42d	0.14338751
68	0x3d0861f2	0.033296533
69	0x3ec6fe5c	0.38865936
70	0x3c43cba8	0.011950411
71	0xbca2f5a2	-0.019892517
72	0x3caca142	0.021072987
73	0x3e94b05e	0.29040807
74	0x3e9417a0	0.28924274
75	0xbef0b686	-0.47014254
76	0xbe48fc14	-0.1962741
77	0xbe3aa5b4	-0.18227273
78	0xbeb88abd	-0.3604335
79	0x3edf520c	0.43617284
80	0xbe10a75f	-0.14126347
81	0x3df42625	0.11921338
82	0x3dad4f26	0.08462362
83	0xbc85ead9	-0.016347336
84	0x3e614371	0.21998383
85	0xbd08d8db	-0.033409934
86	0xbea4f424	-0.32217515
87	0x3e8b8dc4	0.27256596
88	0x3dbd61ef	0.09247195
89	0x3e1a594d	0.15073128
90	0xbd8ad7be	-0.06779431
91	0x3e10e2e9	0.1414906
92	0xbb83c0af	-0.0040207724
93	0x3e1aefbf	0.15130518
94	0x3b0c3ac7	0.0021397339
95	0x3edee080	0.43530655
96	0x3ed0f901	0.40814975
97	0xbe296702	-0.165432
98	0xbe89306b	-0.26794752
99	0x3e173810	0.1476748
100	0x3e5a6c80	0.21330452
101	0x3e15dbf0	0.14634681
102	0xbebe5a8c	-0.37178457
103	0x3d52e9e6	0.051492594
104	0xbec95119	-0.39319685
105	0x3ccbcd30	0.024878114
106	0x3d5363fb	0.05160902
107	0x3e8dae2b	0.27671942
108	0xbd0e5fcf	-0.03475934
109	0xbeac4c7c	-0.33652103
110	0xbeca3546	-0.3949377
111	0x3ea75785	0.3268396
112	0x3ebaf584	0.3651544
113	0x3ed80f2e	0.4219908
114	0xbe67314d	-0.225774
115	0xbef32e4d	-0.47496262
116	0x3e2b28e2	0.16714814
117	0x3e18517b	0.14874832
118	0x3e5e6bf2	0.21720865
119	0xbea70259	-0.3261898
120	0xbe875d97	-0.2643859
121	0x3e830f71	0.25597718
122	0x3eb3120c	0.34974706
123	0x3ef21c01	0.4728699
124	0xbe8b14c1	-0.2716427
125	0x3e053d95	0.13011773
126	0x3e1abdbd	0.15111442
127	0xbdf74d11	-0.12075246
128	0xbebe5827	-0.3717663
129	0xbeddb617	-0.43302986
130	0xbec28582	-0.37992483
131	0x3dded592	0.10880579
132	0x3b5ef215	0.0034018804
133	0x3e9389d6	0.28816098
134	0x3e3eefba	0.18646136
135	0x3e8d56bc	0.27605236
136	0x3e0f377d	0.13986011
137	0xbe70b1f1	-0.2350538
138	0x3ed872c3	0.42275056
139	0xbedccfd7	-0.4312732
140	0x3e0d5dc9	0.13805307
141	0xbd9c3fa8	-0.07629329
142	0x3e6c43d4	0.2307275
143	0x3ecbd64e	0.3981194
144	0xbe06181f	-0.13095139
145	0xbe33cdff	-0.1755905
146	0xbe24c94d	-0.16092415
147	0xbee01a30	-0.4376998
148	0x3daf798f	0.08568107
149	0x3e89207d	0.267826
150	0xbec1ec51	-0.37875608
151	0xbdccd32f	-0.100012176
152	0x3d2f4aeb	0.042796057
153	0x3cb908b7	0.022587163
154	0xbeeada68	-0.45869756
155	0x3eb18597	0.34672233
156	0x3e669c41	0.22520544
157	0xbea53682	-0.3226815
158	0xbea665fb	-0.3249968
159	0xbd41d9b2	-0.04732675
160	0xbe5d97c2	-0.21639922
161	0xbe65888b	-0.22415368
162	0x3eab6a3e	0.33479494
163	0xbed9acf4	-0.42514765
164	0x3e48b1f8	0.1959914
165	0xbecf3f63	-0.40478048
166	0xbeb9a7c2	-0.36260802
167	0x3e958fcf	0.2921128
168	0xbdd83b32	-0.105581656
169	0x3c7ac801	0.015306474
170	0x3ece60d5	0.40308252
171	0x3e6b5f23	0.2298551
172	0xbe06b603	-0.1315537
173	0x3ec4a803	0.38409433
174	0xbed62251	-0.41823056
175	0x3e55f6c4	0.20894915
176	0xbdb86c67	-0.09005051
177	0xbe9d7e84	-0.30760586
178	0x3d43c2ca	0.047793187
179	0x3eb0f5b8	0.3456247
180	0xbdf4199a	-0.119189456
181	0x3ca139d5	0.019680897
182	0x3e049b6d	0.12949915
183	0xbe97d9b8	-0.29658294
184	0x3ed62283	0.41823205
185	0xbec9f934	-0.3944794
186	0x3ea748af	0.3267264
187	0x3e2463b4	0.16053659
188	0xbd456285	-0.04818966
189	0x3e83ecb8	0.2576654
190	0xbe7628af	-0.24038957
191	0xbe68921f	-0.22711991
192	0xbdf092fd	-0.11746786
193	0xbc97fa58	-0.01855199
194	0x3ec108af	0.37701938
195	0x3ecfc9c3	0.4058362
196	0xbf11ef60	-0.5700588
197	0xbda40cc2	-0.08010246
198	0x3eccd978	0.40009665
199	0xbeb2e0ae	-0.34937042
200	0xbd3ed203	-0.046587
201	0xbd1fb5ee	-0.03899186
202	0x3e42b781	0.19015314
203	0x3df26e71	0.11837471
204	0x3ed80c53	0.42196903
205	0xbb8fc4b7	-0.004387464
206	0xbe90b010	-0.28259325
207	0x3d865da6	0.06560831
208	0xbea887cb	-0.32916102
209	0x3c8cdaae	0.017194118
210	0xbecd2ca5	-0.40073124
211	0xbeaf8dc8	-0.34287858
212	0xbec40cb5	-0.38290945
213	0xbd00e64b	-0.031469624
214	0x3e2cf036	0.16888508
215	0xbec86aa7	-0.3914387
216	0x3e968471	0.2939792
217	0xbe0b1d68	-0.13585436
218	0x3e800a64	0.25007927
219	0xbdd19197	-0.10232847
220	0xbe1e6f0b	-0.15472047
221	0xbdd578f4	-0.104234606
222	0x3ea8e4ca	0.32987052
223	0x3ea58861	0.3233061
224	0x3e80e9fa	0.2517851
225	0xbe885430	-0.2662673
226	0xbeadfab4	-0.33980334
227	0xbc4c3f1f	-0.012466221
228	0xbea2669f	-0.3171892
229	0x3dcc3f73	0.099730395
230	0xbecc555e	-0.3990888
231	0x3dbf9d95	0.09356228
232	0xbea8067c	-0.32817447
233	0xbea4d8a1	-0.32196525
234	0xbe94bdbc	-0.29051006
235	0x3e28a21a	0.16468087
236	0x3ebf0281	0.37306598
237	0x3e181157	0.14850365
238	0xbed118f2	-0.40839344
239	0x3e4f1e1c	0.2022633
240	0x3e045d96	0.12926325
241	0x3de98cc7	0.11403804
242	0xbe8e6414	-0.2781073
243	0x3ec1838d	0.37795678
244	0x3ed2ac60	0.41147137
245	0xbea9a3af	-0.33132693
246	0xbdcca24f	-0.099918954
247	0xbee28b95	-0.44247118
248	0x3e5b1fab	0.21398799
249	0xbe1c7abe	-0.15281197

gat_layer_1.out_att.a f4 [10, 1]
0	0x3f15a2f3	0.58451766
1	0xbf337a12	-0.7010814
2	0xbeb92d1b	-0.36167225
3	0xbf8711ec	-1.0552344
4	0xbe9d64d5	-0.3074099
5	0xbed23ca0	-0.41061878
6	0x3e07badf	0.1325488
7	0x3f69e530	0.9136534
8	0xbf1896b0	-0.5960493
9	0xbe838f6d	-0.25695363

gat_layer_2.attention_0.W f4 [5, 10]
0	0xbbfc6dfa	-0.00770354
1	0xbee9ea5f	-0.45686623
2	0xbdf63a57	-0.12022846
3	0xbc877757	-0.016536398
4	0xba7eedfd	-0.0009724794
5	0xbe9234de	-0.2855596
6	0xbec4fe0c	-0.38475072
7	0xbe70b390	-0.23505998
8	0x3e82a5a0	0.25516987
9	0xbf1b25e0	-0.6060467
10	0x3f3f270e	0.7466897
11	0x3f2a58bd	0.66541654
12	0x3f01c797	0.50695175
13	0xbf2310b4	-0.6369736
14	0xbe168995	-0.14700921
15	0x3ea58f3b	0.3233584
16	0x3d6d7406	0.057971977
17	0xbd8bd729	-0.06828148
18	0x3e3d7724	0.1850248
19	0xbf0d8777	-0.5528483
20	0xbe3a5b3c	-0.18198866
21	0x3f1e9b70	0.6195593
22	0xbf69b662	-0.9129392
23	0xbf0bf94b	-0.54677266
24	0x3e76ca5b	0.2410063
25	0x3efad2a5	0.48988834
26	0x3eee437c	0.46535861
27	0xbf3c2d66	-0.7350677
28	0x3e02804a	0.12744251
29	0xbdaa1762	-0.08305241
30	0x3e63c7ff	0.22244261
31	0x3f00ff2f	0.5038938
32	0x3f2cb245	0.6745952
33	0x3f21ef06	0.63255346
34	0xbefc9737	-0.49334118
35	0xbf492489	-0.78571373
36	0xbe947242	-0.28993422
37	0x3f10b8a5	0.56531745
38	0xbf4b65ef	-0.79452413
39	0x3e3ce826	0.18447933
40	0xbf623d31	-0.8837462
41	0xbe80820e	-0.25099224
42	0xbe7156ca	-0.23568264
43	0xbcbdc90d	-0.023167158
44	0x3f3f5704	0.7474215
45	0xbf008623	-0.50204676
46	0xbd872a23	-0.06599834
47	0xbf4ae52b	-0.7925593
48	0xbf5485c0	-0.83016586
49	0x3f37a3d6	0.7173437

gat_layer_2.attention_0.a f4 [20, 1]
0	0xbeceeec7	-0.40416548
1	0x3f1ff377	0.6248087
2	0xbe124f73	-0.1428812
3	0xbf3c827e	-0.73636615
4	0xbe2fd0f9	-0.1716956
5	0x3f301751	0.6878558
6	0x3eac75a7	0.33683512
7	0xbdbbee20	-0.09176278
8	0xbbfb6c3b	-0.007672814
9	0xbf35315f	-0.7077846
10	0xbdfcb8d2	-0.12339939
11	0xbe838e1f	-0.25694367
12	0xbe114b84	-0.14188963
13	0x3f0bd194	0.54616666
14	0xbd4c6e57	-0.049909916
15	0x3f385e78	0.7201915
16	0xbf178000	-0.5917969
17	0xbeb5f27b	-0.3553656
18	0x3ee8ddec	0.45481813
19	0xbee7c028	-0.4526379

gat_layer_2.attention_1.W f4 [5, 10]
0	0x3ec19a5a	0.37813073
1	0x3dd9065c	0.10596916
2	0x3f3f381e	0.74695003
3	0x3f1f2b3e	0.6217536
4	0x3e9492cc	0.29018247
5	0x3e49a57d	0.19692035
6	0x3ec264bd	0.37967482
7	0xbf394c80	-0.72382355
8	0x3e031f49	0.12804903
9	0x3ee38b6c	0.44442308
10	0xbdf77a7c	-0.12083909
11	0xbf53a1b7	-0.8266863
12	0xbf1a3cdd	-0.6024912
13	0xbea46278	-0.32106376
14	0xbe8a14a1	-0.26968864
15	0x3ee91671	0.45524934
16	0x3f5451ea	0.8293749
17	0x3ef2c45c	0.47415435
18	0xbea2a4ea	-0.31766444
19	0x3e8c74f4	0.27432978
20	0x3f08f9b5	0.5350602
21	0xbed4862d	-0.41508618
22	0x3f3e2cd5	0.7428716
23	0x3f5f721b	0.87283486
24	0xbdcc40ab	-0.09973272
25	0xbe91df12	-0.28490502
26	0x3f4cf30d	0.80058366
27	0x3f2b272d	0.6685665
28	0xbea76ce5	-0.32700267
29	0x3f6ee2d6	0.93314874
30	0xbea276bf	-0.3173122
31	0xbebf865d	-0.374072
32	0xbeb518fe	-0.3537063
33	0x3f3e2f3b	0.7429082
34	0x3f09195c	0.5355432
35	0xbd34b9f1	-0.04412264
36	0xbf5f4ed9	-0.87229687
37	0x3b5edf9f	0.00340078
38	0xbf65741d	-0.896303
39	0xbf2760ac	-0.65381885
40	0x3eb8be1e	0.36082548
41	0x3f1ea4f4	0.6197045
42	0x3f29c59d	0.6631716
43	0xbeb3e1c0	-0.3513317
44	0xbf0d7cae	-0.5526837
45	0xbea4db96	-0.3219878
46	0x3e038ed9	0.12847461
47	0xbe67ac5b	-0.22624342
48	0xbcb2807d	-0.021789784
49	0xbf48f025	-0.7849143

gat_layer_2.attention_1.a f4 [20, 1]
0	0xbf2436a6	-0.64145887
1	0x3f07a2f3	0.52983016
2	0xbe386f16	-0.18011126
3	0x3e0843d2	0.13307121
4	0xbf3518e3	-0.707411
5	0xbf084015	-0.5322278
6	0x3f1ed708	0.6204686
7	0x3e9b3bb2	0.3031898
8	0x3e5f941e	0.21833846
9	0xbe018bcf	-0.12650989
10	0x3d80857e	0.062754616
11	0xbef66d60	-0.48130322
12	0x3e4bf1cb	0.19916455
13	0x3e36ccca	0.17851558
14	0x3edef115	0.43543306
15	0xbeb9f5b1	-0.3632026
16	0x3dd20f9a	0.10256882
17	0xbe90c331	-0.2827392
18	0xbecfa3c3	-0.40554628
19	0xbf3cfe7f	-0.7382583

gat_layer_2.attention_2.W f4 [5, 10]
0	0x3e7cd16e	0.24689266
1	0xbf3c1694	-0.7347195
2	0xbe323e30	-0.17406535
3	0x3f2dd10a	0.67897093
4	0x3d805a5b	0.06267234
5	0xbd3f9b74	-0.04677911
6	0xbd9acff2	-0.07559194
7	0x3d96694f	0.07344305
8	0x3d29a22c	0.041414425
9	0x3f1bb346	0.60820425
10	0x3e9e78e0	0.30951595
11	0xbf005e45	-0.50143844
12	0x3f2f0d33	0.68379515
13	0xbf3999ae	-0.7250012
14	0x3e395122	0.18097356
15	0x3e221533	0.158284
16	0xbf17e2e6	-0.59330595
17	0xbe81824f	-0.2529473
18	0x3cc90c41	0.024541976
19	0xbf3ac474	-0.72956014
20	0xbea7e5d0	-0.3279252
21	0x3f1e0847	0.6173138
22	0xbf198530	-0.59968853
23	0x3e8c2abb	0.2737635
24	0xbf0be3aa	-0.5464426
25	0x3dcd6e0c	0.100307554
26	0x3e5ac4b3	0.21364097
27	0x3e54b099	0.20770492
28	0xbdf42e7d	-0.119229294
29	0x3f485ccc	0.78266597
30	0x3eceac48	0.40365815
31	0x3f07a0c3	0.5297968
32	0xbe1c2121	-0.15247013
33	0x3e8f569b	0.27995762
34	0xbf0c9a22	-0.5492269
35	0xbe152efb	-0.14568703
36	0xbf3b180b	-0.7308356
37	0xbf1969a1	-0.599268
38	0x3e8086ad	0.2510275
39	0xbed92e59	-0.42418173
40	0xbe66128e	-0.22468016
41	0xbf05e12e	-0.5229672
42	0xbee3e304	-0.44509137
43	0x3f07d846	0.5306438
44	0x3f563d39	0.8368717
45	0xbec13990	-0.3773923
46	0xbe9a0dd5	-0.30088678
47	0x3f1c5bc0	0.610775
48	0x3e4ad06a	0.19806066
49	0x3f637e94	0.8886502

gat_layer_2.attention_2.a f4 [20, 1]
0	0xbe8dedeb	-0.2772058
1	0xbf3cf207	-0.73806804
2	0x3e6cdb3d	0.23130508
3	0x3f2576e5	0.64634544
4	0xbf1afd17	-0.60542434
5	0x3f446198	0.76711416
6	0xbf2823c4	-0.65679574
7	0xbf0d9228	-0.5530114
8	0xbe0a4c1e	-0.13505599
9	0xbe8719eb	-0.2638696
10	0x3f1e7b9c	0.6190736
11	0x3ea191bf	0.31556508
12	0x3f1d0a68	0.61344004
13	0xbe66d404	-0.22541815
14	0x3e05fcf2	0.13084772
15	0x3e65cf5f	0.22442387
16	0xbd07006d	-0.03295939
17	0xbcee70e1	-0.02910656
18	0xbec27129	-0.3797696
19	0xbef7dec6	-0.4841215

gat_layer_2.attention_3.W f4 [5, 10]
0	0xbf55841c	-0.8340471
1	0x3f1ed436	0.6204256
2	0xbeabf2bc	-0.3358363
3	0x3f359d06	0.70942724
4	0xbedb4e3d	-0.4283313
5	0x3f6288de	0.8849009
6	0x3cbb2160	0.022843063
7	0x3f2fb4e7	0.6863541
8	0x3e426ab7	0.18986021
9	0x3e9d0fcc	0.30676115
10	0x3f5e7ffc	0.8691404
11	0x3f1d943d	0.6155432
12	0x3e070cca	0.13188472
13	0x3f3cadd9	0.7370277
14	0x3e09b284	0.13447005
15	0xbeba4c3d	-0.3638629
16	0xbf3fe88f	-0.7496423
17	0x3f42a9df	0.7604045
18	0xbf03a7cb	-0.51427907
19	0x3ef9af8b	0.4876674
20	0x3f4943eb	0.7861926
21	0x3e9301c2	0.2871228
22	0xbe8379c8	-0.2567885
23	0xbf0dbf0c	-0.5536964
24	0x3f33bad0	0.7020693
25	0x3f0774e1	0.5291272
26	0x3db7ffdb	0.089843474
27	0xbef55afb	-0.47920975
28	0xbf3d52a9	-0.73954254
29	0x3ec54d50	0.38535547
30	0x3c48339a	0.012219334
31	0xbf80b6bd	-1.0055767
32	0x3f583b47	0.8446545
33	0x3e3565df	0.17714642
34	0x3edb7452	0.42862183
35	0xbf42bcdb	-0.7606942
36	0xbdbdb142	-0.09262325
37	0x3e8bb7ac	0.27288568
38	0x3e470ca6	0.19438419
39	0xbe50d81d	-0.2039494
40	0x3f414fa3	0.7551214
41	0xbf8051d0	-1.0024967
42	0x3e8e81be	0.2783336
43	0x3f30ea13	0.6910717
44	0x3e1a0498	0.15040815
45	0xbf118558	-0.5684409
46	0xbf3bec82	-0.7340776
47	0x3e10baa9	0.14133705
48	0x3ebea6e9	0.37236717
49	0x3ef1afbb	0.47204384

gat_layer_2.attention_3.a f4 [20, 1]
0	0x3f1db732	0.6160766
1	0xbeca42f5	-0.3950421
2	0xbf3d1da7	-0.7387337
3	0x3f11bf0a	0.5693213
4	0xbe79347b	-0.24336426
5	0x3d491f7b	0.049102288
6	0x3ed6e2ce	0.41969913
7	0xbf196d2a	-0.59932196
8	0xbe312997	-0.17301022
9	0x3dadef29	0.08492882
10	0x3ea4e129	0.32203034
11	0x3f1da2c5	0.6157649
12	0xbe0eca4e	-0.1394436
13	0x3ea7ae0e	0.3274998
14	0xbe3357f4	-0.1751402
15	0xbe553642	-0.20821479
16	0xbec52a95	-0.3850905
17	0x3e9aabca	0.3020919
18	0xbefe454c	-0.49662244
19	0xbe91c14c	-0.28467786

gat_layer_2.attention_4.W f4 [5, 10]
0	0xbe1f177c	-0.15536302
1	0x3f0c63b1	0.54839617
2	0xbf2b72fc	-0.6697233
3	0xbe0b6ab8	-0.13614929
4	0xbe8542a7	-0.26027414
5	0x3eb31f1a	0.34984666
6	0xbf1fae41	-0.62375265
7	0xbeac428c	-0.3364452
8	0x3dc8c7bf	0.098037235
9	0x3e968ff0	0.2940669
10	0x3f055afd	0.5209196
11	0x3e803125	0.25037494
12	0x3e8b6859	0.27228048
13	0x3f257c4e	0.646428
14	0x3f56418d	0.8369377
15	0x3efa31c9	0.48866108
16	0xbdf4d4ed	-0.11954675
17	0xbe91e86d	-0.2849764
18	0xbebeec6e	-0.37289757
19	0xbe3a2afa	-0.18180457
20	0xbf1c7bb7	-0.61126274
21	0xbf50bab3	-0.8153488
22	0xbf344d11	-0.70430094
23	0x3f52f599	0.82406
24	0xbe41fd11	-0.18944193
25	0xbf2b14a3	-0.66828364
26	0xbf3b1ad7	-0.7308783
27	0xbe1eccb6	-0.15507779
28	0x3e126fff	0.14300536
29	0xbf2331ef	-0.6374807
30	0x3e8776e5	0.26457897
31	0x3f3837ba	0.7196003
32	0x3e8a2945	0.2698461
33	0xbf0c8a21	-0.5489827
34	0xbf0f6e16	-0.5602735
35	0xbebbc866	-0.3667633
36	0x3f4335b4	0.7625382
37	0x3e150ee6	0.14556465
38	0x3e8fa5a8	0.28056073
39	0xbf3b7587	-0.7322621
40	0xbdcd3d8f	-0.10021507
41	0xbee9710a	-0.45594054
42	0x3eb17182	0.34656912
43	0x3f24e99f	0.6441898
44	0x3d1a248b	0.037632506
45	0xbf2520ac	-0.6450298
46	0xbd66a7c3	-0.056312334
47	0x3f6b3c98	0.91889334
48	0xbe469e49	-0.19396318
49	0xbf4801f5	-0.78127986

gat_layer_2.attention_4.a f4 [20, 1]
0	0xbd85133d	-0.0649781
1	0x3e57e06e	0.21081707
2	0x3f3dcbd1	0.74139124
3	0xbf0c3e2c	-0.54782367
4	0xbf2d4655	-0.67685443
5	0xbf01945f	-0.5061702
6	0xbf1da9e2	-0.61587346
7	0x3eb91e7d	0.36156073
8	0xbe4801ea	-0.1953198
9	0xbd4d858b	-0.050176185
10	0xbe9eab10	-0.30989885
11	0x3f14a4d0	0.58063984
12	0xbed39eec	-0.41332185
13	0xbf32fd57	-0.69917816
14	0x3e9b01a7	0.30274698
15	0x3f163e37	0.5868868
16	0xbe8ed8c9	-0.2789977
17	0xbf1d1f04	-0.6137545
18	0x3f1b9aca	0.60783064
19	0xbd5b94f4	-0.05360885

gat_layer_2.out_att.W f4 [50, 5]
0	0x3ee53e89	0.44774273
1	0xbe51fbb0	-0.20506167
2	0xbe23c5ba	-0.15993395
3	0xbe1ad3af	-0.15119813
4	0xbeb1fa88	-0.34761453
5	0x3e40d0a0	0.18829584
6	0xbd8038e6	-0.062608525
7	0x3e945e16	0.28978032
8	0x3eb1b478	0.34708
9	0x3e11e06c	0.14245766
10	0xbdeac6f6	-0.1146373
11	0x3e9dfbde	0.30856222
12	0xbe9978a6	-0.2997486
13	0xbea710f5	-0.32630125
14	0xbeae5f13	-0.3405691
15	0x3bc72f5f	0.006078645
16	0xbe5facbb	-0.21843235
17	0xbd9db45a	-0.07700415
18	0xbe8bdf60	-0.2731886
19	0xbea71005	-0.3262941
20	0x3e3219e8	0.17392695
21	0xbdcab6d5	-0.09898154
22	0x3dadbe5b	0.08483573
23	0xbd987960	-0.074450254
24	0x3d4662ca	0.048434056
25	0xbe84bb59	-0.25924185
26	0xbe424b90	-0.18974137
27	0x3e9f4e4b	0.3111442
28	0x3b82ccc3	0.0039916947
29	0xbe17c680	-0.14821815
30	0xbe1c8265	-0.15284117
31	0x3eba09c4	0.36335576
32	0x3eab1971	0.33417848
33	0x3e836595	0.25663438
34	0x3e3cc524	0.18434578
35	0xbe2cba9c	-0.16868061
36	0xbe96f633	-0.2948471
37	0xbe67c6e0	-0.22634459
38	0x3dab7d46	0.083735034
39	0x3e7f9e08	0.24962628
40	0xbdf4489d	-0.119279124
41	0xbeba2104	-0.36353314
42	0xbd1f8006	-0.038940452
43	0xbec6ef76	-0.3885457
44	0x3d42bb18	0.047541708
45	0x3e1a4af7	0.1506766
46	0x3ec21004	0.37902844
47	0xbde81a96	-0.11333196
48	0x3ed80697	0.42192528
49	0x3ecd0d1f	0.40049073
50	0x3c29d25b	0.010365094
51	0xbe0985e7	-0.13429986
52	0xbe46a745	-0.19399746
53	0xbeb124df	-0.34598443
54	0xbe8f66e8	-0.280082
55	0xbe4b1537	-0.19832312
56	0x3b52a803	0.00321436
57	0xbd2dc3df	-0.042423125
58	0xbe7f6779	-0.24941815
59	0x3e95f860	0.29291058
60	0x3deb2837	0.1148228
61	0xbe5c52d6	-0.21515974
62	0xbedef804	-0.43548596
63	0x3eacc45f	0.3374357
64	0xbe98c79e	-0.29839796
65	0xbec7e9ff	-0.39045712
66	0x3ecbe006	0.39819354
67	0x3e910e2e	0.2833113
68	0xbd851e6d	-0.06499944
69	0x3e2d371f	0.16915558
70	0xbe909d5a	-0.2824505
71	0x3ecbfadf	0.39839837
72	0xbd80b652	-0.06284775
73	0xbe5651ee	-0.20929691
74	0xbdd6ee48	-0.10494667
75	0xbed12169	-0.40845802
76	0x3d17af4b	0.037032407
77	0x3e2ca906	0.16861352
78	0xbe78978c	-0.2427656
79	0xbdfadd9f	-0.12249302
80	0xbea2cd02	-0.31797034
81	0x3ddf6f0b	0.10909852
82	0xbd93ff32	-0.07226409
83	0x3e7b5c2c	0.2454688
84	0xbc058e68	-0.008151628
85	0xbdb34b80	-0.08754635
86	0xbdc698e4	-0.0969713
87	0xbed82abd	-0.42220107
88	0xbd94059e	-0.07227634
89	0xbe9dd7a0	-0.3082857
90	0xbda07db1	-0.07836474
91	0xbea365c6	-0.31913584
92	0xbe1b110c	-0.15143222
93	0xbe6e96ad	-0.23299666
94	0xbf02c4e7	-0.510817
95	0x3de9b2c7	0.11411052
96	0x3e5057b8	0.20345962
97	0x3e68ac92	0.2272208
98	0x3d5f8456	0.054569565
99	0x3e0fb26a	0.14032903
100	0xbebba592	-0.36649758
101	0xbea8e8d9	-0.3299015
102	0xbd79bbba	-0.060970046
103	0xbe0dea4a	-0.13858905
104	0xbe7736d8	-0.24142015
105	0xbec162ec	-0.37770784
106	0xbe100771	-0.14065339
107	0xbed9325d	-0.42421237
108	0x3e55f6a9	0.20894875
109	0xbedbadd6	-0.42906064
110	0xbeeb62f0	-0.4597392
111	0xbe494889	-0.19656576
112	0xbdb0232d	-0.08600459
113	0x3e93d122	0.28870493
114	0x3e988dd4	0.29795706
115	0x3e02d911	0.12778117
116	0x3e59cc35	0.21269305
117	0x3e55c88e	0.20877287
118	0x3e3cb79c	0.18429416
119	0xbe189b83	-0.14903073
120	0xbece6642	-0.40312392
121	0xbeabd360	-0.33559704
122	0x3e230178	0.15918529
123	0x3e9505dc	0.29106033
124	0x3e7672be	0.24067208
125	0x3c853f22	0.016265456
126	0x3e9feea0	0.31236744
127	0xbeb75275	-0.35805097
128	0x3e987d49	0.29783085
129	0xbec7516c	-0.38929307
130	0xbe271b17	-0.16318928
131	0x3e49d4d3	0.19710092
132	0x3ebab728	0.36467862
133	0xbeb60dc1	-0.35557368
134	0x3c6cad8c	0.014445674
135	0xbe8078f5	-0.25092283
136	0xbe461051	-0.19342162
137	0xbe7f31b1	-0.249213
138	0x3c8fd2e2	0.017556611
139	0xbe886606	-0.26640338
140	0xbdadb781	-0.08482266
141	0xbe81843d	-0.25296202
142	0x3c6c869d	0.014436391
143	0xbebef440	-0.37295723
144	0xbcf88bba	-0.030340064
145	0xbede5311	-0.4342275
146	0x3ee55de2	0.4479819
147	0xbe3bde35	-0.18346484
148	0x3e909b26	0.2824337
149	0xbedfa601	-0.43681338
150	0x3ea46fd7	0.32116577
151	0xbef34fa6	-0.47521704
152	0x3e306ef5	0.17229827
153	0xbacf459d	-0.0015813593
154	0x3e804b3c	0.250574
155	0xbe3a21f2	-0.18177012
156	0xbe704dc3	-0.23467164
157	0xbe205efb	-0.15661232
158	0xbd64295e	-0.055703513
159	0xbe13a7e5	-0.14419515
160	0x3de33671	0.11094368
161	0xbe6c0217	-0.23047672
162	0xbcc05748	-0.023479119
163	0xbe1b4517	-0.15163074
164	0x3e9b374c	0.30315626
165	0xbe54a783	-0.20767026
166	0x3ec8f434	0.39248812
167	0x3ec81fe5	0.39086834
168	0x3c542ec0	0.012950599
169	0x3eb59301	0.35463718
170	0x3e62f73b	0.22164623
171	0xbda06f22	-0.07833697
172	0x3e519ba4	0.20469528
173	0x3ed0146c	0.4064058
174	0x3eb421a3	0.35181913
175	0x3e087459	0.13325633
176	0xbe812867	-0.25226137
177	0xbe1ee583	-0.1551724
178	0x3eae9d31	0.34104303
179	0x3bf11a6a	0.007357885
180	0x3e48d33f	0.19611834
181	0xbd5320d4	-0.05154498
182	0xbea9810f	-0.33106276
183	0xbe93892b	-0.28815588
184	0x3e0bcad2	0.13651589
185	0xbe9630c6	-0.29334086
186	0x3ed7c0e2	0.42139345
187	0xbee9e30d	-0.45681038
188	0x3df8cc20	0.12148309
189	0xbe62caa2	-0.22147611
190	0xbebe8733	-0.37212524
191	0xbd15bc36	-0.036556445
192	0xbcd28e49	-0.025702612
193	0x3ec79fed	0.389892
194	0xbdb21dee	-0.08697115
195	0x3df50dbf	0.119655125
196	0x3e7932d6	0.24335799
197	0xba10b35a	-0.00055198895
198	0x3c9a7fd9	0.01885979
199	0x3f08b91a	0.5340744
200	0xbee1bc06	-0.44088763
201	0x3e3d9a48	0.18515885
202	0x3ea2509a	0.3170212
203	0x3cd5050b	0.026003381
204	0x3e606632	0.21913984
205	0x3e3eb7c7	0.18624793
206	0x3e249bab	0.16075008
207	0xbd65ccc6	-0.05610349
208	0xbec5e8b9	-0.38654116
209	0x3ec5f8eb	0.38666472
210	0xbde45d5f	-0.111506216
211	0xbe9315bd	-0.28727522
212	0x3dc41142	0.09573604
213	0x3ea1a27a	0.31569272
214	0xbe059102	-0.13043597
215	0x3e370b59	0.17875423
216	0x3e62671a	0.22109643
217	0xbe7d4999	-0.24735107
218	0x3cbd01b3	0.0230721
219	0x3ea906a5	0.33012882
220	0xbeca7d7d	-0.39548865
221	0x3ecd5e3a	0.40110952
222	0x3ea1f2ef	0.31630656
223	0xbee6b03f	-0.4505634
224	0xbe15caeb	-0.14628188
225	0x3ebc40e8	0.3676827
226	0x3ec4cfeb	0.3843988
227	0xbe9b66f2	-0.3035198
228	0x3e7cca94	0.24686652
229	0x3ed00dd6	0.40635556
230	0xbedfea75	-0.43733564
231	0xbb99705a	-0.004682583
232	0x3d8c0725	0.068373
233	0xbeb3c8c1	-0.351141
234	0x3d10c63d	0.035345305
235	0xbe9754b6	-0.29556817
236	0xbea2759c	-0.31730354
237	0x3e9e2aa2	0.308919
238	0x3e5703be	0.20997521
239	0x3d8eb324	0.06967762
240	0xbea3e05a	-0.32007104
241	0xba90132f	-0.0010992045
242	0x3ebd8d8c	0.37022054
243	0xbdd9454a	-0.10608919
244	0xbeff1ccf	-0.49826667
245	0x3d9e3657	0.07725208
246	0xbe64285f	-0.22281025
247	0xbe871b04	-0.263878
248	0xbc2bf7a0	-0.01049605
249	0xbeafeedf	-0.34361932

gat_layer_2.out_att.a f4 [10, 1]
0	0x3dd39643	0.103313945
1	0x3f5f7504	0.87287927
2	0xbdfb23eb	-0.1226271
3	0x3f3ebb19	0.7450424
4	0x3ee0341b	0.43789753
5	0x3ead5adb	0.3385838
6	0x3d80f968	0.062975705
7	0x3f82a714	1.0207238
8	0xbebc7815	-0.36810365
9	0xbf22d80d	-0.6361092
