tests/gat/encoder-checkpoint2.pt (torch, 20170 bytes, 36 tensors)

gat_layer_0.attention_0.W f4 [5, 10]
000000 75 cb f1 be 14 70 53 bf 7f 4d d1 3e a9 2c ab be
       -0.47225538 -0.8259289 0.40879437 -0.3343251
000010 39 e0 db bd 0d b8 a9 3e c9 50 4f 3f a5 e2 0a be
       -0.107361265 0.33148232 0.80982643 -0.1356302
000020 ee 78 01 3f 9f ad f4 be 9c 73 66 be 33 65 0f 3e
       0.5057515 -0.47788712 -0.22505039 0.14003448
000030 f2 59 91 3e 71 c9 5a bf c8 da 4a be 4e 64 e0 3d
       0.28388935 -0.85463625 -0.19810021 0.109566316
000040 e6 ce 27 bf bb 9d 14 be dd 81 cb be 84 52 90 3d
       -0.65550077 -0.14513294 -0.39747515 0.070469886
000050 8d 60 fc 3d 46 33 d2 3e 2b f3 c2 3e 0f 7d ee 3e
       0.12323103 0.41054744 0.38076147 0.46579787
000060 65 77 84 bd a7 3b c0 be 1f f1 d3 3e 53 d6 41 3f
       -0.06468085 -0.3754551 0.41394898 0.7571766
000070 94 88 c8 3c fa 64 ea bd b1 6f f2 be c2 f0 dc 3e
       0.024479188 -0.11445041 -0.4735084 0.43152434
000080 7c 68 28 3d 2a 63 06 bf f9 46 7f be 28 0c c7 3e
       0.04111527 -0.5249506 -0.24929418 0.38876462
000090 1d 86 65 bf 70 2f a3 3e 05 89 47 3f 29 47 59 bf
       -0.89657766 0.3187213 0.7794345 -0.84874207
0000a0 f7 38 22 3f 5b f1 47 bf da 2e 82 3e 4a e6 93 3e
       0.6336817 -0.78102654 0.2542637 0.28886634
0000b0 c9 70 1a be 4d 44 50 3f aa ad 0c bd 8e b7 3f 3f
       -0.15082087 0.8135422 -0.034345306 0.7488946
0000c0 9d ac e4 3e 2b d1 bc be
       0.44662943 -0.36878332

gat_layer_0.attention_0.a f4 [20, 1]
000000 61 f6 21 be 5d f2 54 be 22 33 31 3e 03 73 3a 3f
       -0.15816642 -0.20795579 0.17304662 0.72831744
000010 b8 04 a6 be 5f 8f 81 bd e4 8d 22 3f 77 58 01 bf
       -0.32425475 -0.06326174 0.6349776 -0.5052561
000020 fd b2 b2 bd e1 33 25 3f 61 cb 01 bf ab 85 43 bf
       -0.087255456 0.64532286 -0.50700957 -0.76375836
000030 11 77 fc 3e 9a b3 09 be 31 cf 16 be 30 22 a7 be
       0.4930959 -0.13447419 -0.14727475 -0.3264327
000040 58 17 a5 3e f1 30 2b 3e 9a 82 a2 3d bf 72 d3 3c
       0.32244372 0.16717888 0.079350665 0.025811551

gat_layer_0.attention_1.W f4 [5, 10]
000000 83 23 53 bf c4 33 b8 bc a9 26 35 bd fc 94 45 bc
       -0.8247606 -0.022485621 -0.044226322 -0.012059446
000010 c6 c5 aa bd 60 56 62 be 3d f5 56 bf a1 10 3e 3f
       -0.083385035 -0.22103262 -0.83967954 0.74244124
000020 b5 2e 42 bf 2c df 33 bf 64 b7 b9 3e 84 f5 57 bf
       -0.7585252 -0.7026241 0.36272728 -0.84359
000030 c3 91 34 bf 16 6a 32 3f 81 3c 60 3f 02 62 c9 be
       -0.70534915 0.69693124 0.8759232 -0.39332587
000040 03 c3 3e 3f 1b 6b 94 be 98 11 09 bd ca aa 28 3e
       0.74516314 -0.28987965 -0.033464044 0.16471401
000050 e8 ee 23 3d 18 72 09 3f e0 01 0d bf e1 b3 99 be
       0.04002276 0.5368972 -0.55080986 -0.3002005
000060 14 25 3f be 38 9a de be 87 40 45 3f f3 08 ec 3d
       -0.18666488 -0.43477035 0.77051586 0.115251444
000070 0c a2 38 bf 13 b2 e2 be 40 d6 04 3f fc 49 f3 3d
       -0.72122264 -0.44276485 0.5188942 0.11879346
000080 36 47 bc 3e 9c 01 c3 3e 84 8a 5c 3d aa e0 43 3f
       0.3677308 0.38087165 0.053843036 0.76514685
000090 bd a3 c5 be 40 2d 63 3f 9e 4e cf be 19 57 4d bd
       -0.38601485 0.8874092 -0.40489668 -0.05013189
0000a0 54 21 1a bf 71 0b a9 be 44 f2 52 3f 6d b0 2c bf
       -0.60207105 -0.33016542 0.8240092 -0.67456704
0000b0 5e 0e 17 3f 32 a6 26 3f 33 db 09 bf a2 2b 02 bf
       0.590063 0.65097344 -0.53850096 -0.5084783
0000c0 58 24 48 bf 96 99 24 bf
       -0.78180456 -0.64296854

gat_layer_0.attention_1.a f4 [20, 1]
000000 f3 39 ba be f4 1c a4 3d 44 35 97 3e 02 da 75 be
       -0.36372337 0.08013335 0.29532826 -0.24008945
000010 6a 60 7a 3e 52 08 bd be a7 f6 0a bf 1e 3e fe be
       0.24450842 -0.3692041 -0.5428261 -0.49656767
000020 02 c8 d0 bd 04 68 88 be c3 0e 0c 3f 66 d7 37 3e
       -0.101943985 -0.26641858 0.54710025 0.17953262
000030 ec cd 9a be 03 44 a5 be 79 b8 38 3e 76 57 04 3e
       -0.3023523 -0.3227845 0.1803912 0.12923989
000040 2a e2 ca be a7 2e f1 be eb 47 2f 3f 94 3f d4 3c
       -0.39625674 -0.47105905 0.68469113 0.025909223

gat_layer_0.attention_2.W f4 [5, 10]
000000 dc ee 53 3f 17 31 e0 be 92 a5 04 be 2a 4f 47 3f
       0.82786345 -0.43787453 -0.12953785 0.7785517
000010 95 66 2e 3f f7 98 a3 3d f4 b5 19 bf 3b 66 09 bf
       0.6812528 0.0798816 -0.60043263 -0.53671616
000020 ea ab 1e bf b4 9e 08 bf b1 e8 86 3e c1 50 5b bf
       -0.6198107 -0.5336716 0.26349404 -0.85670096
000030 2c 4f 55 bf 34 99 25 3e 8b c5 64 be 85 fc b9 be
       -0.8332393 0.16171724 -0.22340982 -0.3632547
000040 c5 1c 5a bf 78 fe 88 3e ec 53 a7 bd 68 95 c6 be
       -0.8520015 0.26756644 -0.08170304 -0.38785863
000050 bf af 07 bf 78 17 3a 3f 9e 8d 39 3f 44 75 b3 be
       -0.5300254 0.7269206 0.72481716 -0.35050404
000060 eb b9 ec 3e 7f ab 3c 3e 6a 0f 07 bf b0 63 ed be
       0.46235594 0.18424796 -0.52757895 -0.46365118
000070 17 6f 5f 3f 79 16 24 3f 35 3d 61 bf a0 1d 9c 3e
       0.87278885 0.6409679 -0.8798402 0.30491352
000080 2a b4 22 3f 58 df 63 3e a1 74 16 bf c1 e5 66 be
       0.6355616 0.22253168 -0.5877171 -0.22548582
000090 b9 40 31 bf 64 8e ab be b8 97 00 bf 06 3c 0e 3f
       -0.69239384 -0.33507073 -0.50231504 0.5556034
0000a0 66 c3 95 bd 0b 3a 0b be 7d 3f 2d bf c9 6c 2f 3e
       -0.0731266 -0.1359636 -0.67675 0.17131342
0000b0 57 5f 20 3d b7 70 a2 be 6b f8 59 bf 62 11 59 bf
       0.039153423 -0.3172662 -0.8514468 -0.8479215
0000c0 51 50 1b be 36 df a7 3e
       -0.15167357 0.32787484

gat_layer_0.attention_2.a f4 [20, 1]
000000 46 9b e7 be 71 62 96 be ca c8 bc be 93 20 1e bf
       -0.45235652 -0.2937198 -0.3687194 -0.61768454
000010 86 18 3b bf 25 39 05 3f 49 af c8 3c d2 64 09 3f
       -0.73084295 0.5204032 0.024497645 0.53669465
000020 0e 82 e7 3e c4 18 0f 3f 6c a2 39 3f ff 68 2e bf
       0.4521641 0.55897164 0.7251346 -0.6812896
000030 2d 05 01 bf 62 5d 6f 3e dc cf ff 3e 7e f8 84 3e
       -0.5039852 0.23375466 0.49963272 0.25970834
000040 77 3c 27 3f 9d 67 93 be dc 31 02 bf 97 89 f8 be
       0.6532664 -0.28789988 -0.5085733 -0.48542473

gat_layer_0.attention_3.W f4 [5, 10]
000000 4d 9d ac be 6d 0e d4 bd 49 74 b8 3d bd 17 c8 3e
       -0.3371376 -0.10354314 0.09006555 0.3908061
000010 76 0c 97 be fd 5b 49 bf e7 5e 22 bf d8 a3 5f 3f
       -0.29501694 -0.7865599 -0.6342606 0.8735938
000020 82 d2 87 bd 19 8c 02 bf e5 74 2f bf 87 bc 21 3e
       -0.06631948 -0.5099502 -0.6853774 0.15794574
000030 01 b1 f6 3d 92 48 11 3e bd 45 d5 be be 13 10 bf
       0.120454796 0.1418784 -0.4165477 -0.56280124
000040 01 67 24 bf b6 6a 3e 3e 88 e9 10 3f b8 ff 26 3e
       -0.6421967 0.18595394 0.5660634 0.16308486
000050 6b be 16 3f 1c 77 37 3f 50 c2 82 be f9 11 e9 3d
       0.58884305 0.7166612 -0.25538874 0.11380381
000060 a1 02 b2 3e c7 c9 28 bf 03 99 dc 3e bd fb 1a bf
       0.3476763 -0.6593289 0.4308549 -0.6054037
000070 13 db 02 bf 61 9d b7 3e 25 06 db bd f2 5b 7f bc
       -0.5111553 0.35862258 -0.10694531 -0.015585886
000080 d6 ff 18 bf f7 f6 f8 3e 2a 5c 22 3f 7f 8d 38 bf
       -0.59765375 0.4862592 0.6342188 -0.72090906
000090 07 85 ef be e9 e0 2c bf 0f 79 20 3f af 5f 42 3e
       -0.4678118 -0.67530686 0.6268472 0.18981813
0000a0 69 e8 2f 3f c4 14 a7 3e 29 b8 42 bf 3a 58 e7 3e
       0.68714005 0.3263303 -0.76062256 0.451845
0000b0 ee e8 09 3e 58 5a b1 be bb 87 20 bf 70 62 29 3e
       0.13467762 -0.3463924 -0.6270711 0.16541457
0000c0 f6 c8 2f 3f 7e cd 26 bf
       0.6866602 -0.65157306

gat_layer_0.attention_3.a f4 [20, 1]
000000 a3 36 a9 be e8 a5 20 3d 91 9b fb 3e 4b d3 3e 3f
       -0.33049497 0.03922072 0.49142125 0.7454116
000010 00 4a 27 3f d7 08 2b 3f ac 50 13 bd af 8f 3e 3f
       0.6534729 0.66810364 -0.035965607 0.74437994
000020 9a de a0 3d a6 e9 04 bf ab 97 82 be c0 0b 14 bf
       0.07854958 -0.5191902 -0.25506338 -0.5783043
000030 a2 03 70 bd 9a d0 24 bf 45 cc be be 6d d5 a3 3d
       -0.058597215 -0.643808 -0.3726522 0.07999692
000040 a8 0c f2 3e f5 39 95 3c c3 66 e3 3e 5b a7 fb 3d
       0.4727528 0.018216113 0.44414338 0.1228778

gat_layer_0.attention_4.W f4 [5, 10]
000000 9b c6 99 be d3 63 3d bf 87 7c 4c 3f 1c db ac 3e
       -0.30034336 -0.73980445 0.79877514 0.33760917
000010 a8 48 c6 3c 42 26 91 3e c9 4a eb 3e ff ce 6d 3e
       0.024204567 0.283495 0.45955494 0.23223494
000020 50 ce b6 be 4d 56 29 bf b5 60 f3 bd 6e 72 ea be
       -0.3570428 -0.6614731 -0.1188368 -0.45790428
000030 2b 6e 5d bf 84 b2 13 bf e1 3d d0 3e fd 39 f7 3e
       -0.8649623 -0.5769427 0.4067221 0.4828643
000040 d1 ca 27 bf 9d 4f 8f be 0f fd b3 3e bb fa df 3e
       -0.6554385 -0.27990428 0.35154006 0.4374598
000050 1b c7 2e bf 32 04 04 3f 2b 0b a1 be cb 7f e7 be
       -0.6827256 0.515689 -0.31453833 -0.45214686
000060 1a f1 2a bf d5 77 5f 3e f2 11 b7 3d 23 f7 f2 3e
       -0.6677414 0.21823056 0.0893897 0.47454175
000070 b8 14 1d be 83 3b 28 3f 73 66 5a be d6 91 80 be
       -0.15339935 0.6571581 -0.21328144 -0.25111264
000080 31 99 e0 be 26 14 13 3f fd 96 65 bf d2 4c 3c 3e
       -0.43866876 0.5745262 -0.89683515 0.1838868
000090 1b 38 3b bf 98 27 f8 be b4 d6 4c bf 88 25 3b 3f
       -0.73132485 -0.48467708 -0.8001511 0.73104143
0000a0 4b 3b 1f bf 0a c0 3f 3f a9 34 15 3f 0d 20 8e bd
       -0.6219985 0.74902403 0.5828348 -0.06939707
0000b0 a9 5e 88 be db da 48 3f 1f d3 4d 3f 36 9f 4a 3f
       -0.2663472 0.78458947 0.8040027 0.79149187
0000c0 71 ee 52 bf f6 c1 28 3e
       -0.8239508 0.1648024

gat_layer_0.attention_4.a f4 [20, 1]
000000 f8 f9 d1 3c 63 ff e7 be ee cc ee be 50 1c da be
       0.02563189 -0.45312032 -0.46640724 -0.42599726
000010 d0 e2 8e be 2f 4c 0b 3f b6 2b d9 3e 0d c6 24 3e
       -0.2790742 0.5441312 0.4241616 0.16091175
000020 3c ff e4 be bd bd c5 3e f9 be 26 3f 83 f6 24 3f
       -0.44725978 0.3862132 0.6513515 0.6443865
000030 5d 7d 72 be 8d f4 13 3f 39 72 c4 3e 9d fa 02 3f
       -0.23680635 0.5779503 0.38368395 0.51163656
000040 c8 41 d7 3e 06 5f fc 3e ad a3 12 3f 50 92 10 bf
       0.42042375 0.49291247 0.57281 -0.56473255

gat_layer_0.out_att.W f4 [50, 5]
000000 b7 ca ce be 3f 52 8b be 98 df e1 3c f0 0c 71 be
       -0.40389034 -0.27211186 0.027572438 -0.23540092
000010 64 7c 7c be 5e 22 f1 be 44 bd 8e 3d 81 74 8d be
       -0.24656826 -0.47096533 0.06969693 -0.27627948
000020 9f 24 0a 3e a3 86 30 be d4 40 9a 3e 44 3c af be
       0.13490532 -0.1723886 0.30127585 -0.34225667
000030 b3 0b 50 3e ce 6b 9b bb 18 fd 88 3e e9 e2 06 bd
       0.20316963 -0.004743076 0.26755595 -0.032931242
000040 74 1f 3a be 32 f5 d5 3d c8 3d b0 3e 26 ac b7 be
       -0.18176061 0.10447158 0.34422135 -0.35873526
000050 0c 79 c4 3e ba 89 4a bd 31 d7 0a 3e f1 7e 72 3e
       0.383736 -0.049447753 0.13558652 0.23681237
000060 b0 32 dc 3e 6c 3b a4 be 3d d3 57 3c 6e 45 b5 3e
       0.43007421 -0.32076585 0.013172922 0.35404533
000070 6c 53 94 3e 8c cf 5e be bc a4 d2 3e f7 a8 75 3e
       0.28969896 -0.2175886 0.41141307 0.23990236
000080 34 ff a8 be cd 28 9c be f8 e6 43 3e dc 4f f1 be
       -0.33007205 -0.3049988 0.19131076 -0.4713124
000090 8f df e3 3c 0a 5f 8f 3e 8e 31 87 be c7 4e e3 3c
       0.027816562 0.28002197 -0.26404995 0.027747525
0000a0 58 52 42 3e ee 1c 82 be 29 96 3e bd 9e 3f be 3d
       0.18976724 -0.25412697 -0.046529923 0.09289478
0000b0 b7 67 d1 3c 61 ff ba be d4 13 67 3e 2f d1 09 be
       0.02556215 -0.36522964 0.22566158 -0.13458703
0000c0 05 aa 95 be 62 ce 81 3e a7 81 9b be a0 e9 7d 3e
       -0.29231277 0.2535277 -0.30372354 0.24796152
0000d0 4c 9f 3f be b9 2d 8c be 2b a9 b9 bd af 1e 3e be
       -0.1871311 -0.27378634 -0.09065469 -0.18566392
0000e0 c7 79 55 3e c3 55 59 bc ad 5a 63 3e 4b fd 9e be
       0.20847236 -0.013265076 0.22202559 -0.31052622
0000f0 92 58 26 bd 2e 51 9f 3e 59 b8 cb be b3 7c c8 3e
       -0.04061181 0.31116623 -0.39789084 0.39157638
000100 67 b0 a2 3e 88 4e d4 3d dc 2a 51 3e de cd 8c be
       0.3177521 0.10366541 0.20426506 -0.27500814
000110 ef 8b 60 3e 53 32 e8 3e 7e 90 94 3c 1b 2b ea be
       0.2192838 0.45350894 0.018135305 -0.45736012
000120 30 46 89 3e 79 9f aa be 7d bf d9 3e ae 10 a4 bd
       0.2681136 -0.33324793 0.42528906 -0.08010994
000130 4d 4c 93 bd 8e ab 4c bd 8e 9f b7 3e 3c 5e e0 be
       -0.071922876 -0.049968295 0.35863918 -0.43821895
000140 d4 c7 5e be da cc 85 3e ec 6d 21 be 6b fa e3 3e
       -0.21755916 0.26132852 -0.15764588 0.4452699
000150 c2 79 d4 3e 92 c8 83 3d d9 d8 2e be 13 0b 65 3e
       0.41499144 0.0643474 -0.17074908 0.22367506
000160 71 5e 25 bd ca 34 31 3e c6 66 e2 be 0e c6 3c bd
       -0.04037327 0.17305294 -0.44219035 -0.046087317
000170 eb 16 7b bc d2 cb 8e 3d 63 f3 c0 3e 85 55 9c 3e
       -0.015325288 0.069724694 0.3768569 0.30533996
000180 83 0d 91 be de 8d 74 be 4f d8 c4 3e 5c 93 6e 3e
       -0.2833062 -0.23882243 0.3844628 0.232984
000190 fb cb 3c 3e 20 d1 da be 99 1a 93 bd 04 0e 50 bd
       0.18437187 -0.42737675 -0.071828075 -0.050794616
0001a0 19 2d bd 3e 8f 45 9e 3e 7c b6 a4 3e de 0b d1 bc
       0.3694847 0.30912444 0.32170475 -0.025518354
0001b0 0d 7c 56 be 2b b1 d5 be 43 80 c8 3e 97 00 95 3e
       -0.20945759 -0.4173673 0.39160356 0.29102013
0001c0 80 74 81 be 2f 0d 1c be d1 c2 9f 3e 0c 79 21 3c
       -0.25284195 -0.15239404 0.3120332 0.00985552
0001d0 b1 42 17 be c6 b1 38 be 23 bf 3c 3e 4c 0c 5c be
       -0.14771535 -0.18036565 0.18432288 -0.21489066
0001e0 9b 65 16 3e 8a 90 d2 be c9 3b d0 3d b4 f9 c1 3d
       0.14687197 -0.411259 0.10167653 0.09471455
0001f0 df 0e 9d bd 88 9c 97 3d db 3f 1a 3e 13 05 91 be
       -0.07668852 0.07402903 0.15063421 -0.28324184
000200 bd f8 9a 3e bd 96 73 be 4b 11 a2 be fd 16 85 be
       0.30267897 -0.23787971 -0.31653818 -0.259941
000210 2b 87 a4 3e 74 01 e9 be 0f 05 a7 be 64 45 b0 3e
       0.32134375 -0.4550892 -0.32621047 0.3442794
000220 5a 79 20 bd 25 9f d6 be 07 09 e7 3e 05 d4 af be
       -0.03917823 -0.41918293 0.45124075 -0.34341446
000230 08 b7 6c be 12 b5 b0 bd 53 3c 89 3e 52 fb d3 be
       -0.23116696 -0.086282864 0.26803836 -0.4140268
000240 f9 b8 9a 3e 09 19 d3 3e 06 7b 27 be 12 c5 60 3e
       0.30219248 0.41230038 -0.16355523 0.21950176
000250 04 df a7 be 22 95 b5 be 87 1d 03 3c 78 e7 be 3e
       -0.32787335 -0.35465342 0.008002645 0.37285972
000260 c9 f0 8d bd 12 e9 ca be e0 8a d9 3d a3 37 95 3e
       -0.06930692 -0.39630944 0.106221914 0.2914401
000270 62 06 1e be 4f 63 e1 be 04 cd 70 3e 19 76 38 3e
       -0.15432122 -0.4402108 0.23515707 0.180138
000280 2c a7 c6 be ac 80 4d 3e 80 3e bd be 2a 6f 9d 3e
       -0.38799417 0.20068616 -0.36961746 0.30748874
000290 eb 34 d2 3e 52 b8 cf be bb 3e 43 3e f7 da d8 3e
       0.41055998 -0.40570313 0.19066899 0.42354557
0002a0 4a 98 21 3e 8d 13 ea 3e 8b d8 45 be 16 ee 6a be
       0.1578075 0.4571804 -0.19320886 -0.22942385
0002b0 87 ac e8 3e 1e e5 af 3e 61 8c b7 be eb c7 15 be
       0.45444128 0.3435449 -0.35849288 -0.14627044
0002c0 69 2a ce 3e 6c 51 1a 3c 90 ba cd 3e 5d b9 0c 3e
       0.4026673 0.009418827 0.40181398 0.13742585
0002d0 72 ee 59 3e f2 08 b7 3e 78 59 93 3e 4b bb be be
       0.21282366 0.35749012 0.28779197 -0.37252268
0002e0 0f 39 82 3d 50 9e b2 be 43 d4 4f 3e b0 5f 84 3e
       0.06358539 -0.34886408 0.20295815 0.25854254
0002f0 e3 1c 00 3e d0 f8 83 be c0 fe aa be 5c 58 94 3e
       0.1251102 -0.25775766 -0.33397484 0.28973663
000300 1c 20 84 3d 00 24 90 be a8 19 c4 be 92 e2 b3 3e
       0.06451437 -0.28152466 -0.38300824 0.35133797
000310 7c a1 66 3e b3 1d a5 be 6b 15 15 3e ed 07 07 3d
       0.22522539 -0.3224922 0.14558952 0.032966543
000320 ea 98 4c be 52 f7 af 3e a0 4c 98 3e 87 90 be bd
       -0.19980207 0.34368378 0.2974596 -0.0930491
000330 20 ba 47 be c8 77 da 3b 04 49 a9 3e 63 6f b0 3d
       -0.19504595 0.006667111 0.3306352 0.08614995
000340 3a 77 96 3e 2d 02 6e be 5c 85 dd 3d 2e 30 80 3e
       0.29387838 -0.23243017 0.10816452 0.25036758
000350 e5 65 27 3d 69 ee 7a bd 46 36 5c 3e 01 7f a8 bd
       0.04086866 -0.061262522 0.21505079 -0.08227349
000360 bd 68 c6 be 2a 0f bc 3e b2 c9 10 be 62 39 8e 3e
       -0.38751784 0.3673032 -0.1413944 0.27778155
000370 57 d2 d8 3e c1 e0 d2 3e 9f a5 10 3d 4b 24 c5 be
       0.42347977 0.411871 0.0353142 -0.38504252
000380 09 c0 a6 3d e2 87 48 be 21 52 ad be 2d 97 cc 3c
       0.081420965 -0.19583085 -0.33851722 0.02497443
000390 f3 e0 0a be 1b 0d 1f 3e ac 06 b5 bd f6 78 ab bd
       -0.13562374 0.15532343 -0.08839163 -0.08372681
0003a0 52 b1 d7 be fd 3c 81 3e 01 5c eb be af a1 22 be
       -0.42127472 0.25241843 -0.4596863 -0.1588199
0003b0 79 41 3f 3c 99 62 c1 bd c9 28 b8 3e a7 e2 82 be
       0.011673325 -0.09442634 0.35968617 -0.25563547
0003c0 99 fc 5f be 68 cd e4 be 89 8b c7 3e 11 ab 85 be
       -0.21873702 -0.44687963 0.38973644 -0.26107076
0003d0 9e 3c a6 3e d2 fe 06 3d a8 5a e0 be ad 89 c3 3e
       0.32468122 0.03295786 -0.43819165 0.38190976
0003e0 e9 ca e9 be 2a 83 36 be
       -0.4566262 -0.17823473

gat_layer_0.out_att.a f4 [10, 1]
000000 03 48 15 3e 8b d0 7e 3f af f9 29 bf f4 0d da be
       0.14578252 0.9953696 -0.6639661 -0.4258877
000010 36 7e de be 37 c9 40 bf 02 35 d2 3e 4a 16 da bd
       -0.43455666 -0.7530703 0.41056067 -0.106487826
000020 a0 e2 80 bf 23 37 35 bf
       -1.006916 -0.70787257

gat_layer_1.attention_0.W f4 [5, 10]
000000 5c 3a fc 3b bb 89 99 be 48 ee 0e 3f d2 d2 4f bf
       0.0076973867 -0.29987893 0.5583234 -0.8118106
000010 d6 00 ec 3e 9b b1 43 be 8d 78 b3 3e ec a5 e6 bc
       0.46094388 -0.1911072 0.3505291 -0.02815529
000020 78 02 3d bf f8 9c 0d bf d0 85 34 3f 72 16 4c bf
       -0.7383189 -0.5531764 0.7051668 -0.7972175
000030 a3 50 dd be b1 a3 0f bd 93 c0 54 bf a8 c6 48 bd
       -0.43225583 -0.035068218 -0.83106345 -0.04901758
000040 74 fe 32 bf f2 b1 3a bf 03 bf 23 bf 4e 01 08 3f
       -0.69919515 -0.72927773 -0.63963336 0.5312699
000050 03 fd e5 3e 9f 43 2c bf 22 6c 3e 3f d4 23 59 be
       0.44919595 -0.6729068 0.7438375 -0.21205074
000060 57 ea 2b 3f 47 05 f0 3c e5 7c f4 be 0e 13 62 3f
       0.6715445 0.029299391 -0.47751537 0.88310325
000070 6d e3 ff 3d 64 9d 48 3f ca e0 df 3d 7b ed 4a bf
       0.1249455 0.7836516 0.10931547 -0.79268616
000080 69 49 c1 3e f5 69 a5 bd 9c 77 5e 3e 57 28 57 3f
       0.3775132 -0.0807685 0.21725315 0.8404593
000090 b7 91 03 bf 03 bc 2b bf ef d7 66 be a3 fa 41 bd
       -0.5139422 -0.6708376 -0.2254331 -0.047358166
0000a0 5f f6 70 be e0 60 40 3f c7 81 57 3f 0b af 49 3f
       -0.23531483 0.7514782 0.841824 0.7878272
0000b0 e5 06 57 bf d3 d1 1f bf cf 1d 1f 3f 08 b8 aa be
       -0.83994895 -0.6242954 0.6215486 -0.3334353
0000c0 9a 0d 06 3f b5 37 df 3e
       0.52364504 0.4359719

gat_layer_1.attention_0.a f4 [20, 1]
000000 a6 59 3a 3e 55 9f 04 bf ff fa 5c be ba fc c7 be
       0.1819826 -0.5180562 -0.21580122 -0.39060003
000010 75 b4 40 3f 95 38 36 bf cd 41 a6 be f1 25 38 bf
       0.75275356 -0.7118009 -0.32472077 -0.71932894
000020 22 79 3a 3f 59 5a 28 bf 65 23 3b 3f 84 f9 1d be
       0.72841084 -0.6576286 0.7310088 -0.15427214
000030 2c 50 58 be 77 fe 0f be 14 08 2f 3f 86 82 53 3e
       -0.21124333 -0.14061914 0.683717 0.2065526
000040 79 f5 ea 3e ef 2d 5d be 2d 73 37 bf 7e 1d 41 be
       0.45890406 -0.21599554 -0.7166012 -0.18858907

gat_layer_1.attention_1.W f4 [5, 10]
000000 7c 72 0a 3f 79 24 a5 bc 19 a8 00 3f 05 14 fa 3e
       0.5408094 -0.020158993 0.50256497 0.488434
000010 ed 57 ec be 14 a5 7e be 2f 18 11 3d 9c d9 3f 3d
       -0.46160832 -0.2486766 0.035423454 0.046838388
000020 d9 90 18 bf f8 41 2f 3e b8 d6 5e bf 1e c7 c8 3d
       -0.5959602 0.17115009 -0.87046385 0.098036036
000030 d2 8f 35 bf b7 e4 58 3f 81 79 74 be 6b ca a4 be
       -0.7092258 0.8472399 -0.23874475 -0.32185683
000040 8f 4a 16 3e ec c0 4c bf d8 49 e6 3e 8c 1a d3 3e
       0.1467688 -0.79981875 0.44978213 0.4123119
000050 6a 73 05 3f 6b eb 24 bf 00 94 55 bf 54 ca b5 be
       0.5212923 -0.6442172 -0.83428955 -0.35505927
000060 05 1a 5e be d3 6b 3b be 07 05 11 3f c4 e4 eb bd
       -0.21689613 -0.1830285 0.56648296 -0.11518243
000070 aa 45 0d bf 49 0d ab be ce d4 c7 3d 32 b0 94 3e
       -0.55184424 -0.33408573 0.09757386 0.29040676
000080 e2 04 3b bf f9 67 cf 3e 90 aa 84 be 1c 02 b2 3e
       -0.73054326 0.40509012 -0.2591138 0.34767234
000090 b3 d9 0b be 03 2d 7c be 35 e2 63 be 5f 45 48 3e
       -0.13657264 -0.24626546 -0.2225426 0.19557713
0000a0 70 eb 37 bf ee 69 07 3f 1a a6 f5 be b4 35 b8 be
       -0.71843624 0.5289601 -0.47978288 -0.35978472
0000b0 17 14 71 3e b5 f3 e6 3d 94 ca 16 3e 5f dd 61 bf
       0.2354282 0.11276952 0.14725715 -0.8822841
0000c0 44 67 da be 04 4f 50 bd
       -0.4265691 -0.050856605

gat_layer_1.attention_1.a f4 [20, 1]
000000 f3 59 0e bf 59 f9 0f 3e 54 c0 1b be ac d4 c8 be
       -0.55606 0.14059962 -0.15210086 -0.39224756
000010 11 6d 5c 3e e2 29 0d be 25 18 19 3c fe 9c 3e 3f
       0.2152598 -0.13785508 0.009344135 0.744583
000020 cf 2c d0 be e1 6a 8c be 52 5a 1f 3f 23 3e 0e 3a
       -0.40659186 -0.27425292 0.6224719 0.0005426129
000030 1f 1e d6 3e 56 69 2b bf c1 86 a2 ba 52 04 c6 be
       0.41819856 -0.66957605 -0.0012399779 -0.3867517
000040 01 47 a2 be f6 40 31 3f c9 80 86 bd 62 69 1f 3f
       -0.31694797 0.6923975 -0.065675326 0.62270176

gat_layer_1.attention_2.W f4 [5, 10]
000000 79 a7 de bd 60 78 45 bf 19 92 bb be f8 e7 a2 be
       -0.108717866 -0.771368 -0.366349 -0.31817603
000010 19 e5 5e bf 10 56 9b be 6b cb 3c 3f bc 77 4a be
       -0.87068325 -0.30339098 0.7374789 -0.19772238
000020 41 ad a5 3e d0 74 71 bc 03 60 f3 3e cc ea 49 bf
       0.32358745 -0.014737323 0.4753419 -0.78873897
000030 12 75 51 3c b4 00 1f 3f 93 93 61 3f 22 7a a3 be
       0.012784259 0.6211045 0.88115805 -0.31929117
000040 3c 6f d6 be 9a 99 3a be a3 f7 08 bf 94 c0 ed ba
       -0.4188174 -0.18222657 -0.53502864 -0.0018139058
000050 19 ab e1 3d 36 4c e9 3e 97 99 35 bf d1 2f 19 3f
       0.110189624 0.45565957 -0.70937485 0.5983859
000060 80 8b f3 3e fb fc d7 3e ac ae 4a bf 08 8b 6d 3e
       0.47567368 0.42185196 -0.7917278 0.23197567
000070 59 c1 55 3d ab 2e 58 3e 97 35 ca 3d ed ee 71 bc
       0.052186344 0.21111552 0.09873503 -0.014766437
000080 c4 d9 31 3e 00 ae 1e 3e cb d3 26 3f 0c be 5a be
       0.17368227 0.15496063 0.6516692 -0.2136156
000090 b9 0b f5 be 0f 5d 4b be d1 91 34 3c d5 a8 b6 3e
       -0.47860506 -0.19859718 0.011021093 0.35675684
0000a0 2a 0a 58 3e 9e d0 8f be 59 95 2b bf 7a b0 4f 3f
       0.21097627 -0.2808885 -0.6702476 0.81128657
0000b0 cd fc 21 3f fb d1 50 be a2 f6 b9 3e 2b 19 85 bb
       0.6327637 -0.20392601 0.36320978 -0.004061838
0000c0 ed e2 0e 3e 83 06 cf 3d
       0.13953753 0.10108664

gat_layer_1.attention_2.a f4 [20, 1]
000000 6e b8 ca 3e 23 8e 0e 3f 48 52 9c be db f9 17 3f
       0.39593834 0.55685633 -0.30531526 0.59365624
000010 3f 6d 1e 3f 5d d5 34 bf 74 e1 ce be f2 40 62 3c
       0.61885446 -0.70638067 -0.40406382 0.0138094295
000020 2e 3c 32 bf fe 68 88 3e 36 dc 33 3f ce ef 1d 3d
       -0.69623077 0.26642603 0.7025789 0.038558774
000030 1b 08 66 bc 8d ec 98 be 31 4c 2f bf 2b 87 f5 be
       -0.014040018 -0.29867974 -0.68475634 -0.47954687
000040 17 d1 a0 3e bd 17 2c bd bb a5 23 be 4c c0 3f be
       0.31409523 -0.042014826 -0.1598119 -0.18725699

gat_layer_1.attention_3.W f4 [5, 10]
000000 12 33 12 3f ef 45 62 bf 94 11 dc 3e e8 2f 60 bf
       0.5710918 -0.8838796 0.4298216 -0.875731
000010 7c 42 42 3f 53 a1 55 be 95 a5 22 bf f0 ce 4e bf
       0.758827 -0.20862322 -0.6353391 -0.8078451
000020 7a cf 68 3f 51 3d 9a bd c4 44 af 3d ea fc f8 be
       0.90941584 -0.075312264 0.08558038 -0.48630458
000030 93 79 fc bd 1d d7 30 3f f3 a3 12 3f 6f a5 02 3f
       -0.12327876 0.69078237 0.57281417 0.5103368
000040 59 16 c1 be cb 9c 85 3e 03 e9 33 3f 69 15 30 3f
       -0.37712362 0.26096186 0.7027742 0.6878267
000050 d6 09 2e 3f 07 b1 e6 3e 0a 15 1a be 1a 3e 38 bf
       0.6798376 0.45056936 -0.15047088 -0.7196976
000060 55 d8 25 bf 36 55 3b 3f 02 01 26 3f a6 0b 99 3d
       -0.6478322 0.73176897 0.6484529 0.07472925
000070 d4 6d 2a bf 92 34 a6 3d 7d 38 9a be dc d5 55 bf
       -0.66573834 0.08115496 -0.30121222 -0.8352945
000080 ce c4 bd be 20 40 ce be c4 23 32 3f 82 18 a5 be
       -0.37064213 -0.40283298 0.69585824 -0.3224526
000090 76 1e 68 3e d2 c5 9b be 87 c4 eb 3e f3 f3 22 bf
       0.2266787 -0.30424362 0.46048376 -0.63653487
0000a0 e6 3b 17 bf 71 a4 36 3f c0 54 57 bf ed 87 f3 be
       -0.5907577 0.7134467 -0.84113693 -0.4756464
0000b0 e5 05 27 3f 86 38 56 3f 2e 24 7c bd 63 53 cf be
       0.6524337 0.8368 -0.06155794 -0.40493307
0000c0 14 2f fa 3e 39 a3 c3 3e
       0.48864043 0.38210467

gat_layer_1.attention_3.a f4 [20, 1]
000000 e3 be 06 bf e4 e0 2a be d0 a2 e4 be 65 8f 52 be
       -0.5263502 -0.16687351 -0.44655466 -0.20562513
000010 be 05 8e be fc f1 01 3f 61 77 d8 3c bf ff db 3e
       -0.27738756 0.50759864 0.026424112 0.42968556
000020 a4 67 ef 3d 37 1c 7e be 27 84 08 3f 8b eb 44 be
       0.1168969 -0.2481545 0.5332665 -0.19230478
000030 1b 37 cc be 1f 8d 36 3f 39 5f bc be 08 ae 78 bd
       -0.39885792 0.71309084 -0.367914 -0.060712844
000040 08 fa fa 3e 73 ab 1a 3f fb 83 b3 be 11 b8 df 3e
       0.49018884 0.6041786 -0.3506163 0.4369512

gat_layer_1.attention_4.W f4 [5, 10]
000000 aa b5 52 3f 62 95 df 3e 33 3f e8 3e be 2f 7d 3d
       0.8230845 0.43668658 0.45360717 0.06181311
000010 b6 eb 0d 3e 97 e2 05 3e 9d ff 05 bf db 89 2c 3f
       0.13859448 0.13074718 -0.5234316 0.6739785
000020 b3 c2 21 bf 58 f4 d9 3e a8 f6 c8 be 65 c6 50 bf
       -0.6318771 0.42569232 -0.39250684 -0.81552726
000030 94 20 f5 3e 1e c6 2b 3f 88 53 4e 3f 29 23 33 3f
       0.47876418 0.6709918 0.8059621 0.69975525
000040 9c 3e 16 bf 0f b5 2f 3f 0e ee 5c bf 02 aa 0f 3f
       -0.58689284 0.6863565 -0.8630074 0.56118786
000050 f2 5a 0c be 3e 12 58 3f fd c4 4e bf a0 19 6c be
       -0.13706568 0.84402835 -0.8076933 -0.2305665
000060 c9 91 49 bf 74 67 1d bf 42 58 51 bf 41 32 2a 3e
       -0.78738075 -0.6148598 -0.81775296 0.16620733
000070 51 1e ff be e2 97 29 bf 22 bf 2b bf 2e 42 31 bf
       -0.49827817 -0.6624738 -0.6708852 -0.6924161
000080 41 45 11 3f 8c 7b 81 be 12 6a 4c 3f 21 39 1d 3f
       0.567463 -0.2528957 0.7984935 0.61415297
000090 73 45 54 3f db b5 8f be 92 a4 9f 3d 03 c1 82 be
       0.8291847 -0.28068432 0.07795061 -0.2553788
0000a0 f6 08 f4 be f0 cd e7 be 9e 42 3a 3f 5c 87 41 3f
       -0.47663087 -0.45274305 0.727579 0.75597167
0000b0 27 bc 12 3f fb 96 42 bf 40 df ab bc c1 78 f9 3e
       0.5731835 -0.7601163 -0.020980477 0.4872494
0000c0 f3 b6 4d 3f 00 bf a2 3e
       0.80357283 0.31786346

gat_layer_1.attention_4.a f4 [20, 1]
000000 75 50 3d bf 5d 57 c2 be a0 59 d6 be fc 9e 14 3d
       -0.7395089 -0.37957278 -0.41865253 0.03628443
000010 ec 31 c8 3e 13 f0 a6 3e 39 8a bc 3e d7 6f e5 3d
       0.39100587 0.32605037 0.36824206 0.112029724
000020 92 cf 40 3f 84 8a ee 3e 45 2b b4 3d 60 6d fe 3d
       0.7531673 0.46590054 0.087973155 0.124232054
000030 95 f6 11 bf 66 f8 d0 3e 1b e2 25 bf 1f 4f 18 3f
       -0.5701688 0.40814513 -0.64798135 0.5949573
000040 91 2f 0f 3f a4 34 75 be ee 57 8d be f1 b3 dd 3e
       0.55931956 -0.23945862 -0.27606148 0.43301347

gat_layer_1.out_att.W f4 [50, 5]
000000 1b 1f 1d 3e 0e 81 c3 3c 54 96 d0 3c d2 a7 98 3c
       0.15343897 0.023865249 0.025462307 0.01863471
000010 4b d1 15 bd ad 19 d4 3e a9 0a d9 3e 4e e3 a6 bd
       -0.03657655 0.4142584 0.42390946 -0.08148824
000020 35 8c b8 3e 87 6c 37 3e b1 01 a1 3d 5b 3a a1 3d
       0.3604447 0.17912494 0.07861651 0.078724585
000030 4b 0f cc be f8 a4 43 3e 4a 19 54 3e 04 3e 01 3e
       -0.39855418 0.191059 0.20712772 0.12621313
000040 69 0c 8f 3d 34 97 83 3d 50 da 4d be bd 47 de be
       0.06984789 0.06425324 -0.20102811 -0.43414107
000050 a9 31 0c be a0 2e 0c be 33 6f 69 be 26 a6 e5 3e
       -0.13690819 -0.13689661 -0.22796325 0.44853324
000060 61 67 d4 3e 41 d4 a4 3e 0a d5 bc 3d b5 fd 55 3e
       0.41485122 0.32193187 0.092203215 0.20897563
000070 bf ef 40 3e 19 80 86 be 34 fe d1 be f0 03 cb be
       0.18841456 -0.26269606 -0.41014254 -0.39651442
000080 1f 03 83 3e 85 ff e5 3d 1e fe 7f be 6f fd c8 be
       0.2558832 0.11230377 -0.24999282 -0.39255854
000090 4e 15 96 be 85 cf 05 be 42 11 89 3d 3c 8d c8 3c
       -0.2931313 -0.13067444 0.06692745 0.024481408
0000a0 f8 2f f1 3e f3 7d 2b 3e 3e 02 a2 be ea 0a 84 3e
       0.4710691 0.16747265 -0.31642336 0.25789577
0000b0 2e 75 3a be 57 f8 cc 3d da 1b ea 3e 05 01 81 3e
       -0.18208763 0.100083046 0.45724374 0.2519609
0000c0 60 fa 43 3d 82 26 d5 3e 9a 4f 87 be ca 72 73 bc
       0.047846198 0.41630942 -0.2642792 -0.014858911
0000d0 47 18 6e bd b3 d0 be be 4c 35 03 bd 69 46 c4 be
       -0.05812862 -0.372686 -0.03203325 -0.3833497
0000e0 c2 8b 31 bd 3c ad a1 ba 0b ac 26 3e 34 c5 ba be
       -0.043346174 -0.0012334953 0.16276567 -0.3647858
0000f0 ea 43 ae 3e c1 d4 38 be 98 07 75 be be 35 a1 3e
       0.3403619 -0.18049909 -0.23928678 0.31486315
000100 38 14 de be d6 eb cc 3e c5 d2 b5 3e 13 b7 13 3e
       -0.433748 0.4002368 0.35512367 0.14425306
000110 ab ba d7 3c bb 79 c7 3e b6 8b 19 3b fe b9 9f ba
       0.026334127 0.3896006 0.0023429221 -0.0012186167
000120 ec a6 a9 3c 63 28 97 3e 60 d2 97 3e 1f 3f ea be
       0.020709477 0.29523 0.2965269 -0.45751283
000130 37 9e 3b be 99 c9 32 be 4b 04 bb be af 54 e1 3e
       -0.18322073 -0.17459716 -0.36526713 0.4400992
000140 b8 d4 22 be 10 f6 cb 3d ee e0 a9 3d 88 b9 9b bc
       -0.15901458 0.09959042 0.08294855 -0.019009367
000150 8f f6 54 3e dd 83 fb bc a1 1c a4 be 76 5e 8d 3e
       0.2079718 -0.030702526 -0.32053092 0.2761113
000160 f7 4d c1 3d 85 20 24 3e 48 9d 6d bd f8 4b 1d 3e
       0.09438699 0.1602803 -0.058011323 0.15361011
000170 c6 aa ba b9 fe 2e 1d 3e 28 1b d9 3b 9b ee cb 3e
       -0.0003560392 0.15349957 0.0066255517 0.3983048
000180 30 95 cf 3e 17 92 17 be e4 e4 90 be 16 a1 12 3e
       0.4054351 -0.14801823 -0.2829963 0.14319262
000190 66 bd 6c 3e 43 4f f2 3d 56 c6 bf be aa f9 35 3d
       0.23119125 0.11831524 -0.37456006 0.04442755
0001a0 b4 e7 d0 be 44 b7 97 3c db 37 74 3d 04 bf 8c 3e
       -0.40801775 0.018520005 0.05962358 0.27489483
0001b0 b3 aa b7 bc 52 10 a4 be 08 d7 c4 be d6 2e ac 3e
       -0.022420263 -0.320437 -0.38445306 0.33629483
0001c0 3c 45 bc 3e 92 d3 d8 3e 84 61 63 be 83 38 e9 be
       0.36771572 0.42348915 -0.22205168 -0.45550928
0001d0 3b d6 09 3e 0c 7c 18 3e 6a ab 57 3e 07 30 b9 be
       0.13460629 0.1489107 0.21061483 -0.36169454
0001e0 13 1f 8d be 4b ac 6d 3e f6 f5 b2 3e 2b 5c ee 3e
       -0.2756277 0.23210256 0.34953278 0.46554694
0001f0 a5 e6 93 be e1 77 f3 3d 70 31 22 3e cd 93 ed bd
       -0.28886905 0.118880995 0.15839171 -0.116004564
000200 bc d7 bb be 50 86 d9 be 31 cb cf be 77 3f 03 3e
       -0.3668803 -0.42485285 -0.4058471 0.12817179
000210 47 28 29 3b 53 66 94 3e 4e 26 41 3e 7c 76 86 3e
       0.002581136 0.28984317 0.18862268 0.2626227
000220 3a 96 14 3e 33 94 73 be 90 c5 dd 3e 86 54 d7 be
       0.14510432 -0.23787002 0.4331479 -0.42056674
000230 ba da cf 3d ee ea 9f bd 4c c7 69 3e 71 b5 cd 3e
       0.10149141 -0.07808481 0.22829932 0.4017749
000240 95 80 f1 bd 7c 7a 2c be e5 f9 5e be 71 71 df be
       -0.11792103 -0.16843599 -0.21775015 -0.43641236
000250 30 36 9b 3d e2 14 83 3e 5c 47 ce be 24 83 cd bd
       0.07578695 0.2560187 -0.40288818 -0.10034779
000260 07 bc 35 3d 18 cc ef 3c 05 1e e8 be 89 21 b3 3e
       0.04436877 0.029272124 -0.45335403 0.34986523
000270 b1 8f 81 3e 00 be ad be 36 c3 95 be af 45 81 bc
       0.2530494 -0.3393402 -0.29250497 -0.015780298
000280 2b f7 5e be 1b dd 60 be 70 db ab 3e 95 0f d8 be
       -0.21773975 -0.21959345 0.33565855 -0.42199388
000290 ce 9e 53 3e 8b c4 d4 be 32 48 ad be 7f 75 97 3e
       0.20666048 -0.415562 -0.33844143 0.2958183
0002a0 f8 9d d4 bd 2a 2e cc 3c ac 2d d4 3e bd 51 49 3e
       -0.10381693 0.024924356 0.41441095 0.19660087
0002b0 d8 16 08 be 5b 1f c0 3e e1 33 da be a9 ac 6c 3e
       -0.13289964 0.37523922 -0.42617705 0.2311274
0002c0 a9 c9 ab bd e9 d3 a0 be c7 d3 40 3d ac 3f a9 3e
       -0.08388073 -0.31411675 0.047076967 0.3305639
0002d0 92 1c aa bd cf 10 e9 3c 01 9b ef 3d 4b 96 89 be
       -0.083062306 0.028450398 0.116994865 -0.26872477
0002e0 46 12 da 3e 33 f0 c1 be c9 72 ad 3e 1f 38 31 3e
       0.42592067 -0.3787857 0.33876637 0.17306565
0002f0 ad 4c 33 bd 31 67 8a 3e ba 5e 70 be a5 f2 80 be
       -0.043774296 0.27031854 -0.23473635 -0.25185123
000300 94 92 eb bd 8a f3 0e bd ac 72 bd 3e 56 c8 c8 3e
       -0.11502567 -0.034900226 0.3700155 0.39215344
000310 33 4f 05 bf 09 29 e7 bd 11 27 d6 3e 70 03 b1 be
       -0.52073973 -0.11287124 0.4182668 -0.34572935
000320 b1 4b 38 bd 4c f6 36 bd 64 bb 43 3e 93 f7 f5 3d
       -0.04499406 -0.04466848 0.19114453 0.12010112
000330 a6 2a dc 3e 72 7b 13 bc 3a e3 8c be eb 42 8c 3d
       0.43001288 -0.0090016 -0.2751711 0.06848701
000340 86 24 a7 be e6 47 db 3c 05 58 c7 be 5a d7 aa be
       -0.32645053 0.026767682 -0.3893434 -0.33367425
000350 c6 2a cc be 87 fa 0a bd ac 07 29 3e 5f 83 c9 be
       -0.39876384 -0.033930328 0.16506833 -0.3935804
000360 a9 ee ad 3e 20 a9 40 be 32 e6 83 3e 8a 60 dd bd
       0.33971146 -0.18814516 0.25761563 -0.10809429
000370 5e a8 11 be 81 37 e9 bd d2 7a a9 3e 80 d5 a1 3e
       -0.14224383 -0.1138754 0.33101517 0.316082
000380 31 e9 7d 3e df 91 88 be d7 f5 b0 be 66 e6 1c 3b
       0.24795987 -0.2667379 -0.3456256 0.002394104
000390 d5 96 a3 be fe ee e0 3d da 5d e0 be 0d ba f6 3d
       -0.31951013 0.10983084 -0.43821603 0.12047205
0003a0 0d 45 a4 be 32 f0 a2 be 6e cb 8b be 56 9f 1a 3e
       -0.32083932 -0.3182388 -0.27303642 0.15099844
0003b0 8f 26 bc 3e 67 8d 11 3e 08 83 d3 be ce f7 3f 3e
       0.36748168 0.14214097 -0.41310906 0.18746874
0003c0 1a 65 f6 3d 1a 9c 2a 3e bf ec 91 be 6d fa c4 3e
       0.12031002 0.1666111 -0.28500935 0.3847231
0003d0 f8 4f d6 3e 33 b6 a9 be 89 da be bd b8 8b e2 be
       0.41857886 -0.3314682 -0.09319026 -0.44247222
0003e0 12 49 5d 3e f0 9e 1b be
       0.21609905 -0.15197349

gat_layer_1.out_att.a f4 [10, 1]
000000 e9 e7 19 3f 34 16 36 bf a2 46 bb be b9 63 84 bf
       0.6011949 -0.7112763 -0.36577326 -1.0342933
000010 45 76 9d be df b2 de be 7d 78 01 3e 06 5d 67 3f
       -0.30754295 -0.43495843 0.12643619 0.9037632
000020 d1 e3 18 bf 9e 75 7b be
       -0.5972262 -0.24556586

gat_layer_2.attention_0.W f4 [5, 10]
000000 ac 9b 6b 3c 4b 29 f6 be 6f b6 a6 bd 1a 3c 1d 3d
       0.014380377 -0.4807838 -0.08140265 0.038387395
000010 0c cd 2d bb 4c 01 92 be c0 fb d2 be 2b 4a 87 be
       -0.0026519923 -0.28516614 -0.41207695 -0.26423773
000020 3d d1 88 3e 75 48 29 bf 2f 71 48 3f 73 64 29 3f
       0.26722136 -0.66126186 0.78297704 0.661689
000030 ff 79 0f 3f 56 90 19 bf ad f9 17 be f6 40 a5 3e
       0.56045526 -0.59985864 -0.14841338 0.32276124
000040 3c f6 8b 3c af 48 b9 bd 2f eb 45 3e 69 bc 1c bf
       0.017085187 -0.090470664 0.19327997 -0.6122499
000050 c0 f9 2c be 2b 30 19 3f ed 8f 5d bf 6a 18 02 bf
       -0.16892147 0.59839123 -0.8654774 -0.508185
000060 1c 2b 75 3e 6b 99 01 3f 00 5a e5 3e 06 eb 41 bf
       0.23942226 0.5062472 0.44795227 -0.7574924
000070 b6 14 0e 3e 8c fe 02 be c7 4c 82 3e e8 2f f7 3e
       0.13875088 -0.12792414 0.254492 0.48278737
000080 72 2b 32 3f 4c cc 28 3f 44 f4 00 bf a5 db 4a bf
       0.6959754 0.6593673 -0.5037272 -0.792414
000090 c3 5e ae be 5f 0e 0e 3f 32 ab 49 bf e0 61 1d 3e
       -0.34056672 0.5549068 -0.7877685 0.15369368
0000a0 3f 90 5e bf a3 cd 93 be 20 f6 3e be 2f ff a7 3b
       -0.8693885 -0.28867826 -0.18648577 0.005126856
0000b0 8a 6f 3e 3f c4 f9 fe be b1 23 c9 bd d1 d7 4d bf
       0.74388945 -0.4979993 -0.09821261 -0.80407435
0000c0 5c e3 50 bf 8e d7 2f 3f
       -0.8159692 0.68688285

gat_layer_2.attention_0.a f4 [20, 1]
000000 53 6a d1 be 80 77 1f 3f 8a d0 0f be 32 3b 3d bf
       -0.4090143 0.6229172 -0.14044395 -0.7391845
000010 ec e7 26 be c7 43 2e 3f 3b 2f aa 3e 4b 8a ca bd
       -0.16299409 0.6807217 0.3323916 -0.098896585
000020 d7 dd 95 bc da e6 34 bf dd 9f 00 be 42 88 81 be
       -0.018294258 -0.7066475 -0.12560983 -0.2529927
000030 ed ca 19 be 76 a7 0b 3f 83 2c 4f bd 22 f7 39 3f
       -0.15018816 0.545524 -0.05057956 0.7264272
000040 e6 7a 15 bf 15 47 b6 be 74 50 eb 3e f8 73 e6 be
       -0.58390653 -0.35601106 0.45959818 -0.45010352

gat_layer_2.attention_1.W f4 [5, 10]
000000 86 c6 c2 3e 7d 7c cd 3d f4 d4 3f 3f a4 ec 1e 3f
       0.38042086 0.1003351 0.74934316 0.62079835
000010 bc 93 95 3e 55 be 48 3e 2c d5 c2 3e 50 b2 37 bf
       0.29214275 0.19603856 0.38053262 -0.7175646
000020 fd 0d 14 3e ba 7b e2 3e 33 c2 d3 bd a1 da 57 bf
       0.14458461 0.4423502 -0.10339775 -0.84317976
000030 a8 87 16 bf 77 b7 aa be 65 ce 89 be 77 3d e9 3e
       -0.58800745 -0.33343098 -0.2691528 0.45554706
000040 cb 4d 54 3f cc 37 f6 3e 2c 94 9b be 1d a4 8a 3e
       0.829312 0.48089445 -0.30386484 0.27078333
000050 12 6a 0e 3f d8 99 df be 95 d6 3e 3f 67 06 5e 3f
       0.556306 -0.4367206 0.74546176 0.8672852
000060 75 45 c2 bd a7 4e 8a be 34 b0 4d 3f ac d0 30 3f
       -0.09485904 -0.27013132 0.8034699 0.6906841
000070 92 9d 92 be e1 a5 6b 3f d8 73 98 be 96 8a c0 be
       -0.28635842 0.92049986 -0.29775882 -0.37605733
000080 2b e9 b1 be c6 1c 3d 3f 98 b5 09 3f c6 ba 34 bd
       -0.34748206 0.7387203 0.53792715 -0.044123434
000090 5d e3 5f bf a6 45 e2 3b ef 05 64 bf 90 40 28 bf
       -0.87456304 0.0069052754 -0.89071554 -0.65723515
0000a0 5e 19 bc 3e 0e 12 1e 3f c3 e4 2a 3f b7 59 ba be
       0.36738104 0.617463 0.6675531 -0.36396572
0000b0 ad 82 0d bf cb a6 a4 be 2a 49 02 3e d2 b4 62 be
       -0.5527752 -0.32158503 0.12723222 -0.2213929
0000c0 5d b8 0e bc d6 ba 49 bf
       -0.008710948 -0.78800714

gat_layer_2.attention_1.a f4 [20, 1]
000000 66 c9 25 bf d3 f5 0a 3f 16 0d 3e be 8e d9 df 3d
       -0.64760435 0.5428135 -0.1855968 0.10930167
000010 d9 52 34 bf 6d 50 0a bf 7f 21 1d 3f 7c cc 9d 3e
       -0.70438915 -0.5402897 0.61379236 0.30820072
000020 2e 0c 75 3e e8 ba fc bd 73 34 81 3d 7f 74 f6 be
       0.23930427 -0.12340337 0.06308832 -0.48135754
000030 03 43 4c 3e e6 30 3a 3e 7d 06 e0 3e 33 a3 b9 be
       0.19947438 0.18182716 0.4375495 -0.36257324
000040 0d 86 d4 3d 82 05 91 be a6 9f cf be 97 41 3b bf
       0.10377131 -0.28324515 -0.4055149 -0.7314696

gat_layer_2.attention_2.W f4 [5, 10]
000000 25 34 a3 3e 79 5c 3a bf 1f f8 5b be e6 a3 31 3f
       0.3187572 -0.7279735 -0.2148137 0.69390714
000010 2f 1f 1e 3d a7 c9 16 bd ea e9 92 bd 5e 89 c3 3d
       0.038603958 -0.036813404 -0.07173522 0.09547685
000020 05 b4 33 3d 9b 7a 1c 3f 66 1d a0 3e a4 96 fd be
       0.043872852 0.6112458 0.3127243 -0.49528992
000030 cf f3 2a 3f 2e 82 3c bf c5 d2 2d 3e e1 fc 29 3e
       0.6677827 -0.7363614 0.16974933 0.16600372
000040 32 72 18 bf 33 ac 6b be 05 90 ce 3c f3 41 3b bf
       -0.5954925 -0.23014908 0.025215158 -0.73147506
000050 84 27 47 be 29 eb 22 3f 43 79 2b bf 3c 22 8e 3e
       -0.19448668 0.63640076 -0.66981906 0.27760494
000060 09 66 18 bf 0d 0b 18 3e a4 7c 57 3e dc d6 5c 3e
       -0.59530693 0.14847966 0.2104364 0.21566337
000070 99 f8 e7 bd 71 cb 4c 3f 91 41 cb 3e 7a c7 0d 3f
       -0.11326713 0.79997927 0.3969846 0.553825
000080 6d 18 30 be c7 a5 80 3e 36 f2 11 bf 5e 7a 06 be
       -0.17196818 0.25126478 -0.5701021 -0.13132617
000090 69 0d 43 bf 74 60 0f bf 04 7e 87 3e 25 d6 dd be
       -0.7619234 -0.5600655 0.2646333 -0.43327442
0000a0 76 e1 5d be 97 d6 02 bf fd 19 ec be fc dc 05 3f
       -0.21668038 -0.5110869 -0.46113577 0.5229032
0000b0 3f 15 54 3f 7e 9e bd be 09 61 9b be 45 85 2c 3f
       0.8284492 -0.37034982 -0.3034747 0.67390853
0000c0 98 9c 4a 3e df 5a 63 3f
       0.19786298 0.88810533

gat_layer_2.attention_2.a f4 [20, 1]
000000 be c1 8a be e5 21 40 bf cf 8e 65 3e e2 be 27 3f
       -0.2710094 -0.7505172 0.22417758 0.6552564
000010 c6 db 15 bf df d5 40 3f 00 61 2b bf b9 d1 0a bf
       -0.5853847 0.7532634 -0.66944885 -0.5422626
000020 da 69 fa bd 9a 29 82 be 32 18 1e 3f 33 47 a1 3e
       -0.12227221 -0.25422364 0.6175567 0.31499633
000030 d9 b3 1d 3f 5e 53 69 be ef d5 06 3e 61 e3 65 3e
       0.6160255 -0.22785708 0.13167547 0.2245002
000040 dd be 06 bd ae dd e9 bc 5b 9a c2 be ed 4a fa be
       -0.032896865 -0.028548088 -0.3800839 -0.4888529

gat_layer_2.attention_3.W f4 [5, 10]
000000 bc 81 5a bf 52 b3 2b 3f a3 39 b5 be c4 84 39 3f
       -0.8535421 0.67070496 -0.35395536 0.7246821
000010 28 f4 e5 be c3 90 63 3f d5 1d 73 3c 30 b3 37 3f
       -0.4491284 0.88892764 0.0148386555 0.71757793
000020 1a d2 41 3e 38 76 94 3e 32 d6 5d 3f 12 a7 2d 3f
       0.18927804 0.28996444 0.8665496 0.67833054
000030 89 a3 f1 3d e7 ff 3a 3f bd dd da 3d b8 d9 b7 be
       0.1179877 0.73046726 0.106868245 -0.35908294
000040 81 8f 41 bf e4 6a 40 3f 2a c1 03 bf 9d 30 f3 3e
       -0.75609595 0.751631 -0.5146662 0.47498026
000050 7c 9a 47 3f f6 d7 9c 3e 68 4e 8f be 0e ac 08 bf
       0.779701 0.30633515 -0.27989507 -0.53387535
000060 32 df 32 3f 4e 2f 08 3f 12 d3 a4 3d 0c 5f f2 be
       0.6987182 0.5319718 0.08048071 -0.4733814
000070 d1 f0 36 bf b5 5d ab 3e 05 9d 72 bb 62 a2 6d bf
       -0.71461207 0.3346993 -0.003701986 -0.928259
000080 8f 5d 57 3f a9 5a 50 3e c5 5e d5 3e f1 1a 45 bf
       0.84127134 0.20347084 0.41673866 -0.76994234
000090 28 24 ba bd 69 a8 90 3e 11 de 4a 3e 52 6b 8d be
       -0.090889275 0.28253487 0.19811274 -0.2762094
0000a0 b5 42 3e 3f ff ac 6d bf 0b 9b 85 3e bc 8f 3b 3f
       0.74320537 -0.92842096 0.2609485 0.73266196
0000b0 e3 4e 09 3e 94 10 11 bf 3a 02 3e bf 27 9a 13 3e
       0.13408999 -0.5666592 -0.7422215 0.14414273
0000c0 a8 31 bf 3e 7b 8d d5 3e
       0.37342572 0.41709504

gat_layer_2.attention_3.a f4 [20, 1]
000000 bc 42 0e 3f 1a 67 b8 be 87 a0 3f bf 75 17 15 3f
       0.5557058 -0.3601616 -0.7485432 0.5823892
000010 ad c2 99 be 59 4c c0 3d 45 a6 d6 3e 2a 68 15 bf
       -0.30031338 0.09389562 0.4192373 -0.58362067
000020 91 70 24 be c8 cc b9 3d 66 5e c0 3e 34 11 13 3f
       -0.16058566 0.09072262 0.3757202 0.57448125
000030 11 ac e2 bd 02 51 b5 3e d5 a8 09 be 60 66 60 be
       -0.11067975 0.35413367 -0.1344331 -0.21914053
000040 9c 54 dc be 8e 51 9f 3e 49 e7 f7 be 6d 68 6a be
       -0.43033302 0.3111691 -0.48418644 -0.22891398

gat_layer_2.attention_4.W f4 [5, 10]
000000 93 ea 2b be 0c bd 06 3f a9 c8 2d bf fd ce 0f be
       -0.16788702 0.5263221 -0.6788431 -0.14043804
000010 a8 e9 82 be ec ad ac 3e 1c 74 1e bf 09 e5 b1 be
       -0.2556889 0.33726442 -0.6189592 -0.34745052
000020 d8 fa 02 3e 83 9c 9f 3e 12 f5 fe 3e 14 c6 5d 3e
       0.12791002 0.31174096 0.4979635 0.21657592
000030 ed 6a 85 3e 52 a1 26 3f 89 61 56 3f 8f ec f3 3e
       0.2605814 0.65089905 0.83742577 0.47641417
000040 4d 50 ed bd 20 34 94 be 92 c3 ba be fa 04 25 be
       -0.11587582 -0.28946018 -0.36477333 -0.1611518
000050 4d f7 23 bf d4 8e 58 bf 45 d5 2a bf 95 b7 52 3f
       -0.64049226 -0.8459294 -0.66731673 0.82311374
000060 b7 1f 3f be e3 2c 2f bf 93 6f 3c bf 61 b0 35 be
       -0.18664442 -0.68427867 -0.7360775 -0.17743064
000070 51 7d 41 3e ee bb 1c bf 2b 42 75 3e ad 3b 31 3f
       0.1889546 -0.6122426 0.23951022 0.69231683
000080 22 13 93 3e 26 57 0b bf fe 40 0e bf 68 70 c2 be
       0.28725535 -0.5442985 -0.5556792 -0.37976384
000090 2d 1f 46 3f 8a 0b 16 3e 45 d2 89 3e 13 dd 31 bf
       0.7739132 0.1465284 0.26918235 -0.6947796
0000a0 6b 9d f5 bd 72 98 f2 be 0c 9c ab 3e a6 d5 24 3f
       -0.11992916 -0.47381932 0.33517492 0.643885
0000b0 6c 07 27 3d 42 63 27 bf e7 02 23 bd 31 9f 69 3f
       0.040778562 -0.6538583 -0.03979769 0.9125853
0000c0 6a d7 44 be a4 2f 3e bf
       -0.19222799 -0.74291444

gat_layer_2.attention_4.a f4 [20, 1]
000000 a7 4f 74 bd 99 27 5c 3e 4a 38 40 3f 7a 15 0d bf
       -0.059646275 0.2149948 0.7508589 -0.55110896
000010 68 f7 2c bf 6e 93 f5 be 86 44 1c bf 1a 5d b5 3e
       -0.6756501 -0.47964042 -0.6104206 0.35422593
000020 7f 19 47 be 8e f9 45 bd 70 8b a4 be a7 69 10 3f
       -0.1944332 -0.048333697 -0.32137632 0.5641121
000030 68 19 da be 20 66 33 bf d3 a3 99 3e 6e 93 15 3f
       -0.42597508 -0.70077705 0.300078 0.58428085
000040 d4 82 93 be 4e 1b 1c bf dd 2f 1c 3f 46 68 1b bd
       -0.2881075 -0.60979164 0.61010534 -0.03794124

gat_layer_2.out_att.W f4 [50, 5]
000000 77 c1 ec 3e c0 be 55 be 6e 00 24 be 7f 7e 16 be
       0.46241352 -0.20873547 -0.16015789 -0.14696692
000010 e6 ae ac be 17 e6 58 3e 9d ef 87 bd e7 cb 9b 3e
       -0.33727187 0.21181522 -0.066374995 0.30429003
000020 aa aa b3 3e c2 fe 06 3e 6c 49 e3 bd 56 4b a0 3e
       0.35091144 0.1318312 -0.110979885 0.31307477
000030 0a 32 9a be d7 ce a9 be 1e cc 9f be 4a 98 4f 3c
       -0.30116302 -0.3316562 -0.31210417 0.012670586
000040 36 a9 53 be 74 63 9e bd 6a 96 85 be 68 47 96 be
       -0.20670018 -0.07733813 -0.2609132 -0.29351354
000050 0f 10 33 3e 7e 1f a0 bd 99 0e c6 3d a1 db 9a bd
       0.17486595 -0.07818507 0.09670753 -0.07561422
000060 10 b4 7f 3d 97 03 6c be 81 45 32 be 56 f4 b1 3e
       0.06242758 -0.23048244 -0.17409326 0.34756726
000070 40 c8 33 3d 77 2e 06 be d4 f5 10 be d3 b2 bf 3e
       0.043892145 -0.13103662 -0.14156276 0.3744112
000080 3e c2 b5 3e ab 69 88 3e b7 76 47 3e af f4 1a be
       0.35499758 0.26643118 0.1947888 -0.15132402
000090 a6 16 97 be 0c a8 67 be d5 ff c2 3d 4f ab 88 3e
       -0.29509467 -0.22622699 0.09521452 0.26693198
0000a0 30 59 df bd 16 73 b8 be 01 22 cf bc 9e a0 b7 be
       -0.10905683 -0.36025304 -0.025284769 -0.3586473
0000b0 e1 4a 94 3d a7 b8 1d 3e 6d c2 c8 3e ec cf e5 bd
       0.072408445 0.1540247 0.39210835 -0.112212986
0000c0 2a ea da 3e 66 cb d3 3e e2 ba 38 bd 68 8a 25 be
       0.42756778 0.41366118 -0.0451001 -0.16166079
0000d0 ff 5c 3e be ff da a9 be 64 c0 91 be c2 51 42 be
       -0.18590163 -0.33174893 -0.28467095 -0.189765
0000e0 54 b8 f1 3c 72 52 22 bc c2 cf 7f be e4 82 a3 3e
       0.02950684 -0.009907352 -0.24981597 0.319358
0000f0 e5 ec eb 3d e0 eb 57 be e9 1d d4 be 2b d2 ae 3e
       0.115197934 -0.21086073 -0.4142907 0.3414472
000100 66 a9 9a be 76 3c c6 be 01 8a de 3e b7 a2 b2 3e
       -0.30207366 -0.38718003 0.43464664 0.34889767
000110 97 c4 c7 bd b2 14 0f 3e 54 40 7f be 44 a2 d7 3e
       -0.097542934 0.13972738 -0.24926883 0.42115986
000120 cc 4b 55 bc 21 4d 57 be 15 73 b6 bd 52 c8 c8 be
       -0.01301856 -0.21025516 -0.08908669 -0.39215332
000130 03 fa 8e 3d 5e 13 58 3e b8 f1 81 be b8 e7 09 be
       0.0698128 0.21101138 -0.2537973 -0.134673
000140 2a 85 ad be f2 99 da 3d 14 71 e8 bc 5d f6 8d 3e
       -0.3389066 0.10673894 -0.028374232 0.27727023
000150 ee ca 1f bd 8e 3e 49 bd 5c fd ae bd d3 05 ce be
       -0.03901189 -0.049131922 -0.08544418 -0.4023882
000160 a4 51 4e bd 8f 4d 97 be e5 01 25 bd 04 1e 9a be
       -0.050370827 -0.2955136 -0.04028501 -0.30101025
000170 33 0f b6 bd 93 96 62 be 71 07 f9 be 85 b7 57 3e
       -0.08889618 -0.22127752 -0.4863849 0.21066101
000180 78 73 5a 3e e3 c7 a9 3e 63 6d d8 3d 7d 57 1b 3e
       0.2133311 0.33160314 0.10567739 0.15170093
000190 fe f0 c3 be 59 e3 b4 be 01 f3 74 bd 77 dd 1b be
       -0.382698 -0.35329702 -0.05980206 -0.15221201
0001a0 64 8f 5c be b4 f8 c2 be 82 d4 05 be da 9c d6 be
       -0.21539074 -0.3808037 -0.13069347 -0.41916543
0001b0 dc d1 6e 3e ad 93 d2 be 1c 25 e8 be d0 7a 3a be
       0.23322242 -0.41128293 -0.45340812 -0.18210912
0001c0 ca 70 96 bd db 8d 98 3e 81 53 aa 3e f8 d8 f5 3d
       -0.073457316 0.29795727 0.33266833 0.12004274
0001d0 aa d9 60 3e b0 3a 68 3e 99 17 3e 3e 63 a4 1d be
       0.21958032 0.22678638 0.1856369 -0.1539474
0001e0 fe dc ce be 18 42 ad be a9 a6 24 3e 41 01 96 3e
       -0.4040298 -0.33839488 0.16079201 0.29297832
0001f0 1f b7 8b 3e 87 4c d6 3c 9c 47 ab 3e df b1 b1 be
       0.27288148 0.026159538 0.3345307 -0.34706017
000200 57 17 ab 3e a6 f3 b8 be 85 4c 20 be 32 cf 59 3e
       0.33416244 -0.3612339 -0.1565419 0.21270445
000210 e7 39 cd 3e e9 a9 ad be 8d 5f 15 3d e8 4e 81 be
       0.40083238 -0.33918694 0.036468077 -0.25255513
000220 9c 1b 3c be 02 c3 74 be c8 56 00 3d 0e 32 7d be
       -0.18369907 -0.23902515 0.03133276 -0.24726126
000230 6d ff d7 bd c4 9b 8f be f4 9f 49 bc 5d 8b cb be
       -0.105467655 -0.28048527 -0.012306202 -0.39754763
000240 86 9d 31 bd e0 5d dd be e9 81 e9 3e 34 8d 41 be
       -0.043363117 -0.43235683 0.45606926 -0.18901521
000250 38 88 92 3e ba be df be e9 bc a5 3e 79 ac f6 be
       0.28619552 -0.437002 0.3237069 -0.4817846
000260 8f 63 55 3e cc 00 04 bc 69 45 86 3e 44 35 20 be
       0.2083876 -0.008056831 0.2622483 -0.15645319
000270 30 20 3f be 0e d1 14 be 8f 6b 45 bd b0 60 06 be
       -0.18664622 -0.14532873 -0.04819828 -0.13122821
000280 2f ff e3 3d ab 5a 69 be ef f0 df bc 96 24 17 be
       0.11132657 -0.22788493 -0.027336566 -0.1476005
000290 aa d5 af 3e aa 69 79 be cf 6b ba 3e 98 c8 c1 3e
       0.343427 -0.24356714 0.36410376 0.37848353
0002a0 7e 59 a2 3b 96 d8 a3 3e 53 c4 60 3e 47 ee 9f bd
       0.004954516 0.3200118 0.21949892 -0.0780912
0002b0 57 b0 50 3e 74 aa d5 3e 29 17 bb 3e 5c 67 1e 3e
       0.20379768 0.41731608 0.36541107 0.15469116
0002c0 af c0 71 be ee fe 16 be ec ce b2 3e 46 b4 b0 3c
       -0.23608659 -0.14745685 0.34923494 0.021570336
0002d0 15 87 71 3e a4 9b 04 bd 76 e0 a4 be d1 ff 8e be
       0.23586686 -0.032374993 -0.322025 -0.27929547
0002e0 89 09 1e 3e bf e9 97 be 7a 8b cd 3e a4 c7 ea be
       0.15433325 -0.29670522 0.40145475 -0.4585544
0002f0 35 89 f3 3d 02 e0 67 be 8a 38 bc be 95 14 d0 bc
       0.118914045 -0.22644046 -0.36761886 -0.02540044
000300 cb e1 9e bc a4 4c ca 3e 2c 02 56 bd c3 7a 89 3d
       -0.019394776 0.39511597 -0.052248165 0.06712868
000310 cd d0 58 3e e8 99 f5 bc cb 32 36 3d d1 f0 fc 3e
       0.21173401 -0.029980615 0.044482034 0.49402478
000320 c1 7a e1 be 7d 2f 50 3e 9e 3e a2 3e 8b ce 8f 3c
       -0.44038966 0.20330615 0.31688398 0.017554542
000330 87 68 6c 3e 35 9c 40 3e 21 94 47 3e f1 cc 58 bd
       0.23086749 0.18809588 0.194901 -0.052929822
000340 8a 40 c7 be 7c 45 cd 3e 9c 5a cc bd 63 58 8f be
       -0.38916427 0.40092075 -0.0997822 -0.2799712
000350 13 e0 c6 3d 0a cc aa 3e 8e a5 e5 bd 7b 7a 20 3e
       0.097107075 0.33358794 -0.11213218 0.15671723
000360 40 3b 58 3e f7 86 6a be e5 82 0c 3d df a8 a0 3e
       0.21116352 -0.22903048 0.03430452 0.31378838
000370 0d 8e cc be 2c 8f d3 3e 95 2a a6 3e e2 d7 dd be
       -0.39952126 0.4132017 0.32454363 -0.43328768
000380 a3 3e 0c be 53 20 c2 3e 20 6f da 3e 4c 4e 98 be
       -0.13695769 0.37915286 0.42662907 -0.29747236
000390 f2 a2 81 3e 50 ae d5 3e 57 f6 de be 9d 4f 34 3c
       0.2531963 0.41734552 -0.43547317 0.011005309
0003a0 bb 18 93 3d ee 2b b1 be 2c 31 56 3d 46 c0 98 be
       0.07182451 -0.34603828 0.052292988 -0.29834193
0003b0 21 28 9f be 66 4a 9e 3e 32 85 57 3e 67 8b fa 3d
       -0.31085303 0.30916137 0.21046904 0.1223362
0003c0 28 c4 8b be 1a 8e ab 3c 4c 2b d9 3e 42 ee 99 bd
       -0.27298093 0.020941783 0.42415845 -0.07516147
0003d0 06 fb ed be de dd d6 3d 22 f2 36 be e2 cc 7c be
       -0.46480578 0.104915366 -0.17865804 -0.24687532
0003e0 89 ed d2 3c eb 5e a6 be
       0.025748031 -0.32494292

gat_layer_2.out_att.a f4 [10, 1]
000000 7c 04 d4 3d 53 8b 5e 3f 62 fe f8 bd e5 5a 3f 3f
       0.10352418 0.8693134 -0.12157895 0.7474807
000010 ce d8 df 3e 8a 63 ae 3e 65 c9 8a 3d e2 2d 83 3f
       0.43720096 0.34060317 0.06776694 1.0248377
000020 ee 53 bb be ec 93 1f bf
       -0.3658747 -0.62335086
