graph_model/encoder-checkpoint-6-0.pt (torch, 27882 bytes, 36 tensors)

W f4 [5, 10]
000000 d5 9c 9d 3e 45 d8 99 3e ed ab 16 be a3 24 92 3e
       0.30783716 0.30047813 -0.14714022 0.28543577
000010 f9 cf ba be 1d 4d 17 bf 19 da d8 be ac 0c 4f bf
       -0.36486796 -0.5910204 -0.42353895 -0.8087871
000020 4d cf 18 3f f8 83 14 3f 6c 81 c1 3e 3c 73 b2 3e
       0.59691316 0.5801387 0.37794054 0.34853542
000030 93 b5 0e 3e 81 4c fc 3e 8f ae 61 bf 97 44 3e bf
       0.13936453 0.49277118 -0.8815698 -0.7432341
000040 03 75 a0 3e 4e 26 1e 3f 37 cf 42 3e ae 42 ab be
       0.31339273 0.617772 0.19024359 -0.3344931
000050 07 9f 48 3c 33 7f 4c 3f f3 15 d8 3e aa f3 b1 3d
       0.012244946 0.7988159 0.42204246 0.08689053
000060 aa b3 ff 3e 82 a1 33 3e fa 75 2f 3e b6 37 2e be
       0.4994176 0.17542079 0.17134848 -0.1701344
000070 32 e1 00 bf 71 1d 07 bf d2 57 ac bd 53 86 b2 3e
       -0.5034362 -0.527793 -0.08415188 0.34868106
000080 1e 30 f6 be 52 d6 40 bf d6 8a 10 3e 34 a8 ee be
       -0.48083586 -0.75327027 0.14115462 -0.46612704
000090 62 8a 19 bf 80 92 29 bf eb ed c6 3d 3b 16 40 bd
       -0.5997678 -0.66239166 0.09713348 -0.0468962
0000a0 48 35 50 be 3d a0 90 be 15 94 ca be 38 33 ab be
       -0.20332825 -0.28247252 -0.39566103 -0.33437514
0000b0 9a 1b 2c 3f cd 59 9b be a1 f2 f7 3c 04 e7 02 bf
       0.67229617 -0.3034195 0.030267062 -0.5113375
0000c0 d6 bd d7 3e 5b 47 07 3e
       0.4213702 0.13210814

a f4 [20, 1]
000000 90 11 f9 3e 22 69 eb be ae c5 9c 3e 76 44 d2 3e
       0.48646212 -0.45978647 0.30619568 0.41067857
000010 80 a6 2b 3f 67 c9 91 3e b0 e9 97 be ce da 14 3f
       0.67050934 0.2847397 -0.29670477 0.5814637
000020 e9 94 9b be 0e 53 c8 bc 84 bb 21 bf ce ca 2b bf
       -0.30387047 -0.024453666 -0.6317675 -0.6710633
000030 c1 6c a6 be 2d c1 59 be e3 f9 80 be ea aa 3b 3f
       -0.32504848 -0.21265097 -0.25190648 0.7330767
000040 29 1b 0c 3f 4d 06 a0 b9 6a 17 ea be 06 08 c7 bb
       0.54728943 -0.00030522273 -0.4572099 -0.0060739545

W f4 [5, 10]
000000 38 c4 a0 3e 3a dc 19 bf 43 54 54 bf 56 3d bd 3e
       0.31399703 -0.60101664 -0.82941073 0.36960858
000010 16 cc 61 bd 49 6c f3 3e 6c 67 9e be 8e 75 e0 3d
       -0.055126272 0.47543553 -0.3093828 0.10959922
000020 15 8d 89 3d c4 7e 0b 3f 24 61 da 3e 9a 74 50 bf
       0.067163624 0.54490304 0.42652237 -0.8142792
000030 8b 3a 31 3f 24 db ae 3e 1d e8 44 be 3a b5 3a bf
       0.69229954 0.34151566 -0.19229169 -0.7293278
000040 94 98 03 3f 7c f8 fa be ca fe c0 be 42 83 4b bf
       0.5140469 -0.49017704 -0.3769439 -0.7949716
000050 6f 30 f1 3d b5 c8 a2 be 2e 88 cd 3e 47 32 42 3f
       0.11776816 -0.31793752 0.4014296 0.7585797
000060 72 57 a0 3e 4d 51 e8 3e ca 44 0f 3f a9 d6 2b bf
       0.31316715 0.45374528 0.5596434 -0.6712442
000070 61 0a f0 3b ad 35 d4 be 68 dd 31 bd 48 5c 56 be
       0.007325456 -0.414472 -0.04342404 -0.2093364
000080 56 39 4b 3f 02 94 29 3f 56 20 5c bf 36 73 a7 be
       0.7938436 0.66241467 -0.8598684 -0.32705086
000090 80 da 31 bf 25 19 5c bd 5e c5 c8 3e 41 28 5a 3f
       -0.6947403 -0.053734917 0.3921308 0.8521767
0000a0 f0 ad 2e bf d3 e4 26 3f a0 bc f4 be 55 1a 56 bf
       -0.6823416 0.6519291 -0.4780016 -0.8363393
0000b0 96 14 b7 be b5 f2 0b 3f ef 18 36 3f d6 14 56 3f
       -0.35757893 0.54667217 0.71131796 0.83625543
0000c0 ed 3e 7d be 0d 42 2e 3d
       -0.24731036 0.04254346

a f4 [20, 1]
000000 43 09 0a 3e 39 7e f0 be 2f 0f ca 3d 8b e9 e0 3e
       0.13480096 -0.469713 0.09866177 0.4392818
000010 46 b6 30 3f 3c 44 74 3e d7 09 e8 be 35 7d 01 bf
       0.6902813 0.23854154 -0.45320007 -0.50581676
000020 2e a1 2a 3f 9c 0f 69 bd 29 1d 38 3e 57 bd 2f 3e
       0.6665219 -0.056899652 0.17979874 0.17162071
000030 61 a5 e5 3e 23 71 35 3f 28 e9 c2 3e aa 91 3f bd
       0.44852737 0.7087576 0.3806851 -0.046769775
000040 3e e6 cd be c4 31 30 bf f6 15 8d 3e 76 a7 30 3d
       -0.40214723 -0.68825936 0.27555817 0.043128453

W f4 [5, 10]
000000 81 d9 3d bf b7 9c 2b bf f7 6d bf bc 9b 61 98 be
       -0.7416001 -0.67036 -0.023367865 -0.29761967
000010 ff 5a 1f be cb 79 40 bf 95 3c 3c 3f 71 60 6e be
       -0.15562056 -0.7518584 0.7352994 -0.23278977
000020 fb 98 e5 3e 56 9e 6f 3d 7e 15 3f 3f bb ba e3 be
       0.44843277 0.05850061 0.7464217 -0.44478402
000030 54 35 76 be a7 03 5c bf 25 89 29 3f b7 08 37 3f
       -0.2404378 -0.85943073 0.6622489 0.7149767
000040 b4 a4 3f 3d 80 27 0d 3d e2 9a b7 be 6d 0c 3a bf
       0.046787933 0.0344615 -0.35860354 -0.7267521
000050 08 25 c8 3e 7e e4 dd bd d5 27 09 bf 02 1d 35 bf
       0.39090753 -0.10834597 -0.53576404 -0.7074739
000060 69 2b 55 3d 07 c9 42 bf a0 99 ab be 12 ef 03 3e
       0.052043352 -0.76087993 -0.33515644 0.12884167
000070 38 4c 08 3f a4 d5 4c be ca 95 5e 3f 7b 58 4d bf
       0.532413 -0.20003372 0.8694731 -0.80213135
000080 c2 8a 48 3f b4 55 52 3f df 55 af 3e d6 28 ca 3d
       0.7833673 0.8216202 0.34245202 0.0987107
000090 4d f2 27 3f ff e0 a0 bc 7d b6 0a 3f 8c 96 4d be
       0.65604097 -0.019638536 0.54184705 -0.2007696
0000a0 a5 f7 0a 3f 8c e9 1f 3f 7c 45 6f be 6b 5d 54 3f
       0.54284126 0.6246574 -0.2336635 0.82955045
0000b0 99 f4 89 3e 63 d9 dd be e7 03 cc be a1 01 5d 3e
       0.26944426 -0.43329915 -0.39846727 0.21582653
0000c0 6f 0b 2b bf 36 29 3c 3f
       -0.6681432 0.7350038

a f4 [20, 1]
000000 ed 84 03 3e 39 c5 af 3c 95 13 89 3e 2f 52 e9 bb
       0.12843676 0.021456348 0.26772752 -0.0071203928
000010 b5 b9 2c 3f 57 c0 14 bf fb 10 a8 3e 29 4b 00 bf
       0.67470866 -0.5810599 0.32825455 -0.50114685
000020 a8 25 03 bf 75 39 83 3e b7 61 34 3f ee 7b 54 3d
       -0.51229334 0.25629774 0.704616 0.051876
000030 21 bb 66 bd 81 cb 27 bf 7e 69 de be 37 4f 33 bf
       -0.056330804 -0.655449 -0.4343986 -0.7004275
000040 b7 53 08 bf 59 d6 35 bf f5 16 44 3f ef 21 11 bf
       -0.5325274 -0.71030194 0.7659753 -0.56692404

W f4 [5, 10]
000000 75 12 8b 3e 0a b2 71 3e 0f cc 99 3e 07 04 7f be
       0.2716252 0.23603073 0.30038497 -0.2490388
000010 e9 aa ef 3d c3 dc 21 3f 2e 24 1a 3e 89 a7 24 bf
       0.117025204 0.6322748 0.15052864 -0.6431814
000020 9b 80 f5 3d 49 d0 5c 3f 2e 98 0a bf a8 18 14 3f
       0.1198742 0.8625532 -0.5413846 0.5785012
000030 a0 0a 28 bf 9b 22 49 bf 0e df 3b bf 18 65 b6 3d
       -0.6564121 -0.7856843 -0.7338723 0.08906001
000040 49 b2 43 3f 59 33 ae be 3b 8e 30 3f de 49 c2 be
       0.76443917 -0.3402355 0.68967026 -0.3794698
000050 af 2e 66 be 58 2f 18 bf ec f1 a1 3e 66 4b 00 bd
       -0.22478746 -0.5944724 0.31629884 -0.031321906
000060 e5 3e 24 3f 54 b0 b4 3d c4 04 9c 3c 37 1e 2f be
       0.6415847 0.088226944 0.019045241 -0.1710137
000070 e7 b5 2e 3f 99 f1 5a 3f 79 b4 36 3f 45 7a 98 3e
       0.6824631 0.855249 0.7136913 0.29780784
000080 45 5e 0b bf 27 69 42 bf ef 66 1b be 86 0f c3 3e
       -0.5444072 -0.759417 -0.15175985 0.3809778
000090 2b 00 46 3f 89 c8 46 3f 13 fb 9e 3e 02 43 35 3f
       0.77344006 0.7764974 0.3105093 0.7080537
0000a0 d3 30 dd be b3 a2 98 3e 1b 65 23 bf bd 3b e4 3e
       -0.43201312 0.2981163 -0.6382615 0.44576827
0000b0 50 a8 fb 3e f6 0f dc bc d8 57 e2 3e 19 ad 37 3d
       0.4915185 -0.02686308 0.44207644 0.044842813
0000c0 68 31 1b 3f 09 a4 53 bf
       0.6062226 -0.8267217

a f4 [20, 1]
000000 d4 78 ac bd fc 76 c7 3e 26 78 08 3f f5 d4 09 be
       -0.08421484 0.38957965 0.5330833 -0.13460143
000010 74 db 57 3d 43 c6 21 3f 1b 1f 19 bf 73 e0 ba 3e
       0.05269952 0.6319315 -0.5981309 0.36499366
000020 fd e9 da bd 5f 30 c9 be 98 9b 94 be e8 2e 39 3f
       -0.10689161 -0.39294717 -0.2902496 0.723372
000030 5c bb 6f 3e 23 7d 37 bf 17 62 3b bf 3b fa 31 be
       0.23411316 -0.7167532 -0.7319655 -0.17380612
000040 52 43 08 bf d4 24 6c 3d 9a d0 d2 3e 82 44 59 be
       -0.5322772 0.05765231 0.41174775 -0.2121754

W f4 [5, 10]
000000 27 4d 1c bf 3e c0 ed 3d 5c f8 5f bf 6e f3 57 bf
       -0.61055225 0.11608933 -0.8748834 -0.8435582
000010 ff 4e bc 3e a9 2e 15 bf 56 08 33 3e 47 3a e4 3d
       0.3677902 -0.5827432 0.17483649 0.11143928
000020 44 fe 64 3f bb 93 16 be e3 63 e3 3e 42 12 ed 3d
       0.8945048 -0.14704792 0.44412145 0.11575748
000030 35 8d 69 be 87 b3 c2 be f5 8d e3 bd 49 33 1c bf
       -0.22807772 -0.38027593 -0.111110605 -0.61015755
000040 73 c0 37 3f f0 0c 83 3e af 0a 63 3f fa 47 29 3f
       0.7177803 0.25595808 0.88688177 0.6612545
000050 02 20 5a 3f 96 20 d9 3e 06 d9 67 bf 6f be 91 3d
       0.8520509 0.42407674 -0.90565526 0.071164005
000060 08 79 63 bf 69 6e 08 be 65 16 21 bf fb 80 d9 3e
       -0.88856554 -0.13323368 -0.62924796 0.42481217
000070 69 4d 1a 3f e2 8d 56 bf 2f 86 01 3d e0 28 5f 3f
       0.6027437 -0.83810246 0.031622108 0.87171745
000080 68 54 5f 3f fe 12 9f 3d 1a a0 15 bf 17 03 d5 be
       0.8723817 0.07767294 -0.5844742 -0.4160392
000090 11 6b 27 3e 91 58 5b 3f f0 0e 51 bf 4c 2a 0a bf
       0.16349436 0.85682017 -0.8166342 -0.5397079
0000a0 9e e7 13 3e 12 46 f0 3e eb 82 90 3e 81 ce 16 bf
       0.14443824 0.4692846 0.28224882 -0.5890885
0000b0 7b 94 ba 3e d3 dc 42 3f bf 7e 2b be 0e 4e 24 3f
       0.36441407 0.761182 -0.16747569 0.641816
0000c0 e0 58 33 3e 99 25 19 be
       0.17514372 -0.14955749

a f4 [20, 1]
000000 51 23 ed 3e 3a a6 5c be 4c 18 2d bf 43 29 05 3f
       0.46316007 -0.21547785 -0.676152 0.52016085
000010 6e 22 bc 3e e8 19 41 be d7 d8 f5 be cf 9a e8 be
       0.36745018 -0.18857539 -0.48016998 -0.4543061
000020 77 43 05 bf d5 cd 92 be 3d 6b 1f bf 9d eb 40 3f
       -0.5205607 -0.28672662 -0.6227301 0.7535952
000030 22 f2 4a be 51 44 40 be 84 40 18 bf 77 b3 be be
       -0.19818929 -0.1877606 -0.59473443 -0.37246296
000040 80 a7 1f 3f 9d d9 77 be fb c1 0f bf 07 dd 11 be
       0.6236496 -0.24204107 -0.56155366 -0.14244471

W f4 [50, 5]
000000 35 db b6 3e 92 f6 ca bd 18 2e c0 3e 49 06 58 be
       0.35714117 -0.09910311 0.37535167 -0.21096148
000010 8f 08 95 3d 10 61 9e 3e e1 4d 0e 3e 59 c0 28 be
       0.07277023 0.30933428 0.13896896 -0.16479625
000020 1d 6d e6 bc 84 48 c6 be 16 80 ac be 97 7a ba be
       -0.028128201 -0.387272 -0.33691472 -0.36421654
000030 69 d3 1d be 7b 3d f6 3d df cf e7 3e 39 12 15 bd
       -0.15412678 0.12023445 0.4527578 -0.03639433
000040 57 5f 8b 3e 9a 14 93 3e a8 e0 9e be fc 99 d9 bd
       0.27221176 0.28726655 -0.31030774 -0.10625073
000050 96 63 eb bd df 02 51 3c 05 34 0e be ce 80 9f 3e
       -0.11493604 0.012757032 -0.13887031 0.31152958
000060 f6 75 c3 be 12 42 af be c3 be 15 bd 2d c6 17 3e
       -0.38175935 -0.34230095 -0.036558878 0.14821692
000070 c8 e4 4f 3e 00 c5 1a be f0 51 d4 3e 15 c6 2a 3e
       0.20302117 -0.15114212 0.41468763 0.16677125
000080 29 dd ad 3e c7 50 16 3d 20 86 b0 3e e9 a9 d0 bd
       0.33957794 0.03669813 0.3447733 -0.10188658
000090 b5 19 ed be b9 67 7f bd 91 e1 da bd be 94 87 be
       -0.46308675 -0.062354777 -0.10687555 -0.2648067
0000a0 96 71 c5 be 88 6c c5 bb 47 e0 af be 47 8d d2 be
       -0.38563222 -0.006024901 -0.34350798 -0.4112341
0000b0 72 7a dc 3e 30 7c bb be 2d 07 c0 be 2b 94 04 3e
       0.43062168 -0.36618185 -0.37505475 0.12947147
0000c0 8f f3 a7 be d4 85 c9 bd 79 32 ad 3e d1 e0 a3 3e
       -0.32803008 -0.09839979 0.3382757 0.3200746
0000d0 77 7c e0 3e 53 cc b6 3c 20 27 08 bd 03 76 59 3e
       0.4384496 0.022314226 -0.033240438 0.21236424
0000e0 2f 03 ce 3e 41 ca 80 be 18 71 a5 be 25 79 90 be
       0.40236804 -0.25154307 -0.32312846 -0.28217426
0000f0 4b 43 b8 3e 8a c1 52 bd 89 5b 9a 3e 7c fc 33 3a
       0.3598884 -0.051454104 0.3014796 0.0006865931
000100 43 b5 ce 3e d2 f6 3b 3e cc fc 19 3e ce 9a e2 bd
       0.40372667 0.18355873 0.1503784 -0.11064683
000110 bf 2a 24 bd 7f a7 de be ff 89 d4 3c 50 51 ee 3c
       -0.04007983 -0.43487164 0.025944708 0.029091507
000120 ff ce a2 3d bc de e0 3e 06 1e 9d be a1 9a 88 be
       0.079496376 0.43919933 -0.3068697 -0.26680472
000130 4f 5a 83 3e 37 e9 ed bc 79 68 4c be 73 1b 66 3c
       0.25654837 -0.02904187 -0.19961728 0.01404463
000140 f7 0d c2 be 47 4b d0 be e1 94 c5 3e b2 fc f0 be
       -0.3790128 -0.40682432 0.38590148 -0.4706779
000150 bb 72 2d 3e c2 0c b0 3d 75 80 c5 3e 29 9e b8 3e
       0.16938297 0.08596183 0.38574567 0.36058167
000160 1c b6 d9 be 75 46 95 bc 17 ec 8f be 6e 5f 43 3e
       -0.4252175 -0.018222073 -0.2810981 0.19079372
000170 e6 2a ad 3e ca 7d 66 be 2a de a2 3e eb 13 94 be
       0.3382179 -0.22508922 0.31810123 -0.28921446
000180 13 33 b6 be 15 b2 e0 3d 6b a2 9a bc ae 96 b9 be
       -0.35585842 0.109714665 -0.018876275 -0.36247772
000190 af 07 a8 3e d5 39 20 3e 0b e3 d7 be 8e a7 c5 3d
       0.32818362 0.15647061 -0.42165408 0.09651099
0001a0 79 03 6c 3e 96 1c 77 3c a4 7d 93 3d c3 e4 49 be
       0.230482 0.015082499 0.072016984 -0.19716172
0001b0 1a b3 b8 3e 9e bb 8e 3d 9e 57 ad be 37 82 4c be
       0.36074144 0.06969379 -0.3385591 -0.19971548
0001c0 27 a2 5b 3d f8 e8 b1 bd a1 87 c3 be 0c 27 b0 3d
       0.053621437 -0.086870134 -0.38189414 0.086011976
0001d0 f7 88 0b be ed 59 81 3d b3 41 e6 be 9e de c8 3e
       -0.13626467 0.0631598 -0.44972 0.39232343
0001e0 0b 27 f8 bc 93 ce 81 be e3 4c 87 be 8b a6 8d 3d
       -0.030292055 -0.25352916 -0.26425847 0.06916531
0001f0 b1 62 c4 bc 1b 95 01 be 38 b1 0e be dc 40 19 be
       -0.023972841 -0.12654535 -0.13934791 -0.14966148
000200 62 96 e0 be 43 4f 11 be 2a aa 9f 3c b5 57 d7 be
       -0.43864733 -0.14190392 0.01949032 -0.42059103
000210 50 90 84 be 5f aa b4 be 28 4c ea 3e 51 2a 0b bd
       -0.25891352 -0.35286233 0.45761228 -0.033975903
000220 41 8f 4d 3e 83 06 ad 3c 68 05 d2 be 3c 92 32 be
       0.20074178 0.02112127 -0.4101975 -0.17438596
000230 c7 db a3 be a1 c8 41 3e 44 83 a1 be a7 22 05 3e
       -0.32003614 0.1892419 -0.3154546 0.130015
000240 1c 05 42 be 0f aa b6 be 14 c2 28 3d 7e a0 5f 3e
       -0.18947262 -0.3567662 0.041200712 0.21838567
000250 89 e0 e5 3e 33 5a 07 be 3f cd 76 3e e9 a7 bb 3e
       0.4489787 -0.13218002 0.24101733 0.36651543
000260 87 69 83 be 3f 86 39 be 85 3f 04 be c5 55 92 be
       -0.25666448 -0.18117617 -0.12914856 -0.28581062
000270 dd 50 f6 be 13 5b 16 3d 7c 41 84 be c2 31 bf be
       -0.4810857 0.03670795 -0.2583121 -0.3734265
000280 6e 65 8e be 67 49 86 be 6b de 89 3e 69 c1 2e be
       -0.2781176 -0.26227877 0.26927504 -0.17065968
000290 7d 4d 49 be 49 4b e3 be 18 4d d5 3e 52 15 b0 3e
       -0.19658466 -0.44393376 0.4166038 0.34391266
0002a0 1f 1a 2d be 86 83 6c be 33 99 31 3e 66 33 91 3e
       -0.16904496 -0.23097047 0.17343597 0.28359526
0002b0 82 c1 4a 3e f0 c7 d2 be 22 95 92 3e 0e 5d 4d be
       0.1980038 -0.41168165 0.28629404 -0.20055029
0002c0 2a 3a 87 be 1e 8e d0 bd a6 e0 c2 be 0c 99 3e 3e
       -0.26411563 -0.10183357 -0.38062018 0.1861307
0002d0 af dd 0f 3b 6f 23 13 be 3f 46 a2 be 7c 50 25 3e
       0.0021952202 -0.14368986 -0.3169422 0.16143984
0002e0 69 36 d4 be 8f c1 d0 bd 45 e4 ed bd 74 4c bd 3e
       -0.41447762 -0.10193168 -0.116158046 0.36972392
0002f0 69 48 5e 3d c2 4f c5 be ab d1 a8 3e bb 9b e0 3d
       0.054268274 -0.38537413 0.32972464 0.10967203
000300 e3 33 01 3d 32 e8 cd 3e 15 79 e2 be 6f 42 8b 3e
       0.031543624 0.40216213 -0.44233003 0.27199122
000310 a1 23 30 3e 9b 77 9f 3e e1 20 79 3c 6f be 7e be
       0.17201091 0.3114594 0.015205593 -0.24877332
000320 77 06 e3 3d 4e 03 01 3e 73 7e ea 3e da a7 c9 3e
       0.110852174 0.12598917 0.45799598 0.39385873
000330 32 38 9a 3e 39 b0 db 3e 46 1b 7e be 26 77 e7 3d
       0.30121 0.42907885 -0.24815091 0.11302023
000340 e9 e5 4a 3e d0 2a 4a be 91 db 59 be 8b a7 ac be
       0.19814266 -0.19742894 -0.21275164 -0.33721575
000350 0f 53 ae 3e 81 ec 14 3e 4c 7a bd 3e 70 73 ed be
       0.34047744 0.14543344 0.37007368 -0.46377134
000360 a2 08 96 bd 20 36 6a 3d fb 29 aa be 1d 55 e8 be
       -0.07325865 0.057180524 -0.33235154 -0.45377436
000370 33 98 6f 3b ee 5d 8e be 31 ba c4 3e dc b4 d9 bd
       0.0036559224 -0.27806038 0.38423303 -0.10630199
000380 d6 32 66 3e 89 fc 0d be 3b 6a 67 be cb 70 e7 3e
       0.2248033 -0.13865866 -0.22599117 0.45203242
000390 e9 e0 a9 bd 45 03 da be 44 7b 53 bd 20 cc ac 3e
       -0.08294851 -0.4258062 -0.051631227 0.33749485
0003a0 a1 72 b4 3e a9 ee 3c 3e ca 8a 86 be a6 8b cc be
       0.35243705 0.18450417 -0.26277763 -0.39950293
0003b0 3c 89 c9 be d2 98 15 3d 91 14 9c be 52 4b 71 3d
       -0.39362514 0.036522694 -0.3048444 0.05890972
0003c0 e9 77 f3 bd 2d 7b 57 3e c6 83 65 3d 87 8f 1c be
       -0.118881054 0.21043082 0.056033872 -0.15289126
0003d0 95 1e 88 be ae 4d 45 be 3f 37 d2 3d 1d 92 c0 3e
       -0.26585832 -0.19267914 0.102644436 0.37611476
0003e0 f0 e0 54 3e 93 e4 42 ba
       0.20788932 -0.0007434573

a f4 [10, 1]
000000 2f 66 8c be a5 91 5e bf 22 0e 23 3f 84 b5 b6 bd
       -0.2742171 -0.86940986 0.6369344 -0.0892134
000010 2b c9 44 bf ae 45 4e bf 98 0e 7f 3f ad 79 55 bf
       -0.7686946 -0.8057507 0.99631643 -0.8338879
000020 d2 e6 ec be cb e5 97 be
       -0.46269852 -0.29667506

W f4 [5, 10]
000000 99 3f 0d 3c 23 c3 1a bf ae 48 06 bf aa c8 17 3d
       0.00862112 -0.60454005 -0.5245465 0.037056603
000010 2a 98 5d 3f 6a b5 50 3f ed e4 69 3d 52 c2 5e be
       0.8656031 0.81526816 0.057103086 -0.21753815
000020 76 9b 23 be bf b2 d4 3e 2c 03 c6 3e e0 e0 73 bd
       -0.15977272 0.41542622 0.38674295 -0.05954063
000030 3b 7e b5 be ab 6a 25 3f 98 df 67 be b7 8b 57 bf
       -0.3544787 0.6461589 -0.22643888 -0.8419756
000040 ea 62 00 3f fa d3 16 be 88 7b 9c 3b 74 b9 50 bf
       0.5015093 -0.147293 0.0047754683 -0.8153298
000050 99 2c 1b be db 50 d6 be fe d7 61 3f d0 72 12 3f
       -0.15153731 -0.41858563 0.882202 0.5720644
000060 41 bd 1e bd f1 d1 ef 3e cf 84 51 3e 45 d0 3e 3f
       -0.038754705 0.4683986 0.20460819 0.74536544
000070 2e 86 93 3e e2 1d d7 be 5c 14 1b 3f 93 2f 85 be
       0.28813308 -0.42014986 0.6057794 -0.2601286
000080 be e4 a8 3d 14 c5 c5 3e 9a 3d f7 3e 07 12 39 bf
       0.08246754 0.3862692 0.48289186 -0.7229313
000090 03 ae 15 3e dd ef 01 3e 38 c3 49 3f 8a 49 cc 3d
       0.14617161 0.12689157 0.78813505 0.09974964
0000a0 74 22 28 bf 4e 96 b9 3e 8f 02 cc 3e 01 f0 62 3f
       -0.6567757 0.36247486 0.39845702 0.88647467
0000b0 9b e1 51 be 5d 0a 4b bf a4 a1 16 bf cb 55 99 3e
       -0.20496218 -0.7931269 -0.58840394 0.29948267
0000c0 45 14 ba be af 4a 23 3f
       -0.3634359 0.63785833

a f4 [20, 1]
000000 32 e2 8b 3e b5 57 da be 53 a4 3f bf 02 ee 0f 3f
       0.2732101 -0.4264504 -0.74860114 0.56222546
000010 37 81 35 bf 8a 8a f4 bd 44 4e 0c 3f 9b 27 69 3c
       -0.7090029 -0.11940487 0.54806924 0.014230634
000020 23 59 c0 bd cc 45 34 bf 64 00 1f bf 13 8a c4 be
       -0.093920015 -0.70419 -0.6210997 -0.38386592
000030 30 ec 25 3f 19 77 62 3e 46 ab 5b 3e cd e2 db 3d
       0.6481352 0.22115745 0.21452054 0.10736618
000040 85 62 f3 bc ec da b0 be 1a 4c 54 3d 13 e8 c0 be
       -0.029710064 -0.34542024 0.05183039 -0.3767706

W f4 [5, 10]
000000 e4 1e 3b bf a8 69 ee bd 4c c7 be be 45 be 2b bf
       -0.7309401 -0.11641246 -0.37261426 -0.67087203
000010 84 0f 89 be 62 7a 44 be 26 56 2e 3d dc 3b 03 3d
       -0.2676965 -0.1918731 0.042562626 0.03203951
000020 83 a2 f9 be 8c fa c5 3e 18 42 6d be 72 9c 77 3e
       -0.487568 0.38667715 -0.23169744 0.24180773
000030 74 77 95 3e 6a cf e9 be 6e b3 a3 3e 97 f2 5e 3e
       0.29192698 -0.45666057 0.3197283 0.21772228
000040 64 b1 22 3f ee 29 52 bf 96 62 be 3e f2 94 4d be
       0.63551927 -0.8209523 0.3718459 -0.2007635
000050 5b 92 57 bf 7a bf 1c 3d c4 dd be be 83 21 06 3e
       -0.84207696 0.038268544 -0.3727857 0.13098721
000060 bc 66 4c bd f7 38 1f bf 77 d9 54 bf d0 b7 8a be
       -0.049902663 -0.62196296 -0.83144325 -0.27093363
000070 8b bb 89 3e e0 43 3c 3f 53 5d 42 bf 89 04 cc be
       0.26900896 0.7354107 -0.7592365 -0.3984721
000080 75 c3 b6 be 0b 30 5f bf 5a 50 22 bf 13 00 9e be
       -0.35695997 -0.8718268 -0.63403857 -0.30859432
000090 18 2e 90 be c3 73 e2 be 00 4e 28 3f 16 8d 20 3f
       -0.28160167 -0.44228944 0.6574402 0.6271528
0000a0 1d 2d 25 be f2 ca 58 bd d2 f5 02 3f e4 5e 85 be
       -0.1613049 -0.05292792 0.5115634 -0.26048958
0000b0 ba b5 ce bd 90 85 9f bd b8 03 22 bf e4 5b 61 3f
       -0.10093255 -0.07789147 -0.63286924 0.8803084
0000c0 15 12 a0 3d 74 f6 02 3f
       0.07815949 0.5115731

a f4 [20, 1]
000000 f0 98 db be 3a 9f 8c be 1c 41 3e bd 14 7d 3a 3d
       -0.4289012 -0.2746523 -0.046448812 0.04552944
000010 32 41 07 bd e2 f2 3b 3e d2 04 c0 be 1a 64 1b bf
       -0.03302116 0.18354371 -0.37503678 -0.6069962
000020 3b 0d 1c bf 17 9d 40 bf f1 57 12 be 10 46 cb be
       -0.6095769 -0.752397 -0.1429136 -0.3970189
000030 aa cd ef 3e 8e c4 19 bf e1 5a b6 be 50 4d a5 be
       0.46836597 -0.60065544 -0.3561621 -0.32285547
000040 b8 c3 80 be a9 05 3b 3f 42 2a 4b 3e 31 28 2b 3f
       -0.25149322 0.7305551 0.19840339 0.668582

W f4 [5, 10]
000000 06 8f a8 be d5 83 30 3f f5 98 a6 bd 7a 13 07 3e
       -0.32921618 0.6895116 -0.08134643 0.13191023
000010 b8 f1 03 3f c1 1f 00 3f 2e 66 1a bf 87 1c 3c 3e
       0.5154071 0.5004845 -0.60312164 0.18370257
000020 78 05 3c 3f ff 25 32 bf 16 53 2c be 55 2c 34 bf
       0.73445845 -0.6958923 -0.1682857 -0.70380145
000030 0f 25 af 3e bd 1c 04 bf 97 a8 56 be 27 d6 31 bf
       0.3420796 -0.5160635 -0.2096275 -0.69467396
000040 07 56 0a 3e 5d 72 a8 be c5 74 ad be a9 d2 c2 be
       0.1350938 -0.32899752 -0.3387815 -0.38051346
000050 4b 92 a4 bd 16 0c 16 bf 16 c4 b6 bd 47 bc 76 be
       -0.08035716 -0.5861219 -0.08924119 -0.2409526
000060 03 e7 53 3f 09 9d 5c 3f 2c 58 58 bf e0 00 40 3f
       0.8277437 0.86177117 -0.8450954 0.75001335
000070 d3 d2 8c 3e f7 78 c5 bd f6 5f d5 be be 10 2e 3f
       0.27504596 -0.09642213 -0.41674775 0.67994297
000080 0b 6a cd be 23 8a b5 be 56 52 0b 3f 9a 42 39 bf
       -0.40119967 -0.35456952 0.5442251 -0.7236725
000090 fe ca 4e bf 11 f9 b1 3e 7e 4a 02 bf 36 55 24 3f
       -0.8077849 0.34760335 -0.50894916 0.6419252
0000a0 8b 8f 49 bf 3e b9 93 3e 2c d4 41 bf d0 ec fd 3e
       -0.78734654 0.28852266 -0.75714374 0.49594736
0000b0 a1 ec d5 3e f8 34 fc bd 5c 0c fe 3e c1 a2 44 bf
       0.41782096 -0.123147905 0.49618804 -0.7681084
0000c0 5c 4b fc be 3b 21 2c 3f
       -0.49276245 0.67238206

a f4 [20, 1]
000000 d8 ac 48 be 15 30 0e bf 5e ee 66 3e f2 6c 0e 3f
       -0.19597185 -0.5554212 0.22551867 0.5563499
000010 3f 5d af 3e 34 9d e6 3e db a9 9e 3e 39 f3 88 3e
       0.3425083 0.4504181 0.30988964 0.26748064
000020 07 8f d5 bd 40 cb 28 3f 08 69 57 bd 82 46 e3 be
       -0.10427671 0.65935135 -0.0525904 -0.4438973
000030 37 b6 8c bd 27 46 c5 3e 3c f3 b3 3e cb c6 cb 3e
       -0.06870692 0.38530084 0.3514651 0.39800104
000040 df 81 e8 3d f3 b2 f1 be 72 bf 1c 3f e9 ee 08 3e
       0.11352896 -0.4720684 0.6122962 0.13372387

W f4 [5, 10]
000000 7c 2e 2e 3d 25 a1 c3 be 3b 3b 59 bf 29 da 83 be
       0.0425248 -0.3820888 -0.84856004 -0.2575238
000010 84 5b 1d 3d 21 ef 9c 3e 74 3c 3a 3f 9b 3f 24 3f
       0.038417354 0.3065119 0.72748494 0.64159554
000020 23 42 2d bf 13 36 f7 be 97 f9 2e bf cc b7 a9 3e
       -0.6767904 -0.48283443 -0.68349594 0.33148038
000030 e3 cd 5a bd fe 6e 20 bf bd f3 35 bf 87 38 55 bf
       -0.053419005 -0.6266936 -0.7107504 -0.8328938
000040 61 57 68 3e 18 24 52 bf 25 98 0c be 0f 17 e3 3d
       0.22689582 -0.82086325 -0.13729914 0.110883825
000050 1c ac 67 be f7 b6 c5 3e 56 b9 46 3f aa e5 9e bd
       -0.22624248 0.38616154 0.7762655 -0.07758649
000060 ff d1 b2 be 9b 09 2b bf 5f 3d 4e 3f 75 58 66 3f
       -0.3492584 -0.6681153 0.80562395 0.89978725
000070 a2 c2 41 3f 0a 83 bb bd aa da b4 be 35 47 11 bf
       0.7568761 -0.09155853 -0.35323077 -0.5674928
000080 ca 74 dc be 31 5e f1 be 40 b0 e0 be 60 7d 44 be
       -0.43057853 -0.47142175 -0.43884468 -0.19188452
000090 1b fc bc 3e 07 22 28 bf 1f ae 42 3f 75 8f 19 bf
       0.3691109 -0.6567692 0.7604694 -0.59984523
0000a0 72 d7 ed be 6c 50 02 3f 0c f1 f9 be db 90 99 be
       -0.46453434 0.50903964 -0.48816717 -0.29993328
0000b0 3a b2 ea 3d ca fd 57 3f 03 c2 43 3f e8 89 ff 3e
       0.11459775 0.84371626 0.76467913 0.49909902
0000c0 2c 85 49 3f 03 d8 5a bf
       0.7871883 -0.8548586

a f4 [20, 1]
000000 4a 53 00 be 20 47 40 bf cb 93 e9 be fa 5b 41 bf
       -0.12531772 -0.7510853 -0.4562057 -0.7553097
000010 ae 9e b9 3e 6d 6e 19 3f f7 9e d2 3e ef 1e 20 bf
       0.36253875 0.5993412 0.41136906 -0.625472
000020 82 33 aa 3e 4e bb e6 3e bc ad cc be 49 c3 fe be
       0.33242422 0.45064777 -0.399763 -0.49758366
000030 44 9b da 3d 50 7e 2b 3f d7 d8 31 bf 8a 74 96 be
       0.10674146 0.6698961 -0.69471496 -0.29385787
000040 99 c2 13 3e 1d d5 a2 be 36 c7 1c bf 2e 28 8e bd
       0.14429702 -0.31803218 -0.6124147 -0.069412574

W f4 [5, 10]
000000 aa 25 07 3f bc eb 44 3f 52 e7 94 3e 79 af 05 3f
       0.52791846 0.769222 0.29082733 0.52220875
000010 ed 79 03 bf 27 b0 81 3e d6 f2 22 3f 72 2f 8d be
       -0.5135792 0.25329706 0.6365179 -0.2757526
000020 bc b6 42 bf ee a5 50 bf 6a 68 90 be 26 fb 12 3f
       -0.7606008 -0.8150319 -0.28204662 0.5741447
000030 c5 71 22 bd b2 5c f2 bc dc ac 7c be 90 dc 1c be
       -0.03965928 -0.029585216 -0.24675316 -0.15318513
000040 5a 6a 43 3f 45 e4 23 bf 4c c1 ce 3e 4c 18 12 be
       0.76334155 -0.64020187 0.4038185 -0.14267081
000050 ad 55 47 be 28 cd 2c be fe 74 34 3f b5 d1 97 be
       -0.19466276 -0.16875136 0.70491016 -0.2965218
000060 87 db 50 3f 94 9e f4 3e f4 35 41 bf ea 22 4f 3e
       0.8158497 0.47777236 -0.7547295 0.20228162
000070 c2 78 1f 3d 51 c7 07 3f b8 42 08 bf 79 e8 5e bf
       0.038933523 0.5303851 -0.53226805 -0.87073475
000080 12 12 64 bf ae 2f ca be 9e f9 40 bf 64 6c 24 bf
       -0.89090073 -0.39489502 -0.75380886 -0.6422789
000090 8f 75 59 be 57 70 7e be d7 05 13 bf b6 39 17 bf
       -0.21236251 -0.24847542 -0.57430786 -0.59072435
0000a0 a6 e6 37 be 6f 88 f4 be f5 e0 31 3e 41 89 fc be
       -0.17959079 -0.4776034 0.1737097 -0.49323466
0000b0 71 cc 02 bf 8d 23 22 3f 2f ef f1 3e 1c 4b b1 be
       -0.510932 0.63335496 0.47252795 -0.34627616
0000c0 5a 94 43 3f 10 78 1b bf
       0.7639824 -0.60730076

a f4 [20, 1]
000000 8b ad 25 3f 9b b4 24 3e b2 df f0 be e7 c2 3c 3f
       0.6471793 0.1608452 -0.47045666 0.737349
000010 5d 4d cc bd 12 82 9e be 20 53 06 3d 05 54 81 bd
       -0.099756934 -0.3095861 0.032794118 -0.063148536
000020 d5 fa 84 bd 55 73 99 3d 75 8a 1a bf 50 9b b0 3e
       -0.06493155 0.07492701 -0.6036752 0.34493494
000030 0a 7b af 3d 93 b4 65 bd 09 7a 13 3f ac 6e 13 3f
       0.0856839 -0.056080412 0.57608086 0.57590747
000040 51 b3 0e 3f 18 6f a7 3e 41 27 04 bf ca e8 9b 3d
       0.55742365 0.32701945 -0.51622397 0.0761276

W f4 [50, 5]
000000 1e 91 c8 3e 36 8d a5 be 68 da 9a 3d 1c 5f b2 3e
       0.39173216 -0.32334298 0.07561189 0.34838188
000010 d5 4c 8b 3e d3 fd d1 3e 7b 34 64 3e 50 b8 82 be
       0.27207056 0.41013965 0.22285645 -0.25531244
000020 3c 95 27 3e 88 3b d3 bd bb 9b 04 be e7 9a ba 3d
       0.16365522 -0.10314089 -0.12950031 0.091115765
000030 c0 2c 92 be 87 73 97 be 19 66 40 3d 51 f3 ad 3e
       -0.28549767 -0.29580328 0.046972368 0.33974698
000040 c0 e6 0f 3e e1 27 13 be ef 27 c8 3e 77 01 b8 3e
       0.14052868 -0.14370681 0.39092967 0.35938618
000050 9a 32 af be 7c d2 33 3c 9f 28 13 3e f4 1e d5 3d
       -0.34218293 0.010975476 0.14370964 0.104062945
000060 20 0d 3d be a7 51 9d bd 65 fe 46 be aa 0a a5 3d
       -0.18462038 -0.076815896 -0.19432981 0.08058675
000070 5f 7b c3 be 31 5d c6 3d 12 be 61 be 27 7f e8 3e
       -0.38180062 0.096857436 -0.22045162 0.4540951
000080 54 2b 01 3e a8 b9 47 be b9 0a da be 01 46 0a 3d
       0.12614185 -0.19504416 -0.42586306 0.033758167
000090 46 9d a4 3e 3e 31 0c be d8 97 55 3e 32 34 cc 3b
       0.3215124 -0.1369066 0.20858705 0.006231808
0000a0 8a 51 a2 be 4e 4a a9 3d 3b d7 c1 3e d4 22 0b be
       -0.31702834 0.082661256 0.3785952 -0.13587505
0000b0 27 c8 8d 3e b1 1c 9d be c8 fc a0 be 28 da ca be
       0.27691767 -0.30685952 -0.31442857 -0.39619565
0000c0 76 2b 7e be 04 5f 0e 3e d9 f0 70 bc 6e 36 0b be
       -0.24821267 0.13903433 -0.01470586 -0.13594982
0000d0 f1 7a 5d 3e cd bd 9a bd 25 46 8d 3e e7 f9 c7 3e
       0.2162893 -0.07555733 0.2759258 0.39057848
0000e0 38 fc f0 3d 5b 69 bb 3e 2a 45 08 3e ca 1f c6 3e
       0.11766857 0.36603817 0.13307634 0.38696128
0000f0 4a c8 8e ba fc b8 a7 be 75 d3 57 3e 90 2b 8a 3e
       -0.0010893431 -0.3275832 0.21076758 0.2698636
000100 cc f9 84 3e fb 1f a7 be f0 4e 20 be c5 96 f0 3e
       0.2597183 -0.32641587 -0.15655112 0.46990028
000110 59 49 df be 41 71 3d be ef 2f df be 90 31 61 be
       -0.43610647 -0.18500234 -0.43591258 -0.21991563
000120 7c 33 ae 3d cd d0 95 3d e2 bc 1e 3e fd b7 9f 3e
       0.085059136 0.07315216 0.1550174 0.3119506
000130 6d 03 db 3e a1 cf 91 3e f9 c7 b7 be 60 e9 5b 3c
       0.4277605 0.2847872 -0.35894755 0.01342234
000140 83 48 44 3e a4 e4 d1 be 52 96 ee be ea ef 8d 3d
       0.19168286 -0.4099475 -0.4659906 0.069305256
000150 bd e6 9e 3e 68 ee 89 3e 42 98 8b be 5f 0f b9 3e
       0.31035414 0.26939702 -0.272646 0.3614454
000160 fc 07 88 3e 39 d5 68 3e c5 f1 71 3e 1d 8d ad 3c
       0.26568592 0.22737588 0.23627384 0.021185452
000170 94 c4 dd 3d 1b ee c6 bd 48 be 44 3e 08 de bf bd
       0.1082851 -0.09713384 0.19213212 -0.09368521
000180 01 68 75 bd 73 8b c7 bb 92 23 a1 3e e6 a0 e6 3c
       -0.05991364 -0.0060896217 0.3147245 0.028152894
000190 e3 06 f1 bd 20 ef d5 be 8b 13 01 be 47 4d 1f 3e
       -0.11768892 -0.41784 -0.12605111 0.15556823
0001a0 e5 73 2a ba 37 98 5a be 66 96 e0 3e 1d 62 76 3d
       -0.0006502255 -0.21347128 0.43864745 0.060152162
0001b0 9c 91 c4 3e 94 9a 14 bd 76 2a 87 3d 57 54 a2 be
       0.3839234 -0.03628023 0.06599896 -0.3170497
0001c0 1b 76 5a be 97 6c 92 be 38 a8 ad be 24 91 c4 be
       -0.21334116 -0.28598472 -0.33917403 -0.38391984
0001d0 a3 86 83 be 73 d5 ae be 86 7a c2 3e dd 6e 34 be
       -0.25688657 -0.34147224 0.37984103 -0.17620416
0001e0 2d ff ab bb e9 df 2b bd 8b e1 49 bd 74 27 6d 3e
       -0.005248925 -0.041961584 -0.04928736 0.23159581
0001f0 7a 47 0b 3e 4f 3c c4 3e ca fe a1 3d 0e 24 e5 be
       0.13601485 0.38327262 0.07909925 -0.4475407
000200 38 6b 0e 3e eb a2 55 bd 37 d0 f6 be d2 02 8e 3e
       0.13908088 -0.052157324 -0.4820573 0.27736527
000210 e1 95 6f 3d e1 09 1d 3e 04 fc 8e 3b 3a 6a fc 3b
       0.058492545 0.153358 0.0043635387 0.007703093
000220 d9 3c 09 3d 43 85 cb be 2c ba 9f 3e 3b 90 81 bd
       0.033505294 -0.39750108 0.31196725 -0.06326338
000230 46 45 53 3e 4d f8 bd be 10 d0 0e bd ef 9f 4c 3d
       0.20631894 -0.371035 -0.034866393 0.049957212
000240 6b 87 36 be d6 4f b2 be 3f ca d7 be fe 9b 0e 3e
       -0.17825095 -0.34826535 -0.4214649 0.13926694
000250 93 40 9f 3e e8 19 b7 3e bf 23 f9 3d fe 26 ab be
       0.31103954 0.35761952 0.12165021 -0.33428186
000260 96 e2 27 3d a1 98 ce 3e fd 83 83 be ad 67 c7 be
       0.040987574 0.40350822 -0.25686637 -0.38946286
000270 98 e1 c1 bd 9b b6 8f 3d b5 4e 25 3e d9 a8 24 be
       -0.09466857 0.07017251 0.16143306 -0.16080035
000280 b8 ae f5 3d aa b9 23 3d b3 7c ef 3d b0 8a 66 3e
       0.119962156 0.039971985 0.11693706 0.22513843
000290 87 34 91 3e 9b 64 67 3e 66 e1 3b be 5a ed a7 3e
       0.28360388 0.22596972 -0.18347701 0.32798272
0002a0 62 8a 56 3d 26 cb a1 3d 10 6f e1 3e aa 56 08 3c
       0.052378066 0.079000756 0.44030046 0.008321444
0002b0 cd a8 17 bd cb d1 b7 3d 06 56 bf 3d c7 59 b9 3e
       -0.037026215 0.08975562 0.093425795 0.36201307
0002c0 ab b5 84 be 0d 71 8c be 98 96 af be 10 5a c3 3e
       -0.25919852 -0.2743 -0.3429458 0.3815465
0002d0 17 e3 c4 be 26 95 08 bc 0d d8 02 3e 00 c9 52 3d
       -0.38454506 -0.008336341 0.1277773 0.05146122
0002e0 0b 04 93 3e 7f 07 c2 bd b6 a4 f2 3c 22 49 93 3d
       0.28714022 -0.09474086 0.029619556 0.07191683
0002f0 48 49 b6 be fb ff 14 be a2 86 f1 3e f3 83 19 be
       -0.35602784 -0.14550774 0.4717303 -0.14991741
000300 89 7d c6 3e f3 b2 8f 3d 9b 9b 1e be ae 9c f2 be
       0.3876765 0.07016554 -0.15489046 -0.47385162
000310 90 45 ff 3d 6b 6f 9d be dc 6f ea bc 51 ca e1 be
       0.1246444 -0.30749068 -0.028617792 -0.44099668
000320 0c 72 54 3e e7 97 d5 3e 6b 39 03 bd ae a7 17 3e
       0.2074663 0.41717455 -0.03203718 0.14810058
000330 29 6a 91 3e 97 2d 8b bd 1d 00 e0 3d 58 e9 af bd
       0.28401306 -0.06795805 0.109375216 -0.08589429
000340 6b 45 26 3e e0 0d d2 be 1a 9c d2 bd a9 9c 66 3e
       0.16237418 -0.4102621 -0.1028368 0.22520699
000350 72 f0 80 3e 74 ae ce 3e 1b 5f 8e bd cb 37 e1 be
       0.25183445 0.40367472 -0.06951734 -0.4398788
000360 3a a7 b3 bd 91 bc 82 be 37 1e 5f be 0f 4a 75 be
       -0.0877213 -0.2553449 -0.2178887 -0.23954032
000370 a2 7c 54 3e 30 0e 50 bd 44 ac af 3e 2d 33 1b 3e
       0.20750669 -0.05079478 0.34311116 0.15156241
000380 61 87 70 3e 84 3b da 3d f8 a2 9d be ce 89 83 be
       0.23489143 0.10655883 -0.30788398 -0.25691074
000390 51 6c c0 3c c7 64 c2 3d 45 62 cc 3e cc 36 4c 3e
       0.02348915 0.09491878 0.39918724 0.19942778
0003a0 24 99 14 be ad 45 9e be 42 bf e9 3e da 9d 49 3e
       -0.14511544 -0.30912533 0.4565373 0.19689122
0003b0 39 1d 01 be cd 6a 9b 3e c6 20 c8 3d 4c 45 a6 3e
       -0.12608804 0.3035492 0.09771876 0.32474744
0003c0 a6 80 8d 3d 7a c8 c5 3e a0 73 a7 be 8b be 9e be
       0.06909303 0.38629514 -0.32705402 -0.31004748
0003d0 72 46 bf bd f6 55 93 be 4e 1e bd 3e 0f c0 e5 bd
       -0.09339608 -0.2877652 0.36937183 -0.11218273
0003e0 d2 2e a6 3e 9b 05 09 be
       0.32457596 -0.13381045

a f4 [10, 1]
000000 a8 2c 85 be d2 06 62 3e 6c 69 e9 bd f9 72 2d bf
       -0.26010633 0.22072914 -0.11397061 -0.6775356
000010 f2 85 4b 3f ec 95 c5 be d8 ad b4 3e 83 78 65 3f
       0.7950126 -0.38590944 0.35288882 0.8963701
000020 d1 a4 00 3f db 52 53 bf
       0.5025149 -0.825483

W f4 [5, 10]
000000 15 86 a7 be 2e 37 0a 3f 68 6f 05 3e ac 9f 54 3f
       -0.32719484 0.5399045 0.1303078 0.8305614
000010 97 ca 5a 3f 39 15 5e bf 3a 95 3e be f1 d5 c8 be
       0.8546538 -0.86751133 -0.18611613 -0.39225724
000020 87 31 62 be 37 83 bd be 1b 37 61 bf fc db e4 3e
       -0.22089206 -0.3701417 -0.8797471 0.44699085
000030 f6 f8 4f 3f c3 ce 06 be b4 4f ee be 70 fa 53 bf
       0.8123926 -0.13164811 -0.46545184 -0.8280401
000040 f3 f6 05 3f 47 55 62 be d6 8e da 3d 51 04 f0 be
       0.5232994 -0.22102843 0.10671775 -0.46878293
000050 88 d4 51 3f da ef 18 3d 5c 1a af be 19 d4 15 bf
       0.8196492 0.037338115 -0.34199798 -0.5852676
000060 75 5b ff be f1 bb 06 be ba b2 4c 3d 06 de ff 3e
       -0.49874464 -0.13157631 0.049975134 0.49974078
000070 94 c9 9b 3e 87 1a 8a be cb 4e d0 be a8 1d 22 3f
       0.3042723 -0.26973364 -0.40685114 0.633265
000080 11 12 a7 3e d5 ac af 3c 34 a1 47 3f 2c db 2b 3e
       0.3263097 0.021444717 0.7798035 0.16782826
000090 f9 2f 02 bf e9 a1 45 be 60 11 c7 be 1f 76 da 3e
       -0.5085445 -0.19300045 -0.38880444 0.42668244
0000a0 d6 a9 dc be df 01 15 be ee 16 12 bf 1f d7 8d 3d
       -0.43098325 -0.14551495 -0.5706624 0.06925797
0000b0 3a 1a 1b 3e f4 ef ce be 86 d7 f6 3e c1 6f 4f 3f
       0.15146723 -0.40417445 0.48211306 0.810299
0000c0 d9 fc e5 be 8f 32 b2 3e
       -0.4491947 0.34804198

a f4 [20, 1]
000000 01 1f ca 3e 86 c4 73 be a2 dd 88 3e e0 6e 00 3f
       0.3947678 -0.23805436 0.26731592 0.5016918
000010 b7 e8 14 3f 7f 03 a3 3e 50 dd 1b be f5 e0 8d 3e
       0.58167595 0.31838605 -0.15221143 0.2771069
000020 97 c9 4b 3e f6 5c 27 3f 37 12 d0 3d ad 81 11 3f
       0.19901119 0.6537622 0.10159724 0.56838495
000030 21 4a 06 bf 7f b9 cd be 1c 7e 0c 3e d4 fb 28 bf
       -0.5245686 -0.40180585 0.13719982 -0.6600926
000040 a2 f6 48 be fa 49 b1 bc 58 9b 2f 3f 57 b4 26 bf
       -0.19625333 -0.02164172 0.6859641 -0.65118927

W f4 [5, 10]
000000 d4 f9 7c 3d 23 d1 f9 be 73 56 ce 3e 9d 19 02 bf
       0.061761692 -0.4879237 0.4030033 -0.5082033
000010 e6 65 5b 3d d7 ea 06 3e be cd 10 3f 91 c3 e8 be
       0.053563975 0.13175522 0.5656394 -0.45461705
000020 bc 8d d6 be cc 06 0f 3e ab 3e 18 be a8 f7 c8 be
       -0.4190501 0.13967437 -0.14867656 -0.39251447
000030 f1 79 38 be e5 5c 02 bf 1a 09 08 bf 3e 27 a3 bd
       -0.18015267 -0.50922996 -0.5313889 -0.07966469
000040 16 fa 9d be 7f 73 60 be 6d ae 0a 3e 93 12 fe 3e
       -0.30854863 -0.21919058 0.135431 0.49623546
000050 0a 7d 1f 3f 01 a4 d6 3e c9 bd 65 bf 39 cd a3 3e
       0.6230017 0.41922 -0.89742714 0.3199251
000060 bf 16 83 3e 1e 3b a7 be a0 ae 53 3f ec e2 40 3f
       0.2560329 -0.3266229 0.8268833 0.75346255
000070 18 06 45 bf 21 8a e6 be 80 04 e6 3e 37 b6 a3 3e
       -0.76962423 -0.4502726 0.44925308 0.31974956
000080 af ca 14 bf 2f c2 b8 be c6 89 be 3e 50 70 de 3d
       -0.5812177 -0.3608565 0.37214488 0.10861266
000090 b2 2a 28 3f fd 2d 66 bf 56 c6 3f 3f d7 a2 94 3e
       0.6569015 -0.8991392 0.7491201 0.29030487
0000a0 61 19 04 bf 4e 0f c8 3e e5 3c fb be 87 a8 84 be
       -0.51601225 0.39074177 -0.49069896 -0.25909826
0000b0 4c 96 3b 3f e6 ed 77 be d7 1d e6 3d 97 f0 16 3f
       0.7327621 -0.24211845 0.1123616 0.5896086
0000c0 0b 77 5a 3f 6a ca d2 be
       0.85337895 -0.41170055

a f4 [20, 1]
000000 e9 3d 04 3f df 83 2d bf 0f 83 38 3f de 46 d8 3e
       0.5165697 -0.67779344 0.7207498 0.42241567
000010 a4 43 12 3f 0f 15 23 bb c4 47 2b 3f 04 26 06 bd
       0.5713446 -0.0024884378 0.6690638 -0.0327511
000020 8d e8 02 bf d9 15 39 3d 5b 80 c6 be 02 e1 54 3e
       -0.51136094 0.04518685 -0.38769802 0.20788959
000030 af 0e c5 3e 22 3c df 3e cb e5 4a 3e ca d0 26 bf
       0.38487765 0.43600565 0.19814222 -0.65162337
000040 47 2d 10 3f 38 a2 4b bd fa d1 20 3e 78 21 40 be
       0.5631909 -0.04971525 0.157051 -0.18762767

W f4 [5, 10]
000000 a9 f0 1b bf e9 2c 20 3f bf e2 ac 3e 2a 3b 25 3f
       -0.60914093 0.6256853 0.33766744 0.645434
000010 f5 dd 39 3f 22 a0 11 3e a3 4c 02 3f bc 24 ff 3e
       0.72604305 0.14221242 0.5089819 0.49832714
000020 c4 81 2e bf e3 d8 54 bf 94 a4 40 bf f8 de 8a 3e
       -0.68166757 -0.8314344 -0.75251126 0.27123237
000030 24 87 80 3b 81 82 ce 3e 23 e5 2e bf ef fb 21 3f
       0.00392236 0.40333942 -0.68318385 0.63275045
000040 66 88 22 bf 3c ce ef 3d 8e 39 98 3e bd b9 53 bf
       -0.6348938 0.11709258 0.2973141 -0.8270529
000050 a7 d3 14 3f d1 88 18 bf 59 42 be 3e 03 13 65 bd
       0.58135456 -0.59583765 0.37159994 -0.055926334
000060 b7 aa 0a be 13 9d 1e be 91 37 be be 7d c0 49 bf
       -0.13541685 -0.15489607 -0.3715177 -0.7880934
000070 6b 27 5c 3f 23 c4 7b 3e e4 28 dd 3e 24 cf 1a bf
       0.8599765 0.24586539 0.4319526 -0.6047232
000080 bb 87 a5 3e 5a d4 06 3f 0e ad 2b 3e a6 86 38 3f
       0.32330117 0.5266777 0.16765234 0.7208046
000090 c1 36 4d 3e 2b 8b 28 be 02 05 56 bf 2a ef 7a 3e
       0.20040418 -0.16459338 -0.8360139 0.24505296
0000a0 59 94 03 3f 2e ab 36 3f bb ba 48 bf 7e 8a 0e bf
       0.51398236 0.7135495 -0.7840993 -0.5568007
0000b0 58 ee 05 3f 04 db a4 3e f8 ed 5d 3f f4 c9 4b be
       0.5231681 0.32198346 0.86691236 -0.19901258
0000c0 70 82 c2 3e 97 5f 45 3b
       0.3799014 0.003011679

a f4 [20, 1]
000000 33 39 4c be 2f f9 10 bf dd b1 15 bf e7 4e a7 3e
       -0.19943695 -0.56630224 -0.5847452 0.32677385
000010 de eb eb be 21 94 e1 bd 19 05 b8 3e a7 f5 c7 bd
       -0.4607839 -0.110145815 0.3594139 -0.09763651
000020 d7 8f 3c 3f 79 6d d7 3c cb 8d 01 3f 95 39 7b bd
       0.7365698 0.026297318 0.50606984 -0.06133421
000030 16 2f bf 3d 5c e9 02 3f 5a f1 20 bf 0e 0f 20 3f
       0.09335153 0.5113733 -0.62868273 0.6252297
000040 ac 3a ff be 22 fb ec 3e 01 98 20 bf f9 05 42 be
       -0.4984945 0.4628535 -0.6273194 -0.18947591

W f4 [5, 10]
000000 73 fd 54 3f b1 ba 37 3f 14 2b c1 3e 9f b2 00 bf
       0.8319923 0.71769243 0.37728179 -0.50272554
000010 66 49 18 bf e4 34 8a be 42 f6 43 bf fc 97 0d 3f
       -0.59487 -0.26993477 -0.76547635 0.55310035
000020 5c 1c 93 3e 53 76 ed 3e 18 c6 86 ba 51 8f bb be
       0.28732574 0.46379337 -0.0010282425 -0.3663278
000030 e7 ad 94 be d7 37 52 3f 81 64 ea bd 3e 40 1a 3f
       -0.29038927 0.82116455 -0.11444951 0.60254276
000040 e7 90 2c 3e af a6 1c bf d2 73 bf be e5 be bd 3e
       0.16852151 -0.6119184 -0.3739305 0.37059703
000050 24 16 61 3d 7a e7 4f bf 27 7b ab be 7c 7e ba 3e
       0.054952756 -0.8121258 -0.33492395 0.36424625
000060 f0 58 f9 3e 2e 72 9f be 26 91 62 bf 62 90 49 be
       0.48700666 -0.311418 -0.8850273 -0.19683984
000070 3d b4 31 3f 41 0d 95 3e 5d 7a 5c bf 74 7a fd 3e
       0.69415647 0.29111674 -0.8612421 0.49507487
000080 3b 65 5f 3f b0 6a 1b bf 91 f3 43 3f 83 9f 04 bf
       0.8726384 -0.6070967 0.7654353 -0.51805896
000090 9d ad 0d 3f c8 93 4e bf 99 d2 26 3f 9a 5d 4f 3e
       0.5534304 -0.80694246 0.65165097 0.2025055
0000a0 a8 da be 3c 1f 29 31 bf cb ff e1 3d 73 c9 d3 3e
       0.023297623 -0.6920337 0.11035117 0.4136463
0000b0 96 91 13 bf 0d d5 40 3f 7b 2d 69 be 31 2e 43 bf
       -0.5764402 0.7532509 -0.22771256 -0.7624236
0000c0 22 ec 16 3f cf 13 62 bf
       0.5895406 -0.88311476

a f4 [20, 1]
000000 28 63 35 3e 28 fe 0d bd 0a e3 3b bf 84 a0 13 bf
       0.17713606 -0.03466621 -0.7339331 -0.576668
000010 8c a9 a2 bd 5b 4f 60 3e e5 e2 06 3f 1c 31 b8 3e
       -0.07942495 0.21905272 0.52689964 0.35974967
000020 75 0f ef be b6 7d 60 3e 26 b5 1d bf a7 e1 20 bf
       -0.4669148 0.21922955 -0.61604536 -0.6284432
000030 65 7f c4 bd e1 2e 00 3f 3f f5 1e 3f dc 57 42 bf
       -0.09594611 0.5007153 0.62092966 -0.7591531
000040 6b bb 26 bf 2d d5 37 bf 7d 68 38 be 2a 68 3c bf
       -0.6512973 -0.71809655 -0.18008609 -0.7359644

W f4 [5, 10]
000000 16 86 4a 3f e1 00 2f 3f 51 30 17 3f a9 80 d0 be
       0.7911085 0.68360716 0.590581 -0.4072316
000010 d6 ed fc 3d dc df 03 bf 2f 9b 98 3e 9f c6 83 3e
       0.12350051 -0.5151346 0.29805896 0.25737473
000020 eb b4 55 3f 4b e4 49 bf f3 90 3e 3e 25 3a 85 be
       0.83479184 -0.7886397 0.18609981 -0.26020923
000030 54 ff 0c bf 29 41 49 be 75 dc 9c bc 29 63 d4 3e
       -0.550771 -0.19653763 -0.01914809 0.41481903
000040 0c 58 29 bf f7 d7 5c 3e 54 a2 0d 3f e7 ff 2c 3f
       -0.66149974 0.21566759 0.5532582 0.67577976
000050 7a 26 37 3f 92 46 4e bf 63 bc df 3e bb 0f 3d bf
       0.71543086 -0.8057643 0.43698415 -0.7385213
000060 97 d7 b0 be 81 f0 0f 3f 3f 18 39 bf 4d a9 36 3d
       -0.34539482 0.56226355 -0.7230262 0.04459505
000070 85 9c fb bd 95 5f 66 3e 82 61 1d 3f c4 38 4d bf
       -0.12285713 0.22497399 0.6147691 -0.8016474
000080 4c 96 24 bc 8c 08 ad 3e 22 bb 4c 3f 20 93 56 3f
       -0.010045599 0.33795583 0.7997304 0.83818245
000090 87 b8 1c bd 47 9e 8e 3e 39 64 bf be 0d bc 54 3e
       -0.038261916 0.2785513 -0.3738115 0.2077486
0000a0 4b e1 f3 3e 25 91 cd 3e 1a 5a 8e 3e 2f 43 a3 be
       0.47632822 0.401498 0.27803117 -0.31887195
0000b0 98 cf 4e bf 6d 97 b3 3e bb db 57 3c 7d b8 71 be
       -0.8078551 0.35076466 0.013174946 -0.23605533
0000c0 fa a2 9f bd 66 ab 39 3f
       -0.07794757 0.7252716

a f4 [20, 1]
000000 56 c7 d4 3e d2 ad be be 9a b5 08 3f f7 bc 40 be
       0.4155833 -0.3724199 0.534021 -0.18822084
000010 e9 c3 09 bf 3d 0c 14 bf a4 39 3c 3f a3 7f ef 3d
       -0.5381456 -0.57831174 0.7352545 0.11694267
000020 4b d2 3e 3f 1f 4e 3b bf 3f dc b2 be 0e 7e be 3e
       0.7453963 -0.7316608 -0.3493366 0.37205547
000030 45 73 94 3e 84 48 5c 3e 91 de c2 be 57 c8 fe 3d
       0.28994194 0.21512038 -0.3806043 0.124405555
000040 e0 8d 6d bd 5f 84 58 be e8 ea aa be df fc f7 3d
       -0.05799663 -0.21144246 -0.33382344 0.12108778

W f4 [50, 6]
000000 30 83 33 bd ae 11 4b bc f8 f1 d2 3e 64 e2 d5 3e
       -0.043826282 -0.012394352 0.41200233 0.41774285
000010 c4 79 f1 bc 8b 4f 50 be 9b 02 9f be 1e a3 59 3e
       -0.029477008 -0.20342843 -0.31056675 0.2125363
000020 d1 e5 83 bc b5 a9 ad 3e 92 e6 2d 3e 04 54 bc 3e
       -0.016100796 0.3391854 0.16982487 0.3678285
000030 ab c3 6c 3e 4a f2 98 3e 90 79 10 be 5f f7 cd bc
       0.23121516 0.29872352 -0.14108872 -0.02514237
000040 cd 1b b3 3e 25 1e fa bd 5c 30 87 3e 62 8f 6b 3e
       0.34982148 -0.12212781 0.26404083 0.23003915
000050 f2 22 a6 bb d6 1b c7 3e 06 12 b8 3d 2d 4e cc be
       -0.005070084 0.38888425 0.08987813 -0.39903393
000060 84 df 87 be 21 8b b5 3e 20 1c c1 be ec 3b c5 be
       -0.26537716 0.3545771 -0.3771677 -0.3852228
000070 80 2f 79 be 81 78 2d be 37 06 08 3e 94 6e 5d be
       -0.24334526 -0.169405 0.13283621 -0.21624213
000080 4f c2 cc be 8c b6 cb 3e bf 64 42 be 0f 33 51 3d
       -0.39991996 0.3978771 -0.18983744 0.051074084
000090 4a 73 81 bd f0 ee 48 be 41 81 15 3e 81 90 b3 3c
       -0.06320818 -0.19622397 0.14600088 0.02191949
0000a0 1f 9c 56 bd c3 fa b1 3e 8a fe 9a 3e 74 2c c2 bd
       -0.052394982 0.34761629 0.30272323 -0.09481135
0000b0 73 60 b6 be 0b 06 6a be 2c f0 c4 3d ff 03 04 bd
       -0.3562046 -0.22853868 0.09616122 -0.032230373
0000c0 eb 73 d8 3d 9d 60 87 3e a2 df 41 bc e1 52 fb bd
       0.105689846 0.26440898 -0.011833103 -0.12271667
0000d0 e9 42 f4 bd 93 85 79 3d 1f 2a 7f 3e c7 52 18 be
       -0.119268246 0.060918402 0.24918412 -0.14875327
0000e0 dd c1 16 be 4b ff 77 3e 2c 37 bb 3e f3 7f 3d 3e
       -0.1472239 0.2421848 0.3656553 0.1850584
0000f0 5b 49 6e 3e e7 bf f9 bd fd 8f d4 bd ea 70 1f be
       0.2327017 -0.121948056 -0.10379026 -0.15570417
000100 18 c0 4f 3d 5f 70 12 3c 79 0b 89 be 8c ce b9 be
       0.050720304 0.008937924 -0.26766565 -0.36290395
000110 e6 63 7b 3d e1 37 b1 bc bf 5c 18 3e da 9c 82 bd
       0.061374567 -0.02163309 0.1487913 -0.06377573
000120 1a df ab 3e 99 11 c6 be 03 fc ae be be b0 2d be
       0.3356865 -0.386853 -0.34176645 -0.16961953
000130 45 f1 cb be d4 de 10 3e 2c 67 21 3e 5e 8a a1 3d
       -0.39832512 0.14147502 0.15762013 0.078877196
000140 b4 7d a0 be f0 96 31 3e ae 4c 15 bd 0d 12 67 be
       -0.31345904 0.17342734 -0.03645008 -0.2256548
000150 d7 3e dc 3d bd 51 a9 3e 1c ef 12 bc 1c 8d 3f bd
       0.10754173 0.33070174 -0.008968141 -0.04676543
000160 87 77 63 3e 1e 2e 8d bc 5b a1 ad 3e dd c8 80 3e
       0.22213565 -0.017233904 0.33912167 0.25153247
000170 0f 28 9b 3e 79 42 00 b7 61 e5 71 be 91 25 d5 be
       0.30304 -7.644871e-06 -0.23622657 -0.41630223
000180 c9 6e ae 3e d9 41 e8 3d 59 ac 28 3d 87 2c 9d be
       0.34068897 0.113406844 0.04117999 -0.30698034
000190 46 51 07 3d 45 3a 84 3e 46 f1 d0 3d 26 72 ba be
       0.033036493 0.25825706 0.10202269 -0.36415213
0001a0 bc 99 89 be 6b 6b a4 bd e8 90 5c 3e a5 12 65 be
       -0.26875103 -0.08028301 0.21539652 -0.22370394
0001b0 35 3d 75 be 41 72 b5 3d 2c 79 dd be 23 8b df be
       -0.2394913 0.08859683 -0.4325651 -0.4366084
0001c0 e0 1a 50 3d 2a 0a a4 bc d1 a3 c5 3e 1e 14 0e be
       0.05080688 -0.020024378 0.38601544 -0.13874862
0001d0 a1 fc f1 3e 7a 12 d2 3e 18 ab a3 bd ba 1c 7e be
       0.47263053 0.41029721 -0.07991618 -0.24815646
0001e0 2c 8f 64 be 01 3e ad be b4 07 c1 3e 7a 64 9b be
       -0.2232024 -0.33836368 0.3770119 -0.30350095
0001f0 99 85 b1 bd 98 4f 9a 3d 78 52 68 3e f5 29 e4 be
       -0.0866806 0.075347126 0.2268771 -0.4456326
000200 02 cb 99 be f6 a3 94 3e d4 f4 9f 3e c3 9a 5c be
       -0.30037695 0.29031342 0.31241477 -0.21543412
000210 4a 7c 81 3e aa 50 be be e5 b1 85 bd 8e 2f f1 3e
       0.25290138 -0.37170917 -0.06528071 0.47106594
000220 46 7f 85 be 95 17 e5 be 4a 75 bf be 89 09 db bd
       -0.26073664 -0.44744554 -0.37394172 -0.10695178
000230 a9 f3 cd be f6 e5 94 bd b2 b4 aa be 43 02 a3 be
       -0.4022496 -0.07270424 -0.33340985 -0.31837663
000240 06 28 3a 3e f3 6f c2 3e 1f c4 a5 3e 34 b9 d9 be
       0.1817933 0.37976035 0.3237619 -0.4252411
000250 81 fe 6e bd ff cb a1 bc 76 37 e7 be c2 96 2e be
       -0.058348183 -0.019750593 -0.451595 -0.17049697
000260 9a ab ce bd 1e 41 17 3e 3f 19 9d be 59 4e f3 bd
       -0.10091324 0.14770934 -0.30683324 -0.11880178
000270 64 6a 9f 3e 14 fe ae 3d f3 1f a3 be c0 8b 50 be
       0.31135857 0.08544555 -0.31860313 -0.2036581
000280 16 1b c6 3d 82 bc 9e be 3f 81 56 3e 57 41 e2 be
       0.09673135 -0.31003195 0.20947741 -0.44190475
000290 46 e2 e0 3e 76 1a 83 be 64 51 bf bc a6 b5 b9 be
       0.43922633 -0.25606126 -0.02335424 -0.362714
0002a0 ad 86 70 be 40 05 55 be 4c 6e aa 3e 17 ae 91 be
       -0.23488875 -0.20802784 0.33287275 -0.28453133
0002b0 a9 76 71 3e 20 ea e0 3e 4e 7d 47 3a 50 45 37 3d
       0.23580422 0.43928623 0.00076099194 0.044743836
0002c0 db 26 73 3e fb 3c a2 3e fe fa e1 3e 61 09 7a 3e
       0.23745291 0.3168715 0.44136804 0.2441764
0002d0 1a 61 af be 2d 23 ec bc 93 db d7 be 9e d6 8e be
       -0.3425377 -0.028825367 -0.4215971 -0.27898115
0002e0 63 32 98 be e8 c7 c0 3e 7c 03 45 3d 78 21 b8 bd
       -0.29725942 0.37652516 0.048099026 -0.08990759
0002f0 e2 cc c9 3e 29 cc b7 bd 29 1f c7 be d2 9e ba bd
       0.39414126 -0.08974487 -0.3889096 -0.09112324
000300 06 44 c6 3e c6 75 c8 be aa d8 e6 3d 4c 52 39 3e
       0.38723773 -0.39152354 0.11271794 0.180978
000310 f7 2d d6 be f4 71 e1 3e 05 50 3a be 43 8a 5e be
       -0.41831943 0.44032252 -0.18194588 -0.2173243
000320 ae 2e d5 3e 7e c6 83 3e 58 18 b2 3e 74 61 1f 3e
       0.41637176 0.25737375 0.34784198 0.15564519
000330 a4 08 c8 be 9d 30 e7 be 77 d4 ee bc 17 71 e3 bd
       -0.39069092 -0.45154276 -0.029154046 -0.111055546
000340 79 c9 93 bd 01 dc 23 3e 7a 03 9d 3e 96 13 a5 be
       -0.07216162 0.16001894 0.30666715 -0.32241505
000350 cf 7b e2 3d 87 64 a1 3e 08 4d ab be 19 2a f9 3d
       0.11058771 0.3152201 -0.33457208 0.121662326
000360 ce c7 c9 3e b4 1a bc 3e 35 b8 79 bd 3b 98 11 bd
       0.3941025 0.36739123 -0.06096669 -0.03554557
000370 af 20 50 be 6b ff 0d 3d 31 82 c3 bd 63 d9 96 be
       -0.20324968 0.034667414 -0.095463164 -0.29462728
000380 ca d5 d1 3e 55 a0 d0 be 72 a8 1a be 9a 14 ba bd
       0.4098342 -0.40747324 -0.1510332 -0.09085961
000390 0f bd c2 3e a1 e2 8f be 76 aa d2 be da f7 d8 be
       0.38034865 -0.28102592 -0.41145676 -0.42376596
0003a0 8c 54 56 be 4c 98 10 bd ec c3 e2 be cd 32 5f 3d
       -0.2093069 -0.03530149 -0.44290102 0.054491807
0003b0 b3 38 d2 be 18 89 ad be 33 77 74 3e a4 a6 31 be
       -0.41058883 -0.33893657 0.23873596 -0.17348725
0003c0 fe 50 c6 be 04 dc 95 be 63 cf 7a 3e 75 2c 21 be
       -0.38733667 -0.2926942 0.24493174 -0.15739615
0003d0 fa ad a2 3e 1a f1 69 3e f2 64 c8 be ad 89 73 be
       0.3177336 0.22845879 -0.39139515 -0.23782988
0003e0 e2 c4 f8 3d 5d d3 a4 be f3 9a 1a 3b 52 42 ca 3e
       0.121469274 -0.32192507 0.0023590892 0.39503723
0003f0 bf 7c 91 3d 31 38 70 be fb af 52 bd a8 fd 62 be
       0.071038716 -0.23458935 -0.05143736 -0.22167075

a f4 [12, 1]
000000 18 17 71 3e 05 25 34 bf dd 1a b5 be 53 5a 62 be
       0.23543966 -0.7036899 -0.35372058 -0.22104768
000010 9f f1 a1 be 52 31 e6 be 9a 85 31 3f fc 98 5e 3f
       -0.31629655 -0.44959503 0.69344485 0.86952186
000020 f6 9b 59 be 6e 5a 28 3f 72 b6 28 bf fd 2e e0 be
       -0.212509 0.65762985 -0.6590339 -0.4378585
