graph_model/encoder-checkpoint-6-4.pt (torch, 27882 bytes, 36 tensors)

W f4 [5, 10]
00000000: b7bd 9d3e 8fa0 9b3e 7d68 15be b7b8 8e3e
00000010: 155d babe 5137 19bf a154 d6be ae7b 4dbf
00000020: 8bfe 183f 627b 143f 2321 c33e 55fc b33e
00000030: ebca 0d3e ffa1 fa3e 87a8 62bf b61e 40bf
00000040: 92c3 a33e 3a6d 1f3f 3f01 433e 48c7 adbe
00000050: fdb1 653c 3b57 4c3f aacb d63e 13fa b73d
00000060: 29cc fd3e 6905 333e 7bf9 313e cc2c 20be
00000070: 676a 01bf 0fb9 0bbf 0f06 b0bd 7cdb b43e
00000080: ad26 f5be 7c63 42bf b96e 123e 462f f3be
00000090: 70e9 18bf 844c 26bf c4f2 d13d 8983 60bd
000000a0: 9368 4dbe 4dcf 90be 333d cbbe c579 aabe
000000b0: 1c8e 2b3f 76d2 9bbe af2d 0e3d 62fe 01bf
000000c0: aa86 d63e 12d6 093e
0.30808803 0.30395934 -0.1459064 0.278753 -0.3639914 -0.5985003 -0.41861442 -0.80266845
0.597634 0.5800077 0.3811122 0.35153452 0.13846938 0.48951718 -0.885384 -0.7504686
0.31985146 0.6227604 0.19043444 -0.33941102 0.0140194865 0.79820603 0.41952258 0.08983245
0.49569824 0.17482533 0.17380325 -0.15642089 -0.5055298 -0.5457925 -0.085949056 0.35323703
-0.4788107 -0.7593305 0.1430005 -0.47497004 -0.597312 -0.64960504 0.10251382 -0.05481294
-0.20059423 -0.28283158 -0.3969513 -0.33296028 0.67013717 -0.30434006 0.034711536 -0.5077878
0.41899616 0.13460568

a f4 [20, 1]
00000000: aec5 fd3e a011 e3be 943e a53e f665 db3e
00000010: 3bdd 2f3f f6c7 9a3e e535 8fbe 050c 113f
00000020: bd0d a4be 902f 29bd 2b14 22bf ff87 2cbf
00000030: 1ef6 a7be e25f 5dbe 2078 82be fad4 3a3f
00000040: 774e 0b3f 5281 113b 4c92 e8be 9d16 4bbb
0.4956488 -0.44349384 0.32274306 0.42851228 0.68696946 0.30230683 -0.27970806 0.56658965
-0.3204173 -0.041305125 -0.63312024 -0.67395014 -0.3280496 -0.21618608 -0.25482273 0.72981226
0.544166 0.0022202325 -0.45424116 -0.003098882

W f4 [5, 10]
00000000: 09b2 a03e cccc 18bf 54b4 52bf a09d bd3e
00000010: 4754 6bbd 5679 f13e c7b8 9fbe 6f98 d73d
00000020: 64f0 803d 948e 0b3f b3ea da3e 8406 4fbf
00000030: bfcb 323f dbcf af3e ca1b 46be 34b2 3bbf
00000040: 784a 033f c123 febe 7b4c c2be ba86 4abf
00000050: b1a7 003e 80ef 9ebe dcba ce3e 449e 403f
00000060: 2aee 9d3e 2913 e93e 76b8 103f 6083 2fbf
00000070: f4f6 393c 9d00 dfbe 2797 4fbd 12fd 56be
00000080: c7b0 4d3f 6e48 293f 66ae 5cbf fada abbe
00000090: b6e6 32bf 6aa6 55bd c41c c43e 31de 573f
000000a0: fb70 2dbf b2d4 263f f444 f4be e40f 57bf
000000b0: f3aa b7be 401b 0c3f 6ca7 363f 2281 563f
000000c0: c38f 7abe b50a 643d
0.3138583 -0.59687495 -0.8230641 0.3703432 -0.05745342 0.47162884 -0.3119566 0.10527121
0.06295851 0.5451443 0.42757186 -0.8086932 0.6984214 0.3433827 -0.19346538 -0.7331879
0.51285505 -0.49636653 -0.37948975 -0.79111826 0.12563969 -0.310421 0.40376937 0.75241494
0.30845767 0.4552243 0.56531465 -0.6855984 0.011350382 -0.43555155 -0.05068126 -0.20994976
0.80347866 0.66126144 -0.8620361 -0.33565503 -0.69883287 -0.052160658 0.38303196 0.8432341
-0.6775052 0.651683 -0.47708857 -0.8400862 -0.3587261 0.5472908 0.71349216 0.8379079
-0.24468903 0.055674274

a f4 [20, 1]
00000000: 978c 043e 8cd0 edbe 6918 c03d f912 de3e
00000010: 5473 2d3f 3545 753e 5675 e8be b031 ffbe
00000020: 3b70 2a3f 192e fcbc 7522 3c3e 7eb6 2b3e
00000030: 0354 e63e fff3 353f a639 c43e 2605 3ebd
00000040: fa73 cdbe a9f6 30bf dace 8c3e 22bf 273d
0.12944256 -0.4644817 0.09379656 0.4337385 0.677541 0.23952182 -0.4540202 -0.49842596
0.665775 -0.0307837 0.1837252 0.16768834 0.4498597 0.71075433 0.38325232 -0.04639163
-0.40127546 -0.69126374 0.27501565 0.040953763

W f4 [5, 10]
00000000: 77c3 3cbf ace3 28bf 360c dbbc 790e 9abe
00000010: af21 1bbe 485e 3fbf 22cf 3e3f 7c47 75be
00000020: 28a4 e23e ab99 733d 59a9 3f3f d070 debe
00000030: 404b 7abe 7b6a 5dbf 926b 2a3f f0fa 363f
00000040: 1473 783d b1f6 f53c 95e2 b9be 5be2 37bf
00000050: 97f8 c63e 53e5 d8bd f978 09bf 42a3 34bf
00000060: b34c 4a3d cbf3 42bf 67e7 a1be beec 023e
00000070: 7d52 073f 237d 4bbe 0cb5 603f 3c81 48bf
00000080: 8cff 413f 6587 503f d8e4 b23e d832 a73d
00000090: 075a 2c3f 5db3 dfbc 1503 0a3f 30fb 5cbe
000000a0: cf7e 0a3f a305 203f 417b 62be fbfa 533f
000000b0: e01c 893e 5f12 ddbe ef7a ccbe 9b4b 5c3e
000000c0: c7ca 2bbf b540 3e3f
-0.73735756 -0.659724 -0.026739221 -0.30089167 -0.15149568 -0.74753237 0.7453481 -0.2395305
0.44265866 0.05947272 0.7486778 -0.43445444 -0.24442768 -0.864906 0.6657039 0.7147665
0.060656622 0.030024858 -0.3630568 -0.71829766 0.38861534 -0.10590615 -0.53700215 -0.7056161
0.049389552 -0.7615325 -0.31621858 0.12785622 0.5286024 -0.19871955 0.87776256 -0.78322196
0.7578056 0.81456596 0.3494022 0.081639946 0.6732487 -0.027307207 0.5391095 -0.21580195
0.54099745 0.625086 -0.2211733 0.8280484 0.26779842 -0.4317808 -0.3993754 0.21513216
-0.6710629 0.74317485

a f4 [20, 1]
00000000: fb5b 013e d383 bc3c c814 8a3e 9509 aabb
00000010: 5828 2c3f 1438 14bf 4312 a93e 28dc 00bf
00000020: ffa4 03bf af1e 843e 7290 353f c2e1 343d
00000030: eb94 28bd 1452 26bf cc7e dbbe e01e 33bf
00000040: a604 05bf 2548 36bf 8232 453f 804d 12bf
0.12632744 0.023012077 0.2696898 -0.0051891305 0.6724906 -0.5789807 0.33021745 -0.5033593
-0.5142364 0.2580466 0.7092353 0.044160612 -0.041157644 -0.6496899 -0.42870176 -0.69968987
-0.5196022 -0.71203834 0.77030194 -0.57149506

W f4 [5, 10]
00000000: 1cbe 8a3e 41b2 733e 9512 9b3e 2f53 7ebe
00000010: e8ed f53d b7c0 213f 81b2 183e e79d 24bf
00000020: 1db8 f33d 9df0 5d3f 44bd 06bf 8c13 103f
00000030: cbe5 27bf daaa 49bf 96f3 3abf a685 b43d
00000040: 393f 433f 98f4 b1be 72c5 303f 76a1 bebe
00000050: 7c14 6fbe 364c 16bf cb89 a43e fde8 f3bc
00000060: d1e4 253f 0f91 b63d f2fb 823c a7a9 2abe
00000070: 5d1d 2e3f a3e0 5c3f 6206 3a3f 283d 903e
00000080: cd4e 0cbf bb8f 45bf 3291 1dbe 7294 c23e
00000090: a133 463f 50f1 423f 74fb a13e 0507 363f
000000a0: 0775 e0be a4a5 973e 5bae 22bf 69e9 e43e
000000b0: 78ea fd3e f082 debc 416e e13e 5885 4c3d
000000c0: 7a04 1b3f bdf3 51bf
0.27098167 0.23798467 0.30287614 -0.2483642 0.12008268 0.63184685 0.14911844 -0.6430344
0.11900351 0.8669527 -0.52632546 0.56279826 -0.6558501 -0.78776324 -0.7302793 0.08814554
0.76268345 -0.34756923 0.6905128 -0.3723256 -0.23347658 -0.5871004 0.32136378 -0.029774183
0.6480227 0.089143865 0.015989278 -0.1666628 0.68013555 0.8628027 0.7266599 0.2817166
-0.5480774 -0.7717244 -0.15387419 0.3800388 0.7742253 0.76149464 0.31637156 0.7110446
-0.43839285 0.2961856 -0.63547295 0.44709328 0.49592948 -0.027162045 0.4402943 0.049931854
0.60553706 -0.8201254

a f4 [20, 1]
00000000: 3b6b abbd a54b c73e b5f0 093f 68fd 07be
00000010: 7ea2 813d 2017 223f c4f0 19bf 1e86 b93e
00000020: 1806 dfbd 8c75 c8be 504f 98be d13b 373f
00000030: e498 773e d2a0 39bf 6a64 39bf 7da4 2abe
00000040: e41c 08bf dd53 4c3d 6eac d63e aa35 51be
-0.08370062 0.389249 0.53882915 -0.1328026 0.06329821 0.63316536 -0.60133004 0.36235136
-0.10889834 -0.3915218 -0.2974801 0.7157565 0.24179417 -0.7251102 -0.72418845 -0.1666431
-0.53169084 0.049884666 0.41928428 -0.20430627

W f4 [5, 10]
00000000: 8eaa 1cbf 4fdc ee3d 945b 5fbf c4b0 57bf
00000010: 858a b73e 4f39 15bf 6ce1 383e 940c df3d
00000020: fbd3 633f bf67 1abe 2035 e33e 32f9 ed3d
00000030: 056a 69be 4e69 c2be dbe6 ebbd 49e8 1cbf
00000040: 410c 363f aec9 813e 2b48 623f cc6c 293f
00000050: a54c 5b3f 4b11 d93e 1d34 69bf f65e 963d
00000060: fe1a 66bf 2968 0abe a98a 1ebf a6b4 da3e
00000070: 2c8e 1a3f 2b61 58bf 9ff0 033d 4988 5f3f
00000080: 4394 5e3f 0e77 9a3d 8757 17bf b6eb d9be
00000090: 645f 143e 0624 5a3f 6245 53bf d561 09bf
000000a0: f164 193e 8f89 f03e 9a03 923e 4e90 16bf
000000b0: 7589 bb3e 6d8b 433f 89df 22be 4b69 243f
000000c0: 94fc 323e 2e86 18be
-0.61197746 0.11663114 -0.8724911 -0.842541 0.3584787 -0.5829057 0.18054742 0.10891071
0.8899533 -0.15078638 0.4437647 0.11619796 -0.2279435 -0.37970966 -0.115186416 -0.6129194
0.7111245 0.25349182 0.8839137 0.66181636 0.85663825 0.42396006 -0.91095144 0.07342331
-0.89884937 -0.13516296 -0.6193033 0.4271595 0.6037319 -0.84523267 0.032211896 0.8731733
0.8694498 0.07542239 -0.5911793 -0.42562646 0.14489514 0.8521122 -0.82527745 -0.53664905
0.14979912 0.4697995 0.28518373 -0.5881394 0.3662831 0.7638462 -0.15905584 0.64223164
0.17479163 -0.14894935

a f4 [20, 1]
00000000: 238c ed3e b1db 5bbe 6a41 2dbf 9e38 063f
00000010: c5ac bb3e 488e 42be d539 f6be a53c e8be
00000020: 6524 05bf 1334 93be 2317 1dbf 6f4a 433f
00000030: 9068 54be 8e10 39be 3b95 1abf 2521 c3be
00000040: 175f 1d3f 2965 6ebe 9c66 0dbf d466 1bbe
0.46395978 -0.21470524 -0.6767794 0.5243014 0.3665525 -0.18999588 -0.48090997 -0.45358768
-0.5200866 -0.28750667 -0.6136343 0.7628545 -0.20743012 -0.18072721 -0.6038396 -0.38111225
0.6147322 -0.23280777 -0.55234694 -0.15175945

W f4 [50, 5]
00000000: aacd b63e a5aa cabd 2e41 c03e 6974 59be
00000010: 9c95 8d3d 831f 9e3e bde5 0e3e 951b 26be
00000020: 4c8b 04bd 32c3 c8be a22a adbe 0dd2 b9be
00000030: 8550 1bbe f42b ea3d ea9b e43e 2165 1dbd
00000040: 918c 8b3e 70ae 953e 89ba a1be 1823 e3bd
00000050: c8b5 ecbd ea60 593c 4d19 0bbe 21fc 9d3e
00000060: 8691 c3be 842f afbe 279b 12bd 8d7a 1c3e
00000070: b298 4b3e 0290 1ebe b2d4 d33e 1335 2b3e
00000080: 9038 b03e 5344 063d 9ff7 af3e 6b7f d5bd
00000090: 8732 ebbe cf43 83bd 28c8 dabd 1017 89be
000000a0: a2e8 c7be 7db0 26bb f82f b0be 66f5 d1be
000000b0: 77da dc3e 9288 bcbe 43a5 bebe 431c 033e
000000c0: 68e9 a7be 987a d0bd 81e9 ac3e c2d4 a33e
000000d0: 1a1a e63e 59eb 963c c45e dcbc cf2a 553e
000000e0: 52c9 cf3e ef10 80be 2ae5 a5be 0f76 93be
000000f0: 03c3 b73e 769e 53bd 1a3a 9d3e 5fe0 30bb
00000100: 0ea2 d13e c7c6 3a3e cbc3 183e 713e d3bd
00000110: edb7 2abd d5d1 dcbe 63f0 c63c cb67 e63c
00000120: 351f b93d 4a97 dd3e 2f6b 9cbe 6d0e 89be
00000130: 13e4 833e 1806 bfbc 4646 51be 2921 953c
00000140: 3886 c2be 4f61 d1be 77b0 c93e ec77 f1be
00000150: c2dc 343e ff44 a83d 8c8f c83e 4d6e b83e
00000160: 89c1 dabe 2541 abbc 7778 8cbe e0a2 3c3e
00000170: 7e0b aa3e 993b 66be 143e aa3e e4b6 95be
00000180: ad81 b4be 5a40 d93d 1485 89bc 2b5a b9be
00000190: 90da a73e 3ae4 1f3e f114 d6be 0884 c13d
000001a0: 8904 703e 9d26 393c bf24 953d b196 48be
000001b0: ab96 b83e 2c6f 8a3d ab3a acbe f021 4dbe
000001c0: 9cd5 433d 09d5 afbd 4041 c2be 6e4b b43d
000001d0: 4408 0cbe 1dd1 613d db3c e4be 4660 ca3e
000001e0: bfec f7bc 3182 81be d229 86be aa11 903d
000001f0: 39b3 92bc a59c 04be 18f7 09be 529c 1abe
00000200: 24ca e0be d92b 14be d505 7a3c 4224 d6be
00000210: 989f 84be efc6 b4be 633e ea3e dd32 0cbd
00000220: f5e2 4b3e 0743 f93c 78e6 d1be f101 29be
00000230: 4021 a4be 21a2 413e 00ee 9dbe e5c6 033e
00000240: bfca 3ebe b4aa b6be 6376 253d 69cf 5a3e
00000250: 36fb e63e 2600 07be 8052 793e 012a bb3e
00000260: 7f18 87be fbd4 35be 8313 00be c135 91be
00000270: e490 f6be d6aa 023d 1110 83be ad58 bfbe
00000280: 0a0b 8fbe 3117 86be dd24 8d3e e8fe 35be
00000290: c07f 50be 21b7 e4be 3115 d63e 338d b03e
000002a0: fa82 2cbe ffc6 72be 2695 303e 656b 913e
000002b0: 14e0 523e d21f d7be 8d9a 903e 5ec5 4ebe
000002c0: a718 87be b01b c7bd 8d07 c4be 7c2a 3d3e
000002d0: d03d a63a 8288 12be c046 a1be 8682 243e
000002e0: 9c2d d4be e472 ccbd dc47 eebd c69e ba3e
000002f0: 1b0e 6b3d 5651 c4be f02c a83e 61ca e13d
00000300: c84c 193d 4b1c cc3e bd07 e1be 3f87 8a3e
00000310: 6a76 303e e5fd a13e 7f08 183c 89c4 80be
00000320: 1af5 e03d bac6 ff3d ed56 ee3e 6f9a c73e
00000330: 1c06 993e 5669 da3e 9d0e 80be c4b5 f93d
00000340: 59b9 463e 2742 49be 3de4 5cbe 328a abbe
00000350: eb60 ae3e dc8a 163e 67fa bd3e 8e03 eebe
00000360: 41e4 96bd 3e5b 883d df07 aebe 6d63 e9be
00000370: 1439 103a 699d 8cbe e7a7 c43e ef8d dabd
00000380: db73 603e c9e1 0cbe 886e 68be b922 e43e
00000390: 3a0c a3bd 367d d9be 6b86 4dbd 66cb ac3e
000003a0: cc1b b23e fc39 3f3e 6aea 85be 7d7a ccbe
000003b0: 1016 cabe db15 2d3d 5bcf 9dbe bec9 6b3d
000003c0: 018a f7bd 15ca 563e 5c23 833d aed3 22be
000003d0: b0fa 87be e4ed 49be e37d d73d d18d c13e
000003e0: 3bb3 543e c800 e0bb
0.35703784 -0.09895829 0.37549728 -0.21235813 0.06913301 0.30883417 0.13954826 -0.16221459
-0.032359406 -0.39211422 -0.3382159 -0.3629307 -0.15167435 0.11434165 0.44650203 -0.038426522
0.2725568 0.29234648 -0.31587628 -0.11090678 -0.115581095 0.013267735 -0.1358387 0.30856422
-0.38196963 -0.3421594 -0.035792496 0.15281124 0.19882467 -0.15484622 0.4137321 0.16719465
0.34418154 0.032780003 0.34368607 -0.10424694 -0.45936987 -0.06409418 -0.10682708 -0.26775408
-0.39044672 -0.0025434785 -0.34411597 -0.41007537 0.43135425 -0.36822945 -0.3723546 0.1280375
-0.32795262 -0.10179633 0.337719 0.3199826 0.4494179 0.01842277 -0.026900657 0.20817111
0.40583283 -0.2501292 -0.324014 -0.2880101 0.3589097 -0.051664792 0.3070839 -0.0026989204
0.4094395 0.1823989 0.14918439 -0.10314644 -0.04167931 -0.4312884 0.024284547 0.028125664
0.090391554 0.43279487 -0.30550525 -0.26768818 0.25759944 -0.023318335 -0.20436963 0.018204289
-0.37993026 -0.40894553 0.39392444 -0.47161806 0.17662337 0.08216285 0.39172018 0.36021653
-0.4272578 -0.020905087 -0.27435657 0.18421507 0.33211893 -0.22483672 0.33250487 -0.29241097
-0.35255185 0.10607977 -0.01678709 -0.36201605 0.32783937 0.15614405 -0.41812852 0.09449011
0.2343923 0.01130071 0.072823994 -0.19588734 0.3605245 0.067594856 -0.3363851 -0.20032477
0.047811136 -0.08585555 -0.37940407 0.088034496 -0.13675028 0.055131067 -0.4457768 0.39526576
-0.030264257 -0.2529464 -0.2620378 0.07034619 -0.017907726 -0.1295038 -0.13473165 -0.15098694
-0.4390422 -0.14469852 0.0152601795 -0.41824538 -0.2590301 -0.35308024 0.45750722 -0.034228195
0.19910796 0.030427469 -0.40996146 -0.16504647 -0.32056618 0.18909504 -0.30845642 0.12868841
-0.18632029 -0.3567711 0.040396105 0.21368183 0.45113534 -0.1318365 0.24347878 0.36555484
-0.26385877 -0.17757027 -0.12507443 -0.28361323 -0.48157418 0.031901203 -0.25598195 -0.37372342
-0.2793811 -0.2618957 0.27567187 -0.1777302 -0.20361233 -0.44670966 0.41813043 0.34482726
-0.16846839 -0.23708723 0.17244396 0.28402248 0.20593292 -0.42016464 0.28242913 -0.20192477
-0.26385996 -0.09722078 -0.3828701 0.18473238 0.0012683216 -0.14309886 -0.3149929 0.16065416
-0.41441047 -0.09982851 -0.116348 0.3644926 0.0573865 -0.38343304 0.32846785 0.11024929
0.03742674 0.39865336 -0.43951216 0.2705631 0.17232671 0.3163902 0.009279369 -0.25149944
0.109842494 0.12489076 0.46550694 0.3898501 0.29887474 0.4265849 -0.2501115 0.12192872
0.19406642 -0.19654141 -0.21571441 -0.33503872 0.34058318 0.14701408 0.37105104 -0.46487087
-0.07367755 0.06658028 -0.3399038 -0.45583668 0.00055016694 -0.27463844 0.3840935 -0.10671603
0.21919195 -0.13758005 -0.22698414 0.4455774 -0.079613164 -0.4247834 -0.05017702 0.3374893
0.34786832 0.18674463 -0.26155406 -0.399372 -0.39469957 0.04225717 -0.30822262 0.057565443
-0.12086869 0.20975526 0.06403229 -0.15901062 -0.26558447 -0.19719654 0.10522058 0.3780351
0.20771496 -0.0068360306

a f4 [10, 1]
00000000: 2a85 8dbe a93a 60bf bd1a 233f 2037 82bd
00000010: 3ea5 44bf 491c 4ebf 034d 7f3f d6c0 55bf
00000020: 3853 ebbe 7655 97be
-0.2764066 -0.8758951 0.63712674 -0.063581705 -0.7681464 -0.8051191 0.99726886 -0.8349737
-0.45961928 -0.2955739

W f4 [5, 10]
00000000: 079d 0f3a ca82 1bbf 0080 05bf 6b43 0e3d
00000010: 565f 5d3f ae71 523f c3ff 7a3d 3621 61be
00000020: 3923 22be c48b d53e c31b c43e ca86 7fbd
00000030: 5018 b4be 199b 253f 567f 68be 8496 56bf
00000040: 855a 013f 876e 19be 58bd 923b 487a 51bf
00000050: dad4 27be 5bd2 d6be 5c4c 613f 4c87 0f3f
00000060: 9695 1abd ff73 f53e aa5d 5a3e d78a 403f
00000070: 5b0e 963e 52b1 d7be 9bee 193f edfa 86be
00000080: 6971 b23d 6cc4 c63e 2fb0 f73e b2fc 36bf
00000090: cd7c 163e 618e fa3d 2fde 4a3f bfcc c73d
000000a0: 62ce 29bf b50a b83e 9ff5 cd3e b1df 633f
000000b0: 2669 51be 3015 49bf 29d0 15bf fe8e 973e
000000c0: 3368 b8be 3eb2 213f
0.0005478416 -0.60746443 -0.5214844 0.034732264 0.86473596 0.8220471 0.06127907 -0.21985325
-0.15833749 0.41708195 0.3830243 -0.062384404 -0.351748 0.64689785 -0.22704825 -0.8382342
0.50528747 -0.14983569 0.004478138 -0.8182721 -0.1638979 -0.41957363 0.8800714 0.5606582
-0.037740313 0.4794006 0.21324793 0.7521185 0.29307827 -0.42127472 0.6012971 -0.26363316
0.087130375 0.38821733 0.48376605 -0.7147933 0.14696045 0.12234188 0.79245275 0.09755849
-0.6633054 0.3594567 0.40226457 0.890132 -0.20450267 -0.78547955 -0.5852075 0.29601282
-0.36016998 0.631626

a f4 [20, 1]
00000000: cd89 883e 5ea4 d5be 5dbd 3fbf da5c 0f3f
00000010: 39e6 38bf 0eac f5bd 7e2c 0b3f 381b 4b3c
00000020: b9da dbbd 9911 37bf 80b4 1fbf 0571 c2be
00000030: 3dec 263f 5038 653e d92a 5c3e 1642 d63d
00000040: 1d50 16bd bd31 afbe 6d26 593d d65e bdbe
0.26667634 -0.41726965 -0.7489832 0.56001055 -0.7222629 -0.119957075 0.54364765 0.012396626
-0.107350774 -0.71511227 -0.62384796 -0.37976852 0.6520422 0.22384763 0.2150072 0.10461824
-0.036697496 -0.34217635 0.05301516 -0.36986417

W f4 [5, 10]
00000000: 517a 3abf 3990 f6bd 129c c1be 659e 2abf
00000010: a355 8abe 7eef 3fbe d5f3 1a3d 3fcd 103d
00000020: ba6b fbbe bd12 c63e 8487 6bbe a0bc 753e
00000030: ae2f 943e 4e35 e8be bee4 a23e f08d 613e
00000040: 67e1 213f f343 52bf 860b bf3e c4ba 4cbe
00000050: 6d28 57bf 02be 0e3d 40f3 c2be d7a9 093e
00000060: 8568 54bd 6db3 1ebf 2126 56bf cdb7 86be
00000070: 948e 823e d1a4 373f cdb1 40bf 9e06 ccbe
00000080: 2005 babe f458 5ebf 6c83 22bf 4b0b 9cbe
00000090: d171 90be 9cc5 e2be 1a3f 283f 24fa 243f
000000a0: 8734 1fbe d36f 51bd 7405 013f 7750 83be
000000b0: dc47 d2bd 5ed2 96bd a1ef 22bf 4d46 613f
000000c0: 983a 9a3d 4db0 003f
-0.7284289 -0.12039227 -0.37814385 -0.6664794 -0.2701846 -0.18743703 0.037830193 0.035351988
-0.49105626 0.3868617 -0.23000914 0.23997736 0.28942627 -0.45353168 0.3181514 0.22026801
0.6323456 -0.8213493 0.3731348 -0.1999312 -0.8404606 0.034849174 -0.3807621 0.13443695
-0.05185749 -0.6199253 -0.8365193 -0.26312104 0.25499403 0.71735865 -0.752713 -0.398488
-0.36332035 -0.8685448 -0.63481784 -0.30477366 -0.28211835 -0.4429139 0.65721285 0.64444184
-0.15547381 -0.051132035 0.50398946 -0.25647327 -0.10267612 -0.07364343 -0.63646895 0.87997895
0.07530707 0.50269014

a f4 [20, 1]
00000000: 8cba dbbe 9d34 88be 710b 20bd 737a 413d
00000010: 1e2d dabc 0ed7 3a3e dd1e c1be c30c 1bbf
00000020: 1d3f 1bbf 9f70 40bf 7082 1dbe c65f cdbe
00000030: 174f ee3e 08c0 1dbf a619 b9be 6b81 a1be
00000040: c4d3 71be bce2 353f 636c 5b3e 1457 2a3f
-0.4291576 -0.2660264 -0.03907341 0.047235917 -0.026632842 0.182461 -0.3771886 -0.6056635
-0.6064318 -0.75171846 -0.15381789 -0.40112132 0.46544716 -0.6162114 -0.3615238 -0.3154405
-0.23615938 0.71049094 0.21428065 0.6653912

W f4 [5, 10]
00000000: 1acf aabe 2e17 333f c24f 94bd dd4b 033e
00000010: 8dc5 fe3e 0eed fd3e 4eef 1abf 01a7 3b3e
00000020: 6bdc 393f 50bd 33bf e739 30be 7f99 33bf
00000030: de11 b23e 0de9 04bf 04d4 62be 9b9c 32bf
00000040: de2c 083e 192c a9be 74c7 afbe e186 c5be
00000050: d9e8 b7bd 8169 19bf e8cd 9ebd 6f95 78be
00000060: c780 593f cbe3 5c3f 31a2 58bf 0eaf 3e3f
00000070: 5f5f 903e 672a b3bd 1f34 d8be 100d 2f3f
00000080: 3b2a cabe 5276 b7be 30e0 093f feaa 3abf
00000090: ad20 4fbf 4dfa af3e 634c 03bf 4933 243f
000000a0: 82b6 4abf 1b3e 943e 3544 3fbf 219d fc3e
000000b0: e619 d23e 58f1 00be fe32 fd3e bed1 45bf
000000c0: 0d97 fdbe dab0 293f
-0.3336113 0.69957244 -0.07241775 0.12821908 0.49760094 0.4959492 -0.605214 0.18325426
0.72601956 -0.7021074 -0.17209588 -0.7015609 0.34779257 -0.5191811 -0.2215119 -0.6977021
0.13298365 -0.33041456 -0.34331858 -0.38579467 -0.08979959 -0.5992661 -0.07754117 -0.24275754
0.84962124 0.86285084 -0.84622484 0.7448586 0.28197762 -0.08748322 -0.42227265 0.68379307
-0.39485344 -0.3583246 0.5385771 -0.72917163 -0.80909234 0.34370652 -0.5128843 0.64140755
-0.79184735 0.28953633 -0.7471345 0.4933863 0.41035384 -0.12592065 0.49452966 -0.77273166
-0.49529305 0.6628548

a f4 [20, 1]
00000000: e7e0 47be bc77 0ebf 0f04 683e 3a62 0c3f
00000010: d7af af3e d0e8 e73e e2a5 9c3e 086a 8c3e
00000020: 587a d1bd 3560 283f c30f 2fbd 29da e8be
00000030: 2f51 82bd 6928 c53e 3dfe af3e b6d8 cf3e
00000040: efcc f53d 0105 edbe 9de6 1b3f 4158 163e
-0.19519387 -0.5565145 0.22657798 0.5483738 0.34313843 0.4529481 0.3059531 0.27424645
-0.10228413 0.657718 -0.04273964 -0.45478943 -0.06363141 0.38507393 0.34373656 0.40595025
0.120019786 -0.4629288 0.6089876 0.14682104

W f4 [5, 10]
00000000: bd07 1e3d 3c4f c2be 6b00 5cbf dff4 83be
00000010: e3f6 0a3d ca6a 9b3e 4a63 3a3f a70d 263f
00000020: d213 2dbf ea86 f5be ef0c 30bf 5f7c a93e
00000030: e933 80bd cb75 20bf 042c 36bf 3d62 55bf
00000040: e927 643e a4b4 50bf 2040 09be fd72 e13d
00000050: 4f83 6cbe 1320 c73e 6298 413f e1f5 9abd
00000060: d1e7 b4be bef3 2bbf 67a1 4d3f 6b0d 683f
00000070: c8ca 413f a71f b6bd e4f1 b7be 79a1 11bf
00000080: b2f0 e3be fedf f1be b1ee e1be f157 46be
00000090: 41c2 bb3e ec29 26bf 3ff3 423f f7ba 19bf
000000a0: 7043 f3be 2e85 023f fbb6 01bf 9ad1 9abe
000000b0: 705a e43d 598d 573f 771d 433f 2d7e 023f
000000c0: 1a6f 4a3f 4d7a 5abf
0.0385816 -0.37951076 -0.8593814 -0.2577276 0.033926856 0.3035491 0.72807753 0.6486458
-0.6760837 -0.47954494 -0.68769735 0.331027 -0.06259901 -0.6267974 -0.7116091 -0.83353025
0.2228085 -0.81525636 -0.13403368 0.110082604 -0.23096965 0.38891658 0.7562314 -0.07566429
-0.35333112 -0.67168796 0.80324405 0.90645474 0.75700045 -0.08892756 -0.35926735 -0.5688701
-0.44519573 -0.47241205 -0.4412742 -0.19369484 0.3667164 -0.6490772 0.76152414 -0.6005091
-0.47512388 0.50984466 -0.5066983 -0.30238038 0.11150062 0.84200054 0.76216835 0.5097378
0.7907578 -0.85342866

a f4 [20, 1]
00000000: f2e1 05be 8510 41bf ba8b edbe c5e7 42bf
00000010: 0e64 b63e 9b1f 183f 1fd5 d33e fbc5 21bf
00000020: 8bc2 a93e 2339 e53e 92b7 cabe c97f 00bf
00000030: a0a0 dc3d 664c 2c3f d4b1 30bf 1e6f 94be
00000040: 416d 113e 2355 a0be fd8b 1dbf 5846 8abd
-0.13074473 -0.7541583 -0.46395665 -0.761349 0.3562321 0.59423226 0.41373536 -0.6319272
0.33156237 0.44770154 -0.39593178 -0.50194985 0.10772824 0.67304075 -0.69021344 -0.28991026
0.14201833 -0.31314954 -0.6154173 -0.06751698

W f4 [5, 10]
00000000: 30bf 053f 0d5c 453f 612a 923e e3b4 073f
00000010: f37e 03bf fb11 833e 23c9 223f d6a7 8dbe
00000020: 24fd 43bf 4536 51bf b186 91be 8101 133f
00000030: 316a 24bd 94e7 c8bc a711 7ebe e983 1ebe
00000040: 6535 433f 9355 24bf d213 cf3e b92b 14be
00000050: 1f0c 4dbe 08cb 2cbe 1d9b 323f 91fa 93be
00000060: ef13 503f bf66 f23e bac5 42bf 9419 4c3e
00000070: b235 123d f427 073f 88ab 08bf 5387 5fbf
00000080: 52d6 64bf ed7d c6be ae35 41bf 484b 26bf
00000090: fb4f 5ebe f0aa 7cbe a888 13bf c60a 18bf
000000a0: 8e49 3bbe 3cc9 f5be f234 2d3e 600c f8be
000000b0: b2ee 02bf c66a 213f 8962 f33e 4311 b1be
000000c0: fa01 433f d67c 1cbf
0.52244854 0.77093583 0.28547958 0.53010386 -0.51365584 0.25599656 0.6358816 -0.2766711
-0.76558137 -0.81723434 -0.28423074 0.5742417 -0.040140335 -0.024524488 -0.24811421 -0.15480007
0.7625335 -0.64193076 0.4044481 -0.14469804 -0.20024155 -0.16874325 0.69767934 -0.28902104
0.81280416 0.47344014 -0.76082957 0.19931632 0.03569574 0.5279534 -0.53386736 -0.87315863
-0.89389527 -0.3876795 -0.75472534 -0.6495862 -0.21710198 -0.24674582 -0.57630396 -0.5939144
-0.18289778 -0.48005092 0.16914728 -0.4844694 -0.5114547 0.6305355 0.47536114 -0.34583482
0.7617489 -0.61127985

a f4 [20, 1]
00000000: 102a 273f de0f 273e 9147 f0be eb6c 3f3f
00000010: 52d2 cbbd a2e3 9dbe a692 0b3d 243e 7fbd
00000020: 6699 80bd 5139 9a3d e000 1abf db1b b23e
00000030: f98e b33d 6bdd 5bbd b7d4 0e3f c91f 143f
00000040: 7a94 0f3f c6d0 a63e d177 04bf 59d4 8a3d
0.6529856 0.16314647 -0.469296 0.7477557 -0.09952225 -0.30837733 0.0340754 -0.06231512
-0.062792584 0.075304635 -0.60157585 0.34786877 0.08767504 -0.053677958 0.5579333 0.57861
0.5608593 0.32581156 -0.51745325 0.06778783

W f4 [50, 5]
00000000: da01 ca3e f1f1 aabe ade3 933d 7d58 b83e
00000010: ffa4 873e 0b67 d13e 947e 653e 08c1 83be
00000020: 394f 323e a53b cdbd 13d4 04be 3c9e b33d
00000030: 39f2 93be b6b0 95be 6a4e 3c3d d4c1 ad3e
00000040: 6bb2 123e f6f2 16be ed07 c53e 5311 b63e
00000050: bbd6 afbe 3a2e 943c 42c6 0b3e 7ddc d23d
00000060: 1f0f 3bbe 17d3 9cbd b6f9 52be 0898 a53d
00000070: 4733 c0be cc40 be3d e86f 5ebe f46c dd3e
00000080: e546 003e d3dd 3abe 02be e1be 2417 043d
00000090: 02eb a23e 1a17 0fbe 3e43 543e 4ae7 a73b
000000a0: ebc4 a1be d7ae 9c3d 7652 c13e 57ef 11be
000000b0: 7ac8 8f3e b03d 9cbe 0255 a4be 7b4b cebe
000000c0: a122 7ebe 3da9 0f3e 5d96 6cbc 1781 06be
000000d0: 3306 5a3e 44ef 8bbd 45f0 8c3e 8758 c83e
000000e0: 90e6 ea3d 7493 ba3e b135 113e 5842 c43e
000000f0: c62a 76ba 8a15 9abe 9df4 5f3e 5c9f 8b3e
00000100: 5507 843e 03ea a6be 7941 20be a7ff f03e
00000110: 9c8a dabe a5c8 42be 9941 dfbe debc 6bbe
00000120: aca1 af3d 7310 a83d 52a3 1b3e e858 a03e
00000130: dfff d93e 14a2 913e 05fa b3be c84a 543c
00000140: c492 443e b096 ccbe cd91 efbe baea a13d
00000150: 72fa a03e 5781 893e 41d3 85be 466e b73e
00000160: 7079 893e fd93 683e 34b9 713e effe ee3c
00000170: dcb9 df3d dc21 d7bd 1504 443e f1b1 bdbd
00000180: fe34 7cbd c760 0abc 144c 9e3e aa8a e13c
00000190: 9481 edbd c4ec d9be bde1 02be 32e2 263e
000001a0: 79b0 e73b d49e 5ebe d3db df3e 6452 623d
000001b0: 2050 c53e d415 1bbd 3211 8b3d ab6b a6be
000001c0: 8d01 5bbe 68ef 8dbe 3353 abbe cb22 c4be
000001d0: eb34 83be 5535 b3be 88de c43e ae54 33be
000001e0: b307 e2bb 46cf 0cbd e678 42bd 14f6 663e
000001f0: 3a09 083e 1df9 c43e 22dc 823d b47f e6be
00000200: 2e28 163e 36f8 50bd 4e9b f6be 3fed 8d3e
00000210: 2fb7 543d 0d73 243e 28d0 143c c824 0f3c
00000220: f90e a43c 8645 ccbe 2e3e a33e 3b33 74bd
00000230: 69ae 543e 8cdc d0be b364 1abd a98f 663d
00000240: 8c9f 32be 0bca b2be db8a d9be 3435 033e
00000250: 87c6 9d3e a003 b83e 2d4d fb3d 8a09 abbe
00000260: 80cf 173d 2906 d33e cba5 82be 3cfc c7be
00000270: 0035 a8bd 4b0d 9f3d 1cc6 263e 5642 29be
00000280: 9ee6 f73d d1da 153d d66b eb3d 7da5 6e3e
00000290: 05af 923e 835b 683e 92a4 37be e2fb a63e
000002a0: 3996 733d 506c aa3d f096 e13e 41c7 513c
000002b0: d752 26bd 76f2 c23d f7e7 c13d 0351 b93e
000002c0: c93f 8ebe 8c2c 8fbe 8411 afbe 98e8 c33e
000002d0: 2f3f c5be 5f1d 9fbb bb9c 033e 797e 3a3d
000002e0: db7e 903e 3894 c3bd 8438 683d 3d79 963d
000002f0: 6f93 b4be 2b88 1abe c9cd f13e 341f 1abe
00000300: 241b c53e eab2 863d d3f2 20be c401 f2be
00000310: 3257 003e 4d58 9fbe 9f40 8abc e6dc dfbe
00000320: 9798 553e 8420 cf3e 6fd5 0cbd d1d7 1d3e
00000330: 6fce 903e 125d 87bd a2fa b73d 5d52 b7bd
00000340: b220 2e3e 3b5f d3be 3bb6 cebd 1b34 563e
00000350: cf4c 7e3e 92a4 d03e da7f 93bd e29a e0be
00000360: 3be4 d7bd 0a71 84be 6e03 56be 0615 70be
00000370: ce3e 553e 8292 69bd 3bf9 ae3e 9f8b 223e
00000380: 9918 6f3e 4b1d e23d b8f1 a1be 8fdf 84be
00000390: 8ef6 d73c cc1f c33d 4e66 cc3e 6d61 563e
000003a0: 5c05 1cbe 9d48 a0be 98f1 e93e 076b 4a3e
000003b0: b6f0 18be 07ab 993e 9831 d23d 220e a73e
000003c0: a633 8b3d 594d d03e 75b0 aabe e8e9 9cbe
000003d0: 5191 d2bd c182 92be c924 b23e 9526 eebd
000003e0: 42a5 a93e 02ed 07be
0.39454538 -0.33387712 0.0722116 0.3600501 0.2649307 0.40898928 0.22411567 -0.2573321
0.17413034 -0.10021142 -0.12971525 0.08770415 -0.2889574 -0.29236382 0.04597322 0.33936942
0.14325874 -0.1474112 0.3848261 0.35560092 -0.34343514 0.018088449 0.13649848 0.10295961
-0.18267487 -0.0765745 -0.2060307 0.08085638 -0.37539122 0.09289703 -0.21722376 0.43247187
0.12527044 -0.18248682 -0.44090277 0.03224863 0.31819922 -0.13973656 0.20728776 0.0051240074
-0.3159555 0.076505356 0.37758225 -0.14251457 0.2808264 -0.30515814 -0.32096106 -0.40291962
-0.24817897 0.14029403 -0.014440146 -0.13135181 0.21291427 -0.06832746 0.2752706 0.3913004
0.114697576 0.36440623 0.14180638 0.38331866 -0.0009390529 -0.30094558 0.21870656 0.2727002
0.25786844 -0.32600412 -0.15649976 0.47070047 -0.42683876 -0.19021852 -0.43604735 -0.23021266
0.08575758 0.082062624 0.1519902 0.3131783 0.42578027 0.28443968 -0.35151687 0.012957282
0.19196612 -0.39958715 -0.46790925 0.07906099 0.31441075 0.2685649 -0.26137736 0.3582632
0.26850462 0.22712703 0.23605806 0.029174296 0.10924122 -0.10504505 0.19142182 -0.09262455
-0.061573975 -0.008445925 0.30917418 0.02753194 -0.11596981 -0.4256345 -0.12781425 0.16297224
0.0070705977 -0.21740276 0.437224 0.055254355 0.38537693 -0.037862614 0.06790389 -0.3250402
-0.2138731 -0.27721715 -0.33461913 -0.38307795 -0.2562631 -0.35001627 0.38451028 -0.17512771
-0.0068978905 -0.03437736 -0.04747858 0.22554809 0.1328477 0.38471308 0.06389643 -0.45019305
0.14663765 -0.051017962 -0.48165363 0.27720067 0.05193251 0.16059513 0.009082831 0.008736797
0.02002667 -0.39896792 0.31883377 -0.05961917 0.20769657 -0.40793264 -0.03769369 0.05628935
-0.17443675 -0.34919772 -0.4248875 0.12813264 0.30815527 0.35940266 0.122705795 -0.33405715
0.03706312 0.41215637 -0.25517115 -0.39059627 -0.08213234 0.07766207 0.1628651 -0.16529211
0.121045336 0.036585633 0.114951774 0.23305316 0.28649154 0.22691159 -0.17933872 0.32614046
0.059469435 0.0832144 0.4406047 0.0128038535 -0.040606346 0.09518902 0.09468072 0.3619462
-0.2778304 -0.27963674 -0.3419305 0.38263392 -0.38524768 -0.004855796 0.12852757 0.04553077
0.28221783 -0.09549755 0.056694523 0.07347343 -0.35268733 -0.15091006 0.47227314 -0.15050966
0.3849727 0.06577094 -0.1571763 -0.47266972 0.12533262 -0.31122056 -0.016876517 -0.4372322
0.2085899 0.40454495 -0.034383234 0.15414359 0.28282496 -0.06609549 0.08983351 -0.089512564
0.1700466 -0.41283593 -0.100933515 0.20918314 0.24833988 0.40750557 -0.0720212 -0.43868166
-0.105415784 -0.25867492 -0.20899746 -0.2344552 0.2082474 -0.057024486 0.34174523 0.15873574
0.23349227 0.110407434 -0.3162973 -0.25951812 0.026362684 0.09527549 0.39921802 0.20935602
-0.1523642 -0.313054 0.45692134 0.1976739 -0.14935574 0.30013296 0.102633655 0.3262797
0.067969605 0.40684012 -0.3333775 -0.30647206 -0.10281623 -0.28615382 0.3479369 -0.11628453
0.33133894 -0.13274005

a f4 [10, 1]
00000000: b5c5 6abe 2239 873e 6be1 04be a35b 2abf
00000010: f825 4c3f 30e6 c0be 4c3a b33e 6e8e 6b3f
00000020: a8e9 f63e abe4 4dbf
-0.22926982 0.26410776 -0.12976615 -0.66546077 0.79745436 -0.3767562 0.35005414 0.92014205
0.4822514 -0.80427045

W f4 [5, 10]
00000000: 18b6 a7be c60d 0b3f 8400 013e 47d5 543f
00000010: ba03 5b3f c0aa 5dbf 7840 41be d206 cabe
00000020: 4619 61be fc04 bfbe 862c 61bf 66ba e73e
00000030: f865 4f3f 1db3 06be 0fca ebbe 84e0 53bf
00000040: bb21 053f 20ed 63be 4ed3 dc3d 0f1d f1be
00000050: dbc5 513f 8fb0 203d a9c9 b0be ccb5 15bf
00000060: 3c36 fbbe f8a8 06be afbd 243d a605 ff3e
00000070: bc8f 9c3e 05d1 8bbe b4e0 d0be d5ca 243f
00000080: b979 a83e a146 a53c ac46 4a3f 670b 2d3e
00000090: b329 05bf 189d 45be b574 c4be dd06 dc3e
000000a0: 3c3d dcbe 4b1e 0bbe dd7d 13bf c50e 8b3d
000000b0: 65bf 213e f4ee cdbe 6ab3 ee3e 9d6c 4f3f
000000c0: 5c5b e5be 4f9f b03e
-0.32756114 0.5431789 0.12597853 0.83137935 0.8555256 -0.8658867 -0.18872249 -0.39458328
-0.21982297 -0.3730849 -0.8795856 0.45259398 0.81014967 -0.13154264 -0.46052596 -0.8276446
0.52004594 -0.22258425 0.10782491 -0.47092482 0.8194253 0.03923088 -0.34528854 -0.58480525
-0.49064815 -0.13150394 0.04021996 0.49808997 0.3057841 -0.27307907 -0.40796435 0.64372
0.32905367 0.02017528 0.79014087 0.16898881 -0.5201675 -0.19298208 -0.3837029 0.42973986
-0.43015468 -0.13585775 -0.5761393 0.067899264 0.15795667 -0.4022137 0.46621257 0.81025106
-0.44796264 0.34496543

a f4 [20, 1]
00000000: 65ba da3e 7348 81be 48e4 8a3e dc0a e63e
00000010: c666 0b3f 3cc1 b23e 8062 48be 5e1e 7c3e
00000020: 2ed7 7f3e 1bcf 283f 6637 c23d f76d 133f
00000030: cafd 05bf 3812 cdbe b27d 113e d488 2abf
00000040: b3f9 48be 3852 7cbc 26f3 2d3f c0ab 24bf
0.42720333 -0.25250587 0.2712729 0.4493016 0.54453695 0.3491305 -0.19568825 0.24620959
0.24984428 0.6594102 0.09483223 0.5758967 -0.52340376 -0.40052962 0.14208105 -0.66615033
-0.19626503 -0.015400462 0.6794914 -0.6432457

W f4 [5, 10]
00000000: ef6b 4d3d b2cd f9be 4356 ce3e 595a 00bf
00000010: bc26 473d 602c 083e 9a32 133f 764d ebbe
00000020: 59cf d7be 5e55 163e bd60 1fbe 5f6f c9be
00000030: 22b6 3abe 3f29 01bf ce4e 09bf 03dc 9dbd
00000040: 8403 9fbe e0b0 62be 4b5b 073e 1229 003f
00000050: 9e63 1f3f 0083 d53e 4a2d 66bf 17fa a53e
00000060: 6817 823e be9a a6be a6d5 533f 8945 443f
00000070: eece 45bf e225 e5be 15fc e53e 908f a13e
00000080: da69 15bf 1f38 b6be 1387 bd3e da02 e23d
00000090: 2fd0 273f cc0b 66bf f47e 3f3f be67 953e
000000a0: ad95 06bf d8df c43e 411b fcbe 69ce 80be
000000b0: 2925 3d3f d3d1 75be d560 e63d 6c54 163f
000000c0: 55e1 593f e198 d0be
0.05015176 -0.48789746 0.40300187 -0.5013786 0.048620924 0.13298178 0.57499087 -0.45957536
-0.4215038 0.14681002 -0.15564246 -0.39342782 -0.1823354 -0.5045356 -0.5363587 -0.077079795
-0.3105737 -0.22137785 0.13218419 0.5006267 0.6226138 0.41701508 -0.89912856 0.32417366
0.25408483 -0.32539934 0.82747877 0.766686 -0.77268875 -0.44755465 0.44918886 0.31554842
-0.5836464 -0.35589692 0.37017116 0.110357 0.6555204 -0.8986175 0.7480309 0.29180712
-0.5257214 0.3845203 -0.49239543 -0.25157478 0.73884827 -0.24005823 0.11248938 0.5872257
0.85109454 -0.40741637

a f4 [20, 1]
00000000: 4bcc 073f 3f3b 28bf b3b8 343f 614a d93e
00000010: b3b1 143f c8fc 82bc d34a 2d3f 8c09 9abc
00000020: f29c 03bf 78f8 f33c 40b4 cbbe 8474 3f3e
00000030: ae83 c63e 3246 dc3e eaf2 4e3e 7c9b 26bf
00000040: 5dfb 103f ab09 56bd 9b38 223e 95f5 3dbe
0.530461 -0.657154 0.7059433 0.4243956 0.5808365 -0.015989676 0.676923 -0.01880338
-0.51411355 0.029781565 -0.39785957 0.18696791 0.3877234 0.43022305 0.20209852 -0.65081
0.5663355 -0.052255314 0.15841906 -0.18550713

W f4 [5, 10]
00000000: 4c72 1dbf b080 213f f26e b13e 3615 243f
00000010: 8547 393f 6907 023e 0758 023f d2ba fe3e
00000020: 05b8 2fbf b81c 56bf 06d1 41bf e6b9 8b3e
00000030: 8460 f13b f7da d43e d0ae 30bf efe8 203f
00000040: cba3 22bf d087 f23d 23b5 963e 3e06 55bf
00000050: c6cf 133f 4eef 17bf 5312 bf3e 5dd8 12bd
00000060: 5fd9 11be c03a 1fbe d250 bebe d5c2 49bf
00000070: 1ff5 593f aedc 773e 0820 da3e 1a7f 1abf
00000080: a09b a63e 3c1b 073f f135 283e e09a 373f
00000090: 5f76 4b3e 5797 26be c572 56bf 3f69 733e
000000a0: 163f 023f d171 3a3f 1478 47bf e146 0abf
000000b0: 035a 043f 8d82 9d3e 244a 5e3f 3586 4cbe
000000c0: a71c c03e 4e3c 7ebb
-0.6150253 0.63086987 0.34654957 0.64094865 0.72374755 0.12698139 0.5091557 0.49751908
-0.68640167 -0.8363757 -0.7570957 0.27290267 0.007366242 0.41573307 -0.6901674 0.6285543
-0.6353118 0.118423104 0.2943507 -0.8321265 0.5773891 -0.59349525 0.37318668 -0.03585087
-0.14243077 -0.15549755 -0.37171036 -0.78812915 0.8513965 0.24205276 0.42602563 -0.6035019
0.32540607 0.5277593 0.16426827 0.71720695 0.19869374 -0.16268669 -0.83768874 0.23770617
0.5087751 0.7282992 -0.779176 -0.540144 0.51699847 0.30763665 0.8683188 -0.19973071
0.3752186 -0.0038793269

a f4 [20, 1]
00000000: ecb0 4cbe 7028 13bf ac19 15bf 6840 a73e
00000010: e181 f0be 201f e6bd 7df2 af3e a9ac c0bd
00000020: 33f2 3b3f 7601 ea3c ec06 033f dcdd 9abd
00000030: d0d9 c03d f067 003f 3e41 25bf d602 1e3f
00000040: f695 04bf d3d5 eb3e 0454 1fbf daf8 31be
-0.19989365 -0.5748358 -0.582423 0.32666326 -0.4697409 -0.112364054 0.3436469 -0.09407932
0.7341644 0.02856515 0.51182437 -0.075618476 0.094165444 0.50158596 -0.64552677 0.6172308
-0.5179132 0.46061572 -0.6223757 -0.17380086

W f4 [5, 10]
00000000: 3fb8 503f 29b7 353f f00e b73e e4c2 f6be
00000010: d9ca 16bf ef73 98be 07d1 46bf bfe9 0b3f
00000020: dc4b 8b3e 5f04 e43e 02ed febb 087d bebe
00000030: 91db 9cbe 890b 583f 2e96 e0bd 921b 143f
00000040: 1460 243e 43e0 1dbf 2e3b c1be 121a b83e
00000050: 6adf 533d 2f65 51bf 07d9 b2be e634 c53e
00000060: 5662 f93e b4f0 a9be 1376 63bf 3195 4cbe
00000070: 6667 283f 0978 953e fd03 5ebf ddae f53e
00000080: 9dfe 593f cec6 16bf 48f1 463f 8cfe 09bf
00000090: 117c 093f ebb2 51bf 125b 223f 17f3 3e3e
000000a0: 84a1 923c b5be 32bf a9d7 bf3d d721 da3e
000000b0: e84b 12bf 5f04 3b3f fec4 70be 82c7 44bf
000000c0: a327 123f f97e 62bf
0.8153114 0.70982605 0.35753584 -0.48195565 -0.5890327 -0.2977595 -0.776627 0.54653543
0.27206314 0.44534585 -0.0077797184 -0.37204766 -0.30636266 0.843926 -0.109661445 0.5785457
0.16052276 -0.6167032 -0.37740463 0.3595739 0.051726736 -0.8179502 -0.34931204 0.3851692
0.48707837 -0.33191454 -0.8885204 -0.19978787 0.65782773 0.29193142 -0.86724836 0.47984973
0.85154134 -0.588971 0.77711916 -0.5390403 0.53704935 -0.8191363 0.6342021 0.18647419
0.017899282 -0.69822246 0.09367306 0.42603943 -0.57147074 0.73053545 -0.23512647 -0.76866925
0.5709173 -0.88474995

a f4 [20, 1]
00000000: 7be6 3a3e 4517 02bd d704 37bf 451e 1cbf
00000010: d25f 87bd e6f5 3d3e 795a 043f d911 c23e
00000020: f869 e0be c51d 433e e516 1abf f114 1ebf
00000030: 5b91 9ebd 50d7 063f 3a07 183f 87ca 3dbf
00000040: f641 31bf 31e0 3cbf 766c 1ebe 4159 35bf
0.18251984 -0.031760473 -0.7149176 -0.6098369 -0.06610073 0.18550834 0.5170055 0.37904242
-0.43830848 0.19054325 -0.60191184 -0.61750704 -0.07742568 0.5267229 0.59386027 -0.7413716
-0.69241273 -0.7377959 -0.15471062 -0.70839316

W f4 [5, 10]
00000000: b575 4a3f 66cf 2d3f c5b3 173f 8a34 d3be
00000010: 1b4c 0c3e 2a2a ffbe 5ce5 953e 3cb4 803e
00000020: 4093 563f 9496 46bf fe37 3d3e a3af 86be
00000030: e131 0cbf 0695 4cbe f258 adbb 84d1 d63e
00000040: c098 2abf 131d 5b3e f549 0e3f f937 303f
00000050: 75a8 373f 5052 4fbf eba5 dd3e 2c46 3dbf
00000060: 5302 aabe c83c 103f 7b7b 3abf 35a8 313d
00000070: 4a57 f2bd add9 713e f8ab 1b3f f20f 4ebf
00000080: ceec c53a d399 ab3e 3298 4d3f 8ea1 593f
00000090: a324 1dbd 9359 943e fa1d b9be 943f 673e
000000a0: cbc9 f33e 83d2 ca3e 13d5 903e ca1a a5be
000000b0: 9df7 4abf e20e bd3e 0796 103c 1257 75be
000000c0: 03b2 8cbd f6c3 3c3f
0.79085857 0.6789459 0.5925868 -0.41251022 0.13700907 -0.49836856 0.2927655 0.25137508
0.83818436 -0.77573514 0.1847839 -0.26305875 -0.5476361 -0.19978723 -0.005290144 0.41956723
-0.6663933 0.2139781 0.555816 0.6883541 0.7174142 -0.80984974 0.43290648 -0.739352
-0.33204898 0.56342745 -0.72844666 0.043373305 -0.11833055 0.23618193 0.6080928 -0.8049308
0.001510048 0.33515796 0.80310357 0.8501214 -0.038365018 0.2897459 -0.36155683 0.22582847
0.47614893 0.39613733 0.28287563 -0.32247 -0.7928408 0.36925417 0.008824832 -0.23958996
-0.068698905 0.7373651

a f4 [20, 1]
00000000: e9d1 d23e d39a bcbe 1934 063f 89a6 3dbe
00000010: cfa4 05bf a722 19bf 71f4 3c3f 7b84 f83d
00000020: c4cd 3f3f 3df2 41bf 4cd9 b3be 7a1b bf3e
00000030: 8ab2 8f3e f25e 5e3e 3f29 c2be 422e fd3d
00000040: f65d 69bd 4da1 56be 2844 aabe 77b5 f73d
0.41175774 -0.36836872 0.52423245 -0.1852056 -0.522046 -0.598185 0.7381049 0.12134644
0.7492335 -0.7576025 -0.35126722 0.3732565 0.28065902 0.21715906 -0.37922093 0.123623386
-0.056974374 -0.20959969 -0.33255124 0.120951585

W f4 [50, 6]
00000000: 9bd8 1abd 3e06 1cbb 974f d43e bdd9 d43e
00000010: e4b2 04bd a624 50be c79f a0be 79dd 593e
00000020: f22b d9bc 8b87 b23e cd4b 293e 4cce b83e
00000030: d4fb 713e 70d4 983e ba49 14be 3f92 debc
00000040: facf ba3e bcda fdbd 8b2a 8a3e f9ea 6a3e
00000050: ffd3 08bc dc4b c63e 4804 b23d 0154 ccbe
00000060: 3553 85be e447 b53e 0b6e c2be 8fac c5be
00000070: 03e4 7abe 7420 2dbe 9326 093e c6d5 62be
00000080: 4857 ccbe 397a ca3e c25c 37be 023a 623d
00000090: ba26 85bd ce25 4bbe ed29 0f3e 1eb3 e13c
000000a0: acce 7dbd 62e5 ae3e ec6d 9c3e 776d b1bd
000000b0: 9d7c b8be 5f67 69be 18f1 bc3d 08a9 09bd
000000c0: 4921 d33d e66c 813e f2f9 d5bb 4636 02be
000000d0: 7642 d3bd 2787 873d 7877 803e a9a3 16be
000000e0: bddc 17be 945c 763e baec bd3e 1993 403e
000000f0: f6ed 773e eb44 21be 4533 d4bd 4d85 28be
00000100: 21b1 ed3d bfaf 7b3c ac34 85be b1ce b9be
00000110: ad70 803d 9284 d0bc aed1 3b3e fc07 7abd
00000120: 9e0b ad3e 4557 c8be f872 aebe 9795 32be
00000130: 1d90 c3be 85c1 173e 36ea 253e 092a 923d
00000140: 5363 9ebe 3d49 2c3e ea4b d33b 9279 62be
00000150: 3843 de3d 7fc7 ac3e 7b17 87bc ec6d 35bd
00000160: 0d9b 5f3e e7a6 7fbc a510 ae3e 7a21 7f3e
00000170: 2b65 9d3e 089b 62bb b3b7 65be 8be4 d1be
00000180: 8de5 ac3e 3221 f63d a1a5 033d 96cb 97be
00000190: 972f 513c 6824 7e3e 9511 db3d 2547 bfbe
000001a0: 882b 88be 019c a8bd 1e24 6e3e b7bf 65be
000001b0: 4415 73be a6f1 be3d f7de e0be d59a e1be
000001c0: 98f4 5c3d 542c 95bc af56 c73e bb39 10be
000001d0: 07c7 f23e defd cf3e 83c2 98bd 5208 7cbe
000001e0: 2046 5fbe f10b b3be 6b67 c13e 2c6e a0be
000001f0: ded0 86bd 914d a23d 0728 693e 38c1 e6be
00000200: 9d06 9ebe 922e 9a3e 400d 923e 6324 60be
00000210: 6a0e 863e 06d5 c0be f48e 87bd da81 ee3e
00000220: e977 6bbe de63 e2be e1c0 bcbe 8711 e0bd
00000230: f8f0 cfbe 334c 8ebd 9954 acbe 3698 a3be
00000240: 971d 3c3e 5748 c43e 176b a43e 1268 d8be
00000250: 0435 86bd 8ba1 98bc c686 e8be 35fa 2abe
00000260: af1d e9bd 3ab7 253e 5838 a4be 813f febd
00000270: 0661 a03e e469 b23d b3ce a5be 49ce 4fbe
00000280: 3fdc ae3d 456e 9dbe bfe1 573e 174a e2be
00000290: 541f e23e ad7d 83be 07e3 c9bc b35e b7be
000002a0: 94cb 63be b2e1 36be c7e2 ab3e 7729 94be
000002b0: e543 793e 309b e03e 328e 71b9 e040 b33c
000002c0: 05df 743e eeb8 9d3e 2ece ee3e 4ba6 7f3e
000002d0: 4af8 a9be b541 f0bc c594 d6be 3330 91be
000002e0: c209 9bbe 31de be3e 4422 4a3d e8b5 babd
000002f0: c10e cc3e 59ab bebd 4343 c5be a9bd b6bd
00000300: 57b8 c63e 2081 c8be 2f6d dd3d 5300 3b3e
00000310: abf3 d7be 96f0 e13e f59f 32be 5523 4dbe
00000320: d9a9 d23e 2016 863e 2701 ad3e eb9c 183e
00000330: 1a71 c5be b5f0 e5be 9420 eabc d6e9 e6bd
00000340: 9257 0ebd 16a7 2a3e aa93 a03e 291c a4be
00000350: e7b8 e13d 5b2f a23e eb3f b0be 8896 e83d
00000360: 5ac7 ca3e 83c9 c23e 2d56 6fbd 0a61 23bd
00000370: cad6 3ebe 4868 203d 549b bebd 8580 96be
00000380: d38e d33e 566e d2be 3b94 10be 06df b3bd
00000390: 0c81 c03e 77f9 90be c5a4 d9be 2d77 d4be
000003a0: a27e 59be 4f76 19bd 9b74 dbbe 0093 823d
000003b0: be9f cebe 0f7c b7be d993 8f3e ed00 31be
000003c0: 1c5f c8be 6482 98be 5ecc 6f3e 92e2 18be
000003d0: cd5d 983e f6b6 633e a254 c9be df14 74be
000003e0: e71e fe3d 0e89 a4be 04d0 da36 7220 cc3e
000003f0: bdd3 8d3d 28c3 72be b6bd 5dbd 60c3 57be
-0.037804227 -0.0023807432 0.41466972 0.4157237 -0.032397166 -0.2032648 -0.313719 0.21275891
-0.026510213 0.34869036 0.16532822 0.36094892 0.23631221 0.29849577 -0.1448125 -0.027169345
0.364868 -0.12395236 0.26985583 0.22941197 -0.008351325 0.3872975 0.08692223 -0.3990784
-0.26040044 0.3540641 -0.3797458 -0.38608214 -0.24501042 -0.16906911 0.13393621 -0.2215186
-0.3991034 0.39546373 -0.17906478 0.0552311 -0.06501527 -0.1983864 0.13980837 0.02755123
-0.061964676 0.3415938 0.30552614 -0.08663457 -0.36032572 -0.22793339 0.092256725 -0.033608466
0.10309083 0.25278395 -0.00653004 -0.12716016 -0.10315411 0.06617575 0.25091147 -0.14710869
-0.14830299 0.24058753 0.3709467 0.18806113 0.24211869 -0.15748946 -0.103613414 -0.164571
0.1160605 0.015361725 -0.26016748 -0.36290506 0.06271491 -0.02545384 0.18341705 -0.06104277
0.33797926 -0.3912908 -0.3407209 -0.17439876 -0.38195887 0.14819916 0.16202626 0.07136924
-0.30935153 0.16824813 0.0064482586 -0.22116688 0.10852665 0.33745953 -0.016490689 -0.044294283
0.21836491 -0.015603757 0.33997074 0.24915114 0.30741248 -0.003457727 -0.22433357 -0.40994677
0.33768883 0.1201805 0.032140378 -0.2964751 0.012767694 0.24818575 0.10696713 -0.37358966
-0.26595712 -0.082328804 0.23255965 -0.22436415 -0.23738581 0.093234345 -0.4392011 -0.4406344
0.0539442 -0.018209614 0.38933322 -0.14084522 0.4741747 0.40623373 -0.07458975 -0.24612549
-0.21804094 -0.34970048 0.37774214 -0.31334054 -0.06582807 0.07924951 0.22769175 -0.4506929
-0.3086442 0.30113655 0.28525734 -0.2188888 0.26182872 -0.37662524 -0.06619063 0.46583444
-0.22994961 -0.44216818 -0.36865905 -0.10940843 -0.40613532 -0.069481276 -0.33658293 -0.31952065
0.18370663 0.3833644 0.32112953 -0.422669 -0.06553081 -0.018631717 -0.45415324 -0.16697009
-0.11382615 0.16183177 -0.32074237 -0.12414456 0.31324023 0.08711603 -0.3238426 -0.20293535
0.08538102 -0.3074819 0.21082209 -0.4419715 0.44164526 -0.2568182 -0.024644388 -0.35814437
-0.22245628 -0.17859533 0.33571455 -0.28937885 0.24342306 0.438684 -0.00023036523 0.02188152
0.239132 0.30805153 0.46641678 0.2496578 -0.33197242 -0.029328207 -0.41910377 -0.28357086
-0.30280882 0.37278894 0.049349084 -0.09116727 0.39855006 -0.09310026 -0.3852788 -0.089228936
0.38812515 -0.39161015 0.10811841 0.18261842 -0.4217809 0.44128865 -0.17443831 -0.2003301
0.41145208 0.26188755 0.33789942 0.1490361 -0.38562852 -0.44910207 -0.028579988 -0.112750694
-0.034751482 0.166653 0.3136266 -0.32052734 0.110215954 0.31676754 -0.34423766 0.113568366
0.39605218 0.38044366 -0.058431793 -0.039887466 -0.18636623 0.03916195 -0.0930697 -0.29394928
0.41319904 -0.41099805 -0.14119045 -0.08782773 0.37598455 -0.28315327 -0.42508522 -0.41497174
-0.21239713 -0.037466343 -0.428624 0.06375694 -0.4035625 -0.35836837 0.28042486 -0.1728551
-0.39135063 -0.2978698 0.23417804 -0.1493018 0.29759064 0.22237763 -0.39322382 -0.23836087
0.12408238 -0.32135814 6.5211225e-06 0.39868504 0.069251515 -0.23707259 -0.054136 -0.21070623

a f4 [12, 1]
00000000: e0ea 733e b21f 31bf a8c0 b0be 1206 69be
00000010: 6520 a0be a5f3 e2be 5f0e 313f c419 603f
00000020: 95e2 4cbe 29bf 263f 2ea1 28bf b3f2 e0be
0.23820066 -0.6918899 -0.34521985 -0.22756222 -0.31274715 -0.4432651 0.69162554 0.87539315
-0.20008309 0.6513544 -0.6587094 -0.43935165
