graph_model/encoder-checkpoint-6-6.pt (torch, 27882 bytes, 36 tensors)

W f4 [5, 10]
000000 ae b0 9e 3e b3 b9 9a 3e 73 ef 15 be 47 75 90 3e
       0.3099417 0.30219802 -0.14642124 0.28214476
000010 94 ce b7 be 16 5b 18 bf 81 d4 d6 be b2 bc 4d bf
       -0.35899794 -0.59513986 -0.41959003 -0.8036605
000020 b6 e4 18 3f fa b6 14 3f 60 84 c3 3e 3d 72 b3 3e
       0.59723985 0.580917 0.38186932 0.35048094
000030 53 f9 0b 3e b8 ad fc 3e ee b5 61 bf b6 91 3f bf
       0.13669328 0.49351287 -0.8816823 -0.7483171
000040 30 2e a4 3e f1 ba 1e 3f 84 71 3d 3e 31 54 ac be
       0.32066488 0.62004 0.18500334 -0.33657983
000050 e2 3d 6c 3c 8a 91 4b 3f 36 23 d6 3e b8 b5 bd 3d
       0.014419051 0.7951895 0.4182374 0.09263176
000060 28 d6 ff 3e 3f 24 36 3e b5 05 32 3e 25 dc 27 be
       0.49968076 0.17787264 0.1738499 -0.16392572
000070 61 58 04 bf 8b 06 0c bf ae ec af bd 67 94 b3 3e
       -0.51697356 -0.54697484 -0.08590065 0.3507416
000080 2d af f5 be a7 9a 41 bf ef 48 14 3e d6 df f0 be
       -0.4798521 -0.75626606 0.14480947 -0.47045773
000090 51 fb 18 bf e7 93 28 bf 9d 89 ce 3d 8e 27 5d bd
       -0.5975848 -0.6585068 0.100848414 -0.0539928
0000a0 6b 16 4a be 02 6d 91 be 12 59 cc be 00 34 a8 be
       -0.19735114 -0.2840348 -0.39911705 -0.32852173
0000b0 04 b0 2b 3f 9b 86 9a be b7 59 15 3d 5d 54 03 bf
       0.67065454 -0.3018082 0.036462512 -0.51300603
0000c0 3d a8 d4 3e fc 83 0a 3e
       0.41534606 0.1352691

a f4 [20, 1]
000000 2b 4c ff 3e eb 90 e6 be ad 01 a2 3e 7e 6f d9 3e
       0.498628 -0.4503244 0.31641904 0.42467874
000010 e1 e2 2d 3f 49 ad 97 3e 2b 8f 92 be f6 2b 13 3f
       0.67924315 0.29624394 -0.28624853 0.57488954
000020 b4 8c a0 be ec 3b 0c bd a7 94 20 bf 81 35 29 bf
       -0.31357348 -0.034236833 -0.62726825 -0.66097265
000030 1b e4 a1 be 8b c3 53 be 7f 76 77 be 25 aa 3d 3f
       -0.31619343 -0.20680062 -0.24166296 0.74087745
000040 cf 15 0e 3f de 45 65 bc 6e f4 ee be cf 2e 83 bc
       0.5550203 -0.013993708 -0.4667086 -0.016013531

W f4 [5, 10]
000000 0f 87 a1 3e af 44 19 bf d0 3e 52 bf 00 c0 bc 3e
       0.31548354 -0.5987043 -0.82127094 0.36865234
000010 e2 0e 5e bd a8 3e f1 3e 46 f6 9d be 54 a2 d5 3d
       -0.054213412 0.47118115 -0.30851954 0.10431352
000020 05 88 83 3d 21 48 0c 3f 30 14 dd 3e c8 1b 4f bf
       0.06422428 0.5479756 0.43179464 -0.80901766
000030 5d 36 33 3f ba e7 ac 3e 29 1b 44 be 3e b9 3b bf
       0.70004827 0.33770543 -0.19150986 -0.7332953
000040 c6 16 04 3f 7b d9 fa be e0 ee c1 be 05 da 49 bf
       0.5159725 -0.4899405 -0.3787756 -0.78848296
000050 76 1b 06 3e 8e 39 a1 be 8d 6d cf 3e 59 ee 3f 3f
       0.13096413 -0.31489223 0.40513268 0.74973065
000060 22 a1 a0 3e 37 4f e9 3e 19 9e 11 3f c5 c3 26 bf
       0.31372935 0.4556825 0.5688186 -0.6514247
000070 fd a8 4b 3c 73 50 df be 32 18 45 bd 4a a6 56 be
       0.012430427 -0.43616065 -0.048118778 -0.20961872
000080 f2 52 4c 3f 50 0b 2a 3f 5b 02 5c bf 81 9a aa be
       0.79814065 0.6642351 -0.85941094 -0.33321002
000090 ab 63 32 bf 7a 13 98 bd 91 fd c5 3e fe 7e 58 3f
       -0.6968333 -0.0742559 0.38670018 0.84568775
0000a0 26 6d 2c bf 32 93 26 3f f6 a9 f4 be 06 05 57 bf
       -0.6735405 0.6506835 -0.4778592 -0.8399204
0000b0 32 71 b7 be a3 76 0c 3f 66 48 37 3f 1c bc 57 3f
       -0.3582855 0.54868525 0.71594846 0.8427141
0000c0 74 bf 78 be 6a 67 7b 3d
       -0.24291784 0.06137792

a f4 [20, 1]
000000 18 c6 15 3e 76 54 f5 be cc 2c a4 3d be 8f e1 3e
       0.14626348 -0.47916 0.08016357 0.4405498
000010 e8 26 33 3f b7 bc 6c 3e 89 57 ed be 9c 89 02 bf
       0.6998124 0.23118864 -0.46355847 -0.50991225
000020 55 24 2a 3f 95 ce 3b bd 2b 9e 26 3e a5 b6 52 3e
       0.6646169 -0.04585131 0.16271274 0.20577486
000030 93 56 dc 3e 9f bd 2c 3f b1 8a ab 3e d6 d6 a8 bd
       0.430348 0.6747684 0.3350425 -0.08244102
000040 f3 c0 e0 be 34 b7 25 bf 89 9f 99 3e 77 3a b0 3d
       -0.4389721 -0.6473267 0.30004528 0.08604901

W f4 [5, 10]
000000 57 a2 3d bf 81 51 29 bf 3f ee eb bc 63 04 9b be
       -0.74075836 -0.6613999 -0.028800128 -0.30276784
000010 64 fa 1c be c5 7e 40 bf ab 56 3f 3f f8 fb 77 be
       -0.15329891 -0.75193435 0.7474162 -0.24217212
000020 57 b6 e3 3e 20 5b 7e 3d 7d 16 3f 3f 62 83 e1 be
       0.44475052 0.062098622 0.7464369 -0.4404555
000030 88 a7 75 be 25 fb 5c bf 24 e5 29 3f a0 9c 37 3f
       -0.2398969 -0.86320716 0.66365266 0.71723366
000040 39 e5 74 3d 25 17 01 3d 73 4c b9 be 7c af 37 bf
       0.059788916 0.031516213 -0.3619114 -0.7175214
000050 8f dc c5 3e 42 21 df bd 0a d0 09 bf f9 1c 37 bf
       0.38644835 -0.10895015 -0.5383307 -0.71528584
000060 17 83 40 3d fa c6 44 bf 84 c0 a2 be 47 f4 03 3e
       0.047000017 -0.76866114 -0.31787503 0.12886153
000070 f2 45 08 3f 18 f3 4a be 61 32 60 3f a3 b9 48 bf
       0.5323173 -0.19819295 0.8757687 -0.7840826
000080 05 b9 41 3f 60 3d 4e 3f 20 80 b0 3e ba 7e 8d 3d
       0.7567294 0.805624 0.34472752 0.06908937
000090 36 0a 2c 3f 25 cb d2 bc 74 08 0b 3f b8 3e 5d be
       0.6720308 -0.025731632 0.54309773 -0.21605957
0000a0 29 ee 09 3f 4e b2 1e 3f 30 be 5e be 58 c5 53 3f
       0.5387903 0.6199082 -0.21752238 0.82723
0000b0 c6 6f 87 3e 54 a9 e0 be e4 26 ce be 6a 15 5f 3e
       0.26452464 -0.43879187 -0.40264046 0.21785513
0000c0 49 41 2b bf 75 c5 3e 3f
       -0.6689649 0.74520046

a f4 [20, 1]
000000 d7 cb 00 3e 0c 7e bd 3c 0c 4c 8a 3e 29 a6 9e bb
       0.12577759 0.023131393 0.27011144 -0.004841585
000010 83 f7 2b 3f 86 1a 14 bf fb 4f a9 3e 37 01 01 bf
       0.6717455 -0.5785297 0.33068833 -0.5039248
000020 93 bc 03 bf c7 3e 84 3e 46 7d 38 3f bf f5 11 3d
       -0.51459616 0.25829145 0.7206615 0.035634752
000030 6f 91 26 bd 16 13 26 bf cb 3d d5 be 37 a3 35 bf
       -0.04066604 -0.6487287 -0.41648707 -0.7095217
000040 cf dd 03 bf 2a b5 33 bf 36 57 47 3f f8 9f 13 bf
       -0.5151033 -0.7019831 0.7786745 -0.5766597

W f4 [5, 10]
000000 64 7d 8b 3e 81 ae 73 3e 55 02 9d 3e 7c 93 7c be
       0.27244103 0.23797037 0.30665842 -0.24665636
000010 14 92 f5 3d b1 3e 21 3f 98 a7 16 3e 13 2e 24 bf
       0.11990753 0.62986284 0.1471237 -0.64132804
000020 d7 41 f2 3d c0 4c 5e 3f b9 b6 06 bf f6 53 10 3f
       0.11828964 0.8683586 -0.5262256 0.56378114
000030 c3 77 26 bf b4 ed 48 bf aa ec 39 bf 13 71 b4 3d
       -0.6502649 -0.78487706 -0.72626746 0.0881063
000040 dd b8 42 3f 1e e0 ae be 90 76 30 3f 29 8c bc be
       0.7606333 -0.34155363 0.6893091 -0.36825684
000050 18 81 72 be d9 e4 14 bf b7 29 a9 3e 6e fb db bc
       -0.23682058 -0.58161694 0.33039638 -0.02685329
000060 49 6d 26 3f 1c a6 b2 3d 28 26 61 3c 08 83 29 be
       0.65010506 0.08723089 0.013742007 -0.1655389
000070 c1 be 2d 3f d1 f3 5d 3f 86 a0 39 3f 42 92 92 3e
       0.6786919 0.8670016 0.72510564 0.2862721
000080 35 04 0b bf a6 04 45 bf 80 2b 1e be 1f 08 c2 3e
       -0.54303294 -0.7696022 -0.15446281 0.3789682
000090 8e a8 45 3f 1c 1b 43 3f 50 55 a1 3e 35 dd 35 3f
       0.7721032 0.7621324 0.315104 0.7104066
0000a0 83 30 e2 be 7b cc 97 3e 7d 75 21 bf 78 1d e6 3e
       -0.44177637 0.29648194 -0.630699 0.44944358
0000b0 c0 13 ff 3e 75 b2 eb bc 2d 6f e0 3e 21 16 65 3d
       0.49819756 -0.028771618 0.4383482 0.055929307
0000c0 e3 b7 1a 3f af 4b 51 bf
       0.6043684 -0.8175611

a f4 [20, 1]
000000 ff 8b dc bd c2 7d be 3e c0 85 13 3f 98 61 de bd
       -0.1076889 0.3720532 0.5762596 -0.10858458
000010 0a 61 cb 3d 9e a7 1e 3f 49 c9 20 bf 29 4b ae 3e
       0.09930618 0.61974514 -0.62807137 0.34041718
000020 68 40 07 be bf 73 d0 be 3c 50 9a be 7b d3 35 3f
       -0.13208163 -0.40713307 -0.3013934 0.7102582
000030 ca c3 7c 3e ec 93 3e bf a0 e3 37 bf da 6e 22 be
       0.24684063 -0.7444446 -0.71831703 -0.15862599
000040 36 03 03 bf 50 07 3e 3d 3e c3 d9 3e d3 89 4a be
       -0.51176775 0.046393692 0.4253177 -0.19779138

W f4 [5, 10]
000000 f0 be 1b bf 03 ae ee 3d ac ac 60 bf d6 52 57 bf
       -0.6083822 0.11654284 -0.87763476 -0.8411077
000010 bf 4d b5 3e f6 44 15 bf cf ee 40 3e b3 6e e1 3d
       0.35410878 -0.5830835 0.18841098 0.11007442
000020 11 f5 63 3f e9 6d 15 be 52 80 e2 3e 3e 45 f2 3d
       0.89045817 -0.14592709 0.44238526 0.11829613
000030 1c 47 70 be 7a 16 c2 be ef 85 10 be d0 3f 1d bf
       -0.23464626 -0.37907773 -0.14113592 -0.61425495
000040 52 70 3d 3f 65 bf 81 3e 30 3a 62 3f 7a 80 29 3f
       0.7399951 0.25341335 0.8837004 0.66211665
000050 c3 87 5b 3f 8b d6 d8 3e ef 60 6b bf 77 6d 9a 3d
       0.8575403 0.42351183 -0.91944784 0.0754041
000060 4f 3f 6a bf 2b ee 0e be 6d 74 1a bf b7 f8 db 3e
       -0.9150285 -0.13958041 -0.603339 0.42963192
000070 3e 91 1a 3f cc 22 5b bf 2e d5 1a 3d 15 78 5f 3f
       0.6037787 -0.8559997 0.03780096 0.87292606
000080 09 7b 5e 3f e8 0b 9d 3d d2 d9 16 bf 2e 12 da be
       0.86906487 0.076682866 -0.5892612 -0.42591995
000090 32 23 19 3e fa 74 5a 3f 03 a6 52 bf 5a f1 06 bf
       0.14954832 0.8533474 -0.82284564 -0.52712023
0000a0 91 b8 22 3e fe 22 ee 3e 71 ac 95 3e 1e fb 15 bf
       0.15890719 0.46511072 0.29233125 -0.585863
0000b0 d1 ae c2 3e 85 f2 45 3f 53 11 26 be 3a f4 24 3f
       0.38024 0.7732318 -0.16217546 0.6443516
0000c0 3a 92 39 3e 67 6e 08 be
       0.18122187 -0.13323365

a f4 [20, 1]
000000 6b 81 ed 3e 02 9f 5c be d8 4d 2d bf 23 1f 08 3f
       0.463878 -0.21545032 -0.67696905 0.5317251
000010 7b 9a bb 3e f3 65 45 be a3 2d f6 be f0 b4 e8 be
       0.36641297 -0.19277172 -0.48081693 -0.45450544
000020 a7 2b 05 bf ce 1c 93 be 3e 57 19 bf 63 c8 46 3f
       -0.52019733 -0.28732914 -0.59898746 0.77649516
000030 0d c2 63 be 5f ad 24 be f5 6a 1e bf f1 95 cc be
       -0.22241993 -0.16081761 -0.61881953 -0.39958146
000040 fc b8 19 3f e5 b6 60 be 8c b5 09 bf dc 59 2a be
       0.6004789 -0.21944769 -0.53792644 -0.16635841

W f4 [50, 5]
000000 55 1e b6 3e f7 80 cb bd 79 5b c1 3e 64 e7 55 be
       0.35570017 -0.099367075 0.377651 -0.2088905
000010 54 17 92 3d 55 e7 9c 3e 2b 4d 10 3e b6 95 22 be
       0.07133356 0.30645242 0.14091937 -0.15877423
000020 83 58 00 bd f7 aa c9 be b1 d1 ad be 3b cd b9 be
       -0.03133441 -0.39388248 -0.33949044 -0.3628939
000030 5a 2b 15 be 70 1c e4 3d b8 e7 e3 3e db 64 2c bd
       -0.14567319 0.111382365 0.44512725 -0.04208837
000040 a7 9f 8b 3e 07 e5 98 3e 3f 21 a0 be 6c ac e4 bd
       0.27270243 0.29862234 -0.31275365 -0.11165699
000050 57 59 f3 bd 5e c2 63 3c 1c 90 05 be a9 77 9f 3e
       -0.118822746 0.013901321 -0.13043255 0.3114598
000060 ac 73 c6 be 5f 21 b0 be 8c 79 0f bd 39 a9 1f 3e
       -0.38760126 -0.3440046 -0.035028026 0.15591897
000070 20 a5 4b 3e a6 0d 1e be f7 67 d2 3e b6 05 2b 3e
       0.19887209 -0.15434894 0.41094944 0.16701397
000080 c4 bc b2 3e 79 44 14 3d 79 31 b0 3e e6 45 d3 bd
       0.34909642 0.036198113 0.34412745 -0.103160664
000090 6e 7a ec be 3c fd 87 bd 2f 47 e1 bd 26 1b 89 be
       -0.46187156 -0.066400975 -0.10999905 -0.26778525
0000a0 9c f5 c6 be ea 2a 62 bb de 2b b2 be a5 78 d1 be
       -0.3885926 -0.0034510442 -0.34799093 -0.40912357
0000b0 f5 1a dd 3e b0 9f bb be fb 18 bf be 6d 2b 00 3e
       0.4318463 -0.3664527 -0.37323746 0.12516566
0000c0 e2 7c a9 be 26 05 de bd ea cd aa 3e 4b 78 a5 3e
       -0.3310309 -0.10840826 0.33360225 0.3231834
0000d0 cf 91 ea 3e 8c 57 92 3c c1 09 db bc 7a 1a 57 3e
       0.45814368 0.017864011 -0.02673805 0.21006194
0000e0 fb 94 cf 3e 9a e6 81 be c8 83 a7 be a1 eb 95 be
       0.4054335 -0.25371248 -0.3271773 -0.29281333
0000f0 a8 5b b7 3e 28 51 51 bd b7 2a 9f 3e 43 b6 a9 3b
       0.35812116 -0.051102787 0.31087276 0.005179198
000100 8f 43 d3 3e 87 28 3b 3e 38 67 19 3e 93 a4 c5 bd
       0.4126248 0.18277179 0.14980781 -0.09650531
000110 77 4a 15 bd 59 c0 db be 5a b3 b6 3c db ae e0 3c
       -0.03644797 -0.42920187 0.022302318 0.027427128
000120 28 fa c3 3d 24 0b e0 3e 96 c8 99 be 58 71 89 be
       0.09569198 0.437585 -0.30035847 -0.26844287
000130 05 75 84 3e dc 6b ab bc 13 cb 4e be 9b 31 a6 3c
       0.2587053 -0.020925455 -0.20194654 0.020287326
000140 58 58 c4 be 8d 0a d1 be c6 ea cc 3e f8 89 ef be
       -0.3834865 -0.40828362 0.40022868 -0.4678495
000150 15 5e 39 3e af 4b ae 3d 11 c4 c6 3e 76 1d b7 3e
       0.18102296 0.08510529 0.38821462 0.35764664
000160 67 b2 db be c8 bb a7 bc 1a 0d 8e be 1d 2e 41 3e
       -0.42909548 -0.020475283 -0.2774437 0.18865247
000170 c6 61 aa 3e 49 79 59 be 13 87 ac 3e 93 54 95 be
       0.3327772 -0.21237673 0.33696803 -0.29166088
000180 c3 63 b5 be fc 2c d2 3d 24 88 75 bc 99 bb b9 be
       -0.35427675 0.10262486 -0.014986072 -0.36275938
000190 d0 4b a6 3e ae 80 22 3e a1 db d4 be 7b 28 cc 3d
       0.32479715 0.158694 -0.41573814 0.099686585
0001a0 d7 57 6f 3e db 58 6d 3c 7e be 92 3d a8 f4 4c be
       0.23373352 0.014486517 0.0716524 -0.20015204
0001b0 9c 36 b7 3e aa c8 87 3d 69 dd ab be 7d 05 51 be
       0.3578385 0.066300705 -0.3356736 -0.2041225
0001c0 83 a3 3e 3d 88 27 b0 bd 8b ce c1 be 1d 40 b8 3d
       0.046542656 -0.0860129 -0.37852892 0.08996604
0001d0 01 8d 0c be ab d3 51 3d c8 02 e5 be 6c a3 c9 3e
       -0.13725664 0.051227253 -0.44728684 0.39382493
0001e0 db 7b 03 bd bb d3 80 be 1d ad 84 be cf 1d 98 3d
       -0.03210054 -0.25161538 -0.25913325 0.074275605
0001f0 d4 83 90 bc 0a 0c 04 be 7b 2d 0c be 49 05 1e be
       -0.017640986 -0.12895218 -0.13689224 -0.15431704
000200 69 63 e1 be 8e 28 13 be 2d 81 8b 3c d7 50 d8 be
       -0.44021156 -0.14370939 0.01702937 -0.42249176
000210 79 a6 86 be 7d d0 b5 be e3 33 eb 3e 52 6a 19 bd
       -0.26298884 -0.35510626 0.45938024 -0.03745491
000220 56 cf 4e 3e 8c de 1a 3d 1a 75 d0 be 08 f4 2c be
       0.2019628 0.037809893 -0.4071434 -0.16889966
000230 4a 0f a6 be 54 f0 44 3e c6 e0 9b be 79 2d 09 3e
       -0.3243354 0.19232303 -0.30444926 0.13396253
000240 14 7c 40 be 86 d9 b4 be 07 71 1c 3d 73 15 57 3e
       -0.18797332 -0.35322207 0.03819373 0.21004276
000250 03 46 e6 3e 4d 02 07 be b8 16 7c 3e 2b bc ba 3e
       0.4497529 -0.13184471 0.24618042 0.36471686
000260 df a7 89 be a8 6b 33 be cb 4c fe bd 51 a1 8f be
       -0.26885888 -0.17521536 -0.12416991 -0.28052762
000270 dd 96 f6 be 7a d2 e7 3c ec da 83 be ff 18 c0 be
       -0.48161975 0.028298605 -0.25752962 -0.3751907
000280 61 81 90 be ee 23 87 be 90 a5 92 3e 1b 7f 32 be
       -0.28223708 -0.263946 0.2864194 -0.174313
000290 48 ee 50 be 27 cb e2 be 25 fe d5 3e 36 88 ae 3e
       -0.20403397 -0.44295618 0.4179546 0.34088296
0002a0 38 77 2f be 5f f8 72 be 0d bd 2e 3e 41 95 91 3e
       -0.17135322 -0.23727559 0.17064305 0.28434184
0002b0 05 e9 58 3e 4a dd d7 be 83 10 90 3e f2 61 4f be
       0.2118264 -0.42161018 0.28137597 -0.20252207
0002c0 89 4b 87 be 3e 29 c2 bd fb ec c2 be 00 8f 3d 3e
       -0.26424816 -0.094805226 -0.38071427 0.18511581
0002d0 7a 13 cd ba 7c 9a 12 be a8 9e 9f be 4b be 26 3e
       -0.0015646063 -0.14316744 -0.31175733 0.16283529
0002e0 d8 0e d4 be 4e 1c ca bd 9c 34 ef bd 8b 9d b8 3e
       -0.41417575 -0.0986868 -0.11679956 0.36057696
0002f0 8d 54 59 3d 79 e1 c4 be c5 9e a6 3e 57 8e df 3d
       0.05305915 -0.38453272 0.32543007 0.10915821
000300 db d3 3b 3d 78 59 ce 3e 6a 85 df be 8e b1 89 3e
       0.045856338 0.40302634 -0.43656474 0.26893276
000310 75 63 2f 3e 56 5d a4 3e 36 38 17 3c 0d 33 80 be
       0.17127784 0.3210246 0.00922971 -0.2503895
000320 0e 17 d9 3d d1 81 01 3e 92 24 ef 3e 18 45 ca 3e
       0.106001005 0.12647177 0.46707588 0.3950584
000330 16 dd 97 3e 52 87 d8 3e b0 a0 7f be 84 ae ff 3d
       0.29660863 0.4229074 -0.24963641 0.12484458
000340 b8 71 4b 3e 91 75 45 be 32 e5 5b be 6a 54 ac be
       0.19867599 -0.1928313 -0.2147415 -0.33658153
000350 ba db ac 3e 41 d6 15 3e 70 30 bd 3e e0 e0 ef be
       0.33761388 0.14632513 0.36951017 -0.46851254
000360 fd 96 95 bd e6 47 92 3d 99 23 ab be 0e b7 e9 be
       -0.07304189 0.0714262 -0.33425596 -0.45647472
000370 b9 35 b1 3a 7a 5f 8d be 88 29 c3 3e 39 48 db bd
       0.0013520039 -0.27611905 0.38117623 -0.10707135
000380 3a 30 5f 3e 87 e0 08 be 49 97 69 be 82 dd e1 3e
       0.2179574 -0.133669 -0.22811617 0.4411431
000390 d8 d9 a5 bd bc ad da be 23 1c 41 bd ae f7 ab 3e
       -0.08098191 -0.42710674 -0.047145974 0.33587402
0003a0 a8 95 b0 3e 53 d6 3e 3e bf 9c 86 be 05 3e ce be
       0.3448918 0.18636446 -0.26291463 -0.40281692
0003b0 11 dc c9 be ca d4 3c 3d 74 3b 9b be d8 3a 69 3d
       -0.3942571 0.04610137 -0.30318797 0.056940883
0003c0 30 33 fe bd 92 3c 58 3e ac 15 89 3d a7 98 1e be
       -0.12412107 0.21116856 0.06693587 -0.1548792
0003d0 20 71 88 be aa 3e 47 be e6 6b d5 3d 9e 71 bf 3e
       -0.26648808 -0.19457498 0.104209706 0.3739137
0003e0 ff 22 52 3e 78 e3 1e bc
       0.20521162 -0.009697787

a f4 [10, 1]
000000 d3 03 91 be 58 26 64 bf b0 2c 24 3f 5a 45 90 bd
       -0.2832323 -0.8912101 0.6413069 -0.07044478
000010 dc 05 41 bf b7 91 4e bf 89 7e 7f 3f 6a 51 55 bf
       -0.75399566 -0.80691093 0.9980245 -0.83327353
000020 ec 60 ea be 3c 58 96 be
       -0.4577707 -0.29364192

W f4 [5, 10]
000000 5d a0 42 bc 89 f0 1c bf ed fb 03 bf d9 45 ef 3c
       -0.011879054 -0.6130453 -0.51556283 0.02920811
000010 05 e6 5c 3f ae d5 54 3f 89 8d 91 3d 69 77 60 be
       0.8628848 0.8313855 0.07107074 -0.21920551
000020 22 8d 25 be 22 f0 d8 3e e5 45 c4 3e f0 bf 7e bd
       -0.16167119 0.42370707 0.38334575 -0.062194765
000030 1d 9b b3 be e0 7d 24 3f 6a 1e 6b be 08 8b 55 bf
       -0.3507928 0.6425457 -0.22960821 -0.8341527
000040 06 bd 01 3f 2e 92 16 be e9 2d da 3a 53 bb 50 bf
       0.5067905 -0.147042 0.0016645762 -0.81535834
000050 d7 0f 2e be 7e a9 d9 be fd b5 62 3f 93 c6 0d 3f
       -0.1699823 -0.42512125 0.8855894 0.55381125
000060 26 c8 1c bd 28 2a f8 3e 15 e4 5a 3e 37 20 40 3f
       -0.038276814 0.48469663 0.21376069 0.75049156
000070 b3 2f 96 3e fd 07 d7 be 91 58 18 3f 98 ea 88 be
       0.29333267 -0.41998282 0.5951014 -0.2674148
000080 45 70 b4 3d df 2b c5 3e 1f 06 f7 3e 37 a1 35 bf
       0.08810476 0.38510033 0.48246858 -0.7094912
000090 8b b3 1d 3e 81 ea 00 3e a6 8d 4a 3f 7b 34 c9 3d
       0.15400521 0.12589456 0.7912239 0.09824463
0000a0 d8 68 2b bf 4e e2 b5 3e 06 b7 cf 3e e6 08 63 3f
       -0.66956854 0.3552422 0.40569323 0.8868545
0000b0 13 2e 50 be 4e 47 47 bf dd 95 13 bf 1b 3c 98 3e
       -0.20330076 -0.7784318 -0.5765055 0.29733357
0000c0 54 9a b8 be 2b 4f 22 3f
       -0.36055243 0.6340205

a f4 [20, 1]
000000 1b 2c 8c 3e 6e 90 cd be e6 38 41 bf 71 14 0b 3f
       0.273774 -0.40149254 -0.75477445 0.54328066
000010 49 a1 3e bf e8 af d8 bd 54 b4 0d 3f 57 b4 2f 3b
       -0.7446485 -0.105804265 0.55353284 0.0026810372
000020 56 3c e8 bd 07 37 41 bf 30 6f 20 bf 29 a9 c1 be
       -0.11339633 -0.7547459 -0.6266966 -0.3782437
000030 d0 1e 27 3f 21 60 62 3e 29 f9 59 3e ce 23 db 3d
       0.6528139 0.22106983 0.21286453 0.107001886
000040 16 0a 1d bd 53 ba af be 97 bd 51 3d 97 f0 bc be
       -0.038339697 -0.34321842 0.051206198 -0.36902305

W f4 [5, 10]
000000 d8 5a 3a bf 7d 16 00 be a1 80 c2 be c7 7d 29 bf
       -0.72794867 -0.12508579 -0.3798876 -0.66207546
000010 40 2a 8e be 53 cd 35 be 2e cf 19 3d 6b 86 13 3d
       -0.2776661 -0.17754106 0.037551098 0.036016863
000020 53 99 f4 be 4c 23 ca 3e 41 7d 6b be bb 4d 75 3e
       -0.47773227 0.39480054 -0.22997 0.23955433
000030 97 b5 90 3e 8e 4e e7 be 2c 84 a1 3e 99 f1 65 3e
       0.28263542 -0.4517712 0.31546152 0.22455443
000040 ac bc 22 3f e0 2a 53 bf 26 47 bc 3e 5a 30 4f be
       0.6356914 -0.824873 0.36773032 -0.20233288
000050 e7 d6 56 bf c9 05 03 3d d8 c2 c4 be 28 38 0a 3e
       -0.83921665 0.03198794 -0.38429904 0.13497984
000060 b3 84 5f bd e6 73 1d bf 42 21 56 bf dd 9e 86 be
       -0.05456991 -0.6150497 -0.836445 -0.26293078
000070 c8 9a 8a 3e e9 ac 45 3f 3f 08 41 bf 8a 1d cd be
       0.27071214 0.77216965 -0.7540321 -0.400616
000080 8b db be be 1f be 5c bf 7c 9b 23 bf 09 ad 97 be
       -0.37276873 -0.862276 -0.63909125 -0.29624203
000090 00 83 91 be 70 50 e5 be 0a d6 26 3f 1f 97 1f 3f
       -0.28420258 -0.4478793 0.6517035 0.6233997
0000a0 e0 5d 1f be 30 c6 55 bd 09 85 ff 3e bc c2 80 be
       -0.15563154 -0.05219096 0.49906185 -0.2514857
0000b0 25 e9 da bd 01 00 83 bd fd ab 22 bf 1f bf 60 3f
       -0.10689 -0.06396485 -0.63543683 0.8779163
0000c0 41 7c a6 3d 61 c0 fd 3e
       0.08129168 0.49560836

a f4 [20, 1]
000000 5d 79 db be a4 70 79 be 3a b6 d5 bc 5c c1 3c 3d
       -0.4286603 -0.24359375 -0.026087869 0.04608284
000010 c9 c2 29 bc eb 58 43 3e 3d e1 bb be 49 b3 1c bf
       -0.010361382 0.19076888 -0.3669528 -0.6121107
000020 9c dc 1e bf 4d 99 41 bf 19 ba 2a be 45 d8 c7 be
       -0.62055373 -0.75624543 -0.16672553 -0.39032188
000030 75 04 e0 3e c7 e7 19 bf 64 0f b6 be 05 0a b8 be
       0.437534 -0.6011929 -0.35558617 -0.35945144
000040 63 f7 83 be 2b 13 39 3f 46 db 3c 3e c0 2b 35 3f
       -0.2577468 0.72294873 0.18443021 0.7076988

W f4 [5, 10]
000000 54 8f ae be 01 76 31 3f 48 03 7f bd 9f 54 01 3e
       -0.34093726 0.69320685 -0.06225899 0.12629937
000010 0d 7a 01 3f 97 43 ff 3e 5d 39 1d bf f9 cb 33 3e
       0.5057686 0.49856254 -0.61415654 0.17558278
000020 fd 09 3b 3f 3c ca 34 bf 77 23 32 be 77 22 35 bf
       0.73062116 -0.70621085 -0.17396341 -0.70755714
000030 9c 6e b4 3e 7a 24 05 bf e5 ab 52 be 2e 9c 31 bf
       0.35240638 -0.52008784 -0.20573385 -0.69378936
000040 dd 5f 04 3e d3 3d ab be 87 8f ac be bf c6 c5 be
       0.12927194 -0.33445606 -0.33703253 -0.38628194
000050 6b 0d c8 bd 35 a1 19 bf bb dd 93 bd 4b 6a 7c be
       -0.09768184 -0.6001161 -0.07220026 -0.24649923
000060 65 70 58 3f 15 95 5d 3f 4c ab 59 bf 75 a5 3d 3f
       0.845465 0.86555606 -0.85027003 0.7408059
000070 b0 cd 8f 3e b4 35 bd bd e5 e8 da be 04 65 2e 3f
       0.28086615 -0.09238759 -0.4275581 0.6812289
000080 00 c7 c6 be 4d 10 b9 be 2f af 0a 3f d3 77 3a bf
       -0.388237 -0.3614525 0.5417356 -0.7283909
000090 c0 21 50 bf 64 48 ac 3e fd c7 02 bf 49 49 23 3f
       -0.813015 0.3364898 -0.5108641 0.637837
0000a0 76 d7 4c bf 02 dc 8f 3e 82 ef 3d bf 21 77 fb 3e
       -0.8001627 0.2809754 -0.74193585 0.49114326
0000b0 0f dc d8 3e 18 6d 00 be 8e 5c fa 3e ac cf 47 bf
       0.4235539 -0.12541616 0.4889874 -0.7805126
0000c0 c1 27 fc be 71 36 2a 3f
       -0.4924908 0.6648932

a f4 [20, 1]
000000 c2 e7 55 be ed e1 0c bf ee c4 5b 3e 3f fc 0f 3f
       -0.2088919 -0.55032235 0.21461841 0.5624427
000010 dc 54 b5 3e 1b f1 e2 3e 1b dd 9b 3e ea 6a 81 3e
       0.35416305 0.44324574 0.30442128 0.2527688
000020 bd 72 ec bd f2 23 2b 3f 85 ad 59 bd 62 e6 e7 be
       -0.11545322 0.66851723 -0.053143997 -0.45292956
000030 de d9 90 bd 5d 79 c6 3e c9 e4 b2 3e 2f 37 ca 3e
       -0.07072805 0.38764468 0.34940174 0.39495227
000040 ef 2c fd 3d 5b 4e f4 be 2f 5f 19 3f 21 7c 17 3e
       0.12362086 -0.4771603 0.59910864 0.14793445

W f4 [5, 10]
000000 55 d4 fa 3c 18 ee c5 be 64 3d 5d bf bd 4f 81 be
       0.030618826 -0.38658214 -0.864218 -0.25256148
000010 b4 2f fd 3c 99 1f 99 3e b2 a0 3d 3f 13 ee 26 3f
       0.030906536 0.2990692 0.74073327 0.6520702
000020 ce 1f 30 bf c0 27 f7 be bb 50 31 bf 86 c0 a7 3e
       -0.6879853 -0.48272514 -0.6926381 0.3276407
000030 af 73 88 bd 83 cb 1f bf 79 5c 36 bf 2d ef 55 bf
       -0.0666269 -0.6241991 -0.7123485 -0.8356808
000040 1a 09 7b 3e 2b 43 50 bf 20 12 1a be db 7a df 3d
       0.2451519 -0.8135249 -0.15045977 0.10912105
000050 ee 7d 73 be a8 f7 c5 3e a5 37 40 3f 3b bd 9c bd
       -0.23778507 0.3866551 0.75084907 -0.0765328
000060 fa 88 b3 be 41 87 2b bf a7 c7 50 3f 9b eb 67 3f
       -0.35065442 -0.67003256 0.81554645 0.9059388
000070 7f d9 40 3f 2a 2f bd bd fe c0 ba be 70 42 12 bf
       0.7533187 -0.092375115 -0.36475366 -0.57132626
000080 bb 37 e8 be 2e e9 ef be 75 81 e2 be 35 47 49 be
       -0.4535502 -0.4685759 -0.44239393 -0.1965607
000090 c7 f1 be 3e d2 01 25 bf 49 71 41 3f 84 09 1a bf
       0.37293836 -0.644559 0.75563484 -0.6017077
0000a0 1b 04 f9 be 98 20 ff 3e eb f1 03 bf d3 34 99 be
       -0.48635945 0.49829555 -0.5154101 -0.29923114
0000b0 de 33 e5 3d 4c 9c 57 3f bf d6 47 3f 8b 95 03 3f
       0.111915335 0.84222865 0.7806205 0.5140006
0000c0 3e 33 46 3f 53 75 5b bf
       0.7742194 -0.857259

a f4 [20, 1]
000000 13 32 16 be 02 ea 39 bf 9c c2 ea be 7b 73 45 bf
       -0.1466754 -0.7262269 -0.458516 -0.77129334
000010 0f c1 b0 3e 65 a9 17 3f e2 7b db 3e 46 f4 1c bf
       0.34522292 0.5924285 0.42867953 -0.6131023
000020 1a 0a b8 3e 79 76 dd 3e 96 73 d4 be 4e 45 f2 be
       0.35945207 0.4325445 -0.41494435 -0.473185
000030 77 51 bf 3d ca ca 27 3f bf 39 35 bf 2a 2e 96 be
       0.0934171 0.65543807 -0.7079124 -0.29332095
000040 2e dd 23 3e 8f 67 a3 be fa ec 1b bf 93 ea a6 bd
       0.16002342 -0.31914946 -0.6090847 -0.0815021

W f4 [5, 10]
000000 3e e0 04 3f d2 17 45 3f 39 2b 8e 3e f2 7a 08 3f
       0.51904666 0.7698947 0.2776735 0.533126
000010 6e cd 03 bf 3a e1 82 3e de b5 22 3f 13 d0 8d be
       -0.51485336 0.2556246 0.6355876 -0.2769781
000020 e2 1f 43 bf 1a 53 53 bf aa 79 92 be dc 7e 12 3f
       -0.76220524 -0.8254868 -0.28608447 0.5722482
000030 a2 47 32 bd 17 7c bf bc 4c 3e 7e be 00 33 1f be
       -0.043525346 -0.0233746 -0.24828452 -0.15546799
000040 5a 2f 43 3f 25 72 24 bf 70 99 cf 3e cf 1e 18 be
       0.7624413 -0.6423667 0.4054675 -0.14855503
000050 86 76 51 be 0a 59 2f be 5b 97 31 3f 94 fe 92 be
       -0.2045537 -0.1712381 0.69371575 -0.28709853
000060 39 0c 50 3f 00 38 f4 3e b7 62 42 bf 73 d0 4d 3e
       0.8126865 0.47698975 -0.75931877 0.20099048
000070 8b 59 0a 3d a9 85 05 3f 3c 46 0a bf 1f b1 5f bf
       0.0337768 0.52157074 -0.5401342 -0.8737964
000080 c7 9b 65 bf d1 2d c6 be 9b ee 40 bf e1 4a 27 bf
       -0.8969082 -0.3870683 -0.75364083 -0.6534863
000090 db 0a 5b be b9 5d 7c be 62 7c 12 bf 7e 5c 19 bf
       -0.2139086 -0.24645127 -0.57221043 -0.59906757
0000a0 49 ab 3e be 4e 49 f7 be 12 b8 26 3e cc 8f f6 be
       -0.18620028 -0.48298115 0.16281155 -0.48156583
0000b0 a1 ff 03 bf 02 9c 1f 3f 4e f1 f0 3e bd 24 b3 be
       -0.51561934 0.62347424 0.470591 -0.34988967
0000c0 e8 88 45 3f 30 fc 1d bf
       0.7716203 -0.6171293

a f4 [20, 1]
000000 a6 15 25 3f ca 9f 22 3e 9c 32 f1 be 61 ef 3a 3f
       0.6448616 0.15881267 -0.47108924 0.73021513
000010 78 f2 d8 bd 4a 39 9b be 2c 59 10 3d 98 36 86 bd
       -0.10593122 -0.30317146 0.03524129 -0.06553382
000020 b0 71 7f bd 06 28 8d 3d b8 2a 1a bf 36 e9 b1 3e
       -0.06236428 0.068923995 -0.60221434 0.34748238
000030 4a b7 ad 3d 06 e7 57 bd d0 3d 11 3f 5f 13 13 3f
       0.08482225 -0.052710555 0.56734943 0.5745143
000040 b7 a1 0e 3f 51 6c a7 3e 26 2c 05 bf d8 40 92 3d
       0.5571551 0.32699826 -0.5202049 0.07141274

W f4 [50, 5]
000000 c4 25 ca 3e 23 c3 b4 be 1c 94 90 3d 73 32 bc 3e
       0.39481938 -0.35305128 0.070594996 0.3675724
000010 f9 a1 8a 3e 64 f3 d0 3e da e9 63 3e b6 7d 85 be
       0.270767 0.40810692 0.22257176 -0.26072472
000020 23 d4 3d 3e e6 d8 cc bd 78 48 05 be 25 51 b5 3d
       0.18537955 -0.100023076 -0.13015926 0.08853368
000030 c1 65 93 be bb 9f 96 be ff 89 40 3d 68 70 ad 3e
       -0.2878857 -0.2941874 0.047006603 0.33874822
000040 de ad 27 3e df 54 15 be ff d0 c0 3e c2 52 b5 3e
       0.16374919 -0.14583157 0.3765945 0.35414702
000050 38 13 af be ae 2f 94 3c b6 01 09 3e 24 eb c2 3d
       -0.3419435 0.018089142 0.13379559 0.09517506
000060 92 2c 39 be 59 7e 9e bd 5d e9 57 be 13 44 a5 3d
       -0.18083408 -0.07738943 -0.21085115 0.08069625
000070 4a df bc be bb 82 c5 3d 32 df 5c be 2b f4 d3 3e
       -0.36889106 0.096440755 -0.21569517 0.41397223
000080 6d 6d f6 3d ce ae 30 be b9 1c dc be dc 6d 04 3d
       0.1203259 -0.17254183 -0.42990664 0.032331333
000090 18 8a a6 3e 7e d1 0d be 8d 47 4c 3e 29 ae 90 3b
       0.32527232 -0.13849446 0.1994917 0.0044152928
0000a0 2f 1a a2 be d4 f1 92 3d 0d 2e c0 3e 1e a0 15 be
       -0.31660601 0.07175031 0.37535134 -0.14611861
0000b0 0e 18 92 3e 29 f1 9b be 63 19 a3 be f2 25 ce be
       0.28533977 -0.30457428 -0.31855306 -0.40263325
0000c0 38 0c 80 be 28 fa 0f 3e b6 c0 72 bc 80 4d 14 be
       -0.25009322 0.14060271 -0.014816454 -0.14482689
0000d0 15 73 58 3e 2a 65 7e bd 5c 64 8e 3e c7 5c c7 3e
       0.2113765 -0.062108196 0.27810943 0.3893797
0000e0 f0 05 f6 3d 0f e4 b9 3e ef 67 1a 3e d1 0e c5 3e
       0.12012851 0.36306807 0.1507871 0.38487867
0000f0 ee 48 a7 ba aa a7 a0 be e6 35 5f 3e 61 21 8c 3e
       -0.0012762824 -0.31377918 0.21797904 0.27369216
000100 40 b1 87 3e 58 cd a7 be f4 7e 16 be 8a 2b f1 3e
       0.2650242 -0.32773852 -0.14696866 0.4710353
000110 12 58 d5 be 61 fc 40 be 4e 64 e0 be 53 00 78 be
       -0.41668755 -0.18846275 -0.43826526 -0.24218874
000120 c6 5a a8 3d d5 ee c1 3d 88 c0 1f 3e 8c f1 9e 3e
       0.08220439 0.09469382 0.15600789 0.3104366
000130 1f 03 d5 3e 1a 5d 90 3e 2d 86 ad be 59 29 89 3c
       0.41603944 0.2819603 -0.3389143 0.016743349
000140 2c 5f 42 3e a3 23 ca be d6 a5 ef be a6 a3 be 3d
       0.18981618 -0.39480314 -0.4680621 0.09308557
000150 6f 7c a1 3e 75 18 8a 3e c3 15 8c be 46 92 b5 3e
       0.31540248 0.26971784 -0.27360353 0.3546316
000160 bf 3c 89 3e 79 af 6b 3e 59 9d 72 3e a0 f5 16 3d
       0.26804158 0.23016156 0.23692836 0.03685534
000170 54 d4 e2 3d 54 11 e5 bd c4 d4 40 3e ab 8d ba bd
       0.110756546 -0.11184946 0.18831164 -0.09109052
000180 cc a8 5f bd 5b 3f 07 bc 11 42 9a 3e b1 89 d8 3c
       -0.054604337 -0.008254851 0.3012853 0.026432844
000190 30 37 f3 bd c6 39 d8 be 75 a7 03 be be cd 30 3e
       -0.118757606 -0.42231578 -0.12856849 0.17265984
0001a0 fd 3f 9b 3b 7a 46 5e be 2c 86 e0 3e 63 5e 67 3d
       0.0047378526 -0.21706572 0.43852365 0.0564865
0001b0 9b 03 c3 3e 30 ad 20 bd 3a da 87 3d 90 2c aa be
       0.38088688 -0.039227664 0.0663342 -0.33237123
0001c0 ed c7 5f be 3e 9b 89 be 18 d5 a9 be 44 e6 c4 be
       -0.2185361 -0.26876253 -0.3317039 -0.3845693
0001d0 01 77 85 be 86 90 b4 be c0 0c c5 3e 81 07 2f be
       -0.26067355 -0.35266513 0.3848629 -0.17092706
0001e0 f5 b8 e6 bb e5 97 b3 bb de 0d 3a bd 10 9f 60 3e
       -0.0070410916 -0.0054807537 -0.04542338 0.21935678
0001f0 80 d5 06 3e 02 04 c4 3e 15 a6 b5 3d ee b9 e5 be
       0.13167381 0.38284308 0.08869568 -0.44868416
000200 62 8f 1c 3e a4 83 54 bd 8c 19 f8 be 35 8a 8c 3e
       0.15289071 -0.051883355 -0.4845699 0.27449194
000210 07 69 50 3d 48 ee 2c 3e 2a 97 45 3c d4 27 12 3c
       0.050881412 0.16887772 0.012059966 0.008920629
000220 86 32 7b 3b 2c 36 ce be e0 bd a5 3e f3 26 5f bd
       0.0038329675 -0.40275705 0.32371426 -0.054480504
000230 cf 03 53 3e f4 14 d1 be 2b 4f 22 bd 56 17 78 3d
       0.20606922 -0.40836298 -0.03962628 0.06056913
000240 46 c6 30 be 71 8d b4 be 3c d7 d4 be 9f 8f 04 3e
       -0.17263135 -0.3526416 -0.4157046 0.12945412
000250 6e 19 9e 3e 80 a2 b5 3e b9 88 f6 3d 6b ab af be
       0.30878776 0.3547554 0.120377965 -0.3431047
000260 4f 57 1b 3d c1 82 d6 3e 53 c3 83 be 41 eb c7 be
       0.03792506 0.41896632 -0.25734958 -0.39046672
000270 99 9b db bd bd 05 72 3d 74 60 29 3e 0d d1 21 be
       -0.10723037 0.059087504 0.165407 -0.15802403
000280 41 6c f4 3d 64 08 07 3d c2 5e e1 3d 61 11 77 3e
       0.1193471 0.032966986 0.11004402 0.24127723
000290 dc 27 93 3e 00 05 66 3e c6 5d 39 be e0 71 a6 3e
       0.28741348 0.22462845 -0.18102178 0.32508755
0002a0 5b c8 87 3d a7 33 a2 3d b6 c2 e0 3e 73 d7 89 3c
       0.06630012 0.07920008 0.43898553 0.016826367
0002b0 15 f9 25 bd 18 ff d0 3d 9e dc bf 3d 9c 6f b9 3e
       -0.040520746 0.10204905 0.09368251 0.36217964
0002c0 2c 41 9d be 4b cb 90 be 40 85 af be 40 10 c5 3e
       -0.30713785 -0.282801 -0.3428135 0.3848896
0002d0 5f 76 c5 be d9 25 0c 3c 5a cc 03 3e d2 30 22 3d
       -0.38566872 0.008553945 0.12870923 0.03959734
0002e0 03 12 90 3e f0 f2 c4 bd c4 cd 54 3d 40 14 8f 3d
       0.28138742 -0.09616649 0.051954046 0.06986284
0002f0 c8 6d b4 be 42 39 15 be 03 b4 f2 3e 22 b3 12 be
       -0.35240006 -0.14572623 0.47402963 -0.14326146
000300 a2 9b c5 3e a6 fd 80 3d 3a 72 23 be b9 12 f3 be
       0.385953 0.062983796 -0.15961543 -0.47475222
000310 65 3b 00 3e a3 4b 9f be 27 bc b4 bb aa 70 e1 be
       0.12522657 -0.31112394 -0.0055155936 -0.44031268
000320 3a 69 54 3e 30 9f c7 3e 55 23 28 bd 88 35 23 3e
       0.20743266 0.38988638 -0.04104932 0.1593839
000330 25 22 92 3e b1 9b 8a bd f5 c3 99 3d cc 22 bf bd
       0.28541675 -0.06767977 0.07508079 -0.09332809
000340 6b d1 34 3e d7 fe d1 be 02 68 cf bd 5c b3 45 3e
       0.17658012 -0.4101474 -0.1012726 0.19306701
000350 78 a4 77 3e 4f 82 d3 3e 03 71 8b bd 73 07 e1 be
       0.24183834 0.41310355 -0.06808665 -0.43950996
000360 e3 55 04 be 94 54 87 be 6b 50 4d be 19 90 6b be
       -0.12923388 -0.26431715 -0.20050208 -0.23004188
000370 71 3c 54 3e 3c f4 7b bd 6e 28 ad 3e c4 6c 2a 3e
       0.20726182 -0.061512217 0.33819908 0.16643053
000380 8c 19 71 3e cc 9b e7 3d 82 c6 a6 be 23 66 86 be
       0.23544902 0.11309013 -0.32573324 -0.262498
000390 e5 17 d4 3c 1e bb c5 3d 12 70 cc 3e 3f ce 5b 3e
       0.0258903 0.096548304 0.39929253 0.21465395
0003a0 33 95 1e be e7 77 a2 be 9f 16 ea 3e 17 a0 49 3e
       -0.15486602 -0.31732103 0.45720384 0.19689976
0003b0 5b ec 24 be 84 55 98 3e e1 26 dc 3d 8a 4e a8 3e
       -0.16105787 0.29752743 0.10749603 0.3287242
0003c0 d5 89 8c 3d 93 3a c7 3e a0 07 b0 be 81 4d 9a be
       0.06862227 0.38911876 -0.34380817 -0.30137256
0003d0 8f 86 c9 bd f1 3b 93 be e1 47 a6 3e d1 15 fa bd
       -0.09840118 -0.2875667 0.32476714 -0.122111924
0003e0 33 2a ae 3e 66 00 06 be
       0.3401657 -0.1308609

a f4 [10, 1]
000000 20 e0 6c be ef e9 84 3e 70 df e7 bd 64 a4 23 bf
       -0.23132372 0.25959727 -0.11321914 -0.63922715
000010 36 07 52 3f 58 3d c3 be 93 73 a8 3e d2 32 6c 3f
       0.82042253 -0.3813274 0.32900676 0.92265046
000020 9a b2 f3 3e c5 58 51 bf
       0.475972 -0.81776077

W f4 [5, 10]
000000 1d 4b ac be e4 88 09 3f b6 32 02 3e 0a 5d 55 3f
       -0.33651057 0.53724504 0.12714657 0.8334509
000010 06 49 5a 3f 5d b2 5f bf cc 9e 3e be 0f da ca be
       0.85267675 -0.87381536 -0.18615264 -0.3961949
000020 eb 98 58 be 98 ce c1 be d1 c9 62 bf f4 ed ed 3e
       -0.21152084 -0.3785293 -0.885892 0.46470606
000030 c8 f6 4e 3f 0e f8 ff bd 98 26 e8 be ac ff 54 bf
       0.8084531 -0.124984846 -0.45341945 -0.83202624
000040 27 99 01 3f d1 16 66 be 9d 2c ef 3d 19 2d f3 be
       0.50624317 -0.22469641 0.11678431 -0.47495344
000050 a2 ca 4f 3f 7d 75 3f 3d 99 e2 b1 be 4e 39 14 bf
       0.8116857 0.046742905 -0.34743193 -0.5789994
000060 a7 bd f7 be 15 a6 0b be 9e 25 b4 3c 3d 0e ff 3e
       -0.4838688 -0.13637574 0.021990594 0.4981555
000070 34 b4 a6 3e e1 e2 8d be 3e bd d2 be 4a a2 27 3f
       0.3255936 -0.27712157 -0.41160005 0.6548201
000080 04 dc a5 3e 6b 63 9d 3c b5 90 4c 3f 88 22 2c 3e
       0.3239442 0.019212445 0.79908305 0.16810048
000090 7c e7 07 bf 1f c6 44 be 44 86 c2 be 11 30 da 3e
       -0.5308759 -0.19216202 -0.37993062 0.42614797
0000a0 ee 82 e0 be 6b 6d fd bd 31 e1 14 bf 4c 62 9a 3d
       -0.4384989 -0.123743854 -0.58156115 0.0753828
0000b0 c0 43 2c 3e 3a 07 cf be 66 b8 ea 3e 5d 88 4f 3f
       0.1682272 -0.404352 0.4584381 0.8106745
0000c0 56 3a e0 be 1b 7e ad 3e
       -0.43794507 0.33885273

a f4 [20, 1]
000000 b0 a3 e3 3e 18 0a 8e be b3 3c 83 3e f6 94 d2 3e
       0.4446082 -0.27742076 0.25632247 0.41129273
000010 8c 1f 02 3f 3c eb bf 3e 6d 18 2e be 98 4e 8e 3e
       0.50829387 0.37484157 -0.17001505 0.27794337
000020 5a 23 89 3e 2d 70 30 3f 55 75 b4 3d 87 81 14 3f
       0.26784784 0.68921167 0.08811442 0.58010143
000030 19 6a 06 bf f2 e8 d2 be fd ac 0e 3e fa ae 2b bf
       -0.5250564 -0.41193348 0.13933177 -0.6706387
000040 35 93 39 be 82 27 fb 3b 5e b7 2c 3f 40 6f 21 bf
       -0.18122561 0.007664622 0.67467296 -0.6306038

W f4 [5, 10]
000000 e3 7e 4d 3d c1 b7 fb be cb 16 d0 3e 79 fb 00 bf
       0.050169837 -0.4916363 0.4064239 -0.50383717
000010 c2 13 f9 3c 28 e3 05 3e 43 aa 13 3f de 74 f0 be
       0.03040493 0.13074934 0.57681674 -0.46964163
000020 56 80 d3 be 1b b8 0d 3e d7 c5 19 be 17 6a c9 be
       -0.4130885 0.13839762 -0.15016876 -0.39338753
000030 66 51 38 be 44 75 02 bf 82 77 0d bf 5a 1e ad bd
       -0.17999801 -0.50960183 -0.5526048 -0.08453055
000040 17 24 9f be 5e 82 6a be 6a ce 0f 3e b1 fc f7 3e
       -0.31082222 -0.22901294 0.14043584 0.48434976
000050 c2 80 22 3f 46 b1 d4 3e c0 e8 65 bf f3 d7 a3 3e
       0.6347772 0.415415 -0.89808273 0.32000694
000060 80 f2 7c 3e 3f b0 a9 be 5f bb 56 3f e6 bd 45 3f
       0.24701881 -0.33142278 0.83879656 0.7724289
000070 6a cf 43 bf 82 29 eb be a6 c6 e7 3e 77 44 a2 3e
       -0.76488364 -0.45930105 0.45268744 0.3169286
000080 67 16 15 bf 20 8c b5 be fb 6f bc 3e c0 6c de 3d
       -0.5823731 -0.3545847 0.36804184 0.10860586
000090 79 a8 27 3f d9 44 65 bf 36 4a 41 3f 1b 79 91 3e
       0.65491444 -0.8955818 0.7550386 0.2841271
0000a0 69 4f 05 bf 01 b8 bf 3e c1 a6 fa be 4e a7 83 be
       -0.52074295 0.3744507 -0.48955348 -0.2571358
0000b0 17 b2 3c 3f 5b 21 7f be 5e 51 e6 3d 5d 73 14 3f
       0.73709244 -0.24915068 0.11245988 0.5798853
0000c0 b2 fc 5c 3f 5d f9 d9 be
       0.8632308 -0.42573062

a f4 [20, 1]
000000 e7 cc 06 3f 5e 71 27 bf 10 88 34 3f 18 0e da 3e
       0.52656406 -0.6540736 0.70520115 0.42588878
000010 91 ee 14 3f 1e fa 8e bc e8 3b 2d 3f 3e 2b 84 bc
       0.58176523 -0.01745325 0.67669535 -0.0161339
000020 85 a5 03 bf 72 98 df 3c ed 30 c8 be 94 25 44 3e
       -0.5142444 0.027294371 -0.39099827 0.1915496
000030 d8 3c c5 3e 73 af dc 3e 84 70 52 3e cb 7b 27 bf
       0.38522983 0.43102607 0.20550734 -0.6542327
000040 12 b7 12 3f 50 6c 4a bd ec ff 1e 3e 1b 69 42 be
       0.57310593 -0.0494197 0.15527314 -0.18985407

W f4 [5, 10]
000000 d3 39 1d bf e4 c9 21 3f 03 86 b1 3e 41 36 20 3f
       -0.6141636 0.63198686 0.34672555 0.62582785
000010 c9 aa 39 3f 50 ad d0 3d ef 4b 02 3f 30 79 00 3f
       0.7252622 0.10189307 0.50897115 0.5018492
000020 10 4d 2f bf 8d a6 57 bf d2 0c 41 bf 37 a5 8b 3e
       -0.68476963 -0.8423851 -0.7541019 0.27274486
000030 5a e2 5d 3b aa 51 d5 3e 43 13 31 bf 99 24 1d 3f
       0.003385684 0.41663867 -0.69170016 0.6138397
000040 d5 b8 22 bf 64 74 fb 3d ee 80 97 3e 1c 29 57 bf
       -0.6356328 0.12278059 0.29590553 -0.840471
000050 b1 34 14 3f 94 29 18 bf 51 e2 bc 3e e1 e7 ab bc
       0.578929 -0.59438443 0.36891416 -0.020984592
000060 8d cd 11 be 59 83 2b be 84 ec bd be f2 0e 49 bf
       -0.14238568 -0.16749324 -0.3709451 -0.7853843
000070 6a ad 5a 3f c3 57 71 3e 1a e7 da 3e 0f 22 1a bf
       0.8542086 0.23568635 0.42754441 -0.6020822
000080 20 4a a6 3e 38 f7 07 3f fc 8e 26 3e 9b 2f 38 3f
       0.32478428 0.531116 0.16265482 0.7194764
000090 7a 8b 4b 3e c9 56 26 be be 98 56 bf ed a6 6c 3e
       0.19877425 -0.16244043 -0.83826816 0.23110552
0000a0 67 0f 02 3f 21 30 3b 3f c0 3c 48 bf 0b 71 06 bf
       0.5080475 0.73120314 -0.782177 -0.5251624
0000b0 32 e2 04 3f ee c8 96 3e ec 21 5f 3f cb 81 4a be
       0.51907647 0.29450172 0.87161136 -0.19776075
0000c0 e4 3d c0 3e 7e f5 5a bc
       0.3754722 -0.013364194

a f4 [20, 1]
000000 fd be 4d be d8 ba 11 bf 43 bf 14 bf b2 e9 a7 3e
       -0.20092387 -0.56925726 -0.5810434 0.32795483
000010 b7 7c ec be 05 b9 e3 bd ea 92 b2 3e 0d b7 c4 bd
       -0.461889 -0.11119274 0.34877712 -0.09605227
000020 b9 53 3c 3f 38 8b d3 3c e9 5e 08 3f 02 17 c1 bd
       0.7356525 0.02582322 0.5326982 -0.094282165
000030 0c 56 b0 3d 25 0b f6 3e 49 52 29 bf c7 65 1b 3f
       0.08610162 0.48055378 -0.6614118 0.60702175
000040 38 ba 07 bf fa 6b ea 3e c2 4c 20 bf 07 de 15 be
       -0.5301852 0.45785505 -0.62617123 -0.14635478

W f4 [5, 10]
000000 6c 04 54 3f 19 1d 37 3f 12 90 b7 3e 77 e3 ff be
       0.8281925 0.71528774 0.35852104 -0.4997823
000010 6b da 15 bf e0 cb 92 be ef f9 45 bf 9e d8 0e 3f
       -0.58536404 -0.2867117 -0.77334493 0.5579928
000020 41 f7 8e 3e 2b e9 e9 3e 8e 35 cc 3a 79 15 bd be
       0.27923015 0.45685706 0.0015579925 -0.36930445
000030 bb c7 9f be cc 62 55 3f de b8 cf bd 5b 79 16 3f
       -0.3120707 0.8335388 -0.101426825 0.58778924
000040 62 40 28 3e 58 7b 1b bf 71 12 bf be c1 64 c3 3e
       0.1643081 -0.6073508 -0.37318757 0.38162807
000050 48 bc 67 3d c6 be 51 bf b2 56 b5 be d4 ce bc 3e
       0.056576043 -0.8193172 -0.35417706 0.36876547
000060 94 02 fc 3e 93 4e a9 be d9 ce 62 bf ba a2 44 be
       0.49220717 -0.3306776 -0.88596874 -0.192027
000070 48 fb 2b 3f 51 db a1 3e 25 ea 5b bf d2 da f7 3e
       0.671803 0.31612638 -0.8590415 0.48409134
000080 ed 31 5b 3f 29 30 1a bf 20 3d 46 3f d1 9e 07 bf
       0.85623056 -0.60229737 0.7743702 -0.5297671
000090 5f c2 0b 3f 2d ed 50 bf fc 6c 24 3f 80 b1 4c 3e
       0.5459346 -0.816119 0.64228797 0.19989586
0000a0 df 64 07 3d 4a 05 33 bf cf 80 b5 3d cc 76 d3 3e
       0.033055183 -0.69929945 0.08862459 0.41301572
0000b0 df 67 0f bf 97 5a 3c 3f d6 45 6e be ea 9f 43 bf
       -0.5601787 0.7357573 -0.23268828 -0.76415884
0000c0 8e 48 13 3f c7 b1 5c bf
       0.57532585 -0.86208767

a f4 [20, 1]
000000 e3 b6 3d 3e 90 4b f0 bc b5 18 36 bf 7b 88 1c bf
       0.18526797 -0.029332906 -0.7113145 -0.6114575
000010 1b c5 8a bd cb a2 3b 3e 53 1e 03 3f 62 03 c3 3e
       -0.06775876 0.1832382 0.51218146 0.38088518
000020 b6 cb dd be a8 db 44 3e 96 02 1b bf 4a 50 21 bf
       -0.43319482 0.19224417 -0.6055082 -0.63013136
000030 c8 22 b1 bd cd e3 06 3f 8c 8e 19 3f 44 d3 3d bf
       -0.08649212 0.52691346 0.59983134 -0.7415049
000040 1b 22 2e bf 8a b8 3a bf dc 73 28 be 51 8c 39 bf
       -0.6802079 -0.72937834 -0.16450447 -0.7247973

W f4 [5, 10]
000000 6f 95 46 3f c6 7d 2d 3f d3 bb 19 3f dd 13 d3 be
       0.7757177 0.6777004 0.6005222 -0.41226092
000010 02 b2 05 3e 1b 6e f5 be 87 0e 97 3e 93 61 79 3e
       0.13056186 -0.47935566 0.2950327 0.24353628
000020 21 98 52 3f cc 2f 46 bf 17 60 41 3e 27 ab 87 be
       0.8226338 -0.7741668 0.18884312 -0.26497766
000030 ae b5 0c bf 31 7a 4c be 80 51 81 bb c5 3c d7 3e
       -0.5496472 -0.19968487 -0.003946483 0.4203855
000040 2f 2f 2a bf 21 a6 5b 3e 34 45 0f 3f 5d 4f 30 3f
       -0.66478246 0.21450092 0.5596497 0.688711
000050 dd f3 37 3f b0 95 4f bf ea ce dc 3e 94 d1 3c bf
       0.7185648 -0.8108778 0.43126613 -0.7375729
000060 ff 3c a9 be a5 70 10 3f 2a 58 3a bf f2 98 2e 3d
       -0.3305435 0.5642188 -0.7279078 0.04262633
000070 59 29 f0 bd 9d b3 75 3e fd 22 1d 3f 6a 2a 4f bf
       -0.117266364 0.23994298 0.6138151 -0.80924094
000080 5c c4 a0 bb 70 42 ab 3e 27 ff 4d 3f cb 91 5b 3f
       -0.0049062204 0.33449125 0.80467457 0.8576934
000090 5f ba 1a bd 71 91 99 3e 0c ea b7 be da c0 59 3e
       -0.037775394 0.29993775 -0.3592075 0.21264973
0000a0 2a 7f ed 3e f9 d4 ca 3e 5e 85 94 3e fa 6d a4 be
       0.4638608 0.3961561 0.29008 -0.32115155
0000b0 48 ed 4b bf 4b 1f c8 3e e3 96 4c 3c c5 fb 76 be
       -0.7965894 0.39086375 0.012487146 -0.2411948
0000c0 c2 97 96 bd 94 08 3d 3f
       -0.07353164 0.73841214

a f4 [20, 1]
000000 76 88 c0 3e 19 36 c5 be 33 46 02 3f 92 d6 1a be
       0.3760411 -0.38517836 0.50888366 -0.15120915
000010 d7 05 00 bf 38 f0 25 bf 4b 5a 46 3f 0e 30 c7 3d
       -0.5000891 -0.6481967 0.77481526 0.097259626
000020 4d a5 38 3f 04 f2 50 bf 37 4d ad be 6f dc c3 3e
       0.7212723 -0.81619287 -0.33847973 0.38254115
000030 92 0e a4 3e e5 11 58 3e 1f e2 c4 be fd a0 f4 3d
       0.32042366 0.21100576 -0.38453767 0.119447686
000040 ea 5f 55 bd a9 d5 57 be 6f d8 a4 be bf aa ef 3d
       -0.052093424 -0.21077599 -0.32196376 0.11702489

W f4 [50, 6]
000000 3d 6c 20 bd 2c 5f d1 3c ed c4 d4 3e 56 8d d8 3e
       -0.039165724 0.025558077 0.41556492 0.4229533
000010 b6 f3 b4 bc 78 a0 52 be 69 ff a0 be 40 46 5a 3e
       -0.022088867 -0.20569026 -0.31444862 0.21315861
000020 a5 e2 f1 bc 74 fa af 3e e4 0b 28 3e c9 3b b8 3e
       -0.029527018 0.34370768 0.16410786 0.35983112
000030 ab 87 76 3e 14 1f 98 3e a8 32 11 be 84 87 f3 bc
       0.2407519 0.2971121 -0.1417948 -0.029727705
000040 ef 69 c0 3e 9e 4c 02 be 48 d3 88 3e 36 62 5b 3e
       0.3758082 -0.1272454 0.26723695 0.21424183
000050 a9 65 fb ba 3c 9c ba 3e f2 7b d5 3d ce af c9 be
       -0.0019180077 0.36447322 0.10424031 -0.3939194
000060 f7 1e 82 be 4e 97 b7 3e 49 36 c1 be 48 a0 c7 be
       -0.2541425 0.35857624 -0.3773673 -0.38989472
000070 9c 19 7d be 20 50 30 be ae 6a 04 3e 39 90 6b be
       -0.247168 -0.17218065 0.1293132 -0.23004235
000080 37 2d cc be fd c1 cf 3e a1 7c 36 be 46 0a 66 3d
       -0.39878246 0.4057769 -0.1782098 0.05616214
000090 29 40 89 bd 14 1c 4b be e4 0e 11 3e 80 aa bd 3c
       -0.06701691 -0.1983493 0.14165837 0.02315259
0000a0 20 22 6c bd 4e 5d ad 3e 27 bf 9f 3e 65 fb 09 bd
       -0.05764973 0.33860248 0.31200525 -0.033687014
0000b0 64 4b ba be c6 e4 6b be 98 3d bf 3d eb 2c 14 bd
       -0.36385643 -0.23036489 0.0933792 -0.03617565
0000c0 6f 44 d1 3d 32 6d 85 3e 15 f0 27 bb 76 f0 fc bd
       0.10218131 0.26059872 -0.0025625278 -0.12350552
0000d0 53 94 c0 bd 28 0f 85 3d 9a 07 80 3e 29 7e 04 be
       -0.094032906 0.064970315 0.250058 -0.12938751
0000e0 4f 62 1a be b0 28 80 3e cd 26 c0 3e f2 84 3f 3e
       -0.15076564 0.25031042 0.37529603 0.18703058
0000f0 81 8f 82 3e af ad 25 be bc 26 cc bd 73 95 27 be
       0.2550011 -0.16179536 -0.099683255 -0.16365604
000100 84 4d 1a 3e 24 9a f0 3b af 3d 81 be 77 2d b6 be
       0.15068632 0.0073425937 -0.25242373 -0.35581562
000110 01 5a 6c 3d f2 38 c4 bc 6f 92 63 3e 18 28 83 bd
       0.057703022 -0.023952935 0.22223829 -0.06404132
000120 f6 b7 af 3e 07 f4 ba be 3e 04 af be e9 c2 27 be
       0.3432004 -0.36514303 -0.34182924 -0.16382946
000130 60 b8 c9 be 2f a4 16 3e 8e 00 25 3e b7 b3 c9 3d
       -0.3939848 0.14711069 0.16113493 0.09848731
000140 30 e1 9d be 87 b2 34 3e 84 25 eb 3c fb 6b 64 be
       -0.30835867 0.17646228 0.028704412 -0.22306816
000150 82 68 eb 3d 26 8e b4 3e a0 86 b5 bc 4b aa 40 bd
       0.11494543 0.352647 -0.02215892 -0.047037404
000160 47 50 6a 3e 91 f7 9d bc 90 5c b0 3e 31 a0 8e 3e
       0.22882186 -0.019283088 0.3444562 0.2785659
000170 81 04 9e 3e e9 a6 5b 3c 01 c6 76 be da 6b d4 be
       0.3086281 0.013406494 -0.2409897 -0.41488534
000180 da 2f ac 3e d2 35 eb 3d df e6 ee 3c e3 24 9b be
       0.33630258 0.11484875 0.029162822 -0.3030158
000190 44 38 65 3c c7 1e 7b 3e fe 2f ec 3d 92 a3 bc be
       0.013990466 0.2452346 0.11532591 -0.36843544
0001a0 bf 43 87 be 35 65 a8 bd 25 f7 73 3e eb f3 67 be
       -0.26418874 -0.08222429 0.23824747 -0.22651641
0001b0 a9 f9 6f be 88 50 d1 3d 64 09 e3 be 4e f0 e1 be
       -0.23435082 0.10220438 -0.44343102 -0.4412865
0001c0 e3 d9 68 3d a1 5a 97 bc c0 9c ca 3e 54 5a f3 bd
       0.056848418 -0.018475832 0.39572716 -0.11882463
0001d0 46 56 f5 3e 04 38 d1 3e 72 4d b9 bd ba 1f 82 be
       0.47917384 0.4086305 -0.09047975 -0.2541483
0001e0 00 29 5d be 29 f7 a5 be 59 26 c0 3e 15 41 9e be
       -0.21597672 -0.3241513 0.37529257 -0.3090903
0001f0 b3 13 62 bd 52 5c 9f 3d 27 5f 6a 3e 8d b4 ea be
       -0.055194568 0.077812806 0.2288786 -0.45840874
000200 0d c0 9f be b1 43 97 3e 50 43 90 3e 26 c1 5d be
       -0.3120121 0.29543832 0.28176355 -0.21655712
000210 b0 fb 89 3e cf af b3 be b3 26 84 bd 51 be f1 3e
       0.26949835 -0.3509507 -0.06452694 0.47215512
000220 71 5f 66 be 06 14 e4 be 73 1a bb be ef 94 de bd
       -0.22497346 -0.44546527 -0.36543617 -0.108682506
000230 99 25 cb be 0d d8 94 bd 9d 9a 9d be d4 fa a4 be
       -0.39677122 -0.07267771 -0.30782023 -0.32222617
000240 ad 1b 3d 3e d9 3b c5 3e 13 ec a3 3e 3e 61 d8 be
       0.18467589 0.38522223 0.32016048 -0.4226169
000250 7f 86 8d bd e1 b5 93 bc d7 a5 e8 be f2 ee 27 be
       -0.06910419 -0.018031063 -0.45439026 -0.16399744
000260 a0 20 f4 bd de 59 21 3e 74 9e a5 be ff 4a 00 be
       -0.11920285 0.15756938 -0.32347453 -0.12528609
000270 e6 f0 a1 3e 7c cf c7 3d 21 74 a7 be c0 4b 51 be
       0.31629103 0.097563714 -0.32705787 -0.20439053
000280 54 ac 9c 3d 6c b0 9d be 16 da 56 3e 0d 9c e2 be
       0.076500565 -0.30798662 0.2098163 -0.44259682
000290 87 97 e4 3e 64 21 7c be 4f 72 a5 bc 05 38 b7 be
       0.44646856 -0.24622113 -0.020196108 -0.35784927
0002a0 ab 32 57 be 97 ed 3a be 80 60 ae 3e 12 35 96 be
       -0.21015422 -0.18254696 0.34058 -0.29337364
0002b0 76 e6 7e 3e 1b 8a de 3e ff 3d 77 bb e9 d2 e4 3a
       0.24892601 0.4346474 -0.0037726162 0.0017457876
0002c0 b5 58 70 3e 5a 61 a0 3e a5 ed f9 3e a5 7d 80 3e
       0.23471339 0.31324273 0.4881412 0.2509586
0002d0 ce 57 a8 be 7e ea fb bc 68 c1 d4 be a1 50 92 be
       -0.3287949 -0.030751463 -0.41553807 -0.2857714
0002e0 1a 7a 9b be 60 9a be 3e b1 c3 55 3d b5 11 88 bd
       -0.30366594 0.37227154 0.05218858 -0.06644002
0002f0 c1 3b cc 3e 1e f8 a3 bd 07 c9 d3 be 08 da b7 bd
       0.3988934 -0.08006309 -0.4136431 -0.08977133
000300 23 07 c9 3e 34 79 bd be 87 94 d0 3d 04 72 53 3e
       0.39263257 -0.37006533 0.10184579 0.20648962
000310 94 3d e2 be 4c 62 e0 3e b1 7e 38 be 59 91 4d be
       -0.44187605 0.43824995 -0.18017079 -0.20074977
000320 ab 15 d7 3e a8 e5 84 3e f8 1b aa 3e 94 3b 13 3e
       0.4200872 0.25956464 0.33224463 0.14378196
000330 e9 31 c2 be bf f5 d4 be 32 04 ea bc 9d 0b d7 bd
       -0.37928703 -0.4159374 -0.028566454 -0.10500262
000340 63 22 8e bc 39 f3 26 3e 7e 92 9b 3e cf 05 a4 be
       -0.017350381 0.1630372 0.30385202 -0.32035682
000350 62 ac e0 3d 32 f9 a2 3e cc 2a af be 3e 5a e7 3d
       0.109703794 0.31830746 -0.3421234 0.11296509
000360 f3 41 ca 3e db 03 cb 3e e5 3d 6c bd 8c 82 04 bd
       0.3950344 0.3965138 -0.057676215 -0.03235106
000370 59 75 30 be 82 6b 1f 3d 75 61 bf bd bd 69 92 be
       -0.17232265 0.038920887 -0.0934476 -0.28596297
000380 dd c3 d4 3e b8 d4 cd be f9 12 0b be cd c3 b5 bd
       0.41555682 -0.40201354 -0.13581456 -0.08875237
000390 ed 8c bf 3e 8d 30 91 be c2 0d df be 41 58 d6 be
       0.37412205 -0.28357354 -0.43565184 -0.41864207
0003a0 3e 6d 46 be 24 81 1a bd ad 07 d3 be 6e c0 d0 3d
       -0.1937761 -0.037720814 -0.41216794 0.10192953
0003b0 2f aa ca be 18 65 b4 be ac 4d 8c 3e 35 60 40 be
       -0.39582965 -0.35233378 0.2740301 -0.187867
0003c0 ce fe c7 be 48 a9 95 be 1c a5 68 3e c5 91 1c be
       -0.39061588 -0.29230714 0.22719234 -0.15289982
0003d0 8b bc 95 3e cf 7c 5f 3e 0b 11 c9 be 3d c7 72 be
       0.2924541 0.21824954 -0.39270815 -0.23708816
0003e0 cb 7c 01 3e 9d d2 a4 be 3e 1d c7 bb cc a7 cd 3e
       0.12645261 -0.32191935 -0.006076484 0.4016708
0003f0 6f c9 92 3d 38 5c 73 be ef e0 63 bd e7 60 5e be
       0.07167327 -0.23765647 -0.055634435 -0.21716653

a f4 [12, 1]
000000 a4 bc 6c 3e f1 fb 31 bf 46 1b ad be ab 2f 63 be
       0.23118836 -0.6952506 -0.3380987 -0.22186153
000010 95 50 95 be e3 b6 de be b9 7c 37 3f f8 84 59 3f
       -0.29163042 -0.43498906 0.71674687 0.8496852
000020 2d dd 3b be 60 13 24 3f 89 56 2d bf 27 eb eb be
       -0.1834609 0.64092064 -0.6771017 -0.46077845
