graph_model/encoder-checkpoint-6-5.pt (torch, 27882 bytes, 36 tensors)

W f4 [5, 10]
00000000: 3ef5 9c3e 0c11 9b3e dc14 16be b0e4 8f3e
00000010: 724d b7be 936a 18bf 06d2 d7be c5db 4dbf
00000020: 8505 193f 90a1 143f 9b98 c13e d0b8 b33e
00000030: 4bb0 0c3e 0388 fb3e 880f 61bf 8193 3fbf
00000040: 9a9e a23e 99e6 1d3f 91fc 413e 1357 adbe
00000050: 7867 443c 52d2 4b3f a5b3 d53e 9440 ba3d
00000060: 0747 003f 7bea 353e 0c80 2e3e 0193 22be
00000070: 600a 04bf ef0a 0cbf 9603 b2bd b9c8 b33e
00000080: 4380 f6be 7aba 41bf 066d 133e 5919 f1be
00000090: 6d06 19bf 9eb9 28bf f467 d33d c670 62bd
000000a0: f032 4ebe 8fe0 90be e713 ccbe c41f a9be
000000b0: 643a 2c3f 19cd 9abe 5c40 043d 5958 03bf
000000c0: aec1 d53e 45f0 093e
0.30655855 0.30286443 -0.14656395 0.28104162 -0.35801274 -0.5953762 -0.42152423 -0.80413467
0.5977405 0.58059025 0.3781174 0.35101938 0.13739125 0.49127206 -0.87914324 -0.7483445
0.31761628 0.6167999 0.18944003 -0.33855495 0.0119875595 0.796178 0.4173862 0.090943485
0.5010838 0.17765228 0.17041034 -0.1587639 -0.5157833 -0.54704183 -0.0869209 0.35114077
-0.4814473 -0.75675166 0.14397058 -0.4708965 -0.5977543 -0.6590823 0.10322562 -0.05528333
-0.20136619 -0.28296325 -0.39858934 -0.33032048 0.672766 -0.30234602 0.03228794 -0.5130668
0.41749328 0.13470562

a f4 [20, 1]
00000000: 3c25 ff3e 2353 e2be a908 a63e 0480 dc3e
00000010: d331 303f 19a1 9b3e 686c 8ebe 3bc8 103f
00000020: 16d1 a4be 1139 2fbd 65be 20bf 13cd 29bf
00000030: 2606 a3be dce1 55be 9201 7abe 3219 3d3f
00000040: c580 0d3f dec8 39bc 99c5 edbe 2b90 5fbc
0.49833095 -0.44204053 0.32428482 0.43066418 0.68826026 0.30396345 -0.27817082 0.5655553
-0.3219077 -0.042779032 -0.6279052 -0.66328543 -0.31840628 -0.2088694 -0.24414662 0.7386657
0.5527461 -0.011339394 -0.46439818 -0.013645212

W f4 [5, 10]
00000000: 50f1 a03e 86ff 18bf 402d 53bf 5663 bd3e
00000010: 6dba 63bd 0eb3 f13e 7c1d 9fbe 3615 d33d
00000020: 9275 813d 2c8a 0c3f 5c85 db3e dd83 4fbf
00000030: 07fc 313f 988c af3e 17bf 44be a54a 3bbf
00000040: a160 033f 4dd9 fcbe e62c c2be 4c81 4abf
00000050: ce56 013e 8c88 9fbe eda5 cc3e d02d 413f
00000060: eaaf 9f3e 6e99 ea3e 34db 103f 917e 2ebf
00000070: 0812 463c fec2 debe e786 48bd 987a 53be
00000080: 5f97 4a3f 1fe2 293f 2efe 5cbf 7051 a9be
00000090: 269d 32bf 92da 85bd 6567 c53e 802f 583f
000000a0: 433b 2dbf 3595 263f 3f29 f6be 5697 56bf
000000b0: a880 b7be f4a5 0c3f 9cd4 363f 0e85 563f
000000c0: 24ac 79be e3b7 6c3d
0.31434107 -0.597649 -0.8249092 0.3698985 -0.05559771 0.4720692 -0.31077182 0.1030678
0.06321253 0.54898334 0.42875183 -0.8106058 0.6952519 0.34286952 -0.1921352 -0.73160774
0.5131932 -0.49384537 -0.3792488 -0.7910354 0.1263077 -0.31158864 0.3997034 0.7546053
0.311889 0.45820183 0.5658448 -0.68161875 0.01208926 -0.43508142 -0.048956778 -0.20652235
0.79137224 0.6636066 -0.8632535 -0.33069944 -0.6977104 -0.065358296 0.38555446 0.8444748
-0.6766855 0.6507142 -0.48078343 -0.8382467 -0.35840344 0.54940724 0.71418166 0.83796775
-0.24382073 0.057792556

a f4 [20, 1]
00000000: 47f0 203e 1c2e fabe 263c d03d 3379 e73e
00000010: 798a 353f 5e7e 5b3e d7fd f3be bac4 05bf
00000020: 3ac9 2d3f 0e95 63bd c34e 383e 16db 2c3e
00000030: 8b50 ea3e 1a41 363f c164 be3e 0346 4fbd
00000040: 7116 d0be 2e35 30bf c0cd 913e efea 493d
0.15716659 -0.48863304 0.101677224 0.45209655 0.7091442 0.21434924 -0.47654602 -0.52253306
0.6788517 -0.05556207 0.17998795 0.1688045 0.45764574 0.7119309 0.37186244 -0.050603878
-0.4064212 -0.68831146 0.28477287 0.049296316

W f4 [5, 10]
00000000: e813 3dbf 9503 29bf d531 f1bc 31d5 9abe
00000010: 2c18 1cbe 771f 40bf 8d53 3f3f cb5d 76be
00000020: a7b9 e33e 6223 7e3d a87b 3f3f fbf5 debe
00000030: b938 79be 5719 5dbf b618 2a3f e593 373f
00000040: efe3 7d3d 1b8d f93c 3988 b8be cbaf 37bf
00000050: a79f c63e fbfd d9bd bd86 09bf 9f5a 36bf
00000060: 8fee 423d 431f 44bf ec65 a2be ba6b 043e
00000070: ffb1 083f a044 4bbe 0471 603f b77c 48bf
00000080: 415a 413f b5b3 4e3f 0c42 b13e 1386 953d
00000090: f244 2c3f f025 d3bc 0c0a 0b3f 19e8 5ebe
000000a0: 1b4d 0a3f 50cd 1f3f 6be9 61be 8b82 533f
000000b0: 1024 883e 10e4 e1be 1eed ccbe 8729 5e3e
000000c0: 5abe 2abf a67b 3e3f
-0.738585 -0.6602109 -0.029442707 -0.30240777 -0.15243596 -0.7504801 0.74736863 -0.24059217
0.4447758 0.062045462 0.7479806 -0.43547043 -0.24338044 -0.8636679 0.66443956 0.71710044
0.061984953 0.030462792 -0.3604143 -0.71752614 0.3879368 -0.10644146 -0.5372122 -0.71232027
0.04759079 -0.766102 -0.31718385 0.1293172 0.533966 -0.19850397 0.8767245 -0.783153
0.7552834 0.8074296 0.34620702 0.07300963 0.672927 -0.025774926 0.54312205 -0.21768226
0.54023904 0.62422657 -0.22061698 0.8262107 0.26590014 -0.4411931 -0.40024656 0.21695529
-0.66696703 0.7440742

a f4 [20, 1]
00000000: 8fc5 003e 4c48 bf3c ec53 8a3e 06ef 9abb
00000010: 4ffe 2b3f ce16 14bf 4255 a93e a202 01bf
00000020: d3c3 03bf ac56 843e c300 383f e6d0 263d
00000030: d60c 2ebd 3827 25bf 37da d5be 492b 35bf
00000040: ba34 05bf 1668 33bf 4535 463f e628 12bf
0.12575363 0.023349904 0.27017152 -0.004728201 0.6718492 -0.578473 0.3307286 -0.5039464
-0.5147068 0.25847375 0.7187616 0.040726565 -0.04249271 -0.6451297 -0.41768047 -0.7076917
-0.5203358 -0.700807 0.7742503 -0.57093656

W f4 [5, 10]
00000000: 06f2 8a3e ccb8 733e d9db 9b3e 141d 7dbe
00000010: b01b f63d 3aed 203f e4cc 173e 116a 24bf
00000020: 571c f23d 64bb 5d3f a9b7 06bf 01de 0f3f
00000030: 4862 27bf 0a3e 49bf 01ae 3abf 76fb b23d
00000040: 281e 433f 72ff b1be 209a 303f e463 bfbe
00000050: e490 6fbe 4db8 15bf 9584 a63e 7ecb dfbc
00000060: 2341 263f 7b51 b43d df9f 7c3c 5017 2abe
00000070: e4c8 2d3f c66e 5c3f 077a 3a3f ba30 903e
00000080: 69c3 0bbf 28ed 44bf 4368 1cbe 9456 c23e
00000090: 1bf1 453f 018a 423f 3dcf a03e 9a8c 353f
000000a0: 2286 e0be cca2 963e 6447 22bf 8db9 e53e
000000b0: 3979 fe3e a835 ebbc 5d24 e13e aad6 503d
000000c0: d6c2 1a3f a54b 52bf
0.27137774 0.23800963 0.30441168 -0.24718124 0.12017 0.6286198 0.14824253 -0.64224344
0.11821812 0.8661406 -0.52623993 0.56198126 -0.6538434 -0.7861029 -0.7292176 0.087393686
0.7621789 -0.34765202 0.68985176 -0.37380898 -0.23395115 -0.58484346 0.32523027 -0.027318712
0.6494314 0.08804604 0.015418976 -0.16610456 0.6788466 0.86106527 0.7284245 0.28162175
-0.5459505 -0.7692437 -0.15274148 0.3795668 0.7732102 0.7599183 0.3140811 0.70917666
-0.43852335 0.2942108 -0.63390183 0.44868127 0.4970186 -0.028712109 0.43973055 0.05098597
0.60453546 -0.82146674

a f4 [20, 1]
00000000: 296c dcbd bea2 be3e 9851 123f 5c6c e0bd
00000010: 6163 bc3d 037a 1e3f 246f 20bf bbc1 af3e
00000020: 0ade 05be bfca d0be 2170 99be 3a96 363f
00000030: 1d48 7a3e 59d1 3abf e1ba 38bf e5b0 27be
00000040: 16c8 07bf e068 423d 0cf7 d73e bd5f 4ebe
-0.107628174 0.37233537 0.5715575 -0.10958168 0.091986425 0.61904925 -0.6266959 0.34327492
-0.13072982 -0.40779683 -0.2996836 0.7132298 0.24441572 -0.7297569 -0.72160155 -0.16376074
-0.5303968 0.047463298 0.4218067 -0.20153709

W f4 [5, 10]
00000000: ece2 1bbf 16fd e83d 4306 60bf 4c44 57bf
00000010: 8463 ba3e b08d 14bf ac5f 393e b20c e13d
00000020: e956 643f f1a8 13be 430b e33e 2e84 ec3d
00000030: 595c 72be f20b c2be 5f48 09be 727b 1dbf
00000040: 52ca 3a3f 6eac 813e a759 623f 2798 293f
00000050: fe95 5b3f b961 d73e ed21 6abf 4299 9a3d
00000060: 72e1 67bf c361 0cbe e1d9 1cbf 5bbf db3e
00000070: 39f1 1a3f 938c 59bf 48b7 0f3d 32f3 5e3f
00000080: 0e40 5d3f 7c20 9e3d 41f5 16bf fbc1 dabe
00000090: 2cc1 163e b151 5a3f 0ab5 52bf ca3d 08bf
000000a0: ca46 1a3e 1552 ef3e 9349 913e 572f 16bf
000000b0: 356b b93e fe90 433f 8d99 13be 237b 243f
000000c0: b458 353e 65e6 14be
-0.6089313 0.11376397 -0.87509555 -0.8408859 0.3640405 -0.580287 0.18102902 0.109887496
0.89195114 -0.14419915 0.4434453 0.11548649 -0.2366804 -0.3789974 -0.13406514 -0.6151649
0.72964966 0.25326866 0.8841805 0.6624779 0.85775745 0.42066744 -0.91458017 0.07548763
-0.9057838 -0.13709168 -0.61269957 0.4291943 0.60524327 -0.84980124 0.0350869 0.87089837
0.86425865 0.0772104 -0.5896798 -0.4272612 0.14722127 0.852809 -0.82307494 -0.5321928
0.15066066 0.4674231 0.28376445 -0.58665985 0.36214605 0.76393116 -0.14414044 0.6425039
0.17709619 -0.14541014

a f4 [20, 1]
00000000: 37a9 ed3e 7bce 5bbe 4d50 2dbf 0d24 073f
00000010: f480 bb3e f6f1 43be c051 f6be d53e e8be
00000020: 441f 05bf 344e 93be 4a81 1bbf cae6 443f
00000030: ed97 5abe 329a 33be 6126 1cbf 6fc6 c5be
00000040: 86d9 1b3f 1de5 67be 34dc 0bbf b0c6 21be
0.46418163 -0.21465485 -0.67700654 0.52789384 0.3662182 -0.1913527 -0.48109245 -0.45360437
-0.5200083 -0.28770602 -0.60744154 0.76914656 -0.21347018 -0.1753929 -0.6099606 -0.38627955
0.6087879 -0.22645994 -0.5463288 -0.1579845

W f4 [50, 5]
00000000: f30f b63e a214 cbbd b6ee c03e 3a4f 56be
00000010: f031 923d ca14 9d3e 6820 103e 7ee2 24be
00000020: 5157 f7bc 963d cabe d7e7 adbe 4806 b9be
00000030: a20e 19be 4914 e43d 310b e33e 443f 29bd
00000040: e1e6 8b3e 17bf 963e 38a7 9fbe 2e52 e4bd
00000050: 1fb0 f1bd b3c5 6a3c a540 09be c176 9f3e
00000060: adad c5be 7486 b0be ee5e 0bbd ada4 1d3e
00000070: 0db1 493e 3f15 21be 5155 d23e 1c94 2c3e
00000080: 0ff4 b03e db4c 0f3d 43e3 ad3e dc7f d3bd
00000090: 94a5 ecbe 2e36 84bd 6530 dfbd 15a3 88be
000000a0: 45e6 c6be 4159 80bb d36c b1be 6e55 d1be
000000b0: d34b de3e bbce bbbe ab91 bfbe 5314 033e
000000c0: 105f a9be ff38 ccbd 8a16 ab3e 2514 a63e
000000d0: d34e e63e 47b2 883c 5094 0abd 055b 583e
000000e0: 6941 ce3e b99f 80be 6fb2 a6be 7f52 93be
000000f0: 9cdc b63e 1bbc 46bd 146f 9c3e 22b1 163b
00000100: 658d cd3e 3a7e 393e 36ed 1b3e a816 d6bd
00000110: 3749 1bbd 009e debe a1bf af3c d616 fd3c
00000120: fe7d b83d 5712 df3e 84a0 9dbe 6712 8abe
00000130: e0b5 853e 15b4 c4bc ebc8 52be d01c 073c
00000140: 8bc7 c4be fcc3 cfbe 7e1e ca3e e174 f0be
00000150: 3805 323e 2a66 ae3d 0829 c53e 30cc b83e
00000160: 84d3 dabe 76f4 8ebc d0b8 8fbe 6757 473e
00000170: 09cd a83e 2e56 5ebe 7c1c a73e bfcf 94be
00000180: 92c3 b5be 2991 d63d 4df3 58bc c020 b8be
00000190: ff80 a63e c2fa 223e 6929 d6be bcf7 c83d
000001a0: 3a60 6c3e a83b 5d3c 2804 903d b676 49be
000001b0: f070 b73e 76f1 8e3d e5bb abbe b788 50be
000001c0: 9e93 443d 7dec afbd 916b c0be f4e6 b73d
000001d0: 71e3 0dbe 692a 5d3d 6650 e4be 52c0 ca3e
000001e0: 702d 06bd 0d30 80be 1ed9 85be 2865 953d
000001f0: 0fc0 b2bc df24 04be a55b 0dbe 6ce4 1abe
00000200: db43 e1be 9b43 11be 7d9b 923c 6091 d8be
00000210: 59c9 84be a862 b5be c6cb eb3e 4f1e 1abd
00000220: 8646 4f3e f942 043d 11d3 d0be 6bf0 2fbe
00000230: 4b90 a5be 1a36 453e 300e 9ebe 5d14 093e
00000240: 2091 42be 91ff b4be 3670 193d c8de 593e
00000250: fa4c e63e 869a 04be 5321 7c3e cb64 ba3e
00000260: 1252 88be c8d0 33be b93a fbbd 1ce2 8fbe
00000270: 303f f7be 5fb0 fa3c 8c93 83be 284a bebe
00000280: 0046 90be d81d 86be 3d36 8f3e f0ff 32be
00000290: a0f1 53be 6dcc e2be f17a d53e d2c2 af3e
000002a0: 603f 2ebe 223f 70be 39f8 2e3e aed6 913e
000002b0: 4b09 553e 1e78 d8be 8df3 8d3e 9967 4fbe
000002c0: c790 86be d934 c7bd 3ad9 c3be 519c 3b3e
000002d0: 8cd9 9cba 8733 11be 44e5 a0be 696f 253e
000002e0: 93ba d4be 1a55 cbbd 5598 f0bd d01c ba3e
000002f0: 5cd5 5e3d d22c c3be cfbd a63e db9a e13d
00000300: 441e 273d 1bb6 cd3e 7446 e2be 09aa 893e
00000310: d894 2f3e 9dba a23e 7752 283c af4a 80be
00000320: a5d8 d93d b9a0 013e b2cb ee3e 2785 c93e
00000330: 2dbd 963e ce13 d83e 278a 7dbe 42e7 fb3d
00000340: d838 4a3e b1a4 4abe ffdd 5bbe 4fb0 acbe
00000350: a038 ae3e c0a2 163e bc77 be3e d3b6 efbe
00000360: dc18 95bd 6b36 8d3d 4405 acbe 6790 eabe
00000370: 6773 973a cf50 8dbe 2429 c43e 472d ddbd
00000380: 0265 613e 8b78 09be 1e14 6bbe da93 e33e
00000390: d671 a4bd 573d d9be 4435 42bd 7606 ac3e
000003a0: 239b b13e ad63 3e3e 3647 85be e033 cebe
000003b0: 1e6f c9be 09a4 303d c6fa 9bbe acf2 5e3d
000003c0: 6452 ffbd fd8e 583e 6cdf 853d 0342 1fbe
000003d0: 7c95 89be 1f0a 47be bacd d33d 49ee c03e
000003e0: 0db1 523e 3acb 75bb
0.35559043 -0.09916045 0.37682122 -0.2092866 0.07138431 0.30679923 0.14074862 -0.16102025
-0.030193003 -0.3950011 -0.33965942 -0.36137605 -0.14946988 0.111366816 0.44344476 -0.0413201
0.27324584 0.29442665 -0.31182265 -0.11148487 -0.118011706 0.014329362 -0.13403566 0.3114529
-0.38609067 -0.3447758 -0.03402608 0.1539485 0.19696446 -0.15730761 0.41080716 0.16853374
0.34561202 0.034985404 0.3396245 -0.103271216 -0.46220076 -0.064556465 -0.108979024 -0.26686922
-0.38847557 -0.00391689 -0.3465334 -0.4088549 0.43417224 -0.3668116 -0.37415823 0.12800722
-0.3308034 -0.09971809 0.33415633 0.32437244 0.44982013 0.016686572 -0.033832848 0.21128471
0.4028428 -0.2512186 -0.3255801 -0.28773877 0.35715187 -0.048519235 0.30553496 0.0022993763
0.40146938 0.18114558 0.15227208 -0.1045354 -0.03791162 -0.4347992 0.02145368 0.030894678
0.09008406 0.4356868 -0.30786526 -0.26967165 0.26115322 -0.024011651 -0.20584457 0.0082466155
-0.3843349 -0.40579212 0.3947639 -0.46964172 0.17384803 0.0851558 0.38507867 0.36093283
-0.427395 -0.017450552 -0.28070688 0.19466935 0.3296893 -0.21712562 0.3263892 -0.29064748
-0.3550077 0.10476906 -0.013241601 -0.35962486 0.3252029 0.15915969 -0.41828468 0.098128766
0.23083583 0.013502993 0.07032043 -0.19674191 0.35828352 0.06979649 -0.3354179 -0.20364653
0.04799234 -0.085900284 -0.37582067 0.08979598 -0.13856293 0.053995524 -0.4459259 0.39599854
-0.032758176 -0.2503666 -0.2614221 0.07294685 -0.021820096 -0.1290469 -0.13804491 -0.15126199
-0.43997082 -0.14185946 0.017896408 -0.42298412 -0.25934866 -0.3542683 0.46053904 -0.03762656
0.20241746 0.032290433 -0.4078603 -0.17181556 -0.3233665 0.1925892 -0.308702 0.13386674
-0.19000673 -0.35351232 0.03746053 0.2127639 0.44980603 -0.12949571 0.24622087 0.36405024
-0.26625115 -0.17560112 -0.1226706 -0.28102195 -0.48290396 0.030601678 -0.25698507 -0.37165952
-0.28178406 -0.26194644 0.27971068 -0.17480445 -0.20697641 -0.4429659 0.4169536 0.34328324
-0.17016363 -0.23461583 0.17086877 0.284841 0.20804326 -0.42279142 0.27724877 -0.20254363
-0.2628233 -0.09726877 -0.38251668 0.18321349 -0.001196669 -0.14179812 -0.31424916 0.16155781
-0.41548595 -0.09928341 -0.11747805 0.36350107 0.054402694 -0.38120133 0.32566687 0.110158645
0.040800348 0.40177998 -0.44194376 0.2688754 0.17146623 0.31783 0.010273567 -0.2505698
0.10637025 0.12658967 0.46639782 0.393594 0.29441205 0.4220261 -0.24759732 0.12299968
0.19748247 -0.19789387 -0.21471404 -0.33728263 0.34027576 0.14710522 0.37200725 -0.4681917
-0.07280132 0.06895145 -0.33597767 -0.45813295 0.0011554778 -0.27600715 0.38312638 -0.107996516
0.22011188 -0.1342489 -0.22956893 0.4444874 -0.08029525 -0.4242961 -0.04741408 0.3359868
0.34688672 0.18592711 -0.26030892 -0.40273952 -0.39342588 0.043125186 -0.30464762 0.05443065
-0.12466887 0.21148296 0.06536755 -0.15552525 -0.2687186 -0.19437455 0.103419736 0.37681797
0.20575352 -0.0037505166

a f4 [10, 1]
00000000: f919 8dbe a4ad 5fbf d8de 223f e964 81bd
00000010: acc2 44bf c468 4ebf abcc 7f3f e085 54bf
00000020: a62f eebe ab32 97be
-0.27558878 -0.8737433 0.6362128 -0.06318075 -0.76859546 -0.8062861 0.99921674 -0.8301678
-0.46520728 -0.29530844

W f4 [5, 10]
00000000: 0791 303b 277f 1bbf 7801 04bf 8bd9 e83c
00000010: 0841 5d3f 09d3 533f 7925 753d c437 61be
00000020: a3cd 27be 7873 d93e 3db9 c43e d1e6 7abd
00000030: 17f8 b1be 4e89 253f 1dd5 68be 4af7 55bf
00000040: a0a3 003f c4a6 19be 173d bd3a 3bea 50bf
00000050: c00b 2cbe bdf9 d7be 9eb1 623f cda9 0e3f
00000060: 2a9e 16bd 2757 f63e 2845 5a3e 254f 3f3f
00000070: fdb3 963e 1d2e d7be 244c 193f dbc9 87be
00000080: 72d7 bc3d 4e19 c73e c33c f83e cfc8 35bf
00000090: a701 163e 6b82 f43d a7b6 4a3f dce8 cb3d
000000a0: b646 2abf 3d42 b83e 965a d03e 5663 633f
000000b0: 90f6 4dbe f540 48bf 06de 14bf 0df1 973e
000000c0: 31b9 b8be 8421 223f
0.0026941912 -0.60740894 -0.5156474 0.028424045 0.86427355 0.8274389 0.05985019 -0.21993929
-0.16387038 0.42470908 0.38422576 -0.06125528 -0.3475959 0.64662635 -0.22737546 -0.8358046
0.5024967 -0.15005022 0.0014437762 -0.8160741 -0.16801357 -0.42182723 0.8855227 0.55727845
-0.03677193 0.48113367 0.21315444 0.7473014 0.29434195 -0.4202737 0.59881806 -0.2652119
0.092207804 0.38886493 0.48483858 -0.71009535 0.14649068 0.11938938 0.79184955 0.09956524
-0.66514146 0.35988036 0.40694112 0.8882345 -0.20113587 -0.78224117 -0.5815128 0.29676095
-0.3607879 0.6333239

a f4 [20, 1]
00000000: 60d7 8a3e 7f31 cfbe 6f64 41bf d101 0c3f
00000010: cb61 3dbf eae6 ddbd 6322 0d3f 8a64 613b
00000020: 47b0 edbd a8ee 3ebf cf29 1ebf 7f16 c3be
00000030: 9727 273f a7f7 643e fd6d 5c3e 1096 d53d
00000040: 842b 07bd 45ee aebe 10a6 6b3d e01c bfbe
0.27117443 -0.4046745 -0.75543875 0.5469027 -0.73977345 -0.10835059 0.55130595 0.0034392201
-0.11605888 -0.7458291 -0.61782545 -0.381031 0.65294784 0.22360097 0.21526332 0.10429013
-0.033000484 -0.3416616 0.057531416 -0.37326717

W f4 [5, 10]
00000000: 95cd 3abf 76e0 fbbd ba0c c2be f231 2bbf
00000010: dab2 8bbe d2ba 3dbe 4e7e 2a3d a5df 113d
00000020: 8e2e fabe 915a c83e f541 6cbe 24d6 753e
00000030: 36a8 913e 66c1 e8be 26b9 a23e 807d 623e
00000040: aa01 233f 666c 53bf 5860 ba3e ea98 4fbe
00000050: e656 57bf 5a2a 023d 40eb c2be 33ef 083e
00000060: 3b3f 57bd 5e8e 1ebf 6b25 56bf 8417 85be
00000070: f22c 8a3e 38b1 453f 38ec 40bf 03f9 ccbe
00000080: d8d9 bdbe f8f8 5dbf 19ac 22bf 5f6d 9abe
00000090: e4cb 8fbe 96c8 e5be 268f 243f 00b8 1d3f
000000a0: 609e 21be a550 56bd 5dbd 003f 8d7e 83be
000000b0: fe6b d4bd db55 91bd b1ea 21bf f220 613f
000000c0: 1b81 9a3d 2495 033f
-0.72969943 -0.12298672 -0.37900335 -0.66873085 -0.2728489 -0.18528298 0.04162436 0.035613675
-0.48863643 0.39131597 -0.23072036 0.2400747 0.28448647 -0.4546005 0.31781882 0.22118187
0.63674414 -0.8258728 0.3640163 -0.20273176 -0.8411697 0.03177867 -0.38070107 0.13372497
-0.052550536 -0.61935985 -0.83650845 -0.25994503 0.26987416 0.7722354 -0.7536044 -0.4003373
-0.37080264 -0.8670802 -0.6354385 -0.3016157 -0.28085244 -0.44879597 0.6428093 0.61608887
-0.15783072 -0.052323002 0.50288945 -0.25682488 -0.103721604 -0.07096454 -0.63248736 0.87940896
0.07544156 0.51399446

a f4 [20, 1]
00000000: 9a17 d9be 31b2 7ebe b5e8 bdbc 5660 453d
00000010: ccd0 46bc 48bd 473e 5606 bbbe c83b 1bbf
00000020: c592 1ebf ed76 42bf f29a 18be 5f28 c3be
00000030: 9137 ea3e 0c6b 17bf fbf3 afbe 4c81 b2be
00000040: 3765 87be 9bbd 3b3f 8c5b 3c3e 7aa9 303f
-0.4240082 -0.24872662 -0.023182252 0.048187576 -0.012134742 0.19505799 -0.3652827 -0.60638094
-0.619427 -0.75962716 -0.14902857 -0.38116738 0.4574552 -0.59147716 -0.3436583 -0.3486427
-0.26444408 0.7333619 0.18394297 0.690086

W f4 [5, 10]
00000000: c16e abbe 173c 323f a395 8abd 12ff 013e
00000010: 99aa 003f d728 003f 3459 1cbf 0a99 393e
00000020: 9098 3a3f 800f 34bf 79d3 2fbe 3be5 34bf
00000030: 1a49 b33e c8d0 04bf 85d1 52be 9946 31bf
00000040: a621 053e 4efa a9be 69c7 acbe 2386 c4be
00000050: ed6e bdbd 588a 19bf d08a 99bd 0f5c 7bbe
00000060: 684d 583f c19e 5d3f 4a0f 59bf 729d 3e3f
00000070: a738 8f3e 9bcd b8bd 2b07 d9be 41ea 2d3f
00000080: d7e1 c7be c071 b8be be27 0b3f 57db 39bf
00000090: 6adf 4fbf 0cc6 ae3e 7ee5 02bf 3110 243f
000000a0: e46b 4bbf 87e3 8f3e dbb9 3ebf cfbc fc3e
000000b0: a417 da3e 07d4 fbbd de48 fb3e 8fd5 46bf
000000c0: c9dd fbbe 5323 2b3f
-0.33482936 0.6962294 -0.06766822 0.12694958 0.5026031 0.50062317 -0.61073613 0.18124786
0.7288904 -0.7033615 -0.17170514 -0.7066228 0.3501671 -0.51881075 -0.20587738 -0.6924835
0.13001117 -0.3319878 -0.33745888 -0.38383588 -0.09249673 -0.5997672 -0.074971795 -0.24546836
0.8449311 0.86570364 -0.84788954 0.7445899 0.2797291 -0.09023591 -0.4238828 0.6793557
-0.3903949 -0.36024284 0.54357517 -0.7260031 -0.8120028 0.34135473 -0.5113143 0.64087206
-0.79461503 0.28103277 -0.7450234 0.493628 0.4259616 -0.122963004 0.4907903 -0.77669615
-0.49192646 0.66850775

a f4 [20, 1]
00000000: b6ba 51be ad64 0cbf 9bac 5f3e 2812 0d3f
00000010: b6b2 b53e d7b2 e73e 2573 953e 76d5 8c3e
00000020: d5c5 d7bd a885 293f dfc7 5fbd a32f e8be
00000030: c75b 96bd 47d1 c73e a1fa b23e bff6 c73e
00000040: 0e73 023e 2321 f6be 17a9 173f c5cd 1e3e
-0.20481381 -0.5484112 0.21843188 0.5510583 0.35487908 0.4525363 0.2918941 0.27506608
-0.1053578 0.6621957 -0.05463397 -0.45348844 -0.07341724 0.39026853 0.3495684 0.3905544
0.12739202 -0.48072156 0.59242386 0.15508182

W f4 [5, 10]
00000000: cd44 0b3d 549e c3be d05c 5cbf 0e65 84be
00000010: c51e 163d cc2d 9a3e cbca 3a3f 45ef 263f
00000020: 4921 2dbf 474d f6be 2ed3 30bf dfb4 a83e
00000030: 205a 83bd 389c 20bf 92ee 35bf 65c3 55bf
00000040: 52b6 6f3e 7455 50bf f3cc 11be 37a5 e03d
00000050: d214 6fbe 4ddc c73e 1796 413f 1ec8 9ebd
00000060: a5fd b3be 8ade 2bbf 6e2e 4c3f 6c7a 683f
00000070: fcfa 423f a433 b8bd 22b3 b9be 2ff7 11bf
00000080: 96b0 e5be d61b f2be 4b05 e2be f955 48be
00000090: 1e98 bd3e 0565 25bf 82f4 413f 98c8 19bf
000000a0: fbd2 f6be a0d0 003f 5d5b 02bf 2091 9bbe
000000b0: d300 e83d 9a5f 573f 80d5 443f d70f 033f
000000c0: a223 483f eada 5abf
0.03400116 -0.38206732 -0.8607912 -0.2585835 0.036650438 0.30113065 0.7296569 0.65208846
-0.67628914 -0.48105833 -0.69072235 0.32950494 -0.06413674 -0.6273837 -0.71067154 -0.83501273
0.23409393 -0.8138039 -0.14238338 0.10969012 -0.23347786 0.39035264 0.75619644 -0.07753013
-0.35154453 -0.6713644 0.79758346 0.908118 0.7616422 -0.08994225 -0.3626948 -0.570178
-0.44861287 -0.47286862 -0.44144663 -0.19564046 0.3703012 -0.6460727 0.75763714 -0.60071707
-0.4820784 0.50318336 -0.5092066 -0.3038416 0.11328282 0.8413025 0.76888275 0.51196045
0.7817937 -0.85490286

a f4 [20, 1]
00000000: f536 01be a490 41bf 14f6 eabe e8d8 41bf
00000010: 8de6 b73e 197e 173f 3c80 d13e dca8 22bf
00000020: 5cab a53e dc4d e83e b18c cfbe fcb6 fabe
00000030: 570a cf3d 6c2c 2a3f 9be2 32bf 71c7 94be
00000040: 3146 173e 3847 a6be 3550 1cbf 1a94 96bd
-0.1261862 -0.7561133 -0.45890868 -0.757216 0.35918084 0.59176785 0.40918148 -0.6353891
0.323573 0.45371902 -0.40537027 -0.4896773 0.10109394 0.6647403 -0.6987702 -0.29058412
0.1477287 -0.3247621 -0.61059886 -0.07352467

W f4 [5, 10]
00000000: a4d2 053f 3a2d 453f 2ea0 8f3e b6cb 073f
00000010: b8a4 03bf ded2 813e c53f 223f 1516 8ebe
00000020: 4f8b 43bf 4611 52bf 0f78 91be 05f9 123f
00000030: 07bb 2bbd d6c8 c6bc a79c 7ebe 8e42 1fbe
00000040: c52b 433f 0ba9 24bf bb61 cf3e ec95 15be
00000050: 2851 50be 78d4 2bbe f20f 323f f744 93be
00000060: ee8d 503f a809 f53e fc5d 42bf 1bf4 4d3e
00000070: e739 053d adf3 063f af08 09bf 2888 5fbf
00000080: 0366 65bf 564a c6be 831b 41bf 2dfb 26bf
00000090: 8ab3 5cbe 449a 7dbe 7316 13bf 3ca0 18bf
000000a0: 41de 3abe 315f f6be fd90 293e 6274 f7be
000000b0: a45d 03bf 5054 203f 65cf f03e a8d2 b2be
000000c0: 9f97 443f 8b9c 1cbf
0.5227454 0.77022135 0.28051895 0.53045213 -0.51423216 0.2535619 0.63378555 -0.27751222
-0.76384443 -0.8205761 -0.2841191 0.57411224 -0.04192641 -0.024265688 -0.24864446 -0.15552732
0.7623866 -0.6432044 0.4050425 -0.14607972 -0.20343459 -0.16780269 0.6955558 -0.28763554
0.8146657 0.4785893 -0.7592466 0.2011265 0.032525923 0.5271557 -0.53528875 -0.8731713
-0.8960878 -0.3872859 -0.75432605 -0.65227014 -0.21552864 -0.24765879 -0.5745613 -0.596195
-0.18248846 -0.481195 0.16559215 -0.4833098 -0.5131476 0.6262865 0.4703323 -0.34926343
0.76793855 -0.61176366

a f4 [20, 1]
00000000: 8656 243f 48bc 243e bb71 f0be 31a1 3a3f
00000010: b524 d7bd f749 9bbe 5514 173d a283 89bd
00000020: a3ef 63bd b64f 8f3d f643 1abf 97dd b03e
00000030: 60dc b23d 6d46 5fbd 13ad 123f 5895 133f
00000040: 8d6b 0e3f 61aa a73e 6ad1 04bf 26ec 953d
0.64194524 0.16087449 -0.4696177 0.7290221 -0.10505048 -0.30329868 0.036884625 -0.0671456
-0.055648457 0.069976255 -0.6025995 0.3454406 0.087334394 -0.054510523 0.5729534 0.57649755
0.5563286 0.32747176 -0.5188204 0.07320432

W f4 [50, 5]
00000000: ff21 cb3e 25b9 b6be 29f6 8a3d b874 b73e
00000010: 74b9 8c3e 062d d13e d9d0 663e 3a74 83be
00000020: ca51 373e 4409 cfbd 96e7 04be 4a6d b63d
00000030: 49ac 93be a1ab 95be f355 3f3d 05a8 ad3e
00000040: 4330 253e 9322 16be 0285 c33e 56ce b53e
00000050: 6ed8 aebe 0679 273c 5317 083e debe c53d
00000060: 3530 37be cebb 9ebd 9ca7 50be 5191 a73d
00000070: 644d bebe d070 bd3d ce9b 5bbe eb04 d43e
00000080: a09c f53d 9e90 38be 4800 debe bfa1 043d
00000090: b8fb a33e d7cb 0ebe 0b87 503e a4e0 cb3b
000000a0: a544 a0be b6e0 823d c29b c03e e879 1bbe
000000b0: c3e0 923e 9371 9cbe e0eb a2be fbd5 ccbe
000000c0: 5fd4 7ebe bec1 0f3e d4dc 69bc 1714 0ebe
000000d0: 7e86 5b3e 79d2 87bd 964b 8d3e 8325 c83e
000000e0: 2bd4 f83d 5ac4 bb3e e017 163e c69f c33e
000000f0: 7fad be3a e400 a0be 311d 5c3e b73f 8d3e
00000100: 3cba 863e a993 a7be 0cc0 19be a587 f23e
00000110: 3f74 d8be 8349 44be 9c6b dfbe 8d02 6cbe
00000120: 861a b23d 875d b33d 3491 1b3e abfa 9f3e
00000130: 1896 d63e b1ea 913e b061 b1be eadd 663c
00000140: 998a 433e 012d c9be ccd5 eebe 383c ad3d
00000150: 22ed 9f3e 89ee 893e 30b1 8bbe 9f5b b63e
00000160: 7f94 893e e412 6b3e 0a16 723e cb57 f33c
00000170: 8aba de3d 0dfa debd 20ab 443e c75a bcbd
00000180: f4d4 69bd 3466 09bc b09a 9c3e 0e29 de3c
00000190: 5e97 f0bd e445 d9be 98ab 00be d40d 2b3e
000001a0: d810 c63b da0c 5ebe 7a3e e13e ca3b 613d
000001b0: ea11 c43e 8b17 1fbd 39ea 893d 38e7 aabe
000001c0: c0e6 5abe 5f33 8cbe 6de4 aabe 85b8 c4be
000001d0: 89c8 83be 0059 b3be 5809 c63e b178 32be
000001e0: 0f34 ecbb 865f 06bc c893 3dbd 7b85 633e
000001f0: 7051 073e 4149 c43e 1f17 a13d 77a4 e4be
00000200: 70ac 183e a91c 58bd b644 f7be 4311 8d3e
00000210: b478 5e3d abb1 293e 3055 1c3c a193 123c
00000220: f422 01bb d76c cdbe 7f0f a43e b66a 61bd
00000230: 1bf1 533e 78a7 d1be 52c1 18bd 8bd6 6f3d
00000240: fbad 31be 2b44 b3be 1e4b d7be 2c37 023e
00000250: bfd0 9c3e 7375 b73e b67c f73d 45fc adbe
00000260: 56c6 233d 4bdb d43e 2310 84be e357 c7be
00000270: f177 c0bd 4ec4 813d abd1 293e 4ad9 23be
00000280: c830 f43d c98f 133d a8c0 ef3d 928d 723e
00000290: 2ccb 913e d82f 663e 9c43 36be be85 a83e
000002a0: 04c0 823d 5386 a13d 27e2 e03e b8d8 613c
000002b0: 07b2 1ebd a16d ca3d 4724 c03d 70a6 b93e
000002c0: d686 98be 2fde 90be 12f0 aebe a088 c43e
000002d0: 6d27 c5be 2a1d ac3b 36c6 033e 6c65 2e3d
000002e0: 8850 903e e307 c4bd d9ce 513d 7b55 923d
000002f0: c518 b4be ceb6 17be 5ae9 f13e f4bc 14be
00000300: 7063 c53e 8828 833d e2ab 21be 9e07 f3be
00000310: 9684 fd3d 00d6 9dbe d29c 45bc c76b e1be
00000320: bc79 543e 7ee5 c63e 0b25 12bd 5f88 1f3e
00000330: c1e3 913e a831 89bd 3d52 a33d 3b99 b5bd
00000340: 77a2 313e f3dc d2be ef3a d0bd 37cf 4c3e
00000350: 3121 7b3e 5073 d23e 6bf3 8fbd 148c e0be
00000360: 788e f8bd 406e 85be 931b 52be d3aa 6fbe
00000370: 9009 543e 417d 85bd 7a35 ae3e 425b 253e
00000380: 2f63 703e a33b e53d 21eb a3be c400 86be
00000390: 6f82 e23c 4707 c53d 6f9b cc3e ddf4 573e
000003a0: b9d4 1bbe 0edd a1be f186 e93e cf5c 493e
000003b0: c853 25be e0ca 993e ce8d d63d 8e62 a73e
000003c0: e650 8f3d addf cb3e c913 b0be 1672 9abe
000003d0: 164d cebd 422a 93be ec98 a73e 00b3 f1bd
000003e0: 9744 ab3e 170e 07be
0.39674374 -0.3568813 0.067852326 0.35831237 0.2748524 0.40854663 0.22540607 -0.2567461
0.17902294 -0.10109189 -0.12978968 0.08907564 -0.2884238 -0.29232505 0.046712827 0.3391725
0.16131692 -0.14661627 0.38187414 0.35508984 -0.34149498 0.010221725 0.13290147 0.09655546
-0.17889483 -0.07750665 -0.20376438 0.08182014 -0.3716842 0.09250033 -0.21446154 0.41410002
0.119927645 -0.18023917 -0.4335959 0.032380816 0.32027984 -0.13944946 0.20364015 0.0062218476
-0.31302372 0.063905165 0.37618834 -0.15183222 0.28687105 -0.305554 -0.31820583 -0.40007004
-0.248857 0.1403875 -0.014273841 -0.13874851 0.21438023 -0.06631941 0.2759673 0.3909112
0.12149843 0.36673242 0.14657545 0.38207835 0.0014547555 -0.3125068 0.2149551 0.27587673
0.2631396 -0.32729843 -0.15014666 0.47369114 -0.4227619 -0.19168667 -0.43636787 -0.23047848
0.08696465 0.08758073 0.1519211 0.31245932 0.41911387 0.28499368 -0.34644842 0.014090994
0.1909584 -0.39292148 -0.4664749 0.084587514 0.31235605 0.269398 -0.2728362 0.35616776
0.26871106 0.22956425 0.2364122 0.029704949 0.10875423 -0.10887537 0.19205904 -0.09197002
-0.057087854 -0.0083861835 0.30586767 0.027119186 -0.11747621 -0.42436135 -0.12565458 0.16704494
0.0060444884 -0.2168459 0.43992978 0.05498866 0.38294917 -0.03884081 0.067341276 -0.3337953
-0.21377087 -0.27382943 -0.333774 -0.38422027 -0.25738934 -0.3502884 0.38679004 -0.17428853
-0.0072083543 -0.0082014855 -0.046283513 0.22218888 0.1321466 0.38337138 0.07865738 -0.44656727
0.1490953 -0.052761707 -0.4829461 0.27552232 0.05431433 0.16571681 0.009541795 0.00894633
-0.0019704672 -0.401221 0.32043073 -0.055033408 0.20697443 -0.4094808 -0.03729374 0.058554213
-0.17351525 -0.35012946 -0.42049497 0.12716359 0.3062801 0.35831794 0.120843336 -0.3398153
0.03998407 0.41573557 -0.2579356 -0.3893424 -0.09397877 0.0633627 0.16583888 -0.16000858
0.11923367 0.036025796 0.11706668 0.23686817 0.2847532 0.22479188 -0.17799228 0.32914537
0.0638428 0.078869484 0.4392254 0.01378458 -0.038744 0.09884191 0.09381919 0.36259794
-0.29790372 -0.28294513 -0.34167534 0.38385487 -0.38506642 0.0052525 0.1286858 0.042577192
0.2818644 -0.09571817 0.051222656 0.0714521 -0.35175148 -0.14815828 0.47248346 -0.14525205
0.38552427 0.06404215 -0.15788224 -0.4746675 0.123788044 -0.30827332 -0.012061315 -0.4402754
0.20749563 0.38846964 -0.03567986 0.15579365 0.28494075 -0.06698924 0.0797467 -0.08867117
0.17347132 -0.41184196 -0.10167491 0.20000921 0.2452438 0.411036 -0.0702885 -0.4385687
-0.12136549 -0.26060677 -0.20518331 -0.23405008 0.20706773 -0.06518031 0.34025174 0.16148093
0.23475336 0.111930154 -0.32015327 -0.2617246 0.027650086 0.09620529 0.39962336 0.21089502
-0.15217866 -0.31613964 0.45610765 0.1966431 -0.16145241 0.30037594 0.10476266 0.3269238
0.06997852 0.3981909 -0.34390095 -0.30165166 -0.10073297 -0.28743178 0.32733858 -0.1180172
0.33450767 -0.13188969

a f4 [10, 1]
00000000: e913 69be 4fbe 883e 2431 04be 4432 2abf
00000010: 2034 4d3f 1fb1 c2be a50b a93e bea3 6b3f
00000020: d7e3 f53e c4a2 50bf
-0.22761501 0.26707694 -0.1290937 -0.6648295 0.8015766 -0.38025758 0.33016697 0.92046726
0.4802539 -0.8149836

W f4 [5, 10]
00000000: 020c abbe 890b 0b3f c81c 053e 9ae5 543f
00000010: 531f 5b3f 75ee 5ebf aaf7 45be 742b cabe
00000020: e90a 59be 2911 bfbe f858 62bf fabf eb3e
00000030: 9cd0 4f3f e689 07be 9e3b eabe cec6 54bf
00000040: 6273 033f abd3 64be 1769 ea3d 675a f1be
00000050: 0011 503f 9488 1c3d a681 afbe d9a9 15bf
00000060: c6cb f9be 22f2 0abe 47c3 dc3c 8056 ff3e
00000070: 76ec a13e 6f52 8bbe 20b1 d1be 42d0 263f
00000080: ca69 a63e 4906 9e3c 9b84 4b3f 8550 2b3e
00000090: 8b9c 07bf 581b 46be 359a c2be 4c81 da3e
000000a0: ed7c dfbe bc9f 07be 4062 13bf 230d 8a3d
000000b0: a832 263e 5278 cfbe 8a41 ec3e 82c0 4f3f
000000c0: 1491 e1be 6266 b03e
-0.334076 0.54314476 0.1299926 0.83162844 0.8559467 -0.87082607 -0.19332758 -0.39486277
-0.21195568 -0.3731778 -0.88417006 0.46044904 0.8117769 -0.13236198 -0.4574861 -0.8311585
0.51347935 -0.2234637 0.114458255 -0.47139284 0.8127594 0.03821619 -0.342786 -0.5846229
-0.4878828 -0.13568929 0.026948584 0.49870682 0.31625718 -0.2721133 -0.40955448 0.65161526
0.32502586 0.019290106 0.79499215 0.16729935 -0.5297324 -0.19346368 -0.38008276 0.4267677
-0.43649998 -0.13244528 -0.5757179 0.06740787 0.16230261 -0.40521485 0.46143752 0.8115312
-0.44055998 0.34453112

a f4 [20, 1]
00000000: cdf4 df3e d99c 85be 263d 8a3e a5af de3e
00000010: 884b 073f 1552 b73e 6dc1 47be 5869 7b3e
00000020: 06b6 863e a7f5 283f f6ae b33d 2d19 153f
00000030: 6379 04bf 4d67 cdbe 3897 133e 07b4 2bbf
00000040: 66d5 46be ace2 69bc d5fb 2c3f 639f 23bf
0.43741456 -0.26096228 0.26999778 0.4349338 0.52849627 0.3580481 -0.1950738 0.24551904
0.26310748 0.65999836 0.087736055 0.5824154 -0.5174772 -0.40117875 0.14413154 -0.67071575
-0.19417343 -0.014275234 0.67571765 -0.6391508

W f4 [5, 10]
00000000: cb9e 633d 87ee fabe e2b0 ce3e 7f49 00bf
00000010: 8173 0f3d c558 0a3e bb57 113f 5cf8 ebbe
00000020: f78f d5be ff02 153e fcc4 1cbe 42d4 c8be
00000030: 0b88 38be 4bd5 00bf 5b30 0bbf 2e58 9ebd
00000040: 01c3 9dbe 6ab3 63be f9a9 0d3e f127 ff3e
00000050: 6ea7 203f aa38 d63e aee7 65bf 3cc0 a63e
00000060: 934f 803e 8ad4 a6be 4ac1 553f a066 463f
00000070: fe57 44bf 5144 e6be b6a6 e63e 1103 a13e
00000080: 0608 15bf 1526 b5be f682 be3e c76f e13d
00000090: ea5b 283f a4a5 65bf 6a5c 403f 0448 923e
000000a0: 4be9 05bf daac c03e 38c7 fabe 263f 7ebe
000000b0: 09ec 3d3f 26f9 73be f77a ec3d 7586 163f
000000c0: 989e 5b3f fd18 d2be
0.05557136 -0.49010107 0.40369326 -0.50112146 0.035022262 0.13510425 0.5677449 -0.4608792
-0.417114 0.14551924 -0.15309519 -0.3922444 -0.18020646 -0.5032546 -0.5437066 -0.07731663
-0.3081284 -0.2223641 0.1383437 0.4983516 0.6275548 0.41840106 -0.8980664 0.32568538
0.2506071 -0.3258403 0.8349806 0.77500343 -0.76696765 -0.44973996 0.45049065 0.31447652
-0.5821537 -0.35380617 0.3720929 0.11007648 0.6576525 -0.8970587 0.7514101 0.2857057
-0.523091 0.37631875 -0.48980117 -0.24828777 0.74188286 -0.23825511 0.11546891 0.58798915
0.8578887 -0.4103469

a f4 [20, 1]
00000000: f677 073f 4c53 28bf ac2c 343f 8a36 d83e
00000010: abed 143f 6480 92bc 33a3 2d3f cd1e 93bc
00000020: e48c 03bf 07ab f03c 4a95 cbbe cfbc 4f3e
00000030: cd4b c23e d7c7 dc3e 753d 523e 34e7 28bf
00000040: 756a 103f f850 41bd 37ac 263e cae8 3fbe
0.5291742 -0.657521 0.70380664 0.4222911 0.5817515 -0.017883487 0.6782715 -0.017959023
-0.5138686 0.029378427 -0.39762336 0.20286869 0.37948456 0.43121216 0.20531256 -0.6597779
0.5641244 -0.04719636 0.16276632 -0.18741146

W f4 [5, 10]
00000000: 39c4 1dbf fc02 223f 9b65 b13e 6129 213f
00000010: 079f 393f f012 e13d d73a 023f 9ead ff3e
00000020: a8a0 2fbf 3193 56bf 1bbf 41bf a0f6 8b3e
00000030: 54da db3b 821b d43e 912d 31bf ea92 1e3f
00000040: 17c1 22bf 9122 f63d ffd0 963e 6dc0 55bf
00000050: 50d4 133f 43da 17bf 7231 bf3e d92f e5bc
00000060: fa28 13be d469 24be e25f bebe c85f 49bf
00000070: 7227 5a3f 6761 753e 1044 da3e c64e 1abf
00000080: 0a9c a63e dbae 073f 5207 273e 2f1e 383f
00000090: 640e 4b3e c4e7 25be 0dd5 56bf 44c3 6e3e
000000a0: e869 013f 9f98 3a3f bc5a 47bf 2c3d 08bf
000000b0: 6356 043f 1b34 993e a6a7 5e3f 2f50 4bbe
000000c0: ba3c c03e 593c ecbb
-0.61627537 0.63285804 0.3464783 0.62953764 0.7250828 0.1098994 0.5087103 0.49937147
-0.68604517 -0.83818346 -0.7568223 0.27336597 0.0067093764 0.41427237 -0.69210154 0.61942923
-0.6357588 0.12018312 0.29456326 -0.83496743 0.5774584 -0.59317416 0.3734241 -0.027976917
-0.143711 -0.16055995 -0.37182528 -0.78661776 0.8521644 0.23962937 0.42630053 -0.6027645
0.32540923 0.53001183 0.16311386 0.71921057 0.19829708 -0.16201693 -0.8391884 0.23316675
0.50552225 0.7288913 -0.77872825 -0.5321834 0.51694316 0.29922566 0.8697456 -0.19854806
0.3754633 -0.0072093424

a f4 [20, 1]
00000000: bb76 4cbe 3adb 12bf a226 15bf 1f42 a73e
00000010: 1fa9 eebe 27ce e5bd 2387 b23e 6456 c1bd
00000020: 8af5 3b3f c765 e83c 12ec 063f 871a b5bd
00000030: 6f5d b63d 8f4d fa3e 4ecb 27bf 6f93 1c3f
00000040: 8585 06bf 5b27 ea3e 2271 1fbf d3da 1ebe
-0.19967167 -0.57365763 -0.58262074 0.32667634 -0.46613404 -0.11220961 0.34868726 -0.09440306
0.7342154 0.028368844 0.52703965 -0.0884295 0.0890454 0.48887298 -0.65544593 0.61162466
-0.52547485 0.4573315 -0.62282 -0.15513162

W f4 [5, 10]
00000000: b83d 513f 92d7 353f cc38 b63e e616 f9be
00000010: 4cbc 16bf 875b 98be 423f 46bf 880d 0d3f
00000020: d7fd 893e f4c0 e53e 9b49 c6bb a53d bebe
00000030: 064f 9ebe 470c 583f 6edd dfbd 1df7 133f
00000040: 4e44 263e 3ce8 1cbf 067a c1be 8644 b93e
00000050: 437c 563d 6da0 51bf 64d5 b3be bdd1 bf3e
00000060: 39d2 f83e 7556 aabe b0fc 62bf 9f66 49be
00000070: b578 283f 8081 973e 929c 5dbf dee0 f53e
00000080: c0bb 593f b336 17bf a8f7 463f 92f5 09bf
00000090: b00f 0a3f 06a5 51bf 8367 223f 2afd 413e
000000a0: 0c3c b83c 3fe2 32bf 0e6f bf3d 67de d93e
000000b0: 83ce 12bf 0fa7 3a3f 990c 6dbe df5d 44bf
000000c0: ce2f 123f 64e6 60bf
0.817348 0.7103206 0.35590208 -0.48650283 -0.5888107 -0.2975733 -0.77440274 0.5509877
0.26951477 0.44873774 -0.006051255 -0.37156406 -0.30919665 0.84393734 -0.10930906 0.5779894
0.16236994 -0.6129186 -0.3778841 0.36185092 0.0523646 -0.81885415 -0.35123742 0.37464705
0.48597887 -0.33269086 -0.8866682 -0.19668053 0.65809184 0.29590988 -0.8656703 0.48023123
0.8505211 -0.5906784 0.77721643 -0.53890336 0.5393019 -0.8189243 0.63439196 0.1894423
0.02248957 -0.69876474 0.09347354 0.42552492 -0.5734636 0.7291116 -0.23149337 -0.76705736
0.57104194 -0.8785155

a f4 [20, 1]
00000000: 3fe2 393e 50cc 16bd 6afb 37bf eeb8 1bbf
00000010: b8a6 84bd 5b65 3e3e 3a2c 043f ba1a c13e
00000020: 591f dfbe 01e6 413e 0d87 19bf 46c2 1ebf
00000030: b471 a0bd bd30 083f 354d 173f de2f 3dbf
00000040: 3f7b 31bf cbc8 3cbf 88f8 1ebe 56d5 35bf
0.18152712 -0.03681594 -0.71868 -0.60829055 -0.064771116 0.18593352 0.51629984 0.37715703
-0.43578604 0.18935396 -0.59971696 -0.6201519 -0.07834187 0.5319937 0.59102184 -0.73901165
-0.69328684 -0.73743886 -0.15524495 -0.7102865

W f4 [5, 10]
00000000: 0f3e 483f 2de2 2d3f 28c7 183f 9870 d4be
00000010: 387a 053e 3270 fbbe ad5b 963e beff 7a3e
00000020: be4e 543f 2150 46bf 4a03 433e ba3f 87be
00000030: dbef 0cbf 4d7a 4ebe 64b2 dabb 9a96 d73e
00000040: b476 2abf 7426 5c3e 0f8d 0f3f 0eb1 303f
00000050: ea7b 383f 889f 4fbf a9cd db3e d471 3dbf
00000060: b01b aabe ec23 0f3f a23e 3abf 2954 343d
00000070: 46ba ecbd f187 723e 592e 1b3f 906c 4ebf
00000080: d66c 38bb 90e1 aa3e be27 4d3f 9a38 5b3f
00000090: 5003 1dbd 5118 963e 5c45 b9be 2698 5b3e
000000a0: 6355 f23e c68c ca3e de92 913e 0dac a5be
000000b0: f4b6 4bbf 40d2 be3e 7135 303c 1170 76be
000000c0: c7b4 8fbd 1e5e 3b3f
0.78219694 0.6792324 0.5967889 -0.41492152 0.13034904 -0.49109036 0.29366818 0.2451162
0.8293265 -0.77466017 0.19044223 -0.26415807 -0.5505349 -0.20163842 -0.006674098 0.42107087
-0.66587377 0.21499044 0.56074613 0.69020164 0.7206408 -0.811028 0.42930344 -0.7400181
-0.3322425 0.5591419 -0.7275182 0.044025574 -0.11558966 0.2368467 0.60617596 -0.80634403
-0.0028141043 0.33375216 0.80138767 0.8563324 -0.038333237 0.29315427 -0.3618573 0.21444759
0.4733077 0.39560527 0.28432363 -0.32357827 -0.7957604 0.37269783 0.010754929 -0.24066187
-0.070169024 0.73190486

a f4 [20, 1]
00000000: b6d9 c83e 847f c1be 1686 053f 1b61 2cbe
00000010: 4842 03bf 1bf2 20bf c24c 423f b479 db3d
00000020: 13c9 3b3f 47ac 4bbf e778 b2be 0760 c23e
00000030: 3236 9a3e 642d 5f3e c79c c1be 4d56 f33d
00000040: 3ed2 52bd 2b31 55be c4b9 a7be ad46 ed3d
0.392286 -0.377926 0.52157724 -0.16833918 -0.5127301 -0.62869424 0.75898373 0.107165724
0.7335369 -0.7955975 -0.34857866 0.37963888 0.30119473 0.21794659 -0.37814924 0.11881695
-0.051470034 -0.20819537 -0.32758915 0.11585746

W f4 [50, 6]
00000000: 39bb 28bd 13a8 4a3c 65bd d43e a193 d73e
00000010: 4ab1 4fbd a7bd 4fbe 6401 a0be 3fc5 593e
00000020: 1b53 e2bc 538f b03e 6077 2e3e 5732 b83e
00000030: ec5c 733e db97 973e ca81 12be 56d6 e4bc
00000040: a929 bd3e d5a3 fcbd 63b5 8a3e 4982 6c3e
00000050: 634d e5bb 7744 c53e 6f45 af3d 8138 ccbe
00000060: 216b 84be 117c b63e 024a c2be 60b9 c5be
00000070: 7e08 7dbe cb51 2dbe 9afd 043e 8afc 59be
00000080: f450 ccbe 88c3 ce3e 33d1 3fbe 66d9 663d
00000090: 44eb 84bd 74fc 4bbe 65b7 0e3e 9bfe b03c
000000a0: a16a 77bd 20b7 af3e 4bfd 9d3e cc78 8dbd
000000b0: 4be8 b9be a3d0 6dbe 7d23 c43d 92a6 04bd
000000c0: 5d19 c83d 0c80 7c3e d260 63bb d385 fcbd
000000d0: b493 d5bd 0ccb 8a3d 6ac0 7e3e 6e16 04be
000000e0: 8a36 18be dfe6 7e3e d666 b73e e6e7 403e
000000f0: 7230 773e 5c5e 37be 1037 cebd cb3b 29be
00000100: 2323 063e 4632 8e3c a267 83be 10e9 b5be
00000110: 7404 7b3d c69e cdbc caa2 443e 337c 78bd
00000120: df8e ac3e 81e6 c8be 46ee adbe 0012 2fbe
00000130: 6cb9 c3be 8921 1a3e 707a 203e 6169 923d
00000140: 11b6 9dbe 3813 303e d460 633c 2296 60be
00000150: 1bbd ef3d bacc b53e fe0e a6bc 8128 3bbd
00000160: 9d4f 5d3e 71f9 95bc 4393 ac3e f29c 803e
00000170: 65da 9e3e 7636 713b f05c 6abe 9f1b d1be
00000180: 5a89 ad3e 2698 f83d ca21 fe3c a645 9abe
00000190: 20e5 4d3c 1b16 7c3e d522 df3d c128 c6be
000001a0: 3c10 88be 5d40 abbd ee2e 743e 2a3f 65be
000001b0: 1b44 70be 57da db3d 6b7d e2be 35b3 debe
000001c0: 109d 343d 0787 95bc 2b95 c73e 8531 0ebe
000001d0: d360 f53e 2d0b d03e 925d a5bd e436 7bbe
000001e0: 870e 61be 089e a9be d54e c13e a458 9ebe
000001f0: 8b1f 89bd 7e92 a23d d923 6c3e 6ec1 dfbe
00000200: 9e0b 9fbe 9195 973e 4ff6 8e3e 8f40 5fbe
00000210: 818a 853e 2c65 bdbe 8c1c 7ebd 38f6 ef3e
00000220: be8a 6fbe b2b7 e0be 71cb bbbe 3555 dcbd
00000230: 090e cdbe e25c 92bd 4e3a a2be 9293 a3be
00000240: 8ed8 3d3e 8862 c63e 12e8 a33e 0261 d8be
00000250: f7f5 91bd 6ee4 99bc 46c0 e7be fd4d 29be
00000260: 0771 eebd 3d88 203e be17 a3be 899a 00be
00000270: 55b8 a13e b223 c43d 069e a6be 2f32 52be
00000280: f580 993d a981 9dbe d107 573e edd4 e1be
00000290: cf58 e33e 0c7d 81be 5bf5 acbc bdef b6be
000002a0: 51ca 61be 3f94 53be b54b ac3e d662 95be
000002b0: 725b 7a3e 9bd1 e03e 4c97 20bb 9ebf b53c
000002c0: 4fae 743e c472 9f3e 8276 ed3e 5559 803e
000002d0: a4d5 a8be fe7b e5bc a8e8 d5be 3ded 91be
000002e0: 1281 9bbe cff7 be3e de2d 423d 54cf b9bd
000002f0: 8443 cd3e 2459 b8bd 1dbe c5be eb87 b3bd
00000300: a13b c63e 5b3d c7be 1a97 de3d bf13 403e
00000310: 3b94 d9be 4f4f e23e 5206 37be e080 4cbe
00000320: 0ab3 d33e b8eb 843e b388 a93e 7135 1a3e
00000330: 5e76 c6be 4089 e1be 5f9c d3bc 0875 e0bd
00000340: 0a60 17bd e924 2d3e 3f73 9f3e bcf8 9fbe
00000350: 8863 dc3d 0d0a a13e 6d9d b1be f847 ee3d
00000360: 7e54 c93e 1089 c73e 265d 6abd 85bd 08bd
00000370: 65ff 46be c820 273d c564 c3bd 6474 94be
00000380: 3286 d43e 640d cfbe ec58 12be e0c7 b2bd
00000390: dd16 c13e bbb7 8fbe d0df dbbe 29be d6be
000003a0: 3cd0 51be bccb 1dbd 3621 d9be aa2b 873d
000003b0: bf1b ccbe 365d b7be 4fc8 913e d31c 2dbe
000003c0: 4ee5 c7be 3ca5 94be 8818 6d3e 19b1 1cbe
000003d0: 7763 993e 086d 603e 407f c9be c07d 72be
000003e0: 850e 003e 185c a4be 3b9b 84bb 1721 cd3e
000003f0: ff9d 903d b3ef 71be 680c 60bd 5add 5dbe
-0.041194174 0.012369174 0.41550747 0.4210482 -0.050706185 -0.2028719 -0.3125106 0.2126665
-0.027627518 0.34484348 0.17037725 0.35975906 0.23765916 0.29608044 -0.14307323 -0.027934235
0.36945847 -0.12335936 0.27091512 0.23096575 -0.0069977506 0.38528797 0.08558165 -0.3988686
-0.25862983 0.3564153 -0.37947088 -0.38617992 -0.24710271 -0.16925733 0.12987366 -0.21287742
-0.39905512 0.40383554 -0.18732147 0.05635967 -0.06490186 -0.19920522 0.13937147 0.02160578
-0.060404424 0.343194 0.3085731 -0.06907806 -0.36310038 -0.2322412 0.09577081 -0.032385416
0.09770463 0.24658221 -0.003469516 -0.123302124 -0.10428563 0.06777009 0.24878088 -0.12899181
-0.14864555 0.24892758 0.35820645 0.18838462 0.24139574 -0.17907089 -0.10069096 -0.16526715
0.13099341 0.017357957 -0.25665003 -0.35529375 0.061283544 -0.025100123 0.19202724 -0.06066532
0.33702752 -0.3923836 -0.3397085 -0.1709671 -0.38227403 0.15051855 0.15671706 0.07149006
-0.30802968 0.17194831 0.013878066 -0.21932271 0.11705991 0.35507756 -0.02027082 -0.045692924
0.21612401 -0.01830742 0.33706102 0.2511974 0.31025997 0.0036806143 -0.22887015 -0.40841386
0.33893853 0.12138395 0.031021971 -0.30131263 0.012566835 0.24617808 0.108953156 -0.38702968
-0.26574886 -0.08361886 0.23846027 -0.22387376 -0.2346348 0.107350044 -0.4423631 -0.434961
0.0440951 -0.018252863 0.38980994 -0.13886078 0.47925434 0.40633526 -0.08074488 -0.24532658
-0.21978198 -0.3312838 0.37755457 -0.30927002 -0.066954695 0.079380974 0.2306055 -0.43702263
-0.3106355 0.29606298 0.27922294 -0.21801971 0.26082233 -0.3699125 -0.062038943 0.46867537
-0.2339277 -0.43890148 -0.3667865 -0.107584395 -0.4004977 -0.07146622 -0.31685108 -0.31948525
0.1853964 0.38747048 0.32012993 -0.4226151 -0.07126992 -0.018785682 -0.4526388 -0.16533656
-0.11642652 0.15676971 -0.3185405 -0.1255895 0.31585947 0.09577121 -0.32542437 -0.20526956
0.074953 -0.30762985 0.20999075 -0.44107762 0.44403693 -0.25290716 -0.021113088 -0.3572978
-0.22049834 -0.2066202 0.3365151 -0.29176968 0.24448946 0.43909916 -0.0024504242 0.022186097
0.23894618 0.31142247 0.46379477 0.25068155 -0.32975495 -0.028013226 -0.41779065 -0.2850131
-0.3037191 0.37298438 0.047407024 -0.09072748 0.40090573 -0.09001377 -0.38621607 -0.08766159
0.38717368 -0.38913998 0.10868664 0.18757533 -0.42495903 0.44201133 -0.17873505 -0.19971037
0.41347533 0.2596109 0.33112106 0.15059449 -0.38762182 -0.44050026 -0.0258314 -0.10959822
-0.036956824 0.16908611 0.31142613 -0.31244457 0.107611716 0.3145298 -0.3469042 0.11634821
0.39322275 0.38971758 -0.05721774 -0.033383865 -0.19433363 0.040802747 -0.09540705 -0.2899505
0.41508633 -0.40439904 -0.14291734 -0.087295294 0.37712756 -0.28069863 -0.42944193 -0.41941956
-0.20489591 -0.038524374 -0.4240815 0.06600125 -0.3986492 -0.35813302 0.28473136 -0.16905527
-0.39042133 -0.29032314 0.23153889 -0.15301932 0.29958698 0.21916592 -0.39354897 -0.23680782
0.12505539 -0.32101512 -0.004046825 0.40064308 0.07061385 -0.23626594 -0.05469933 -0.2166647

a f4 [12, 1]
00000000: 23c3 6d3e 52aa 33bf 57a6 adbe 21a0 68be
00000010: 959d 97be 781d debe cf63 323f b01e 5f3f
00000020: 208e 54be 4eeb 263f c61d 29bf 306c dcbe
0.2321897 -0.70181763 -0.3391597 -0.22717334 -0.29612413 -0.43381858 0.69683546 0.871562
-0.20757341 0.65202796 -0.66061056 -0.4305129
