graph_model/encoder-checkpoint-6-7.pt (torch, 27882 bytes, 36 tensors)

W f4 [5, 10]
0	0x3ea1bb62	0.31588274
1	0x3e99dfb1	0.30053475
2	0xbe170fd0	-0.14752126
3	0x3e92e820	0.28692722
4	0xbeb9732e	-0.36220688
5	0xbf17de52	-0.5932361
6	0xbed625eb	-0.41825804
7	0xbf4d4d88	-0.8019643
8	0x3f18bf93	0.5966732
9	0x3f152fb5	0.5827592
10	0x3ec8b361	0.39199355
11	0x3eb2d72c	0.34929788
12	0x3e095660	0.13411856
13	0x3efed73b	0.49773583
14	0xbf6350cb	-0.88795155
15	0xbf3f9a70	-0.7484503
16	0x3ea65962	0.3249007
17	0x3f1fc8e8	0.62415934
18	0x3e3b28d8	0.182773
19	0xbea8f54c	-0.32999647
20	0x3cac53ee	0.021036115
21	0x3f4ba319	0.7954574
22	0x3ed41823	0.41424665
23	0x3dc8a521	0.09797121
24	0x3efc35a8	0.49259686
25	0x3e353ee5	0.17699774
26	0x3e332d42	0.17497733
27	0xbe27b3f7	-0.16377245
28	0xbf032374	-0.5122597
29	0xbf0aff25	-0.5429557
30	0xbd9c1dbe	-0.0762286
31	0x3eb25997	0.34833977
32	0xbef79fcc	-0.48364103
33	0xbf412738	-0.7545047
34	0x3e0d5129	0.13800491
35	0xbef17d07	-0.471657
36	0xbf16912a	-0.5881525
37	0xbf2738b7	-0.65320915
38	0x3dcc6bef	0.09981524
39	0xbd4523ed	-0.048129965
40	0xbe43650c	-0.19081515
41	0xbe926406	-0.28591937
42	0xbecceeaf	-0.4002585
43	0xbea674f2	-0.32511097
44	0x3f2a97b0	0.66637707
45	0xbe9a2a5a	-0.30110437
46	0x3d28b862	0.041191466
47	0xbf02fd8b	-0.51168126
48	0x3ed4cf7d	0.4156455
49	0x3e0fd586	0.14046296

a f4 [20, 1]
0	0x3f019322	0.5061513
1	0xbee51197	-0.44739982
2	0x3ea38835	0.31939855
3	0x3edbd97c	0.42939365
4	0x3f2e8b96	0.6818174
5	0x3e9966bf	0.29961202
6	0xbe90e768	-0.2830155
7	0x3f128f6e	0.57250106
8	0xbea2226e	-0.31666893
9	0xbd186b86	-0.037211917
10	0xbf22aae4	-0.6354201
11	0xbf2a90c5	-0.6662715
12	0xbea4cf3b	-0.32189354
13	0xbe5d8715	-0.21633561
14	0xbe7c577a	-0.24642745
15	0x3f3c0b7c	0.73455024
16	0x3f0c8675	0.54892665
17	0xbc296c7a	-0.010340804
18	0xbeec163a	-0.46110708
19	0xbc2e5d79	-0.010642403

W f4 [5, 10]
0	0x3ea51f4e	0.32250446
1	0xbf1b38ed	-0.60633737
2	0xbf50ba36	-0.81534135
3	0x3eb9606e	0.36206383
4	0xbd5d0278	-0.053957433
5	0x3ef0a569	0.47001198
6	0xbe9bfac6	-0.30464762
7	0x3dde42a5	0.10852555
8	0x3d896ec1	0.06710578
9	0x3f0dc1ca	0.55373824
10	0x3ee04a31	0.43806604
11	0xbf4fa33a	-0.8110844
12	0x3f334bcd	0.7003754
13	0x3eae97e1	0.3410025
14	0xbe4666a4	-0.19375092
15	0xbf3b3a9a	-0.73136294
16	0x3f04a6a4	0.51816773
17	0xbefa3a65	-0.48872676
18	0xbec1396f	-0.3773913
19	0xbf489124	-0.78346467
20	0x3e0e7781	0.13912775
21	0xbea0a6b9	-0.313772
22	0x3ed0352c	0.40665567
23	0x3f4079b3	0.751857
24	0x3e9f5633	0.31120452
25	0x3ee9ec87	0.4568827
26	0x3f11e56c	0.56990695
27	0xbf283bef	-0.6571645
28	0x3c5d7292	0.013516085
29	0xbedd70a7	-0.4325001
30	0xbd006ed5	-0.031355698
31	0xbe57af37	-0.21062933
32	0x3f505e6f	0.81394094
33	0x3f29d664	0.6634276
34	0xbf5b2e74	-0.85617757
35	0xbeaf3888	-0.34222817
36	0xbf3213ae	-0.6956128
37	0xbd981af2	-0.074270144
38	0x3ec62dd6	0.38706845
39	0x3f59ed3b	0.8512761
40	0xbf2adc08	-0.6674199
41	0x3f25ceff	0.64768976
42	0xbef2eb09	-0.47444943
43	0xbf575adc	-0.84123015
44	0xbeb85f09	-0.36010006
45	0x3f0c799d	0.5487307
46	0x3f37f4e4	0.7185805
47	0x3f585423	0.8450338
48	0xbe774967	-0.24149095
49	0x3d8b578e	0.06803809

a f4 [20, 1]
0	0x3e1603fe	0.1464996
1	0xbef54ddb	-0.47910962
2	0x3da4e861	0.08052135
3	0x3ee15473	0.44009742
4	0x3f32de39	0.69870335
5	0x3e6a798d	0.2289793
6	0xbeee90fb	-0.46594986
7	0xbf026813	-0.50940055
8	0x3f2a860b	0.66610783
9	0xbd2ff7ca	-0.04296092
10	0x3e1ce70f	0.15322517
11	0x3e521342	0.20515159
12	0x3ee1a6b8	0.4407251
13	0x3f2e54a5	0.6809791
14	0x3eab3985	0.3344232
15	0xbd97f27b	-0.07419296
16	0xbedc7960	-0.43061352
17	0xbf26c107	-0.65138286
18	0x3e999c4b	0.30002055
19	0x3da71e92	0.08160128

W f4 [5, 10]
0	0xbf3e9736	-0.7444948
1	0xbf2a2a18	-0.6647048
2	0xbcd3a2b2	-0.025834415
3	0xbe9ca548	-0.3059485
4	0xbe1fa391	-0.1558974
5	0xbf416825	-0.75549537
6	0x3f3e78f2	0.744033
7	0xbe778ca5	-0.24174745
8	0x3ee17ce8	0.44040608
9	0x3d842dc0	0.064540386
10	0x3f3e63fc	0.74371314
11	0xbee46b1b	-0.44612965
12	0xbe722842	-0.2364817
13	0xbf592ce9	-0.8483415
14	0x3f29893b	0.6622502
15	0x3f3cc511	0.737382
16	0x3d855564	0.065104276
17	0x3d22acf5	0.039715726
18	0xbeb98988	-0.3623774
19	0xbf3647fa	-0.7120358
20	0x3ec46e87	0.38365576
21	0xbde6ff8b	-0.1127921
22	0xbf0a686d	-0.5406559
23	0xbf3b457e	-0.7315291
24	0x3d35f9b7	0.0444276
25	0xbf481812	-0.7816173
26	0xbea3e183	-0.3200799
27	0x3e0b3872	0.13595751
28	0x3f08c919	0.5343185
29	0xbe4b982d	-0.19882269
30	0x3f5f1d08	0.87153673
31	0xbf49dde6	-0.78854215
32	0x3f425c48	0.7592206
33	0x3f4b3476	0.79376924
34	0x3eadd2f0	0.33949995
35	0x3d5a4dfe	0.053297035
36	0x3f2ab057	0.66675323
37	0xbcd38d55	-0.025824228
38	0x3f09de10	0.53854465
39	0xbe65f80b	-0.22457902
40	0x3f095e7e	0.5365981
41	0x3f1da396	0.6157774
42	0xbe5a613b	-0.21326153
43	0x3f53be75	0.8271249
44	0x3e8691e7	0.2628319
45	0xbee02e67	-0.43785402
46	0xbecf38b4	-0.4047295
47	0x3e62bd21	0.2214246
48	0xbf2bb7ba	-0.6707722
49	0x3f3ed71f	0.74547

a f4 [20, 1]
0	0x3e0064d5	0.12538464
1	0x3cc5e073	0.024154877
2	0x3e8a8ed9	0.2706211
3	0xbb87c592	-0.0041434253
4	0x3f2bfb0a	0.6717993
5	0xbf13f8bf	-0.5780143
6	0x3ea9875f	0.33111092
7	0xbf011cd6	-0.50434625
8	0xbf03e8bf	-0.5152702
9	0x3e84b71b	0.25920948
10	0x3f3d2c38	0.738956
11	0x3c86ac1c	0.01643949
12	0xbd1881b3	-0.037233066
13	0xbf26f268	-0.6521363
14	0xbecc47da	-0.39898568
15	0xbf3a156b	-0.7268893
16	0xbf003a6c	-0.50089145
17	0xbf308260	-0.68948936
18	0x3f4c0296	0.79691446
19	0xbf175b6b	-0.5912387

W f4 [5, 10]
0	0x3e880917	0.26569435
1	0x3e75001a	0.2392582
2	0x3e9efa21	0.31050208
3	0xbe7a7dc1	-0.24462034
4	0x3dfbda4e	0.12297498
5	0x3f21a5c8	0.6314359
6	0x3e12dd8a	0.14342323
7	0xbf228642	-0.6348611
8	0x3dee61c1	0.11639739
9	0x3f602d7c	0.87569404
10	0xbf07861c	-0.5293901
11	0x3f119e31	0.56882006
12	0xbf25e4c0	-0.6480217
13	0xbf48469b	-0.78232735
14	0xbf38e1c3	-0.72219485
15	0x3db8cd60	0.09023547
16	0x3f41f5d9	0.7576576
17	0xbeab5274	-0.33461344
18	0x3f304472	0.6885444
19	0xbeb89c66	-0.36056823
20	0xbe6ec100	-0.23315811
21	0xbf16cf3f	-0.5890998
22	0x3ea9da75	0.33174482
23	0xbcca244e	-0.024675515
24	0x3f27b815	0.6551526
25	0x3dbe29dd	0.092853285
26	0x3c43f1af	0.011959477
27	0xbe2a78d0	-0.16647649
28	0x3f2da899	0.67835385
29	0x3f5efa71	0.87100893
30	0x3f37fe82	0.71872723
31	0x3e967b26	0.2939083
32	0xbf0add3e	-0.5424384
33	0xbf44ba64	-0.7684691
34	0xbe1a817e	-0.1508846
35	0x3ec2fdbe	0.38084215
36	0x3f4482d3	0.7676212
37	0x3f44ab74	0.76824117
38	0x3ea1a8a6	0.3157398
39	0x3f386313	0.72026175
40	0xbee6b30b	-0.45058474
41	0x3e9ce5c7	0.30644056
42	0xbf20d033	-0.62817687
43	0x3ee7451c	0.45169914
44	0x3f00444b	0.50104207
45	0xbcdbfe9f	-0.026854811
46	0x3edeee57	0.43541214
47	0x3d86d7b0	0.06584108
48	0x3f1a397a	0.6024395
49	0xbf50019d	-0.8125246

a f4 [20, 1]
0	0xbde1d3b9	-0.11026711
1	0x3ebc065b	0.367236
2	0x3f1342cb	0.57523793
3	0xbdd638f2	-0.1046008
4	0x3dd1ecec	0.102502674
5	0x3f1d9046	0.6154827
6	0xbf21bd40	-0.631794
7	0x3eb0b6f7	0.3451459
8	0xbe0c371f	-0.13692902
9	0xbed26bb7	-0.41097805
10	0xbe95d178	-0.29261374
11	0x3f37cb9b	0.7179505
12	0x3e743437	0.23848043
13	0xbf3ed1e5	-0.74539024
14	0xbf3a01cc	-0.7265899
15	0xbe29b6ab	-0.16573589
16	0xbf01b4f1	-0.5066672
17	0x3d63ff1b	0.05566321
18	0x3ed5c10f	0.41748855
19	0xbe529e87	-0.20568286

W f4 [5, 10]
0	0xbf1d4635	-0.6143525
1	0x3e016c7f	0.12639044
2	0xbf64e33a	-0.8940922
3	0xbf56f54b	-0.8396804
4	0x3e9ebff8	0.31005836
5	0xbf1885d4	-0.59579206
6	0x3e6bde81	0.23034097
7	0x3de06790	0.10957253
8	0x3f624cb6	0.883983
9	0xbe2e0c5c	-0.16996902
10	0x3ee34499	0.44388273
11	0x3df2e3bf	0.11859845
12	0xbe6ce6d5	-0.2313493
13	0xbec14aa2	-0.37752253
14	0xbe0fa2b4	-0.1402691
15	0xbf1c4c8a	-0.6105429
16	0x3f3e42b3	0.74320525
17	0x3e824e23	0.2545024
18	0x3f62bd86	0.8857044
19	0x3f2a8cf1	0.6662131
20	0x3f5967e7	0.8492417
21	0x3edb3d09	0.42820004
22	0xbf6f25cc	-0.9341705
23	0x3d9d8ad3	0.07692494
24	0xbf6f98fe	-0.9359282
25	0xbe18ed23	-0.1493421
26	0xbf155126	-0.5832695
27	0x3edbcd96	0.42930287
28	0x3f1a98b7	0.60389274
29	0xbf5fbccb	-0.8739745
30	0x3d06949f	0.03285658
31	0x3f61a2d5	0.88139087
32	0x3f5c0cc9	0.8595701
33	0x3d9d8886	0.076920554
34	0xbf1ba816	-0.60803354
35	0xbedcb171	-0.43104127
36	0x3e2a69a2	0.16641858
37	0x3f5a083e	0.85168827
38	0xbf53edef	-0.8278493
39	0xbf0ab5df	-0.54183763
40	0x3e273b40	0.16331196
41	0x3eedf6b5	0.46477285
42	0x3e96a81b	0.2942513
43	0xbf1599ef	-0.5843801
44	0x3ec64c87	0.3873026
45	0x3f471489	0.7776571
46	0xbe277266	-0.16352233
47	0x3f257ea3	0.6464636
48	0x3e3b61d2	0.18299034
49	0xbe0486c6	-0.12942037

a f4 [20, 1]
0	0x3eed7aff	0.463829
1	0xbe5c1dae	-0.21495697
2	0xbf2d41aa	-0.6767832
3	0x3f0728b5	0.5279649
4	0x3ebba075	0.36645856
5	0xbe44f3e5	-0.19233663
6	0xbef62718	-0.480767
7	0xbee86d8f	-0.45396087
8	0xbf053142	-0.52028286
9	0xbe932af4	-0.28743708
10	0xbf146aed	-0.57975656
11	0x3f4c0e36	0.79709184
12	0xbe780869	-0.24221958
13	0xbe157531	-0.14595486
14	0xbf238320	-0.63871956
15	0xbed7e912	-0.42170006
16	0x3f14e822	0.58166707
17	0xbe4bc447	-0.19899093
18	0xbf04a76c	-0.51817966
19	0xbe3f0551	-0.18654372

W f4 [50, 5]
0	0x3eb66d19	0.3563011
1	0xbdcbcf60	-0.09951663
2	0x3ec38b57	0.38192245
3	0xbe567196	-0.20941767
4	0x3d931781	0.071822174
5	0x3e9d1391	0.3067899
6	0x3e114b8f	0.1418898
7	0xbe1fe39d	-0.15614171
8	0xbd09c009	-0.033630405
9	0xbeca60cb	-0.39526972
10	0xbeadad39	-0.3392122
11	0xbeb96e4c	-0.36216962
12	0xbe1046df	-0.14089535
13	0x3ddc2bea	0.107505634
14	0x3ee33c0e	0.44381756
15	0xbd3e18a1	-0.046410207
16	0x3e8c41d0	0.2739396
17	0x3e9c0787	0.30474493
18	0xbea4681e	-0.32110685
19	0xbdedb99b	-0.11607667
20	0xbdf09380	-0.117468834
21	0x3c534bac	0.01289646
22	0xbdff4913	-0.1246511
23	0x3e9f06ef	0.31059977
24	0xbec45d7b	-0.3835257
25	0xbeafc270	-0.34328032
26	0xbd0b8899	-0.034065817
27	0x3e240f70	0.16021514
28	0x3e476119	0.19470634
29	0xbe1e52b6	-0.15461239
30	0x3ed226a2	0.410451
31	0x3e2caf96	0.16863856
32	0x3eb38c5c	0.35068023
33	0x3d07e07d	0.033173073
34	0x3eacadda	0.33726388
35	0xbdd11f31	-0.102110274
36	0xbeec44d0	-0.4614625
37	0xbd913d42	-0.07091762
38	0xbdd99068	-0.106232464
39	0xbe892c12	-0.26791435
40	0xbec6f1de	-0.38856405
41	0xbb91edc6	-0.0044533936
42	0xbeb47833	-0.35247955
43	0xbecffe13	-0.4062353
44	0x3edd0d3a	0.43174154
45	0xbebb2d35	-0.36557928
46	0xbebf92c4	-0.3741666
47	0x3df8c26c	0.12146458
48	0xbea7ec7c	-0.3279761
49	0xbddc482b	-0.107559524
50	0x3eaa39d4	0.33247244
51	0x3ea6640b	0.32498202
52	0x3eefa1ec	0.46803224
53	0x3c5b97fd	0.013402936
54	0xbcfbb7c8	-0.030727282
55	0x3e58ca6f	0.21170972
56	0x3ece2aff	0.40267178
57	0xbe8375f6	-0.25675935
58	0xbea564cb	-0.3230346
59	0xbe939b21	-0.2882929
60	0x3eb75af9	0.35811594
61	0xbd4c7e7c	-0.049925312
62	0x3ea0ae4b	0.31382975
63	0x3b898d4d	0.0041977526
64	0x3ed3c250	0.41359186
65	0x3e3a0d36	0.18169102
66	0x3e1c9f13	0.15295057
67	0xbdbfd537	-0.093668394
68	0xbd2d046a	-0.042240538
69	0xbede631c	-0.4343499
70	0x3cb1bc39	0.021696197
71	0x3cf1e530	0.02952823
72	0x3dcd37a5	0.10020379
73	0x3ede2bd1	0.43392804
74	0xbe997a1c	-0.29975975
75	0xbe89d5e2	-0.26920992
76	0x3e84ebf7	0.25961277
77	0xbc8562eb	-0.01628252
78	0xbe5228a0	-0.2052331
79	0x3cb1e23e	0.021714326
80	0xbec58c4e	-0.38583606
81	0xbecf1e32	-0.40452725
82	0x3ecd4ddc	0.40098464
83	0xbef271cb	-0.47352442
84	0x3e312a1e	0.17301223
85	0x3db15404	0.08658603
86	0x3ec5ad08	0.38608575
87	0x3eb62c1c	0.35580528
88	0xbeda4e66	-0.42637938
89	0xbca22607	-0.019793523
90	0xbe8c1787	-0.273617
91	0x3e48a304	0.19593436
92	0x3eaa3bb7	0.33248684
93	0xbe5dd1a5	-0.21662004
94	0x3eac9267	0.33705446
95	0xbe94d884	-0.29071438
96	0xbeb5be6b	-0.3549684
97	0x3dcba502	0.09943582
98	0xbc47de32	-0.012198972
99	0xbeb82d84	-0.35972226
100	0x3ea4c0cb	0.3217834
101	0x3e240279	0.16016568
102	0xbed3ea92	-0.413899
103	0x3dc20015	0.09472672
104	0x3e6b84c5	0.22999866
105	0x3c8b4556	0.017000835
106	0x3d91f8df	0.071275465
107	0xbe523666	-0.20528564
108	0x3eba0421	0.36331275
109	0x3d899a3b	0.0671887
110	0xbeaad394	-0.33364546
111	0xbe525463	-0.20540003
112	0x3d2e9c87	0.042629745
113	0xbda74c3e	-0.08168839
114	0xbec08b1d	-0.37606135
115	0x3dbc2285	0.091862716
116	0xbe0ed3a1	-0.13947918
117	0x3d45c9ee	0.04828828
118	0xbee2d7ec	-0.4430536
119	0x3ec9669a	0.3933609
120	0xbd0a5cdd	-0.033779968
121	0xbe801a91	-0.2502027
122	0xbe83e6eb	-0.25762114
123	0x3d906e43	0.07052281
124	0xbca8df44	-0.020614274
125	0xbe028e28	-0.12749541
126	0xbe0c3d1a	-0.13695183
127	0xbe229f33	-0.15881042
128	0xbee0582c	-0.4381727
129	0xbe1450a2	-0.14483884
130	0x3c9a767b	0.018855324
131	0xbed7b115	-0.4212729
132	0xbe89f0fd	-0.26941672
133	0xbeb45694	-0.35222304
134	0x3eeb4561	0.4595137
135	0xbd2c153d	-0.042012442
136	0x3e517ebd	0.20458503
137	0x3d32d621	0.04366124
138	0xbed52814	-0.4163214
139	0xbe35e174	-0.17761785
140	0xbea82bbb	-0.32845864
141	0x3e47a543	0.19496636
142	0xbe997e6a	-0.2997926
143	0x3e01f68e	0.1269171
144	0xbe470b88	-0.19437993
145	0xbeb3adb3	-0.3509346
146	0x3d13ca7c	0.036081776
147	0x3e5412fa	0.20710364
148	0x3ee8e2f1	0.45485643
149	0xbe04477e	-0.12917897
150	0x3e7c2174	0.24622136
151	0x3ebb18e7	0.36542436
152	0xbe8bc80f	-0.2730107
153	0xbe307a74	-0.17234212
154	0xbe006c8b	-0.12541406
155	0xbe8f89ff	-0.2803497
156	0xbef74641	-0.48295787
157	0x3ce15fb3	0.027511453
158	0xbe829ecb	-0.25511774
159	0xbebfabca	-0.37435752
160	0xbe90feb4	-0.28319323
161	0xbe860778	-0.26177573
162	0x3e93886d	0.28815022
163	0xbe3956bf	-0.18099497
164	0xbe59015b	-0.21191923
165	0xbee31da6	-0.44358557
166	0x3ed5ae93	0.41734752
167	0x3ead7019	0.33874586
168	0xbe2a98ac	-0.16659802
169	0xbe71e5e4	-0.23622853
170	0x3e2de3f3	0.16981487
171	0x3e924b59	0.2857311
172	0x3e5bdb80	0.21470451
173	0xbedafaa4	-0.4276935
174	0x3e8ef7e1	0.27923492
175	0xbe527ee9	-0.20556225
176	0xbe86bb00	-0.26314545
177	0xbdba41bc	-0.09094569
178	0xbec5b60d	-0.38615456
179	0x3e3a36ff	0.18185042
180	0xbac6ab26	-0.0015157207
181	0xbe124ada	-0.14286366
182	0xbe9e1d2d	-0.30881634
183	0x3e251b98	0.16123807
184	0xbed2d393	-0.41177043
185	0xbdcac1a3	-0.099002145
186	0xbdef1e71	-0.11675728
187	0x3eb7ede1	0.35923675
188	0x3d5a29a4	0.053262368
189	0xbec5aabf	-0.3860683
190	0x3ea71f2c	0.3264097
191	0x3dde98ca	0.10868986
192	0x3d5135ab	0.051076572
193	0x3ecc6055	0.39917246
194	0xbedf2e04	-0.43589795
195	0x3e898e01	0.26866153
196	0x3e3091bc	0.17243093
197	0x3ea50bf5	0.32235685
198	0x3b7832f7	0.0037872174
199	0xbe8151f7	-0.25257847
200	0x3dd2b6d6	0.102887794
201	0x3e02e632	0.12783125
202	0x3ef12570	0.47098875
203	0x3ec5ff01	0.38671115
204	0x3e9406dc	0.28911483
205	0x3ed8e686	0.42363375
206	0xbe805c39	-0.2507036
207	0x3e040321	0.12891819
208	0x3e48cd19	0.19609489
209	0xbe41af6a	-0.18914571
210	0xbe5c08ec	-0.21487778
211	0xbeac0a85	-0.33601776
212	0x3eaae02d	0.33374158
213	0x3e191e28	0.1495291
214	0x3ebc6bfa	0.3680113
215	0xbef061ce	-0.4694962
216	0xbd909e20	-0.0706141
217	0x3d92eae2	0.071737066
218	0xbeae9819	-0.34100416
219	0xbeebb46a	-0.46036083
220	0x3a4c26f4	0.0007787787
221	0xbe8db452	-0.27676636
222	0x3ec17afa	0.37789136
223	0xbdd63f82	-0.10461332
224	0x3e60373e	0.21896073
225	0xbe07f21b	-0.1327595
226	0xbe6a2c0a	-0.22868362
227	0x3edeb7c5	0.4349958
228	0xbd9d7964	-0.07689169
229	0xbeda5b43	-0.42647752
230	0xbd3d1c20	-0.0461694
231	0x3eab6997	0.33478996
232	0x3eaef29a	0.34169465
233	0x3e430eaa	0.19048563
234	0xbe86b343	-0.2630864
235	0xbeceb991	-0.4037595
236	0xbec8f189	-0.39246777
237	0x3d430438	0.047611445
238	0xbe9e1444	-0.30874836
239	0x3d533a1b	0.051569086
240	0xbe004cd6	-0.1252931
241	0x3e5a729d	0.21332784
242	0x3d8c0716	0.06837289
243	0xbe23b64c	-0.1598751
244	0xbe8b7132	-0.272348
245	0xbe461767	-0.19344865
246	0x3dd4f5f3	0.103984736
247	0x3ebccb23	0.3687373
248	0x3e58945e	0.21150348
249	0xbbd0eb76	-0.0063757254

a f4 [10, 1]
0	0xbe91f80c	-0.28509557
1	0xbf61cdb1	-0.88204485
2	0x3f26cd08	0.651566
3	0xbd9ccb88	-0.07656008
4	0xbf40885b	-0.7520806
5	0xbf4fe69c	-0.81211257
6	0x3f807d52	1.0038245
7	0xbf508131	-0.8144713
8	0xbef309d1	-0.47468427
9	0xbe92a276	-0.28639573

W f4 [5, 10]
0	0xbc82849a	-0.01593237
1	0xbf1cb702	-0.6121675
2	0xbf0384c8	-0.51374483
3	0x3cd11a4c	0.025525235
4	0x3f5d2a9a	0.8639313
5	0x3f55d4e2	0.8352796
6	0x3da2a44e	0.07941495
7	0xbe65a884	-0.22427565
8	0xbe2116a9	-0.157313
9	0x3edde49b	0.43338475
10	0x3ec3c5b6	0.3823678
11	0xbd792f20	-0.060835958
12	0xbeb154cc	-0.34635007
13	0x3f24138c	0.64092326
14	0xbe6a8fd0	-0.22906423
15	0xbf54c1a7	-0.8310799
16	0x3f02258f	0.5083856
17	0xbe19f2a0	-0.1503396
18	0x3bceb4f3	0.006308192
19	0xbf4e3880	-0.8055496
20	0xbe31feaf	-0.1738231
21	0xbed8ede0	-0.42368984
22	0x3f63e6c4	0.89023995
23	0x3f0aca7f	0.54215235
24	0xbd16248b	-0.036655944
25	0x3ef8fd59	0.4863079
26	0x3e5ba0eb	0.21448104
27	0x3f406eb5	0.75168926
28	0x3e9771ad	0.29578915
29	0xbed68db0	-0.41904974
30	0x3f1780f4	0.5918114
31	0xbe87bfd8	-0.26513553
32	0x3dc04049	0.093872614
33	0x3ec4bc1a	0.3842476
34	0x3ef73497	0.4828231
35	0xbf347eed	-0.70506173
36	0x3e2330ce	0.15936586
37	0x3df52051	0.119690545
38	0x3f4b184f	0.79333967
39	0x3de09da2	0.10967566
40	0xbf2cb354	-0.67461133
41	0x3eb59437	0.3546464
42	0x3ed1ec50	0.41000605
43	0x3f63ea92	0.890298
44	0xbe4de35d	-0.20106263
45	0xbf47157d	-0.77767164
46	0xbf123871	-0.5711737
47	0x3e96a866	0.29425353
48	0xbeb6a6f2	-0.35674244
49	0x3f21b518	0.6316695

a f4 [20, 1]
0	0x3e88f98c	0.2675289
1	0xbec419e2	-0.38300997
2	0xbf4347ae	-0.7628125
3	0x3f09838d	0.53716356
4	0xbf41bbf0	-0.75677395
5	0xbddf5e51	-0.10906661
6	0x3f08e8e3	0.53480357
7	0xbbe1cfe4	-0.0068912376
8	0xbe06fab1	-0.13181569
9	0xbf3ef190	-0.74587345
10	0xbf234c1b	-0.63788
11	0xbebd99fb	-0.3703154
12	0x3f28db5f	0.65959734
13	0x3e63c31f	0.22242402
14	0x3e54d65f	0.20784901
15	0x3dd8c376	0.10584156
16	0xbd49b123	-0.049241196
17	0xbeadb5ed	-0.3392786
18	0x3d41558a	0.047200717
19	0xbeb8cf18	-0.360955

W f4 [5, 10]
0	0xbf3af4d6	-0.7302984
1	0xbe04fdcd	-0.12987442
2	0xbec45989	-0.3834956
3	0xbf28f0d5	-0.6599248
4	0xbe8f8e4f	-0.2803826
5	0xbe333595	-0.17500909
6	0x3d24e24e	0.040254883
7	0x3d1c2abf	0.038126703
8	0xbef16c57	-0.4715297
9	0x3ecbaf04	0.39781964
10	0xbe6c97a0	-0.23104715
11	0x3e730c95	0.23735268
12	0x3e91bce0	0.28464413
13	0xbee70f38	-0.45128798
14	0x3ea17196	0.31531972
15	0x3e65b690	0.22432923
16	0x3f2379af	0.6385755
17	0xbf529c4f	-0.8226976
18	0x3ebfc5b5	0.37455526
19	0xbe4e3482	-0.20137218
20	0xbf579bc9	-0.84222084
21	0x3cff3bc3	0.031156426
22	0xbec72fba	-0.389036
23	0x3e0b70bb	0.13617222
24	0xbd661d4a	-0.056180276
25	0xbf1d04e5	-0.61335593
26	0xbf56351a	-0.83674777
27	0xbe87ca65	-0.26521602
28	0x3e8bbf3f	0.27294347
29	0x3f44a9db	0.7682168
30	0xbf4242d8	-0.75883245
31	0xbecfe113	-0.40601406
32	0xbec12e7f	-0.37730786
33	0xbf5c8ba0	-0.8615055
34	0xbf23f9ff	-0.6405334
35	0xbe974c5c	-0.29550445
36	0xbe903dc6	-0.2817213
37	0xbee54aa3	-0.44783506
38	0x3f2711de	0.6526164
39	0x3f2062bf	0.62650675
40	0xbe238525	-0.1596876
41	0xbd6f8712	-0.058478422
42	0x3efc4cfe	0.4927749
43	0xbe7dd9ec	-0.24790162
44	0xbdd947f5	-0.10609428
45	0xbd82a19a	-0.06378479
46	0xbf228c4c	-0.63495326
47	0x3f605e6f	0.87644094
48	0x3d9f972e	0.07792507
49	0x3efa4603	0.4888154

a f4 [20, 1]
0	0xbedaf8da	-0.42767984
1	0xbe7c94f4	-0.24666196
2	0xbcf72a48	-0.030171528
3	0x3d3d71e6	0.0462512
4	0xbc43b28a	-0.0119444225
5	0x3e444766	0.19167861
6	0xbebabb93	-0.36471233
7	0xbf1f9498	-0.6233611
8	0xbf1d428b	-0.6142966
9	0xbf420134	-0.75783086
10	0xbe332fa1	-0.17498638
11	0xbec95e63	-0.39329824
12	0x3edc7adf	0.43062493
13	0xbf1bbfb7	-0.6083941
14	0xbeb85526	-0.36002463
15	0xbeb7be42	-0.35887343
16	0xbe7fd230	-0.24982524
17	0x3f374d5f	0.71602434
18	0x3e3d708f	0.18499969
19	0x3f357fee	0.7089833

W f4 [5, 10]
0	0xbeb04152	-0.34424835
1	0x3f30a644	0.690037
2	0xbd790ce4	-0.06080331
3	0x3e020d50	0.12700391
4	0x3f025f53	0.50926703
5	0x3eff3715	0.49846712
6	0xbf1cfd18	-0.6132369
7	0x3e352c01	0.17692567
8	0x3f3b35fb	0.7312924
9	0xbf33e1a0	-0.7026615
10	0xbe339ce1	-0.17540313
11	0xbf359679	-0.7093273
12	0x3eb39e32	0.3508163
13	0xbf052931	-0.5201598
14	0xbe50e8eb	-0.20401351
15	0xbf320abb	-0.69547623
16	0x3e068431	0.13136365
17	0xbeab2ec3	-0.33434114
18	0xbeacfda6	-0.33787268
19	0xbec42b06	-0.38314074
20	0xbdcc0240	-0.09961367
21	0xbf1a6bd3	-0.60320777
22	0xbd8e8531	-0.06958998
23	0xbe7b4d15	-0.24541123
24	0x3f59e1f2	0.8511039
25	0x3f5e5236	0.86844194
26	0xbf5a42ab	-0.8525798
27	0x3f3d9c29	0.74066406
28	0x3e91c81b	0.2847298
29	0xbdbe3853	-0.09288087
30	0xbedc3336	-0.4300782
31	0x3f2e0eb3	0.6799118
32	0xbec6d255	-0.38832346
33	0xbeb8bcd0	-0.36081553
34	0x3f0a6d57	0.5407309
35	0xbf3ade5a	-0.7299553
36	0xbf4f8eb5	-0.8107713
37	0x3ead5961	0.33857253
38	0xbf02ef81	-0.51146704
39	0x3f24359b	0.64144295
40	0xbf4d11ab	-0.80105084
41	0x3e9007ec	0.28131044
42	0xbf3e4966	-0.7433075
43	0x3efc388a	0.49261886
44	0x3ed7d914	0.42157805
45	0xbe00edef	-0.12590764
46	0x3efb90c7	0.49133894
47	0xbf47570d	-0.77867204
48	0xbefcd3ce	-0.49380344
49	0x3f2a9cfb	0.66645783

a f4 [20, 1]
0	0xbe61a783	-0.22036557
1	0xbf0a7bb8	-0.5409503
2	0x3e518866	0.20462188
3	0x3f0e2c80	0.5553665
4	0x3ebb63dc	0.36599624
5	0x3edd3974	0.43207896
6	0x3e9506ee	0.2910685
7	0x3e7ead50	0.24870801
8	0xbe014cb4	-0.12626916
9	0x3f2dac00	0.67840576
10	0xbd54381c	-0.051811323
11	0xbee8c1ad	-0.45460263
12	0xbd89ec18	-0.067344844
13	0x3ec3ce2e	0.3824324
14	0x3eb28cb2	0.34872967
15	0x3ecbf045	0.3983175
16	0x3df7a0a9	0.1209119
17	0xbef30657	-0.47465774
18	0x3f1ac4bf	0.6045646
19	0x3e0fa8ca	0.14029232

W f4 [5, 10]
0	0x3ce881b1	0.028382154
1	0xbec49c0e	-0.3840031
2	0xbf5f2668	-0.8716798
3	0xbe80f343	-0.25185594
4	0x3cd1cdc3	0.02561081
5	0x3e97a785	0.29619995
6	0x3f3e5863	0.7435362
7	0x3f271cee	0.6527852
8	0xbf30cd1e	-0.69062984
9	0xbef486ff	-0.47759244
10	0xbf30da2f	-0.6908292
11	0x3eab8663	0.33500966
12	0xbd90c48a	-0.07068737
13	0xbf203319	-0.6257797
14	0xbf369c3e	-0.71332157
15	0xbf563303	-0.8367159
16	0x3e6e683b	0.23281948
17	0xbf5036a8	-0.813334
18	0xbe145d26	-0.14488658
19	0x3de7b478	0.113137186
20	0xbe766c72	-0.24064806
21	0x3ec52c84	0.38510525
22	0x3f3e13a7	0.7424874
23	0xbd9ba697	-0.07600134
24	0xbeb398e3	-0.3507758
25	0xbf2b9b59	-0.67033917
26	0x3f520946	0.820454
27	0x3f67591b	0.9037034
28	0x3f3f6a8b	0.74771947
29	0xbdba27a4	-0.09089592
30	0xbeba3e30	-0.3637557
31	0xbf10fa3c	-0.5663183
32	0xbeecce44	-0.46251118
33	0xbef0799e	-0.46967787
34	0xbee31b35	-0.44356695
35	0xbe4b467b	-0.19851105
36	0x3eb7b790	0.35882235
37	0xbf24f784	-0.6444018
38	0x3f44043f	0.7656898
39	0xbf18a55f	-0.59627336
40	0xbef9c73c	-0.48784816
41	0x3f0198bc	0.5062368
42	0xbf066989	-0.52504784
43	0xbe9a2e51	-0.30113462
44	0x3de4e5e1	0.111766584
45	0x3f57f4c0	0.84357834
46	0x3f4490c6	0.76783407
47	0x3f03d0a9	0.51490265
48	0x3f491fe1	0.7856427
49	0xbf5a3aa3	-0.8524572

a f4 [20, 1]
0	0xbe02efb1	-0.12786748
1	0xbf37c5e9	-0.7178636
2	0xbede3ff8	-0.4340818
3	0xbf4045a2	-0.7510625
4	0x3ebb313d	0.36561003
5	0x3f1ad8d7	0.6048712
6	0x3ed653e9	0.41860893
7	0xbf18e282	-0.59720623
8	0x3eb3fd69	0.35154274
9	0x3ee44cbe	0.445898
10	0xbecedbb2	-0.4040199
11	0xbef560e6	-0.4792549
12	0x3dcc1970	0.09965789
13	0x3f29fa7c	0.66397834
14	0xbf32ea34	-0.69888616
15	0xbe982804	-0.2971803
16	0x3e1e026e	0.15430614
17	0xbe9cec9d	-0.30649272
18	0xbf1f5549	-0.6223951
19	0xbd953351	-0.072851785

W f4 [5, 10]
0	0x3f044d6a	0.51680624
1	0x3f4477a6	0.7674507
2	0x3e89dbaa	0.26925403
3	0x3f0a477a	0.54015315
4	0xbf04fc37	-0.5194735
5	0x3e857d9a	0.2607239
6	0x3f234e61	0.6379147
7	0xbe8f6cf0	-0.280128
8	0xbf4267e4	-0.75939775
9	0xbf53b9f4	-0.82705617
10	0xbe933229	-0.28749207
11	0x3f11e287	0.5698628
12	0xbd46b8ba	-0.048516013
13	0xbcada8eb	-0.02119871
14	0xbe7eceff	-0.2488365
15	0xbe19f231	-0.15033795
16	0x3f43e398	0.76519156
17	0xbf245cfc	-0.6420438
18	0x3ece0b38	0.40242934
19	0xbe1782b1	-0.14795949
20	0xbe53ddfa	-0.20690146
21	0xbe2de162	-0.16980508
22	0x3f31178b	0.6917655
23	0xbe92460d	-0.2856907
24	0x3f4fc628	0.8116174
25	0x3ef5032c	0.47853982
26	0xbf4209d4	-0.75796247
27	0x3e4cce88	0.2000066
28	0x3d141049	0.036148343
29	0x3f05033e	0.5195807
30	0xbf0a5b65	-0.54045707
31	0xbf60022e	-0.87503326
32	0xbf66a213	-0.90091056
33	0xbec430ae	-0.3831839
34	0xbf4305cf	-0.7618074
35	0xbf25aa88	-0.64713335
36	0xbe579ff0	-0.21057105
37	0xbe8098ff	-0.25116727
38	0xbf1163ef	-0.5679311
39	0xbf1916e8	-0.5980058
40	0xbe3e37cc	-0.18575972
41	0xbef95c2f	-0.48703143
42	0x3e1dbff3	0.15405254
43	0xbef3d4e7	-0.4762337
44	0xbf062128	-0.5239434
45	0x3f23be66	0.639624
46	0x3ef1ff7e	0.47265238
47	0xbeb584cd	-0.3545288
48	0x3f47ad4f	0.7799882
49	0xbf1e3bc1	-0.6180993

a f4 [20, 1]
0	0x3f25a077	0.64697975
1	0x3e25c3f0	0.16188025
2	0xbeee1868	-0.46502995
3	0x3f3c0cfa	0.734573
4	0xbdd7be83	-0.10534384
5	0xbe97dbca	-0.29659873
6	0x3d144b66	0.036204718
7	0xbd8897b0	-0.06669557
8	0xbd896611	-0.06708921
9	0x3d8a6756	0.06757991
10	0xbf1a9023	-0.60376185
11	0x3eb4fc77	0.35348865
12	0x3dac4b92	0.084128514
13	0xbd58129a	-0.052752115
14	0x3f0d7835	0.55261546
15	0x3f12d839	0.5736118
16	0x3f1005b5	0.5625871
17	0x3ea50c10	0.32235765
18	0xbf050a6d	-0.51969033
19	0x3d86c284	0.0658007

W f4 [50, 5]
0	0x3ecb7996	0.397412
1	0xbeba7763	-0.3641921
2	0x3d8acccc	0.06777343
3	0x3eba9768	0.3644364
4	0x3e8ebe13	0.2787939
5	0x3ecfcced	0.40586033
6	0x3e662be8	0.22477686
7	0xbe837e8c	-0.25682485
8	0x3e41516f	0.1887872
9	0xbdcfb4ca	-0.10141905
10	0xbe08d7b3	-0.13363533
11	0x3dd84b30	0.10561216
12	0xbe93a80d	-0.2883915
13	0xbe93b32a	-0.2884763
14	0x3d29d239	0.04146025
15	0x3ead54a8	0.3385365
16	0x3e2ccfa9	0.16876091
17	0xbe146320	-0.14490938
18	0x3ebf833b	0.37404808
19	0x3eb43b44	0.35201466
20	0xbeaece8b	-0.34141955
21	0x3c80420b	0.015656492
22	0x3e086abf	0.1332197
23	0x3dbee7a6	0.09321527
24	0xbe385f32	-0.18005064
25	0xbda17f8c	-0.07885656
26	0xbe4fc7dc	-0.20291084
27	0x3daf7fa2	0.08569266
28	0xbebb1650	-0.3654046
29	0x3dc2842f	0.09497868
30	0xbe5c7ad2	-0.21531227
31	0x3ed07330	0.4071288
32	0x3df2b3a0	0.11850667
33	0xbe2ed6b4	-0.1707409
34	0xbed776e8	-0.42082906
35	0x3d039d69	0.03213254
36	0x3eac0ac6	0.3360197
37	0xbe0f44f7	-0.13991152
38	0x3e4d0341	0.20020773
39	0xbb058b92	-0.002037738
40	0xbe9f62c1	-0.3113003
41	0x3d65cfb7	0.056106295
42	0x3ebd67dc	0.369933
43	0xbe1a78cf	-0.15085147
44	0x3e93dfac	0.28881586
45	0xbe9db25b	-0.30800137
46	0xbe976227	-0.29567072
47	0xbec9308a	-0.39294845
48	0xbe7cac0d	-0.24675007
49	0x3e0aad3e	0.13542649
50	0xbc64f7fc	-0.01397514
51	0xbe29f90e	-0.16598913
52	0x3e54f11f	0.20795105
53	0xbd7b6b89	-0.06138185
54	0x3e91ba0e	0.2846226
55	0x3ec9e7ff	0.3943481
56	0x3db2e729	0.087354966
57	0x3eb5dc82	0.35519797
58	0x3e196ea5	0.14983614
59	0x3eca993f	0.39570042
60	0xbc14fe2e	-0.009093804
61	0xbe979bac	-0.29610956
62	0x3e616044	0.22009379
63	0x3e90517b	0.28187165
64	0x3e863536	0.26212472
65	0xbea7c597	-0.32767937
66	0xbe1c7d2b	-0.15282123
67	0x3ef1999c	0.47187507
68	0xbed42356	-0.4143321
69	0xbe395fb9	-0.18102922
70	0xbedf9be9	-0.43673638
71	0xbe7d5996	-0.24741206
72	0x3da81b55	0.08208338
73	0x3dc86dde	0.097865805
74	0x3e24d011	0.16094996
75	0x3e9db45f	0.30801675
76	0x3ed74cf2	0.42050892
77	0x3e915520	0.28385258
78	0xbeabba76	-0.33540696
79	0x3c9e240f	0.019304303
80	0x3e42ea51	0.19034697
81	0xbecbe8f5	-0.3982617
82	0xbeee3e29	-0.465318
83	0x3dc21ef4	0.0947856
84	0x3ea3c1c5	0.31983772
85	0x3e8a54cc	0.2701782
86	0xbe928526	-0.2861721
87	0x3eb21fcd	0.34789887
88	0x3e893c06	0.26803607
89	0x3e6df59a	0.23238221
90	0x3e71e062	0.23620752
91	0x3d2531db	0.04033075
92	0x3de45e8a	0.111508444
93	0xbde7434a	-0.11292131
94	0x3e3f8ee7	0.18706857
95	0xbdbad8d9	-0.09123392
96	0xbd48c83b	-0.04901908
97	0xbc026515	-0.00795867
98	0x3e98c637	0.29838726
99	0x3cd0b4d7	0.025476856
100	0xbdf255d5	-0.118327774
101	0xbed6b24a	-0.419329
102	0xbe03e140	-0.12878895
103	0x3e347e40	0.17626286
104	0x3b962301	0.0045818095
105	0xbe5e1990	-0.21689439
106	0x3ee01e43	0.43773088
107	0x3d5e6bdf	0.054302093
108	0x3ec22044	0.37915242
109	0xbd1d29f9	-0.038370106
110	0x3d8dd005	0.06924442
111	0xbeb6c785	-0.35699096
112	0xbe63f5ff	-0.22261809
113	0xbe89da2e	-0.2692427
114	0xbea71369	-0.32631996
115	0xbec4e9c6	-0.38459605
116	0xbe87d872	-0.26532322
117	0xbeb611fe	-0.35560602
118	0x3ec60674	0.38676798
119	0xbe2edadd	-0.17075677
120	0xbbd795f5	-0.0065791556
121	0xbbebfc06	-0.0072016744
122	0xbd3818f7	-0.044945683
123	0x3e5b63cd	0.2142479
124	0x3e071563	0.13191752
125	0x3ec4d6af	0.3844504
126	0x3d72bf0d	0.05926423
127	0xbee750d1	-0.45178846
128	0x3e1aeca6	0.15129337
129	0xbd3e6fc3	-0.046493303
130	0xbef85998	-0.48505855
131	0x3e872fef	0.26403758
132	0x3d4789ca	0.04871539
133	0x3e2fc7b7	0.17166029
134	0x3c99f0a9	0.018791514
135	0x3c315c22	0.010825189
136	0xbbcd94a8	-0.0062738247
137	0xbecdde45	-0.4020864
138	0x3ea50951	0.3223367
139	0xbd590a9d	-0.052988637
140	0x3e54c48b	0.207781
141	0xbede4531	-0.43412164
142	0xbd328b3c	-0.043589815
143	0x3d6c76e6	0.057730578
144	0xbe297379	-0.16547956
145	0xbeb4235e	-0.35183233
146	0xbed468c3	-0.41486177
147	0x3e00bc5b	0.12571852
148	0x3e9ea145	0.30982414
149	0x3eb46a95	0.35237566
150	0x3df8e0ae	0.12152229
151	0xbebb98b1	-0.36639932
152	0x3d00754c	0.031361863
153	0x3ed755b7	0.42057583
154	0xbe808f89	-0.2510951
155	0xbec7919a	-0.38978273
156	0xbdfa40ee	-0.122194156
157	0x3d39c638	0.04535505
158	0x3e28a027	0.16467343
159	0xbe1f2afb	-0.1554374
160	0x3df81eb4	0.12115231
161	0x3c879912	0.016552482
162	0x3ddb9433	0.10721626
163	0x3e77e6a0	0.2420907
164	0x3e9688ec	0.29401338
165	0x3e650faa	0.22369257
166	0xbe39e408	-0.18153393
167	0x3ea6a90f	0.32550856
168	0x3d8c09f8	0.06837839
169	0x3da60c30	0.08107793
170	0x3ee14f99	0.4400604
171	0xbabd5215	-0.0014444018
172	0xbd3525f7	-0.04422566
173	0x3dcd39d6	0.10020797
174	0x3dc986b1	0.098401435
175	0x3eba1082	0.3634072
176	0xbea6bfa7	-0.32568094
177	0xbe92d099	-0.28674772
178	0xbeb01117	-0.3438804
179	0x3ec5a9b2	0.3860603
180	0xbec5a3a6	-0.38601416
181	0x3c3dd0fb	0.011585469
182	0x3e0413f9	0.12898244
183	0x3d164b07	0.036692645
184	0x3e8fd79a	0.28094178
185	0xbdc6da8e	-0.09709655
186	0x3d7d9e98	0.061918825
187	0x3d96453f	0.073374264
188	0xbeb47c2b	-0.35250983
189	0xbe17f4e9	-0.1483952
190	0x3ef288a7	0.47369882
191	0xbe0f28f2	-0.13980463
192	0x3ec4aefb	0.3841475
193	0x3d816892	0.06318773
194	0xbe2497c6	-0.16073522
195	0xbef1e98f	-0.47248504
196	0x3de1e6e7	0.11030369
197	0xbea03a55	-0.31294504
198	0xbb9928a7	-0.0046740356
199	0xbedd94cc	-0.43277586
200	0x3e5207da	0.20510808
201	0x3ec7e75d	0.39043704
202	0xbd16a097	-0.036774244
203	0x3e24a93a	0.1608018
204	0x3e921649	0.28532627
205	0xbd91578e	-0.07096778
206	0x3da13996	0.07872312
207	0xbdaef953	-0.085436486
208	0x3e366a6c	0.17814034
209	0xbed28bdf	-0.41122338
210	0xbdd27e49	-0.10277993
211	0x3e3e2bc9	0.1857139
212	0x3e7a2bc4	0.24430758
213	0x3ed47bdc	0.41500747
214	0xbd84bb84	-0.06481078
215	0xbee28112	-0.44239098
216	0xbdfe22f7	-0.12409013
217	0xbe845772	-0.25847965
218	0xbe49fb01	-0.19724657
219	0xbe6bbb02	-0.23020557
220	0x3e515472	0.2044237
221	0xbd5e58d7	-0.054283943
222	0x3eb123a5	0.34597507
223	0x3e2dc9ac	0.16971463
224	0x3e6ef85e	0.23336932
225	0x3de6fd21	0.11278749
226	0xbeb0298c	-0.34406698
227	0xbe8a083d	-0.2695941
228	0x3cca7622	0.024714533
229	0x3dd56c91	0.10421098
230	0x3ecc1b69	0.39864662
231	0x3e5e2078	0.21692073
232	0xbe1eb458	-0.15498483
233	0xbea34532	-0.3188873
234	0x3ee97030	0.45593405
235	0x3e46db4e	0.19419596
236	0xbe14b770	-0.14523101
237	0x3e9c00f2	0.3046947
238	0x3de19897	0.11015432
239	0x3ea65037	0.32483074
240	0x3d8b7d6d	0.068110324
241	0x3ec2ae81	0.3802376
242	0xbeb3a501	-0.35086825
243	0xbe993569	-0.2992356
244	0xbdb96584	-0.09052566
245	0xbe92d49c	-0.28677833
246	0x3e9f05ab	0.31059012
247	0xbdfe3b7f	-0.12413692
248	0x3eaf0acb	0.34187922
249	0xbe03920a	-0.12848678

a f4 [10, 1]
0	0xbe7d7c1d	-0.24754377
1	0x3e80af77	0.2513387
2	0xbdd7173b	-0.10502478
3	0xbf20619c	-0.6264894
4	0x3f5f6fa4	0.87279725
5	0xbec66d4c	-0.38755262
6	0x3eac13ff	0.33609006
7	0x3f71023d	0.9414404
8	0x3ee8f280	0.45497513
9	0xbf4d10d3	-0.80103797

W f4 [5, 10]
0	0xbeac11a1	-0.336072
1	0x3f0cebc8	0.55047274
2	0x3df32f8a	0.11874302
3	0x3f54c116	0.83107126
4	0x3f59db1d	0.85099965
5	0xbf5f6ac1	-0.8727227
6	0xbe433b94	-0.19065696
7	0xbecb9970	-0.397655
8	0xbe4d446b	-0.2004563
9	0xbec526f3	-0.38506278
10	0xbf62e136	-0.88624895
11	0x3ef16780	0.47149277
12	0x3f503b08	0.81340075
13	0xbe00dc05	-0.12583931
14	0xbee8a7a3	-0.45440397
15	0xbf549a5c	-0.83048034
16	0x3effd0e8	0.4996407
17	0xbe672479	-0.22572507
18	0x3dfc5133	0.12320175
19	0xbef4e26f	-0.47829005
20	0x3f4fbf8e	0.81151664
21	0x3d32fc73	0.043697786
22	0xbeb1aa18	-0.34700084
23	0xbf143d92	-0.5790645
24	0xbef7c541	-0.4839268
25	0xbe076657	-0.13222633
26	0x3d0e1eff	0.03469753
27	0x3efe13cc	0.4962448
28	0x3ea986a2	0.3311053
29	0xbe8e7bc0	-0.2782879
30	0xbed2c48c	-0.41165578
31	0x3f2be5c4	0.6714747
32	0x3ea0a897	0.31378624
33	0x3c978037	0.018493755
34	0x3f4e71c7	0.8064236
35	0x3e2cc057	0.16870247
36	0xbf0bf396	-0.5466856
37	0xbe461462	-0.19343713
38	0xbebd65b4	-0.36991656
39	0x3ed89f03	0.42308816
40	0xbedfe3c1	-0.4372845
41	0xbdde6eb8	-0.10860962
42	0xbf1627c1	-0.5865441
43	0x3d98117b	0.07425209
44	0x3e2ee876	0.17080864
45	0xbecdfb55	-0.40230814
46	0x3ee2bef9	0.44286326
47	0x3f4fe51a	0.81208956
48	0xbedbc93c	-0.42926967
49	0x3eab0569	0.33402565

a f4 [20, 1]
0	0x3eeb89e5	0.46003643
1	0xbe9242db	-0.28566632
2	0x3e89a38a	0.26882583
3	0x3ecafba2	0.39645106
4	0x3efc9cd6	0.49338406
5	0x3ec74e49	0.38926914
6	0xbe3bfcdf	-0.18358181
7	0x3e87c72b	0.2651914
8	0x3e928607	0.2861788
9	0x3f30c0d7	0.6904425
10	0x3d8eab34	0.06966248
11	0x3f18bbcc	0.59661555
12	0xbf04f1ad	-0.5193127
13	0xbecba326	-0.3977291
14	0x3e1e55da	0.15462437
15	0xbf2fbc9e	-0.6864718
16	0xbe3da919	-0.18521537
17	0x3be9212d	0.0071145506
18	0x3f28a143	0.65871066
19	0xbf1ddc66	-0.61664426

W f4 [5, 10]
0	0x3d332a07	0.043741252
1	0xbeff7ea3	-0.49901304
2	0x3ed28a7c	0.4112128
3	0xbf006391	-0.50151926
4	0x3bc144e2	0.005898104
5	0x3e097ef6	0.13427338
6	0x3f11601c	0.56787276
7	0xbef417f2	-0.4767452
8	0xbed3f563	-0.41398153
9	0x3e0fe248	0.14051163
10	0xbe1b65ea	-0.15175596
11	0xbecb09a1	-0.39655784
12	0xbe319b10	-0.17344308
13	0xbf01985e	-0.5062312
14	0xbf11b604	-0.5691836
15	0xbda43c18	-0.080192745
16	0xbea15836	-0.31512612
17	0xbe702ca9	-0.23454536
18	0x3e0de38c	0.13856333
19	0x3ef80c30	0.48446798
20	0x3f210cc0	0.6291008
21	0x3ed44c24	0.4146434
22	0xbf654f0a	-0.8957373
23	0x3ea5bec9	0.3237212
24	0x3e68344a	0.22676197
25	0xbea9ece8	-0.33188558
26	0x3f536e69	0.8259035
27	0x3f4506b9	0.7696338
28	0xbf442b0a	-0.7662817
29	0xbeeb0b06	-0.45906848
30	0x3eebe7fd	0.4607543
31	0x3e9d6643	0.30742082
32	0xbf13c7c8	-0.57726717
33	0xbeb51cb8	-0.35373473
34	0x3eba94ba	0.36441594
35	0x3de8fd21	0.113764055
36	0x3f266e78	0.6501231
37	0xbf64f04c	-0.89429164
38	0x3f402cfd	0.75068647
39	0x3e8f068d	0.27934685
40	0xbf07733a	-0.52910197
41	0x3ebe1e3e	0.37132448
42	0xbef7d74a	-0.4840644
43	0xbe808f81	-0.25109485
44	0x3f395123	0.7238943
45	0xbe7c4cc8	-0.24638665
46	0x3de0a6fb	0.10969349
47	0x3f135f5f	0.575674
48	0x3f5e20e1	0.8676892
49	0xbeda6493	-0.42654857

a f4 [20, 1]
0	0x3f0f27ef	0.5592031
1	0xbf23b915	-0.6395429
2	0x3f3b86e4	0.732527
3	0x3eeb3fdd	0.4594716
4	0x3f0ec8be	0.5577506
5	0x3c437635	0.011930038
6	0x3f262d01	0.6491242
7	0xbd1c675e	-0.038184516
8	0xbf03d09d	-0.51490194
9	0x3d4bc679	0.049749825
10	0xbece79b5	-0.4032723
11	0x3e42b544	0.1901446
12	0x3ec2e76e	0.38067192
13	0x3edaefbd	0.4276103
14	0x3e58d1f7	0.21173845
15	0xbf2aa1e6	-0.6665329
16	0x3f125f13	0.5717632
17	0xbd1a0419	-0.037601564
18	0x3e229e57	0.15880714
19	0xbe49d3cb	-0.19709699

W f4 [5, 10]
0	0xbf1e7b0c	-0.61906505
1	0x3f220a2c	0.6329677
2	0x3eb61b11	0.35567525
3	0x3f1c24c2	0.6099359
4	0x3f3c45f7	0.7354426
5	0x3d9ecc26	0.07753782
6	0x3f030b74	0.5118935
7	0x3f013425	0.5047019
8	0xbf2e69f3	-0.68130416
9	0xbf59d7bd	-0.85094815
10	0xbf41d03d	-0.7570837
11	0x3e8c2650	0.2737298
12	0x3c2793a8	0.010228075
13	0x3ed4cb23	0.4156123
14	0xbf30e67d	-0.691017
15	0x3f19e43e	0.60113895
16	0xbf223d1f	-0.63374513
17	0x3e04261f	0.12905167
18	0x3e983b8a	0.29732925
19	0xbf59543b	-0.8489415
20	0x3f13d267	0.57742923
21	0xbf184f11	-0.59495646
22	0x3ebf4397	0.37356254
23	0xbc1aa660	-0.009439081
24	0xbe151105	-0.14557274
25	0xbe2cd3cc	-0.16877669
26	0xbebdeba7	-0.3709385
27	0xbf481639	-0.7815891
28	0x3f5a9e88	0.8539815
29	0x3e6d009e	0.23144767
30	0x3ed8c00b	0.42334017
31	0xbf19dcaa	-0.6010233
32	0x3ea89684	0.32927334
33	0x3f0872c3	0.5330011
34	0x3e25c57b	0.16188614
35	0x3f3860ca	0.7202269
36	0x3e4f9856	0.20272955
37	0xbe263116	-0.16229662
38	0xbf5721ad	-0.8403576
39	0x3e644a1e	0.22293898
40	0x3f013e7c	0.5048597
41	0x3f3becd1	0.7340823
42	0xbf464a60	-0.7745724
43	0xbf04c946	-0.5186962
44	0x3f04e9d5	0.519193
45	0x3e914f6f	0.28380916
46	0x3f60471a	0.8760849
47	0xbe45d1d2	-0.19318321
48	0x3ec07c23	0.3759471
49	0xbca4f67c	-0.020137064

a f4 [20, 1]
0	0xbe4f3578	-0.2023524
1	0xbf0fdf32	-0.56199944
2	0xbf1471df	-0.57986253
3	0x3ea8bb67	0.32955477
4	0xbee8938a	-0.45425063
5	0xbde03c31	-0.109489806
6	0x3eb590f2	0.35462147
7	0xbdc8981b	-0.09794637
8	0x3f3cc4fb	0.7373807
9	0x3cb6d880	0.022320032
10	0x3f0f030b	0.5586402
11	0xbdeb20b3	-0.11480846
12	0x3da44ae2	0.08022095
13	0x3eeb3358	0.4593761
14	0xbf2dde0b	-0.67916936
15	0x3f18e522	0.5972463
16	0xbf0c0ed9	-0.54710156
17	0x3ee3aec0	0.4446926
18	0xbf1d8dbd	-0.615444
19	0xbdf84784	-0.121230155

W f4 [5, 10]
0	0x3f544de1	0.82931334
1	0x3f3818dd	0.7191294
2	0x3ebf648d	0.37381402
3	0xbf002815	-0.5006116
4	0xbf1649c6	-0.5870632
5	0xbe946ebe	-0.2899074
6	0xbf4561a8	-0.77102137
7	0x3f0fb2ce	0.5613221
8	0x3e94b9aa	0.290479
9	0x3ee9528f	0.455708
10	0x390fa0a0	0.0001369738
11	0xbebb7df3	-0.3661953
12	0xbe9bae5b	-0.3040646
13	0x3f555e58	0.8334708
14	0xbdd547e7	-0.10414105
15	0x3f167627	0.58774036
16	0x3e2a9489	0.16658224
17	0xbf1b2910	-0.6060953
18	0xbebd51ed	-0.36976567
19	0x3ec329dd	0.38117877
20	0x3d6d8ccb	0.0579956
21	0xbf515b5a	-0.81780016
22	0xbeb0f4f5	-0.34561887
23	0x3ebec434	0.37259066
24	0x3efb34ed	0.49063817
25	0xbeac867a	-0.33696347
26	0xbf6317b1	-0.88708025
27	0xbe42bf40	-0.19018269
28	0x3f2c3bbd	0.67278653
29	0x3ea2f6e8	0.31829
30	0xbf5c0f4e	-0.85960853
31	0x3ef60c4d	0.4805626
32	0x3f5b3803	0.8563234
33	0xbf1a35bc	-0.6023824
34	0x3f457b99	0.7714172
35	0xbf07f726	-0.53111494
36	0x3f0cae3a	0.5495335
37	0xbf51eae8	-0.81999063
38	0x3f24635a	0.642141
39	0x3e4c20a3	0.19934325
40	0x3d1200eb	0.035645407
41	0xbf3256e6	-0.69663846
42	0x3dc6ebfe	0.09712981
43	0x3ed0ebe1	0.4080496
44	0xbf109f4c	-0.5649307
45	0x3f3c6d5e	0.7360438
46	0xbe6bd447	-0.23030196
47	0xbf4326fc	-0.7623136
48	0x3f12f251	0.57400995
49	0xbf5ca8ec	-0.86195254

a f4 [20, 1]
0	0x3e3f063f	0.18654726
1	0xbcd92463	-0.026506608
2	0xbf33d8ae	-0.702525
3	0xbf1c4eb8	-0.61057615
4	0xbd8f0437	-0.06983226
5	0x3e3db2eb	0.18525283
6	0x3f02a99e	0.51040065
7	0x3ebfa538	0.3743074
8	0xbedb4307	-0.42824575
9	0x3e47d05f	0.19513081
10	0xbf1c0ce3	-0.60957164
11	0xbf20849a	-0.62702334
12	0xbdaed6cb	-0.08537062
13	0x3f069689	0.5257345
14	0x3f1aee7f	0.60520166
15	0xbf3e71cb	-0.74392384
16	0xbf2d9063	-0.6779844
17	0xbf3b046e	-0.73053634
18	0xbe280f5a	-0.16412106
19	0xbf3852ea	-0.72001517

W f4 [5, 10]
0	0x3f46fc7d	0.77729017
1	0x3f2cae22	0.67453206
2	0x3f1b105e	0.6057185
3	0xbed9fa74	-0.42573893
4	0x3e040d02	0.12895587
5	0xbef7e30a	-0.48415405
6	0x3e965555	0.29361978
7	0x3e7780b5	0.24170192
8	0x3f537567	0.82601017
9	0xbf47b50e	-0.7801064
10	0x3e440f3e	0.1914644
11	0xbe8926e2	-0.26787478
12	0xbf0ce5d3	-0.55038184
13	0xbe58e997	-0.21182857
14	0xbbacb739	-0.0052708653
15	0x3ed74359	0.4204357
16	0xbf2aa43d	-0.6665686
17	0x3e575f52	0.21032456
18	0x3f109a69	0.5648561
19	0x3f2f3e46	0.68454397
20	0x3f3908a3	0.72278804
21	0xbf4fca20	-0.81167793
22	0x3eda985d	0.4269437
23	0xbf3e795a	-0.7440392
24	0xbea7f62b	-0.32805
25	0x3f0ec3ef	0.5576772
26	0xbf3ae21e	-0.7300128
27	0x3d2b9b9f	0.04189646
28	0xbde63f66	-0.11242561
29	0x3e69649c	0.22792286
30	0x3f1e656e	0.6187352
31	0xbf503b7d	-0.8134077
32	0xbb9fefdf	-0.00488089
33	0x3ea51a1a	0.32246476
34	0x3f4dfeb4	0.8046677
35	0x3f550636	0.832126
36	0xbd1ba887	-0.038002517
37	0x3e9d6ec0	0.30748558
38	0xbeb2eb22	-0.34945017
39	0x3e535348	0.20637238
40	0x3eefe40f	0.46853682
41	0x3ec76f50	0.38952112
42	0x3e92d5ed	0.28678837
43	0xbeaa936e	-0.33315605
44	0xbf4b8c7a	-0.79511225
45	0x3ec5cabd	0.3863124
46	0x3c10b408	0.008831985
47	0xbe7b68f4	-0.24551755
48	0xbd82147d	-0.06351564
49	0x3f3c5ec1	0.73582083

a f4 [20, 1]
0	0x3ed6eee6	0.4197914
1	0xbecc9000	-0.39953613
2	0x3f0ecab2	0.5577804
3	0xbe48408e	-0.19555876
4	0xbefdaa4d	-0.49543992
5	0xbf1c3c34	-0.6102936
6	0x3f3c13ea	0.73467886
7	0x3e082cd8	0.13298357
8	0x3f404e25	0.7511924
9	0xbf4ce904	-0.80043054
10	0xbeb0c3d8	-0.34524417
11	0x3ec4fef4	0.38475764
12	0x3e9ffc37	0.31247112
13	0x3e5de206	0.21668252
14	0xbec2b88b	-0.3803142
15	0x3dedfc2b	0.11620363
16	0xbd47b356	-0.048755012
17	0xbe56c542	-0.20973685
18	0xbea4f519	-0.32218245
19	0x3dea6571	0.1144513

W f4 [50, 6]
0	0xbd201ecb	-0.039091866
1	0x3d080efd	0.03321742
2	0x3ed50be9	0.4161065
3	0x3ed82cd2	0.42221695
4	0x3b2d3a83	0.002643258
5	0xbe5319cc	-0.2061531
6	0xbe9f0f48	-0.31066346
7	0x3e5c008d	0.21484585
8	0xbd09b605	-0.033620853
9	0x3eb0528f	0.34437987
10	0x3e1f1a00	0.15537262
11	0x3eb6c847	0.35699674
12	0x3e7bd2ad	0.24592085
13	0x3e96824c	0.29396284
14	0xbe1576b6	-0.14596066
15	0xbd128d8e	-0.03577953
16	0x3ec9b92b	0.39399084
17	0xbe03bf75	-0.12866004
18	0x3e897ea0	0.2685442
19	0x3e5d9aba	0.21641055
20	0xba6f8d1b	-0.0009138153
21	0x3eb9ecc1	0.3631344
22	0x3dda7ff0	0.106689334
23	0xbecb4572	-0.3970142
24	0xbe8295db	-0.25504956
25	0x3eb6f192	0.3573118
26	0xbec259b0	-0.3795905
27	0xbec991ce	-0.39369053
28	0xbe75e7dc	-0.24014229
29	0xbe2db20f	-0.16962455
30	0x3e005181	0.12531091
31	0xbe675d26	-0.22594127
32	0xbecc75ff	-0.39933774
33	0x3ecee29f	0.40407273
34	0xbe1e4d61	-0.15459205
35	0x3d79132b	0.060809296
36	0xbd8f47b2	-0.06996097
37	0xbe46aae0	-0.19401121
38	0x3e0fc04b	0.14038198
39	0x3ceb4082	0.028717283
40	0xbd9a9133	-0.07547226
41	0x3ead342b	0.33828864
42	0x3ea093f4	0.3136288
43	0xbca4a16d	-0.020096505
44	0xbebc1d53	-0.36741123
45	0xbe6a9e73	-0.22912006
46	0x3dcfb348	0.10141617
47	0xbd238835	-0.03992482
48	0x3dc27d1e	0.094965205
49	0x3e832bbd	0.25619307
50	0xbb2828bf	-0.0025659052
51	0xbdfc2468	-0.123116314
52	0xbd9f02ea	-0.07764228
53	0x3d8cc08c	0.06872663
54	0x3e7f0ea2	0.24907926
55	0xbdf1efef	-0.11813342
56	0xbe1cf238	-0.15326774
57	0x3e7cd379	0.24690045
58	0x3ece7b17	0.40328285
59	0x3e41347b	0.18867676
60	0x3e806361	0.2507582
61	0xbe2e2e3e	-0.17009827
62	0xbdcb57b0	-0.099288344
63	0xbe2b9dd3	-0.16759424
64	0x3e391a01	0.18076326
65	0x3c421830	0.011846587
66	0xbe829993	-0.25507793
67	0xbeb38c4e	-0.3506798
68	0x3d64296b	0.05570356
69	0xbcd1b0fa	-0.025597084
70	0x3e82c0db	0.25537762
71	0xbd813d92	-0.06310572
72	0x3eacaa56	0.33723706
73	0xbebae633	-0.36503753
74	0xbeae2891	-0.34015325
75	0xbe2bfff5	-0.16796859
76	0xbebe12e7	-0.37123796
77	0x3e1d4461	0.15358116
78	0x3e1c865d	0.1528563
79	0x3da5862d	0.080822326
80	0xbe9d915c	-0.30774963
81	0x3e330d5d	0.17485566
82	0x3d8ba233	0.068180464
83	0xbe615dd1	-0.22008444
84	0x3df00f3d	0.117216565
85	0x3eb8d92c	0.3610319
86	0xbcd55459	-0.026041197
87	0xbd3ee2c1	-0.046602968
88	0x3e772713	0.24136
89	0xbcbb00bc	-0.022827499
90	0x3eafad6e	0.34312004
91	0x3e8ec73c	0.2788638
92	0x3ea00fa1	0.31261924
93	0x3bf5e392	0.007503935
94	0xbe632e56	-0.22185645
95	0xbed31bce	-0.4123215
96	0x3eade804	0.33966076
97	0x3e014c7a	0.1262683
98	0x3cc96297	0.024583144
99	0xbe995364	-0.29946434
100	0x3aa7c664	0.0012800214
101	0x3e76e556	0.24110922
102	0x3dd974b2	0.10617961
103	0xbebe3f72	-0.3715778
104	0xbe87be64	-0.26512444
105	0xbda43d41	-0.08019496
106	0x3e828a15	0.25495973
107	0xbe682f99	-0.22674407
108	0xbe6e0d12	-0.23247173
109	0x3dcc76d0	0.09983599
110	0xbee42ff9	-0.4456785
111	0xbee6ddd6	-0.45091122
112	0x3d993acf	0.0748192
113	0xbc9eafd7	-0.019370956
114	0x3ecb7185	0.39735046
115	0xbe00af99	-0.12566985
116	0x3efb6c3d	0.49106017
117	0x3ecde83f	0.40216252
118	0xbd9e4c61	-0.07729412
119	0xbe81fb4e	-0.25387043
120	0xbe642e57	-0.22283302
121	0xbea678cb	-0.32514033
122	0x3ebf955a	0.37418634
123	0xbe9ec010	-0.31005907
124	0xbd0922a3	-0.033480298
125	0x3da4de4b	0.080502115
126	0x3e70f7f6	0.2353209
127	0xbedc416a	-0.43018657
128	0xbea1dfbc	-0.31616008
129	0x3e99a524	0.30008805
130	0x3e82763a	0.25480825
131	0xbe610788	-0.21975529
132	0x3e89848b	0.26858935
133	0xbeb52060	-0.35376263
134	0xbd89120f	-0.066928975
135	0x3eef3945	0.4672338
136	0xbe4e5c97	-0.20152508
137	0xbee1cecc	-0.44103086
138	0xbeb8fc0d	-0.361298
139	0xbdd8cd2f	-0.10586011
140	0xbecbd172	-0.39808232
141	0xbd984069	-0.0743416
142	0xbe978fe3	-0.29601964
143	0xbea5c8d0	-0.3237977
144	0x3e3fbae6	0.1872364
145	0x3ec8e936	0.39240426
146	0x3ea24c3c	0.31698787
147	0xbed752b5	-0.42055288
148	0xbd933fd6	-0.0718991
149	0xbc9e67bd	-0.019336576
150	0xbee72ae1	-0.45149902
151	0xbe213984	-0.15744597
152	0xbdfdc4af	-0.1239103
153	0x3e259602	0.16170505
154	0xbeac729b	-0.33681187
155	0xbe0412bd	-0.12897773
156	0x3ea2df4b	0.31810984
157	0x3ddd21c8	0.10797459
158	0xbea994e6	-0.33121413
159	0xbe49c3b6	-0.19703564
160	0x3d9a4bab	0.07533964
161	0xbe9e1a12	-0.30879265
162	0x3e567b54	0.20945483
163	0xbee00d37	-0.43760082
164	0x3ee4a242	0.44655043
165	0xbe7c9023	-0.24664359
166	0xbc307620	-0.010770351
167	0xbeb673da	-0.35635263
168	0xbe54e905	-0.20792015
169	0xbe3bceeb	-0.18340652
170	0x3eaedcd8	0.34152865
171	0xbe9648af	-0.29352328
172	0x3e7de982	0.24796107
173	0x3ede3ce6	0.43405837
174	0xbbfa5160	-0.007639095
175	0xbad5fc7d	-0.0016325858
176	0x3e6ddf94	0.2322982
177	0x3e9f3a79	0.310993
178	0x3f06928f	0.5256738
179	0x3e80fad3	0.25191364
180	0xbeaaf7f5	-0.333923
181	0xbd1b41c8	-0.03790453
182	0xbed35497	-0.41275474
183	0xbe9282f7	-0.28615543
184	0xbe9cb9a9	-0.30610397
185	0x3ebf3eaa	0.37352496
186	0x3d46653a	0.04843638
187	0xbd80b8b3	-0.062852286
188	0x3eccff73	0.40038642
189	0xbda0510d	-0.07827959
190	0xbed0c099	-0.4077194
191	0xbdb10f5b	-0.08645507
192	0x3ec9e0cc	0.3942932
193	0xbebb6a35	-0.36604467
194	0x3dc577d5	0.09641997
195	0x3e568b2d	0.20951529
196	0xbee2505f	-0.44201943
197	0x3ee02152	0.4377542
198	0xbe359002	-0.17730716
199	0xbe452ac8	-0.19254601
200	0x3ed6de6f	0.41966578
201	0x3e863a7a	0.2621649
202	0x3e9f532e	0.3111815
203	0x3e11f997	0.14255367
204	0xbec45a99	-0.3835037
205	0xbecb24b4	-0.3967644
206	0xbceb16a2	-0.028697316
207	0xbdd980fd	-0.10620306
208	0x3c4d9036	0.01254659
209	0x3e2be723	0.1678739
210	0x3ea12119	0.31470564
211	0xbe99af73	-0.3001667
212	0x3dd31bc4	0.1030803
213	0x3ea9ce01	0.3316498
214	0xbeb89491	-0.36050847
215	0x3dd4b595	0.103861965
216	0x3ec92f19	0.39293745
217	0x3eda6d14	0.42661345
218	0xbd6892f2	-0.056780763
219	0xbcf1a002	-0.029495243
220	0xbe273924	-0.16330391
221	0x3d26cebd	0.040724505
222	0xbdc8b700	-0.098005295
223	0xbe8b40c0	-0.27197838
224	0x3ed5bfed	0.4174799
225	0xbecdbb57	-0.4018199
226	0xbdf06442	-0.11737873
227	0xbdaf18c8	-0.085496485
228	0x3ebf3750	0.37346888
229	0xbe9393d5	-0.28823724
230	0xbee327c7	-0.44366285
231	0xbed31e94	-0.41234267
232	0xbe4b5682	-0.19857219
233	0xbd2009c3	-0.03907181
234	0xbecefe3a	-0.40428334
235	0x3dd07ee8	0.101804554
236	0xbecbc50a	-0.39798766
237	0xbeb8c63b	-0.36088738
238	0x3e9699ea	0.29414302
239	0xbe426080	-0.18982124
240	0xbec7c1bc	-0.39014995
241	0xbe922bf2	-0.28549153
242	0x3e644180	0.22290611
243	0xbe1721d1	-0.14758994
244	0x3e8e397b	0.2777823
245	0x3e5a439b	0.21314852
246	0xbec84d19	-0.3912132
247	0xbe6d28c1	-0.23160078
248	0x3e0226af	0.12710069
249	0xbea525b8	-0.3225534
250	0xbbe25a5b	-0.006907744
251	0x3ecdd733	0.40203246
252	0x3d9a70b2	0.07541026
253	0xbe6361fd	-0.22205348
254	0xbd800589	-0.06251056
255	0xbe5acb45	-0.21366604

a f4 [12, 1]
0	0x3e705312	0.23469189
1	0xbf315b09	-0.69279534
2	0xbeabaed2	-0.33531815
3	0xbe5d02ec	-0.21583146
4	0xbe97eb9f	-0.29671952
5	0xbee00c1f	-0.43759248
6	0x3f39977d	0.7249678
7	0x3f583d90	0.84468937
8	0xbe32edba	-0.17473498
9	0x3f22509e	0.6340426
10	0xbf2ec2fd	-0.6826628
11	0xbee9bab7	-0.45650265
