graph_model/encoder-checkpoint-6-2.pt (torch, 27882 bytes, 36 tensors)

W f4 [5, 10]
0	0x3e9c5876	0.3053624
1	0x3e9bfd72	0.304668
2	0xbe15d0b6	-0.14630398
3	0x3e8e997c	0.27851474
4	0xbeb902d8	-0.36134982
5	0xbf19350c	-0.5984657
6	0xbed8179e	-0.42205518
7	0xbf4d8620	-0.80282784
8	0x3f1943c0	0.59869003
9	0x3f14d88b	0.5814292
10	0x3ec11d5d	0.37717715
11	0x3eb49c9b	0.3527573
12	0x3e0e10f5	0.13873656
13	0x3ef9c9c0	0.48786736
14	0xbf616b1b	-0.88054055
15	0xbf402e8e	-0.75071037
16	0x3ea1d0f9	0.31604746
17	0x3f1f8dd5	0.62325794
18	0x3e4509cc	0.19242018
19	0xbeadb801	-0.33929446
20	0x3c37fa20	0.011229068
21	0x3f4ccd57	0.80000824
22	0x3ed6d824	0.41961777
23	0x3db4631f	0.08807968
24	0x3effb528	0.499429
25	0x3e32c13a	0.17456523
26	0x3e2e86bc	0.17043585
27	0xbe294e69	-0.16533817
28	0xbf0048d1	-0.5011111
29	0xbf0bcd64	-0.54610276
30	0xbdb6cfdc	-0.08926365
31	0x3eb58b62	0.35457903
32	0xbef4921b	-0.4776772
33	0xbf42e6f1	-0.7613364
34	0x3e17bdd4	0.14818507
35	0xbef34720	-0.47515202
36	0xbf19a504	-0.6001742
37	0xbf26c27e	-0.6514052
38	0x3dd4a9c4	0.10383943
39	0xbd6702d8	-0.056399196
40	0xbe516173	-0.2044733
41	0xbe903b5a	-0.28170282
42	0xbecaf75a	-0.3964184
43	0xbeab5666	-0.33464354
44	0x3f2c7e77	0.6738047
45	0xbe9c0e6b	-0.3047975
46	0x3cf596d7	0.029979153
47	0xbf027b1a	-0.5096909
48	0x3ed7acb2	0.42123944
49	0x3e08275a	0.13296261

a f4 [20, 1]
0	0x3ef7e656	0.4841792
1	0xbeeb1c28	-0.4591992
2	0x3e9d1635	0.30681005
3	0x3ed28d3a	0.41123372
4	0x3f2be2c6	0.67142904
5	0x3e922dca	0.2855056
6	0xbe9761a3	-0.29566678
7	0x3f14aa91	0.58072764
8	0xbe9be373	-0.30446967
9	0xbcce4a69	-0.025181966
10	0xbf220635	-0.6329072
11	0xbf2cdfdd	-0.6752909
12	0xbea88433	-0.3291336
13	0xbe5db77f	-0.2165203
14	0xbe83448a	-0.2563823
15	0x3f3aa14d	0.72902375
16	0x3f0b0acb	0.54313344
17	0x3b9a4f6d	0.0047091753
18	0xbee7faa1	-0.45308402
19	0xbaeaa0d5	-0.0017900715

W f4 [5, 10]
0	0x3e9f1687	0.31071874
1	0xbf19a2e2	-0.60014164
2	0xbf53b453	-0.8269703
3	0x3ebe810e	0.37207836
4	0xbd6411a1	-0.055680875
5	0x3ef1c65f	0.47221658
6	0xbea0f19e	-0.3143434
7	0x3ddbbf7f	0.10729884
8	0x3d7a880d	0.061164904
9	0x3f0b0fac	0.5432079
10	0x3ed90d18	0.42392802
11	0xbf4f4750	-0.8096819
12	0x3f31d21e	0.6946124
13	0x3eb102e0	0.34572506
14	0xbe44a366	-0.19202957
15	0xbf3b858d	-0.7325066
16	0x3f0269c7	0.50942653
17	0xbefd3452	-0.4945398
18	0xbec37255	-0.38173166
19	0xbf4adeb9	-0.792461
20	0x3df6803e	0.12036179
21	0xbe9f966a	-0.31169444
22	0x3ecce44e	0.40017933
23	0x3f41dedb	0.75730675
24	0x3e9e2d54	0.30893958
25	0x3ee9045c	0.45511138
26	0x3f0f5e3b	0.5600316
27	0xbf2dec8a	-0.67939055
28	0x3c077d57	0.008269629
29	0xbedf6c25	-0.43637195
30	0xbd625cea	-0.05526439
31	0xbe541c2b	-0.2071387
32	0x3f4c2523	0.79744166
33	0x3f2a5fad	0.6655224
34	0xbf5c2069	-0.85986954
35	0xbeabff76	-0.3359334
36	0xbf33f977	-0.7030253
37	0xbd53ae47	-0.051679876
38	0x3ec23dd6	0.37937802
39	0x3f57e03c	0.8432653
40	0xbf2e432a	-0.68071234
41	0x3f26c91d	0.65150625
42	0xbef58a98	-0.479573
43	0xbf56857e	-0.8379744
44	0xbeb709c3	-0.35749635
45	0x3f0c1ea4	0.54734254
46	0x3f35f2e0	0.7107372
47	0x3f566af8	0.8375697
48	0xbe7c6b04	-0.24650198
49	0x3d5f4f77	0.054519143

a f4 [20, 1]
0	0x3e0791d7	0.13239227
1	0xbeef2e1d	-0.4671487
2	0x3dc7bfb4	0.09753361
3	0x3edf6970	0.4363513
4	0x3f2e583f	0.681034
5	0x3e71fc83	0.23631482
6	0xbee9a4e4	-0.45633614
7	0xbf00674d	-0.50157624
8	0x3f2b104e	0.66821754
9	0xbd107e0e	-0.035276465
10	0x3e363a13	0.17795591
11	0x3e38245d	0.17982621
12	0x3ee03077	0.43786976
13	0x3f32f74b	0.6990859
14	0x3ec21039	0.37903002
15	0xbd5090a9	-0.05091921
16	0xbecf9f71	-0.40551332
17	0xbf2e1997	-0.68007797
18	0x3e8b5f29	0.2722104
19	0x3d3c32dd	0.045946945

W f4 [5, 10]
0	0xbf3c619a	-0.7358643
1	0xbf2869cc	-0.65786433
2	0xbcd2d6cb	-0.025737187
3	0xbe9801ad	-0.2968878
4	0xbe19f5b8	-0.1503514
5	0xbf3fbe44	-0.748997
6	0x3f3ece31	0.74533373
7	0xbe7443a2	-0.23853925
8	0x3ee59bbe	0.44845384
9	0x3d7a3adc	0.06109129
10	0x3f3ff3de	0.74981487
11	0xbede6d8e	-0.4344296
12	0xbe778dd6	-0.241752
13	0xbf5ccd4b	-0.8625075
14	0x3f2aca58	0.66715
15	0x3f381a61	0.7191525
16	0x3d780fd5	0.060561974
17	0x3cfe8e92	0.031073842
18	0xbeb7cb32	-0.35897213
19	0xbf374885	-0.7159503
20	0x3ec8390e	0.3910603
21	0xbdd56915	-0.104204334
22	0xbf09adb0	-0.5378065
23	0xbf3636dd	-0.71177465
24	0x3d54a97c	0.051919445
25	0xbf43bf3b	-0.7646367
26	0xbea213b7	-0.31655666
27	0x3e04330d	0.129101
28	0x3f08b58b	0.5340201
29	0xbe4bb62c	-0.19893712
30	0x3f612e59	0.87961346
31	0xbf47cf3f	-0.7805061
32	0x3f425e64	0.7592528
33	0x3f4f5bab	0.8099925
34	0x3eb4a58d	0.35282555
35	0x3dabb7d6	0.08384673
36	0x3f2bcdab	0.671107
37	0xbcdc2e52	-0.026877556
38	0x3f0b2f2d	0.5436886
39	0xbe5a378c	-0.21310252
40	0x3f0adbe7	0.54241794
41	0x3f20531d	0.6262682
42	0xbe609e85	-0.2193547
43	0x3f53d3d5	0.82745105
44	0x3e89eeae	0.2693991
45	0xbedd0e40	-0.43174934
46	0xbeccba6d	-0.39985982
47	0x3e5c5ecb	0.21520536
48	0xbf2aadc6	-0.6667141
49	0x3f3e676a	0.7437655

a f4 [20, 1]
0	0x3e01b60b	0.126671
1	0x3cbafd4a	0.022825856
2	0x3e89e992	0.26936013
3	0xbbb41eb7	-0.0054968256
4	0x3f2c3fb3	0.672847
5	0xbf144e9e	-0.5793246
6	0x3ea8e5f6	0.32987946
7	0xbf00c3a7	-0.5029854
8	0xbf039146	-0.51393545
9	0x3e83fdd7	0.25779602
10	0x3f35e628	0.71054316
11	0x3d34bde4	0.044126406
12	0xbd529b8c	-0.051417872
13	0xbf280333	-0.6562988
14	0xbedb8115	-0.4287192
15	0xbf348342	-0.70512784
16	0xbf0692d1	-0.52567774
17	0xbf351fc3	-0.7075159
18	0x3f45cacf	0.77262586
19	0xbf12a0e3	-0.57276744

W f4 [5, 10]
0	0x3e88fe47	0.26756498
1	0x3e741c81	0.23838998
2	0x3e99ff2e	0.300775
3	0xbe7e6814	-0.2484439
4	0x3df2298a	0.11824329
5	0x3f21aa9d	0.6315096
6	0x3e1995aa	0.14998499
7	0xbf24e090	-0.64405155
8	0x3df2f29d	0.11862681
9	0x3f5cf1d4	0.863065
10	0xbf074c11	-0.52850443
11	0x3f10a17a	0.56496394
12	0xbf288fd0	-0.6584444
13	0xbf49c7dd	-0.7882059
14	0xbf3bb8d7	-0.7332892
15	0x3db351a5	0.08755807
16	0x3f43a50f	0.76423734
17	0xbeb2d14f	-0.34925315
18	0x3f30c971	0.69057375
19	0xbec19cf1	-0.3781505
20	0xbe69eb87	-0.22843753
21	0xbf175d8f	-0.59127134
22	0x3ea263ab	0.31716666
23	0xbcf7599b	-0.030194094
24	0x3f254854	0.6456349
25	0x3db1ef4d	0.08688221
26	0x3c8fa177	0.017533047
27	0xbe2e18a7	-0.17001592
28	0x3f2e5bb3	0.6810867
29	0x3f5bbef5	0.8583825
30	0x3f3a4d2c	0.72774005
31	0x3e90cc54	0.2828089
32	0xbf0d350f	-0.55159086
33	0xbf459105	-0.7717441
34	0xbe20c9df	-0.15702008
35	0x3ec1f250	0.37880182
36	0x3f46be26	0.77633893
37	0x3f4229f1	0.7584525
38	0x3ea25662	0.3170653
39	0x3f34a568	0.7056489
40	0xbee0481d	-0.43805018
41	0x3e982b0a	0.29720336
42	0xbf235cb2	-0.63813317
43	0x3ee48fe0	0.44641018
44	0x3efc9c02	0.49337775
45	0xbce4849e	-0.027895268
46	0x3ee20fc0	0.4415264
47	0x3d3c8fd5	0.046035606
48	0x3f1b190b	0.6058509
49	0xbf531bd5	-0.82464343

a f4 [20, 1]
0	0xbd94d789	-0.072676726
1	0x3ecd19de	0.40058798
2	0x3f0cb3aa	0.54961646
3	0xbe1383b6	-0.14405712
4	0x3d945ca1	0.0724423
5	0x3f24f8f7	0.6444239
6	0xbf171a63	-0.5902464
7	0x3eb3b9aa	0.35102588
8	0xbdc858e2	-0.09782578
9	0xbec2b4d0	-0.38028574
10	0xbe967ab3	-0.29390487
11	0x3f3853c3	0.7200281
12	0x3e72d819	0.23715247
13	0xbf3790af	-0.71705145
14	0xbf3a72ca	-0.72831404
15	0xbe2ef384	-0.17085081
16	0xbf0724b9	-0.5279041
17	0x3d5e6c3e	0.054302447
18	0x3ed4a482	0.4153176
19	0xbe55e321	-0.20887424

W f4 [5, 10]
0	0xbf1d45d0	-0.6143465
1	0x3de9100d	0.113800146
2	0xbf5ee8e0	-0.8707409
3	0xbf57c479	-0.8428417
4	0x3ebde166	0.37086028
5	0xbf15645b	-0.58356255
6	0x3e3272cf	0.17426609
7	0x3dda007a	0.10644622
8	0x3f63b260	0.88944054
9	0xbe16ebd0	-0.14738393
10	0x3ee14de4	0.44004738
11	0x3deab978	0.114611566
12	0xbe6ba244	-0.23011118
13	0xbec2a782	-0.38018423
14	0xbde61cef	-0.112359874
15	0xbf1d17c9	-0.6136442
16	0x3f353098	0.70777273
17	0x3e80d2f9	0.2516096
18	0x3f6214b6	0.8831285
19	0x3f29a9e1	0.6627484
20	0x3f5997f5	0.84997493
21	0x3ed8189e	0.4220628
22	0xbf68d7ad	-0.90954095
23	0x3d93a9e8	0.072101414
24	0xbf64b01b	-0.89331216
25	0xbe0a231b	-0.13489954
26	0xbf1ff085	-0.6247638
27	0x3ed90355	0.42385355
28	0x3f1a7811	0.60339457
29	0xbf57c21e	-0.84280574
30	0x3ccc88a5	0.024967501
31	0x3f5efc7d	0.87104017
32	0x3f5e051f	0.86726564
33	0x3d97288c	0.073807806
34	0xbf182f84	-0.59447503
35	0xbedb993a	-0.4289034
36	0x3e13c9ed	0.14432497
37	0x3f5969bd	0.8492697
38	0xbf53ad75	-0.8268655
39	0xbf0965f3	-0.5367119
40	0x3e148e83	0.14507489
41	0x3eef9b13	0.46798
42	0x3e910c54	0.28329718
43	0xbf16b7a7	-0.5887398
44	0x3ebb59a8	0.3659184
45	0x3f42dd59	0.76119
46	0xbe2974c5	-0.1654845
47	0x3f23f5ea	0.6404711
48	0x3e32a0f0	0.17444205
49	0xbe18a046	-0.1490489

a f4 [20, 1]
0	0x3eee4270	0.46535063
1	0xbe5a3661	-0.21309806
2	0xbf2da4fc	-0.6782987
3	0x3f056b60	0.52116966
4	0x3ebafff0	0.3652339
5	0xbe43348d	-0.19063015
6	0xbef6f1a3	-0.4823123
7	0xbee7613c	-0.4519137
8	0xbf04b7ce	-0.51842964
9	0xbe93f8af	-0.28900668
10	0xbf1e3ca5	-0.61811286
11	0x3f421e73	0.7582771
12	0xbe4fb7e3	-0.20284991
13	0xbe3c5340	-0.18391132
14	0xbf196ef3	-0.5993492
15	0xbec0edc2	-0.37681395
16	0x3f1e7e2a	0.6191126
17	0xbe731448	-0.23738205
18	0xbf0e9276	-0.5569223
19	0xbe16aeec	-0.14715165

W f4 [50, 5]
0	0x3eb6ea57	0.35725662
1	0xbdca6e01	-0.09884263
2	0x3ebfc559	0.37455252
3	0xbe58b346	-0.21162137
4	0x3d8e721d	0.06955359
5	0x3e9e2d52	0.30893952
6	0x3e0ff733	0.14059143
7	0xbe2a353b	-0.16621868
8	0xbcf65e9c	-0.03007441
9	0xbec9166f	-0.39274928
10	0xbeacd40f	-0.33755538
11	0xbeb9b916	-0.36274022
12	0xbe1dbfd1	-0.15405203
13	0x3df0404d	0.117310144
14	0x3ee52c59	0.44760397
15	0xbd1b4126	-0.037903927
16	0x3e8bca43	0.2730275
17	0x3e944014	0.28955138
18	0xbea09e93	-0.31370983
19	0xbde0efed	-0.10983262
20	0xbdeb7edd	-0.114988066
21	0x3c634b84	0.013872985
22	0xbe0f76d9	-0.1401018
23	0x3e9efac0	0.31050682
24	0xbec34591	-0.38139012
25	0xbeaf6e0c	-0.34263647
26	0xbd0fcc66	-0.03510704
27	0x3e17732a	0.14790025
28	0x3e4de558	0.20107019
29	0xbe204f80	-0.15655327
30	0x3ed442d9	0.4145725
31	0x3e2c2173	0.16809635
32	0x3ead474c	0.33843458
33	0x3d11cdf6	0.03559681
34	0x3eafaf5e	0.34313482
35	0xbdd8031e	-0.105474696
36	0xbeec5442	-0.46158034
37	0xbd7229f3	-0.059122037
38	0xbddc7218	-0.10763949
39	0xbe889145	-0.26673332
40	0xbec7eb81	-0.39046863
41	0xbb8dc550	-0.0043265
42	0xbeadd638	-0.33952498
43	0xbed32ffd	-0.4124755
44	0x3edd2449	0.43191746
45	0xbebd4168	-0.36963964
46	0xbebf9457	-0.37417862
47	0x3e09b3b0	0.13447452
48	0xbea8d123	-0.3297206
49	0xbdc7a8d2	-0.09748997
50	0x3ead39d6	0.33833188
51	0x3ea4af19	0.3216484
52	0x3ee10ce2	0.4395514
53	0x3c99be3c	0.018767469
54	0xbcf8f71d	-0.03039127
55	0x3e54a6bf	0.20766734
56	0x3ecedab5	0.40401235
57	0xbe7c758e	-0.24654219
58	0xbea73670	-0.3265872
59	0xbe92aeb4	-0.28648913
60	0x3eb83a9b	0.35982212
61	0xbd4de465	-0.050266642
62	0x3e9953bf	0.29946706
63	0xba70a18b	-0.0009179345
64	0x3ecf9277	0.4054143
65	0x3e3b1759	0.18270625
66	0x3e1a7400	0.15083313
67	0xbde1331d	-0.10996077
68	0xbd246a7b	-0.04014061
69	0xbede53fd	-0.43423453
70	0x3cc65831	0.024211975
71	0x3cfc4f50	0.030799538
72	0x3da9d721	0.08292986
73	0x3ede849e	0.43460554
74	0xbe9d0904	-0.3067094
75	0xbe88d855	-0.26727548
76	0x3e843232	0.25819546
77	0xbceabc29	-0.028654175
78	0xbe4f3e81	-0.20238687
79	0x3c7afd70	0.015319213
80	0xbec25f65	-0.37963405
81	0xbed0151c	-0.40641105
82	0x3ec5d2b9	0.3863733
83	0xbef12383	-0.47097406
84	0x3e2ff579	0.17183484
85	0x3da6ce51	0.081448205
86	0x3ec741c9	0.38917378
87	0x3ebaf965	0.36518398
88	0xbedaed16	-0.42759007
89	0xbca19ca2	-0.019728009
90	0xbe8bb7dc	-0.2728871
91	0x3e3ff195	0.187445
92	0x3ea64281	0.32472613
93	0xbe640243	-0.22266488
94	0x3ea7d208	0.3277743
95	0xbe95a526	-0.2922756
96	0xbeb562df	-0.35426995
97	0x3de3b61b	0.11118718
98	0xbca1b162	-0.019737903
99	0xbeb8bb60	-0.36080456
100	0x3ea7fa88	0.32808328
101	0x3e20ae10	0.156914
102	0xbed7fff3	-0.4218746
103	0x3dc78110	0.097414136
104	0x3e6e2ab9	0.23258485
105	0x3c463827	0.012098349
106	0x3d9386f0	0.07203472
107	0xbe44fae3	-0.1923633
108	0x3eb78916	0.35846776
109	0x3d8bbad4	0.06822744
110	0xbeac8de9	-0.3370202
111	0xbe4df7f0	-0.20114112
112	0x3d52764b	0.051382344
113	0xbdb1fdc3	-0.08690979
114	0xbec1aaeb	-0.37825713
115	0x3db39994	0.08769527
116	0xbe0d7a93	-0.1381629
117	0x3d71cd1e	0.059033506
118	0xbee539a7	-0.44770548
119	0x3eca6233	0.39528045
120	0xbcf8121c	-0.030282073
121	0xbe814b1f	-0.25252625
122	0xbe87fd0c	-0.26560247
123	0x3d925e20	0.07146859
124	0xbca1364c	-0.019679211
125	0xbe056029	-0.13024963
126	0xbe0c43f6	-0.136978
127	0xbe154c9e	-0.14580008
128	0xbee1f0bd	-0.4412898
129	0xbe138c4b	-0.14408986
130	0x3c7a026f	0.015259369
131	0xbed68c8b	-0.419041
132	0xbe82fa56	-0.25581616
133	0xbeb5c491	-0.3550153
134	0x3eea851d	0.45804682
135	0xbd08c508	-0.03339103
136	0x3e4e9eba	0.20177737
137	0x3cab46ab	0.02090772
138	0xbed1f4cf	-0.41007087
139	0xbe2fdadd	-0.17173333
140	0xbea3f80b	-0.3202518
141	0x3e433825	0.19064386
142	0xbea20fa7	-0.31652567
143	0x3e06bde6	0.13158378
144	0xbe409ff1	-0.18811013
145	0xbeb679a7	-0.35639688
146	0x3d1e83d1	0.03869993
147	0x3e5f95aa	0.21834436
148	0x3ee59bd8	0.44845462
149	0xbe065c4f	-0.1312115
150	0x3e794dfb	0.24346153
151	0x3ebae2de	0.3650121
152	0xbe85998e	-0.26093715
153	0xbe38490e	-0.17996618
154	0xbdff0a60	-0.12453151
155	0xbe9144c1	-0.28372768
156	0xbef73e2b	-0.48289618
157	0x3d0fa4cf	0.035069283
158	0xbe83e1f9	-0.2575834
159	0xbebe5d5a	-0.37180597
160	0xbe8eb923	-0.27875623
161	0xbe859520	-0.26090336
162	0x3e8ac84b	0.27105936
163	0xbe32b87a	-0.17453185
164	0xbe5368b8	-0.20645416
165	0xbee4a984	-0.4466058
166	0x3ed5897c	0.41706455
167	0x3eb1e717	0.3474662
168	0xbe2eb7be	-0.1706228
169	0xbe709aff	-0.23496626
170	0x3e30088c	0.1719076
171	0x3e920abb	0.28523812
172	0x3e4e325d	0.201364
173	0xbed5c9f0	-0.4175563
174	0x3e8ed4be	0.27896684
175	0xbe4efb02	-0.2021294
176	0xbe86138f	-0.26186797
177	0xbdceef2f	-0.101042144
178	0xbec34a1e	-0.38142484
179	0x3e3a98e5	0.18222387
180	0x3a9fdb05	0.001219601
181	0xbe11e40b	-0.14247148
182	0xbea25396	-0.31704396
183	0x3e2615fd	0.16219325
184	0xbed4437e	-0.41457742
185	0xbdcca022	-0.099914804
186	0xbdf2ef01	-0.118619926
187	0x3ebc603a	0.36792165
188	0x3d63f34e	0.055651955
189	0xbec4025e	-0.38283056
190	0x3ea837e1	0.32855132
191	0x3de34e37	0.11098903
192	0x3d057d3c	0.032590136
193	0x3ecd30a2	0.40076166
194	0xbee1c23a	-0.44093496
195	0x3e8a95a7	0.270673
196	0x3e31b8f9	0.17355718
197	0x3ea03562	0.31290728
198	0x3c3f52d1	0.01167746
199	0xbe816128	-0.25269437
200	0x3de2d02d	0.11074863
201	0x3e019d75	0.12657721
202	0x3eeabf09	0.45848873
203	0x3ec892b0	0.39174414
204	0x3e97a914	0.29621184
205	0x3edad90d	0.42743722
206	0xbe7b0000	-0.24511719
207	0x3de93741	0.11387492
208	0x3e48b284	0.19599348
209	0xbe4bc530	-0.1989944
210	0xbe5d757e	-0.21626851
211	0xbeabf7cc	-0.33587492
212	0x3eafedce	0.34361118
213	0x3e14116f	0.14459775
214	0x3ebe9717	0.37224647
215	0xbeed8608	-0.4639132
216	0xbd94cbec	-0.072654575
217	0x3d744a15	0.059640963
218	0xbeac3ef7	-0.33641788
219	0xbeea47cd	-0.45757905
220	0x39fa0ef1	0.00047694848
221	0xbe8d1cf7	-0.2756116
222	0x3ec6a307	0.38796255
223	0xbde0251e	-0.109445795
224	0x3e61a324	0.2203489
225	0xbe0daa5e	-0.13834521
226	0xbe69cee3	-0.22832827
227	0x3ee6bd03	0.4506608
228	0xbda8eef1	-0.082486995
229	0xbed90701	-0.42388156
230	0xbd4e1805	-0.050315876
231	0x3eac1b2a	0.33614475
232	0x3eb3d775	0.35125318
233	0x3e3d5af4	0.18491727
234	0xbe8565b1	-0.26054147
235	0xbecc4b47	-0.39901182
236	0xbec955a6	-0.39323157
237	0x3d15cf60	0.03657472
238	0xbe9c8c9c	-0.30576026
239	0x3d633a85	0.05547573
240	0xbdf57d2b	-0.119867645
241	0x3e57cfb8	0.21075332
242	0x3d68f27a	0.05687187
243	0xbe203818	-0.15646398
244	0xbe88f727	-0.26751062
245	0xbe49cf14	-0.197079
246	0x3dd506cb	0.10401686
247	0x3ec38550	0.38187647
248	0x3e51d78b	0.2049238
249	0xbb83e3d0	-0.00402496

a f4 [10, 1]
0	0xbe8cb8db	-0.27484784
1	0xbf5f9a43	-0.8734476
2	0x3f22c7a2	0.63585865
3	0xbda6a6cc	-0.08137283
4	0xbf4451c5	-0.7668727
5	0xbf4dc878	-0.80384016
6	0x3f803ad6	1.0017955
7	0xbf54c29d	-0.83109456
8	0xbeedcfe8	-0.46447682
9	0xbe99130b	-0.2989734

W f4 [5, 10]
0	0x3b8a6a76	0.004224117
1	0xbf1b2fac	-0.60619617
2	0xbf05ba2d	-0.52237207
3	0x3d194a56	0.037424408
4	0x3f5dcc50	0.8663988
5	0x3f518958	0.81850195
6	0x3d683346	0.056689523
7	0xbe5fc265	-0.218515
8	0xbe20bc94	-0.15696937
9	0x3ed5a3b4	0.41726458
10	0x3ec4833f	0.38381383
11	0xbd7c06b1	-0.06152982
12	0xbeb4c992	-0.35310036
13	0x3f25a73d	0.6470831
14	0xbe6883d6	-0.22706541
15	0xbf57078d	-0.83995897
16	0x3f009bd1	0.50237757
17	0xbe18b5b4	-0.14913064
18	0x3bc20f63	0.0059222444
19	0xbf50f26c	-0.81619906
20	0xbe236189	-0.15955175
21	0xbed6b1dc	-0.4193257
22	0x3f618217	0.88089126
23	0x3f123ba1	0.57122236
24	0xbd29bc28	-0.041439205
25	0x3ef302d2	0.4746309
26	0x3e538094	0.20654517
27	0x3f4014a4	0.75031495
28	0x3e93dc23	0.28878888
29	0xbed74f81	-0.42052844
30	0x3f1a7dd6	0.6034826
31	0xbe8604c3	-0.26175508
32	0x3dae4032	0.08508338
33	0x3ec68a52	0.38777405
34	0x3ef73071	0.48279145
35	0xbf383781	-0.7195969
36	0x3e11b939	0.14230813
37	0x3dff7a9a	0.12474556
38	0x3f4a6570	0.7906103
39	0x3dcd8cce	0.10036622
40	0xbf29124d	-0.6604355
41	0x3eb84da3	0.35996732
42	0x3eccf003	0.40026864
43	0x3f6384ab	0.8887431
44	0xbe524e8a	-0.20537773
45	0xbf49cc11	-0.78827006
46	0xbf17381b	-0.59069985
47	0x3e985cd6	0.29758328
48	0xbeb944a4	-0.3618518
49	0x3f22407d	0.6337965

a f4 [20, 1]
0	0x3e89c8f7	0.26911137
1	0xbedac99d	-0.42731944
2	0xbf3ef8bf	-0.74598306
3	0x3f109470	0.564765
4	0xbf35544c	-0.7083175
5	0xbdf74d13	-0.120752476
6	0x3f0b171a	0.54332125
7	0x3c89ff78	0.01684545
8	0xbdc3a42c	-0.09552798
9	0xbf325d27	-0.6967339
10	0xbf1f59ac	-0.62246203
11	0xbec37b03	-0.38179788
12	0x3f26641d	0.6499651
13	0x3e641a6c	0.22275704
14	0x3e5bea9b	0.21476214
15	0x3dd8a4d8	0.105783165
16	0xbd07e7f9	-0.03318021
17	0xbeaff7e3	-0.3436881
18	0x3d5656bc	0.05232881
19	0xbebf2a38	-0.37336898

W f4 [5, 10]
0	0xbf3adc2a	-0.72992194
1	0xbdefed59	-0.11715192
2	0xbec07b1c	-0.37593925
3	0xbf2b2493	-0.6685268
4	0xbe893696	-0.26799458
5	0xbe42b60e	-0.19014761
6	0x3d1bc3a5	0.038028378
7	0x3d18f935	0.037347037
8	0xbefb3792	-0.49065834
9	0x3ec5c165	0.3862411
10	0xbe6cd5cb	-0.2312843
11	0x3e775cd4	0.24156505
12	0x3e95075e	0.29107183
13	0xbee8d3b0	-0.45474005
14	0x3ea34afb	0.31893143
15	0x3e606894	0.21914893
16	0x3f21f98d	0.6327141
17	0xbf51c651	-0.8194323
18	0x3ebf32c9	0.37343433
19	0xbe4c982d	-0.19979925
20	0xbf572279	-0.84036976
21	0x3d144157	0.036195125
22	0xbec06702	-0.3757859
23	0x3e08d4ef	0.13362478
24	0xbd4cbd92	-0.049985476
25	0xbf1efc25	-0.6210349
26	0xbf560ed5	-0.8361638
27	0xbe84d729	-0.25945404
28	0x3e84d1d4	0.25941336
29	0x3f3ad190	0.72976017
30	0xbf41c89a	-0.7569672
31	0xbecba2f3	-0.39772758
32	0xbeb8e3f6	-0.3611142
33	0xbf5f1db6	-0.8715471
34	0xbf2272ab	-0.6345622
35	0xbe9dabea	-0.30795223
36	0xbe90acda	-0.28256875
37	0xbee225af	-0.44169375
38	0x3f275260	0.6536007
39	0x3f2362cd	0.63822633
40	0xbe21a761	-0.15786506
41	0xbd4ef68d	-0.050528098
42	0x3f01de33	0.50729674
43	0xbe84c295	-0.25929704
44	0xbdce7e5b	-0.10082694
45	0xbd9aa9c3	-0.07551911
46	0xbf22b9d1	-0.63564783
47	0x3f61c346	0.8818859
48	0x3d94538d	0.072424985
49	0x3f02b94f	0.5106401

a f4 [20, 1]
0	0xbedb084d	-0.4277977
1	0xbe8ac161	-0.2710066
2	0xbd38dae2	-0.045130618
3	0x3d42d248	0.04756382
4	0xbcf2f724	-0.029658861
5	0x3e3bedc3	0.18352418
6	0xbec08018	-0.37597728
7	0xbf1a4450	-0.60260487
8	0xbf1cb734	-0.61217046
9	0xbf40bf23	-0.7529165
10	0xbe19441a	-0.14967385
11	0xbecb4523	-0.39701185
12	0x3ef090fb	0.4698561
13	0xbf1c3a1d	-0.61026174
14	0xbeb6c1c4	-0.35694706
15	0xbea26e30	-0.3172469
16	0xbe7824e2	-0.2423282
17	0x3f3797aa	0.71715796
18	0x3e591379	0.21198834
19	0x3f2ab0b4	0.6667588

W f4 [5, 10]
0	0xbea8bd15	-0.32956758
1	0x3f32eb35	0.6989015
2	0xbda23836	-0.07920878
3	0x3e05403f	0.13012789
4	0x3effa008	0.49926782
5	0x3efe5885	0.4967691
6	0xbf1a39a3	-0.60244197
7	0x3e3c6311	0.18397166
8	0x3f3a200e	0.7270516
9	0xbf32af36	-0.697986
10	0xbe2d8d45	-0.16948421
11	0xbf33d1a5	-0.7024177
12	0x3eb0d0c4	0.34534276
13	0xbf049cd5	-0.51801807
14	0xbe62ba54	-0.22141391
15	0xbf32631d	-0.69682485
16	0x3e08c50f	0.13356422
17	0xbea8c7f6	-0.32965058
18	0xbeaf99cd	-0.34297028
19	0xbec43bf2	-0.38326985
20	0xbdaaba10	-0.0833627
21	0xbf183bfa	-0.59466517
22	0xbdac26b9	-0.08405823
23	0xbe75d680	-0.24007607
24	0x3f54d89a	0.8314301
25	0x3f5d0a2c	0.86343646
26	0xbf5842ce	-0.84476936
27	0x3f3f7f2c	0.74803424
28	0x3e8e140d	0.27749673
29	0xbdb4903b	-0.08816572
30	0xbed5dec1	-0.4177151
31	0x3f2ea6cd	0.6822327
32	0xbecc4e19	-0.39903334
33	0xbeb5cf3b	-0.35509667
34	0x3f0a5562	0.54036534
35	0xbf39b2ce	-0.7253846
36	0xbf4ec8a8	-0.8077493
37	0x3eb0ffcf	0.34570166
38	0xbf02e242	-0.5112649
39	0x3f247d50	0.6425371
40	0xbf49c930	-0.7882261
41	0x3e91c4d9	0.28470495
42	0xbf40970d	-0.75230485
43	0x3efd9114	0.49524748
44	0x3ed47f3b	0.4150332
45	0xbdfeed9d	-0.12447665
46	0x3efdf350	0.49599695
47	0xbf451920	-0.7699146
48	0xbefcd744	-0.49382985
49	0x3f2b7a56	0.66983545

a f4 [20, 1]
0	0xbe470ef0	-0.19439292
1	0xbf0ed9f5	-0.55801326
2	0x3e68df8b	0.22741525
3	0x3f0be526	0.5464653
4	0x3eaec4a6	0.34134406
5	0x3ee6d568	0.4508469
6	0x3e9e4ca1	0.30917838
7	0x3e8af21f	0.2713785
8	0xbdd3e64a	-0.103466585
9	0x3f286819	0.6578384
10	0xbd3bfa62	-0.04589308
11	0xbee61288	-0.44936013
12	0xbd8bae66	-0.06820373
13	0x3ecb4366	0.39699858
14	0x3eb076e8	0.34465718
15	0x3ecdb6cf	0.40178534
16	0x3dfd1f74	0.12359515
17	0xbef04aeb	-0.46932158
18	0x3f1add16	0.604936
19	0x3e1bcc09	0.15214552

W f4 [5, 10]
0	0x3d2bd3d1	0.04195005
1	0xbec1672c	-0.37774026
2	0xbf5aa3ca	-0.8540617
3	0xbe83ae8e	-0.25719112
4	0x3d14fdd1	0.03637487
5	0x3e9d1bf1	0.3068538
6	0x3f39c007	0.72558635
7	0x3f24cdb9	0.6437641
8	0xbf2cd0a3	-0.67505854
9	0xbef65463	-0.48111257
10	0xbf2f7575	-0.685386
11	0x3ea9df9a	0.33178407
12	0xbd699d36	-0.057034694
13	0xbf207238	-0.62674284
14	0xbf35ed5d	-0.7106531
15	0xbf551443	-0.8323404
16	0x3e638c1c	0.22221416
17	0xbf5193eb	-0.8186633
18	0xbe095d97	-0.13414608
19	0x3de04d41	0.10952235
20	0xbe68b8e2	-0.22726777
21	0x3ec8a0b2	0.391851
22	0x3f4450bf	0.7668571
23	0xbd9d881f	-0.07691979
24	0xbeb40f97	-0.35168144
25	0xbf2af86d	-0.6678532
26	0x3f4bf926	0.79677045
27	0x3f66ab68	0.90105295
28	0x3f42abfc	0.7604368
29	0xbdbbc247	-0.09167915
30	0xbeb629f0	-0.3557887
31	0xbf10f9f5	-0.56631404
32	0xbee062fd	-0.43825522
33	0xbef246db	-0.47319683
34	0xbee1667f	-0.4402351
35	0xbe43e00b	-0.19128434
36	0x3ebb04af	0.3652701
37	0xbf27786f	-0.6541814
38	0x3f433448	0.7625165
39	0xbf1982cb	-0.599652
40	0xbeeffb16	-0.4687125
41	0x3f030fa9	0.5119577
42	0xbeff39b1	-0.49848703
43	0xbe9a5e6a	-0.30150157
44	0x3de77606	0.11301808
45	0x3f57f145	0.84352523
46	0x3f429ba2	0.76018727
47	0x3f00c3d2	0.502988
48	0x3f4a2cd4	0.7897465
49	0xbf5ac758	-0.85460424

a f4 [20, 1]
0	0xbdf476a7	-0.11936694
1	0xbf435622	-0.76303303
2	0xbee950ab	-0.45569357
3	0xbf4041ea	-0.75100577
4	0x3ebb7096	0.36609334
5	0x3f191691	0.5980006
6	0x3ece61d9	0.40309027
7	0xbf23ac27	-0.6393456
8	0x3ea2b493	0.31778392
9	0x3eeadc6c	0.45871294
10	0xbeca8509	-0.39554623
11	0xbf008185	-0.5019763
12	0x3ddcd8a4	0.107835084
13	0x3f2c6844	0.67346597
14	0xbf308ef0	-0.68968105
15	0xbe944fef	-0.28967234
16	0x3e0fd6a2	0.1404672
17	0xbea216eb	-0.3165811
18	0xbf1dce94	-0.6164334
19	0xbd886040	-0.06658983

W f4 [5, 10]
0	0x3f0676e5	0.5252517
1	0x3f45598e	0.77089775
2	0x3e92e62d	0.28691235
3	0x3f06676d	0.52501565
4	0xbf030949	-0.51186043
5	0x3e83bcfe	0.25730127
6	0x3f22c384	0.63579583
7	0xbe8c5164	-0.27405846
8	0xbf43fd04	-0.76557946
9	0xbf509037	-0.81470054
10	0xbe9091e9	-0.2823632
11	0x3f12b2ad	0.5730389
12	0xbd272cc2	-0.04081417
13	0xbce05e96	-0.027388852
14	0xbe7d3bb5	-0.24729808
15	0xbe1d8502	-0.1538277
16	0x3f433caf	0.7626447
17	0xbf240c8d	-0.6408165
18	0x3ecf5251	0.4049249
19	0xbe139d93	-0.14415579
20	0xbe48cba8	-0.19608939
21	0xbe2cfaf0	-0.168926
22	0x3f32ed0d	0.6989296
23	0xbe95e2f4	-0.29274714
24	0x3f5061f1	0.81399447
25	0x3ef3cba6	0.4761631
26	0xbf42a58f	-0.7603387
27	0x3e4e99fd	0.2017593
28	0x3d065eb7	0.03280517
29	0x3f07bbc0	0.5302086
30	0xbf07b096	-0.53003824
31	0xbf5f72ee	-0.87284744
32	0xbf64b9f5	-0.8934625
33	0xbec821f0	-0.39088392
34	0xbf411c4d	-0.7543381
35	0xbf248d34	-0.6427796
36	0xbe5b784e	-0.21432611
37	0xbe7ce58f	-0.24696945
38	0xbf12eeeb	-0.5739581
39	0xbf175f5c	-0.5912988
40	0xbe387984	-0.18015105
41	0xbef62b93	-0.4808012
42	0x3e2e89a2	0.1704469
43	0xbefa71f8	-0.48915076
44	0xbf01ebd4	-0.5075047
45	0x3f232204	0.6372378
46	0x3ef5b7d2	0.47991806
47	0xbeaf6799	-0.34258726
48	0x3f425d59	0.7592369
49	0xbf1bd86b	-0.608771

a f4 [20, 1]
0	0x3f26f88f	0.6522302
1	0x3e29cdd9	0.16582431
2	0xbeeb52ae	-0.45961517
3	0x3f3f1421	0.7464009
4	0xbdc872fd	-0.09787557
5	0xbe976aa4	-0.29573548
6	0x3d0d3598	0.03447494
7	0xbd83c69f	-0.06434368
8	0xbd88fc32	-0.066887274
9	0x3d96f45c	0.073708266
10	0xbf1a034d	-0.60161287
11	0x3eb1101e	0.3458261
12	0x3db82840	0.08992052
13	0xbd628985	-0.05530693
14	0x3f0ec922	0.55775654
15	0x3f14c9d4	0.58120465
16	0x3f0fa215	0.5610669
17	0x3ea6ddf0	0.325912
18	0xbf041e4e	-0.5160874
19	0x3d89be61	0.06725765

W f4 [50, 5]
0	0x3ec92e4e	0.3929314
1	0xbea94837	-0.33062908
2	0x3d99bf7f	0.07507228
3	0x3eb6b27d	0.3568305
4	0x3e8738fc	0.26410663
5	0x3ed2184a	0.41034156
6	0x3e656dcd	0.22405167
7	0xbe8246c9	-0.2544463
8	0x3e2befbd	0.16790672
9	0xbdd1d4c0	-0.10245657
10	0xbe048283	-0.12940411
11	0x3db43d0a	0.08800705
12	0xbe93a467	-0.28836367
13	0xbe962572	-0.29325444
14	0x3d3cfbd3	0.046138596
15	0x3eae26d2	0.34013993
16	0x3e0b72f4	0.1361807
17	0xbe190473	-0.14943103
18	0x3ec77c93	0.3896223
19	0x3eb77f71	0.35839418
20	0xbeb00068	-0.3437531
21	0x3cbebc9a	0.023283292
22	0x3e0ef973	0.13962345
23	0x3dde71fe	0.10861586
24	0xbe3c0bde	-0.18363902
25	0xbd9db612	-0.07700743
26	0xbe527892	-0.20553806
27	0x3da5bd09	0.08092696
28	0xbec1c5c2	-0.3784619
29	0x3dbdb75e	0.0926349
30	0xbe606e27	-0.2191702
31	0x3edff94a	0.4374488
32	0x3e04b96c	0.12961358
33	0xbe41ee43	-0.18938546
34	0xbee2ac25	-0.4427196
35	0x3d088aeb	0.033335607
36	0x3ea31e31	0.31858972
37	0xbe0d3734	-0.1379059
38	0x3e56771a	0.20943871
39	0x3b7322e7	0.003709966
40	0xbea281eb	-0.31739745
41	0x3da43387	0.080176406
42	0x3ec03d4c	0.37546766
43	0xbe09cc94	-0.13456947
44	0x3e908dfb	0.28233323
45	0xbe9ccace	-0.30623478
46	0xbe9fd64b	-0.3121818
47	0xbecc3167	-0.3988144
48	0xbe7e2028	-0.24816954
49	0x3e0f5cf0	0.14000297
50	0xbc699f33	-0.014259147
51	0xbe12e01f	-0.14343308
52	0x3e5d2fcc	0.21600264
53	0xbd96482c	-0.073379844
54	0x3e8c7613	0.27433833
55	0x3ec80f3b	0.3907412
56	0x3dd9c181	0.10632611
57	0x3ebca0f5	0.3684155
58	0x3e0cca1b	0.13748972
59	0x3ec3849a	0.38187104
60	0xbb1779ef	-0.002311345
61	0xbea100e1	-0.31445983
62	0x3e6473f4	0.22309858
63	0x3e8888d3	0.2666689
64	0x3e8452c2	0.2584439
65	0xbea72dab	-0.3265203
66	0xbe2b5f29	-0.1673552
67	0x3ef0f4e7	0.47061846
68	0xbedd07f8	-0.43170142
69	0xbe4150ee	-0.18878528
70	0xbedf3abd	-0.435995
71	0xbe6fdc0b	-0.23423783
72	0x3db288a8	0.08717471
73	0x3d9e612d	0.077333786
74	0x3e1ab7b1	0.15109135
75	0x3ea05bca	0.3132003
76	0x3ed610e2	0.41809756
77	0x3e9223a2	0.2854281
78	0xbeb698e8	-0.35663533
79	0x3c3c63f4	0.01149844
80	0x3e453bba	0.19261065
81	0xbece13c8	-0.40249467
82	0xbeeffe43	-0.46873674
83	0x3d94bac1	0.07262183
84	0x3e9ffde5	0.31248394
85	0x3e898bb7	0.26864406
86	0xbe87aba3	-0.26498136
87	0x3eb8fa57	0.36128494
88	0x3e8808fe	0.2656936
89	0x3e699a0d	0.22812672
90	0x3e71ed6c	0.23625726
91	0x3cdba939	0.02681409
92	0x3dd804a1	0.10547758
93	0xbdc7eadb	-0.09761592
94	0x3e45c7a7	0.19314443
95	0xbdbd4f54	-0.09243646
96	0xbd5eeadd	-0.0544232
97	0xbc35867b	-0.011079426
98	0x3ea1f3be	0.31631273
99	0x3ceaced7	0.028663082
100	0xbdeec560	-0.1165874
101	0xbed5f623	-0.4178935
102	0xbe00e5a0	-0.12587595
103	0x3e22609d	0.15857168
104	0x3a570847	0.00082028325
105	0xbe5d9395	-0.2163833
106	0x3ee2c273	0.44288978
107	0x3d6b6bd9	0.0574759
108	0x3ec6243a	0.38699514
109	0xbd1b8121	-0.037964944
110	0x3d8ace25	0.067776
111	0xbea6f6fc	-0.3261031
112	0xbe5a14a8	-0.21296942
113	0xbe901f86	-0.2814905
114	0xbeacf838	-0.33783126
115	0xbec44320	-0.38332462
116	0xbe83fdea	-0.2577966
117	0xbeb03215	-0.3441321
118	0x3ec33619	0.3812721
119	0xbe341cd3	-0.1758912
120	0xbbcaadda	-0.0061852755
121	0xbd2a6b04	-0.041605964
122	0xbd498246	-0.049196504
123	0x3e6bf0bb	0.2304105
124	0x3e0933f9	0.13398732
125	0x3ec48333	0.38381347
126	0x3d80d167	0.0628994
127	0xbee579e6	-0.44819564
128	0x3e128de8	0.14311945
129	0xbd5635e1	-0.052297477
130	0xbef67fc4	-0.48144352
131	0x3e8ddac0	0.27705956
132	0x3d652a39	0.05594847
133	0x3e1bdcfa	0.15221015
134	0x3bbb4598	0.0057150833
135	0x3bff5f04	0.007793309
136	0x3d03aec5	0.032149095
137	0xbecb333d	-0.3968753
138	0x3ea1f302	0.31630713
139	0xbd7e384a	-0.0620654
140	0x3e540cd3	0.20708017
141	0xbec8b4cd	-0.3920044
142	0xbd0eaeb1	-0.034834567
143	0x3d5a5f28	0.053313404
144	0xbe34ce52	-0.1765683
145	0xbeb288f2	-0.34870106
146	0xbed8b29c	-0.42323768
147	0x3e02c843	0.12771706
148	0x3e9e42c8	0.30910325
149	0x3eb72e04	0.35777295
150	0x3dfa84a9	0.12232334
151	0xbeabafbe	-0.33532518
152	0x3d1f00a7	0.03881898
153	0x3ed08da5	0.40733066
154	0xbe82e7c7	-0.25567457
155	0xbec7203f	-0.3889179
156	0xbdd623b4	-0.104560286
157	0x3d9a991c	0.075487345
158	0x3e237352	0.1596196
159	0xbe23eee5	-0.160091
160	0x3df7a025	0.12091092
161	0x3d248bb6	0.0401723
162	0x3ded1328	0.115759194
163	0x3e6a8d23	0.22905402
164	0x3e922140	0.28540993
165	0x3e6856b1	0.2268932
166	0xbe3945eb	-0.18093078
167	0x3ea7839a	0.32717592
168	0x3d6306d2	0.055426426
169	0x3da700f1	0.081544764
170	0x3ee19ae0	0.44063473
171	0x3c08c52e	0.008347793
172	0xbd21b69b	-0.039480787
173	0x3dbb0c50	0.09133208
174	0x3dc00a87	0.09377008
175	0x3eb8f87e	0.36127084
176	0xbe839f76	-0.25707597
177	0xbe8c3683	-0.2738534
178	0xbeaf7bd0	-0.3427415
179	0x3ec32be7	0.38119432
180	0xbec4daaf	-0.38448092
181	0xbc1b99f6	-0.009497156
182	0x3dfe8bf6	0.12429039
183	0x3d58e486	0.052952312
184	0x3e91cbbd	0.28475752
185	0xbdc29093	-0.095002316
186	0x3cf14f62	0.029456798
187	0x3d9113e1	0.0708387
188	0xbeb5897c	-0.35456455
189	0xbe16b85a	-0.14718762
190	0x3ef172a4	0.47157776
191	0xbe1e8d69	-0.15483631
192	0x3ec39fc6	0.38207835
193	0x3d8dacb5	0.06917707
194	0xbe1f22f6	-0.1554068
195	0xbef2b1e3	-0.47401342
196	0x3e0193ba	0.1265401
197	0xbe9e76ea	-0.309501
198	0xbcbbbda4	-0.022917576
199	0xbedff8b2	-0.43744427
200	0x3e556cfc	0.20842355
201	0x3ecf579f	0.40496537
202	0xbd04c81e	-0.03241741
203	0x3e1b10b5	0.15143092
204	0x3e905b72	0.28194767
205	0xbd86c18c	-0.06579885
206	0x3dbfe04e	0.093689546
207	0xbdb0d5c2	-0.08634521
208	0x3e2a256e	0.16615841
209	0xbed4971e	-0.41521543
210	0xbdd1d361	-0.102453955
211	0x3e544c55	0.20732243
212	0x3e810fd6	0.25207394
213	0x3ecf8571	0.40531495
214	0xbd96c2ce	-0.07361375
215	0xbee0cb53	-0.43905124
216	0xbdc6e5ef	-0.09711825
217	0xbe83193f	-0.256052
218	0xbe5b335e	-0.21406314
219	0xbe7383d8	-0.23780763
220	0x3e54de72	0.20787981
221	0xbd690ef6	-0.056899033
222	0x3eafabdb	0.34310803
223	0x3e1eca22	0.15506795
224	0x3e6d4238	0.23169792
225	0x3dde0dcd	0.10842476
226	0xbe9cf537	-0.30655834
227	0xbe82c827	-0.2554333
228	0x3cd0e8dc	0.025501661
229	0x3dbd99f5	0.092578806
230	0x3ecc8304	0.39943707
231	0x3e54ece0	0.20793486
232	0xbe1bddd8	-0.15221345
233	0xbe9f3896	-0.3109786
234	0x3eead96d	0.45869008
235	0x3e49a67f	0.1969242
236	0xbe11524e	-0.14191553
237	0x3e9b003b	0.30273613
238	0x3dcd1a80	0.1001482
239	0x3ea53a11	0.32270864
240	0x3d9218ce	0.07133637
241	0x3ec4fc56	0.38473767
242	0xbea8cdca	-0.32969505
243	0xbea0d013	-0.31408748
244	0xbdc0b78f	-0.09410011
245	0xbe928bb8	-0.28622222
246	0x3eb379f8	0.35053992
247	0xbde820f2	-0.11334409
248	0x3ea76b08	0.32698846
249	0xbe0b239b	-0.13587801

a f4 [10, 1]
0	0xbe7bf136	-0.24603733
1	0x3e6cb60a	0.23116317
2	0xbdcdcf54	-0.1004931
3	0xbf2cf27a	-0.6755749
4	0x3f4cd803	0.8001711
5	0xbec57315	-0.38564363
6	0x3eb32422	0.34988505
7	0x3f68af23	0.9089224
8	0x3efeea27	0.4978802
9	0xbf4f6481	-0.8101273

W f4 [5, 10]
0	0xbea80a8e	-0.32820553
1	0x3f0a73e9	0.54083115
2	0x3e05b5df	0.1305766
3	0x3f54c88f	0.8311853
4	0x3f5ab9f9	0.8544002
5	0xbf5df283	-0.8669817
6	0xbe402421	-0.18763782
7	0xbec82039	-0.39087084
8	0xbe61468b	-0.21999566
9	0xbebdcfa1	-0.3707247
10	0xbf613f1e	-0.87986934
11	0x3ee5aec9	0.44859913
12	0x3f4fcf53	0.81175727
13	0xbe06f319	-0.13178672
14	0xbeed0ff0	-0.46301222
15	0xbf53bcb7	-0.8270983
16	0x3f067255	0.52518207
17	0xbe613411	-0.21992518
18	0x3dd76cc6	0.10518794
19	0xbef03666	-0.46916503
20	0x3f51d8cb	0.81971425
21	0x3d1180cf	0.035523232
22	0xbeaf3a87	-0.3422434
23	0xbf15ab1d	-0.58464223
24	0xbefd6795	-0.4949309
25	0xbe05d0b7	-0.130679
26	0x3d35fc02	0.044429787
27	0x3f0004df	0.5000743
28	0x3e9c4a61	0.30525497
29	0xbe8a8346	-0.2705328
30	0xbed0aae0	-0.40755367
31	0x3f21af2c	0.63157916
32	0x3ea97444	0.33096516
33	0x3cae33d1	0.021264942
34	0x3f48197d	0.7816389
35	0x3e2fd42f	0.17170785
36	0xbf02ba86	-0.5106586
37	0xbe44aeb1	-0.19207264
38	0xbec7c7e8	-0.39019704
39	0x3edd0435	0.43167272
40	0xbedc47ef	-0.4302363
41	0xbe1302c1	-0.1435652
42	0xbf126c99	-0.57196957
43	0x3d8cc810	0.068740964
44	0x3e1e3ce5	0.15452917
45	0xbece2ae1	-0.4026709
46	0x3ef270b3	0.47351608
47	0x3f4fa9d7	0.8111853
48	0xbee6c73e	-0.45073885
49	0x3eb1fc8f	0.34763

a f4 [20, 1]
0	0x3ed26290	0.41090822
1	0xbe7aea68	-0.24503481
2	0x3e889fb9	0.2668436
3	0x3ef6ec33	0.4822708
4	0x3f117979	0.5682598
5	0x3eaa3d66	0.33249968
6	0xbe3382b4	-0.17530328
7	0x3e868945	0.26276603
8	0x3e62f486	0.22163591
9	0x3f2819cf	0.6566438
10	0x3dce305f	0.1006782
11	0x3f114422	0.5674459
12	0xbf06941b	-0.5256974
13	0xbecd4b33	-0.40096435
14	0x3e0c21de	0.13684794
15	0xbf29736c	-0.66191745
16	0xbe44a0ed	-0.19202013
17	0xbca04a6c	-0.019566737
18	0x3f2f82ef	0.68559164
19	0xbf26e8cb	-0.65198964

W f4 [5, 10]
0	0x3d674cd6	0.05646976
1	0xbef93506	-0.48673266
2	0x3ecd930d	0.40151253
3	0xbf01354f	-0.5047197
4	0x3d4e2a4d	0.05033331
5	0x3e085b7f	0.13316153
6	0x3f112acc	0.5670593
7	0xbeebbb90	-0.46041536
8	0xbed720b4	-0.42017138
9	0x3e12d1a2	0.14337781
10	0xbe1d7f9c	-0.1538071
11	0xbec86044	-0.39135945
12	0xbe3a1e57	-0.18175636
13	0xbf01d828	-0.50720453
14	0xbf0869cd	-0.5328644
15	0xbda15c72	-0.07878961
16	0xbe9e0799	-0.30865172
17	0xbe6440c5	-0.22290333
18	0x3e09aef5	0.13445647
19	0x3efe99b9	0.49726656
20	0x3f1f9787	0.6234059
21	0x3ed63222	0.41835123
22	0xbf65f356	-0.89824426
23	0x3ea50ac4	0.32234776
24	0x3e82d2db	0.25551495
25	0xbea6dfff	-0.3259277
26	0x3f545111	0.829362
27	0x3f43a2a6	0.76420057
28	0xbf455ea2	-0.77097523
29	0xbee62058	-0.4494655
30	0x3ee407e2	0.44537264
31	0x3ea1841f	0.31546113
32	0xbf1523a2	-0.58257496
33	0xbeb6ddb0	-0.3571601
34	0x3ebc545c	0.3678311
35	0x3ddd4f40	0.10806131
36	0x3f26f0e8	0.65211344
37	0xbf666f3e	-0.9001349
38	0x3f3e43c1	0.74322134
39	0x3e96c1df	0.29444787
40	0xbf05da1d	-0.5228594
41	0x3ec89fe5	0.3918449
42	0xbefce6ed	-0.49394932
43	0xbe831b51	-0.25606778
44	0x3f3c3f87	0.73534435
45	0xbe77ab4b	-0.24186437
46	0x3de6fa56	0.112782165
47	0x3f14f487	0.5818562
48	0x3f5a5e14	0.852998
49	0xbed1c224	-0.4096843

a f4 [20, 1]
0	0x3f07a050	0.5297899
1	0xbf27d079	-0.6555248
2	0x3f37dc71	0.7182074
3	0x3ede4622	0.43412882
4	0x3f13ab28	0.5768304
5	0xbb8c3cb4	-0.0042796973
6	0x3f2b6477	0.6695017
7	0xbcd0fcaf	-0.025511114
8	0xbf02bd6e	-0.51070297
9	0x3d08d123	0.033402573
10	0xbecc1c8f	-0.39865538
11	0x3e47e779	0.19521894
12	0x3ec54b83	0.38534173
13	0x3edddae0	0.4333105
14	0x3e4a918c	0.19782084
15	0xbf2874e4	-0.6580336
16	0x3f0fa5b4	0.5611222
17	0xbd33fd4f	-0.043942746
18	0x3e205574	0.15657598
19	0xbe41e589	-0.18935217

W f4 [5, 10]
0	0xbf1c788f	-0.6112146
1	0x3f20c7d8	0.6280494
2	0x3eae1b6b	0.34005293
3	0x3f24975f	0.64293474
4	0x3f394d68	0.7238374
5	0x3e0873d3	0.13325433
6	0x3f02b942	0.5106393
7	0x3efed785	0.49773803
8	0xbf2ed4f5	-0.68293697
9	0xbf557189	-0.83376366
10	0xbf4108f3	-0.7540428
11	0x3e8b15f7	0.27165195
12	0x3ba3f202	0.005003215
13	0x3ed0bc1d	0.4076852
14	0xbf2f916d	-0.6858128
15	0x3f20cac1	0.6280938
16	0xbf222761	-0.6334134
17	0x3def544c	0.11686
18	0x3e97de97	0.2966201
19	0xbf542ca7	-0.82880634
20	0x3f144360	0.57915306
21	0xbf1864aa	-0.595286
22	0x3ebeaaf7	0.3723981
23	0xbd3bb805	-0.04582979
24	0xbe0ede1b	-0.13951914
25	0xbe1e715a	-0.15472928
26	0xbebdc1c1	-0.37061885
27	0xbf498cd1	-0.78730494
28	0x3f5a1221	0.8518391
29	0x3e79c9ac	0.24393338
30	0x3edb7a03	0.42866525
31	0xbf1a90a8	-0.6037698
32	0x3ea62492	0.32449776
33	0x3f07191a	0.52772677
34	0x3e294a05	0.16532142
35	0x3f3856a8	0.72007227
36	0x3e4ed816	0.20199618
37	0xbe29ceba	-0.16582766
38	0xbf566cfa	-0.83760035
39	0x3e78cd98	0.24297178
40	0x3f036131	0.5132018
41	0x3f37c054	0.71777844
42	0xbf48668f	-0.7828149
43	0xbf0cfc0e	-0.55072105
44	0x3f0530d8	0.52027655
45	0x3e9f7035	0.31140295
46	0x3f5e7588	0.8689809
47	0xbe4cc9b2	-0.19998816
48	0x3ec28064	0.3798858
49	0x3b03344b	0.0020020183

a f4 [20, 1]
0	0xbe4c4685	-0.19948776
1	0xbf10e9ac	-0.56606555
2	0xbf15a899	-0.58460385
3	0x3ea76489	0.3269389
4	0xbeeb5096	-0.4595992
5	0xbde134a2	-0.10996367
6	0x3eb8fa00	0.36128235
7	0xbdc7c0e9	-0.097535916
8	0x3f3c82d4	0.7363713
9	0x3cd635f4	0.026148774
10	0x3f033f6c	0.5126865
11	0xbd93c1e4	-0.07214716
12	0x3dc8bd91	0.09801782
13	0x3f01ddb2	0.50728905
14	0xbf22f744	-0.6365855
15	0x3f1ec154	0.62013745
16	0xbf027641	-0.5096169
17	0x3eeb56f6	0.45964783
18	0xbf1fe795	-0.6246274
19	0xbe373df8	-0.17894733

W f4 [5, 10]
0	0x3f51d7a0	0.8196964
1	0x3f36868e	0.71299064
2	0x3ebc779a	0.3681
3	0xbef9b3c2	-0.48769957
4	0xbf1741b7	-0.5908465
5	0xbe93fba1	-0.28902915
6	0xbf45596e	-0.77089584
7	0x3f0ccb69	0.5499788
8	0x3e8decac	0.2771963
9	0x3ee42d77	0.44565937
10	0xbc082a4d	-0.008310867
11	0xbebdf8a3	-0.37103757
12	0xbe985bee	-0.29757637
13	0x3f5734ae	0.8406476
14	0xbde1583e	-0.11003159
15	0x3f150585	0.5821155
16	0x3e265e39	0.1624688
17	0xbf1d8ccd	-0.6154297
18	0xbec06c58	-0.3758266
19	0x3eb71e65	0.35765377
20	0x3d691380	0.056903362
21	0xbf508d55	-0.81465656
22	0xbeadb4fe	-0.3392715
23	0x3eb717e1	0.35760406
24	0x3ef8fe69	0.486316
25	0xbe9fa0ff	-0.31177518
26	0xbf627f64	-0.8847563
27	0xbe4b5150	-0.19855237
28	0x3f30d6e5	0.69077903
29	0x3e96f43b	0.29483208
30	0xbf5eb04a	-0.86987746
31	0x3ef58ac9	0.47957447
32	0x3f5a960a	0.8538519
33	0xbf16c70a	-0.5889746
34	0x3f47588a	0.77869475
35	0xbf09eb77	-0.53874916
36	0x3f0940dc	0.5361459
37	0xbf515b73	-0.81780165
38	0x3f21ca66	0.6319946
39	0x3e3abb3f	0.18235491
40	0x3c844752	0.01614729
41	0xbf323832	-0.69617
42	0x3dd0ebeb	0.10201248
43	0x3ed9981c	0.42498863
44	0xbf12524c	-0.57156825
45	0x3f3bd068	0.7336488
46	0xbe6e0d63	-0.23247294
47	0xbf441b98	-0.76604605
48	0x3f131ccd	0.5746582
49	0xbf63d644	-0.8899882

a f4 [20, 1]
0	0x3e488bdd	0.19584604
1	0xbc4a117f	-0.012333273
2	0xbf3530f9	-0.7077785
3	0xbf195fc3	-0.59911746
4	0xbd9f43e3	-0.0777662
5	0x3e48c8c8	0.19607842
6	0x3efe5409	0.4967349
7	0x3ec1e492	0.37869698
8	0xbee32072	-0.4436069
9	0x3e5536f9	0.20821752
10	0xbf2197f0	-0.63122463
11	0xbf1c0885	-0.609505
12	0xbd9b3300	-0.07578087
13	0x3f029f61	0.5102444
14	0x3f1b2266	0.6059936
15	0xbf3d645e	-0.73981273
16	0xbf27e9f9	-0.6559139
17	0xbf3d26c3	-0.7388727
18	0xbe23eb7a	-0.16007796
19	0xbf3718d8	-0.71522284

W f4 [5, 10]
0	0x3f4a9ff2	0.7915031
1	0x3f2e69da	0.68130267
2	0x3f181da4	0.5942023
3	0xbed254be	-0.41080278
4	0x3e05f968	0.13083422
5	0xbf02a5be	-0.5103415
6	0x3e96e0da	0.29468423
7	0x3e835b3b	0.2565554
8	0x3f56c1c5	0.8388942
9	0xbf488071	-0.78320986
10	0x3e3cb72d	0.18429251
11	0xbe8621f5	-0.26197782
12	0xbf0c657d	-0.5484236
13	0xbe4b27d0	-0.19839406
14	0xbc4cd349	-0.012501546
15	0x3ed6a495	0.4192244
16	0xbf2a045e	-0.66412914
17	0x3e5bd502	0.21467975
18	0x3f0e3e31	0.55563647
19	0x3f2e78f7	0.6815333
20	0x3f36cb53	0.71404
21	0xbf4ee46f	-0.8081731
22	0x3edfd631	0.43718103
23	0xbf3d10a1	-0.738535
24	0xbeae944f	-0.34097525
25	0x3f10812f	0.5644712
26	0xbf39fedd	-0.72654516
27	0x3d3279a5	0.04357304
28	0xbdf8205f	-0.12115549
29	0x3e6ce389	0.23133673
30	0x3f1b06d2	0.6055728
31	0xbf4d9879	-0.8031078
32	0xbbabb98d	-0.0052406252
33	0x3eaa7138	0.33289504
34	0x3f4d4d8c	0.8019645
35	0x3f59cde5	0.85079795
36	0xbd1abb2b	-0.037776154
37	0x3e9371ff	0.2879791
38	0xbeb921e9	-0.36158684
39	0x3e6737db	0.22579901
40	0x3ef1e80c	0.4724735
41	0x3ecbef7a	0.39831144
42	0x3e8f246b	0.27957472
43	0xbea42723	-0.3206111
44	0xbf4d27cd	-0.80138856
45	0x3eb83358	0.35976672
46	0x3c1b3599	0.009473228
47	0xbe729bd9	-0.23692264
48	0xbd8e8ef0	-0.06960857
49	0x3f3b8a23	0.73257655

a f4 [20, 1]
0	0x3ed2276c	0.41045702
1	0xbeb9ed83	-0.3631402
2	0x3f03e881	0.5152665
3	0xbe3fe48a	-0.18739524
4	0xbf0760b5	-0.5288194
5	0xbf1a047b	-0.60163087
6	0x3f3b81fa	0.73245203
7	0x3df90f6d	0.12161145
8	0x3f40b466	0.75275266
9	0xbf40563b	-0.7513158
10	0xbeb118d7	-0.34589264
11	0x3ebdfe90	0.37108278
12	0x3e95eaae	0.2928061
13	0x3e5a2f86	0.21307191
14	0xbec3f1ca	-0.38270408
15	0x3e0188e5	0.12649877
16	0xbd73cd91	-0.059522215
17	0xbe59454f	-0.21217845
18	0xbeab0428	-0.33401608
19	0x3dfc73a4	0.12326744

W f4 [50, 6]
0	0xbd2a04c2	-0.041508444
1	0xbb1a6901	-0.0023561122
2	0x3ed3957e	0.4132499
3	0x3ed5849c	0.41702735
4	0xbd10242e	-0.035190754
5	0xbe507329	-0.2035643
6	0xbe9f6c89	-0.31137493
7	0x3e59ed2c	0.2128188
8	0xbcc286ed	-0.023745978
9	0x3eb1e400	0.34744263
10	0x3e289c99	0.16465987
11	0x3ebaa4f8	0.36453986
12	0x3e6db948	0.2321521
13	0x3e99b21a	0.30018693
14	0xbe155ba3	-0.14585738
15	0xbcc7375e	-0.024318393
16	0x3eb4f08f	0.35339782
17	0xbdf9cef7	-0.121976785
18	0x3e8808f9	0.26569346
19	0x3e6bf5f8	0.23043048
20	0xbbe3cf46	-0.006952199
21	0x3ec8844b	0.39163432
22	0x3db3ada0	0.08773351
23	0xbecc101c	-0.3985604
24	0xbe86ee75	-0.26353803
25	0x3eb5c5e2	0.35502535
26	0xbec1baf2	-0.3783794
27	0xbec350da	-0.38147622
28	0xbe7af405	-0.24507149
29	0xbe2d9ac1	-0.16953565
30	0x3e0884f4	0.13331968
31	0xbe5b18e5	-0.21396215
32	0xbecc5dd5	-0.39915338
33	0x3ecb1ed5	0.3967196
34	0xbe4270c7	-0.18988334
35	0x3d5815ed	0.052755285
36	0xbd8508c3	-0.06495812
37	0xbe4b3f29	-0.19848312
38	0x3e0fa3aa	0.14027277
39	0x3cde27b7	0.027118547
40	0xbd49d75f	-0.04927766
41	0x3eb0cd5f	0.34531686
42	0x3e99b83e	0.30023378
43	0xbdb78d0f	-0.08962452
44	0xbeb7b5a4	-0.35880768
45	0xbe654c83	-0.22392468
46	0x3dc8464c	0.09779033
47	0xbd0c006c	-0.03418009
48	0x3dd5a48e	0.10431777
49	0x3e885000	0.26623535
50	0xbc2555c9	-0.010091254
51	0xbe006182	-0.12537196
52	0xbdeb27f8	-0.11482233
53	0x3d831da9	0.064021416
54	0x3e7f740e	0.24946615
55	0xbe16bb8b	-0.1471998
56	0xbe17b225	-0.1481405
57	0x3e78ce34	0.2429741
58	0x3ebb45c0	0.36576653
59	0x3e3ecdd5	0.18633206
60	0x3e7594ef	0.23982595
61	0xbe00c76c	-0.12576073
62	0xbddd0138	-0.10791248
63	0xbe22f66a	-0.15914312
64	0x3da5d0d0	0.080964684
65	0x3c516026	0.012779271
66	0xbe885bf8	-0.26632667
67	0xbeb52194	-0.3537718
68	0x3d794437	0.06085607
69	0xbcb14e2d	-0.021643722
70	0x3e26b751	0.16280867
71	0xbd80593c	-0.0626702
72	0x3eac9faf	0.3371558
73	0xbec6cb69	-0.38827065
74	0xbeaf8215	-0.34278932
75	0xbe2f51e7	-0.17121087
76	0xbec72536	-0.38895577
77	0x3e13d7c3	0.14437775
78	0x3e248b24	0.16068703
79	0x3d92319c	0.071383685
80	0xbe9fbef4	-0.31200373
81	0x3e2da2cd	0.16956635
82	0xbc8cbb2b	-0.017179092
83	0xbe64cdff	-0.22344206
84	0x3dd006d4	0.10157552
85	0x3eaa91a1	0.3331423
86	0xbc474f9e	-0.012164978
87	0xbd22e4d1	-0.039768998
88	0x3e634ddf	0.22197674
89	0xbc7d6d7c	-0.015467998
90	0x3eadd68a	0.33952743
91	0x3e817987	0.2528803
92	0x3e9beafa	0.3045271
93	0xbaec5d8b	-0.0018033249
94	0xbe6db21c	-0.23212475
95	0xbed37274	-0.41298258
96	0x3eadc0ad	0.33936062
97	0x3decc985	0.11561874
98	0x3d0ef70d	0.034903575
99	0xbe98be64	-0.29832757
100	0x3ca6e9d0	0.020375162
101	0x3e821c6a	0.25412303
102	0x3dd29bbf	0.102836125
103	0xbebf2297	-0.37331077
104	0xbe88d411	-0.26724294
105	0xbda9bafb	-0.08287617
106	0x3e6bcc98	0.23027265
107	0xbe6512f7	-0.22370516
108	0xbe75b339	-0.2399415
109	0x3dba2262	0.09088589
110	0xbedfc9a2	-0.4370852
111	0xbedd807a	-0.43262082
112	0x3d526e78	0.051374882
113	0xbc94795a	-0.018124271
114	0x3ec5da4a	0.38643104
115	0xbe0ce8fe	-0.13760754
116	0x3ef211c9	0.47279194
117	0x3ed1ee51	0.41002133
118	0xbdaa4ef9	-0.08315844
119	0xbe7be6d0	-0.24599767
120	0xbe62e128	-0.22156203
121	0xbead9f65	-0.3391067
122	0x3ec0b70f	0.37639663
123	0xbe9db38b	-0.30801043
124	0xbd8de60c	-0.069286436
125	0x3d9c6bc7	0.076377444
126	0x3e67a1db	0.22620337
127	0xbee0f197	-0.43934318
128	0xbe9c60e7	-0.3054268
129	0x3e997fc5	0.29980293
130	0x3e9735a7	0.2953312
131	0xbe5d6b2a	-0.21622911
132	0x3e8527cb	0.26006922
133	0xbebebd99	-0.37254027
134	0xbd8fa5cb	-0.070140444
135	0x3eeff429	0.46865967
136	0xbe7852ba	-0.24250308
137	0xbee441ca	-0.44581443
138	0xbebdee87	-0.37096044
139	0xbdd68b11	-0.104757436
140	0xbed01063	-0.40637502
141	0xbd8f029d	-0.0698292
142	0xbeae8a25	-0.3408977
143	0xbea33789	-0.31878307
144	0x3e3a60bc	0.18200964
145	0x3ec2b617	0.3802955
146	0x3ea534d5	0.3226687
147	0xbed84dfa	-0.4224699
148	0xbd830ad7	-0.06398552
149	0xbc987ac7	-0.018613232
150	0xbee7c85f	-0.4527006
151	0xbe2ccb1d	-0.16874357
152	0xbdde7bd9	-0.10863466
153	0x3e21c085	0.15796097
154	0xbea1f7b7	-0.31634304
155	0xbdf7e03d	-0.12103317
156	0x3e9f309f	0.31091782
157	0x3db11bfd	0.086479165
158	0xbea44c0c	-0.3208927
159	0xbe4985dc	-0.1967997
160	0x3db416cf	0.08793413
161	0xbe9db656	-0.30803174
162	0x3e5750de	0.21026942
163	0xbee2015d	-0.44141665
164	0x3ee10bb0	0.4395423
165	0xbe838799	-0.2568939
166	0xbccdbf87	-0.025115741
167	0xbeb7f9c0	-0.35932732
168	0xbe6e135e	-0.23249575
169	0xbe57ad1a	-0.21062127
170	0x3eaa5b75	0.332729
171	0xbe92e731	-0.2869201
172	0x3e7f8596	0.24953303
173	0x3ee06dc3	0.43833742
174	0x39e25459	0.00043168923
175	0x3d3bf218	0.045885175
176	0x3e72d9f5	0.23715957
177	0x3e9fdaab	0.31221518
178	0x3ee8775f	0.45403573
179	0x3e7d5c2c	0.24742192
180	0xbead37d8	-0.33831668
181	0xbcb79a6c	-0.022412501
182	0xbed6a543	-0.4192296
183	0xbe90a9cb	-0.28254542
184	0xbe9bcb36	-0.30428475
185	0x3ec03e7c	0.37547672
186	0x3d49ea2b	0.049295586
187	0xbdb70b90	-0.08937752
188	0x3ecaf61f	0.396409
189	0xbdbe790a	-0.0930043
190	0xbec68d48	-0.38779664
191	0xbdb938e6	-0.09044056
192	0x3ec67caa	0.38766986
193	0xbec85775	-0.39129224
194	0x3de1266d	0.10993657
195	0x3e3bc6d6	0.18337569
196	0xbed74516	-0.42044896
197	0x3ee1a173	0.44068488
198	0xbe34bbdf	-0.17649792
199	0xbe580f9d	-0.21099706
200	0x3ed2a3bb	0.4114054
201	0x3e846c85	0.25864044
202	0x3eaebfcd	0.34130707
203	0x3e1e8a2a	0.15482393
204	0xbec6822d	-0.3877119
205	0xbee603a4	-0.44924653
206	0xbd00cb77	-0.03144404
207	0xbde5e5aa	-0.112254456
208	0xbd48bcad	-0.04900806
209	0x3e271f6e	0.16320583
210	0x3e9e371b	0.30901417
211	0xbea31339	-0.31850603
212	0x3de61bb7	0.11235755
213	0x3e9fbe98	0.312001
214	0xbeb1b3be	-0.34707445
215	0x3df6bac7	0.12047344
216	0x3ec9c32e	0.39406723
217	0x3ebcd5f7	0.36881992
218	0xbd79bb6f	-0.060969766
219	0xbd15f26d	-0.03660815
220	0xbe3f6e89	-0.1869451
221	0x3d1646a8	0.036688477
222	0xbdbef163	-0.093233846
223	0xbe95fbc1	-0.29293635
224	0x3ed21086	0.4102823
225	0xbed26782	-0.41094595
226	0xbe10ba89	-0.14133658
227	0xbdb7b338	-0.0896973
228	0x3ec1a24b	0.37819132
229	0xbe8f6f9d	-0.28014842
230	0xbed694ba	-0.41910344
231	0xbed48970	-0.41511106
232	0xbe5edbf4	-0.21763593
233	0xbd1591bf	-0.036515947
234	0xbedf3ff4	-0.4360348
235	0x3d8480cb	0.06469878
236	0xbed006a3	-0.40630063
237	0xbeb2ffba	-0.3496073
238	0x3e81a929	0.2532437
239	0xbe35be3d	-0.17748351
240	0xbec69716	-0.38787144
241	0xbe93c847	-0.28863737
242	0x3e736f8b	0.23773019
243	0xbe18a9e5	-0.1490856
244	0x3e9af1f6	0.30262727
245	0x3e66aa8e	0.22525999
246	0xbec8e137	-0.39234325
247	0xbe7483e9	-0.23878445
248	0x3dfd6fa7	0.123748116
249	0xbea5f897	-0.32416221
250	0x3b5fedf2	0.0034168926
251	0x3ecb23a8	0.3967564
252	0x3d910640	0.0708127
253	0xbe72c262	-0.23706964
254	0xbd537b68	-0.05163136
255	0xbe621c00	-0.22080994

a f4 [12, 1]
0	0x3e716b37	0.23576055
1	0xbf3349a4	-0.7003424
2	0xbeb3cc37	-0.3511674
3	0xbe61ab49	-0.22037996
4	0xbea03858	-0.31292987
5	0xbee72c2c	-0.45150888
6	0x3f310d1b	0.6916062
7	0x3f5e6f50	0.868886
8	0xbe51b10a	-0.20477691
9	0x3f2904ea	0.66023123
10	0xbf288cbd	-0.6583975
11	0xbee0e62c	-0.43925607
