graph_model/encoder-checkpoint-6-1.pt (torch, 27882 bytes, 36 tensors)

W f4 [5, 10]
00000000: 3a77 9c3e 9954 9c3e 4933 15be d32f 8e3e
00000010: b27a b8be b839 19bf 2525 d9be 8d87 4dbf
00000020: d22e 193f c072 143f b7c8 c03e 2fc9 b43e
00000030: 6849 0e3e 1cbf f93e 9059 61bf a21e 40bf
00000040: 793d a13e 804b 1f3f ad60 453e 8d78 aebe
00000050: e628 303c b7ef 4c3f adec d63e d29b b23d
00000060: 2ae0 ff3e 7a9e 323e 6969 2e3e 1607 2cbe
00000070: 2b2d 00bf 43bf 0bbf 5ba6 b6bd d607 b63e
00000080: c870 f4be a5dc 42bf 3757 173e b559 f3be
00000090: 57c7 19bf 5995 27bf fb7a d43d 9686 6fbd
000000a0: 4734 52be abe6 8fbe 22e4 cabe 40a3 abbe
000000b0: 41a9 2c3f d700 9cbe f1b5 ea3c b985 02bf
000000c0: 5c91 d73e 259d 063e
0.30559713 0.30533293 -0.14570345 0.27770862 -0.3603111 -0.59853697 -0.42411152 -0.8028496
0.5983707 0.57987595 0.37653133 0.3530974 0.1389519 0.48778617 -0.88027287 -0.7504674
0.31492212 0.6222458 0.1927516 -0.34076348 0.010751938 0.80053276 0.41977444 0.087211266
0.4997571 0.17443267 0.17032398 -0.16799578 -0.5006892 -0.5458872 -0.089184485 0.35552853
-0.47742295 -0.76117927 0.14779364 -0.4752938 -0.60069793 -0.6546226 0.10375019 -0.05847796
-0.20527755 -0.28105673 -0.39627177 -0.33522987 0.6744576 -0.3046939 0.02865121 -0.50985295
0.42103088 0.13145883

a f4 [20, 1]
00000000: 17a5 f73e 0153 edbe 3ae6 9a3e d5b2 d03e
00000010: 29bf 2a3f 71df 8f3e 968a 99be d7bf 153f
00000020: 6da6 99be e16f a9bc ef00 22bf d6cb 2cbf
00000030: 8b44 a8be 30bf 5cbe 6f1b 83be cbd5 3a3f
00000040: eb39 0b3f ef76 ab3b 4637 e8be f5ba 10bb
0.4836814 -0.4635239 0.30253774 0.40761438 0.6669794 0.2810016 -0.29988545 0.5849585
-0.30009785 -0.02068323 -0.63282675 -0.6749853 -0.32864794 -0.21557307 -0.25606868 0.7298247
0.5438525 0.005232684 -0.4535467 -0.0022084091

W f4 [5, 10]
00000000: db6c 9e3e ac62 19bf d2cc 53bf 8d4f be3e
00000010: 7de4 60bd d64a f13e f80e a1be dbd2 de3d
00000020: 5693 773d a812 0b3f be5c d83e bcff 4ebf
00000030: 4cdc 313f 06f4 b13e 68eb 45be 2795 3bbf
00000040: c254 023f 0666 fdbe 04fc c3be 0cfb 4dbf
00000050: c245 f23d 0097 9fbe e283 cc3e 3509 423f
00000060: 32ba 9e3e c68f e83e a00b 0f3f 0984 2dbf
00000070: 6fb5 f03b bf4a dfbe 1296 66bd 3fa9 51be
00000080: 98cb 4b3f 4c56 2a3f edd9 5bbf 2bfa abbe
00000090: 5608 34bf 26cc 59bd 9b17 c23e 5197 573f
000000a0: 9ab8 2ebf c2e8 263f a792 f5be 4044 56bf
000000b0: 1e99 b7be 40f8 0b3f d5d3 353f 1e88 563f
000000c0: ddc8 7dbe 1eea 283d
0.30942425 -0.59916186 -0.82734406 0.37170067 -0.054905403 0.47127408 -0.31456733 0.10880061
0.060443245 0.5432534 0.42258257 -0.8085897 0.6947677 0.34756488 -0.19328082 -0.73274463
0.5091058 -0.494919 -0.3827821 -0.8046119 0.118297115 -0.3116989 0.3994437 0.757953
0.3100143 0.4542219 0.55877113 -0.67779595 0.0073458473 -0.43611714 -0.056295462 -0.20474719
0.79607534 0.6653793 -0.85879403 -0.335893 -0.7032522 -0.053173207 0.37908635 0.84215266
-0.6825043 0.6519891 -0.4796345 -0.8369789 -0.35859007 0.54675674 0.71026355 0.8380145
-0.24783655 0.041238897

a f4 [20, 1]
00000000: aec7 0b3e 6db3 f0be 13c8 cc3d ea8a e03e
00000010: c223 303f 1bcc 6d3e 4f0f ebbe 395f 01bf
00000020: 1a84 2b3f 4f55 37bd 261c 3c3e bfa8 343e
00000030: 9ae1 e13e 2e57 333f 06bc c13e c0cb 5cbd
00000040: 070c d1be b17c 2ebf 2a57 8d3e 0d53 423d
0.1365039 -0.4701189 0.09999099 0.43855983 0.6880456 0.23222391 -0.45910117 -0.50535923
0.66998446 -0.04475909 0.18370113 0.17642497 0.44117433 0.700549 0.37838763 -0.05390525
-0.4082949 -0.68159014 0.27605563 0.047442485

W f4 [5, 10]
00000000: 674e 3cbf fe66 28bf a69f d9bc 9684 99be
00000010: 78d2 19be 93ff 3fbf c8b1 3e3f 10f7 74be
00000020: 0dc6 e53e 320a 793d f942 403f fda2 ddbe
00000030: 86fc 81be 8d7b 5bbf 49e8 2a3f df22 383f
00000040: bf6d 843d c9c8 fe3c 4daf b7be 45ea 39bf
00000050: f580 c83e eb07 d4bd 1d6a 09bf eea9 36bf
00000060: da25 573d 280b 44bf 482f a2be 8462 033e
00000070: 20c0 083f 5ee2 4bbe f24c 613f 5a6d 47bf
00000080: 78f0 413f 81df 4e3f 96ce b43e 16fa a53d
00000090: 81bd 2b3f fd86 e2bc 0973 0b3f 2b53 5cbe
000000a0: 4d30 0b3f c0b7 203f 9a9f 6fbe ad5e 543f
000000b0: 7451 8a3e acdc ddbe d767 cabe 1b29 5c3e
000000c0: 249d 2abf 2863 3c3f
-0.7355713 -0.65782154 -0.026565384 -0.29983968 -0.15021694 -0.7499935 0.7449002 -0.23922372
0.44877663 0.06080074 0.7510219 -0.43288413 -0.25387973 -0.857354 0.6676069 0.7192821
0.06466245 0.031101601 -0.3587593 -0.7262309 0.39160886 -0.10353073 -0.5367754 -0.7135304
0.052526332 -0.76579523 -0.31676698 0.1283055 0.5341816 -0.19910571 0.88008034 -0.7790123
0.7575755 0.8080979 0.35313863 0.08104341 0.67086035 -0.027652258 0.54472405 -0.21516101
0.54370576 0.6278038 -0.23400727 0.82956964 0.2701527 -0.43332422 -0.3953235 0.21500055
-0.6664603 0.735888

a f4 [20, 1]
00000000: 70bd 023e 4c94 b33c c467 893e c8e0 d5bb
00000010: bd7b 2c3f 3492 14bf f166 a83e b07d 00bf
00000020: 574e 03bf c679 833e 5d90 363f beb0 2c3d
00000030: 92e2 45bd ef54 27bf 31c1 d9be badc 34bf
00000040: 56c5 05bf debc 34bf 1f20 463f 7eb4 12bf
0.12767577 0.0219213 0.2683698 -0.00652704 0.6737631 -0.5803559 0.32891038 -0.50191784
-0.5129141 0.25678843 0.7131403 0.042160742 -0.048311777 -0.65363973 -0.42530206 -0.706493
-0.52254236 -0.7060069 0.7739276 -0.5730666

W f4 [5, 10]
00000000: 06db 893e fe3c 753e c408 9a3e 5190 7ebe
00000010: 9127 f03d e391 213f 9b05 1a3e bed3 24bf
00000020: 99f9 f33d 0c99 5c3f a3c4 06bf 0c69 103f
00000030: 7b86 28bf 43de 49bf 5a0d 3cbf dce2 b23d
00000040: acb4 433f ba4e b3be 2ddb 303f 5883 c2be
00000050: fc3b 68be 4bc5 17bf c039 a23e cd03 fcbc
00000060: efe0 243f e341 af3d b6f7 923c 9667 2ebe
00000070: 148e 2e3f d367 5b3f eccf 3a3f 4581 903e
00000080: 3f0b 0dbf 68a3 45bf 01de 21be 1416 c23e
00000090: 91b9 463f 49ed 413f f240 a23e fe5a 343f
000000a0: e7c4 ddbe 10d1 973e ca65 23bf 9f59 e43e
000000b0: 4411 fc3e eaff e6bc ff3e e23e b59c 383d
000000c0: 432f 1b3f 7c66 53bf
0.26924914 0.23949048 0.30084813 -0.2485974 0.11726297 0.6311323 0.15041201 -0.6438559
0.11912841 0.8617103 -0.52643794 0.5641029 -0.658302 -0.7885477 -0.7345787 0.08734676
0.7644756 -0.35021 0.69084436 -0.37990832 -0.22679132 -0.5928542 0.31684685 -0.030763531
0.6440572 0.08557489 0.017940383 -0.17031702 0.68185544 0.857053 0.72973514 0.28223625
-0.55095285 -0.77202463 -0.15807344 0.3790747 0.776269 0.75752693 0.31690174 0.70451343
-0.43314287 0.2965169 -0.6382719 0.44599625 0.49231923 -0.028198201 0.44188687 0.045071322
0.6061899 -0.82578254

a f4 [20, 1]
00000000: 7810 97bd 68e2 cc3e ee55 0c3f f8fd 12be
00000010: ae29 8e3d 6ebd 243f a32f 17bf 132f b43e
00000020: f59d c9bd 9d41 c3be 44aa 95be f7b7 383f
00000030: 9b7f 713e e548 37bf 2de2 3abf 8489 30be
00000040: b429 08bf 7ceb 633d 8bc6 d33e 097c 57be
-0.07376188 0.40016484 0.5481862 -0.14354694 0.069415435 0.64351547 -0.5905706 0.35192165
-0.09844581 -0.38135996 -0.29231465 0.7215571 0.23583834 -0.71595603 -0.73001367 -0.17239958
-0.53188634 0.055644497 0.41362414 -0.2104341

W f4 [5, 10]
00000000: 477f 1dbf 0543 ea3d e26e 5fbf fccc 57bf
00000010: 1f08 bc3e f666 15bf cbb8 333e 0607 d93d
00000020: 1c9b 633f a125 17be a28b e03e 63b3 ea3d
00000030: 0931 6dbe 88b3 c2be 78bf ebbd 582c 1dbf
00000040: 863d 353f dbab 803e 1c0f 623f c562 293f
00000050: e764 593f 0c56 d83e 3ca3 68bf b9ad 923d
00000060: 0576 64bf 62c1 09be 4925 20bf 2a89 d83e
00000070: 1c58 1a3f 8384 57bf f48c bf3c 1b04 5f3f
00000080: db2a 5d3f 6461 973d 6ffb 18bf 9ffb dbbe
00000090: d2ac 133e a540 593f ed87 53bf 8ed9 09bf
000000a0: 442b 133e 2bab ef3e 84c0 903e 4abf 16bf
000000b0: 10af ba3e fce9 423f be5b 2abe 5fe5 233f
000000c0: e5cd 323e 6a0f 19be
-0.61522335 0.11438564 -0.8727857 -0.84297156 0.36724946 -0.5836023 0.17550962 0.10597043
0.88908553 -0.14760448 0.4385653 0.114599966 -0.23163237 -0.38027596 -0.11511129 -0.6139579
0.70797 0.25131115 0.88304305 0.66166335 0.8491959 0.4225315 -0.90874076 0.07162041
-0.89242584 -0.13452676 -0.6255689 0.42292148 0.60290694 -0.8418657 0.023382641 0.8711564
0.8639352 0.07391623 -0.5975866 -0.4296541 0.14421394 0.84864265 -0.8262928 -0.5384759
0.14371973 0.46810278 0.28271878 -0.58885634 0.36461687 0.7613828 -0.1663656 0.6402187
0.17461355 -0.14947286

a f4 [20, 1]
00000000: 0af9 ed3e 24e2 5abe b582 2dbf bf6a 053f
00000010: 1e4a bb3e 39c7 42be 5caa f6be 6bb8 e7be
00000020: 1fda 04bf b6aa 93be 5a78 1ebf 6ddf 413f
00000030: 7ecf 4ebe 67e1 3cbe 5134 19bf 789d c0be
00000040: b6b8 1e3f 4113 74be 12cd 0ebf 03bb 15be
0.46479064 -0.21375328 -0.6777757 0.52116007 0.36579984 -0.1902131 -0.4817685 -0.45257887
-0.51895326 -0.2884118 -0.6190239 0.75731546 -0.2019634 -0.18445359 -0.59845454 -0.3762014
0.62000597 -0.2383547 -0.5578166 -0.1462212

W f4 [50, 5]
00000000: c1f7 b63e adad cabd bcbe bf3e 202d 58be
00000010: 03be 8e3d 9e71 9e3e 9e81 0f3e 7fec 2abe
00000020: 4b11 efbc 671a c9be fa3a acbe 662a babe
00000030: fe35 1fbe bb76 f23d 8e8b e53e fee6 17bd
00000040: 405c 8b3e 6618 943e 6933 a0be 5ede dfbd
00000050: a449 ebbd dc63 5a3c beb6 0fbe f636 9f3e
00000060: 4e5a c3be 2b47 afbe 38c5 11bd 94d7 163e
00000070: 49f4 4e3e 929c 1fbe 1455 d43e c777 2b3e
00000080: ce44 ad3e 3511 113d e92d b03e 7347 d9bd
00000090: cf31 ecbe fc6c 6cbd e197 debd 3044 88be
000000a0: cfdd c7be 70ea 60bb 3ab1 adbe 234e d3be
000000b0: c0f3 dc3e e84e bdbe 7b51 bfbe 68d6 093e
000000c0: 061e a9be 6a15 c8bd 1d4c ad3e fa60 a43e
000000d0: fd08 e03e 3686 a83c 95ae 0dbd babb 543e
000000e0: ae42 cf3e 470b 7cbe 2373 a7be 9beb 91be
000000f0: 9345 b83e 8b1a 4fbd 38ca 983e 67a7 123a
00000100: e2b1 cd3e 267a 3b3e c908 1a3e 7e8d e3bd
00000110: 0520 1ebd bd9c debe 2a22 cb3c 481f f53c
00000120: 20ca a53d d66c df3e e15a 9cbe 888c 88be
00000130: 56b9 833e 0af9 f3bc e1f3 4dbe c4af 403c
00000140: 2f38 c2be c921 d0be 180c c53e 278d f0be
00000150: 7883 2c3e 2239 a73d c15c c73e 155e bb3e
00000160: 3c72 dbbe 0097 97bc 60d0 8cbe b37b 3f3e
00000170: 2b2c a73e a2ac 61be 87ea a53e d5a9 95be
00000180: 3135 b5be 133a e53d bde8 a8bc a929 b8be
00000190: 601b a83e d867 203e 8279 d8be 1f1c cb3d
000001a0: bd10 6c3e 1e37 473c 4412 953d 2b4e 44be
000001b0: 2b71 b63e 7bfb 8c3d 0db7 acbe 1be4 4dbe
000001c0: 3982 563d 8023 b4bd 0f58 c0be d740 b43d
000001d0: e8d6 0bbe 86e2 733d 931e e6be cab0 ca3e
000001e0: 2754 f6bc 5272 81be 1041 88be 3870 933d
000001f0: ca50 b0bc d333 05be bfb8 0cbe 2355 14be
00000200: dec3 e2be 4467 12be 22ef 7b3c 5e79 d6be
00000210: 7959 82be 503d b6be c00b eb3e f31f 09bd
00000220: 36e3 4d3e 0acf a73c 2563 d1be 0c12 33be
00000230: e9e1 a3be 5f56 423e b65e a2be 7331 083e
00000240: d8f6 43be 4f59 b6be f6ba 223d 02ff 5f3e
00000250: 3cab e43e cf8c 05be 6abb 793e b7e1 ba3e
00000260: 266a 85be acd9 38be 01a2 febd 3e61 91be
00000270: 1a0c f7be e1d2 123d ff63 84be 24a4 bebe
00000280: a8a5 8ebe 7cdd 85be 1e68 8a3e 1c03 31be
00000290: 90c3 51be f7ba e4be e2a7 d53e 6c57 b23e
000002a0: 6663 30be 9682 71be 6a88 303e 08be 913e
000002b0: def2 4c3e a6c2 d4be 5653 8f3e efad 4ebe
000002c0: 5240 86be de6e d0bd 1252 c2be 5c13 3b3e
000002d0: 972c 9f3a ff56 12be 9969 a2be 6454 263e
000002e0: 211d d4be 07d9 cbbd b617 f2bd b074 bc3e
000002f0: 7280 613d 9619 c4be 227b a83e aae4 e13d
00000300: 733c 023d cee2 cd3e cbd7 e1be afd7 8a3e
00000310: 891b 313e fdcf 9f3e c2e0 5e3c 7d2e 81be
00000320: 4a6b e33d e616 013e 7d09 ea3e 166a c93e
00000330: 57fb 973e af01 db3e 5eb5 7bbe 4e0d e83d
00000340: 74eb 493e e70b 4bbe b757 5dbe 71de abbe
00000350: 5962 b03e f2d0 123e 708e be3e dc77 edbe
00000360: 5bb9 94bd 1f3f 6d3d 0515 abbe c5b4 e9be
00000370: e2e6 e839 f0fa 8cbe aa15 c73e 80e0 e2bd
00000380: 619f 613e 5b1f 0ebe 8697 68be f051 e73e
00000390: 9af4 abbd fc4c d9be ed13 4dbd 4a55 ac3e
000003a0: 4cca b33e a712 3d3e c54d 85be f328 ccbe
000003b0: 9d53 c9be f740 103d 98bb 9bbe d53b 653d
000003c0: c3d5 f4bd 3da2 573e bd15 643d 117a 1ebe
000003d0: faac 88be 56ef 49be b556 d53d 98f7 c33e
000003e0: 0108 513e 3f2e 40bb
0.35735896 -0.09896407 0.37450206 -0.21110964 0.069698356 0.30946058 0.14014289 -0.16691779
-0.02918305 -0.39277956 -0.33638746 -0.36360472 -0.1554794 0.11839052 0.44833034 -0.037085526
0.2721882 0.28924865 -0.31289223 -0.10931085 -0.11488655 0.013329472 -0.14034554 0.3109662
-0.38154835 -0.34233984 -0.035588473 0.14730674 0.20210375 -0.1558707 0.4147116 0.1674491
0.33841556 0.0354168 0.34410027 -0.10609331 -0.4613175 -0.057721123 -0.10868812 -0.26614523
-0.39036414 -0.0034319423 -0.33924276 -0.4127055 0.43154716 -0.36974263 -0.37366852 0.13460696
-0.3303072 -0.097697094 0.33847132 0.32105237 0.43756858 0.02057181 -0.034590323 0.20774737
0.4048056 -0.24613677 -0.3270503 -0.28500065 0.3599058 -0.050562423 0.2984178 0.0005594403
0.40174776 0.18308315 0.15042414 -0.11110972 -0.038604755 -0.43478957 0.024796564 0.029922143
0.08095193 0.43637723 -0.30538085 -0.26669717 0.25727338 -0.029781837 -0.20112564 0.011760656
-0.3793349 -0.40650776 0.3848579 -0.4698269 0.16847026 0.08165194 0.38937953 0.36595216
-0.4286059 -0.01850462 -0.27502728 0.18699531 0.32650885 -0.2203851 0.32405493 -0.29231134
-0.35392144 0.111927174 -0.02061879 -0.35969284 0.32833385 0.15664613 -0.42280203 0.09917473
0.2305326 0.012159137 0.072788745 -0.19170444 0.35633215 0.068839036 -0.33733407 -0.20106547
0.052370284 -0.087958336 -0.37567183 0.0880143 -0.13656199 0.0595422 -0.449452 0.39588004
-0.030069424 -0.25282532 -0.2661214 0.071991384 -0.021522898 -0.1300805 -0.1374235 -0.14485602
-0.4429006 -0.14297205 0.015376838 -0.4188947 -0.25458887 -0.35593653 0.45907402 -0.033477735
0.20106205 0.020484466 -0.40895954 -0.17487353 -0.32008293 0.1897826 -0.31712884 0.13300113
-0.19137132 -0.35615012 0.03972908 0.21874622 0.4466189 -0.13041995 0.24387899 0.36500332
-0.26057547 -0.18051785 -0.124332435 -0.28394502 -0.4825142 0.03584564 -0.2585754 -0.37234604
-0.2786076 -0.26145542 0.2703256 -0.17286342 -0.20484757 -0.44673893 0.41729647 0.34832323
-0.17225417 -0.23584971 0.17239538 0.28465295 0.20014521 -0.41554755 0.27993268 -0.20183538
-0.26220948 -0.10177396 -0.3795324 0.18269104 0.0012144026 -0.14290999 -0.3172119 0.1624313
-0.41428474 -0.09953504 -0.11820929 0.36807775 0.055054136 -0.3830077 0.32906443 0.11029942
0.03179593 0.402121 -0.4410995 0.2711768 0.1729566 0.3121337 0.013603391 -0.2523078
0.11104448 0.12606391 0.45710364 0.3933875 0.29683945 0.42774722 -0.24580905 0.11330663
0.19718724 -0.19828759 -0.21615492 -0.33568147 0.34450033 0.14337519 0.37218046 -0.46380508
-0.07261916 0.057921525 -0.33414474 -0.4564573 0.0004442251 -0.275352 0.38883716 -0.11077976
0.22033454 -0.13879149 -0.22714052 0.451797 -0.083962634 -0.42441547 -0.05006783 0.3365882
0.35115278 0.18464147 -0.26035896 -0.39874992 -0.39321604 0.035218205 -0.3041656 0.055965263
-0.11954834 0.21057983 0.055684794 -0.15476252 -0.2669447 -0.19720206 0.10416929 0.38274837
0.2041321 -0.002932444

a f4 [10, 1]
00000000: 6ded 8cbe 1a36 5fbf 33a3 223f 4ec5 b5bd
00000010: 085f 44bf 5be9 4dbf 4325 803f 53b5 54bf
00000020: 89ae edbe f35e 99be
-0.27524891 -0.8719193 0.6353027 -0.088755235 -0.76707506 -0.804342 1.0011371 -0.8308918
-0.46422222 -0.29955253

W f4 [5, 10]
00000000: 005e 923b e975 1bbf 21c0 05bf 89a5 233d
00000010: 69e4 5d3f 9372 513f 04a7 6d3d ddc9 5fbe
00000020: 7b7d 22be 0d07 d43e e962 c53e fcf3 77bd
00000030: f129 b5be 6dc2 253f c38f 68be f750 57bf
00000040: 227b 003f e942 18be 35dc 933b f934 51bf
00000050: 0e7b 1bbe 35df d7be dc34 613f 44b0 123f
00000060: e6e3 2abd 2ca4 f13e 0902 523e 61cb 3f3f
00000070: c6b9 933e 2744 d8be ba85 1a3f bc8a 86be
00000080: 9f3f ad3d 5c0e c73e 3d62 f73e 1771 38bf
00000090: a6fe 123e ffbb fe3d 2312 4a3f 11e7 c73d
000000a0: 6483 28bf 52ff b73e 47e6 cc3e 119f 633f
000000b0: 6ca7 52be 9728 4abf f741 17bf 256c 983e
000000c0: 236a babe c620 223f
0.004466772 -0.6072679 -0.5224629 0.03995279 0.8667665 0.8181545 0.058020607 -0.21854348
-0.1586818 0.4141163 0.38552025 -0.060535416 -0.3538356 0.64749795 -0.2271109 -0.8410792
0.50187886 -0.14869274 0.0045123347 -0.81721455 -0.1518366 -0.4216248 0.8797128 0.5730021
-0.041721247 0.47195566 0.20508589 0.74919707 0.2885267 -0.42239496 0.603603 -0.2627772
0.084594004 0.38878143 0.48317137 -0.7204756 0.14354953 0.12438201 0.78933924 0.09760869
-0.65825486 0.3593698 0.40019438 0.8891459 -0.20571679 -0.78968185 -0.5908503 0.29770008
-0.364091 0.6333126

a f4 [20, 1]
00000000: 2078 893e c4fa dbbe b76d 3ebf d226 113f
00000010: f6c6 34bf 607d fabd 6000 0b3f f60a 9d3c
00000020: e574 bebd 9fb7 31bf 63f6 1ebf d493 c4be
00000030: 0f2a 263f 7290 643e a638 5f3e c028 d83d
00000040: fc52 06bd 9cf9 afbe c508 5b3d 6598 bebe
0.2684946 -0.42964756 -0.7438616 0.5669986 -0.7061609 -0.12230945 0.5429745 0.019170266
-0.092996396 -0.6942081 -0.62094706 -0.38394034 0.64907926 0.22320727 0.21798953 0.105546474
-0.032793984 -0.34370124 0.05347516 -0.37225643

W f4 [5, 10]
00000000: 019d 3abf 0d06 ecbd 3bab bfbe 7f14 2bbf
00000010: 9213 89be e1b7 41be 3eb5 193d a20d 1a3d
00000020: c3e0 fabe dc7c c53e 9d24 6dbe 3f1c 783e
00000030: ff02 953e 9379 e9be d13c a33e 6ed7 5f3e
00000040: 054e 223f ab1b 52bf 07e5 bd3e 2bed 4dbe
00000050: b293 56bf 8c08 213d a031 bfbe 2d2d 093e
00000060: dbee 4bbd e796 1ebf 6c54 56bf 4bf9 82be
00000070: 335e 883e 78e4 3b3f f4ba 41bf 6cfd cabe
00000080: ff41 b8be 2c48 5fbf 2473 22bf 9e81 9dbe
00000090: 0bd1 90be 8fc6 e1be 38b9 273f 5a7a 223f
000000a0: 9f38 21be 1817 46bd fffb 013f 7632 85be
000000b0: ab98 d0bd 52d9 99bd 8a6e 22bf f7ae 613f
000000c0: f5d3 993d 7fc0 023f
-0.7289582 -0.115245916 -0.37435326 -0.6682815 -0.26772743 -0.189178 0.03752636 0.037610658
-0.48999605 0.38571823 -0.23158498 0.24229525 0.29103848 -0.45600566 0.31882337 0.21859524
0.634003 -0.8207347 0.37088796 -0.20110004 -0.83819115 0.03931479 -0.37342548 0.1339614
-0.049788337 -0.6194901 -0.8372257 -0.2558082 0.26634368 0.7339549 -0.7567589 -0.3964647
-0.3598785 -0.872195 -0.6345694 -0.30762953 -0.28284487 -0.440968 0.65516996 0.63467944
-0.15744255 -0.048361868 0.5077514 -0.2601506 -0.10185369 -0.07512154 -0.6344992 0.881576
0.07511131 0.51074976

a f4 [20, 1]
00000000: fb95 dbbe bcf3 8cbe 7bc8 39bd 2585 3a3d
00000010: 4080 09bd bcbb 3b3e 4166 c0be c9a8 1abf
00000020: 3e21 1cbf 8383 40bf 73d1 12be 9fcf cdbe
00000030: 97dc ee3e a229 1abf 44ba b8be c318 a6be
00000040: e01e 81be 385b 3a3f 4e1b 523e b8fd 2b3f
-0.42887864 -0.27529705 -0.04535721 0.045537133 -0.033569574 0.18333334 -0.37578014 -0.60413796
-0.60988224 -0.7520067 -0.14337711 -0.40197465 0.46652672 -0.60219777 -0.3607961 -0.32440767
-0.25218868 0.7279544 0.20518228 0.6718402

W f4 [5, 10]
00000000: cced a8be 47fc 323f 810d a3bd c309 053e
00000010: 3ba0 ff3e 2ced fe3e f664 1abf cf68 3d3e
00000020: 7b4a 3a3f 3a87 32bf 5eac 2cbe 48e3 33bf
00000030: 4994 b03e e956 04bf 54bb 5fbe 6ced 31bf
00000040: b829 093e e925 a8be 0dbe aebe c0dd c3be
00000050: da18 aabd b39d 16bf 24ae b2bd 7a1e 78be
00000060: dc43 543f 05d8 5c3f 0528 58bf 5396 3f3f
00000070: ef7c 8d3e 2a41 b1bd 4ec6 d5be 6297 2e3f
00000080: 243c ccbe a06f b5be ae6a 0a3f 758e 39bf
00000090: efc6 4ebf 093b b13e 93a7 02bf f287 243f
000000a0: 2ce9 49bf 7279 923e 57c5 40bf 65dc fd3e
000000b0: 3878 d53e e187 fcbd c6b1 fd3e 8ffd 44bf
000000c0: 2241 fcbe 2407 2c3f
-0.32993925 0.69916195 -0.0796156 0.12992005 0.49926934 0.49790323 -0.60310304 0.18497013
0.727699 -0.6973759 -0.16862628 -0.7026868 0.34488133 -0.51695114 -0.21848804 -0.695029
0.1339482 -0.32841423 -0.34129372 -0.3825512 -0.08305521 -0.5883438 -0.08724621 -0.24230376
0.82916045 0.8626712 -0.84436065 0.7483875 0.2763438 -0.08655007 -0.41752857 0.6819974
-0.39889634 -0.35436726 0.5406903 -0.72483 -0.807723 0.34615353 -0.5103695 0.64269936
-0.7887142 0.2860828 -0.75301117 0.4958221 0.41693282 -0.12330604 0.49549693 -0.769494
-0.49268442 0.67198396

a f4 [20, 1]
00000000: 5636 46be 214c 0fbf 3e7b 693e 2787 0a3f
00000010: d1bb ae3e 8734 e73e f0c4 9d3e 7cc4 8c3e
00000020: f020 d4bd 0070 283f 720b 42bd 115f e6be
00000030: 425b 8dbd b0e6 ca3e e781 b03e eef3 cb3e
00000040: 1f6d 003e b5fc f1be c408 1a3f 6cae 1c3e
-0.19356665 -0.5597554 0.2280092 0.54112476 0.34127668 0.45157263 0.30814314 0.27493656
-0.10357845 0.657959 -0.047374196 -0.44994405 -0.06902172 0.39629126 0.34474108 0.3983454
0.12541626 -0.47263113 0.60169625 0.15300912

W f4 [5, 10]
00000000: 726a 303d b6c6 c1be 751d 5abf fd2f 83be
00000010: 9eb6 1c3d 88e5 9c3e ec87 393f 738f 243f
00000020: dfbb 2cbf 80cc f6be e716 2fbf 5aef a93e
00000030: 9fa0 63bd 7369 20bf f1c1 35bf 1921 55bf
00000040: 190e 643e f6f1 51bf eb29 0abe 41fa e13d
00000050: b7dc 65be 0772 c83e 8b05 463f cb07 96bd
00000060: 50f2 b2be 2a6b 2bbf a0c1 4c3f 9d6e 663f
00000070: ff8d 423f c7cb c0bd 207b b5be c6f8 10bf
00000080: 6859 dfbe 241b f2be d9e1 e0be 5143 44be
00000090: e90e bb3e bdd6 27bf db62 433f 9c64 19bf
000000a0: 1ecc eebe d8b2 023f ef74 fdbe f8bf 99be
000000b0: d7b8 ea3d cbd6 573f 28ca 423f 112a 003f
000000c0: 653b 4a3f 38bb 5abf
0.043070264 -0.37846917 -0.852012 -0.2562255 0.038260095 0.30643868 0.72473025 0.64281386
-0.6747417 -0.48202896 -0.6839432 0.33190423 -0.055573102 -0.626609 -0.70999056 -0.8325363
0.22271003 -0.8200983 -0.13492553 0.1103406 -0.22447477 0.39149496 0.7735221 -0.07325705
-0.34950495 -0.66960394 0.7998295 0.9001253 0.7599792 -0.094138674 -0.354455 -0.566296
-0.436229 -0.47286332 -0.43922308 -0.19166304 0.36534813 -0.6556204 0.76322716 -0.5991914
-0.46640104 0.51054144 -0.49503276 -0.30029273 0.11461037 0.84312123 0.76089716 0.5006419
0.7899688 -0.85441923

a f4 [20, 1]
00000000: ea6a f9bd c338 42bf f87b e9be 53b3 40bf
00000010: aab1 ba3e f83f 193f 7be4 cf3e 6082 22bf
00000020: 1eaf a53e 7e46 e93e d1a9 cabe 89e5 febe
00000030: 932d df3d 9c71 2c3f caaf 30bf 5e4a 95be
00000040: 609e 0f3e 3840 a2be c99d 1dbf 005c 87bd
-0.12178595 -0.7586786 -0.45602393 -0.7527363 0.36463672 0.59863234 0.40604004 -0.63480186
0.32360166 0.45561594 -0.39582685 -0.49784496 0.108973645 0.67360854 -0.6901823 -0.291583
0.14025259 -0.3168962 -0.61568886 -0.066093445

W f4 [5, 10]
00000000: dd91 063f df1c 453f c4e3 933e d8ad 053f
00000010: b3ac 02bf 20bf 833e 46d9 223f b4c8 8bbe
00000020: 2c4a 44bf 57b1 50bf 72cf 8fbe 5ccc 123f
00000030: 304c 24bd 2a18 edbc f373 7dbe c2a0 1dbe
00000040: 8f25 433f ee52 24bf 6858 cf3e 50b3 12be
00000050: f435 48be 3a95 2dbe f0fd 323f a03f 98be
00000060: aceb 513f 42c0 f43e 147b 42bf 98ed 543e
00000070: c128 df3c 205c 073f bb85 07bf 9b6d 5fbf
00000080: f783 64bf 39c0 c8be 03ed 40bf f85c 24bf
00000090: 84a2 5bbe ec6f 7dbe a66b 13bf d05d 17bf
000000a0: 8d4e 36be b263 f6be 7654 2f3e 7c57 fbbe
000000b0: 069b 01bf e1d0 233f 36f9 f53e bc21 afbe
000000c0: 5417 423f 7dec 1bbf
0.5256632 0.7699718 0.2888471 0.5221839 -0.5104477 0.25731754 0.6361278 -0.27301562
-0.7667568 -0.815206 -0.28087956 0.5734308 -0.04011172 -0.028942186 -0.24751262 -0.15393355
0.76229185 -0.6418904 0.40497136 -0.14326215 -0.19551831 -0.16951457 0.6991873 -0.29736042
0.8200023 0.4780293 -0.7596905 0.2079376 0.027241113 0.52874947 -0.5293843 -0.8727662
-0.8926386 -0.39209154 -0.7536165 -0.6420436 -0.21448714 -0.24749726 -0.57586133 -0.5912752
-0.17803402 -0.48122936 0.17122063 -0.49090183 -0.5062717 0.639906 0.48041695 -0.34205425
0.75816846 -0.6090773

a f4 [20, 1]
00000000: a2b0 273f a1e0 283e 928e ebbe a730 3f3f
00000010: 647f c8bd 8f0f 96be 8e5d 0e3d b358 81bd
00000020: ce53 76bd bf19 983d e91e 1abf fdd9 af3e
00000030: 8f11 bb3d fe1c 69bd 3f1e 0f3f 2c27 153f
00000040: 4c66 0f3f c6f4 a63e 9b0d 04bf a735 893d
0.65503895 0.16491939 -0.4600721 0.7468361 -0.09789923 -0.29308745 0.03475719 -0.06315746
-0.060138516 0.07426786 -0.60203415 0.34346 0.091342084 -0.056912415 0.55905527 0.58262897
0.5601547 0.32608622 -0.5158326 0.066996865

W f4 [50, 5]
00000000: fd2f c83e fdc6 a8be 3ff3 973d a6c8 b43e
00000010: ac65 863e 8f27 d23e 4262 643e 56bf 83be
00000020: 6031 2b3e 383a d1bd 33e5 03be 415d b83d
00000030: 8e38 93be 3125 97be 7c2b 403d d8a8 ae3e
00000040: 1216 0a3e d753 18be 8bb1 c73e f8ad b73e
00000050: 333c b0be d0d7 d63c 78fa 113e eee6 d63d
00000060: 3d52 3bbe 9ec1 9dbd 4da6 58be de83 a43d
00000070: 2a67 c2be 8348 bf3d 72b2 61be 679b e03e
00000080: 6a7e 033e e9db 42be 7819 e2be 94e4 0c3d
00000090: 1f2e a43e c9ba 0abe 7a82 553e 6b4d 8d3b
000000a0: 8f65 a3be badc b93d 7283 c13e b6d8 0cbe
000000b0: 248c 903e 37e1 9cbe 5470 9fbe d347 cbbe
000000c0: a82f 7fbe d811 103e dd62 74bc 87bf 16be
000000d0: 0b0a 5c3e b759 97bd e358 8c3e 82ee c73e
000000e0: 0749 d63d 2bf1 bb3e b532 0c3e 279f c33e
000000f0: 598c 563a 79aa a1be 555f 5a3e e123 893e
00000100: 771d 853e f23f a7be db15 2fbe baf3 f03e
00000110: bda7 ddbe 52d0 41be da76 dfbe e027 71be
00000120: d8ae ae3d 033d 9c3d c74b 1b3e e7d3 9f3e
00000130: 1009 d53e 34df 903e e1fa b6be b161 393c
00000140: a4a7 433e ebc3 cfbe 6694 f0be 7026 923d
00000150: 9a7c 9f3e 61f4 893e af1f 8abe 2ea3 b83e
00000160: 499e 873e 8026 6a3e 203a 723e c0b4 f53c
00000170: f55b de3d 9c06 c8bd 3e5b 473e fc03 bdbd
00000180: 31bc 5fbd 47cd 0fbc e016 a23e 249d f13c
00000190: b859 f0bd e92a d6be ef71 01be 0772 213e
000001a0: a729 1e3a 9661 5dbe 68d2 e03e 4633 703d
000001b0: 81f9 c43e e4c0 19bd 722d 883d 8b28 a3be
000001c0: 64f6 59be b29c 90be 4930 adbe 2548 c4be
000001d0: 4522 83be bbd5 afbe 4155 c23e 0a04 34be
000001e0: 1aef aebb 397b 2fbd 5873 3bbd e4e7 6a3e
000001f0: eed6 093e 994f c43e 843b 9c3d a9e4 e4be
00000200: c088 113e fdc3 55bd b47f f6be 13ce 8e3e
00000210: 273b 5d3d e185 1a3e 5945 be3b 8ea2 e73b
00000220: 97dd f53c 6401 cbbe a41b a13e 503e 7abd
00000230: fe5c 533e 8eb3 c1be f3be 0cbd d37d 583d
00000240: fc96 35be 5579 b2be b3a1 d8be e10b 053e
00000250: e659 9e3e 4c39 b73e bdb9 f83d 67dc a9be
00000260: 970f 213d fabd cf3e 40c0 82be 0ebd c6be
00000270: 4d53 c9bd ef5b 943d 1caa 233e ab65 23be
00000280: b9de f53d 5532 223d edbd ef3d 3be5 683e
00000290: 5715 923e 2470 673e 1b54 3bbe b29a a73e
000002a0: f457 5d3d c0f0 a63d 504e e13e 53d7 f73b
000002b0: 0850 20bd d841 b83d b790 c03d a12c b93e
000002c0: 996e 82be fe2e 8cbe a7aa afbe a834 c33e
000002d0: 148f c4be 9039 3abc 039b 023e 032d 5a3d
000002e0: 85f5 913e e6c4 c1bd 3445 fb3c f139 933d
000002f0: ba11 b6be 2ac5 15be f3c4 f13e a7f6 1abe
00000300: 51a0 c53e 4088 8c3d e6ff 1ebe e189 f2be
00000310: 0b3b 003e 7683 9ebe 8e9f cfbc 2807 e0be
00000320: 667d 543e 9bf4 cf3e 3c6c 00bd 0acb 193e
00000330: 783e 903e 4706 8abd adf0 c53d d1f9 acbd
00000340: f833 293e bbf4 d4be c303 d1bd 9c53 573e
00000350: 7093 813e 7dde ce3e c9db 94bd e74e e1be
00000360: faa0 c3bd e582 82be adfb 5bbe 5550 74be
00000370: 951c 543e 171e 6bbd ecd1 af3e 91a3 1d3e
00000380: 20bd 6d3e 2ebb de3d 0a9b 9cbe 19ed 82be
00000390: ccd5 c63c 9c6a c23d 218d cc3e 589e 513e
000003a0: 1213 1bbe 192a 9fbe 5d1d eb3e 2963 493e
000003b0: cbb1 0dbe 4ab0 9b3e 55f5 c93d 4029 a53e
000003c0: 64ec 933d fb47 c63e 0ef1 aabe c60e a1be
000003d0: c735 bebd 0f4a 93be 8e14 b53e b1c5 e5bd
000003e0: a116 a73e e545 0bbe
0.39099112 -0.32964316 0.074194424 0.35309333 0.26249444 0.41045806 0.22303107 -0.25731915
0.16718054 -0.102161825 -0.12880401 0.09002162 -0.28754085 -0.29520562 0.04691647 0.34113193
0.13484982 -0.14875732 0.39002642 0.35874915 -0.34420928 0.026225954 0.14255702 0.10493265
-0.1829309 -0.07702945 -0.21157189 0.08032964 -0.37969333 0.093400024 -0.22040728 0.43868563
0.12841192 -0.19029202 -0.44160056 0.034397677 0.32066438 -0.13547815 0.20850554 0.0043122075
-0.3191342 0.090753034 0.37795597 -0.13754544 0.2823192 -0.30640575 -0.31140387 -0.39703235
-0.24920523 0.14069307 -0.014916149 -0.147215 0.21488206 -0.073901586 0.27411565 0.39049155
0.104631476 0.36707434 0.13691218 0.3820736 0.00081843656 -0.31575373 0.21325429 0.26785186
0.25999042 -0.32665974 -0.17098181 0.4706095 -0.43292037 -0.18927124 -0.43645364 -0.23550367
0.085294425 0.076288246 0.15165626 0.31216356 0.41608477 0.2829529 -0.3573828 0.011314795
0.19106919 -0.4057916 -0.4698822 0.071362376 0.3114975 0.2694426 -0.26977298 0.36061996
0.2648795 0.22866249 0.23654985 0.029993415 0.10857383 -0.09766886 0.194684 -0.092292756
-0.054622833 -0.008776969 0.31658077 0.029493876 -0.117358625 -0.41829613 -0.12641118 0.15766154
0.00060334284 -0.21619257 0.43910527 0.05864265 0.38471606 -0.03753747 0.06649293 -0.3186687
-0.21285397 -0.2824455 -0.338259 -0.38336292 -0.25612083 -0.3434275 0.3795567 -0.17579666
-0.0053385617 -0.042842124 -0.045764297 0.22940022 0.13460895 0.38341978 0.07628539 -0.44705704
0.14212322 -0.052188862 -0.48144305 0.27891597 0.05401149 0.15090133 0.0058066067 0.0070689386
0.030012889 -0.39649498 0.314664 -0.061094582 0.20640942 -0.37832302 -0.03436179 0.05285437
-0.17733377 -0.34858194 -0.42310867 0.12992813 0.30927962 0.35785902 0.12144802 -0.33175966
0.03932151 0.40574628 -0.255373 -0.38816112 -0.098303415 0.072440974 0.1598286 -0.15956752
0.120053716 0.03959878 0.11706147 0.22743694 0.28531906 0.22601372 -0.18293802 0.3273521
0.054038957 0.08151388 0.4400506 0.0075635104 -0.039138824 0.08996934 0.09402602 0.36166862
-0.25475004 -0.27379602 -0.34309885 0.3812611 -0.3839041 -0.011366263 0.12754445 0.053265583
0.2850763 -0.094613835 0.030672647 0.07188786 -0.355604 -0.14625993 0.47220573 -0.15133153
0.38598874 0.06861925 -0.15527305 -0.47370818 0.12522523 -0.30959672 -0.025344636 -0.4375546
0.2075096 0.40616307 -0.03135322 0.1501886 0.2817266 -0.067394786 0.09665046 -0.08446086
0.16523731 -0.41592965 -0.102057956 0.21027988 0.25307798 0.4040412 -0.07268483 -0.4400551
-0.09552188 -0.2549049 -0.21482725 -0.23858769 0.20714028 -0.057401743 0.34339845 0.15394427
0.23216677 0.108755454 -0.30587035 -0.25571516 0.024271868 0.094929904 0.39951423 0.2047056
-0.15143993 -0.31086805 0.4592084 0.19666733 -0.13837354 0.30407935 0.098612465 0.32258034
0.07222822 0.38726792 -0.33387035 -0.31456584 -0.09287601 -0.2876744 0.35367244 -0.11219347
0.32634452 -0.13600881

a f4 [10, 1]
00000000: 5182 83be b22b 6c3e 1740 e6bd a016 2cbf
00000010: 1260 4c3f 3471 c4be 3fcb b53e c7e9 663f
00000020: 384a 003f 6a2c 51bf
-0.2568536 0.23063543 -0.11242693 -0.67222023 0.7983409 -0.38367617 0.35506627 0.90200466
0.5011325 -0.81708395

W f4 [5, 10]
00000000: b905 a8be c600 0a3f d415 063e 78c8 543f
00000010: 29be 5a3f ee29 5ebf 8db5 40be cb92 c8be
00000020: d696 61be 605a bdbe 7e3d 61bf de1e e33e
00000030: 2638 503f 239a 06be f3dd edbe c5ff 53bf
00000040: 82b3 043f e2ec 61be e97c d73d 54e7 efbe
00000050: 60bf 513f b62c 1d3d c497 afbe 05cf 15bf
00000060: deb4 febe 37cd 07be d43f 3d3d 65cf ff3e
00000070: 9237 9d3e 6e87 8abe e239 d0be 53b9 213f
00000080: 3abf a83e 465a b43c add3 473f b354 2f3e
00000090: 63ad 03bf ffd6 44be 2d53 c8be 0703 dd3e
000000a0: 0178 dcbe 28c9 13be e439 12bf 7a17 8e3d
000000b0: d8e9 1b3e 90e6 cebe 4d64 f43e ea40 4f3f
000000c0: e87e e6be de78 b23e
-0.32816866 0.5390743 0.13094264 0.8311839 0.8544641 -0.8678273 -0.18819256 -0.39174494
-0.22030196 -0.36983013 -0.87984455 0.44359487 0.81335676 -0.13144736 -0.46458396 -0.8281215
0.5183641 -0.2206302 0.105218716 -0.46856177 0.8193264 0.038372718 -0.34295475 -0.5851901
-0.49747366 -0.13261877 0.04620345 0.49962917 0.3070646 -0.2705645 -0.4066916 0.6317341
0.32958394 0.022015702 0.78057367 0.17122154 -0.5143644 -0.1922264 -0.39125958 0.43166372
-0.43060306 -0.14432204 -0.57119584 0.069380715 0.15225923 -0.4041028 0.47732773 0.80958426
-0.45018697 0.3485784

a f4 [20, 1]
00000000: c054 cd3e 4ef9 75be 1b62 893e efdd ff3e
00000010: c1f8 143f a092 a63e d753 2dbe ea82 873e
00000020: 9a9b 533e 490f 283f da61 d73d 26de 103f
00000030: 2bff 06bf 585f cebe 1388 0b3e 9b1f 28bf
00000040: 1742 4bbe 0d9f a9bc 55fc 2f3f 309b 26bf
0.40103722 -0.24020883 0.2683266 0.4997401 0.5819207 0.3253374 -0.16926514 0.26467067
0.20664826 0.65648323 0.105167106 0.5658897 -0.52733105 -0.40307117 0.13626127 -0.65673226
-0.1984943 -0.020705724 0.68744403 -0.6508055

W f4 [5, 10]
00000000: a9d9 6e3d 35fe f7be efed cc3e 40fc 01bf
00000010: 73ce 513d 11c8 073e 4a4b 103f ca16 ebbe
00000020: acae d6be d751 103e 07f8 1abe 1506 c8be
00000030: 3c7d 3bbe b08b 02bf bd89 08bf 2bd6 a0bd
00000040: c174 9fbe 2b5b 64be a013 0a3e 8168 fe3e
00000050: 694a 1f3f 7c08 d73e b300 66bf bc1f a43e
00000060: 2cd0 823e 5a55 a7be 0ad7 533f 8870 423f
00000070: e625 45bf 5e67 e6be 026c e53e 7c47 a33e
00000080: 2da7 15bf f620 b8be eb9b bc3e d1f1 df3d
00000090: 2574 263f 3a17 66bf d243 3e3f 5a1c 973e
000000a0: afd6 04bf 2f2e c93e 3ccf fcbe dada 84be
000000b0: 2003 3b3f d46a 76be fd2a de3d e51e 153f
000000c0: 0134 5a3f ea0d d2be
0.058313046 -0.48436132 0.4002528 -0.5077553 0.051222276 0.13259913 0.5636488 -0.45915824
-0.4193014 0.1409372 -0.15133677 -0.3906714 -0.18309492 -0.50994396 -0.5333517 -0.07853349
-0.31143764 -0.22300403 0.13484049 0.49689105 0.62222916 0.4199866 -0.89844817 0.3205546
0.25549448 -0.32682306 0.8275 0.7595296 -0.77010953 -0.45000738 0.44808966 0.31890476
-0.58458215 -0.35962647 0.36837706 0.10934795 0.6502097 -0.8987919 0.74322236 0.29513818
-0.5189008 0.39293048 -0.49376857 -0.2594822 0.73051643 -0.24064189 0.10848043 0.58250266
0.852356 -0.4102624

a f4 [20, 1]
00000000: dee2 063f 7f43 28bf 45ac 383f f212 df3e
00000010: 2624 133f 3d1e aaba 21c3 2a3f dc44 e3bc
00000020: 4b70 02bf cd30 133d 3b46 c7be f142 4a3e
00000030: 05d8 c73e 3408 e13e 6bfa 433e ddb8 26bf
00000040: 52ee 0e3f 30d7 32bd 5784 1a3e a267 44be
0.5268992 -0.6572799 0.7213786 0.43569142 0.57477033 -0.0012978982 0.66703993 -0.027742796
-0.50952595 0.035935212 -0.3892077 0.19752099 0.39031997 0.4395157 0.19138496 -0.6512583
0.558324 -0.04366225 0.15089546 -0.19180158

W f4 [5, 10]
00000000: 1d8b 1bbf 5cbe 203f 0081 ac3e 1825 253f
00000010: 03d9 383f 6be5 103e f371 023f 1ee1 fe3e
00000020: b0f8 2ebf b024 55bf 7840 40bf 98e6 8a3e
00000030: e5ef 413b 8dd7 cf3e 5945 2fbf 2c91 223f
00000040: 3d69 22bf a4ac ef3d 7f9c 973e a5c2 53bf
00000050: 12ee 143f 4189 18bf 61eb bd3e 81aa 5ebd
00000060: 1309 0cbe a753 1ebe 7206 bebe 5a8b 49bf
00000070: 924c 5a3f db46 7b3e fd19 dc3e 3fa4 1abf
00000080: a683 a53e 06ea 063f b04c 2a3e 196d 383f
00000090: ab37 4f3e 0b32 29be f664 56bf 31fa 7a3e
000000a0: e562 043f 7bec 363f b7fd 48bf c8ed 0dbf
000000b0: 9b91 053f b6f8 a53e fc16 5e3f ac9e 4bbe
000000c0: 1f7c c23e 81c6 093b
-0.60759145 0.62790465 0.3369217 0.64509726 0.72206134 0.14150016 0.5095512 0.49781126
-0.68348217 -0.83259106 -0.7509837 0.27129054 0.0029592451 0.4059414 -0.6846519 0.63502765
-0.6344183 0.117028505 0.29611585 -0.8271888 0.58175766 -0.5958443 0.37093642 -0.054361824
-0.13675337 -0.15461598 -0.37114292 -0.7872826 0.8527309 0.24538748 0.42988577 -0.6040687
0.32327002 0.5270084 0.16630816 0.7204147 0.2023608 -0.16522996 -0.83747804 0.24509503
0.517134 0.7145459 -0.7851214 -0.5544095 0.521753 0.32416314 0.8675382 -0.19884747
0.37985322 0.0021022859

a f4 [20, 1]
00000000: a22c 4cbe 951d 11bf 28b6 15bf 1346 a73e
00000010: 2274 ecbe 3dba e1bd 486a b73e e695 c7bd
00000020: d985 3c3f 6720 d93c cd68 013f 0a31 77bd
00000030: 8f78 bb3d 73bb 023f 3269 21bf 2c4c 203f
00000040: 00ea ffbe d299 ec3e dbc9 1fbf 3f48 43be
-0.19938901 -0.56685764 -0.58481073 0.3267065 -0.46182352 -0.1102185 0.35823274 -0.09745388
0.73641735 0.026504708 0.5055054 -0.0603495 0.09153854 0.51067275 -0.6305114 0.6261623
-0.49983215 0.46211106 -0.6241738 -0.19070528

W f4 [5, 10]
00000000: e360 513f 08e8 363f 1a9e bd3e 67a8 f9be
00000010: e8e6 16bf 7676 94be ad89 45bf 2149 0d3f
00000020: 0a5c 8d3e c857 e33e aab4 24bc 4221 bdbe
00000030: 15c8 96be 4349 573f 62ca dfbd 17d4 143f
00000040: 20eb 253e f60f 1dbf 5a01 c1be 56a7 b53e
00000050: 08d1 653d 6028 50bf 55de acbe 9f48 b83e
00000060: 1e77 f93e 43d0 9fbe d2ac 62bf 71e9 48be
00000070: 6f59 303f c889 953e 6008 5fbf e80d f63e
00000080: 005c 5a3f 56cf 16bf 0a96 473f 330c 0abf
00000090: 4428 093f a244 51bf 61a9 213f ef60 393e
000000a0: 8e98 5b3c eab0 31bf 9f02 d93d 600f da3e
000000b0: d622 12bf 2fb0 3b3f 4bbd 6ebe 8d75 43bf
000000c0: faa2 123f 0bc6 64bf
0.8178846 0.714478 0.37034684 -0.48761293 -0.58946085 -0.2899663 -0.771632 0.5518971
0.27609283 0.4440291 -0.010052839 -0.36939436 -0.29449525 0.84096164 -0.10927273 0.58136123
0.16202974 -0.6135248 -0.37696344 0.3547923 0.05610755 -0.8131161 -0.33763376 0.35992905
0.48723692 -0.3121358 -0.8854495 -0.19620301 0.68886465 0.2920668 -0.87122154 0.48057485
0.8529663 -0.5891012 0.77963316 -0.53924865 0.53577065 -0.8174535 0.63149077 0.18103383
0.013403071 -0.69410574 0.10596203 0.42589855 -0.57084405 0.7331571 -0.23314397 -0.76351243
0.5727993 -0.8936469

a f4 [20, 1]
00000000: e165 373e e3fc 67bc 83f5 35bf eace 19bf
00000010: 4c46 82bd 32be 463e 33d1 023f 21b8 c23e
00000020: 43e1 e4be 9d11 4e3e 7d62 21bf f4fa 1bbf
00000030: d95f 9abd a189 023f 7bdb 1a3f 0653 3dbf
00000040: 8f58 28bf 403a 3dbf 884a 23be eb18 37bf
0.17909957 -0.014159414 -0.71077746 -0.6008135 -0.06361064 0.19408491 0.5110046 0.38031104
-0.4470311 0.20123906 -0.63040906 -0.609298 -0.07537813 0.50991255 0.6049115 -0.7395481
-0.6576013 -0.7391701 -0.159464 -0.71522397

W f4 [5, 10]
00000000: 82bf 4a3f a0e6 2e3f 7667 173f 9d7c d1be
00000010: 311a 013e 6a5b 03bf ea87 973e b962 853e
00000020: 00eb 563f 6c4a 49bf f666 3d3e 1c49 85be
00000030: 0080 0cbf 5fb9 49be 0f73 8abc 7849 d63e
00000040: 58bc 29bf 8967 5d3e 7c67 0e3f 9ad8 2d3f
00000050: 80b7 363f 044e 4ebf 1b43 e03e 5cd8 3cbf
00000060: 23c3 b0be c76b 103f fc66 39bf bddd 353d
00000070: 5f92 fcbd c656 6a3e f996 1c3f d28c 4dbf
00000080: cacb 11bc 7db0 ab3e d8fb 4c3f 465a 583f
00000090: 43b2 1ebd 0d2e 943e aa57 b8be 0470 5e3e
000000a0: 89cd f23e 4564 cd3e 1fa1 8f3e 4883 a3be
000000b0: 8a6d 4ebf a44e b53e ecf6 3d3c c8a7 6fbe
000000c0: 324f 91bd 6c1e 3a3f
0.7919847 0.68320656 0.59142244 -0.40915385 0.12607647 -0.5131136 0.29595882 0.26051882
0.8395233 -0.78629184 0.18496308 -0.2603234 -0.5488281 -0.1969962 -0.016900567 0.41852927
-0.66303015 0.21621527 0.55626655 0.6790863 0.7137375 -0.8058779 0.43801197 -0.7376764
-0.34523878 0.56414455 -0.72422767 0.04440092 -0.123326056 0.22884664 0.61167866 -0.80293
-0.008898685 0.33533087 0.80071783 0.84512746 -0.038744222 0.28941384 -0.36004382 0.21722418
0.47422436 0.40115562 0.28052613 -0.31936097 -0.80635893 0.3541156 0.011594515 -0.23403847
-0.070951834 0.7270267

a f4 [20, 1]
00000000: a142 d73e f945 b7be 950c 073f 71a0 49be
00000010: 0fd1 09bf d41d 17bf 10fa 393f 17ed 003e
00000020: 7c09 423f 9e28 3dbf 2095 b1be a1d3 bd3e
00000030: 0dc5 953e 253b 5a3e 92ca c3be f628 013e
00000040: f03e 74bd 9a4f 59be 0030 abbe ff5e fb3d
0.4204302 -0.35795572 0.52753574 -0.1969011 -0.53834623 -0.5902989 0.7264719 0.12590443
0.7579572 -0.738901 -0.34684086 0.37075523 0.292519 0.21311624 -0.38240486 0.12613282
-0.059630334 -0.21221772 -0.3343506 0.122739784

W f4 [50, 6]
00000000: abf3 2cbd 7654 1bbc 16e6 d23e dac3 d53e
00000010: 6c86 07bd 0b0c 51be 58e7 9ebe 6806 5a3e
00000020: 8a7e b5bc d205 b13e caea 2d3e 9c83 bb3e
00000030: 5f83 6d3e 258a 993e cbd0 18be c984 c3bc
00000040: 3ee3 b43e c15a fabd b79b 873e 2f6d 6b3e
00000050: b03f 02bc 3e37 c93e 27b2 b63d fe2b ccbe
00000060: b8e8 87be f39f b53e c673 c2be fee7 c1be
00000070: e58a 79be 18c1 2dbe ab17 093e e54e 5bbe
00000080: 2bd5 ccbe f6d6 cb3e 7beb 43be 1883 4e3d
00000090: b25d 86bd f8cb 49be 28ab 113e 6356 e23c
000000a0: 295d 62bd 93bb b13e 94d2 993e 5e3f bbbd
000000b0: 62ff b6be 3b00 67be d95a c03d f87d 03bd
000000c0: 5e62 d83d 9ba7 883e 42af 41bc d374 febd
000000d0: 5476 f2bd 2f0f 7e3d 1e67 7f3e 3c48 16be
000000e0: d660 18be 69cc 793e d708 bb3e 4182 3d3e
000000f0: ab41 713e 35e7 e3bd de7e dfbd 6927 1fbe
00000100: 27bd 923d 65cc 1d3c 5a6f 88be fbe7 b4be
00000110: aafd 703d 279d aebc 53fc 203e 564b 82bd
00000120: a867 ac3e cd5f c6be 1364 b0be 10ec 2cbe
00000130: d814 c9be 6593 113e d5ea 223e b438 9c3d
00000140: b115 a1be eb89 2f3e 473f c5bc 2315 66be
00000150: cbca d23d cff2 a93e 84ae 41bc 4f5c 29bd
00000160: 5940 633e b64c 81bc 91dc ad3e ff14 813e
00000170: 93e3 9a3e a28f b938 4427 6fbe cfbc d4be
00000180: 801d ae3e 79ba ea3d f04e 123d 9332 99be
00000190: 3d18 ed3c fbe4 823e ad6e d13d 2af7 bcbe
000001a0: f83a 89be 2981 a9bd 9dca 633e da3c 64be
000001b0: d12e 75be 3aea b63d 2ea4 dfbe e17f ddbe
000001c0: 94a3 503d 3acd a0bc b1d4 c53e 233b 0cbe
000001d0: 366f f03e fa67 d23e 4679 a7bd f1a7 7dbe
000001e0: c983 61be 7391 abbe 95d9 bf3e 4e85 9cbe
000001f0: 1ce8 a0bd d2f1 9a3d 7288 673e a2ce e1be
00000200: 9a92 9bbe 3278 983e ed6b 9b3e 6867 5cbe
00000210: 9d0b 833e a30b bebe eb5f 92bd 9b33 f23e
00000220: b40a 7bbe ad2b e5be 1255 bebe 0017 d6bd
00000230: 1a0a d1be 06c9 8ebd 6a4e acbe 4c3c a3be
00000240: 7b13 3a3e f8c8 c23e 42f0 a43e d313 d8be
00000250: dccb 7bbd 76f2 9bbc 2b86 e7be 6e14 2dbe
00000260: b288 d9bd 8448 1f3e ff10 9fbe 1a7e f5bd
00000270: c556 9f3e d865 b03d 9732 a4be 6f8c 49be
00000280: 4fe4 bc3d ef4b 9ebe 7e35 573e a329 e2be
00000290: cb00 e03e 931c 82be 2155 cebc fafd b8be
000002a0: 26ff 6ebe 65bc 5ebe d17a aa3e 2cf4 92be
000002b0: 6cd3 763e 934d e13e 7dc5 7d3a e39c 3c3d
000002c0: 3c12 713e 6b4b a13e 8656 e63e 218f 7b3e
000002d0: 35fd adbe 9a0b ddbc 2d8c d6be 0502 91be
000002e0: 0791 9abe d4c7 c03e 89c9 483d d37d b7bd
000002f0: 64c8 c93e 2092 b9bd 2b80 c6be 8b87 bbbd
00000300: 233e c63e 3361 c8be e7cc dd3d bb69 3f3e
00000310: 04ff d6be c37b e13e 7e47 38be 0329 5cbe
00000320: 6f65 d43e ee72 843e 2047 af3e 77e4 1e3e
00000330: 97f8 c6be b5a4 e5be 2702 0cbd 78b3 e0bd
00000340: 815a 5cbd e421 243e 0e56 9d3e 4a90 a3be
00000350: 9360 ec3d 31bc 9f3e 54a2 b1be 9d9b f83d
00000360: 571b ca3e 1e60 bc3e 5ffa 81bd 01d5 0dbd
00000370: e8ce 42be 48c5 0d3d a020 bfbd 7cea 96be
00000380: 5fdf d03e 6064 d1be c228 12be f7de babd
00000390: 91bd c13e 211c 8fbe 398e d5be 17f2 d4be
000003a0: ef50 5ebe d7ea 0dbd 2232 e1be d8aa 7a3d
000003b0: d3a6 d0be 3b0b b2be 0fcc 803e 2972 36be
000003c0: c5a0 c6be effd 94be ccac 753e 8061 1abe
000003d0: 1f2a a03e c128 693e 2d93 c8be 779e 73be
000003e0: 224a fb3d 3c74 a5be ec0d 623a 038a ca3e
000003f0: 72eb 903d 10f4 6ebe 49af 53bd a6b7 62be
-0.042224567 -0.009480586 0.41191167 0.41750985 -0.03308718 -0.2041475 -0.31035876 0.21291506
-0.022155065 0.34574753 0.16984096 0.36623847 0.23194645 0.29988208 -0.14923398 -0.023867028
0.35329622 -0.12224341 0.26485988 0.22990869 -0.007949755 0.3929996 0.089206986 -0.39877313
-0.26544738 0.35473594 -0.37978953 -0.37872308 -0.2436939 -0.1696819 0.13387935 -0.21416815
-0.40006384 0.3981244 -0.19132797 0.05041799 -0.0656084 -0.19706714 0.14225447 0.027629083
-0.055264626 0.3471342 0.3004347 -0.09142946 -0.35741717 -0.22558682 0.09392328 -0.032102555
0.10565637 0.26690373 -0.01182157 -0.12424626 -0.118389755 0.0620262 0.2494168 -0.14675993
-0.1488069 0.24394383 0.36530182 0.18506719 0.23560207 -0.111280836 -0.1091287 -0.15542378
0.07164984 0.009631251 -0.26647455 -0.35333237 0.058835663 -0.02131517 0.15721254 -0.063620254
0.33672833 -0.38744965 -0.3445135 -0.16886926 -0.39273715 0.14216383 0.15909894 0.07628003
-0.31461862 0.17142455 -0.024078025 -0.22469 0.10292586 0.3319306 -0.011821393 -0.041347798
0.22192515 -0.015783649 0.3395734 0.2521133 0.3025175 8.848241e-05 -0.23354822 -0.415503
0.34006882 0.11461348 0.035719812 -0.29921398 0.028942222 0.25565323 0.10226188 -0.3690732
-0.26802802 -0.082765885 0.2224526 -0.22288838 -0.2394364 0.08931394 -0.43679947 -0.43261626
0.05093725 -0.01962911 0.38638833 -0.13694434 0.46959847 0.41094953 -0.08177428 -0.24771096
-0.22022928 -0.33509406 0.3747069 -0.30570453 -0.07856771 0.07565655 0.22610644 -0.4410296
-0.30385286 0.29779202 0.30355778 -0.21523821 0.25594798 -0.37118253 -0.07147201 0.47304997
-0.24515802 -0.44759884 -0.37174278 -0.10453606 -0.4082802 -0.06971936 -0.33653575 -0.3188194
0.18171494 0.38043952 0.32214552 -0.42202625 -0.061473712 -0.019036513 -0.4521955 -0.16902325
-0.10621776 0.15555006 -0.31067654 -0.119869426 0.31120887 0.08613175 -0.32069847 -0.19682477
0.09223234 -0.30917308 0.210165 -0.4417239 0.43750605 -0.25412425 -0.025187077 -0.3613127
-0.23339519 -0.21751554 0.33296826 -0.28701913 0.24104089 0.44004497 0.0009680612 0.046048056
0.23542112 0.31502852 0.44987887 0.24566318 -0.33982244 -0.026983071 -0.4190382 -0.28321853
-0.30188772 0.37652457 0.049020324 -0.08959546 0.39410698 -0.09061074 -0.3876966 -0.09156712
0.38719282 -0.39136657 0.10830098 0.18692677 -0.41991436 0.44039735 -0.17996022 -0.2150002
0.41483638 0.25868934 0.34233952 0.1551684 -0.38861534 -0.44852224 -0.03418174 -0.10971731
-0.05379725 0.16028553 0.30729717 -0.3194602 0.115418576 0.31198266 -0.3469416 0.12139056
0.39473984 0.36792082 -0.063465826 -0.034626964 -0.19024241 0.03461197 -0.093323946 -0.29475772
0.4079542 -0.40896893 -0.1427336 -0.091245584 0.3783994 -0.27951148 -0.4171007 -0.4159095
-0.21710561 -0.03464779 -0.4398356 0.061198086 -0.40752277 -0.34774193 0.25155684 -0.17816986
-0.38794532 -0.29099986 0.23991698 -0.15076256 0.31282136 0.22769453 -0.39174786 -0.23790918
0.12269999 -0.32315242 0.00086232903 0.3955842 0.07076158 -0.2333529 -0.051680837 -0.22140369

a f4 [12, 1]
00000000: d339 703e 21ba 33bf 08fd b4be 4bf1 63be
00000010: 41a3 a1be 4c3e e6be 2587 313f de59 5e3f
00000020: de8d 59be 64c3 283f 17a9 28bf a8a5 dfbe
0.23459558 -0.70205885 -0.35349298 -0.22260015 -0.31569865 -0.44969404 0.6934684 0.86855876
-0.21245524 0.6592314 -0.6588301 -0.43681073
