graph_model/encoder-checkpoint-6-3.pt (torch, 27882 bytes, 36 tensors)

W f4 [5, 10]
00000000: 4cbd 9c3e f280 9c3e 8405 16be df47 8e3e
00000010: b2f9 b8be f785 19bf ecb3 d7be 2b89 4dbf
00000020: 3908 193f bb3c 143f 4ac8 c13e 8906 b53e
00000030: 0144 0d3e 480b fa3e 8fc9 61bf ec8e 40bf
00000040: e05b a23e eace 1e3f 2b5b 453e 850d afbe
00000050: f2ce 433c dae5 4c3f 104d d63e e90d b53d
00000060: dca1 fe3e 2992 313e 3034 303e f8f1 28be
00000070: be48 00bf 39ca 0bbf 56e9 b4bd c6ee b53e
00000080: 1126 f5be 9bc3 42bf 3a8c 153e 54e1 f3be
00000090: 3445 19bf 92c0 27bf d154 d53d cb79 6bbd
000000a0: 39ff 4fbe ebe4 8fbe d58b cbbe fefc aabe
000000b0: 1516 2c3f 0d97 9cbe 0360 023d 9da7 02bf
000000c0: 500d d73e bc23 063e
0.30613172 0.30567127 -0.14650542 0.27789208 -0.36128002 -0.5997004 -0.42129457 -0.80287427
0.5977817 0.5790517 0.3784812 0.35356548 0.13795473 0.48836732 -0.8819818 -0.7521808
0.3171072 0.62034476 0.19273059 -0.34190002 0.011951195 0.80038226 0.4185567 0.08840544
0.49732864 0.17340912 0.17207408 -0.16498554 -0.50110996 -0.5460544 -0.08833568 0.35533732
-0.47880605 -0.7607972 0.14604273 -0.4763285 -0.5987122 -0.65528214 0.10416568 -0.057489198
-0.20312203 -0.28104338 -0.3975512 -0.33396143 0.67221195 -0.30583993 0.031829845 -0.5103701
0.42002344 0.13099569

a f4 [20, 1]
00000000: eb22 f83e 12de eabe 4b59 9d3e 99e8 d23e
00000010: 5700 2c3f f37a 923e a91f 97be bc92 143f
00000020: 9524 9cbe 6d4f d2bc 1117 22bf 79ee 2cbf
00000030: 63a3 a8be 4a21 5ebe f561 83be d292 3a3f
00000040: 4bf9 0a3f b6e5 a13b 0edf e7be 50d0 cdba
0.4846414 -0.4587255 0.30732188 0.41193083 0.6718802 0.28609428 -0.29516342 0.580364
-0.3049666 -0.025672639 -0.63316447 -0.6755138 -0.32937154 -0.21692386 -0.25660673 0.7288028
0.5428664 0.0049407138 -0.45287365 -0.0015702341

W f4 [5, 10]
00000000: 97b0 9f3e 730c 18bf 9387 53bf 1029 bf3e
00000010: 55a8 69bd b9be f13e 443b a1be 1b14 da3d
00000020: 089c 7c3d 28d2 0a3f c192 d93e 32ae 4dbf
00000030: 3006 323f 2494 b13e aaf6 45be 718b 3bbf
00000040: 8e70 023f 9832 fdbe 4b25 c3be 11f8 4abf
00000050: a2a7 fb3d 57aa 9ebe 9d75 cd3e dfd1 413f
00000060: cdb1 9d3e 3220 e93e fa9b 0f3f d922 2fbf
00000070: 518b 1d3c 7c5a dfbe c87a 5abd 94ea 50be
00000080: adcd 4c3f ecb2 2a3f 3670 5cbf 8b04 acbe
00000090: ceda 33bf b861 58bd 2cb4 c23e 3a90 573f
000000a0: 8ec9 2dbf 9161 273f 6331 f5be 5b66 56bf
000000b0: 4f8d b7be fa25 0c3f 3407 363f 62b2 563f
000000c0: d9c8 7bbe baef 5d3d
0.31189415 -0.59393996 -0.82628745 0.37336016 -0.0570453 0.47215822 -0.3149053 0.10648366
0.06167224 0.54226923 0.42494777 -0.80343926 0.6954069 0.34683335 -0.19332376 -0.73259646
0.50952995 -0.49452662 -0.3811439 -0.7928477 0.12287833 -0.30989334 0.40128794 0.7571086
0.30799714 0.45532376 0.56097376 -0.6841255 0.009615735 -0.43623722 -0.05333975 -0.20401984
0.80001336 0.66679263 -0.8610872 -0.33597216 -0.70255744 -0.052827567 0.38028085 0.8420445
-0.67885673 0.6538325 -0.47889242 -0.8374993 -0.35849997 0.5474545 0.7110474 0.8386594
-0.24588336 0.0541837

a f4 [20, 1]
00000000: a8ec 023e b4ce ecbe 26e3 bd3d c5f6 dc3e
00000010: 9a06 2d3f 9789 753e d5e6 e7be 214b febe
00000020: 7bfd 293f d4c1 fbbc d353 3d3e 9bbc 2c3e
00000030: 53fe e53e c48c 353f bf70 c33e 14b8 47bd
00000040: 75a4 cebe 0789 30bf 8aa0 8d3e e5fb 2f3d
0.1278559 -0.46251452 0.09271841 0.4315702 0.675882 0.23978268 -0.45293298 -0.49666694
0.66402406 -0.030732073 0.18489008 0.16868822 0.44920596 0.70917916 0.38171956 -0.048759535
-0.40359846 -0.6895909 0.27661544 0.042964835

W f4 [5, 10]
00000000: 7743 3cbf 7f53 28bf 67e7 e5bc 07e5 9bbe
00000010: 94e9 19be ff18 3fbf c96c 3e3f deaf 73be
00000020: 52b8 e43e e4aa 6c3d 7e20 403f cb68 debe
00000030: 8eb9 78be 55a7 5dbf c7ca 2a3f 31fb 373f
00000040: fd34 713d a3bc 003d ae3d b8be 02ed 37bf
00000050: 9731 c83e b6f7 d4bd fadf 09bf 247e 35bf
00000060: 6959 523d d49a 43bf 18d8 a1be 239b 043e
00000070: fe74 083f 3a37 4cbe f238 613f eff9 47bf
00000080: 730f 423f e85a 4f3f 5249 b43e 421b ab3d
00000090: bf19 2c3f e8d8 d6bc cfe1 0a3f 670f 5dbe
000000a0: a5e7 0a3f 7454 203f f729 63be a08d 533f
000000b0: 84bb 893e ce4c dcbe a897 cdbe 85f1 5c3e
000000c0: 6bee 2abf ef02 3e3f
-0.73540443 -0.65752405 -0.028064443 -0.30448171 -0.15030509 -0.74647516 0.7438474 -0.23797557
0.44671875 0.05778016 0.7504958 -0.43439326 -0.24289533 -0.86583453 0.66715664 0.7186766
0.058888424 0.031429898 -0.35984558 -0.7184602 0.39100334 -0.103988096 -0.53857386 -0.708956
0.0513548 -0.76408124 -0.3161018 0.12949805 0.53303516 -0.19942942 0.87977517 -0.78115743
0.75804824 0.80998087 0.3521219 0.083548084 0.67226785 -0.026226476 0.54250807 -0.21587907
0.5425971 0.62628865 -0.22183977 0.8263798 0.26900876 -0.43027347 -0.40154767 0.21576507
-0.66770047 0.74223226

a f4 [20, 1]
00000000: 9824 023e 6490 b73c 59b3 893e c376 c2bb
00000010: 2558 2c3f e06a 14bf 9eb1 a83e 84a6 00bf
00000020: 8d74 03bf 2dc3 833e f7ca 353f 7231 353d
00000030: c7cd 42bd 6655 27bf 4e75 dbbe 40f7 33bf
00000040: ec0f 06bf cb80 35bf 2d8d 453f cc7d 12bf
0.12709272 0.022407718 0.26894644 -0.0059345677 0.67322 -0.5797558 0.3294801 -0.5025408
-0.5134972 0.25734845 0.71012825 0.044236608 -0.047559526 -0.6536468 -0.42862934 -0.7029915
-0.52368045 -0.7089965 0.7716854 -0.572232

W f4 [5, 10]
00000000: 66c7 8b3e 93ab 713e 2d04 9a3e b6d1 7ebe
00000010: b5c4 f43d e757 213f 47da 193e 230a 25bf
00000020: 71d6 f43d 484b 5d3f 11a7 05bf ea9b 0f3f
00000030: 1685 28bf 89cb 49bf ae2b 3bbf e3b7 b13d
00000040: 438e 433f 71a8 b3be 38f3 303f 2573 c0be
00000050: 2666 6bbe 14b2 16bf f0a4 a23e ac5c f6bc
00000060: 10d9 253f df48 b13d c88a 8b3c 7a75 2dbe
00000070: 135f 2e3f fb15 5c3f 8499 3a3f e085 8f3e
00000080: ca0b 0dbf 1fb5 45bf a570 1ebe 8bcf c13e
00000090: 988e 463f bb41 423f 3169 a23e 752c 353f
000000a0: 1db0 dcbe 15e9 953e 303e 23bf 3798 e43e
000000b0: 64a3 fd3e 9410 e9bc d3e0 e13e 1453 3c3d
000000c0: ac3b 1b3f 8d99 52bf
0.27300566 0.23600607 0.3008131 -0.24884686 0.119515814 0.63024753 0.15024672 -0.6446859
0.11954964 0.86442995 -0.5220805 0.5609728 -0.65828073 -0.78826195 -0.73113525 0.08677652
0.7638895 -0.35089448 0.6912112 -0.37587848 -0.22988185 -0.58865476 0.31766462 -0.030073486
0.64784336 0.08656477 0.01703395 -0.16939345 0.6811382 0.8597104 0.72890496 0.28031826
-0.55096114 -0.77229494 -0.15472658 0.37853655 0.7756133 0.75881547 0.3172088 0.7077096
-0.43103114 0.2927939 -0.63766766 0.4464738 0.4953872 -0.028450288 0.4411684 0.045977667
0.6063793 -0.8226555

a f4 [20, 1]
00000000: 42ba a3bd 557f c93e 35b9 0a3f 47c8 0cbe
00000010: efca 843d 141d 233f 7dac 18bf ab86 b73e
00000020: 6e99 d4bd bc6d c6be 82c6 97be 72a1 373f
00000030: 5bdf 753e 5464 38bf 12c2 39bf 6349 2cbe
00000040: 1ae7 07bf 59da 513d 02f5 d53e 96fa 52be
-0.0799451 0.3935496 0.54188854 -0.13748275 0.06484019 0.63716245 -0.59638196 0.3584493
-0.10380827 -0.38755596 -0.29643637 0.7173072 0.24010985 -0.7202809 -0.7256175 -0.1682487
-0.5308701 0.051233623 0.4178849 -0.20603403

W f4 [5, 10]
00000000: 875b 1dbf 6d01 ea3d 91c0 5fbf 7acc 57bf
00000010: 9b83 b93e fdc8 15bf 39d7 343e 4b66 d93d
00000020: 4cc5 633f 57e5 1bbe 6e08 e13e 1a90 ea3d
00000030: 20d6 6fbe 61b9 c2be 72d5 eebd 6d69 1dbf
00000040: 49a9 353f e571 803e 6234 623f cff4 283f
00000050: b1c4 593f db37 d83e a010 69bf 4c15 943d
00000060: 1d6b 65bf f138 0bbe a73a 1fbf b7fc d83e
00000070: 1d7c 1a3f 121e 58bf 92be d53c d1fe 5e3f
00000080: e9a2 5d3f db53 973d 6731 18bf 6b8d dbbe
00000090: ba0a 143e e762 593f 4886 53bf 6b3f 09bf
000000a0: 65ca 143e 27b6 ef3e e56e 903e b1bc 16bf
000000b0: 314e ba3e 7bdf 423f 7945 26be 4fda 233f
000000c0: b629 333e 07d0 19be
-0.61467785 0.11426053 -0.8740321 -0.8429638 0.3623322 -0.5850981 0.17660226 0.10615214
0.88972926 -0.15224205 0.43951744 0.114532664 -0.23421526 -0.38032058 -0.11661805 -0.6148899
0.70961434 0.25086895 0.8836118 0.6599855 0.8506575 0.42230114 -0.9104099 0.072306246
-0.89616567 -0.1359594 -0.6219887 0.42380306 0.6034563 -0.84420884 0.026091848 0.8710757
0.86576706 0.07389041 -0.5945038 -0.4288133 0.14457217 0.8491654 -0.8262677 -0.53612393
0.14530332 0.4681866 0.28209606 -0.5888167 0.3638778 0.76122254 -0.16237439 0.6400499
0.1749638 -0.15020762

a f4 [20, 1]
00000000: fbfb ed3e dae3 5abe 0f82 2dbf 74d8 053f
00000010: 5f3e bb3e 526f 43be 2caa f6be cbbd e7be
00000020: d0df 04bf acad 93be 63a3 1dbf 52b6 423f
00000030: 5634 52be 6352 3abe 1809 1abf e423 c2be
00000040: b6e7 1d3f 56b8 70be 6df4 0dbf a522 19be
0.46481308 -0.21375981 -0.6777658 0.52283406 0.36571023 -0.19085434 -0.48176706 -0.45261988
-0.5190401 -0.2884344 -0.61577433 0.7605945 -0.20527777 -0.1819549 -0.60170126 -0.37918007
0.6168169 -0.23507819 -0.5545109 -0.14954622

W f4 [50, 5]
00000000: e301 b73e 9b62 cabd 8398 bf3e 92ba 58be
00000010: 231b 8f3d 3d67 9e3e 95f6 0f3e 48d7 29be
00000020: 6fce ffbc bd26 c9be 9eea acbe 1a93 b9be
00000030: 46af 1cbe e7f6 eb3d 3ad9 e43e 81e4 17bd
00000040: 70df 8b3e 9717 943e ef32 a1be 6db3 e1bd
00000050: 2222 ebbd 9e96 643c 2a82 0ebe 8569 9e3e
00000060: adf4 c2be 8af8 aebe 41c7 0ebd 5b41 183e
00000070: 8a57 4c3e 2f8c 1fbe 944e d43e b67b 2c3e
00000080: 04ea ad3e 29fa 0b3d b092 af3e 7563 d7bd
00000090: 4e28 ecbe 0722 79bd e001 dbbd 3d5b 88be
000000a0: 2921 c8be ec8b 89bb 9c48 aebe 0382 d2be
000000b0: 3bc5 dc3e 7cf5 bcbe 8857 bfbe 4c0c 073e
000000c0: 0e42 a8be d948 ccbd 0b50 ad3e 308f a43e
000000d0: 8da4 e23e a6de 973c 39d0 ecbc ed8c 543e
000000e0: 227e ce3e 21ed 7cbe ee72 a6be 123a 93be
000000f0: 600d b83e 7d56 4dbd 2dc4 9a3e a7fc b3ba
00000100: b1d3 cf3e 589d 3b3e c6b8 1a3e 2d44 ddbd
00000110: 1f04 29bd c16e ddbe 0389 c63c aa45 fa3c
00000120: 983d b03d 9bc8 dd3e 3bac 9cbe 9fb8 88be
00000130: 3c71 843e 7258 e0bc b69a 50be d0f4 7e3c
00000140: d158 c2be 7fdf cfbe 91c1 c63e aac3 f1be
00000150: 0c17 303e 2134 a83d ffa0 c73e 9697 b93e
00000160: b577 dabe 6ca7 adbc 35d2 8bbe 68ce 3f3e
00000170: 1866 a73e ac52 65be f1a1 a83e 04c0 95be
00000180: fe8c b5be 19a7 e13d 1cef 95bc 3914 b9be
00000190: 4211 a83e a369 213e cbda d7be fb37 c33d
000001a0: d16c 6d3e eb28 303c efa0 923d c98d 44be
000001b0: 5e45 b83e ca94 8a3d 61c5 acbe 3bc3 4ebe
000001c0: 546b 523d 3f48 afbd d991 c1be 7736 b23d
000001d0: a41b 0ebe d3a6 703d 9843 e4be ec11 ca3e
000001e0: 7cd7 f2bc c11c 81be 85e0 87be b6fa 903d
000001f0: 971e 9ebc f73e 05be 2d7f 0cbe a3a7 16be
00000200: 592e e1be 810f 13be c3ab 6f3c 7411 d7be
00000210: 7ff3 82be c1fe b4be b299 ea3e 09ba 09bd
00000220: e5a2 4e3e cc81 bf3c 7648 d2be 7c28 2fbe
00000230: 120c a4be 4be5 433e 2107 a1be cb50 043e
00000240: 87b0 41be 85d1 b6be 83a6 1c3d a1fc 5e3e
00000250: 7fc5 e63e 4c3b 07be 819e 783e cea2 ba3e
00000260: d3bd 85be fc88 36be 79ed fdbd b083 91be
00000270: 7855 f7be 3f7d 0e3d 9951 83be 01b2 bebe
00000280: 8ab5 8ebe d17a 85be 3328 8b3e 509b 34be
00000290: 903f 53be 7bf4 e4be 606f d53e 77bf b13e
000002a0: 92ce 2cbe 5aef 71be 428f 303e 3a2c 923e
000002b0: fe32 4f3e 9b3e d7be 94b0 8e3e da58 4ebe
000002c0: ec02 86be 7f32 cebd 3dd0 c3be 1fc3 3a3e
000002d0: 9cfe e43a 19e2 11be 3219 a2be 22b3 243e
000002e0: cb92 d4be 860e cebd 272c f3bd 8331 bc3e
000002f0: 4389 6a3d 20cf c3be c176 a83e 702b e43d
00000300: 2240 063d 0f4f cc3e c9e8 e1be 0d9d 8a3e
00000310: e8cf 313e 0284 a03e 8e10 183c f07f 81be
00000320: 8e56 e33d 227d 013e 48a8 eb3e e165 c73e
00000330: b043 983e d99d da3e 187d 7bbe 0ba3 ef3d
00000340: dc81 473e f3fa 4abe bdb9 5dbe be23 acbe
00000350: c47d af3e c259 163e f76c be3e 7790 edbe
00000360: 9457 95bd a098 7f3d 752e adbe b162 e9be
00000370: 8234 9ab9 2d47 8dbe cc74 c63e 8177 dcbd
00000380: 0e04 613e ee27 0ebe 1db3 6abe 2d5b e63e
00000390: 1218 a5bd 0254 d9be cadd 50bd 0c16 ac3e
000003a0: 8f84 b33e e92a 3f3e 096e 85be 711e ccbe
000003b0: 6542 c9be 6655 1b3d 6274 9dbe ce08 683d
000003c0: bade f4bd 31e9 573e f774 6f3d 6fd4 21be
000003d0: ee8c 88be ff93 4abe 81a4 d43d de47 c33e
000003e0: e67c 533e d5e3 8bbb
0.35743627 -0.09882089 0.37421045 -0.21164921 0.06987598 0.3093814 0.14058907 -0.1658603
-0.031226365 -0.39287367 -0.3377275 -0.36245042 -0.15301237 0.11521702 0.4469698 -0.037083153
0.27318907 0.28924248 -0.31484172 -0.11020551 -0.1148112 0.013951926 -0.13916841 0.3093988
-0.38077298 -0.34173995 -0.034857992 0.14868681 0.19955269 -0.1558082 0.414662 0.16844067
0.33967602 0.03417412 0.342916 -0.10517017 -0.461245 -0.060823467 -0.10693717 -0.2663211
-0.390878 -0.004197588 -0.34039772 -0.41114816 0.43119225 -0.3690604 -0.3737147 0.13188285
-0.32862896 -0.09974832 0.3385013 0.32140493 0.44266167 0.018538784 -0.028907882 0.20756884
0.40330607 -0.24699832 -0.3250956 -0.28755242 0.35947704 -0.05013131 0.30227795 -0.0013731912
0.40591195 0.1832174 0.15109548 -0.10804019 -0.041263696 -0.4324856 0.024235254 0.030550797
0.08605498 0.43317112 -0.3060015 -0.26703355 0.2586764 -0.027385924 -0.20371518 0.015561298
-0.37958387 -0.406002 0.38819554 -0.47219592 0.17196292 0.08213068 0.38990018 0.36248463
-0.42669454 -0.021197997 -0.27308813 0.18731081 0.3269508 -0.22394818 0.3293605 -0.2924806
-0.3545913 0.110181995 -0.018302493 -0.3614824 0.32825667 0.15762953 -0.42159113 0.09532162
0.23186041 0.010751943 0.07159602 -0.19194712 0.35990423 0.067666605 -0.33744338 -0.20191662
0.051371887 -0.08558702 -0.37806585 0.087017946 -0.13877732 0.058752846 -0.4458282 0.39466798
-0.029643767 -0.2521725 -0.26538482 0.07079069 -0.019301696 -0.130123 -0.13720389 -0.14712386
-0.43980673 -0.14361383 0.0146283535 -0.42005503 -0.25576398 -0.35350612 0.45820385 -0.033624683
0.20179327 0.023377322 -0.41070908 -0.17105287 -0.3204046 0.19130437 -0.3145075 0.12921445
-0.18914996 -0.35706726 0.038244735 0.21776058 0.45072553 -0.13206214 0.24279214 0.36452335
-0.26121387 -0.17825693 -0.1239881 -0.28420782 -0.48307395 0.034787413 -0.25648192 -0.3724518
-0.27872878 -0.26070264 0.27179107 -0.17637372 -0.20629716 -0.44717774 0.41686535 0.3471639
-0.16875675 -0.23626462 0.17242149 0.28549367 0.20234296 -0.42039952 0.27869093 -0.20151082
-0.26174104 -0.10068225 -0.3824481 0.18238495 0.0017470899 -0.14246406 -0.31659847 0.16083959
-0.41518244 -0.10061364 -0.11873656 0.36756524 0.05725981 -0.3824396 0.32903102 0.111410975
0.032776006 0.39904067 -0.44122913 0.27072945 0.17364466 0.31350714 0.009281291 -0.2529292
0.11100493 0.1264539 0.46026826 0.38944915 0.2973914 0.42698553 -0.24559438 0.1170102
0.19483131 -0.19822292 -0.21652885 -0.3362102 0.3427564 0.14682677 0.3719251 -0.4639928
-0.07292095 0.062401414 -0.33824506 -0.45583108 -0.0002941229 -0.27593365 0.38760984 -0.10764981
0.21974203 -0.1388242 -0.22919889 0.44991437 -0.08061232 -0.42446905 -0.050992765 0.3361057
0.35062072 0.18668713 -0.26060513 -0.39866975 -0.39308468 0.03792324 -0.30752856 0.05664902
-0.11956544 0.21085049 0.058461156 -0.15803693 -0.2667002 -0.19783019 0.10382939 0.38140768
0.20653114 -0.004269103

a f4 [10, 1]
00000000: 547c 8cbe ad6f 5fbf 4956 233f 623a b3bd
00000010: 3175 44bf cce1 4dbf 1826 803f 9af8 54bf
00000020: 11d2 edbe d2b2 97be
-0.27438605 -0.8727978 0.63803536 -0.0875137 -0.7674132 -0.80422664 1.0011625 -0.83191836
-0.4644933 -0.29628617

W f4 [5, 10]
00000000: 1619 533b a91e 1bbf 299a 05bf 5730 153d
00000010: 4f50 5d3f 7714 523f 227e 6a3d 25a6 60be
00000020: 9353 21be 3e5a d53e 204b c43e b4e1 7cbd
00000030: 9663 b4be 2db3 253f 9802 69be 55c3 56bf
00000040: 15c2 003f c96b 19be 461a b53b 2d19 51bf
00000050: 624c 25be a8c6 d6be 3037 613f 1f07 113f
00000060: de5f 25bd 0630 f53e e575 543e 64ff 3f3f
00000070: 6bee 943e 9ff7 d7be cc45 1a3f a714 86be
00000080: a0a4 b03d e0d6 c63e 2b4e f73e 559e 37bf
00000090: 7af4 123e d229 fd3d 218c 4a3f 8968 cc3d
000000a0: dd40 29bf f955 b83e f846 cd3e a4bd 633f
000000b0: 4141 52be de8a 49bf 8dfa 16bf 2bec 973e
000000c0: 79fd b8be 0b04 223f
0.0032210997 -0.6059366 -0.52188355 0.036423054 0.86450666 0.82062477 0.057249196 -0.21938379
-0.15754537 0.41670412 0.38338566 -0.061738685 -0.35232228 0.64726526 -0.22754896 -0.83891803
0.50296146 -0.14982523 0.0055268137 -0.8167904 -0.16142419 -0.41948438 0.87974834 0.5665149
-0.04037463 0.478882 0.20748098 0.7499907 0.29088148 -0.42181107 0.6026275 -0.2618763
0.0862515 0.38835812 0.48301825 -0.7172597 0.14351073 0.12361492 0.7912007 0.09980876
-0.661146 0.36003092 0.40093207 0.88961244 -0.20532705 -0.7872752 -0.5897606 0.2967237
-0.36130884 0.6328742

a f4 [20, 1]
00000000: b2e0 883e fda3 d9be 1cd7 3ebf 6cb7 103f
00000010: b8fd 35bf d54e fdbd da68 0a3f 726b 8b3c
00000020: 0ef6 c7bd 133f 32bf 103f 1fbf 6a6a c3be
00000030: 6e8d 263f 49de 643e 39c4 5c3e 5e2a d73d
00000040: 6336 0bbd 3296 afbe 2a0c 5a3d 3d97 bebe
0.2673393 -0.42507926 -0.7454698 0.5652988 -0.7109027 -0.12368552 0.5406624 0.017019007
-0.09763728 -0.69627494 -0.622056 -0.38167125 0.65059555 0.2235042 0.21559228 0.10506128
-0.033987414 -0.34294277 0.053234257 -0.3722476

W f4 [5, 10]
00000000: e1a4 3abf 681d f0bd 5294 c1be 2fde 2abf
00000010: 5f2f 89be 017f 41be 0ccb 1d3d 915e 113d
00000020: cbcb fbbe a76f c53e 232d 6cbe fcb9 773e
00000030: 6941 943e fa4a e8be 8520 a33e 485e 613e
00000040: 5ec4 213f 28ea 51bf 0243 bf3e 02d6 4cbe
00000050: e715 57bf 85dd 143d 5362 c1be 33b7 0a3e
00000060: 58f5 4ebd f091 1ebf 6b77 56bf f4ce 84be
00000070: 271e 843e 3a1c 3a3f 3344 41bf 47f1 cabe
00000080: 4fd9 b9be 297a 5ebf e04a 22bf 55a8 9cbe
00000090: 1a64 91be 686d e2be 6c65 273f dbf7 233f
000000a0: 4f60 20be 32c7 4abd 4382 013f f377 84be
000000b0: 576a cebd 4efe 98bd 50bb 22bf de99 613f
000000c0: 71c6 923d 5f9e 003f
-0.72907835 -0.11724359 -0.37808472 -0.66745275 -0.26793954 -0.18896104 0.03852372 0.035490576
-0.4917892 0.38561746 -0.23064093 0.24192041 0.28956154 -0.45369703 0.31860748 0.22008622
0.6319026 -0.8199792 0.3735581 -0.20003513 -0.84017795 0.03634407 -0.37770328 0.13546447
-0.050526947 -0.6194143 -0.8377597 -0.25939143 0.25804254 0.7269932 -0.7549469 -0.39637205
-0.36298606 -0.8690515 -0.633955 -0.30597177 -0.28396684 -0.44224095 0.6538913 0.6405007
-0.15661739 -0.049506374 0.5058939 -0.25872764 -0.100788765 -0.0747038 -0.63567066 0.8812541
0.07166756 0.50241655

a f4 [20, 1]
00000000: 982a dfbe cce9 8fbe 2fe1 2cbd cf83 203d
00000010: ff2d 2cbd 3448 353e bf1c c3be 25c7 1abf
00000020: 98a7 19bf 3ca5 3ebf 62ec 1bbe 0ab5 ccbe
00000030: a4fe ee3e d3c1 1cbf 5748 b8be b586 a3be
00000040: 5e1a 77be e75b 363f 2d6e 5e3e 3b5f 2b3f
-0.43587184 -0.2810806 -0.04220694 0.039188202 -0.042036053 0.17703325 -0.3810787 -0.6046012
-0.6002135 -0.7447088 -0.15226892 -0.39981872 0.4667865 -0.6123325 -0.3599269 -0.3193871
-0.24131152 0.7123398 0.21721716 0.66942185

W f4 [5, 10]
00000000: 60e2 a9be aaf6 323f 9be5 9abd 907a 043e
00000010: 7d47 ff3e 0b3b fe3e f1f1 1abf 4b11 3c3e
00000020: 3c0c 3a3f 8e56 33bf e1f6 2ebe c2a6 33bf
00000030: cea2 b13e 28d9 04bf d64c 63be 3689 32bf
00000040: dda5 073e e458 a9be 7cbb afbe c5f2 c4be
00000050: 72c2 b3bd fa58 18bf ac1e a5bd 84c3 79be
00000060: 7f9f 553f 6cd3 5c3f c5b7 58bf 5d1b 3f3f
00000070: 6340 8e3e 13af b5bd cf19 d7be 900c 2f3f
00000080: 531f cbbe dd0b b7be 2ea2 093f 0a3b 3abf
00000090: 8e3e 4fbf ca65 b03e 7524 03bf 3521 243f
000000a0: c603 4abf 88e6 933e 812c 40bf dfc3 fc3e
000000b0: b618 d23e 551b 00be b86c fd3e 6a56 45bf
000000c0: e08c fdbe 724a 2a3f
-0.33180523 0.6990763 -0.07563325 0.12937379 0.4985923 0.4965442 -0.60525423 0.18365972
0.7267492 -0.70053947 -0.17086364 -0.7017633 0.34694523 -0.51893854 -0.2219728 -0.6974062
0.13246866 -0.3307563 -0.34322727 -0.38466468 -0.08777322 -0.5951077 -0.08062491 -0.2439099
0.83446497 0.86260104 -0.8465541 0.7465113 0.27783498 -0.088712834 -0.42011878 0.68378544
-0.39672336 -0.35751238 0.5376309 -0.72746336 -0.80954826 0.3445266 -0.51227504 0.6411317
-0.7891201 0.2888682 -0.7506791 0.49368188 0.41034478 -0.12510426 0.49497008 -0.7708498
-0.49521542 0.66519845

a f4 [20, 1]
00000000: e365 45be eaeb 0ebf 811e 6a3e 39c1 0b3f
00000010: c36f ae3e 7a49 e83e 16ab 9d3e 357e 8d3e
00000020: 13e3 cebd 3c0c 283f f2dd 2ebd 23b8 e7be
00000030: 5249 82bd 21b9 c73e 8327 af3e 482c cf3e
00000040: 15f8 fa3d 3d41 eebe fc11 1c3f 3487 153e
-0.19277148 -0.55828726 0.22863199 0.5459171 0.34069642 0.45368558 0.3079459 0.2763535
-0.10101905 0.6564367 -0.042692132 -0.45257673 -0.06361641 0.3900843 0.34209833 0.4046347
0.12254349 -0.46534148 0.6096494 0.14602357

W f4 [5, 10]
00000000: a186 243d b4ec c2be 252d 5bbf bfcf 83be
00000010: 67fc 103d 0fb4 9b3e dbc7 393f d771 253f
00000020: eb93 2cbf 88c6 f5be 2ecb 2fbf 334f a93e
00000030: d1e5 72bd f020 20bf 1311 36bf 551f 55bf
00000040: 070e 663e 7616 51bf 50ee 09be 9d52 df3d
00000050: 0339 6abe 42c4 c73e 4e20 433f 2ce8 99bd
00000060: 049c b4be 76d4 2bbf 687e 4c3f d1de 673f
00000070: c399 423f 23a9 b9bd 0d01 b7be b84f 11bf
00000080: 4e80 e1be afea f1be 36b4 e1be 37ad 45be
00000090: d10f bb3e c5c6 26bf e730 433f 9294 19bf
000000a0: e737 f1be dc52 023f 0e11 00bf cc0f 9abe
000000b0: fd59 e63d 92dc 573f da1e 433f 207d 013f
000000c0: 9f26 4a3f 55eb 5abf
0.040167455 -0.38071215 -0.8561576 -0.25744435 0.03539696 0.3041081 0.7257058 0.6462683
-0.67413205 -0.4800303 -0.686694 0.33068237 -0.0593012 -0.6255026 -0.71119803 -0.83250934
0.22466289 -0.816749 -0.13469815 0.10904429 -0.2287331 0.3901692 0.7622117 -0.075149864
-0.3527528 -0.67121065 0.7988038 0.90574366 0.7601587 -0.090654634 -0.3574299 -0.56762266
-0.440432 -0.47249362 -0.44082803 -0.19304357 0.36535504 -0.6514705 0.76246494 -0.59992325
-0.47112963 0.50907683 -0.50026023 -0.30090177 0.11247633 0.8432094 0.7621895 0.5058155
0.7896518 -0.8551534

a f4 [20, 1]
00000000: 3175 fdbd 1856 41bf 5dec e9be d01b 41bf
00000010: 1ddd b93e 34f0 183f c384 d03e e470 22bf
00000020: 9511 a63e 56d1 e83e aa60 cbbe adc1 fdbe
00000030: bf60 dc3d cf1a 2c3f 37f4 30bf fbf1 94be
00000040: 80ce 103e dc8e a2be 5e9c 1dbf 2071 89bd
-0.12375868 -0.75521994 -0.45688143 -0.75433064 0.3630151 0.5974152 0.4072629 -0.6345351
0.3243529 0.4547221 -0.39722186 -0.49561825 0.1076064 0.67228407 -0.6912264 -0.29090866
0.14141273 -0.31749618 -0.6156672 -0.0671103

W f4 [5, 10]
00000000: be62 063f 2e15 453f c9dd 913e 3821 073f
00000010: 2179 03bf 3d71 823e e673 223f 354e 8dbe
00000020: 8e4e 43bf c801 51bf b0f3 90be 35a7 123f
00000030: 486a 29bd bdb0 d9bc c837 7dbe 630b 1ebe
00000040: a043 433f 2f0e 24bf 9e98 cf3e 4f95 14be
00000050: 1583 4abe ce24 2ebe fa9c 323f b21f 95be
00000060: de67 503f 2e5b f23e b7b1 42bf 47f1 4d3e
00000070: ec6a 103d 8b29 073f bc00 08bf 6baa 5fbf
00000080: bbfe 64bf 718b c7be 0e08 41bf 65b1 25bf
00000090: c191 5bbe d01d 7cbe d9a3 12bf 84e1 17bf
000000a0: 2f04 39be 0a38 f6be c3c4 2d3e 004c f9be
000000b0: 2a6e 02bf c431 223f 3ad0 f43e 8832 b0be
000000c0: 2dfa 423f 6429 1cbf
0.5249442 0.7698544 0.2848952 0.5278506 -0.51356703 0.2547702 0.63458097 -0.2759873
-0.7629174 -0.8164334 -0.2831092 0.5728639 -0.041361123 -0.026573533 -0.2472831 -0.15434031
0.7627506 -0.6408414 0.40546125 -0.14510082 -0.19776566 -0.17006227 0.6977078 -0.29125744
0.8140849 0.4733519 -0.7605242 0.20111571 0.03525822 0.52797765 -0.5312612 -0.8736941
-0.8945119 -0.38973573 -0.75402915 -0.6472381 -0.2144232 -0.24620748 -0.5728126 -0.59328485
-0.18068002 -0.4808963 0.1696959 -0.48690796 -0.50949347 0.63357186 0.47815114 -0.34413552
0.7616299 -0.6100066

a f4 [20, 1]
00000000: 53bd 263f a673 293e ca92 ebbe 088e 3e3f
00000010: 7a41 ccbd 78f4 96be 0f44 103d d190 85bd
00000020: f809 8bbd 3d32 933d 9f10 1abf 8b34 b13e
00000030: 73d4 b63d 8390 61bd f22e 103f 1a7d 143f
00000040: fc6a 0f3f 921d a73e 8e1b 04bf 3200 8f3d
0.65132636 0.16548023 -0.4601043 0.7443547 -0.09973426 -0.2948339 0.035221156 -0.06521762
-0.06789011 0.071873166 -0.6018161 0.346104 0.0892724 -0.055069458 0.5632163 0.5800339
0.5602262 0.32639748 -0.51604545 0.06982459

W f4 [50, 5]
00000000: 5faf c93e fc26 abbe 247f 9a3d 252d b63e
00000010: 4e44 863e 3143 d13e 3165 603e 27b5 82be
00000020: ab3e 2f3e d51f cfbd f988 04be b4fa b03d
00000030: a680 93be 20fc 95be 5afa 3c3d d876 ae3e
00000040: 1999 0f3e 5c94 17be cb1f c63e c992 b63e
00000050: 74c9 afbe 12e7 943c 0ab8 0d3e 6234 d83d
00000060: 1e45 3bbe 78cb 9dbd c1fb 52be 055b a53d
00000070: 162b c1be 28cc bd3d 0bb1 5fbe eeeb de3e
00000080: 7b57 043e 3308 41be f61c e3be 8b46 083d
00000090: e651 a33e 25af 0dbe 7fec 553e ae11 923b
000000a0: 0dcf a1be c16b a23d ce85 c13e 0412 0dbe
000000b0: 9a9b 8f3e 14e4 9cbe f119 a1be 7400 cdbe
000000c0: 7948 7dbe e7a4 0f3e 5a05 79bc d013 09be
000000d0: 6fa8 5b3e 2a6a 91bd b3a7 8c3e 2900 c83e
000000e0: a026 ee3d e837 bb3e 2ea2 0f3e 3a56 c33e
000000f0: 3fdb 97ba df59 a0be 364d 5f3e 2121 8a3e
00000100: badf 853e e235 a7be 8855 23be f6a9 f03e
00000110: a6be dbbe 49e9 41be 1a17 dfbe 3f15 65be
00000120: 63da ae3d dc97 a43d e32f 1a3e 59c9 9f3e
00000130: 18fe da3e edb7 913e 432a b5be b535 463c
00000140: 8094 443e c0af ccbe b452 f0be 1a1f 9c3d
00000150: 2117 a03e 348f 893e c1b0 87be 555b b73e
00000160: a7b3 883e 43b7 6a3e c79d 723e b537 cb3c
00000170: 860f dd3d a08a d2bd 5de8 443e f493 bbbd
00000180: 49a3 7dbd da66 11bc 1307 a03e 5942 e43c
00000190: 8940 eebd d459 d8be 8bf3 01be 4bbc 233e
000001a0: d7ac 703b 1694 5cbe 10c0 e03e de09 633d
000001b0: 7dd2 c53e a394 1abd 3634 8a3d 86f4 a7be
000001c0: ea16 5bbe 8201 8fbe 1473 acbe 218f c4be
000001d0: b101 82be 6bc3 b1be 19d7 c43e 88c3 33be
000001e0: d1ac c1bb 65e9 4cbd 0813 47bd 069d 693e
000001f0: d251 093e 978f c43e 93f4 8e3d 3628 e6be
00000200: 7670 143e 3241 57bd 5a5a f7be bb5c 8f3e
00000210: a395 5c3d 9ea7 213e 3a74 e63b 8b98 0b3c
00000220: 77b5 b83c 1fbf cbbe be14 a23e 3413 7dbd
00000230: 4b11 543e 4178 cabe 579d 14bd 9dbd 623d
00000240: fcd2 34be fdc2 b2be 59d1 d9be bfac 023e
00000250: a11d 9e3e b0d8 b73e 5dc2 fa3d 0573 acbe
00000260: e823 183d 11a2 d13e 45c8 82be 0f8d c7be
00000270: 2073 cdbd 9ee0 993d 287a 243e bbe5 24be
00000280: 1793 f73d 210c 1e3d fa78 eb3d 2004 6c3e
00000290: 823f 923e e22d 683e c91d 39be 36f1 a63e
000002a0: 08ba 6a3d e492 a83d e78b e13e 2bbf 1c3b
000002b0: f285 2bbd e000 be3d ba8e c23d 5ae0 b83e
000002c0: 4069 89be 2bae 8ebe a7f9 aebe b1e4 c33e
000002d0: bcbd c4be 5700 a2bb 3c7a 033e c2be 483d
000002e0: 6ce5 903e ea6f c2bd 2bc4 0a3d 8667 8f3d
000002f0: dc23 b5be 0e07 17be 3183 f13e 0ec6 1bbe
00000300: caa8 c53e 09a3 8a3d d445 20be 4c9b f2be
00000310: fa17 ff3d f732 9fbe 50ee abbc 598b dfbe
00000320: a246 553e 6133 d03e 6a45 09bd 596c 1c3e
00000330: c85e 903e d0f1 87bd 85c4 be3d a97d b2bd
00000340: 230d 2c3e 014f d4be cacc d1bd 3eca 5e3e
00000350: 73f0 7f3e 2962 d03e 4b29 97bd cb9d e0be
00000360: 5494 cabd 13d9 83be 418f 58be 46bc 72be
00000370: a8e4 543e a326 65bd 8942 af3e 4d83 213e
00000380: a897 6d3e 2cba dd3d d211 9ebe 6dfd 83be
00000390: 840d d83c 696d c03d 15ac cc3e 5cb3 553e
000003a0: 5319 1dbe 872a a0be 7a7e ea3e dda0 493e
000003b0: 6152 12be f68c 9a3e a8b5 cf3d 41c9 a53e
000003c0: 1dea 883d 6670 d03e ac4a a7be 9948 9dbe
000003d0: 2cbe d1bd 9693 92be d9a7 b33e a323 ebbd
000003e0: a39d a83e b221 0abe
0.3939161 -0.3342818 0.075437814 0.35581318 0.26223987 0.40871575 0.21913601 -0.25528833
0.1711375 -0.10113493 -0.12942876 0.08641568 -0.28809088 -0.2929392 0.04613719 0.34075046
0.14023246 -0.14802688 0.3869613 0.35658863 -0.34333384 0.01817659 0.13839737 0.10556866
-0.18288085 -0.07704824 -0.20603849 0.08074001 -0.37728184 0.09267455 -0.2184488 0.43539375
0.12923996 -0.18850784 -0.44358033 0.0332704 0.3189842 -0.13836344 0.20890997 0.004457674
-0.3160328 0.07930709 0.37797397 -0.13776404 0.28048402 -0.3064276 -0.31465104 -0.40039408
-0.24734677 0.14027749 -0.01519903 -0.13386464 0.21450971 -0.07100327 0.27471694 0.39062622
0.11628461 0.3656609 0.1402671 0.38151723 -0.0011585726 -0.31318566 0.21806797 0.269784
0.26147252 -0.32658297 -0.15950596 0.4700467 -0.4291889 -0.18936647 -0.43572313 -0.22371386
0.08537748 0.080367774 0.1505733 0.31208304 0.42771983 0.28460637 -0.35383806 0.012097766
0.19197273 -0.39977837 -0.46938097 0.0762312 0.31267646 0.26867068 -0.2650204 0.35811868
0.26699564 0.22921471 0.23693 0.024806837 0.107939765 -0.10280347 0.19229265 -0.09159079
-0.0619233 -0.008874619 0.31255397 0.027863668 -0.11633403 -0.42256033 -0.1269056 0.15989797
0.0036724114 -0.21540865 0.43896532 0.055429332 0.38637152 -0.037739407 0.0674824 -0.32803744
-0.2139546 -0.27930838 -0.33681548 -0.3839045 -0.25391915 -0.34719405 0.38445356 -0.17555058
-0.005910494 -0.05002727 -0.048602134 0.22813806 0.13410118 0.383908 0.069802426 -0.44952554
0.14496025 -0.05255241 -0.4831112 0.28000435 0.053853642 0.15786597 0.0070328983 0.008520256
0.022547467 -0.3979425 0.3165645 -0.06178589 0.20709722 -0.3954487 -0.036282863 0.05535661
-0.17658609 -0.3491439 -0.42542532 0.1276121 0.3088198 0.35907507 0.12244103 -0.33681503
0.037143618 0.4094396 -0.2554342 -0.38974807 -0.10031724 0.075135455 0.16062224 -0.1610326
0.12088602 0.038585786 0.11497684 0.23048449 0.28564078 0.22673753 -0.18077768 0.32605904
0.05730632 0.08231142 0.4405205 0.0023917656 -0.041875787 0.09277511 0.09499879 0.36108667
-0.26838112 -0.27867255 -0.34174845 0.38260415 -0.38426006 -0.004943888 0.12839597 0.049010046
0.28300035 -0.09494002 0.033878487 0.070021674 -0.3537892 -0.14748785 0.47170404 -0.1521227
0.38605338 0.06769378 -0.15651637 -0.47384107 0.12455745 -0.3109357 -0.02098766 -0.43661
0.20827726 0.406642 -0.033513464 0.15275706 0.28197312 -0.06637919 0.09314827 -0.08715374
0.16801886 -0.41466525 -0.102441385 0.21756837 0.24994068 0.4069989 -0.07380923 -0.43870386
-0.098915726 -0.25751552 -0.21148397 -0.23704633 0.2079035 -0.05594505 0.3423045 0.15772744
0.23202384 0.10826525 -0.3087297 -0.25779286 0.026373632 0.09395868 0.39975038 0.20869201
-0.15341692 -0.31282446 0.4579962 0.1969027 -0.14289238 0.3018567 0.1014207 0.32380107
0.066852786 0.40710753 -0.32674158 -0.3071945 -0.102413505 -0.28628224 0.35088995 -0.114814065
0.32932767 -0.13489416

a f4 [10, 1]
00000000: 38f3 79be b934 6e3e fc4e d7bd 9c53 2dbf
00000010: d7d1 493f 89dd c2be 6b89 b73e ed76 693f
00000020: b52b fc3e d4c7 4ebf
-0.24409187 0.232623 -0.10513112 -0.677057 0.78835815 -0.38059643 0.3584703 0.9119709
0.49252096 -0.80773664

W f4 [5, 10]
00000000: 4e82 a7be 983f 0c3f 5b8d 033e dc94 543f
00000010: 73a8 5a3f 13f2 5dbf e0c0 3fbe a948 c9be
00000020: dfc9 5ebe ec8f bfbe ef0b 61bf f684 e53e
00000030: 9d82 4f3f d764 07be 15d2 ecbe 2ed9 53bf
00000040: fb94 063f e6ad 62be 28e7 da3d d018 f1be
00000050: 621f 523f b7a1 0e3d c955 afbe 83aa 15bf
00000060: 2e30 fdbe 0a1b 06be 45a2 3e3d 0b61 ff3e
00000070: b0db 9a3e 7a53 8bbe bfad d0be 53e6 223f
00000080: 89b9 a83e 1355 a73c b63a 493f 323b 2d3e
00000090: 29be 02bf 2971 45be 1153 c5be b968 dc3e
000000a0: 8312 dcbe 61c0 0cbe 40e4 12bf e17f 8a3d
000000b0: 3f11 1f3e 4dd8 cebe 19da f03e ee39 4f3f
000000c0: e535 e5be 7b8a b03e
-0.32716602 0.54784536 0.12846892 0.8303964 0.85413283 -0.866975 -0.1872592 -0.39313248
-0.21756695 -0.3741449 -0.87908834 0.44828004 0.81058675 -0.13222061 -0.4625403 -0.82753265
0.52571076 -0.2213665 0.10688621 -0.47089243 0.82079136 0.034822192 -0.34245136 -0.58463305
-0.4945082 -0.13096252 0.04654147 0.49878725 0.30245733 -0.27212125 -0.40757558 0.63632697
0.32954052 0.020426309 0.7860521 0.16917112 -0.5107141 -0.19281448 -0.38539937 0.43048647
-0.42982873 -0.13745262 -0.5737953 0.06762672 0.15533923 -0.403994 0.47041395 0.8094777
-0.4476768 0.34480652

a f4 [20, 1]
00000000: 1958 d73e 1357 7fbe d39e 8b3e bcbb e73e
00000010: 693f 0c3f 1c32 b03e 308f 3fbe e582 803e
00000020: 219a 783e 4a8d 283f bb69 c03d baa1 123f
00000030: bdcb 06bf 9b39 c9be b12e 133e 6f41 2bbf
00000040: a66c 46be 8550 9abc 2cc5 2d3f 3995 25bf
0.420594 -0.2493556 0.2726961 0.45260417 0.54784256 0.3441323 -0.18706965 0.25099865
0.24277546 0.6584059 0.093951665 0.57278025 -0.5265463 -0.39301762 0.1437328 -0.6689672
-0.19377384 -0.018837223 0.67878985 -0.6468082

W f4 [5, 10]
00000000: 654e 523d be23 f9be 01b1 cd3e dac2 00bf
00000010: f3a4 3f3d aef6 073e 6ab4 123f d1ac edbe
00000020: a8f9 d6be 31bc 123e 38f8 1cbe 6e96 c8be
00000030: 5da4 3bbe 86b4 01bf 6b7c 09bf abe0 9ebd
00000040: 1f6e 9ebe ae55 64be 74ad 083e c401 ff3e
00000050: 5f32 1f3f fe37 d73e c57b 66bf 4110 a53e
00000060: b5d9 813e 37f6 a6be f7b2 533f 751e 433f
00000070: 956a 45bf 7de5 e5be dc5f e73e 941e a13e
00000080: d589 15bf 9118 b7be a83f bb3e cf74 e23d
00000090: 3add 263f 1cfa 65bf 6075 3e3f 136b 973e
000000a0: e623 06bf d07c c73e 4556 fdbe cb8d 82be
000000b0: 4124 3c3f 177d 76be d3fe e53d eafd 143f
000000c0: 80a9 5a3f 15b4 d1be
0.051344294 -0.48660082 0.40174106 -0.5029732 0.046788167 0.13277695 0.5730654 -0.4642091
-0.41987348 0.14329602 -0.15329063 -0.3917727 -0.18324418 -0.5066608 -0.5370547 -0.07757696
-0.3094339 -0.22298309 0.13347417 0.49806035 0.62186235 0.42034906 -0.9003261 0.32238963
0.2536141 -0.32609722 0.82694954 0.7621835 -0.77115756 -0.44901648 0.45190322 0.31468642
-0.5841344 -0.3576093 0.36572003 0.11057436 0.65181315 -0.8983476 0.7439785 0.2957388
-0.52398527 0.38962412 -0.4947988 -0.25498804 0.7349282 -0.24071155 0.112302445 0.5819994
0.85414886 -0.40957704

a f4 [20, 1]
00000000: 01d5 073f 23ca 27bf 7fcc 373f 57ab de3e
00000010: f084 133f 563e a0bb 2549 2b3f 1a74 c9bc
00000020: f201 03bf b6fb 073d 8da3 ccbe 524d 3d3e
00000030: 5eb6 c63e 4fac dc3e 0326 4c3e 2bac 27bf
00000040: f9b3 103f 68ff 3fbd ca08 1f3e 4bd3 40be
0.53059393 -0.6554281 0.7179641 0.43490097 0.5762472 -0.0048902435 0.66908485 -0.024591494
-0.51174843 0.033199035 -0.3996853 0.18486527 0.3881101 0.4310021 0.19936375 -0.6549708
0.56524616 -0.046874434 0.15530697 -0.18830602

W f4 [5, 10]
00000000: 42b2 1cbf 09fc 203f c087 b03e c4c9 243f
00000010: a4bd 383f 8ae2 093e c826 023f 0141 ff3e
00000020: be52 2fbf bad7 55bf 8812 41bf b237 8b3e
00000030: c9da dd3b be1d d43e 1971 30bf b876 233f
00000040: 52a7 22bf 9729 f43d 24ae 963e c8cf 54bf
00000050: f535 143f 9431 18bf 2f5e bf3e a3d2 33bd
00000060: 42bb 0fbe 9ac8 1ebe 0641 bebe 9889 49bf
00000070: bef6 593f 84fe 783e 166a db3e 46bb 1abf
00000080: 4080 a53e d53c 073f 304c 283e 4442 383f
00000090: 2b91 4b3e e367 25be 8c36 56bf 15d6 703e
000000a0: df44 033f f8d3 373f 36df 47bf ae4d 0bbf
000000b0: 7b24 043f c4e6 a53e d018 5e3f 5a72 4abe
000000c0: 67ec c03e 0a13 cbba
-0.612095 0.62884575 0.3447857 0.6437037 0.7216437 0.13465324 0.50840425 0.49854282
-0.6848563 -0.835323 -0.754189 0.2719093 0.006770466 0.4142894 -0.68922573 0.63853025
-0.6353656 0.11921995 0.29429734 -0.8312955 0.5789483 -0.5945065 0.37376544 -0.04390205
-0.14036277 -0.15506211 -0.37158984 -0.78725576 0.85142124 0.2431584 0.42854375 -0.60442007
0.3232441 0.528272 0.16435313 0.71976113 0.19879596 -0.16152911 -0.8367698 0.23519166
0.51276964 0.71807814 -0.7807497 -0.54415405 0.51618165 0.32402623 0.8675661 -0.19770184
0.3768036 -0.0015493345

a f4 [20, 1]
00000000: 6382 4bbe a546 11bf 5f00 16bf 61f1 a63e
00000010: dc2c ebbe 29ce e2bd c80a bc3e f68e c4bd
00000020: 313f 3c3f 8757 e23c e472 013f 03a8 7fbd
00000030: 403e b03d 3dae 013f a073 23bf 5b70 203f
00000040: 9c90 01bf 7150 ec3e deac 1ebf c50f 40be
-0.19873957 -0.5674842 -0.58594316 0.32606032 -0.45932662 -0.11074478 0.36726975 -0.0959758
0.7353392 0.027629627 0.50565934 -0.062416088 0.08605623 0.5065649 -0.63848305 0.6267144
-0.5061128 0.46155122 -0.61982524 -0.18756016

W f4 [5, 10]
00000000: 1239 523f 1aa8 363f 0460 b93e d1e6 f9be
00000010: b50f 17bf fae4 93be 27ce 45bf e8ef 0c3f
00000020: aa21 8d3e a235 e63e 3b7e cfbb e79e bdbe
00000030: 30d5 9abe 0320 573f 2b30 dfbd 520d 153f
00000040: d17e 243e 3c44 1dbf 938d c0be 56c6 b83e
00000050: 903b 663d db8f 50bf e2f2 b0be d007 b93e
00000060: 6059 f93e 429a a1be c7db 62bf 8d41 4abe
00000070: e348 2f3f 74cd 973e 882d 5ebf 1c01 f63e
00000080: d04a 5a3f 2cc3 16bf aa17 473f 98b2 09bf
00000090: 6570 093f b341 51bf 233a 223f 6ed1 3d3e
000000a0: 18ed 9c3c 5830 32bf 85f3 c43d 4053 d93e
000000b0: 8f17 12bf 3ec7 3b3f 662c 6fbe 5707 44bf
000000c0: 09ef 123f 01ca 62bf
0.8211833 0.7135025 0.36206067 -0.4880891 -0.5900834 -0.28885633 -0.7726769 0.5505357
0.27564746 0.44962794 -0.0063321865 -0.37035295 -0.30240774 0.8403322 -0.10897859 0.5822345
0.16064002 -0.6143224 -0.37608013 0.36088818 0.056209147 -0.81469506 -0.34560305 0.36138773
0.48701 -0.31563002 -0.88616604 -0.19751568 0.6847059 0.29648936 -0.86788225 0.4804772
0.85270405 -0.5889156 0.77770483 -0.5378814 0.53687125 -0.81740874 0.6336996 0.18536922
0.019156024 -0.69605017 0.0961676 0.42446327 -0.570672 0.73350894 -0.2335678 -0.765737
0.5739599 -0.88589483

a f4 [20, 1]
00000000: 4c72 5a3e 3007 eabb fb28 34bf c499 18bf
00000010: 026f c3bd c118 4d3e 72d1 f83e e060 c03e
00000020: 172f e3be a540 613e 7f85 20bf d1e9 1cbf
00000030: ce60 9ebd 4dcb 033f 53b4 1a3f f431 3dbf
00000040: 14f2 28bf dfde 3cbf 1f95 24be 3e85 37bf
0.21332663 -0.00714197 -0.7037503 -0.5960963 -0.095426574 0.20028974 0.48597294 0.3757391
-0.44371864 0.21997316 -0.627037 -0.61294276 -0.07733308 0.5148209 0.604314 -0.7390435
-0.6599438 -0.73777574 -0.1607251 -0.71687686

W f4 [5, 10]
00000000: a4cd 4a3f 767f 2e3f 46c6 173f 4f67 d3be
00000010: 673d 0a3e 651f 01bf ed02 963e 630a 833e
00000020: 5de2 563f b4e5 47bf 21ac 3e3e d2f7 85be
00000030: 0fc0 0bbf 69b7 4bbe a252 06bc 9f0d d73e
00000040: dd72 2abf 51b8 593e 47a7 0e3f 634a 2f3f
00000050: 0439 373f 5df0 4ebf 8ed5 de3e b2f9 3cbf
00000060: 6548 acbe f47f 103f 8784 3abf c3c6 2b3d
00000070: ea77 f6bd 17f8 6c3e e845 1b3f 3a8f 4dbf
00000080: 2b3f 5a3b b7be aa3e 10a9 4d3f a4bc 583f
00000090: e9dc 1dbd 95b6 923e 779e b9be 1115 673e
000000a0: d507 f43e a023 cc3e 715b 913e 41b0 a4be
000000b0: f1dd 4bbf 8bc4 b73e 55c2 043c 169f 74be
000000c0: b220 8bbd 70a5 3b3f
0.7922003 0.6816324 0.59286916 -0.41289756 0.13499986 -0.5043853 0.29299107 0.25593862
0.8393915 -0.78084874 0.1862035 -0.26165634 -0.54589933 -0.19894184 -0.008198412 0.4200258
-0.6658152 0.21261717 0.55723995 0.6847288 0.71571374 -0.80835515 0.43522304 -0.73818505
-0.33648983 0.5644524 -0.7285847 0.0419376 -0.120345905 0.23141514 0.60653543 -0.8029667
0.0033301811 0.3334863 0.80336094 0.8466284 -0.038540754 0.28654924 -0.36253712 0.2256663
0.47662225 0.3987093 0.28390077 -0.3216572 -0.7963553 0.35892138 0.008102973 -0.23888811
-0.067933455 0.7329931

a f4 [20, 1]
00000000: 16aa d33e b949 bbbe 12a6 053f 848d 40be
00000010: 7d7d 06bf 37b9 18bf 52d8 3b3f 7ede fb3d
00000020: 5f8b 403f d493 40bf 356f b3be 9b3a be3e
00000030: bedb 913e 6064 5d3e ab69 c2be 4a70 ff3d
00000040: 9b61 6dbd 041b 58be fd70 abbe 007e f83d
0.41340703 -0.36579683 0.5220653 -0.18803984 -0.5253523 -0.59657615 0.73376954 0.122982964
0.75212663 -0.7522557 -0.35045782 0.37154087 0.28487962 0.21620321 -0.37971243 0.12472589
-0.057954412 -0.21104056 -0.3348464 0.121334076

W f4 [50, 6]
00000000: 718b 1ebd ec35 d9ba fc9e d33e 9429 d53e
00000010: 324c 07bd 08b8 50be 9b50 a0be 0c28 5a3e
00000020: a6e2 c4bc 340a b23e b58a 253e 3411 ba3e
00000030: 1eda 6e3e b7df 973e f979 13be a7d6 c9bc
00000040: f8a5 b43e eec4 f9bd 971c 893e 4a4b 6b3e
00000050: 9da4 fdbb 2ae4 c73e ca4a b23d f386 ccbe
00000060: 682e 86be 23ad b53e 6e15 c2be 54d9 c3be
00000070: 9bd8 7bbe 11b8 2dbe 22af 083e ca67 63be
00000080: 43a8 ccbe 90c7 ca3e db77 39be 931d 5d3d
00000090: bc14 8abd 1e3e 4bbe 86ae 103e d76f f53c
000000a0: 3065 58bd b41d af3e 576d 9a3e 3bf0 a6bd
000000b0: 35cb b7be 377b 66be ceae ca3d b538 0fbd
000000c0: bfd0 d13d 9c37 843e 4c5e 17bc 71ea fdbd
000000d0: be43 e5bd aaad 843d 4233 803e 6557 1bbe
000000e0: f9b5 18be 0f24 773e 335e bf3e 3163 3f3e
000000f0: 1f77 753e c363 15be 9fc2 dabd 5572 24be
00000100: e5c3 c83d 1701 653c f747 87be 3287 bfbe
00000110: cad0 7a3d 6601 c5bc 4a26 353e 500f 7fbd
00000120: f072 ad3e fdb7 c5be a28b afbe aad9 30be
00000130: 95a8 c7be 26bd 153e b565 243e 1d24 803d
00000140: a6b8 9fbe e969 2d3e b608 88bb daa3 63be
00000150: e464 d53d 7c0f ab3e 1dc7 64bc d2be 33bd
00000160: 84dc 653e 2aed 7abc dc39 ae3e fdf8 813e
00000170: 77e8 9b3e 10ad a4ba 7803 6dbe 7bbc d2be
00000180: c62e ac3e a8e4 f03d 2cab 0c3d 82ff 97be
00000190: 40dc 7e3c a96b 813e eee5 cf3d e8b5 bdbe
000001a0: 41b9 88be 7b7c a6bd e5a2 6e3e d09a 65be
000001b0: 6122 74be 8cdf b93d 7e6c e0be 845b e0be
000001c0: fef3 623d 1d73 96bc d38f c63e e709 0cbe
000001d0: a702 f23e 1197 d13e 696d adbd 2cb2 7bbe
000001e0: 37ac 61be 1957 b2be 8ac1 c03e c0f0 9ebe
000001f0: e0d6 82bd 8f13 9e3d e418 683e 9a1d e1be
00000200: aff7 9cbe 1c11 9a3e 6995 943e 4ff5 5ebe
00000210: 8ed7 843e 96f0 c1be c220 8ebd 762b f03e
00000220: 8734 70be f554 e3be 0b69 bdbe 8748 d4bd
00000230: dd25 d0be 474f 8dbd d2cf aebe 6eab a3be
00000240: f02b 3b3e 9401 c33e 83ba a43e 323e d8be
00000250: e489 84bd 7e25 9abc c6ac e8be 1416 2dbe
00000260: ae79 e1bd 2443 233e bb4f a2be b255 fabd
00000270: 14e8 9f3e 85d7 b23d f51a a5be 54e0 4cbe
00000280: 8e7e b13d e89a 9dbe 3de6 573e b8b0 e1be
00000290: fb12 e13e 1a2b 83be 2f8d ccbc ca9e b7be
000002a0: 9c73 68be a4f9 4abe 27c5 aa3e 19fe 92be
000002b0: 1d4b 7f3e 00b7 df3e 8968 36b9 36c7 123d
000002c0: 5209 733e c912 9f3e 8cc6 eb3e 00d4 7e3e
000002d0: e31c acbe a804 b4bc 2e6d d6be 9998 90be
000002e0: 3621 9dbe 9c92 bf3e 21ea 4c3d 6c27 b3bd
000002f0: 0ab3 ca3e 3934 bdbd fd78 c8be d8e6 b7bd
00000300: b5b7 c63e 38d8 c7be 6a64 dc3d dfe3 3b3e
00000310: 60e2 d7be 5adf e13e 6c2a 33be 64f7 57be
00000320: 4fbf d23e 0e75 843e bf9b ae3e 54e1 1b3e
00000330: e69f c5be 31ee e3be 1df5 febc 498d e5bd
00000340: 0244 3cbd e77f 283e 3479 9d3e e83d a8be
00000350: 9f61 e53d 4a41 a03e 2878 b0be f2eb f33d
00000360: 5235 ca3e 005d c03e 2b96 77bd 06ef 16bd
00000370: 81a2 44be a78b 193d 0450 bdbd 190a 94be
00000380: b42b d23e 3d33 d2be 9335 11be 08f1 b5bd
00000390: e87f c03e a577 8fbe 8444 d7be 9c3e d4be
000003a0: 8aaf 61be 628c 14bd 0f66 ddbe b0a9 773d
000003b0: b3d0 cfbe 00a5 b3be 4cb5 843e 149c 35be
000003c0: 46ff c7be 3cc3 92be 114c 723e 96a6 17be
000003d0: 9773 983e 3a79 663e 4590 c9be 8b2e 75be
000003e0: dbbb fc3d f147 a4be 2f75 083b 3691 cb3e
000003f0: ab53 8a3d da21 70be 577c 56bd 2121 55be
-0.0387072 -0.0016571856 0.41332233 0.41633284 -0.03303165 -0.20382702 -0.31311497 0.21304339
-0.024033856 0.3477341 0.16166194 0.3634125 0.23325393 0.29662868 -0.14401998 -0.024638487
0.35282874 -0.121957645 0.26779625 0.22977939 -0.0077405707 0.39041263 0.08705671 -0.39946708
-0.2620728 0.35483655 -0.37906975 -0.38251746 -0.24594347 -0.16964747 0.13348058 -0.22207561
-0.39972124 0.3960538 -0.18112127 0.053983282 -0.06742236 -0.19847915 0.14129075 0.029960556
-0.052830875 0.3420235 0.30161545 -0.08151289 -0.35897222 -0.2250794 0.098966226 -0.03496619
0.10244893 0.25823677 -0.009238791 -0.12398232 -0.111945614 0.06478436 0.25039107 -0.15170057
-0.14913167 0.24134849 0.37376556 0.18690182 0.23971222 -0.14588837 -0.10681652 -0.16059239
0.09802989 0.013977311 -0.26422092 -0.37407833 0.061234273 -0.024048518 0.17690387 -0.062270463
0.33876753 -0.38616934 -0.3428622 -0.17270532 -0.38995805 0.14622936 0.16054423 0.06256888
-0.31195563 0.16934933 -0.004151429 -0.22230473 0.10419634 0.3341025 -0.013963488 -0.043883152
0.22447401 -0.015315333 0.34028518 0.25385275 0.30450794 -0.0012563784 -0.23145854 -0.41159424
0.33629435 0.11762363 0.03434293 -0.29687124 0.015555441 0.2527745 0.101512775 -0.37052846
-0.26703838 -0.081292115 0.23304327 -0.22422338 -0.2384124 0.09075841 -0.43832773 -0.4381982
0.05540847 -0.018365437 0.38781604 -0.13675652 0.4726765 0.40935567 -0.08468134 -0.24579686
-0.22038351 -0.34832075 0.3764766 -0.31043053 -0.063886404 0.07718574 0.22665745 -0.43967897
-0.30657718 0.30091178 0.2902024 -0.21773265 0.25945705 -0.37878865 -0.06939842 0.46908158
-0.23457538 -0.44400755 -0.36994204 -0.10365396 -0.40653887 -0.068998866 -0.3414293 -0.31966728
0.1827848 0.38087142 0.32173547 -0.4223495 -0.06471613 -0.018816706 -0.45444316 -0.16902953
-0.11009537 0.15943581 -0.31701455 -0.12223376 0.3123175 0.08732513 -0.3224713 -0.2000745
0.086667165 -0.30782247 0.21083923 -0.44080138 0.43959793 -0.2561882 -0.024969665 -0.35863334
-0.22700351 -0.19821793 0.3335354 -0.28709486 0.24930997 0.43694305 -0.00017395815 0.035834514
0.23734024 0.3106902 0.46049917 0.24885559 -0.3361579 -0.021974877 -0.41880172 -0.28241423
-0.306894 0.37416542 0.05002797 -0.087477535 0.3958972 -0.09238476 -0.39154807 -0.08979577
0.38812032 -0.3903215 0.1076134 0.18348645 -0.42164898 0.44115716 -0.17496651 -0.21090466
0.41161582 0.25870556 0.341032 0.15222675 -0.38598555 -0.44517663 -0.031122738 -0.11208589
-0.045963295 0.16455041 0.30756533 -0.3285973 0.1120026 0.31299812 -0.34466672 0.11910237
0.39493805 0.37570953 -0.060445946 -0.036849044 -0.19202615 0.0374867 -0.092437774 -0.28913954
0.41048968 -0.41054717 -0.14180593 -0.08883864 0.37597585 -0.2802097 -0.4204446 -0.41454017
-0.22039619 -0.036266692 -0.43241927 0.06046456 -0.40588912 -0.35086823 0.2591957 -0.1773532
-0.39061946 -0.28664577 0.2366183 -0.14809641 0.29775688 0.22507182 -0.3936788 -0.23943536
0.12340518 -0.32086137 0.00208218 0.39759225 0.0675424 -0.23450413 -0.052364673 -0.20813419

a f4 [12, 1]
00000000: 7bf4 723e f88c 31bf 462c b5be 1b0c 64be
00000010: 445b a2be 91fe e6be 4472 313f 2920 5f3f
00000020: 9dfd 42be 9afe 263f be33 29bf 1a71 e2be
0.23726074 -0.69355726 -0.3538534 -0.22270243 -0.31710255 -0.45116094 0.6931498 0.8715845
-0.19042058 0.6523224 -0.6609458 -0.44226915
