tests/binbin/policy_net.pth (torch, 7718 bytes, 6 tensors)

fc1.weight f4 [32, 4]
000000 f9 1b 9b 3e e3 54 3b 3c e6 47 46 bf 92 16 be 3e
       0.3029478 0.011433813 -0.7745346 0.37126595
000010 c7 82 ed 3d 2b c0 26 bf c6 00 45 bf bb 16 e4 3e
       0.115972094 -0.65136975 -0.76954305 0.44548592
000020 9a 6c 65 3e 48 ea 90 be 8b 11 2e 3d 0a 35 2d 3e
       0.2240471 -0.28303742 0.0424972 0.16914764
000030 ce 24 ff 3e d4 d4 22 bc c6 c9 85 bf 9c f1 22 bd
       0.49832767 -0.0099384375 -1.0452201 -0.039781198
000040 f7 03 69 3f 13 5e 14 3e f4 06 0a bf 58 4f b1 be
       0.91021675 0.14489011 -0.5391686 -0.34630847
000050 a9 a9 de be 06 25 47 3d af 00 81 be ac 80 40 be
       -0.43488815 0.048619293 -0.25195834 -0.18799084
000060 24 4e 8d 3e 46 5f a3 be 86 f9 35 3d 48 89 0d be
       0.2759868 -0.31908625 0.044427417 -0.138219
000070 6e d8 19 be 8a a4 17 3f 40 73 03 3f 96 c6 b2 3e
       -0.15023968 0.5923544 0.5134773 0.34917134
000080 fa 20 9f 3e 3c 7f be 3d 58 b9 db 3d 99 a2 43 bd
       0.31079847 0.09301612 0.10728711 -0.047762487
000090 b3 e3 d7 be 82 89 1c 3e 5d 4d bd 3d e3 2b 21 bf
       -0.42165908 0.1528683 0.092432715 -0.6295759
0000a0 0a a8 a1 bf 74 20 c4 be 27 2a a3 3f a8 26 c1 be
       -1.2629406 -0.3830601 1.2747239 -0.37724805
0000b0 32 11 fd be e1 a8 38 be ad 87 0f 3f 72 82 a0 3e
       -0.4942718 -0.18033172 0.560664 0.31349522
0000c0 1d 85 1f 3d ff e0 bf 3d d5 5b 0d bf b6 4b a2 3e
       0.038945306 0.093690865 -0.5521825 0.31698388
0000d0 87 ad 9b 3d 0f 5d 9d bc df 1d d3 be 88 2a d5 3d
       0.07601457 -0.019209413 -0.41233727 0.10408503
0000e0 d8 74 a9 3e 51 1d 16 3f 2a 11 dd be 6f db 03 bf
       0.33096957 0.58638483 -0.43177158 -0.51506704
0000f0 b5 e8 4f be e8 cd 94 bd 61 85 20 bf 6f 82 bf bd
       -0.20303614 -0.07265836 -0.6270352 -0.0935105
000100 91 43 00 3f 53 8a 09 3f db a6 56 be ae db 52 3d
       0.501031 0.5372669 -0.20962088 0.051479034
000110 a5 93 13 be 1b b2 bb 3d 51 8d 2c 3f 17 ff 5b 3d
       -0.1441179 0.0916483 0.6740313 0.05371007
000120 91 52 e1 3e 9f 91 18 3f 0a 4c a0 be 65 8d 00 bf
       0.44008306 0.595972 -0.31308013 -0.5021575
000130 5f 6a 01 3f ec 5b e1 3d 4d 8a 4f 3d 32 ae 83 be
       0.50552934 0.11003861 0.050669003 -0.25718838
000140 40 55 ce be d9 f6 55 be c2 4c 6f 3e 1d e0 be 3c
       -0.40299416 -0.20894946 0.23369125 0.023300225
000150 19 f1 cf be b1 70 84 be f4 a6 e6 3e 60 4a 28 be
       -0.4061363 -0.25867227 0.4504925 -0.16434622
000160 4f 5d 2e 3d 70 57 d9 3e 9c af 8c 3d b1 13 32 3e
       0.042569455 0.42449522 0.06869432 0.17390324
000170 f8 7b f8 be 81 72 f7 3d 4f 1c 4e 3e 88 de 9f bb
       -0.4853208 0.12082387 0.20127986 -0.0048788227
000180 72 c9 9b 3e 2f 7c 91 3e 49 cc 85 3f 80 75 61 bd
       0.30427128 0.28415057 1.0452968 -0.055043697
000190 87 3f 60 be 76 a2 67 be 0f 9c d8 bd f4 69 87 be
       -0.21899234 -0.22620568 -0.10576641 -0.26448023
0001a0 56 68 01 3e dd 22 6a 3d 28 52 18 bf 5b 3d 84 3e
       0.12637457 0.057162154 -0.5950036 0.2582806
0001b0 66 83 db 3c 9b a5 1d bc 75 5b af be b7 cd 6d 3d
       0.026796054 -0.009622003 -0.34249464 0.058057513
0001c0 c3 49 83 3e 13 ef 27 3f cb 93 db 3e e4 ae a3 3e
       0.25642213 0.65599173 0.42886195 0.31969368
0001d0 9f 0b fd bd f8 c0 02 be 49 fb ef be 99 6f 9d be
       -0.12355732 -0.12768924 -0.46871403 -0.30749205
0001e0 5b 53 b6 3d f2 16 7c be af 20 b6 3d 58 98 84 be
       0.089026175 -0.24618128 0.08892953 -0.2589748
0001f0 56 bf 28 3f 08 c6 f4 3e 7c 77 d1 3e 0c 17 c4 3d
       0.65916955 0.47807336 0.40911472 0.09574708

fc1.bias f4 [32]
000000 ba ba fd 3e c4 e8 09 3e 0e ad 94 bd 43 9b c5 be
       0.49556524 0.134677 -0.0725957 -0.38595018
000010 41 20 77 3e 13 70 f7 3e 40 e4 ad 3e 93 d4 eb 3e
       0.24133398 0.48327693 0.33963203 0.4606062
000020 49 a7 fd be 1d 5d a2 3d a7 23 78 3d ab 5e 29 be
       -0.4954169 0.07927916 0.060580876 -0.16540019
000030 be 2c a9 bd f0 e5 e9 3e 40 58 83 3e cf 46 2b bf
       -0.08260487 0.4568324 0.25653267 -0.6690492
000040 fc 9f 98 be 2f a3 1a bf f8 65 49 3f ce d7 d8 bd
       -0.29809558 -0.6040525 0.78671217 -0.105880365
000050 d9 da b8 be 72 40 1b 3f e4 ea 8d be fa f8 bf 3e
       -0.36104468 0.6064521 -0.2771827 0.37494642
000060 1e 7f e9 be 99 3d 1c bf 04 83 48 be c2 9c 04 3f
       -0.45604795 -0.6103149 -0.19581228 0.51801693
000070 f4 ea 40 3f f0 9c 92 be ba 99 b3 be 12 5e 34 bf
       0.7535851 -0.2863536 -0.35078222 -0.7045604

fc2.weight f4 [32, 32]
000000 92 5c e4 bd 14 89 94 3b 8e 86 b6 bd c5 d5 4e be
       -0.11150469 0.0045329425 -0.08912383 -0.20198734
000010 dc b8 63 3c 7b be a0 3e 09 16 b1 3d d3 e1 fa 3c
       0.013899054 0.31395325 0.08646781 0.03062526
000020 03 6a 63 be 69 9f f6 bc 38 03 1e be 34 c8 f2 bd
       -0.22208409 -0.03010531 -0.15430915 -0.11854592
000030 9d 5d 42 3c 71 23 9d 3d 5d 7c 7d bd 49 2e 64 be
       0.011863139 0.076727755 -0.06188618 -0.22283281
000040 59 8f 77 be 43 9d 16 be 90 12 94 3e d7 01 b4 bd
       -0.24175777 -0.14708428 0.28920412 -0.087894134
000050 7f be 10 be dc ba 1d 3e d2 c0 3a be 68 1d b5 3d
       -0.14135168 0.15403312 -0.18237618 0.088434994
000060 07 a7 4c be 8b ba e0 bd 08 29 a7 bc 4d 00 b7 3e
       -0.19985591 -0.1097308 -0.020405307 0.35742417
000070 58 c6 88 3e 03 58 e8 bd 12 60 cc 3c 1e 96 b9 be
       0.26713824 -0.11344912 0.024948154 -0.36247343
000080 b0 8c cd bd 31 14 99 be 6e 80 76 3e bc 8e ca 3e
       -0.100366 -0.29898217 0.2407243 0.39562023
000090 99 00 6f bd e6 95 64 be 14 20 cd bd dd 2c 09 be
       -0.05835018 -0.22322807 -0.10015884 -0.1339602
0000a0 eb ac d8 3e b7 7e 76 bd 72 03 f5 bc 9a 8c 91 bc
       0.42319426 -0.06017944 -0.02990887 -0.01776724
0000b0 b5 45 ae bd f2 bb 81 be b6 02 54 bc 35 aa 91 3d
       -0.08509389 -0.25338703 -0.012940099 0.071125425
0000c0 8a a9 08 3f 8c c9 b7 3e 1c 17 e3 bd f6 6a 11 3e
       0.53383696 0.35895956 -0.11088392 0.14200959
0000d0 e1 51 a5 3e e1 45 87 be 71 24 6d 3e 8f 77 fb be
       0.3228903 -0.264205 0.23158433 -0.49114653
0000e0 4b e8 c5 3e 70 f7 47 3e 6b 22 f0 3d f5 92 86 be
       0.38653788 0.19527984 0.11725315 -0.26283994
0000f0 d1 e7 04 be 9b 7a e7 bd 85 05 a2 3d f8 69 fe 3e
       -0.12979056 -0.11302682 0.07911209 0.49690223
000100 12 5a 30 3e d9 d9 b7 3c c8 f3 78 3e e1 85 6a 3f
       0.17221859 0.022442745 0.24311745 0.91610533
000110 a6 46 4b 3d 18 e4 53 3d 52 f3 d7 bc cb 30 8f bd
       0.049627922 0.0517312 -0.026361141 -0.069917284
000120 db 2f 74 3d 30 18 66 bc c0 3c 81 be 67 bb 05 be
       0.05961595 -0.014043853 -0.2524166 -0.1305977
000130 50 2b 1f 3e d2 2e 66 3e 2e 28 25 3e c0 dc 13 3f
       0.15543866 0.22478798 0.16128609 0.5775871
000140 33 bd 59 3e fa f2 c2 bd 03 b1 d2 3d 7d 92 d4 3d
       0.2126358 -0.09519 0.102876686 0.10379503
000150 d0 8e f4 3d 43 0e 9f be 7a c0 fd 3d c7 df 91 be
       0.11941302 -0.31065568 0.123902276 -0.2849104
000160 e1 8d 52 be 01 fc aa 3d d9 ed d6 3d 6a e0 39 3d
       -0.20561935 0.08348847 0.104945846 0.045380034
000170 a2 a5 fc be c6 07 3d 3e 84 86 06 3e 0d 9b 42 3e
       -0.49345118 0.18459997 0.13137251 0.1900446
000180 25 1b f1 3d 3b 79 c6 3d 27 14 28 bd 63 7e 08 3e
       0.117727555 0.096910916 -0.041034844 0.13329463
000190 9a a0 10 3e 67 dd 2b be 26 d7 01 3d ce d3 97 3c
       0.14123765 -0.16783677 0.031699322 0.018533614
0001a0 b2 ee 92 3e a4 1c 0d 3d fd e8 5a be 17 41 05 3e
       0.28697735 0.034451142 -0.2137794 0.13013111
0001b0 a2 18 13 3e 15 2d 09 bd ab 27 82 3e c3 9b 0f 3e
       0.14364865 -0.03349026 0.2542089 0.14024262
0001c0 d1 cb ad 3e 03 95 86 3e 55 1d 13 3e 11 04 cb bc
       0.33944562 0.26285562 0.14366658 -0.024782212
0001d0 fa 95 a8 3d fd 68 05 be 80 8a ae 3c 28 91 90 be
       0.08231731 -0.13028331 0.021306276 -0.28235745
0001e0 e3 ae a3 3e 45 bf 0d bd ee ca d0 3b b1 55 6a bd
       0.31969365 -0.034606237 0.0063718474 -0.057210628
0001f0 10 34 8b bc 77 b6 08 3e f8 c6 83 bd 83 41 c1 3e
       -0.016992599 0.13350855 -0.06434435 0.37745294
000200 9f 43 16 be 73 c2 d0 bd cf 6e 5f 3d 30 e5 06 3f
       -0.14674233 -0.10193338 0.054549035 0.5269346
000210 26 e3 a0 3d 8d da cc bd 5a 79 37 be 07 22 1c be
       0.07855825 -0.10002623 -0.17917386 -0.15247355
000220 e1 c9 bc 3e ff 7d 0d bd 53 50 96 bd 18 6b 4d 3e
       0.3687277 -0.034543987 -0.073395394 0.20060384
000230 d5 18 4a 3d 25 9c e2 bd 74 d0 d5 3d 9c f0 9d 3e
       0.049340088 -0.110649385 0.1044015 0.30847633
000240 f3 92 9f 3e e8 b0 4d 3d 77 c1 3f be 59 bb 19 3d
       0.311668 0.05021754 -0.18726145 0.037532184
000250 7e 24 83 3e ac df b7 bd 97 e7 ad 3d 31 3c 04 bf
       0.2561378 -0.08978209 0.08491438 -0.51654345
000260 a4 f9 03 3e 33 93 05 3d 4d 0a 34 3d e9 92 85 bd
       0.12888199 0.032611083 0.043955136 -0.065221615
000270 eb 6c a4 be 9a 1c 02 bd 6a ea 85 3e e6 f1 83 3e
       -0.32114348 -0.031765558 0.26155406 0.2577049
000280 4f 98 53 be 66 5f 70 be e0 b6 96 3d 0c 38 4f 3f
       -0.2066357 -0.23473892 0.073590994 0.80944896
000290 0f ab 86 3d 65 95 49 be 41 99 1e be e6 46 ae be
       0.065755956 -0.19685896 -0.15488149 -0.34038466
0002a0 d2 8f b1 3e 11 90 80 3d 15 83 95 be 4b eb 8f bd
       0.3468004 0.062774785 -0.2920157 -0.070273004
0002b0 95 e6 00 3e 58 1b 75 3d ca 08 05 bd fb 8d 6f 3e
       0.1258796 0.05984053 -0.032479085 0.23394005
0002c0 ae 52 4b 3e ef b8 8c 3e ee 72 2c be 5e e6 58 3d
       0.19855759 0.27484843 -0.16840717 0.05295407
0002d0 65 85 04 3d ea 59 a0 be 54 c5 00 bd e4 35 88 be
       0.032353777 -0.313186 -0.031438187 -0.26603615
0002e0 c0 fa 22 3d 5d 2b bc 3d 57 31 1a 3e 81 78 cd bc
       0.039789915 0.091879584 0.15057884 -0.025081875
0002f0 ac df 7e be b3 1c 1d 3e 30 50 1f 3e 66 4a 93 3d
       -0.24890012 0.15342979 0.15557933 0.07191925
000300 81 c9 99 bd 90 ae 94 3d 26 ad e1 3d 7f 07 90 3e
       -0.07509137 0.07259858 0.110193536 0.2813072
000310 10 b6 16 bd b2 55 44 be 74 e1 fd bd 58 6a c4 bd
       -0.036794722 -0.19173315 -0.123965174 -0.09590596
000320 40 c3 8f 3e c2 b2 0a bd 38 fc 02 3c e4 de e9 3d
       0.2807865 -0.033861883 0.007994704 0.11419466
000330 92 16 f5 bd f1 ac aa be f1 70 1d be a8 dd f2 3d
       -0.119671956 -0.3333507 -0.15375115 0.11858684
000340 74 44 a5 3e 04 9c d7 3e 1b b3 5e be dc 9d e4 3d
       0.32278788 0.42111218 -0.21748011 0.11162922
000350 18 b8 8a 3e 94 51 02 be e0 b4 60 3e 59 82 8c be
       0.27093577 -0.12726432 0.21943998 -0.27443197
000360 4b b7 36 3d 23 32 55 3e ba c9 78 3d a1 de 33 be
       0.044608396 0.20819907 0.060739256 -0.17565395
000370 27 63 a2 be e3 1e 35 3e 53 59 93 3e 48 e8 81 3e
       -0.31716272 0.17687564 0.28779086 0.2537253
000380 4c a5 21 3e 80 5b 06 bd e0 e0 47 be 38 dd e5 bd
       0.15785712 -0.032802105 -0.19519377 -0.11223835
000390 35 6f 0c bd e8 4e 7f 3e 08 60 73 3d 7e 5c 70 be
       -0.034285743 0.24932444 0.059417754 -0.23472783
0003a0 04 96 0a be 21 fa 90 3d 69 4d 52 3d 52 a1 8c bc
       -0.13533789 0.07078958 0.051343355 -0.017166767
0003b0 bd 21 0c be ef e9 04 3e e7 40 97 bd cc 9a 4f be
       -0.13684745 0.12979864 -0.07385426 -0.20273894
0003c0 1b f4 4b be ee 4a e1 ba 1b c4 32 3e ab 3a ae 3d
       -0.19917338 -0.0017188468 0.17457621 0.08507284
0003d0 92 c9 4b bd e1 70 0c 3e 96 e0 96 bd d9 5e 5b 3e
       -0.04975278 0.13714935 -0.07367055 0.214229
0003e0 c4 8a 03 3d ef e1 26 3d eb 34 a6 3c f0 29 06 3e
       0.03211476 0.04074281 0.020288905 0.13101935
0003f0 ea 4d b7 bc 98 92 e5 3d 67 a2 69 bd 54 ab 51 bd
       -0.02237602 0.11209601 -0.057039645 -0.05118878

fc2.bias f4 [32]
000000 c8 b3 9f 3d 4e f4 10 be e6 fe b0 bd 63 ff f9 bd
       0.077979624 -0.14155695 -0.08642368 -0.12206914
000010 6a b3 b2 be 1f ac 5f be 05 92 b2 be ca 30 11 3e
       -0.34902507 -0.21843003 -0.3487703 0.14178768
000020 f4 ca f8 bd 24 55 3c be 0a e7 97 be 37 76 c0 be
       -0.12148085 -0.18391854 -0.29668456 -0.3759019
000030 e1 a3 f7 3d 92 7d 5e be f2 86 9a 3e b4 99 d5 3e
       0.12091804 -0.21727589 0.3018108 0.4171883
000040 b4 4e e8 3e 6f 12 2c 3e b3 84 9d be 70 11 85 3e
       0.45372546 0.16803907 -0.30765304 0.25989866
000050 bf f0 ca 3e 1a 3b 8a be 6d a0 84 be c0 bc 0b be
       0.396368 -0.26998216 -0.25903645 -0.13646221
000060 4b 5b 8a 3e 5e b5 37 be 8c 5d b0 3e 3a 21 b0 bd
       0.27022776 -0.1794028 0.3444637 -0.086000875
000070 ed 7a 48 be c5 36 35 be d0 fb b8 be d9 9f 9f be
       -0.19578142 -0.17696674 -0.36129618 -0.31176642

fc3.weight f4 [2, 32]
000000 23 15 aa 3e f3 89 c4 be 71 11 09 bf d4 83 26 be
       0.3321925 -0.38386497 -0.5354224 -0.16261226
000010 a1 3a 65 be fc 1b 86 be 3e 2d 67 be 64 fd 86 3e
       -0.22385646 -0.26193225 -0.22575852 0.26365197
000020 8d f9 e9 3d 43 c9 d1 be d5 ce 8e be e8 7b 89 be
       0.11424551 -0.40973863 -0.27892175 -0.26852345
000030 f3 0c b8 3e 51 4f 24 be 66 9d 27 3e b7 e8 62 3e
       0.3594738 -0.16045882 0.16368636 0.22159086
000040 9d 00 a9 3e 4d bc ca 3e 98 36 8b be 4f 44 a7 3e
       0.3300828 0.39596787 -0.2719009 0.32669303
000050 e1 e8 9e 3e 15 20 a2 be b5 94 af be c7 72 48 be
       0.31037048 -0.31665102 -0.34293142 -0.19575034
000060 4e 79 3f 3e 82 cd a4 be 96 84 9e 3e 06 54 8f bd
       0.18698618 -0.3218804 0.3096053 -0.06998448
000070 40 b6 d9 be 28 fd 41 3c 56 d2 ba be 78 b4 d6 be
       -0.42521858 0.011840142 -0.364886 -0.41934562
000080 bc bf 12 3e b5 30 a2 be 51 89 b0 be ea 64 b4 be
       0.14330953 -0.31677786 -0.34479764 -0.3523324
000090 82 fd 92 be dd 8b a2 be 07 c7 cd be 91 ed a0 bc
       -0.28709036 -0.31747332 -0.40190908 -0.01964453
0000a0 aa 5f eb 3d 44 e6 a6 be 91 cc 83 be 0f 07 a4 be
       0.11492856 -0.32597554 -0.2574201 -0.32036635
0000b0 48 d6 8f 3e 5d 80 d6 be ed 33 92 3e 03 ec cd 3e
       0.2809317 -0.41894808 0.2855524 0.40219125
0000c0 13 c1 9b 3e 44 b1 1b 3e 5f 2c 2b be cc 95 c5 3e
       0.3042074 0.1520434 -0.16716145 0.38590848
0000d0 65 cf a8 3e e3 a3 6b be 1e 16 f3 bd 71 d2 c8 be
       0.3297073 -0.23011737 -0.11869453 -0.39223054
0000e0 39 66 8d 3e 7c 73 86 be a3 f0 59 3e 3d db 9f be
       0.27617052 -0.26259983 0.21283202 -0.31221953
0000f0 8b ff 99 be 8d b2 04 bf df f1 aa be 2c da 36 be
       -0.30077776 -0.51834947 -0.33387658 -0.17856663

fc3.bias f4 [2]
000000 05 49 b4 3e 67 89 3c 3e
       0.3521196 0.1841179
